remade/wide/modelpars_wide_i_7.safetensors (safetensors, 86584 bytes, 32 tensors)

bilstm.bias_hh_l0 f4 [64]
0	0xbe4c1cb1	-0.1993282
1	0xbd942a5c	-0.07234642
2	0x3e97c94f	0.29645774
3	0x3e2e5c05	0.1702729
4	0xbb21e182	-0.0024701064
5	0x3bb9faa3	0.00567563
6	0xbe46c2de	-0.19410273
7	0x3d930880	0.071793556
8	0x3e6ce717	0.23135029
9	0xbd027877	-0.031853165
10	0x3d8bca7d	0.06825731
11	0xbe2f3dc5	-0.17113407
12	0xbe35dccd	-0.1776001
13	0x3e402c3d	0.18766876
14	0xbe159d2a	-0.14610735
15	0xbd721ca5	-0.05910935
16	0x3d85a25b	0.065251075
17	0x3e715d9f	0.2357087
18	0x3e69f7c5	0.22848423
19	0x3e31a1d8	0.17346895
20	0x3e89f1d3	0.2694231
21	0xbe20e9f0	-0.1571424
22	0x3e244fbe	0.16046044
23	0x3dbb0e06	0.09133534
24	0x3e1ecf1a	0.1550869
25	0x3e858d1f	0.2608423
26	0x3e2d1187	0.16901217
27	0xbdf1f113	-0.118135594
28	0x3e825862	0.25458056
29	0xbe52c9ef	-0.20584844
30	0x3d9f78a7	0.077866845
31	0xbe1e4a5a	-0.1545805
32	0xbd77f604	-0.060537353
33	0xbe5999ec	-0.21250123
34	0xbc62a0ae	-0.013832254
35	0x3cf3dafe	0.02976751
36	0xbe19c161	-0.15015174
37	0x3cf53014	0.029930152
38	0x3c19388f	0.0093518635
39	0xbe1b409c	-0.15161365
40	0xbbe5d651	-0.007014074
41	0x3e80722a	0.250871
42	0x3e8c0b79	0.27352503
43	0x3dc3d4ef	0.09562098
44	0x3e30fe92	0.17284611
45	0xbdaea3d8	-0.085273445
46	0xbda329ad	-0.079669334
47	0xbe1cb3e5	-0.15303
48	0x3e36e87e	0.17862126
49	0xbe25646a	-0.16151586
50	0x3e92921e	0.28627104
51	0xbe3275b3	-0.17427711
52	0x3d4de643	0.050268423
53	0x3c33a660	0.01096496
54	0xbd84252b	-0.06452402
55	0x3e875c5c	0.26437652
56	0x3e86c714	0.2632376
57	0x3e1727e4	0.14761311
58	0x3de2b3bf	0.1106944
59	0x3e689cd9	0.22716083
60	0x3b34192d	0.0027480826
61	0xbe3c2cba	-0.18376437
62	0xbe0ed8ad	-0.13949843
63	0x3de1dbae	0.11028229

bilstm.bias_hh_l0_reverse f4 [64]
0	0x3c970304	0.018434055
1	0x3b13b9ae	0.0022541094
2	0x3e61daac	0.22056073
3	0x3d3d60e6	0.046234988
4	0xbe43d5fc	-0.19124597
5	0x3d8bd4d3	0.068277024
6	0xbd9d3a6b	-0.07677158
7	0xbde55d16	-0.11199395
8	0xbe179cbf	-0.14805888
9	0x3dad098b	0.08449086
10	0xbe1d2d26	-0.15349254
11	0x3da4481a	0.08021565
12	0x3e89edfd	0.26939383
13	0x3dffd8d0	0.124925256
14	0x3e764f12	0.240536
15	0xbe4c449a	-0.19948044
16	0x3e892017	0.26782295
17	0x3e895441	0.26822093
18	0xbe3742aa	-0.17896524
19	0x3d0ed429	0.0348703
20	0xbc13746e	-0.008999927
21	0xbdc8f06e	-0.09811483
22	0x3e5a6b37	0.21329962
23	0x3dca0a29	0.09865219
24	0xbd9549de	-0.0728948
25	0x3e17df60	0.14831305
26	0xbd480713	-0.04883487
27	0xbe44e0c9	-0.19226374
28	0x3d745e74	0.05966039
29	0x3e6645a6	0.22487506
30	0xbda82ae2	-0.08211304
31	0xbe576cb6	-0.21037564
32	0x3cc1df70	0.023666114
33	0xbe019254	-0.12653476
34	0x3e0eb488	0.13936055
35	0xbb55704a	-0.003256815
36	0xbe8104c2	-0.25198942
37	0xbe7ebba5	-0.24876268
38	0xbca1ae31	-0.019736381
39	0xbe62322f	-0.22089456
40	0x3e2dd72b	0.16976611
41	0x3da87171	0.08224762
42	0x3e65ef94	0.22454673
43	0xbe16795e	-0.14694735
44	0x3e1cbbfa	0.15306082
45	0xbe41175c	-0.18856567
46	0xbe3afd61	-0.18260719
47	0xbe0e2ff4	-0.1388548
48	0x3e8c7428	0.2743237
49	0x3b39b1f3	0.0028334826
50	0xbc9adb11	-0.018903287
51	0xbe145c32	-0.14488295
52	0xbd0ebe21	-0.03484929
53	0xbda9ecdd	-0.08297131
54	0xbe134f28	-0.14385664
55	0x3e60d474	0.21956044
56	0x3e41ee15	0.18938477
57	0x3d0e8063	0.034790408
58	0x3e17392b	0.14767902
59	0x3a9adce0	0.0011815093
60	0x3e0d0bae	0.13773987
61	0xbe096efc	-0.13421243
62	0x3d38c7b7	0.045112338
63	0x3e6f2029	0.23352112

bilstm.bias_ih_l0 f4 [64]
0	0xbe05fe81	-0.13085367
1	0x3aad41d6	0.0013218473
2	0xbe096b10	-0.13419747
3	0xbdf811c0	-0.121127605
4	0xbcf8d062	-0.030372802
5	0x3def987c	0.11699006
6	0x3e6f3108	0.23358548
7	0xbe34637a	-0.17616072
8	0xbd3eff47	-0.04663017
9	0x3e5eec2f	0.21769784
10	0x3e92bf9b	0.28661808
11	0x3e773e81	0.24144937
12	0xbe26dcf3	-0.16295223
13	0xbcb9517a	-0.022621859
14	0x3e3e68e8	0.18594706
15	0xbe727759	-0.2367834
16	0x3d88473b	0.06654211
17	0x3e67c9cb	0.22635572
18	0xbd8d9e50	-0.06914961
19	0x3e344394	0.17603904
20	0x3e7a5de3	0.24449877
21	0x3e60568c	0.21908015
22	0xbe00e079	-0.1258563
23	0xbd9fb588	-0.07798296
24	0x3e0c3a71	0.13694169
25	0xbe096c9e	-0.1342034
26	0x3bfbcf8b	0.007684653
27	0x3e1183f1	0.14210488
28	0x3e7095e8	0.23494685
29	0x3dd71450	0.10501921
30	0x3dbee4b3	0.09320965
31	0xbd5dd130	-0.054154575
32	0x3dd53a97	0.10411566
33	0xbe66de02	-0.22545627
34	0x3d9742e6	0.07385807
35	0x3e5174ae	0.20454666
36	0x3e1808eb	0.14847152
37	0xbe91f776	-0.2850911
38	0x3d61fadf	0.05517089
39	0x3d52d6ca	0.05147437
40	0xbdf1e544	-0.11811307
41	0xbe1d1cc8	-0.1534301
42	0x3c10c977	0.008837095
43	0xbdda0578	-0.10645574
44	0xbd9714fd	-0.0737705
45	0x3cf96dd9	0.030447887
46	0x3e59e71b	0.21279566
47	0xbde76896	-0.11299245
48	0x3e1917d2	0.14950493
49	0xbc0efc81	-0.008727194
50	0x3e770ecf	0.24126743
51	0x3e0e8ff3	0.139221
52	0x3d23e892	0.04001672
53	0xbcc02a6e	-0.023457732
54	0x3e6554c2	0.22395614
55	0xbdbb87d0	-0.091567636
56	0x3e7e7d8d	0.24852581
57	0x3da257cf	0.079269044
58	0x3e900082	0.28125387
59	0x3c43f167	0.01195941
60	0x3e8008cb	0.25006709
61	0x3e3f512c	0.18683308
62	0xbe5a8069	-0.21338047
63	0xbb94d0c4	-0.0045414884

bilstm.bias_ih_l0_reverse f4 [64]
0	0x3e249066	0.16070709
1	0x3e18cac1	0.14921094
2	0xbcc9e9d4	-0.02464763
3	0xbd4525c1	-0.048131708
4	0xbd8ced48	-0.06881195
5	0xbdbde2e9	-0.09271795
6	0x3e7e8951	0.2485707
7	0x3e6cc9e0	0.23123884
8	0x3dc5e6e1	0.09663177
9	0x3e544a09	0.20731367
10	0x3e4067f0	0.18789649
11	0xbbe4557d	-0.006968199
12	0x3e05bd77	0.13060556
13	0xbe1cc7d1	-0.15310599
14	0xbce932e6	-0.028466653
15	0x3e3e458e	0.1858122
16	0xbd17cea4	-0.037062302
17	0xbde259f9	-0.11052317
18	0xbd3767e8	-0.044776827
19	0x3e88f861	0.26751998
20	0x3d510550	0.051030457
21	0x3d171d5c	0.036893234
22	0xbe4be795	-0.1991256
23	0xbe6fab8a	-0.2340528
24	0x3e1d488b	0.15359704
25	0x3e79eff4	0.24407941
26	0x3e678848	0.22610581
27	0xbdee4e07	-0.11635976
28	0x3bb37f9f	0.00547786
29	0x3e178387	0.14796267
30	0x3d41e3dd	0.047336448
31	0x3abfd473	0.0014635458
32	0xbe6474ce	-0.22310182
33	0x3c01bd28	0.0079186335
34	0x3dd385ae	0.10328232
35	0xbab5e099	-0.001387614
36	0xbe7fb90a	-0.2497293
37	0xbdb323d2	-0.087470666
38	0x3dfba0e9	0.122865506
39	0x3d7a7eb5	0.061155993
40	0x3dfe9dbd	0.1243243
41	0x3e604803	0.2190247
42	0x3e632b58	0.22184503
43	0x3e31a640	0.17348576
44	0x3e03a350	0.12855268
45	0x3e31cfec	0.17364472
46	0x3e4f4be3	0.20243792
47	0xbe05d1fe	-0.13068387
48	0x3c953a56	0.018216293
49	0x3e14738e	0.14497206
50	0xbd9fdaa8	-0.07805377
51	0xbd9a8f90	-0.075469136
52	0x3e8526a6	0.2600605
53	0xbcb2fb0c	-0.021848224
54	0x3e4d0112	0.2001994
55	0xbe30a9e2	-0.17252305
56	0x3e374006	0.17895517
57	0x3e4f3361	0.20234443
58	0x3e7606b1	0.2402599
59	0x3e916feb	0.284057
60	0x3cd426d7	0.025897427
61	0x3e28a81e	0.16470382
62	0xbe43d099	-0.19122542
63	0x3e001614	0.12508422

bilstm.weight_hh_l0 f4 [64, 16]
0	0x3e0d6c8c	0.13810939
1	0xbe4d9ba1	-0.20078899
2	0x3e3cf3ad	0.1845233
3	0xbcd8135c	-0.026376419
4	0x37d66d23	2.5561609e-05
5	0x3cde7975	0.027157525
6	0xbe23b2ee	-0.15986225
7	0x3e4e7fac	0.2016589
8	0xbd7be388	-0.061496288
9	0x3e45146d	0.19246073
10	0x3e3a231e	0.18177459
11	0xbda2ce12	-0.07949461
12	0x3d831ab6	0.06401579
13	0xbd270a0a	-0.04078106
14	0xbde4da41	-0.11174441
15	0x3dadc210	0.0848428
16	0xbe2fc42f	-0.17164682
17	0x3d9e951c	0.07743284
18	0xbd5ed144	-0.05439879
19	0x3e8622c4	0.261984
20	0x3e4a29a2	0.19742444
21	0xbbaba2f9	-0.0052379337
22	0xbe61c629	-0.22048248
23	0xbe036c97	-0.12834392
24	0x3ccc2d45	0.02492393
25	0x3e060346	0.13087186
26	0x3d209107	0.03920081
27	0x3e5d08a7	0.21585332
28	0xbccd4b4c	-0.025060318
29	0x3e6e3915	0.23263963
30	0xbe7cfa85	-0.2470494
31	0xbe651c6a	-0.2237412
32	0xbe7290a1	-0.23687984
33	0xbd054651	-0.032537762
34	0xbea2ff64	-0.31835473
35	0x3c9e7695	0.019343654
36	0xbe24d048	-0.16095078
37	0xbe3960bd	-0.18103309
38	0xbdf73f8e	-0.12072669
39	0x3e04c12c	0.12964314
40	0xbe18f615	-0.14937623
41	0x3d3e9732	0.04653091
42	0x3e4d9652	0.20076874
43	0x3e2b7510	0.16743875
44	0xbd386723	-0.045020234
45	0x3e946bab	0.28988394
46	0xbe93f7c9	-0.28899983
47	0x3e91dc5b	0.2848843
48	0x3e59af36	0.21258244
49	0xbe6c6661	-0.2308593
50	0xbe65789b	-0.22409289
51	0xbd8072fc	-0.062719315
52	0x3d98019f	0.07422184
53	0xbe755fbc	-0.23962301
54	0xbca3d212	-0.01999763
55	0x3c84ccfa	0.016211022
56	0x3e0bac27	0.1363989
57	0x3e6758b5	0.22592433
58	0x3e7b994d	0.24570198
59	0xbe085ac1	-0.1331587
60	0x3e3a92ef	0.18220113
61	0xbdf89887	-0.12138467
62	0x3dadabc6	0.08480029
63	0xbe68839e	-0.22706458
64	0xbddba6d1	-0.10725177
65	0xbd8a562d	-0.06754718
66	0xbe668e2b	-0.2251517
67	0x3e05fac1	0.13083936
68	0x3e44345d	0.191606
69	0x3e5affce	0.21386644
70	0x3e200f0d	0.15630741
71	0x3e36c98b	0.1785032
72	0xbe3f770c	-0.18697757
73	0x3dc74096	0.09729116
74	0x3ddc6185	0.10760788
75	0xbe4b00b0	-0.19824481
76	0x3cf78f22	0.030219618
77	0xbc29a4f1	-0.0103542665
78	0xbe0d64a8	-0.13807929
79	0xbe3f246a	-0.18666235
80	0x3d74a6b6	0.0597293
81	0x3e8bc94c	0.27302015
82	0x3db6714b	0.08908328
83	0xbe9563ca	-0.29177696
84	0xbe2e00a8	-0.16992438
85	0xbe427071	-0.18988205
86	0xbe6181dc	-0.22022194
87	0x3c37932a	0.01120452
88	0x3e9130b7	0.2835748
89	0xbd5a5c05	-0.053310413
90	0xbe20d1d0	-0.15705037
91	0xbd96262f	-0.07331502
92	0x3e068dcd	0.1314003
93	0xbe916a4a	-0.28401405
94	0xbc1046b7	-0.008805922
95	0xbd9f172f	-0.07768094
96	0xbe4bd599	-0.199057
97	0xbe1ad7fb	-0.15121453
98	0xbe054956	-0.13016257
99	0xbe4771f1	-0.19477059
100	0xbd48f054	-0.04905732
101	0xbe4989ee	-0.19681522
102	0xbc342432	-0.010994958
103	0xbc8c1e1e	-0.017104205
104	0x3df2bbb9	0.118522115
105	0xbb18abfa	-0.0023295865
106	0xbe5735f8	-0.21016681
107	0x3d1e139c	0.03859292
108	0x3c23122f	0.009953066
109	0xbe0b2c3c	-0.13591093
110	0xbdc99e11	-0.09844602
111	0x3e73ce72	0.23809221
112	0xbe70282b	-0.23452823
113	0xbcc63182	-0.024193529
114	0xbda41edb	-0.08013698
115	0x3e3236c9	0.17403711
116	0x3e2bcc11	0.16777064
117	0x3e0c1c32	0.1368263
118	0x3d0f9bf1	0.035060827
119	0xbe20e3f2	-0.15711954
120	0xbde270ee	-0.11056696
121	0xbe2dfac1	-0.16990186
122	0xbe1c1cab	-0.15245311
123	0x3d34d23c	0.044145808
124	0xbe3d6870	-0.18496871
125	0xbe6518ce	-0.22372743
126	0xbe01ec27	-0.12687741
127	0xbe5f13e2	-0.21784928
128	0x3d2abc2a	0.041683353
129	0xbe9047a7	-0.28179666
130	0x3dfcf313	0.1235105
131	0x3e526c14	0.20549041
132	0x3e1ca6ec	0.1529805
133	0xbd5d6379	-0.054049943
134	0xbd465396	-0.048419558
135	0xbd96e60f	-0.07368099
136	0xbe0952b6	-0.13410458
137	0x3e5ec97d	0.21756549
138	0x3e202c83	0.1564198
139	0x3e6401ef	0.22266363
140	0xbd8a7c27	-0.067619614
141	0x3e008905	0.12552269
142	0x3dc11762	0.09428288
143	0x3e1c1896	0.15243754
144	0xbe17b9ae	-0.14816925
145	0xbe4da0fe	-0.20080945
146	0xbc351284	-0.011051778
147	0x3e3cb0dc	0.18426841
148	0xbe725232	-0.23664168
149	0xbc6c3004	-0.014415745
150	0x3c0a83b7	0.008454255
151	0xbd5fa682	-0.054602154
152	0x3d07b3b7	0.033130374
153	0xbcb28df8	-0.021796212
154	0xbe060b21	-0.13090183
155	0x3e3ba6f7	0.18325411
156	0x3e94a5c7	0.29032728
157	0xbd18a303	-0.037264835
158	0xbe83d2d6	-0.25746793
159	0xbd327bcd	-0.043575097
160	0x3e7406d2	0.23830727
161	0xbcb9efa7	-0.022697283
162	0x3dca5d9c	0.09881136
163	0x3e2a8e77	0.16655909
164	0xbbd60088	-0.006530825
165	0x3cd0ac1a	0.02547269
166	0x3d6f1d7e	0.058377735
167	0xbe5411d6	-0.20709929
168	0x3dfea9a8	0.12434703
169	0x3d1324dd	0.035923827
170	0x3e33c7d7	0.17556702
171	0x3d047135	0.032334525
172	0xbe2eca01	-0.17069246
173	0x3de04c7b	0.109520875
174	0x3d8fdb5c	0.07024261
175	0x3e5a662b	0.21328036
176	0xbe32464b	-0.17409627
177	0x3e14f627	0.14547025
178	0x3dea156b	0.114298664
179	0x3d8c2368	0.06842691
180	0x3cf15e0a	0.029463787
181	0xbdf1a36f	-0.117987506
182	0xbaa47bd7	-0.0012549114
183	0xbe6964d6	-0.22792372
184	0x3e300cd3	0.17192392
185	0x3cd1c03d	0.025604362
186	0x3e81b4ff	0.25333402
187	0x3e5062fb	0.20350258
188	0x3e85db26	0.2614376
189	0xbe3ddb3d	-0.18540664
190	0xbdba1e84	-0.09087852
191	0x3d71ee90	0.0590654
192	0x3e0c960a	0.1372911
193	0xbe9ad676	-0.30241746
194	0x3e48f751	0.19625594
195	0x3e9672ff	0.2938461
196	0xbe069d7e	-0.13146016
197	0xbd526f5a	-0.051375724
198	0x3de6bf81	0.11266995
199	0x3d862f4a	0.065519884
200	0xbe882a63	-0.26594839
201	0xbde98d0a	-0.11403854
202	0x3e17b5b4	0.14815408
203	0x3d0327fa	0.032020546
204	0xbe2a98e3	-0.16659884
205	0x3def40ef	0.11682307
206	0xbe82e618	-0.25566173
207	0x3e7b5ec4	0.24547869
208	0x3d5338e3	0.051567923
209	0xbe04d457	-0.12971626
210	0xbe6885e1	-0.22707321
211	0xbc4e2c6a	-0.012583831
212	0x3d83065c	0.06397697
213	0x3e60abc7	0.21940528
214	0x3dd7b4ee	0.105325565
215	0xbe91cf56	-0.28478497
216	0xbcc11671	-0.023570271
217	0xbd2735ce	-0.040822797
218	0x3e61cc02	0.22050479
219	0xbe3c7993	-0.18405752
220	0x3e4e40f3	0.20141964
221	0x3d901f32	0.070372
222	0xbe5ccb82	-0.21562007
223	0xbdcdb370	-0.100439906
224	0x3e35ccbb	0.1775388
225	0xbdc9b1c4	-0.09848359
226	0xbe10f6ec	-0.14156693
227	0xbe62f428	-0.2216345
228	0x3e62e2c5	0.22156818
229	0xbd2b5942	-0.04183317
230	0xbe024def	-0.12725042
231	0x3e015760	0.12630987
232	0xbdcab76a	-0.09898265
233	0x3d9bb554	0.07602945
234	0xbd74f046	-0.059799455
235	0x3cb0a6ab	0.021563848
236	0x3d54006a	0.051758207
237	0x3e537ec2	0.20653823
238	0x3d1628d3	0.036660027
239	0x3e3ad6aa	0.1824595
240	0x3d983b23	0.074331544
241	0x3c1f6e9a	0.009730959
242	0xbda25146	-0.07925658
243	0xbbad324d	-0.0052855373
244	0x3dc1e2f2	0.094671145
245	0x3d87105b	0.065949164
246	0x3c1ae0c6	0.009453004
247	0xbe6b07e5	-0.2295223
248	0x3e135b1b	0.14390223
249	0x3e12a148	0.14319336
250	0xbe5178c1	-0.2045622
251	0x3e86ca4b	0.26326212
252	0xbd1980cc	-0.037476346
253	0x3e832a91	0.25618413
254	0xbe3c9580	-0.18416405
255	0xbd5e8e79	-0.05433509

bilstm.weight_hh_l0_reverse f4 [64, 16]
0	0xbe3b28e7	-0.18277322
1	0xbe8e3dd6	-0.27781552
2	0xbe4497b3	-0.19198494
3	0xbd900ce1	-0.070337065
4	0xbe1832f6	-0.1486319
5	0xbe075f84	-0.1322003
6	0xbdfacb8e	-0.12245856
7	0xbc30285c	-0.01075181
8	0xbe22694f	-0.15860485
9	0x3dca5e01	0.09881211
10	0xbd379685	-0.04482128
11	0xbdd161f8	-0.10223764
12	0xbda75308	-0.08170134
13	0x3e75edbd	0.24016471
14	0x3e37a932	0.17935637
15	0xbe24665b	-0.1605467
16	0xbdd07357	-0.10178249
17	0x3d98a1ab	0.07452711
18	0xbc6ceef4	-0.014461268
19	0x3e65e9b6	0.22452435
20	0x3dd1c5f4	0.10242835
21	0xbe96e3c2	-0.2947064
22	0xbdf64ab0	-0.12025964
23	0xbe317d96	-0.17333063
24	0x3cc5f7f7	0.02416609
25	0x3e5dfb85	0.21677978
26	0x3cceec09	0.025259035
27	0xbdcb592e	-0.09929119
28	0x3e4d3b7b	0.20042221
29	0x3e1d41cb	0.1535713
30	0x3d55b1d2	0.052171536
31	0xbdb25054	-0.087067276
32	0xbd91e4cd	-0.071237184
33	0x3db9b9a0	0.09068608
34	0xbe123677	-0.14278589
35	0x3d8fe908	0.07026869
36	0xbc1c84a1	-0.009553106
37	0xbe11dec8	-0.1424514
38	0xbdf23a56	-0.11827533
39	0xbe798d2a	-0.24370256
40	0x3e16f03a	0.14740077
41	0x3c8d8c2a	0.01727875
42	0xbddda552	-0.10822548
43	0x3e404444	0.18776041
44	0xbdc4105b	-0.09573432
45	0x3e393260	0.18085623
46	0xbdbeae20	-0.093105555
47	0xbc418bad	-0.011813086
48	0x3d2ae514	0.041722372
49	0xbd9d2a1e	-0.07674049
50	0x3e0e505e	0.13897845
51	0x3d877c1f	0.06615471
52	0x3df7302c	0.12069735
53	0x3e2ea7f8	0.17056262
54	0x3dfa2545	0.1221414
55	0xbe38b54b	-0.18037908
56	0xbe09f70b	-0.13473146
57	0xbe2954a0	-0.16536188
58	0x3e6d904b	0.23199575
59	0x3c7d918e	0.0154765975
60	0x3dd65bbe	0.10466717
61	0x3dd4ec13	0.1039659
62	0xbe9a9ffe	-0.3020019
63	0x3ca3183a	0.019909013
64	0x3d32541b	0.04353724
65	0xbe0d8887	-0.13821612
66	0x3e3ed38d	0.18635388
67	0xbd813ea2	-0.063107744
68	0xbdad4fee	-0.08462511
69	0x3e0e50d9	0.13898028
70	0x3dd3f691	0.10349763
71	0xbdc1035b	-0.09424468
72	0xbe326fe0	-0.1742549
73	0xbd710303	-0.058840763
74	0x3e4714c0	0.19441509
75	0xbe20bc2c	-0.15696782
76	0xbe15c08b	-0.1462423
77	0xbe6cd2f3	-0.23127346
78	0x3dc58be6	0.09645824
79	0x3e4c2e36	0.19939503
80	0xbc47732b	-0.012173454
81	0xbb079cb4	-0.0020692768
82	0x3d8c57c4	0.068526775
83	0xbe2eedb9	-0.17082871
84	0x3e134fda	0.1438593
85	0xbd960b79	-0.07326407
86	0x3d66e73b	0.056372862
87	0xbe105a66	-0.14096984
88	0xbcf4d5e6	-0.029887151
89	0x3e679827	0.22616635
90	0x3e213883	0.15744214
91	0xbd9ea465	-0.077461995
92	0x3e0cf218	0.13764226
93	0x3d82b74b	0.063826166
94	0xbdcfeb94	-0.10152355
95	0x3cca2cef	0.02467963
96	0x3e2a1460	0.16609335
97	0x3e2d8aad	0.16947432
98	0xbd7d0381	-0.06177092
99	0xbe289342	-0.16462424
100	0x3d8286cc	0.06373367
101	0x3dbd3d5b	0.09240218
102	0x3e60105e	0.21881244
103	0x3e37a2c9	0.17933191
104	0x3b1eaaea	0.002421076
105	0x3e5235cd	0.20528336
106	0x3d111835	0.035423476
107	0xbe605e5b	-0.21910994
108	0x3e5dc499	0.21657027
109	0xbdaf32f1	-0.08554638
110	0xbe748cc9	-0.2388183
111	0x3d7582db	0.059939247
112	0x3e604567	0.21901475
113	0x3e08363b	0.13301937
114	0xbd3ae030	-0.045623958
115	0x3dd1e07e	0.102478966
116	0xbe59c5f6	-0.21266922
117	0x3e72cf06	0.23711786
118	0xbe81c571	-0.25345948
119	0x3e5624d9	0.20912494
120	0x3e0c3515	0.13692124
121	0x3e239593	0.15975027
122	0x3e0d213a	0.13782206
123	0x3deec74d	0.11659107
124	0xbd302576	-0.043004476
125	0xbe629377	-0.22126566
126	0x3e260e4c	0.16216391
127	0xbe2f62c0	-0.17127514
128	0x3e879454	0.26480353
129	0x3e0cd025	0.13751276
130	0x3d4dc503	0.050236713
131	0xbded0720	-0.115736246
132	0xbe153538	-0.14571083
133	0xbe076196	-0.1322082
134	0xbdeaaa72	-0.11458291
135	0x3ce065c8	0.027392283
136	0x3e848b76	0.2588765
137	0xbe31e352	-0.17371872
138	0x3e5e0416	0.21681246
139	0xbdd8c836	-0.10585062
140	0x3e1658e4	0.14682347
141	0x3cad26a8	0.021136597
142	0x3e4ef56b	0.20210807
143	0x3c898f25	0.01679189
144	0xbe11ba43	-0.1423121
145	0x3e348595	0.17629083
146	0x3de5b763	0.11216619
147	0xbda798ed	-0.08183465
148	0xbe71ae73	-0.23601703
149	0x3d517c99	0.051144216
150	0xbe1784d9	-0.14796771
151	0xbe56b18a	-0.20966163
152	0xbe4c3798	-0.19943082
153	0x3dc11b2e	0.09429012
154	0xbe13f613	-0.14449339
155	0xbd7474d8	-0.059681743
156	0xbd0086fe	-0.03137874
157	0xbceb71cd	-0.028740788
158	0x3cc6996f	0.024243085
159	0x3e1b5b91	0.15171649
160	0x3d23b65b	0.03996883
161	0xbe3c34dd	-0.1837954
162	0x3d209830	0.039207637
163	0x3e7f05c3	0.24904542
164	0xbe86f6cb	-0.26360163
165	0xbe6e8555	-0.2329305
166	0xbe3ac104	-0.18237692
167	0x3e5063a9	0.20350517
168	0xbb36d4e5	-0.002789789
169	0x3d9c39b1	0.07628191
170	0x3e5306bb	0.20608036
171	0x3df63b90	0.120230794
172	0x3e8ded48	0.27720094
173	0x3e6a13a9	0.22859062
174	0xbccdcae7	-0.025121165
175	0xbc36b248	-0.011150904
176	0x3cc7a80b	0.024372121
177	0xbda20f14	-0.07913032
178	0xbd6fcb08	-0.058543235
179	0x3d9f7777	0.07786458
180	0xbe38dff6	-0.18054184
181	0x3c8d2799	0.017230796
182	0xbdbba824	-0.0916293
183	0xbcd06ec7	-0.025443448
184	0xbdecbe4f	-0.11559736
185	0xbd89a5a7	-0.06721049
186	0x3e2777a7	0.16354237
187	0xbe686b25	-0.22697122
188	0x3e5216e0	0.20516539
189	0x3d4ccdf6	0.050001107
190	0xbdd431a2	-0.10361029
191	0x3e525507	0.20540248
192	0xbe130251	-0.14356352
193	0x39aeb6c1	0.00033324028
194	0x3b4a76b0	0.0030893497
195	0x3e409bc0	0.18809414
196	0x3e583ce3	0.21116976
197	0x3e468569	0.1938683
198	0xbd35f886	-0.044426464
199	0xbe4fca57	-0.2029203
200	0x3c62de63	0.013846966
201	0x3da82a32	0.08211173
202	0xbe4faffb	-0.20281975
203	0x3db12e26	0.0865138
204	0x3cbd4cd3	0.023107922
205	0x3ddffa50	0.10936415
206	0xbd9a90e4	-0.07547167
207	0x3d724ba6	0.059154175
208	0xbe76a31a	-0.24085656
209	0x3dd10141	0.10205317
210	0x3e4ffd11	0.20311381
211	0xbe417c84	-0.18895155
212	0xbe5dc91e	-0.21658751
213	0xbe8b7ef1	-0.27245286
214	0x3e23ed68	0.16008532
215	0xbda748d3	-0.08168187
216	0x3d1b1144	0.037858263
217	0x3c47838f	0.012177362
218	0x3e6e96c1	0.23299696
219	0xbdaafb14	-0.083486706
220	0x3e0d2a86	0.13785753
221	0xbb90c51b	-0.004418028
222	0xbe1ad218	-0.15119207
223	0x3db5b3e4	0.08872202
224	0xbe873a6c	-0.2641176
225	0xbd597d45	-0.053097982
226	0x3a1c2d2c	0.0005957659
227	0xbe4aed7e	-0.19817159
228	0xbe0e759a	-0.13912049
229	0x3decabb2	0.11556186
230	0x3e4912c9	0.19636072
231	0xbb02eab1	-0.0019976313
232	0xbdf95939	-0.12175221
233	0x3e085236	0.13312611
234	0xbd762ba6	-0.06010022
235	0xbd3dd583	-0.0463462
236	0xbd425774	-0.047446683
237	0xbe3abf67	-0.18237077
238	0x3cd9bde6	0.026579808
239	0x3d0ef796	0.034904085
240	0xbdeecb08	-0.11659819
241	0xbe307bf2	-0.17234781
242	0xbe4492c3	-0.1919661
243	0xbe48f910	-0.1962626
244	0x3cd292c7	0.025704755
245	0x3e590879	0.21194638
246	0xbd0c7568	-0.034291655
247	0x3e023cad	0.12718458
248	0x3d0abb92	0.033870287
249	0x3e23adaf	0.15984224
250	0x3dc691b3	0.09695759
251	0xbcad8aab	-0.021184286
252	0x3dcf3376	0.10117237
253	0x3dd55942	0.10417415
254	0xbe9c2120	-0.30494022
255	0x3ce02356	0.0273606

bilstm.weight_ih_l0 f4 [64, 32]
0	0xbdca4161	-0.09875751
1	0x3dc28e1e	0.09499763
2	0x3e487b6b	0.1957833
3	0x3e4f95bd	0.20271964
4	0x3dde0550	0.10840857
5	0x3e4aab97	0.19792019
6	0x3a3d287c	0.00072158105
7	0x3d08ddbd	0.03341459
8	0x3df2bda2	0.11852576
9	0x3d0e0f6c	0.034682676
10	0x3e4640da	0.19360676
11	0x3d91f283	0.071263336
12	0xbe82b759	-0.25530508
13	0xbdec77ba	-0.115462735
14	0xbe15d10f	-0.14630531
15	0xbdb24604	-0.08704761
16	0xbe1dbd9e	-0.15404364
17	0x3c4097ce	0.011754943
18	0x3e0cb5ad	0.13741179
19	0x3e307b50	0.1723454
20	0xbe295096	-0.16534647
21	0xbe537690	-0.20650697
22	0x3e129f25	0.14318521
23	0xbe4af11c	-0.19818538
24	0x3d44893e	0.047982447
25	0xbe5f8c38	-0.21830833
26	0xbe0cabb0	-0.13737369
27	0xbe6d7059	-0.23187388
28	0x3e19767e	0.14986607
29	0x3e352454	0.1768964
30	0xbe10bd32	-0.14134672
31	0x3e315a03	0.17319493
32	0x3e714138	0.23560035
33	0x3e49a961	0.19693519
34	0xbd474b56	-0.04865583
35	0x3d9fa8a5	0.07795838
36	0x3e44e308	0.1922723
37	0xbdd17318	-0.102270305
38	0x3e5aadd0	0.21355367
39	0x3e3f287c	0.18667787
40	0xbbabb5c0	-0.005240172
41	0x3e3329cd	0.17496414
42	0x3e0d4855	0.13797124
43	0x3e336aa1	0.17521144
44	0x3d3d2ab3	0.0461833
45	0xbe2579cb	-0.16159742
46	0xbe294bde	-0.16532847
47	0xbe14f0fd	-0.14545055
48	0x3e9559fc	0.29170215
49	0xbc6f3ccf	-0.0146019
50	0x3e50f28d	0.20405026
51	0xbe574a6f	-0.21024488
52	0x3d7730c6	0.06034925
53	0x3e8691e5	0.26283184
54	0x3be9273a	0.007115272
55	0x3e2f52ec	0.17121476
56	0xbe4a987d	-0.19784732
57	0x3d1b9b2e	0.037989788
58	0xbd2fe985	-0.04294731
59	0x3e214f6f	0.15752958
60	0x3e776bfe	0.2416229
61	0x3cad5fcf	0.02116385
62	0x3e2fe9d3	0.1717904
63	0x3d70ceb2	0.05879087
64	0xbcba1f8a	-0.022720117
65	0xbd8b7661	-0.06809688
66	0x3d3a0d7b	0.045423012
67	0x3e4ec165	0.20190962
68	0xbccee49b	-0.025255492
69	0x3df074e2	0.117410436
70	0xbc2a5250	-0.010395601
71	0x3d195fdd	0.037444938
72	0x3e738558	0.23781335
73	0xbe0233a1	-0.12715007
74	0x3e4ba98c	0.19888896
75	0xbe0d956a	-0.13826528
76	0x3ef55855	0.47918954
77	0x3e84ec7f	0.25961682
78	0x3e00f918	0.12595022
79	0xbdf17e2f	-0.11791646
80	0x3e602995	0.21890862
81	0x3e9ac7d1	0.30230573
82	0x3db5ac3e	0.08870743
83	0xbd5e59b8	-0.05428478
84	0xbe5760a9	-0.21032967
85	0x3cd26dd8	0.025687143
86	0x3caa471d	0.020785863
87	0xbcedea64	-0.02904243
88	0xbdd01b6b	-0.101614796
89	0x3e0aaf0d	0.13543339
90	0x3e1c71a7	0.1527773
91	0xbc88a2f9	-0.016679274
92	0x3d2e9a7b	0.042627793
93	0xbe3dbb54	-0.18528491
94	0x3d6b48c9	0.05744246
95	0x3da4e243	0.080509685
96	0x3e195006	0.14971933
97	0xbc12311c	-0.008922841
98	0x3c9082b0	0.017640442
99	0x3e3159c8	0.17319405
100	0x3e208a43	0.15677743
101	0x3dbc1a14	0.091846615
102	0xbd2bd551	-0.04195148
103	0x3e39d3bf	0.18147181
104	0x3e800740	0.2500553
105	0xbddf6f46	-0.109098956
106	0xbe489d6e	-0.19591305
107	0xbe782ca6	-0.24235782
108	0x3e79db6e	0.24400112
109	0x3e85eaa9	0.26155594
110	0xbca58647	-0.02020563
111	0x3da5b69c	0.080914706
112	0x3e8781d4	0.26466238
113	0xbe557321	-0.208447
114	0x3dc2aee3	0.09506013
115	0x3e0a2931	0.13492276
116	0xbcbd0a99	-0.023076342
117	0xbe071baf	-0.13194154
118	0x3d81a7bc	0.06330821
119	0x3dd7ed8a	0.10543354
120	0x3cad6607	0.021166814
121	0x3cf8375b	0.030299833
122	0x3d9054b0	0.07047403
123	0x3e66f6ec	0.2255513
124	0x3d959baa	0.07305081
125	0x3d1c0026	0.03808608
126	0x3e0bdbdb	0.13658087
127	0xbe669c72	-0.22520617
128	0x3e23c8a7	0.15994512
129	0x3e7bde21	0.24596454
130	0xbcec00e6	-0.028809022
131	0x3e7ada60	0.24497366
132	0x3e3a2410	0.18177819
133	0x3e8d941e	0.27652067
134	0x3c8a9043	0.016914492
135	0xbe08cb3d	-0.13358779
136	0x3de01272	0.10941018
137	0xbcca4f8e	-0.024696138
138	0x3e29ac2c	0.16569585
139	0x3e741c63	0.23838954
140	0x3e162214	0.14661437
141	0xbe723242	-0.23651984
142	0x3e83a7f3	0.25714073
143	0x3e45abf5	0.19303878
144	0xbddf8976	-0.109148905
145	0xbdae5764	-0.08512762
146	0x3de75f9a	0.112975314
147	0xbd713e85	-0.058897514
148	0xbcaf48e6	-0.021397065
149	0x3e235f6b	0.15954368
150	0xbe441437	-0.19148336
151	0x3e750142	0.23926261
152	0xbdae1902	-0.085008636
153	0x3e915889	0.2838786
154	0x3e7d5cae	0.24742386
155	0x3e694ba9	0.22782768
156	0xbdc263a2	-0.0949166
157	0x3e46b7b3	0.19406013
158	0x3d18ac9f	0.037274
159	0x3e2bf658	0.16793191
160	0xbb5a539f	-0.0033314002
161	0x3d8d2f1d	0.06893752
162	0xbd488bbb	-0.048961382
163	0xbe762813	-0.24038725
164	0x3e6edef3	0.23327236
165	0xbdf2eda4	-0.118617326
166	0xbe590ac5	-0.21195515
167	0xbe499f83	-0.19689755
168	0x3e134661	0.14382316
169	0xbe2d0109	-0.16894926
170	0x3e968d89	0.29404858
171	0x3e4be74a	0.19912449
172	0x3e624500	0.22096634
173	0xbe108276	-0.14112267
174	0x3deb2d53	0.11483254
175	0x3e491ad0	0.19639134
176	0xbd8cd159	-0.068758674
177	0xbe3b4075	-0.18286307
178	0xbe5e0f53	-0.21685533
179	0xbdf44d5c	-0.11928818
180	0xbdbbbe46	-0.09167151
181	0x3d77f518	0.060536474
182	0x3df53e5a	0.11974783
183	0xbe2da8ed	-0.16958971
184	0x3e469a10	0.19394708
185	0xbe501f96	-0.20324549
186	0x3db0d32a	0.08634026
187	0x3e22366a	0.1584107
188	0xbe01db21	-0.12681247
189	0x3d5fbce6	0.054623507
190	0x3dad397a	0.084582284
191	0x3d48a7a6	0.048988007
192	0xbcca1d88	-0.024672285
193	0xbe6a048c	-0.22853297
194	0xbeaed23c	-0.3414477
195	0xbe87fe32	-0.26561123
196	0xbe8505f3	-0.259811
197	0xbcc6e2c1	-0.024278047
198	0xbe7df2eb	-0.24799697
199	0x3d9e4234	0.07727471
200	0x3e128518	0.14308584
201	0x3e75f064	0.24017483
202	0xbe893230	-0.26796103
203	0xbdedee6a	-0.116177395
204	0x3da32894	0.07966724
205	0x3e137b34	0.14402467
206	0x3d71a605	0.05899622
207	0x3e3793d9	0.17927493
208	0xbe49d7bf	-0.19711207
209	0x3de4e218	0.111759365
210	0xbd954aee	-0.07289682
211	0xbd8ea35c	-0.06964752
212	0x3e6a14dd	0.22859521
213	0x3dd32e52	0.10311569
214	0xbe15d89f	-0.14633416
215	0x3e12f5af	0.14351533
216	0x3d8921b7	0.06695884
217	0xbd8340d4	-0.06408849
218	0xbc811547	-0.015757216
219	0xbd686b31	-0.05674285
220	0x3d294b03	0.041331302
221	0xbe749295	-0.23884042
222	0x3e555eb8	0.20836914
223	0xbe06067b	-0.1308841
224	0x3e6e2006	0.23254403
225	0x3dddfafe	0.108388886
226	0xbe2b326f	-0.16718458
227	0xbe09cc88	-0.13456929
228	0xbdf1e675	-0.11811534
229	0x3e77b69d	0.24190755
230	0x3e3f3184	0.18671232
231	0xbe171ed7	-0.14757858
232	0xbe1696e6	-0.14706
233	0xbac922cd	-0.0015345454
234	0xbb04d980	-0.0020271242
235	0xbe816355	-0.25271097
236	0x3e810d80	0.25205612
237	0x3db3ed8d	0.087855436
238	0x3e39c0f9	0.1814002
239	0x3e8c600e	0.27417034
240	0xbe1f1ced	-0.15538378
241	0xbd7e678c	-0.06211047
242	0xbc58bb63	-0.01322827
243	0xbda91c32	-0.08257331
244	0xbde1ab30	-0.110189795
245	0xbd72d689	-0.059286628
246	0x3e307286	0.17231187
247	0x3d33de1f	0.043913003
248	0x3e535f05	0.20641716
249	0x3c83515d	0.016030008
250	0x3df4a9fa	0.11946483
251	0xbda95a86	-0.08269219
252	0xbe177c85	-0.14793594
253	0xbd75631a	-0.059908964
254	0xbe0a0f9a	-0.13482514
255	0x3e3bc147	0.18335448

bilstm.weight_ih_l0_reverse f4 [64, 32]
0	0xbd2c9457	-0.042133655
1	0x3b919b0c	0.004443532
2	0x3e5588e8	0.20853007
3	0xbe2cc299	-0.16871108
4	0x3e154701	0.14577867
5	0x3d9bce90	0.07607758
6	0xbdf2fbd7	-0.11864441
7	0x3e3ac74b	0.18240087
8	0x3ddc36ca	0.10752638
9	0x3dfacf43	0.12246563
10	0x3e831017	0.25598213
11	0x3e06e772	0.13174227
12	0x3dec54bd	0.115396
13	0x3e23a52a	0.15980974
14	0x3dd7b1a0	0.10531926
15	0x3e86f21e	0.26356596
16	0xbdedbe35	-0.11608545
17	0xbe1c0adc	-0.15238518
18	0xbe05e161	-0.13074256
19	0xbd984c8d	-0.07436476
20	0x3e17e6f0	0.1483419
21	0xbe3d82a7	-0.18506871
22	0xbde0ad4c	-0.10970554
23	0x3e3eec80	0.18644905
24	0xbc79f30d	-0.015255702
25	0x3e3b54f8	0.18294132
26	0x3e5bbfa0	0.21459818
27	0xbcfc2277	-0.030778153
28	0xbe5c6183	-0.21521573
29	0xbe6261b6	-0.22107586
30	0x3e049ab7	0.12949644
31	0xbcc5f208	-0.024163261
32	0xbd779904	-0.06044866
33	0xbdd805cf	-0.10547983
34	0xbe2bf1b3	-0.1679142
35	0x3da76378	0.08173269
36	0x3e45b6d2	0.19308022
37	0x3d1d7c6d	0.03844874
38	0x3d77538a	0.060382403
39	0x3e1d41ef	0.15357183
40	0x3e486cf2	0.1957281
41	0xbe4e7d51	-0.20164992
42	0x3e44c283	0.19214825
43	0xbe1c0a38	-0.15238273
44	0xbe0ee9bb	-0.13956349
45	0x3e1b0e93	0.15142278
46	0x3d5072cf	0.05089074
47	0x3e7c0def	0.2461469
48	0xbd2a1c7c	-0.04153107
49	0xbd9f68df	-0.077836744
50	0x3d60b25e	0.054857604
51	0x3df6519f	0.12027287
52	0xbe66f82d	-0.22555609
53	0x3e3eb693	0.18624334
54	0xbcf0d0f8	-0.029396519
55	0xbe249a5a	-0.16074505
56	0x3dcead54	0.100916535
57	0xbd618179	-0.055055115
58	0x3ba5ce89	0.0050600213
59	0xbde7aef9	-0.1131267
60	0x3e2fd507	0.17171107
61	0xbb17ebc3	-0.0023181296
62	0x3d8a4ca5	0.067529
63	0xbe6948f2	-0.22781733
64	0xbd920c1b	-0.07131215
65	0x3e309e53	0.17247896
66	0x3e73937c	0.2378673
67	0x3de710f7	0.11282533
68	0x3dae7a81	0.085194595
69	0x3c07460a	0.008256445
70	0xbe37f72c	-0.17965382
71	0xbc9d9f1b	-0.019240906
72	0x3e1ca82c	0.15298527
73	0xbe11eca8	-0.14250433
74	0xbb878ef4	-0.0041369144
75	0xbd85cf17	-0.0653364
76	0x3e3e1c46	0.18565473
77	0x3e1c9f5b	0.15295164
78	0x3dc3c4d4	0.09559026
79	0x3d77bd8c	0.0604835
80	0xbd2ed8c1	-0.04268718
81	0x3dd5e91b	0.10444852
82	0x3e64562d	0.22298498
83	0x3e05140a	0.12995926
84	0xbca8d648	-0.02060999
85	0x3d379615	0.044820864
86	0x3db39436	0.08768503
87	0x3b15266b	0.0022758495
88	0x3d53a85d	0.051674236
89	0xbddc1f4c	-0.10748157
90	0x3e517112	0.20453289
91	0x3df33e67	0.11877137
92	0xbb3c96cd	-0.0028776408
93	0x3e0d662e	0.1380851
94	0xbdc635e4	-0.096782476
95	0xbe221920	-0.15829897
96	0x3e42dafd	0.1902885
97	0xbe296433	-0.16542129
98	0x3e3b379c	0.18282932
99	0xbd83858b	-0.06421956
100	0x3d43b981	0.047784332
101	0xbe0310db	-0.12799399
102	0xbd268ca3	-0.040661465
103	0xbdae8b7c	-0.08522698
104	0x3e38e692	0.18056706
105	0xbdc202ef	-0.09473216
106	0xbd323466	-0.043507002
107	0xbd8aa305	-0.06769375
108	0x3df20866	0.11818008
109	0xbe51c488	-0.20485127
110	0x3e51afd2	0.20477226
111	0x3e73fe52	0.23827484
112	0xbe2a9695	-0.16659005
113	0xbe0845e2	-0.13307908
114	0xbd193fd9	-0.037414405
115	0xbd305324	-0.04304804
116	0x3db2b10c	0.08725175
117	0x3d51db93	0.051234793
118	0xbcfe8b71	-0.03107235
119	0xbe646e51	-0.22307707
120	0xbdf83823	-0.12120082
121	0x3d7830ca	0.060593404
122	0xbe0c8bce	-0.13725206
123	0xbe31888c	-0.17337245
124	0xbdbfd383	-0.093665145
125	0x3e227cec	0.15867966
126	0x3e7e3bc8	0.24827492
127	0xbe5016e6	-0.20321235
128	0xbc8a702b	-0.016899189
129	0xbdb1c737	-0.08680575
130	0x3d0ae3eb	0.033908766
131	0x3e3d3967	0.18478929
132	0x3d06344a	0.03276471
133	0x3e357e78	0.17724025
134	0x3e127d0e	0.14305517
135	0xbe30fd6e	-0.17284176
136	0x3aa9d23b	0.001295633
137	0xbe199fba	-0.15002337
138	0x3e52d8cf	0.20590518
139	0x3e837ea0	0.25682545
140	0xbd17e4b8	-0.037083358
141	0xbe6f8da4	-0.23393875
142	0xbe062f4d	-0.13103981
143	0xbdd8df10	-0.10589421
144	0x3e941f77	0.28930256
145	0x3878f681	5.9357382e-05
146	0x3d714b42	0.058909662
147	0x3df4d9a5	0.11955575
148	0x3e626b5c	0.22111267
149	0x3e3c34cf	0.1837952
150	0x3d28ccb6	0.041210853
151	0x3cedfc95	0.029051105
152	0x3d19673f	0.03745198
153	0x3d9dada9	0.07699139
154	0x3e82aa06	0.25520343
155	0xbdf99fbc	-0.1218867
156	0xbc7f4592	-0.015580552
157	0xbd45da6e	-0.048304014
158	0x3e4eecf4	0.20207578
159	0x3dc56aaf	0.09639489
160	0x3de1a084	0.11016944
161	0x3e8d3d94	0.27586043
162	0x3e73a844	0.23794657
163	0xbe46fe38	-0.19432914
164	0xbbeade8e	-0.007167644
165	0x3e9464b0	0.28983068
166	0x3e85291e	0.26007932
167	0xbded342c	-0.115822166
168	0x3e8a2952	0.2698465
169	0x3e2a989a	0.16659775
170	0xbda46d32	-0.0802864
171	0x3ccfa3fa	0.025346745
172	0x3c235ffb	0.009971614
173	0xbdca73ec	-0.098853916
174	0x3cf2525f	0.029580293
175	0xbe51124b	-0.20417134
176	0x3cd7a8f3	0.026325678
177	0x3da8042d	0.082039215
178	0xbe71c9f1	-0.23612191
179	0x3df8bc85	0.12145332
180	0xbda348fb	-0.07972904
181	0x3e0c681f	0.13711594
182	0xbd63b63f	-0.055593725
183	0xbe63aa31	-0.22232892
184	0x3e814d24	0.25254166
185	0x3e0b835d	0.1362433
186	0x3e232f28	0.15935957
187	0xbde517be	-0.11186169
188	0x3e4cd9e5	0.20004995
189	0x3dbe9b8a	0.093070105
190	0x3ca6b886	0.02035166
191	0xbe670d7d	-0.22563739
192	0x3c53f29d	0.0129362615
193	0xbe38b1c8	-0.18036568
194	0x3d3544db	0.04425512
195	0xbde426b5	-0.11140195
196	0xbd6a6496	-0.057224832
197	0xbdec9a81	-0.11552907
198	0x3e206984	0.15665251
199	0xbd5cfcdb	-0.05395208
200	0xbe1001b6	-0.14063153
201	0x3e64c66d	0.22341318
202	0x3d106fc1	0.035262827
203	0xbde558e9	-0.11198599
204	0xbd836228	-0.06415206
205	0x3e83416d	0.25635853
206	0xbe07ad74	-0.13249761
207	0x3e871460	0.26382732
208	0xbcf7ffee	-0.030273404
209	0x3e255cdb	0.16148703
210	0x3df2a23d	0.11847351
211	0x3e411f2b	0.18859546
212	0xbdff92f0	-0.12479198
213	0x3e7805a0	0.24220896
214	0x3e94963d	0.29020873
215	0x3d38a878	0.04508254
216	0xbd947d79	-0.072504945
217	0xbda238b3	-0.07920971
218	0x3e34cd81	0.17656519
219	0x3e6fcc6a	0.23417822
220	0x3e3be85e	0.1835036
221	0xbdc5bb97	-0.096549205
222	0x3d2d08fd	0.0422449
223	0xbdab8efd	-0.08376882
224	0xbe6fd5ee	-0.23421451
225	0xbd767af3	-0.060175847
226	0xbcfc0325	-0.030763218
227	0x3de22523	0.110422395
228	0xbdc86a0d	-0.097858526
229	0xbe6cfb5b	-0.2314276
230	0xbda9de87	-0.08294397
231	0x3ccfa64d	0.025347853
232	0xbd3e9217	-0.04652604
233	0x3e2266e8	0.15859568
234	0x3dc2aae9	0.09505255
235	0xbdda55a3	-0.10660865
236	0x3e5e0fb4	0.21685678
237	0xbd3c125d	-0.04591595
238	0xbd33032c	-0.043704197
239	0xbe7dad6a	-0.24773183
240	0xbe667094	-0.22503883
241	0xbe5dea24	-0.21671349
242	0x3e673bee	0.22581455
243	0xbdd94748	-0.10609299
244	0x3c9f79bf	0.019467233
245	0xbe1b8fc0	-0.15191555
246	0xbc6cfef9	-0.014465087
247	0x3da7b529	0.081888504
248	0xbe58e41b	-0.21180765
249	0xbe83ee8e	-0.2576794
250	0xbe3887d6	-0.18020567
251	0x3e37b133	0.1793869
252	0xbe52dc63	-0.20591883
253	0x3e4c3b3a	0.19944468
254	0xbe63a175	-0.2222956
255	0x3e5c8e4f	0.21538661

parallel_cnn_block.branches.0.0.weight f4 [1, 1, 2]
0	0xbeba8657	-0.36430618
1	0x3f1cf46a	0.61310446

parallel_cnn_block.branches.0.2.bias f4 [16]
0	0xbe4fbcd1	-0.20286871
1	0x3e9b08a1	0.3028002
2	0xbe581726	-0.2110258
3	0xbed9ef85	-0.4256555
4	0xbf35ab62	-0.70964634
5	0xbedaa3f0	-0.427032
6	0xbd9db521	-0.07700563
7	0xbd70fbc5	-0.058833856
8	0xbee6bd77	-0.45066425
9	0x3f34f22c	0.70682025
10	0x3f2f12b0	0.6838789
11	0x3f2bd95a	0.6712853
12	0x3ea2148c	0.316563
13	0x3f2505f4	0.6446221
14	0xbec133c7	-0.37734815
15	0x3eb9f8f2	0.36322743

parallel_cnn_block.branches.0.2.weight f4 [16, 1, 2]
0	0xbe8b9c5e	-0.27267736
1	0xbebe1e3a	-0.37132436
2	0xbee6d1b1	-0.45081857
3	0xbc84d501	-0.01621485
4	0xbf20f6fc	-0.6287687
5	0xbd7ae704	-0.06125547
6	0xbb28d70a	-0.002576294
7	0x3e4976d4	0.19674236
8	0x3ee03ff2	0.43798786
9	0xbe3b1e38	-0.18273246
10	0xbcc6a728	-0.024249628
11	0x3f2786c9	0.6544004
12	0x3e9c8811	0.3057256
13	0x3d71e425	0.059055466
14	0x3ef7f988	0.48432565
15	0x3f05cb0a	0.5226294
16	0x3f051286	0.5198139
17	0x3f3dd5d5	0.74154407
18	0xbf22c7cb	-0.6358611
19	0x3e87fb06	0.26558703
20	0x3e3d02e8	0.1845814
21	0x3de6d0eb	0.11270317
22	0x3eb919ef	0.36152598
23	0x3e6fffe8	0.23437464
24	0x3ee9b4f0	0.45645857
25	0xbee37660	-0.4442625
26	0x3f090bfa	0.535339
27	0xbeef880e	-0.4678349
28	0xbf15ff5f	-0.5859279
29	0x3ecfabde	0.40560812
30	0xbeb0b16d	-0.34510365
31	0x3da8b690	0.08237946

parallel_cnn_block.branches.1.0.weight f4 [1, 1, 4]
0	0x3ca25971	0.01981804
1	0x3e3bfcdd	0.18358178
2	0x3f24814e	0.64259803
3	0x3f05aa16	0.52212656

parallel_cnn_block.branches.1.2.bias f4 [32]
0	0x3debcc88	0.115136206
1	0x3ef5347b	0.47891602
2	0x3ed1d765	0.40984645
3	0xbe0f22ad	-0.13978072
4	0xbe5cb609	-0.21553816
5	0xbecb24ee	-0.39676613
6	0xbdb6406a	-0.08899005
7	0x3e98e417	0.2986152
8	0x3d80aaf8	0.0628261
9	0xbd14b986	-0.03630974
10	0x3f5b32ac	0.85624194
11	0x3ef93b34	0.4867798
12	0x3ea58888	0.32330728
13	0xbed036f8	-0.40666938
14	0xbee3dc3b	-0.4450396
15	0x3eb6642d	0.35623303
16	0xbef5befc	-0.47997272
17	0x3eb9c157	0.3628032
18	0xbe941954	-0.28925574
19	0x3e1eb94f	0.15500377
20	0xbe2b0d5c	-0.16704315
21	0x3f0bb8b9	0.5457874
22	0xbeb43a95	-0.35200945
23	0x3da13832	0.078720465
24	0xbedfbe91	-0.43700078
25	0xbe89bcba	-0.269018
26	0xbe801587	-0.25016424
27	0xbc3acf91	-0.011402027
28	0x3d83a523	0.06427982
29	0x3e390eb8	0.18072021
30	0xbeb558f2	-0.35419422
31	0x3abb35ca	0.0014282998

parallel_cnn_block.branches.1.2.weight f4 [32, 1, 4]
0	0x3db6a16d	0.08917508
1	0x3e8447a6	0.25835913
2	0xbd49e891	-0.04929406
3	0xbe4efc8e	-0.2021353
4	0x3d6ba580	0.05753088
5	0xbeaae974	-0.33381236
6	0xbce5e4ee	-0.028063264
7	0x3eae00a2	0.33984858
8	0xbd81bb29	-0.06334526
9	0x3d018dff	0.03162956
10	0xbeb1f733	-0.3475891
11	0x3e0817ff	0.13290404
12	0x3efeec4d	0.49789658
13	0xbea68270	-0.3252139
14	0x3ecd96cd	0.40154114
15	0x3ed97e50	0.4247918
16	0xbe0eadf9	-0.13933553
17	0x3e40447a	0.18776122
18	0xbe752fc5	-0.23944004
19	0xbeed070a	-0.46294433
20	0xbec0a579	-0.37626246
21	0x3e42da71	0.19028641
22	0xbe8ac470	-0.27102995
23	0x3eabb865	0.3353912
24	0x3ec6f13a	0.38855916
25	0x3ec2b7e0	0.3803091
26	0x3ee91bd0	0.45529032
27	0xbd2afae9	-0.041743193
28	0x3df97e9d	0.12182353
29	0xbedbeb34	-0.42952883
30	0x3e560002	0.2089844
31	0x3d7c588c	0.061607882
32	0xbd5f634a	-0.05453805
33	0x3f0ea31e	0.5571765
34	0x3ef387e4	0.47564614
35	0x3de19eae	0.11016594
36	0x3d8777b8	0.066146314
37	0xbeb18af1	-0.34676316
38	0x3f002f6a	0.5007235
39	0x3eeac834	0.45855868
40	0xbee4bece	-0.44676822
41	0xbdd09d9f	-0.10186314
42	0x3f0087d5	0.50207263
43	0x3d534b4b	0.051585477
44	0xbea0d8d6	-0.31415433
45	0x3e62585d	0.2210402
46	0xbea523ab	-0.32253775
47	0x3eb657e5	0.35613933
48	0xbd9b2323	-0.07575061
49	0x3eb368a7	0.3504078
50	0xbe8864e4	-0.26639473
51	0xbeae17e6	-0.34002608
52	0x3eb5a256	0.35475415
53	0x3ee5c5d3	0.4487749
54	0xbe1c55b5	-0.1526707
55	0xbec204ee	-0.37894386
56	0x3eb72891	0.35773137
57	0x3eb98f98	0.36242366
58	0xbe3f313d	-0.18671127
59	0xbe451da5	-0.1924959
60	0x3ec5f18f	0.38660857
61	0xbda9e7d9	-0.082961746
62	0xbe59b574	-0.21260625
63	0x3e7be7fb	0.24600212
64	0xbe279967	-0.16367112
65	0x3cfed2f9	0.031106459
66	0xbeb3c6bb	-0.35112557
67	0x3e7f0e1e	0.24907729
68	0xbde1070c	-0.10987672
69	0x3ebaca01	0.36482242
70	0xbead4691	-0.338429
71	0x3e743336	0.2384766
72	0x3cf0b06f	0.029381005
73	0x3d32dfc0	0.043670416
74	0x3e717e91	0.23583438
75	0x3e66c8a0	0.2253747
76	0x3e843d38	0.25827956
77	0x3f0695fc	0.5257261
78	0x3ecd1c0e	0.40060467
79	0x3e35a4cf	0.1773865
80	0xbea2550a	-0.31705505
81	0xbe557024	-0.2084356
82	0xbe65ee1c	-0.22454113
83	0xbee9af60	-0.45641613
84	0xbe4ba9d3	-0.19889002
85	0x3e8d9e73	0.2765995
86	0xbd93945e	-0.07206033
87	0x3e7ac886	0.24490556
88	0xbefa4378	-0.488796
89	0xbd2805f1	-0.04102129
90	0x3ec38ed8	0.3819492
91	0x3e3bfc0e	0.1835787
92	0x3e80f84c	0.25189435
93	0xbd936392	-0.07196726
94	0xbe2713ef	-0.16316198
95	0xbe30a4fa	-0.17250434
96	0xbe966fed	-0.29382268
97	0x3e044b93	0.12919454
98	0x3ed21bdf	0.4103689
99	0xbd223c68	-0.03960839
100	0xbea751f3	-0.3267971
101	0x3e30641b	0.17225687
102	0x3ef59038	0.47961593
103	0x3edeb0dd	0.4349431
104	0xbefdeb12	-0.49593407
105	0x3e8d647c	0.27615726
106	0xbe304f1f	-0.17217682
107	0x3e2e3b71	0.17014863
108	0x3eb4d813	0.35321102
109	0xbc9abaf9	-0.018887984
110	0x3e191726	0.14950237
111	0x3df06ba0	0.11739278
112	0xbdd74062	-0.10510327
113	0x3e98f5bd	0.29874983
114	0xbe59b7f7	-0.21261583
115	0x3ed38a6f	0.41316554
116	0xbde1f1cc	-0.11032447
117	0x3efc5a4c	0.4928764
118	0xbecdc007	-0.40185568
119	0xbe4dd8a7	-0.20102178
120	0xbea75d1c	-0.32688224
121	0xbd8c2518	-0.068430126
122	0xba356000	-0.0006918907
123	0xbef1dcea	-0.47238857
124	0x3d8d2ba5	0.0689309
125	0x3eda54bb	0.4264277
126	0xbebd2319	-0.3694084
127	0xbe0dfe96	-0.13866648

parallel_cnn_block.branches.2.0.weight f4 [1, 1, 8]
0	0xbf0277e1	-0.5096417
1	0xbea7acbf	-0.32748982
2	0x3d96699d	0.07344363
3	0x3f020bbc	0.50799155
4	0xbd0bd845	-0.034141798
5	0xbe642325	-0.22279032
6	0x3ec48182	0.38380057
7	0xbdd22e27	-0.10262709

parallel_cnn_block.branches.2.2.bias f4 [64]
0	0x3929559a	0.00016148985
1	0x3e8bb886	0.27289218
2	0xbe616399	-0.2201065
3	0x3ebffe00	0.37498474
4	0xbd7c7df2	-0.06164355
5	0xbba79c1f	-0.0051150466
6	0xbe87fbab	-0.26559195
7	0x3eac2463	0.3362151
8	0x3d4dbd90	0.05022961
9	0xbe970c85	-0.2950174
10	0x3da97745	0.08274702
11	0x3ea3f872	0.32025486
12	0xbc3628bf	-0.011118113
13	0xbe87dfcc	-0.2653793
14	0xbdc18a50	-0.09450209
15	0x3e4d74a5	0.20064028
16	0x3e13c542	0.14430717
17	0xbe7ca937	-0.24673925
18	0xbf03c5af	-0.51473516
19	0x3eb0fdd9	0.3456867
20	0x3e65e4d5	0.22450574
21	0xbe3d7383	-0.18501095
22	0x3ec0a67e	0.37627023
23	0x3e5844b4	0.21119958
24	0xbe608f0c	-0.21929568
25	0x3ed28c5f	0.4112272
26	0x3db97358	0.09055203
27	0xbdb17a0c	-0.08665857
28	0x3e8287b9	0.25494173
29	0x3dc3a0e5	0.095521726
30	0x3d8601f3	0.065433405
31	0xbe93a746	-0.28838557
32	0x3e03bb79	0.12864484
33	0x3db8e82f	0.090286605
34	0x3e504a64	0.20340878
35	0x3b778f42	0.0037774597
36	0x3e305b1e	0.17222258
37	0xbea8be56	-0.32957715
38	0x3e05ab1a	0.13053551
39	0x3eb68d73	0.35654792
40	0x3e7e129a	0.24811783
41	0xbf0bc736	-0.54600847
42	0x3dd6403b	0.1046147
43	0xbd592b89	-0.053020034
44	0x3e138d32	0.1440933
45	0x3dee683f	0.11640977
46	0x3eccfb7f	0.40035626
47	0xbbd9a2e1	-0.006641731
48	0xba5e87b9	-0.0008488852
49	0x3ec4c6b5	0.3843285
50	0x3eacda87	0.33760473
51	0xbebe81ed	-0.372085
52	0x3dcb3a1c	0.09923193
53	0x3ea98d0b	0.3311542
54	0xbc25a697	-0.010110519
55	0x3eb85279	0.36000422
56	0x3e8dcf75	0.2769734
57	0x3e8b68a9	0.27228287
58	0x3d6e503b	0.058181982
59	0xbdecf5f6	-0.11570351
60	0x3db4c286	0.08826165
61	0x3d9339e1	0.07188774
62	0xbecdcbcc	-0.40194547
63	0x3e16f741	0.14742757

parallel_cnn_block.branches.2.2.weight f4 [64, 1, 8]
0	0x3d504331	0.05084533
1	0x3d85c7e1	0.065322645
2	0x3e4b2744	0.19839197
3	0xbe238283	-0.15967755
4	0x3ea38422	0.31936747
5	0x3e9d04f4	0.3066784
6	0x3e2a5b26	0.16636333
7	0xbde1f3ff	-0.11032867
8	0xbdd0b35d	-0.10190461
9	0x3e4b7c38	0.19871604
10	0xbdbefdd4	-0.093257576
11	0x3edc7875	0.4306065
12	0x3e989af9	0.29805735
13	0x3edbdbff	0.4294128
14	0x3ea4634c	0.32107008
15	0x3eab4700	0.33452606
16	0x3e3a36b4	0.1818493
17	0xbd35bc65	-0.04436912
18	0x3d8a6324	0.06757191
19	0x3e2fcdd6	0.17168364
20	0x3f06dc7b	0.52680176
21	0x3ef21a13	0.47285518
22	0x3d96844b	0.07349452
23	0x3cb97d53	0.022642767
24	0x3eb1ac66	0.34701842
25	0x3e614a5c	0.22001022
26	0x3e628c87	0.2212392
27	0x3e0f486a	0.13992468
28	0x3ba4748e	0.005018777
29	0x3e24ad02	0.16081622
30	0x3e03d507	0.12874232
31	0x3e88feee	0.26756996
32	0xbe49a98d	-0.19693585
33	0x3cd0422a	0.025422174
34	0x3e56aa74	0.2096346
35	0x3ec1e959	0.37873343
36	0x3d9f3de9	0.0777548
37	0x3ecf0a44	0.4043752
38	0xbcf00761	-0.029300394
39	0xbd4b678e	-0.049659304
40	0x3e9afacb	0.30269465
41	0xbe76272c	-0.2403838
42	0xbe38f9d0	-0.18064046
43	0x3eb5ee1f	0.35533234
44	0x3ee72cfc	0.45151508
45	0x3eda2041	0.42602733
46	0xbe72faa8	-0.2372843
47	0x3d7b0e55	0.061292965
48	0x3ec30602	0.3809052
49	0x3eea9358	0.4581554
50	0x3ec8044d	0.3906578
51	0x3f031ae4	0.51212907
52	0x3f3a5973	0.7279274
53	0x3efc4da8	0.49277997
54	0x3e80ce6b	0.25157484
55	0x3e801d94	0.25022566
56	0xbe4591a8	-0.19293845
57	0x3de98e1f	0.114040606
58	0x3e8ffff4	0.28124964
59	0x3dfb3725	0.12266377
60	0xbdf04542	-0.1173196
61	0x3eb67e8e	0.3564343
62	0x3eabd587	0.33561346
63	0xbddf7773	-0.10911455
64	0xbe76ce85	-0.24102218
65	0x3e87e0af	0.26538607
66	0x3e16f257	0.14740883
67	0xbdd92663	-0.10603025
68	0xbe80703c	-0.25085628
69	0x3ec49364	0.383937
70	0xbdac4fe7	-0.08413678
71	0xbc814f99	-0.015785025
72	0x3e67f39b	0.22651522
73	0xbc6a1278	-0.01428663
74	0x3d9ebc5f	0.07750773
75	0x3ea38fa5	0.3194553
76	0x3f0133c1	0.50469595
77	0x3e789d05	0.24278648
78	0x3d57126f	0.052507814
79	0x3d808349	0.06275041
80	0x3ec85d6c	0.39133775
81	0xbdc0931f	-0.09403061
82	0xbe612f04	-0.21990591
83	0x3ec1aba3	0.3782626
84	0x39981095	0.00029004054
85	0x3c4235fb	0.01185369
86	0x3dc6f3ce	0.09714471
87	0x3d25fc58	0.040523857
88	0x3e8b2ad5	0.27181116
89	0xbde7ab29	-0.11311943
90	0x3d0c7433	0.034290504
91	0x3eb987fe	0.36236566
92	0x3ddd0e90	0.10793793
93	0x3d9ebbb6	0.07750647
94	0xbbaaa32d	-0.0052074404
95	0x3d87d13d	0.06631706
96	0xbc4ef0fc	-0.012630697
97	0xbcbfa1af	-0.023392526
98	0x3ed104a8	0.40823865
99	0x3e752507	0.23939906
100	0x3ef761ea	0.4831689
101	0x3beaa939	0.007161286
102	0xbd2851f5	-0.041093785
103	0xbdcb1425	-0.09915952
104	0x3d5cb383	0.053882133
105	0x3da78141	0.0817895
106	0x3ec940db	0.39307293
107	0x3f06e491	0.52692515
108	0x3eac6d39	0.3367708
109	0x3e3cbb82	0.18430904
110	0xbde5f435	-0.112282194
111	0x3e3a9dee	0.18224308
112	0xbcf2120e	-0.029549625
113	0x3ea86b18	0.32894206
114	0x3e8886a2	0.26665217
115	0x3ea3340e	0.31875652
116	0x3eb5e6fb	0.35527787
117	0x3ed47145	0.41492668
118	0xbe2409a8	-0.16019309
119	0xbe4e87e0	-0.2016902
120	0xbde0a941	-0.109697826
121	0x3e65d2d1	0.22443701
122	0x3e9cd229	0.3062909
123	0x3e8029ba	0.25031835
124	0x3e808629	0.25102356
125	0x3c32130a	0.010868797
126	0x3eb878a2	0.36029536
127	0x3e5c29a8	0.21500266
128	0xbe86d983	-0.26337823
129	0x3ec1c627	0.3784649
130	0x3dc2854c	0.094980806
131	0x3d9e3ddb	0.07726642
132	0x3e3586b5	0.17727168
133	0x3e2cf6f6	0.16891083
134	0x3deeb1e0	0.11655021
135	0x3e841a93	0.25801525
136	0x3da05ca1	0.078301676
137	0x3d0f8983	0.03504325
138	0x3ebca222	0.36842448
139	0x3ed415b0	0.41422796
140	0x3ded2c21	0.115806825
141	0x3e791efe	0.24328229
142	0xbbf6cb72	-0.007531577
143	0x3e336480	0.17518806
144	0x3c5c1d12	0.013434665
145	0x3e889a81	0.26680377
146	0x3d8dd017	0.069244556
147	0x3f07a412	0.52984726
148	0x3eae0985	0.33991638
149	0x3ed673d7	0.41885254
150	0xbd70bcda	-0.058773853
151	0x3e36a0cc	0.17834777
152	0xbd7286fa	-0.059210755
153	0x3ec1aa26	0.37825125
154	0x3e61370a	0.21993652
155	0xbdaac152	-0.08337654
156	0x3e29102e	0.16510078
157	0xbe536332	-0.20643309
158	0x3d4e18d6	0.050316654
159	0xbe755f0b	-0.23962037
160	0x3e288fb0	0.16461062
161	0xbdbe03b2	-0.092780486
162	0xbd15be46	-0.036558412
163	0x3ea1ed4e	0.31626362
164	0xbd152fe4	-0.036422625
165	0xbd571f03	-0.05251981
166	0xbe47d88e	-0.19516203
167	0xbcb61ed0	-0.02223149
168	0x3d845825	0.06462125
169	0xbd2c0714	-0.041998938
170	0x3d955add	0.072927214
171	0x3e1492ce	0.14509127
172	0x3f1ccd9f	0.6125125
173	0x3ed82206	0.42213458
174	0x3eac264b	0.33622965
175	0xbcf1f6ab	-0.029536566
176	0x3db983d7	0.090583496
177	0xbe68b9fc	-0.22727197
178	0x3e3c63db	0.18397467
179	0x3e5476db	0.20748465
180	0xbe8b19e5	-0.27168193
181	0x3c45d2a0	0.012074143
182	0xbe282674	-0.16420919
183	0xbe2da58e	-0.16957685
184	0x3e9743a9	0.29543808
185	0x3de4234e	0.11139546
186	0x3e6260e1	0.22107269
187	0xbc2d55aa	-0.010579506
188	0xbe3d9c59	-0.18516673
189	0xbe13dc88	-0.14439595
190	0xbea13c44	-0.31491292
191	0x3e89fdd7	0.26951477
192	0x3ebdc765	0.37066188
193	0x3ea836da	0.32854348
194	0x3ee7eab8	0.45296264
195	0x3f074063	0.5283262
196	0x3f4a7e63	0.790991
197	0x3f16b336	0.58867204
198	0x3ed891f4	0.42298853
199	0x3e9d6744	0.30742848
200	0x3e263153	0.16229753
201	0xbe05a97f	-0.13052939
202	0x3e0a5293	0.13508062
203	0x3e31d598	0.17366636
204	0x3e16e916	0.14737353
205	0xbe1d6e08	-0.15374005
206	0xbe20d126	-0.15704784
207	0x3ecbd4d5	0.39810815
208	0x3e95770b	0.29192385
209	0x3e919b6b	0.28438887
210	0x3d2b066d	0.041754175
211	0xbe321870	-0.17392135
212	0xbb27aa56	-0.0025583706
213	0x3eece891	0.46271184
214	0x3ec46a43	0.3836232
215	0x3ec42aa6	0.38313788
216	0x3e971aff	0.29512784
217	0xbdeb333c	-0.114843816
218	0xbe6a1a0c	-0.22861499
219	0x3ed4d08f	0.41565368
220	0x3e602457	0.21888863
221	0x3e579a89	0.21055044
222	0x3e908c9c	0.28232276
223	0x3e5130d9	0.2042879
224	0x3e10d385	0.14143188
225	0xba12eb21	-0.0005604495
226	0x3de01e66	0.10943298
227	0x3ebb77ae	0.36614746
228	0x3ea3fcdf	0.32028863
229	0xbdfeff22	-0.124510065
230	0x3ed7ed47	0.42173216
231	0x3e319a59	0.17344035
232	0xbcd52f24	-0.026023455
233	0x3e03bd1c	0.12865108
234	0x3e9652ad	0.29359952
235	0xbd17b1ed	-0.037034918
236	0x3ea79d94	0.3273741
237	0x3d82b540	0.06382227
238	0xbde1e2db	-0.11029597
239	0xbdf20183	-0.118166946
240	0x3e5b9ca1	0.21446468
241	0x3df867b5	0.121291555
242	0x3e7439a2	0.2385011
243	0x3e2d4e60	0.16924429
244	0x3ee74288	0.45167947
245	0x3de59d9c	0.11211702
246	0x3ec0308c	0.37537038
247	0x3c99e237	0.018784625
248	0x3da27c96	0.07933919
249	0x3e5ab164	0.21356732
250	0x3ec7f360	0.39052868
251	0x3e818148	0.25293946
252	0x3ed8cfb4	0.42345965
253	0x3e783df6	0.24242386
254	0x3e30967f	0.1724491
255	0x3e21cfb2	0.15801886

parallel_cnn_block.branches.3.0.weight f4 [1, 1, 32]
0	0xbd2ac133	-0.041688155
1	0x3e194165	0.14966352
2	0x3db2ca0b	0.08729943
3	0x3e3e7de3	0.1860271
4	0xbb8d134b	-0.0043052784
5	0x3e346268	0.17615664
6	0x3e7940de	0.24341151
7	0x3e3f017f	0.18652914
8	0x3e0be613	0.13661985
9	0x3d9b8f9c	0.07595751
10	0x3e3ef378	0.18647563
11	0x3ea20903	0.316475
12	0x3ea4df91	0.32201818
13	0x3eb70eac	0.3575338
14	0x3e4116c2	0.18856338
15	0x3e984e20	0.29747105
16	0x3e61c251	0.22046782
17	0x3ea9a597	0.33134148
18	0x3e06f10d	0.13177891
19	0x3e7bdfdd	0.24597116
20	0x3e1e4fa0	0.15460062
21	0x3da3ee38	0.08004421
22	0x3e0644ac	0.13112134
23	0x3e3b2a5b	0.18277876
24	0x3d8d620b	0.06903466
25	0x3e5c4ed1	0.21514441
26	0x3e0a2392	0.13490131
27	0xbdd98846	-0.10621695
28	0xbde0491c	-0.109514445
29	0x3da58fa0	0.08084035
30	0x3e02b104	0.12762839
31	0xbe21aae2	-0.15787843

parallel_cnn_block.branches.3.2.bias f4 [16]
0	0x3d874525	0.06604985
1	0x3e3366a9	0.1751963
2	0x3e028c3a	0.12748805
3	0x3e00472c	0.1252715
4	0x3e2804c2	0.16408065
5	0x3cbc6ccb	0.023001095
6	0x3cbfd7e1	0.023418369
7	0xbcde9dc7	-0.027174843
8	0x3d8f5c64	0.07000044
9	0x3ddc0cde	0.10744642
10	0x3e2c43d7	0.16822754
11	0x3e61d025	0.22052057
12	0xbd2e7a7b	-0.042597275
13	0x3e82e13e	0.2556247
14	0x3e13f391	0.14448382
15	0x3dbadbaa	0.09123929
