remade/wide/modelpars_wide_i_24.safetensors (safetensors, 86584 bytes, 32 tensors)

bilstm.bias_hh_l0 f4 [64]
-0.23315269 -0.11952666 0.31307673 0.17176032 -0.0015611468 0.024433227 -0.30093193 0.07500149
0.23129568 -0.087708645 0.06364609 -0.16747396 -0.17427574 0.19669937 -0.10612574 -0.16328435
0.06688804 0.20706354 0.22653659 0.17349347 0.269405 -0.17680857 0.28992197 0.09165502
0.15773393 0.2632185 0.11978906 -0.11780328 0.25574452 -0.19962119 0.07463962 -0.11123543
-0.038941238 -0.20446002 -0.014378466 0.0299932 -0.15013288 0.060121894 0.010340079 -0.15307336
-0.0059215818 0.2519603 0.27442464 0.09571467 0.17408165 -0.08525735 -0.079463445 -0.17097901
0.2501814 -0.1446956 0.29274234 -0.17213283 0.05257889 -0.021031383 0.024494858 0.26928735
0.25687012 0.17482412 0.11908708 0.25859156 0.040350284 -0.21960829 -0.10139497 0.082523145
00000000: 94bf 6ebe 65ca f4bd 984b a03e f0e1 2f3e
00000010: 659f ccba 3128 c83c c013 9abe 629a 993d
00000020: c6d8 6c3e 97a0 b3bd e258 823d 4b7e 2bbe
00000030: 5775 32be 8f6b 493e 7458 d9bd 0334 27be
00000040: 99fc 883d 7708 543e 35f9 673e 46a8 313e
00000050: 74ef 893e 4e0d 35be a770 943e a1b5 bb3d
00000060: 0185 213e 93c4 863e f753 f53d d942 f1bd
00000070: f2f0 823e 7f69 4cbe a8dc 983d 67cf e3bd
00000080: d980 1fbd f85d 51be a893 6bbc 4db4 f53c
00000090: 6fbc 19be 6042 763d 6f69 293c 43bf 1cbe
000000a0: d409 c2bb f100 813e 6381 8c3e 0e06 c43d
000000b0: 7642 323e 689b aebd bbbd a2bd 1f15 2fbe
000000c0: c717 803e 152b 14be 53e2 953e 9743 30be
000000d0: f65c 573d 024a acbc 71a9 c83c 08e0 893e
000000e0: 7b84 833e 1805 333e ede3 f33d 1d66 843e
000000f0: 5746 253d ffe0 60be 2ba8 cfbd e501 a93d

bilstm.bias_hh_l0_reverse f4 [64]
-0.010176284 -0.0041420935 0.18060613 -0.11159901 -0.19015542 0.04729712 -0.076068066 -0.0312057
-0.2297161 0.084693566 -0.26445842 0.08149317 0.2706239 0.12259268 0.24128649 -0.19153197
0.27092496 0.26789662 -0.1819091 0.04380269 0.04597523 -0.09713558 0.21202429 0.19955233
-0.0012476819 0.14794406 -0.047339365 -0.1906601 0.06549209 0.22740223 -0.08161523 -0.21193117
0.023693183 -0.12655406 0.12573342 -0.0461628 -0.2520035 -0.24897498 -0.019725703 -0.21228474
0.16394152 0.0785919 0.22493194 -0.14873886 0.15409784 -0.188604 -0.18261237 -0.13729371
0.2795593 -0.0011421432 -0.039139934 -0.052413326 0.016764099 0.00657034 -0.086814635 0.30462033
0.19404016 0.035769038 0.1506496 0.013691747 0.15302226 -0.10876452 -2.4319668e-05 0.23685677
00000000: 6eba 26bc 66ba 87bb d0f0 383e 068e e4bd
00000010: 1ab8 42be a0ba 413d 93c9 9bbd 19a3 ffbc
00000020: b33a 6bbe d273 ad3d 1867 87be e4e5 a63d
00000030: 378f 8a3e df11 fb3d ce13 773e f520 44be
00000040: adb6 8a3e bf29 893e 6146 3abe 736a 333d
00000050: 8650 3c3d 05ef c6bd e51c 593e 7257 4c3e
00000060: 4289 a3ba a67e 173e ece6 41bd 673c 43be
00000070: b820 863d 21dc 683e e325 a7bd 7c04 59be
00000080: 3518 c23c 6397 01be 43c0 003e 3415 3dbd
00000090: 9a06 81be 4cf3 7ebe cc97 a1bc 2c61 59be
000000a0: 49e0 273e caf4 a03d 8f54 663e 004f 18be
000000b0: d3cb 1d3e 6821 41be bdfe 3abe b996 0cbe
000000c0: 6622 8f3e f7b3 95ba 3251 20bd 5baf 56bd
000000d0: dd54 893c 024c d73b dfcb b1bd 32f7 9b3e
000000e0: 77b2 463e 8e82 123d e443 1a3e 5953 603c
000000f0: deb1 1c3e efbf debd 1702 ccb7 958a 723e

bilstm.bias_ih_l0 f4 [64]
-0.16467816 -0.04585827 -0.11757759 -0.119640805 -0.029463796 0.13574815 0.12675558 -0.1729527
-0.04668426 0.16184226 0.28200698 0.24510948 -0.15962787 -0.01359103 0.2259286 -0.34095827
0.06817908 0.19771053 -0.07109682 0.17606357 0.24448282 0.19941399 0.003605427 -0.07766328
0.13958871 -0.13182074 -0.04153876 0.1424365 0.23611377 0.111248754 0.08998242 -0.010809743
0.12571198 -0.21741506 0.07331195 0.204772 0.14849038 -0.2548993 0.056159012 0.050015204
-0.1170195 -0.15234 0.009736811 -0.10636205 -0.07253235 0.030465519 0.21300149 -0.13094158
0.22106512 0.008092965 0.24773927 0.14136527 0.042327188 -0.055453807 0.3129759 -0.08665633
0.24215882 0.106479734 0.28964645 0.04338997 0.28766814 0.15098916 -0.17527708 -0.032300737
00000000: 64a1 28be e2d5 3bbd 85cc f0bd 3d06 f5bd
00000010: 0f5e f1bc 9001 0b3e 37cc 013e 831a 31be
00000020: ff37 3fbd fab9 253e 3863 903e fbfd 7a3e
00000030: 7d75 23be e9ac 5ebc d459 673e 1592 aebe
00000040: 79a1 8b3d a174 4a3e 369b 91bd 024a 343e
00000050: b459 7a3e 2e33 4c3e 0749 6c3b ed0d 9fbd
00000060: 58f0 0e3e 04fc 06be 8c24 2abd e0da 113e
00000070: cfc7 713e 63d6 e33d b448 b83d 591b 31bc
00000080: a4ba 003e 0ea2 5ebe 9324 963d c0af 513e
00000090: dd0d 183e 2982 82be fe06 663d bedc 4c3d
000000a0: eba7 efbd 04ff 1bbe 2587 1f3c 59d4 d9bd
000000b0: d78b 94bd d392 f93c 101d 5a3e 8d15 06be
000000c0: e55e 623e 5b98 043c 5daf 7d3e 0fc2 103e
000000d0: 465f 2d3d 8823 63bd 613e a03e e078 b1bd
000000e0: 7bf8 773e 0c12 da3d 8a4c 943e aeb9 313d
000000f0: 3d49 933e e79c 1a3e d67b 33be c74d 04bd

bilstm.bias_ih_l0_reverse f4 [64]
0.13209374 0.14281522 -0.06460163 -0.20596594 -0.067721546 -0.11369777 0.24927363 0.3120268
0.014974535 0.20751542 0.076930426 -0.005690567 0.13183352 -0.15543899 -0.027714474 0.19376068
-0.033957947 -0.11083739 -0.04771993 0.27645603 0.10600564 0.03787246 -0.20040093 -0.13315237
0.2252441 0.24371043 0.22760017 -0.114755966 0.011309652 0.15048984 0.047834262 -9.232678e-05
-0.22307187 0.00790087 0.089655094 -0.044293597 -0.24974298 -0.087682694 0.122871995 0.06976608
0.118499584 0.21536866 0.22223024 0.17169425 0.12958969 0.1736064 0.20243274 -0.12912278
0.023451762 0.14099643 -0.09829005 0.017000185 0.31167406 0.067693554 0.25724095 -0.08746299
0.18361057 0.20332342 0.24323049 0.29656786 0.041179873 0.19015169 -0.23636179 0.12841988
00000000: 9543 073e 273e 123e dc4d 84bd bce8 52be
00000010: 98b1 8abd 60da e8bd 9641 7f3e fac1 9f3e
00000020: c157 753c ec7e 543e b38d 9d3d f077 babb
00000030: 5eff 063e 662b 1fbe 7709 e3bc 3369 463e
00000040: 7d17 0bbd b7fe e2bd f975 43bd a58b 8d3e
00000050: 7c19 d93d 2720 1b3d e735 4dbe 1859 08be
00000060: 64a6 663e 3a8f 793e 0510 693e 2d05 ebbd
00000070: 1e4c 393c 021a 1a3e dced 433d 909f c1b8
00000080: f46c 64be a772 013c 179d b73d 346d 35bd
00000090: a0bc 7fbe fc92 b3bd 50a4 fb3d 85e1 8e3d
000000a0: e9af f23d 9a89 5c3e 5390 633e 9ed0 2f3e
000000b0: 29b3 043e e0c5 313e 874a 4f3e c338 04be
000000c0: e91d c03c 5e61 103e 4b4c c9bd f943 8b3c
000000d0: be93 9f3e eba2 8a3d 16b5 833e cc1f b3bd
000000e0: 6904 3c3e 0434 503e 6a11 793e bed7 973e
000000f0: 3aac 283d 20b7 423e d308 72be 8080 033e

bilstm.weight_hh_l0 f4 [64, 16]
0.15011735 -0.20279905 0.19241838 -0.021076173 -0.009185295 0.11130333 -0.20835684 0.21785316
-0.06700891 0.18972012 0.15985829 -0.07784886 0.06345843 -0.041265395 -0.072351575 0.06262792
-0.10496431 -0.09600835 -0.034961205 0.22420293 0.23649354 -0.0678126 -0.03346469 -0.10251489
0.0611609 0.011223453 0.020187631 0.18899164 -0.04745332 0.2036111 -0.40310425 -0.19059937
-0.24200803 -0.032201257 -0.31873435 0.019551115 -0.16110027 -0.181148 -0.12332774 0.12923338
-0.14950167 0.046799757 0.20104411 0.1677086 -0.044796344 0.2901057 -0.28916678 0.2845436
0.21202731 -0.2308539 -0.22430876 -0.0626286 0.07413097 -0.23982325 -0.02001681 0.016112931
0.13631411 0.22603384 0.24576725 -0.13304833 0.18229531 -0.12122315 0.08480216 -0.22687124
-0.10743693 -0.06756767 -0.22535744 0.13091873 0.19154294 0.21374635 0.15624222 0.17840014
-0.18705796 0.09736042 0.10764996 -0.19815354 0.030301828 -0.010099112 -0.1380649 -0.18649648
-0.012239222 0.32107335 0.05313006 -0.2856475 -0.17058827 -0.26738283 -0.33778626 -0.042968344
0.28101373 -0.0211824 -0.14996175 -0.04884482 0.14640933 -0.27632883 -0.08120073 -0.075310044
-0.059864625 0.3215065 -0.015825562 -0.32239494 0.0798074 -0.12919255 -0.20822382 0.13364859
0.24946024 -0.1324757 -0.36106002 -0.08355763 -0.12954813 -0.2777648 -0.030887078 0.13259183
-0.23621598 -0.02423676 -0.08081808 0.17433226 0.16745937 0.1354797 0.034761436 -0.15742353
-0.11084954 -0.1695649 -0.15225601 0.04450932 -0.18462999 -0.223296 -0.12693156 -0.21703544
0.045471277 -0.2817821 0.12484586 0.20501874 0.15350083 -0.0520727 -0.046207003 -0.07316323
-0.13359936 0.21678543 0.15600023 0.22208673 -0.06823489 0.12484631 0.09460005 0.15113959
-0.16668853 -0.25166914 0.16125277 0.089549914 -0.13182583 0.023536982 -0.19835666 0.072615534
0.13263464 0.018534102 -0.209262 0.07175405 0.18060988 -0.14981331 -0.15051727 -0.25472304
0.274297 -0.15554278 0.117235415 0.179101 -0.016448384 -0.11830646 -0.10694665 -0.23287192
0.11433558 0.06644869 0.20997274 0.029566685 -0.16911305 0.11399123 -0.076790586 0.3105279
-0.1753482 0.1454845 0.113754526 0.06864692 0.029225007 -0.11853546 -0.0014798017 -0.22811793
0.17171423 0.02587519 0.253471 0.20376375 0.26168793 -0.18511207 -0.09092436 0.059386794
0.13508362 -0.30242404 0.19491015 0.29433557 -0.13196531 -0.053450543 0.11115892 0.065029435
-0.2664365 -0.113501884 0.14846353 0.0326094 -0.16604467 0.11746118 -0.25580758 0.24612094
0.029458454 -0.1322294 -0.23284616 -0.00990544 0.06092734 0.2077734 0.098354116 -0.287601
-0.026341967 -0.03655783 0.22283591 -0.1808182 0.20454009 0.07392293 -0.21605948 -0.09440675
0.012093271 -0.049561426 -0.1996791 -0.18847257 0.1861341 -0.20866615 -0.46855807 0.08509422
-0.13454944 0.15055233 -0.018811416 0.06495533 0.098855324 0.2556466 0.022421962 0.27186948
0.11413794 0.41105142 -0.036842328 -0.1149468 0.227141 -0.19748932 -0.57477176 -0.1998883
0.26277375 0.06548608 -0.2884223 0.14172883 -0.1272016 0.15792389 -0.22910385 0.1649951
00000000: 5db8 193e 8eaa 4fbe 5309 453e f0a7 acbc
00000010: eb7d 16bc 00f3 e33d 7f5b 55be e614 5f3e
00000020: f83b 89bd fe45 423e e4b1 233e 396f 9fbd
00000030: 7ef6 813d e705 29bd 102d 94bd 1143 803d
00000040: 87f7 d6bd 07a0 c4bd 7b33 0fbd 7495 653e
00000050: 5d2b 723e 55e1 8abd 4512 09bd 54f3 d1bd
00000060: da83 7a3d 93e2 373c 8860 a53c 0687 413e
00000070: 6a5e 42bd 6e7f 503e ae63 cebe 7b2c 43be
00000080: f4d0 77be 77e5 03bd 2631 a3be a929 a03c
00000090: 78f7 24be dc7e 39be 4193 fcbd c155 043e
000000a0: f716 19be 1ab1 3f3d 82de 4d3e cebb 2b3e
000000b0: 5f7c 37bd bc88 943e ab0d 94be b3af 913e
000000c0: b01d 593e f764 6cbe 32b1 65be 6c43 80bd
000000d0: fad1 973d 3a94 75be 4bfa a3bc 44ff 833c
000000e0: ed95 0b3e 6a75 673e 69aa 7b3e d23d 08be
000000f0: 9fab 3a3e d843 f8bd c1ac ad3d ef50 68be
00000100: e507 dcbd eb60 8abd 1ac4 66be 8f0f 063e
00000110: d523 443e 53e0 5a3e f6fd 1f3e 87ae 363e
00000120: 1f8c 3fbe e664 c73d 9577 dc3d c3e8 4abe
00000130: 8a3b f83c bf76 25bc e360 0dbe eff8 3ebe
00000140: 0587 48bc ba63 a43e e89e 593d 6440 92be
00000150: b1ae 2ebe 67e6 88be 52f2 acbe 93ff 2fbd
00000160: 08e1 8f3e b686 adbc 938f 19be 8211 48bd
00000170: 54ec 153e f97a 8dbe 914c a6bd 273c 9abd
00000180: 9c34 75bd 809c a43e 9ca4 81bc f310 a5be
00000190: 1072 a33d 0d4b 04be a038 55be 2ddb 083e
000001a0: 8172 7f3e b6a7 07be dcdc b8be 4320 abbd
000001b0: 44a8 04be 3037 8ebe e606 fdbc 27c6 073e
000001c0: 9ae2 71be 2b8c c6bc f383 a5bd 2884 323e
000001d0: 787a 2b3e 31bb 0a3e 0262 0e3d a233 21be
000001e0: 1505 e3bd 6ca2 2dbe 00e9 1bbe 684f 363d
000001f0: a50f 3dbe b5a7 64be 59fa 01be 8a3e 5ebe
00000200: 1740 3a3d be45 90be 30af ff3d 6ff0 513e
00000210: 522f 1d3e 2f4a 55bd 8e43 3dbd 9bd6 95bd
00000220: 45ce 08be 00fd 5d3e 86be 1f3e b46a 633e
00000230: bcbe 8bbd 6caf ff3d acbd c13d 56c4 1a3e
00000240: 66b0 2abe c7da 80be 721f 253e f265 b73d
00000250: 5afd 06be a1d0 c03c 021e 4bbe 74b7 943d
00000260: 60d1 073e d4d4 973c c748 56be caf3 923d
00000270: ccf1 383e a968 19be 3321 1abe 0f6b 82be
00000280: a870 8c3e 9b46 1fbe 1f19 f03d 4166 373e
00000290: c3be 86bc a84a f2bd d806 dbbd fa75 6ebe
000002a0: c628 ea3d 4016 883d 1803 573e d535 f23c
000002b0: f92b 2dbe 3c74 e93d 6244 9dbd 83fd 9e3e
000002c0: 7b8e 33be e4f9 143e 22f8 e83d c296 8c3d
000002d0: 4869 ef3c b8c2 f2bd e8f5 c1ba bf97 69be
000002e0: dbd5 2f3e 35f8 d33c f3c6 813e 72a7 503e
000002f0: f6fb 853e 058e 3dbe 8d36 babd 913f 733d
00000300: 5c53 0a3e 53d7 9abe 8796 473e 27b3 963e
00000310: ea21 07be f5ee 5abd 4aa7 e33d 272e 853d
00000320: 5d6a 88be ad73 e8bd d306 183e 6f91 053d
00000330: 9d07 2abe 7d8f f03d 36f9 82be 2107 7c3e
00000340: db52 f13c 2567 07be 396f 6ebe 6d4a 22bc
00000350: f28e 793d 8dc2 543e e26d c93d 7040 93be
00000360: 1ccb d7bc aabd 15bd 192f 643e 6828 39be
00000370: f572 513e e864 973d b23e 5dbe 5358 c1bd
00000380: db22 463c ec00 4bbd ae78 4cbe f4fe 40be
00000390: f099 3e3e 94ac 55be d8e6 efbe e145 ae3d
000003a0: 54c7 09be 642a 1a3e 661a 9abc 4d07 853d
000003b0: a974 ca3d 1ce4 823e 43ae b73c 7a32 8b3e
000003c0: 27c1 e93d 5575 d23e fbe7 16bd 3a69 ebbd
000003d0: a697 683e a43a 4abe 3e24 13bf 85af 4cbe
000003e0: 488a 863e 911d 863d 16ac 93be 5d21 113e
000003f0: 2341 02be cdb6 213e 339a 6abe 7af4 283e

bilstm.weight_hh_l0_reverse f4 [64, 16]
-0.14422503 -0.230255 -0.22139032 -0.053104408 -0.10670564 -0.10683025 -0.1848669 -0.0659554
-0.14576767 0.07516406 -0.07149499 -0.030210095 -0.13646725 0.3001683 0.25481632 -0.21564192
-0.09680292 0.089852795 -0.049518976 0.20810677 0.104105696 -0.2936099 -0.12325567 -0.35131413
0.009439718 0.22157623 0.024754971 -0.08993073 0.16963941 0.16012265 0.048182193 -0.08597773
0.024090562 0.16625342 -0.13623561 -0.6069113 0.074482836 -0.043774586 -0.2116759 0.04718275
-0.39351583 -0.11746788 -0.24005163 0.28459483 -0.18710905 0.29372978 0.07567143 -0.09156883
0.15515684 0.11781565 -0.118923426 0.3342162 0.36300114 0.41058648 -0.16350946 -0.21832913
-0.32616946 -0.2316691 -0.03249718 0.23839226 -0.1017872 0.36286694 -0.43731895 -0.16407908
0.051804814 -0.1486747 0.19286783 -0.03545634 -0.0908397 0.13248724 0.121637195 -0.08283505
-0.18906692 -0.05599826 0.22022824 -0.18880597 -0.1345679 -0.26135817 0.080319256 0.21087676
-0.065929644 0.0062875603 0.06358109 0.02905194 0.16427703 -0.052472036 0.033061046 -0.12829089
-0.026249401 0.24148045 0.13964719 -0.04953999 0.11939577 0.08689272 -0.11894452 0.007733623
0.16590188 0.16954395 -0.062967226 -0.16344817 0.06356895 0.09222618 0.21895637 0.17244019
0.0025702626 0.20554556 0.03565519 -0.21965636 0.21685545 -0.0859527 -0.23950094 0.05992454
0.08496478 0.02752914 0.064480945 0.44600412 -0.33176258 0.114951074 -0.1247435 0.19930549
0.25060397 0.27892828 0.27119792 -0.030548137 0.09085478 -0.34346828 0.1889704 -0.05071992
0.26211223 0.29763907 -0.16373125 -0.29795387 -0.058125533 -0.032244734 -0.17993842 -0.12796353
0.072645046 -0.1960873 0.15203835 0.041924622 -0.016339678 0.16596502 0.115194276 -0.08948184
-0.14233442 0.17626253 0.11219251 -0.08183723 -0.2360395 0.05110803 -0.14791346 -0.20967177
-0.19943008 0.09431664 -0.14446163 -0.059823964 -0.03132145 -0.028792318 0.02419005 0.15178773
0.07115634 -0.12095744 0.0020883384 0.25053477 -0.18491852 -0.20082714 -0.25156274 0.20462479
-0.0030572547 0.010532559 0.15519747 0.20778118 0.19857934 0.30584136 0.015009531 -0.08595747
0.024308015 -0.07943006 -0.05730051 0.07789417 -0.18063544 0.017169049 -0.09154203 -0.025233371
-0.11604102 -0.06719721 0.16360767 -0.22730139 0.20565122 0.04977134 -0.10361048 0.2055306
-0.14435776 -0.0011544396 0.04879202 0.18808317 0.20998152 0.19251774 -0.043218255 -0.17974441
0.0110111395 0.08287683 -0.20170876 0.08511632 0.025506677 0.1080776 -0.07582817 0.060378026
-0.24209581 0.099985555 0.20282206 -0.18792407 -0.21768872 -0.27407643 0.16118744 -0.08690131
0.035819527 0.013156986 0.23440452 -0.08657664 0.14152983 -0.0065093315 -0.15225394 0.090052895
-0.26418823 -0.053225555 0.00074065436 -0.19816215 -0.13923624 0.11546498 0.19649819 -0.0020375617
-0.12175358 0.13320689 -0.059994563 -0.046868015 -0.047094785 -0.1825842 0.026421899 0.03512664
-0.12548518 -0.20028841 -0.14742973 -0.18189673 0.013307426 0.19973823 -0.023256158 0.08258123
-0.006369189 0.16648446 0.10643212 -0.054893874 0.14704514 0.080971554 -0.31390673 0.039417163
00000000: baaf 13be f7c7 6bbe 25b4 62be 0284 59bd
00000010: 7d88 dabd d1c9 dabd c04d 3dbe a013 87bd
00000020: 1f44 15be 9def 993d f76b 92bd 297b f7bc
00000030: 12be 0bbe a9af 993e 4977 823e 3cd1 5cbe
00000040: 9c40 c6bd be04 b83d 69d4 4abd f119 553e
00000050: 5e35 d53d 0954 96be 786d fcbd 72df b3be
00000060: 0ca9 1a3c e1e4 623e f0ca ca3c 9a2d b8bd
00000070: f4b5 2d3e 31f7 233e b15a 453d 1815 b0bd
00000080: 9259 c53c 563e 2a3e 5981 0bbe 8a5e 1bbf
00000090: 758a 983d fb4c 33bd 91c1 58be b342 413d
000000a0: e87a c9be 0093 f0bd 18d0 75be 6ab6 913e
000000b0: 8499 3fbe c063 963e 9ff9 9a3d 7088 bbbd
000000c0: 6fe1 1e3e 5549 f13d 208e f3bd 631e ab3e
000000d0: 49db b93e 6438 d23e 066f 27be ac91 5fbe
000000e0: afff a6be aa3a 6dbe c31b 05bd 1a1d 743e
000000f0: cf75 d0bd b2c9 b93e 45e8 dfbe 5904 28be
00000100: 4931 543d 2e3e 18be 257f 453e ab3a 11bd
00000110: 2a0a babd bcaa 073e ec1c f93d 6ca5 a9bd
00000120: c29a 41be 6e5e 65bd 8383 613e 5a56 41be
00000130: 2bcc 09be bdd0 85be 6c7e a43d 14f0 573e
00000140: 1f06 87bd e107 ce3b cd36 823d 56fe ed3c
00000150: 3d38 283e ebec 56bd 056b 073d b05e 03be
00000160: fc08 d7bc a746 773e acff 0e3e 72ea 4abd
00000170: c585 f43d cff4 b13d 2f99 f3bd 556a fd3b
00000180: 2fe2 293e ee9c 2d3e f6f4 80bd f55e 27be
00000190: 7030 823d 14e1 bc3d 1936 603e 2994 303e
000001a0: da71 283b 897a 523e 2d0b 123d 99ed 60be
000001b0: 5b0f 5e3e f807 b0bd bc3f 75be 6f73 753d
000001c0: 0402 ae3d ca84 e13c 960e 843d a75a e43e
000001d0: c9dc a9be 786b eb3d 8579 ffbd bd16 4c3e
000001e0: 2a4f 803e b0cf 8e3e 74da 8a3e 1640 fabc
000001f0: 1212 ba3d 13db afbe 7581 413e b1bf 4fbd
00000200: 9333 863e 2664 983e 2aa9 27be 698d 98be
00000210: 0a15 6ebd 0e13 04bd c741 38be df08 03be
00000220: edc6 943d 1ccb 48be f1af 1b3e 27b9 2b3d
00000230: cada 85bc bcf2 293e faea eb3d 4142 b7bd
00000240: 1dc0 11be 2a7e 343e 30c5 e53d 479a a7bd
00000250: 57b4 71be a756 513d a076 17be 32b4 56be
00000260: 6637 4cbe 1529 c13d c0ed 13be f909 75bd
00000270: ec4a 00bd dedd ebbc 362a c63c 3e6e 1b3e
00000280: 6aba 913d 89b8 f7bd 81dc 083b 1846 803e
00000290: 485b 3dbe a1a5 4dbe d5cc 80be 2989 513e
000002a0: 395c 48bb c190 2c3c 16ec 1e3e 97c4 543e
000002b0: 6258 4b3e 3d97 9c3e 89ea 753c 780a b0bd
000002c0: 9a21 c73c 3aac a2bd f1b3 6abd fb86 9f3d
000002d0: 7ff8 38be 1ba6 8c3c 637a bbbd 37b6 cebc
000002e0: eaa6 edbd b19e 89bd c588 273e b2c1 68be
000002f0: 3c96 523e 08dd 4b3d bb31 d4bd 9d76 523e
00000300: 85d2 13be 9150 97ba 24da 473d e098 403e
00000310: 6505 573e 5f23 453e a005 31bd eb0e 38be
00000320: 1168 343c 54bb a93d be8c 4ebe 7751 ae3d
00000330: 61f3 d03c ca57 dd3d cd4b 9bbd f34e 773d
00000340: f7e7 77be 3ac5 cc3d 96b0 4f3e 2b6f 40be
00000350: cbe9 5ebe bf53 8cbe 520e 253e 50f9 b1bd
00000360: 7fb7 123d 6690 573c bd07 703e 184f b1bd
00000370: 32ed 103e 3b4c d5bb 75e8 1bbe a76d b83d
00000380: ae43 87be 0a03 5abd 7928 423a 05eb 4abe
00000390: f293 0ebe e778 ec3d d236 493e 9d88 05bb
000003a0: f159 f9bd 6367 083e dcbc 75bd adf8 3fbd
000003b0: 76e6 40bd 5af7 3abe bd72 d83c f4e0 0f3d
000003c0: 307f 00be 6818 4dbe d2f7 16be 2343 3abe
000003d0: 6407 5a3c 2e88 4c3e b383 bebc 5920 a93d
000003e0: a1b4 d0bb e77a 2a3e 15f9 d93d 66d8 60bd
000003f0: 0093 163e 6ad4 a53d 62b8 a0be e473 213d

bilstm.weight_ih_l0 f4 [64, 32]
-0.15470068 0.03004792 0.4783713 0.20282349 0.10841417 0.20827845 -0.035401072 0.03341459
0.117624335 0.095300265 0.2097523 0.07094578 -0.046288576 -0.14069042 0.46608204 -0.06191534
-0.16214414 0.25636542 0.101671465 0.19966386 -0.16534647 -0.20517875 0.17451431 -0.19568107
-0.011228578 -0.22460023 -0.13597605 -0.23187158 0.14986607 0.103637256 -0.066574804 0.17319505
0.23035978 0.122720346 -0.6550331 0.07848768 0.18985498 -0.06826779 0.055058777 0.18667842
-0.12546916 -0.5083902 -0.012558894 0.16016912 -0.43430686 -0.16159742 -0.5230704 -0.22520694
0.11271251 -1.1146289 0.18194589 -0.29355958 0.06034925 0.2702792 -0.042694744 0.17051218
-0.2851711 0.01635485 -0.04327645 0.15752958 0.2416214 0.0100308275 -0.51044184 0.058790863
-0.015818166 -0.062962994 0.10579177 0.2019103 -0.025254795 0.11751369 0.07254707 0.037444938
0.23933384 -0.12604831 0.39052257 -0.13826606 1.1500394 0.25961682 0.36246577 -0.11487689
0.22478567 0.31539118 0.08871325 -0.051676176 -0.21032967 0.025705509 0.024668818 -0.02897551
-0.09120828 0.13868599 0.1527773 -0.016679274 0.042627793 -0.18434238 0.059379827 0.080509685
0.15727861 0.03455122 0.02130156 0.17319459 0.1567776 0.09186461 -0.033787027 0.18147181
0.25357595 -0.100217536 -0.17957233 -0.24233463 0.38072532 0.26155594 0.019760057 0.089020886
0.2947047 -0.050449096 0.09506013 0.14376046 -0.023076342 -0.13193321 0.07801103 0.105433166
0.02508983 0.036029175 0.07047403 0.2255513 0.07305081 0.038103543 0.22819854 -0.22520617
0.16798998 0.3008735 -0.027189262 0.24497366 0.18177819 0.27656862 0.022416798 -0.13358779
0.11547782 -0.011229344 0.18439673 0.23839015 0.41545027 -0.23651984 0.2702259 0.20649092
-0.07537245 -0.04582051 0.112975314 -0.047658816 -0.021397065 0.15962669 -0.16553667 0.23926151
-0.07991731 0.29252183 0.24742386 0.22782768 -0.0949166 0.19411865 0.12073365 0.16793191
0.035461478 0.08389233 -0.120354936 -0.23723322 0.2333288 -0.1778255 -0.3127515 -0.19689755
0.19071074 -0.101818606 0.41948482 0.20163085 0.19045818 -0.1468578 -0.09613553 0.23544668
0.07341018 -0.25026155 -0.23035623 -0.072636984 -0.09167151 0.051863693 0.15342644 -0.18895735
0.26266235 -0.14977552 0.08638087 0.1584107 -0.12681247 0.05830185 0.13618304 0.048988007
-0.09432657 -0.310283 -0.35107183 -0.12856002 -0.23154423 -0.2440153 -0.262615 0.076754615
0.10599876 0.23016521 -0.32882056 -0.03716667 0.20023787 0.109414496 0.18238759 0.15955326
-0.22033724 0.16147147 -0.03245191 -0.12882783 0.22859521 0.053762488 -0.18289207 0.104740344
0.02291776 -0.059168007 -0.049518663 -0.056742832 0.041466042 -0.3283723 0.2889768 -0.1308841
0.24613456 0.1606103 -0.16062291 -0.13456929 -0.118115194 0.2419372 0.19997309 -0.14757858
-0.1417082 0.009255538 0.033114113 -0.25270954 0.8706257 0.087855436 0.3873956 0.28714335
-0.1176023 0.17739335 -0.01322827 -0.06868373 -0.110189795 -0.059265967 0.19781077 0.043918516
0.21283762 0.0259819 0.11946483 -0.08269219 -0.14793594 -0.05962156 0.060624756 0.18335448
00000000: db69 1ebe 0e27 f63c 15ed f43e f6b0 4f3e
00000010: 4008 de3d f246 553e b700 11bd bddd 083d
00000020: 07e5 f03d c92c c33d 4fc9 563e 054c 913d
00000030: 1799 3dbd 2611 10be 4ea2 ee3e f19a 7dbd
00000040: 1d09 26be 5442 833e 2139 d03d af74 4c3e
00000050: 9650 29be 611a 52be e1b3 323e 9e60 48be
00000060: 12f8 37bc 9afd 65be 4e3d 0bbe be6f 6dbe
00000070: 7e76 193e c53f d43d 5f58 88bd 0b5a 313e
00000080: 6fe3 6b3e ce54 fb3d 40b0 27bf 26be a03d
00000090: 5869 423e fccf 8bbd 5085 613d a128 3f3e
000000a0: fd7a 00be dc25 02bf d2c3 4dbc 6003 243e
000000b0: 785d debe cb79 25be f1e7 05bf a69c 66be
000000c0: d1d5 e63d 29ac 8ebf 0650 3a3e 714d 96be
000000d0: c630 773d 0962 8a3e afe0 2ebd bf9a 2e3e
000000e0: f201 92be 9bfa 853c a642 31bd 6f4f 213e
000000f0: 9a6b 773e 5758 243c 51ac 02bf b0ce 703d
00000100: 1995 81bc bef2 80bd 5ba9 d83d 93c1 4e3e
00000110: 25e3 cebc 04ab f03d 8f93 943d dd5f 193d
00000120: ee13 753e cf12 01be 93f2 c73e 9e95 0dbe
00000130: 7e34 933f 7fec 843e 1d95 b93e 9344 ebbd
00000140: 372e 663e f47a a13e 4baf b53d 66aa 53bd
00000150: a960 57be 5c94 d23c 4316 ca3c 0c5e edbc
00000160: 68cb babd b303 0e3e a771 1c3e f9a2 88bc
00000170: 7b9a 2e3d 40c4 3cbe 4338 733d 43e2 a43d
00000180: a50d 213e 9485 0d3d 9c80 ae3c ec59 313e
00000190: 4f8a 203e 8323 bc3d 4464 0abd bfd3 393e
000001a0: b5d4 813e da3e cdbd cfe1 37be 9226 78be
000001b0: 6eee c23e a9ea 853e d8df a13c 9550 b63d
000001c0: 89e3 963e b6a3 4ebd e3ae c23d f135 133e
000001d0: 990a bdbc 8019 07be 3fc4 9f3d 58ed d73d
000001e0: 3089 cd3c 5493 133d b054 903d ecf6 663e
000001f0: aa9b 953d 7612 1c3d e1ac 693e 729c 66be
00000200: 9105 2c3e 170c 9a3e 04bc debc 60da 7a3e
00000210: 1024 3a3e 679a 8d3e 6fa3 b73c 3dcb 08be
00000220: a37f ec3d 48fb 37bc 7fd2 3c3e 8c1c 743e
00000230: e6b5 d43e 4232 72be 0d5b 8a3e 5b72 533e
00000240: df5c 9abd 49ae 3bbd 9a5f e73d e435 43bd
00000250: e648 afbc 2e75 233e 7282 29be f800 753e
00000260: b0ab a3bd 6cc5 953e ae5c 7d3e a94b 693e
00000270: a263 c2bd 0ac7 463e 3443 f73d 58f6 2b3e
00000280: 0e40 113d becf ab3d a67c f6bd 44ed 72be
00000290: bfed 6e3e e317 36be f720 a0be 839f 49be
000002a0: ad49 433e 4686 d0bd b7c6 d63e 5178 4e3e
000002b0: 7807 433e e461 16be b4e2 c4bd ef18 713e
000002c0: 1458 963d 4822 80be 81e2 6bbe b3c2 94bd
000002d0: 46be bbbd 066f 543d d21b 1d3e 097e 41be
000002e0: ae7b 863e c15e 19be 74e8 b03d 6a36 223e
000002f0: 21db 01be eccd 6e3d 9173 0b3e a6a7 483d
00000300: 4a2e c1bd 6add 9ebe b0bf b3be 3da5 03be
00000310: ee19 6dbe 26df 79be 7975 86be 8631 9d3d
00000320: e115 d93d 6eb0 6b3e 2b5b a8be 143c 18bd
00000330: 280b 4d3e b514 e03d d0c3 3a3e ee61 233e
00000340: 16a0 61be c758 253e 4bec 04bd 71eb 03be
00000350: dd14 6a3e 0e36 5c3d 0f48 3bbe 1b82 d63d
00000360: 07be bb3c 275a 72bd 15d4 4abd 2c6b 68bd
00000370: 4cd8 293d 6a20 a8be c4f4 933e 7b06 06be
00000380: b30a 7c3e 0777 243e 557a 24be 88cc 09be
00000390: 61e6 f1bd 63be 773e bfc5 4c3e d71e 17be
000003a0: f41b 11be 8aa4 173c aaa2 073d 2563 81be
000003b0: 53e1 5e3f 8ded b33d b758 c63e 7404 933e
000003c0: 7ad9 f0bd 9aa6 353e 63bb 58bc 0eaa 8cbd
000003d0: 30ab e1bd dfc0 72bd e88e 4a3e e7e3 333d
000003e0: 1bf2 593e fed7 d43c faa9 f43d 865a a9bd
000003f0: 857c 17be bd35 74bd aa51 783d 47c1 3b3e

bilstm.weight_ih_l0_reverse f4 [64, 32]
0.14952467 0.059239153 0.16602376 -0.16869995 0.14577867 0.09524753 -0.14859658 0.18240087
0.039638534 -0.046134092 0.17490853 0.13174227 0.17534705 0.15980974 0.25061065 0.19988775
-0.22997575 -0.35702008 -0.13073723 -0.13587508 0.1483419 -0.18501322 -0.20507967 0.18637094
-0.018243086 0.1642925 0.21460223 -0.030778153 -0.21521388 -0.22107476 0.29697636 -0.024163261
-0.08190952 -0.11183578 -0.3031443 0.08173269 0.19308022 0.038930804 -0.04193391 0.15357183
0.19538581 -0.18696569 0.17924035 -0.15238273 -0.2712429 0.15142278 0.012344967 0.24757539
-0.028740339 -0.08356451 0.07774482 0.11224733 -0.22555609 0.18911354 -0.046211425 -0.16074523
0.12198263 -0.054410703 0.005060006 -0.1131267 0.17171107 -0.002308941 0.058904614 -0.22781733
-0.15293038 0.09851709 0.3169818 0.10131218 0.07919329 -0.14726949 -0.060926855 -0.019240906
0.007995381 -0.22666025 -0.17962429 -0.07237846 0.032727588 0.15295164 -0.4802556 0.08979029
-0.040182352 0.17958422 0.2144735 0.026939375 -0.02060999 0.07356751 0.023293836 -0.06806508
0.12885322 -0.09732003 0.20406426 0.11877059 -0.0028990638 0.13818984 -0.43157855 -0.15829897
0.24229172 -0.15652953 0.096077785 -0.07603506 0.0522444 -0.105964296 0.18195936 -0.085138574
0.029759869 -0.30425876 -0.094364256 0.03230184 0.16180348 -0.20485127 0.10004838 0.10147433
-0.35310107 -0.51207274 -0.018519279 -0.14646536 0.08725175 0.028438348 -0.11497198 -0.13589378
-0.20117936 -0.018240042 -0.13706647 -0.1731726 -0.093665145 0.15869966 0.3155688 -0.20321235
-0.012479119 0.0036427286 0.12099267 0.18496205 0.032772023 0.17715998 0.21824124 -0.17284176
0.0046932856 0.027083363 0.21567208 0.25684512 0.1530583 -0.23393875 -0.014286108 -0.086146176
0.33367202 0.07655489 0.07213378 0.13272204 0.22111267 0.18378942 0.049422607 0.030684266
0.061158452 0.079100974 0.25521332 -0.1218867 -0.015580552 -0.048298582 0.37444797 0.09639489
0.1566454 0.34603065 0.29086953 -0.10527868 -0.00674022 0.28959423 0.33037055 -0.115822166
0.19765806 0.025638333 -0.11398066 0.019772094 0.065906346 -0.098853916 0.23917174 -0.21466656
-0.048290733 -0.090660036 -0.21565522 0.11061329 -0.07972904 0.3086338 -0.08258179 -0.24885798
0.19276567 0.15025908 0.15990217 -0.11186087 0.20009804 0.0931039 0.2887347 -0.22563739
0.01604363 -0.16707142 0.041498728 -0.11140195 -0.057224832 -0.11552936 0.15287541 -0.05395208
-0.13885522 0.22842143 0.04324197 -0.11198599 0.14787798 0.25635853 -0.015919466 0.26590353
-0.018660445 0.23824634 0.11847351 0.19274393 -0.12479198 0.24220933 0.29483768 0.045015413
-0.071670786 -0.077707104 0.17656519 0.23417822 0.1835036 -0.09653208 0.15212193 -0.08376882
-0.2790399 -0.045370225 -0.10326152 0.12181738 -0.06723979 -0.24515545 -0.16334298 0.025347859
0.11415577 0.23130135 0.2746661 -0.13191302 0.31396443 -0.045827467 0.07876001 -0.23958646
-0.15138751 -0.059342533 0.18612419 -0.054743405 0.019467233 -0.21764365 0.045966476 0.10788775
-0.2692468 -0.2804489 -0.18067263 0.17938672 -0.2059194 0.19937043 -0.1840372 0.21538661
00000000: ff1c 193e c1a4 723d 2202 2a3e aebf 2cbe
00000010: 0147 153e 2311 c33d b429 18be 4bc7 3a3e
00000020: 045c 223d 1af7 3cbd 391b 333e 72e7 063e
00000030: 2d8e 333e 2aa5 233e 0a50 803e 60af 4c3e
00000040: c37e 6bbe 56cb b6be fbdf 05be d622 0bbe
00000050: f0e6 173e 1b74 3dbe 6800 52be 06d8 3e3e
00000060: 8672 95bc 4b3c 283e b0c0 5b3e 7722 fcbc
00000070: 0761 5cbe 6c61 62be 490d 983e 08f2 c5bc
00000080: 2ec0 a7bd 280a e5bd bb35 9bbe 7863 a73d
00000090: d2b6 453e e875 1f3d e4c2 2bbd ef41 1d3e
000000a0: 3813 483e ef73 3fbe c88a 373e 380a 1cbe
000000b0: 59e0 8abe 930e 1b3e 8b42 4a3c 6784 7d3e
000000c0: dc70 ebbc df23 abbd ad38 9f3d eee1 e53d
000000d0: 2df8 66be fba6 413e 3148 3dbd 669a 24be
000000e0: 07d2 f93d c2dd 5ebd 68ce a53b f9ae e7bd
000000f0: 07d5 2f3e 9a51 17bb f745 713d f248 69be
00000100: c899 1cbe 54c3 c93d 704b a23e c37c cf3d
00000110: 1730 a23d d0cd 16be 708e 79bd 1b9f 9dbc
00000120: 0fff 023c a019 68be 6eef 37be 283b 94bd
00000130: 5d0d 063d 5b9f 1c3e 10e4 f5be f9e3 b73d
00000140: 4096 24bd ede4 373e f19e 5b3e f7af dc3c
00000150: 48d6 a8bc 90aa 963d b7d2 be3c b465 8bbd
00000160: 19f2 033e b94f c7bd 39f6 503e ff3d f33d
00000170: 38fe 3dbb a381 0d3e ddf7 dcbe 2019 22be
00000180: 521b 783e 4749 20be 6ec4 c43d 45b8 9bbd
00000190: 39fe 553d cf03 d9bd 8e53 3a3e 225d aebd
000001a0: f8ca f33c cec7 9bbe 0c42 c1bd ef4e 043d
000001b0: d0af 253e 88c4 51be 2ae6 cc3d c6d1 cf3d
000001c0: aac9 b4be 3317 03bf beb5 97bc 04fb 15be
000001d0: 0cb1 b23d 8af7 e83c 6e76 ebbd bd27 0bbe
000001e0: f601 4ebe 246c 95bc 275b 0cbe 2854 31be
000001f0: 83d3 bfbd 2a82 223e 3c92 a13e e616 50be
00000200: 3875 4cbc d8ba 6e3b 01cb f73d b166 3d3e
00000210: f53b 063d 6d69 353e a27a 5f3e 6efd 30be
00000220: 22ca 993b eedd dd3c 24d9 5c3e 3481 833e
00000230: 51bb 1c3e a48d 6fbe 4810 6abc 686d b0bd
00000240: 0fd7 aa3e cfc8 9c3d e0ba 933d 49e8 073e
00000250: 5c6b 623e 4b33 3c3e 5c6f 4a3d 925d fb3c
00000260: 4981 7a3d b1ff a13d 52ab 823e bc9f f9bd
00000270: 9245 7fbc bcd4 45bd a5b7 bf3e af6a c53d
00000280: a767 203e ee2a b13e daec 943e 599c d7bd
00000290: 10dd dcbb b245 943e 5426 a93e 2c34 edbd
000002a0: e066 4a3e 7b07 d23c b16e e9bd 16f9 a13c
000002b0: e8f9 863d ec73 cabd 70e9 743e 8dd1 5bbe
000002c0: 81cc 45bd f8ab b9bd b9d4 5cbe 3889 e23d
000002d0: fb48 a3bd 4005 9e3e a420 a9bd a0d4 7ebe
000002e0: 5d64 453e 84dd 193e 65bd 233e 5017 e5bd
000002f0: 80e6 4c3e 42ad be3d 09d5 933e 7d0d 67be
00000300: ee6d 833c c514 2bbe 92fa 293d b526 e4bd
00000310: 9664 6abd a89a ecbd 5f8b 1c3e dbfc 5cbd
00000320: 1030 0ebe 4fe7 693e 7e1e 313d e958 e5bd
00000330: 536d 173e 6d41 833e 8a69 82bc 8224 883e
00000340: cadd 98bc d9f6 733e 3da2 f23d aa5e 453e
00000350: f092 ffbd b905 783e f7f4 963e 1562 383d
00000360: 22c8 92bd e724 9fbd 81cd 343e 6acc 6f3e
00000370: 5ee8 3b3e 9cb2 c5bd dac5 1b3e fd8e abbd
00000380: 51de 8ebe 21d6 39bd c77a d3bd 647b f93d
00000390: 04b5 89bd 080a 7bbe 6243 27be 50a6 cf3c
000003a0: 80ca e93d 43da 6c3e 09a1 8c3e 3514 07be
000003b0: f2bf a03e 95b5 3bbd ee4c a13d 2756 75be
000003c0: 5405 1bbe 2811 73bd 5797 3e3e 9f3a 60bd
000003d0: bf79 9f3c fadd 5ebe 5847 3c3d 41f4 dc3d
000003e0: b7da 89be 0097 8fbe 3f02 39be 27b1 373e
000003f0: 89dc 52be c327 4c3e 3f74 3cbe 4f8e 5c3e

parallel_cnn_block.branches.0.0.weight f4 [1, 1, 2]
-0.3840662 0.6681308
00000000: 53a4 c4be 9f0a 2b3f

parallel_cnn_block.branches.0.2.bias f4 [16]
-0.20286871 0.3011141 -0.2110258 -0.728283 -1.0070217 -0.2892563 -0.10721505 -0.13166384
-0.29135552 0.8351743 0.6443335 0.60213447 0.23585114 0.6641398 -0.047804687 0.4628688
00000000: d1bc 4fbe a12b 9a3e 2617 58be c170 3abf
00000010: 16e6 80bf 6719 94be 9093 dbbd e3d2 06be
00000020: 8d2c 95be fccd 553f 0af3 243f 7c25 1a3f
00000030: f682 713e 1105 2a3f d9ce 43bd 24fd ec3e

parallel_cnn_block.branches.0.2.weight f4 [16, 1, 2]
-0.27267736 -0.37132436 -0.6358403 -0.009171491 -0.6287687 -0.06125547 0.054538295 0.23110457
0.44246358 -0.103764236 -0.13762634 0.6096278 0.20823336 -0.03261485 0.40071887 0.47300515
0.49700657 0.7625942 -0.6460486 0.31484103 0.10672625 0.020080874 0.22501816 0.13136512
0.48986942 -0.61825716 0.47022387 -0.5518599 -0.57994497 0.59240013 -0.28647524 0.14128564
00000000: 5e9c 8bbe 3a1e bebe 6ec6 22bf 0544 16bc
00000010: fcf6 20bf 04e7 7abd 8c63 5f3d ada6 6c3e
00000020: 968a e23e 5882 d4bd ebed 0cbe 9110 1c3f
00000030: 203b 553e 2697 05bd 062b cd3e bb2d f23e
00000040: a577 fe3e 6039 433f 7163 25bf d832 a13e
00000050: 4b93 da3d a580 a43c 296b 663e 9484 063e
00000060: 2ad0 fa3e 1a46 1ebf 2fc1 f03e b146 0dbf
00000070: 4677 14bf 89a7 173f e2ac 92be 2fad 103e

parallel_cnn_block.branches.1.0.weight f4 [1, 1, 4]
0.022578677 0.17610556 0.6047547 0.4822129
00000000: ebf6 b83c 0455 343e 34d1 1a3f 9ce4 f63e

parallel_cnn_block.branches.1.2.bias f4 [32]
0.12196982 0.48912036 0.49864268 -0.15946732 -0.21560854 -0.57085896 -0.100308985 0.2928559
0.047801297 -0.07535636 0.88380355 0.48631638 0.37060183 -0.40536827 -0.47823927 0.33003187
-0.9088087 0.3790446 -0.1949339 0.15370718 -0.16704315 0.5330727 -0.47427136 0.17432006
-0.5271006 -0.21124043 -0.21151789 -0.0132683115 0.026507596 0.2659229 -0.35419422 0.0661838
00000000: 50cb f93d fc6d fa3e 184e ff3e 674b 23be
00000010: 7cc8 5cbe d023 12bf cc6e cdbd 35f1 953e
00000020: 4bcb 433d 6f54 9abd f340 623f 76fe f83e
00000030: 86bf bd3e 6e8c cfbe c7db f4be f0f9 a83e
00000040: b0a7 68bf 2212 c23e c19c 47be 6a65 1d3e
00000050: 5c0d 2bbe 7477 083f b2d3 f2be f580 323e
00000060: 11f0 06bf 694f 58be 2598 58be 5563 59bc
00000070: 7526 d93c 0c27 883e f258 b5be 5f8b 873d

parallel_cnn_block.branches.1.2.weight f4 [32, 1, 4]
0.07835622 0.23931019 -0.07011252 -0.22827646 0.029907493 -0.36423576 -0.052615263 0.3240894
-0.19375877 -0.035381287 -0.4196115 0.10602252 0.46069902 -0.3980653 0.32186264 0.39783219
-0.14053294 0.18587314 -0.24012269 -0.46294433 -0.31492707 0.20336965 -0.27189013 0.35657457
0.36312214 0.3592139 0.43189123 -0.048348065 0.06474734 -0.48974255 0.16979796 0.047628928
-0.07006356 0.54736185 0.4612398 0.11051877 0.011955928 -0.3944442 0.46144798 0.45029527
-0.461834 -0.1110552 0.49077633 0.018548137 -0.3434957 0.18109596 -0.35474163 0.3332571
-0.040634528 0.36810556 -0.2918527 -0.40665704 0.35795823 0.43878025 -0.1641568 -0.39032477
0.36184824 0.35527396 -0.19247203 -0.19817913 0.32280612 -0.18131316 -0.31940445 0.18134707
0.022368737 0.11916676 -0.33555835 0.28073165 -0.12621668 0.33701214 -0.40600404 0.18388663
0.02491845 0.023868538 0.20735377 0.24185853 0.24671344 0.5204156 0.39322686 0.18425262
-0.31705505 -0.2084356 -0.22454113 -0.45641613 -0.2313998 0.21385802 -0.16119067 0.16888472
-0.48533085 -0.019824212 0.39890015 0.16299717 0.28013077 -0.085406594 -0.19176514 -0.19439337
-0.33042848 0.095640495 0.39162722 -0.06284826 -0.36808458 0.12055199 0.44913995 0.45214954
-0.6657319 0.2851578 -0.12471032 0.11158083 0.3369279 -0.06689224 0.09058456 0.10541916
-0.15414885 0.23795134 -0.27739483 0.3900106 -0.10796228 0.48476046 -0.43349692 -0.25771326
-0.32688224 -0.068430126 -0.0006918907 -0.47238857 0.077863865 0.43034148 -0.37777644 -0.15331642
00000000: 3a79 a03d bb0d 753e 2797 8fbd 4ec1 69be
00000010: 8f00 f53c 1c7d babe 1a83 57bd 0cef a53e
00000020: b368 46be f8eb 10bd 52d7 d6be 5622 d93d
00000030: bee0 eb3e 37cf cbbe 2ecb a43e a9b0 cb3e
00000040: dee7 0fbe 8755 3e3e b9e2 75be 0a07 edbe
00000050: 1f3e a1be 2240 503e 2f35 8bbe f190 b63e
00000060: 25eb b93e e2ea b73e d920 dd3e 9f08 46bd
00000070: 419a 843d 89bf fabe 84df 2d3e 8d16 433d
00000080: 7c7d 8fbd e81f 0c3f a027 ec3e aa57 e23d
00000090: cce2 433c 97f4 c9be e942 ec3e 1a8d e63e
000000a0: 8275 ecbe e970 e3bd 0947 fb3e 43f2 973c
000000b0: abde afbe 3871 393e b2a0 b5be ada0 aa3e
000000c0: 6470 26bd 5578 bc3e b86d 95be 5a35 d0be
000000d0: 4d46 b73e cea7 e03e b818 28be a6d8 c7be
000000e0: 2c44 b93e 78e6 b53e 6317 45be 78ef 4abe
000000f0: d846 a53e 28aa 39be fb88 a3be 0cb3 393e
00000100: a43e b73c b40d f43d 4ece abbe 0fbc 8f3e
00000110: f23e 01be db8c ac3e c3df cfbe c74c 3c3e
00000120: c721 cc3c f487 c33c 8c54 543e c3a9 773e
00000130: 73a2 7c3e f539 053f 0855 c93e b8ac 3c3e
00000140: 0a55 a2be 2470 55be 1cee 65be 60af e9be
00000150: 12f4 6cbe 99fd 5a3e 2b0f 25be 1ef0 2c3e
00000160: 497d f8be 6366 a2bc a43c cc3e bbe8 263e
00000170: 4d6d 8f3e a7e9 aebd 155e 44be 0e0f 47be
00000180: ec2d a9be 2adf c33d 5d83 c83e 97b6 80bd
00000190: 9575 bcbe f6e3 f63d acf5 e53e 2580 e73e
000001a0: 686d 2abf 3400 923e 2068 ffbd 7d84 e43d
000001b0: d081 ac3e ccfe 88bd 6684 b93d 00e6 d73d
000001c0: 32d9 1dbe 84a9 733e b206 8ebe 78af c73e
000001d0: 541b ddbd 8632 f83e 4ff3 ddbe fef2 83be
000001e0: 1c5d a7be 1825 8cbd 0060 35ba eadc f1be
000001f0: 1777 9f3d b855 dc3e ea6b c1be fbfe 1cbe

parallel_cnn_block.branches.2.0.weight f4 [1, 1, 8]
-0.46457025 -0.26966673 0.052120645 0.5525447 0.014736569 -0.1874262 0.3775285 -0.07768881
00000000: 27dc edbe c211 8abe 757c 553d 9273 0d3f
00000010: a671 713c a7ec 3fbe 6a4b c13e 501b 9fbd

parallel_cnn_block.branches.2.2.bias f4 [64]
0.0169134 0.21186939 -0.49756378 0.35902998 0.035088237 -0.029271102 -0.16665746 0.31276086
0.0032477481 -0.8384707 -0.02703386 0.31371692 0.03762463 -0.5855383 0.0012706809 0.09296458
0.03904532 -0.89522105 -1.297679 0.30683446 0.22014149 -0.25500545 0.43410885 0.24274914
-0.1556965 0.41000992 -0.021433495 -0.10793451 0.17638394 0.06455919 -0.00060138653 -0.75628114
0.00022640858 -0.03345272 0.20930476 0.060318157 0.112020254 -0.521654 0.27992395 0.3230923
0.15810513 -1.2828479 0.050999146 -0.030234488 0.11775483 0.055050913 0.36776084 -0.030685194
-0.01671056 0.32724908 0.33533162 -1.0110679 0.0060024136 0.28860188 -0.0012163029 0.36345008
0.295857 0.21948954 0.025282796 -0.037943996 -0.024185615 -0.009392559 -0.7885394 0.044433113
00000000: f88d 8a3c 4af4 583e aec0 febe c7d2 b73e
00000010: afb8 0f3d f3c9 efbc 41a8 2abe 3122 a03e
00000020: 2cd8 543b 04a6 56bf 1d76 ddbc 819f a03e
00000030: 491c 1a3d d7e5 15bf fa8c a63a 3764 be3d
00000040: fced 1f3d 352d 65bf 581a a6bf 6819 9d3e
00000050: c56c 613e 1390 82be 8443 de3e 3b93 783e
00000060: e76e 1fbe d2ec d13e 4c95 afbc c50c ddbd
00000070: fe9d 343e 9c37 843d 5ea6 1dba a49b 41bf
00000080: 1768 6d39 b805 09bd fd53 563e 2c10 773d
00000090: e06a e53d 1e8b 05bf 3152 8f3e 5b6c a53e
000000a0: 50e6 213e 5c34 a4bf 7be4 503d 51ae f7bc
000000b0: 7229 f13d 117d 613d 264b bc3e 845f fbbc
000000c0: 96e4 88bc 318d a73e 96b0 ab3e ac6a 81bf
000000d0: e5af c43b a0c3 933e 5a6c 9fba 2116 ba3e
000000e0: 927a 973e dec1 603e de1d cf3c 2a6b 1bbd
000000f0: e920 c6bc 3fe3 19bc b8dd 49bf 7fff 353d

parallel_cnn_block.branches.2.2.weight f4 [64, 1, 8]
0.10400293 0.07265686 0.15072618 -0.5760904 0.32874915 0.085609764 0.19163728 -0.44570553
-0.07148624 0.16665499 -0.2830977 0.28358784 0.24228594 0.35737154 0.338164 0.3898568
0.26944754 -0.15600556 -0.00755566 0.026259847 0.3458791 0.38000494 0.064672805 -0.018106671
0.2838998 0.14361045 0.078338146 0.11425568 -0.008797396 0.13475874 0.127242 0.34230497
-0.6726642 -0.15442218 0.16742876 0.41551244 -0.038352314 0.33155087 -0.14339164 -0.2794819
0.3069623 -0.2904996 -0.5576549 0.36164004 0.39541999 0.3712803 -0.36837593 0.013917603
0.38022828 0.41558328 0.3842283 0.45491457 0.6904868 0.42639315 0.25393867 0.25891224
-0.0403235 0.08121769 0.09869848 0.12714854 -0.06907452 0.30592626 0.32745638 -0.029459007
-0.14047211 0.42210135 0.24930732 -0.2837024 -0.5189369 0.37723708 0.03833379 -0.1118284
0.38640255 -0.1549543 -0.03458212 0.0974417 0.15260911 0.11352561 0.01188828 0.028139858
0.42879608 -0.2997757 -0.37328416 0.44565448 -0.056094717 -0.0070054503 0.19451067 -0.09690386
0.20122717 -0.15471523 -0.06268985 0.30614585 0.09416013 -0.007920216 0.014727976 0.017911969
-0.47030532 -0.2884654 0.27222314 0.17238106 0.36575055 0.065598026 0.048713587 -0.2727149
-0.04474722 -0.052459724 0.27220538 0.2808499 0.13868254 0.08341956 -0.069493756 0.16167079
-0.17504045 0.2215913 0.15431824 0.20939718 0.3461962 0.34567556 -0.23994322 -0.23037802
-0.065065235 0.14508693 0.12740582 0.21739544 0.2647395 -0.09267167 0.36371446 0.28098944
-0.44360098 0.38658324 -0.0005416911 -0.036008704 0.18173923 0.17182094 0.10766177 0.30528626
0.15846713 -0.0075670206 0.3168624 0.06796301 -0.26191556 0.17404404 0.057682082 0.24332081
0.12429343 0.22565089 0.0032369108 0.23968638 -0.025405776 0.31188706 -0.09489418 0.19620803
-0.08432048 0.30762738 0.11954634 -0.1427128 0.111378975 -0.2840029 0.14453605 -0.22884037
0.16814642 -0.05505553 -0.0030642496 0.28840685 -0.16852434 -0.26961398 -0.3858912 -0.1264633
0.085735664 -0.107515745 0.0046340125 0.058566738 0.5531206 0.34342337 0.33048078 -0.036257327
0.18326212 -0.2796744 0.1591387 0.3132249 -0.3178295 0.0023479203 -0.36499578 -0.26689634
0.27731955 0.027560443 0.23346677 0.037413526 -0.18985298 -0.23220769 -0.66610885 0.1502407
0.3718434 0.28363705 0.44972518 0.48925632 0.7603814 0.52373624 0.42024902 0.30740073
0.03370104 -0.167125 -0.043069694 0.075208165 0.16061084 -0.18127072 -0.26075023 0.39607203
0.19356918 0.3439646 -0.1623623 -0.36828992 0.0187252 0.4434957 0.45811874 0.448471
0.4931744 -0.19360128 -0.64380467 0.5433875 0.084159985 0.0029402857 0.3169401 0.08490262
0.10130644 -0.056710094 0.058229074 0.4196797 0.42694217 -0.11628682 0.45577252 0.2171769
0.021195663 0.1159813 0.1471612 -0.0703507 0.3921889 0.15787828 -0.1338155 0.08694412
0.21803221 0.013612612 0.1606711 0.13602123 0.40441236 -0.014824275 0.406901 0.08696643
0.04097269 0.05805198 0.30897757 -0.08483949 0.1142514 0.21585542 0.20114402 0.19750103
00000000: 7dff d43d 1fcd 943d f757 1a3e a97a 13bf
00000010: cf51 a83e 2c54 af3d 903c 443e 8433 e4be
00000020: 6167 92bd 9ba7 2a3e 2ff2 90be 6d32 913e
00000030: ce19 783e 67f9 b63e d523 ad3e 4f9b c73e
00000040: 07f5 893e ecbf 1fbe 7895 f7bb e41e d73c
00000050: 1117 b13e 0290 c23e 2d73 843d 7154 94bc
00000060: 515b 913e 9e0e 133e c06f a03d e2fe e93d
00000070: f422 10bc 32fe 093e ba4b 023e 9942 af3e
00000080: b933 2cbf d920 1ebe 7272 2b3e 0cbe d43e
00000090: 5117 1dbd 09c1 a93e 42d5 12be 4018 8fbe
000000a0: 2a2a 9d3e 5dbc 94be 79c2 0ebf e228 b93e
000000b0: 7d74 ca3e 7418 be3e c59b bcbe a806 643c
000000c0: 48ad c23e 55c7 d43e 92b9 c43e 90ea e83e
000000d0: bec3 303f 3450 da3e 4004 823e 2590 843e
000000e0: 412a 25bd 7655 a63d 6e22 ca3d 3a33 023e
000000f0: f176 8dbd 5ea2 9c3e 5da8 a73e 0454 f1bc
00000100: ecd7 0fbe ab1d d83e 6b4a 7f3e 7141 91be
00000110: 0cd9 04bf 3825 c13e e403 1d3d 4a06 e5bd
00000120: 8ed6 c53e 57ac 1ebe fba5 0dbd 848f c73d
00000130: 9045 1c3e 1d80 e83d 0fc7 423c 8f85 e63c
00000140: 298b db3e 337c 99be 1a1f bfbe d32c e43e
00000150: 93c3 65bd fa8d e5bb ce2d 473e 8875 c6bd
00000160: 7f0e 4e3e ab6d 1ebe 8963 80bd 26bf 9c3e
00000170: 07d7 c03d cbc3 01bc 9c4d 713c 1fbc 923c
00000180: dccb f0be bdb1 93be d560 8b3e a984 303e
00000190: a843 bb3e 4258 863d e687 473d 4aa1 8bbe
000001a0: dc48 37bd 02e0 56bd 815e 8b3e 8fcb 8f3e
000001b0: cc02 0e3e e0d7 aa3d be52 8ebd 078d 253e
000001c0: ce3d 33be d4e8 623e 9a05 1e3e 376c 563e
000001d0: a140 b13e 63fc b03e adb3 75be 37e8 6bbe
000001e0: ec40 85bd ab91 143e ac76 023e e99c 5e3e
000001f0: f08b 873e a5ca bdbd c838 ba3e d9dd 8f3e
00000200: ab1f e3be 3dee c53e 4600 0eba dd7d 13bd
00000210: d919 3a3e d4f1 2f3e c67d dc3d 7b4e 9c3e
00000220: 3545 223e c5f4 f7bb ca3b a23e 3130 8b3d
00000230: cc19 86be 9a38 323e 0c44 6c3d 1729 793e
00000240: 8e8d fe3d 0711 673e 5a22 543b 5970 753e
00000250: c61f d0bc a9af 9f3e e157 c2bd c2ea 483e
00000260: 37b0 acbd 5681 9d3e b6d4 f43d 4e23 12be
00000270: a91a e43d d468 91be 4201 143e 2155 6abe
00000280: 932e 2c3e e881 61bd 94d1 48bb 10aa 933e
00000290: a591 2cbe d80a 8abe 8893 c5be 987f 01be
000002a0: 2e96 af3d 3731 dcbd ead8 973b ade3 6f3d
000002b0: 5099 0d3f 30d5 af3e c734 a93e 9082 14bd
000002c0: 11a9 3b3e 7c31 8fbe 41f5 223e 045f a03e
000002d0: 8cba a2be 91df 193b bae0 babe a3a6 88be
000002e0: d4fc 8d3e 70c6 e13c ea11 6f3e ed3e 193d
000002f0: d268 42be dac7 6dbe 1c86 2abf b3d8 193e
00000300: 4262 be3e e038 913e 6142 e63e ce7f fa3e
00000310: 5ba8 423f 9413 063f e12a d73e a163 9d3e
00000320: 1a0a 0a3d d122 2bbe d969 30bd bd06 9a3d
00000330: 2b77 243e 089f 39be 0e81 85be f4c9 ca3e
00000340: 0037 463e 211c b03e 4e42 26be 7f90 bcbe
00000350: 9765 993c de11 e33e 8a8e ea3e fe9d e53e
00000360: 5b81 fc3e 6a3f 46be 62d0 24bf 711b 0b3f
00000370: 125c ac3d cfb1 403b f945 a23e 6de1 ad3d
00000380: c079 cf3d d848 68bd 9c81 6e3d 42e0 d63e
00000390: 2a98 da3e c927 eebd 045b e93e 9f63 5e3e
000003a0: 87a2 ad3c 9b87 ed3d 6db1 163e 0714 90bd
000003b0: fccc c83e d8aa 213e ee06 09be c20f b23d
000003c0: d643 5f3e 6f07 5f3c f786 243e 2649 0b3e
000003d0: 230f cf3e 84e1 72bc 5455 d03e 751b b23d
000003e0: fbd2 273d eac7 6d3d 4f32 9e3e 54c0 adbd
000003f0: a3fc e93d 3409 5d3e b3f8 4d3e b63d 4a3e

parallel_cnn_block.branches.3.0.weight f4 [1, 1, 32]
-0.18383794 0.025566213 0.05953939 0.20333591 0.04760254 0.18824215 0.32889274 0.20313278
0.21593103 0.13295598 0.2882646 0.31874415 0.2711701 0.18597205 0.08602793 0.20561267
0.18945196 0.2780302 0.17121278 0.24664599 0.32228935 0.1802267 0.21299657 0.2071828
-0.009546247 0.0669173 0.025409698 -0.08448791 -0.04463054 0.0015971262 0.0775717 -0.080304734
00000000: 0340 3cbe 3c70 d13c 93df 733d 4a37 503e
00000010: e2fa 423d 8dc2 403e a164 a83e 0a02 503e
00000020: 061d 5d3e 9d25 083e 6b97 933e 6f32 a33e
00000030: cfd6 8a3e 756f 3e3e 692f b03d 218c 523e
00000040: b2ff 413e f959 8e3e 6752 2f3e c490 7c3e
00000050: 1c03 a53e 598d 383e c61b 5a3e ba27 543e
00000060: dd67 1cbc f00b 893d 0028 d03c ff07 adbd
00000070: 83ce 36bd aa56 d13a e9dd 9e3d cf76 a4bd

parallel_cnn_block.branches.3.2.bias f4 [16]
0.065148644 0.20075163 0.22940373 0.22842541 0.5426864 0.09182527 0.07610557 0.117411636
0.16498686 0.47809207 0.29521734 0.071122505 -0.0630814 0.38287005 0.2032735 0.17523517
00000000: a76c 853d d691 4d3e d0e8 6a3e 5ae8 693e
00000010: 7fed 0a3f e30e bc3d 3ddd 9b3d 8375 f03d
00000020: 51f2 283e 7cc8 f43e ba26 973e ada8 913d
00000030: d230 81bd 8b07 c43e ee26 503e d970 333e
