remade/wide/modelpars_wide_i_63.safetensors (safetensors, 86584 bytes, 32 tensors)

bilstm.bias_hh_l0 f4 [64]
-0.16741526 -0.21640685 0.32753307 0.074271865 -0.051416077 0.0029951055 -0.39415616 0.055907972
0.08034474 -0.09401167 0.058918815 -0.091459475 -0.15776011 -0.006980988 -0.10970475 -0.13696033
0.35212946 0.18458709 0.15272394 0.093351014 0.2635942 -0.117338106 0.3927334 0.016326105
0.2703915 0.23809305 0.002172414 -0.07530805 0.34059313 -0.2526398 0.21480933 -0.0147625115
0.04183785 -0.22098157 -0.1953143 -0.046136625 -0.18897435 -0.001969771 -0.034789532 -0.06540603
0.053285312 0.28909153 0.24972917 0.11846443 0.07138588 0.008449344 -0.007831144 -0.24795671
0.2938533 -0.2191844 0.2891381 -0.35217655 0.0281901 0.038901735 0.5192298 0.21636811
0.28570405 0.21399449 0.33633927 0.17456312 -0.02034913 -0.23879173 -0.0820278 -0.08218266
00000000: e86e 2bbe c299 5dbe 6ab2 a73e d91b 983d
00000010: aa99 52bd 8849 443b d6ce c9be c2ff 643d
00000020: c88b a43d 3189 c0bd db54 713d 1b4f bbbd
00000030: de8b 21be c6c0 e4bb e2ac e0bd 543f 0cbe
00000040: 504a b43e 6604 3d3e aa63 1c3e d12e bf3d
00000050: d2f5 863e f64e f0bd 5a14 c93e 53be 853c
00000060: c170 8a3e aace 733e 0f5f 0e3b 1b3b 9abd
00000070: 3962 ae3e 015a 81be faf6 5b3e 76de 71bc
00000080: 2a5e 2b3d fe48 62be 7900 48be c2f9 3cbd
00000090: 7e82 41be 4617 01bb 787f 0ebd 99f3 85bd
000000a0: b341 5a3d ce03 943e 01b9 7f3e 7b9d f23d
000000b0: c332 923d 1e6f 0a3c 334e 00bc 5de8 7dbe
000000c0: f173 963e e071 60be e909 943e 7c50 b4be
000000d0: edee e63c 6d57 1f3d 3fec 043f 9a8f 5d3e
000000e0: cd47 923e 5f21 5b3e a934 ac3e adc0 323e
000000f0: 38b3 a6bc d285 74be 31fe a7bd 624f a8bd

bilstm.bias_hh_l0_reverse f4 [64]
-0.054062214 0.03606393 0.18958291 -0.22498359 -0.42927244 -0.20154394 -0.24729694 -0.16021116
-0.26733765 0.16374707 -0.5349891 -0.056649536 0.2638195 -0.14643015 0.16303444 -0.29701945
0.3736034 0.23988475 0.011839308 0.20051156 0.042073864 0.012179766 0.20501587 0.24655749
0.09723249 0.23458493 0.019401636 -0.07256709 0.15104835 0.41430485 -0.10241649 -0.11095219
0.043170396 -0.04489665 0.11137142 0.04629217 -0.12875384 -0.13916734 -0.060644735 -0.18422055
0.2354581 -0.052310653 0.26631668 -0.17262031 0.19136146 -0.21520083 -0.12433051 -0.21254519
0.30776313 -0.17352417 -0.01643003 0.18405315 0.09876827 -0.08144733 -0.0802005 0.24286078
0.253391 0.14751394 0.103794046 0.21091013 0.0673566 -0.13742682 -0.10432788 0.11704871
00000000: 5770 5dbd c5b7 133d 0622 423e 1962 66be
00000010: 99c9 dbbe 8961 4ebe 693b 7dbe 650e 24be
00000020: 7be0 88be 50ad 273e 0cf5 08bf 5809 68bd
00000030: 5913 873e c9f1 15be 80f2 263e ef12 98be
00000040: f248 bf3e 59a4 753e a8f9 413c e752 4d3e
00000050: a555 2c3d a48d 473c aeef 513e 9179 7c3e
00000060: d421 c73d 0837 703e 2ef0 9e3c 0e9e 94bd
00000070: 6bac 1a3e c41f d43e bdbf d1bd e73a e3bd
00000080: 71d3 303d 8de5 37bd b316 e43d dc9c 3d3d
00000090: 0cd8 03be e281 0ebe 9d66 78bd 50a4 3cbe
000000a0: ee1b 713e b243 56bd a95a 883e 61c3 30be
000000b0: 42f4 433e 9b5d 5cbe ffa0 febd 72a5 59be
000000c0: 2193 9d3e 52b0 31be 4598 86bc 6e78 3c3e
000000d0: 0547 ca3d dccd a6bd 2940 a4bd 7fb0 783e
000000e0: 77bc 813e e50d 173e f991 d43d d3f8 573e
000000f0: 42f2 893d 9eb9 0cbe dba9 d5bd 3cb7 ef3d

bilstm.bias_ih_l0 f4 [64]
-0.09894045 -0.14273825 -0.10312128 -0.2171289 -0.07931861 0.1143106 0.033528693 -0.19204657
-0.19763564 0.15553874 0.27727842 0.32112414 -0.1431121 -0.21727139 0.2223498 -0.31463167
0.35342073 0.17523408 -0.1449089 0.09592111 0.23867188 0.25888526 0.10641787 -0.15299253
0.25224587 -0.15694603 -0.15915656 0.18493244 0.32096216 0.05822949 0.23015177 0.08566336
0.20649107 -0.23393661 -0.10762437 0.1286415 0.109648764 -0.31699142 0.011029443 0.1376824
-0.057812847 -0.115208894 -0.0149585055 -0.083612286 -0.17522778 0.12417186 0.28463352 -0.2079192
0.26473758 -0.06639585 0.24413429 -0.03867966 0.017938474 0.00447906 0.8077085 -0.13957521
0.2709932 0.14565058 0.5068989 -0.04063872 0.22696881 0.13180575 -0.15590999 -0.19700739
00000000: 4aa1 cabd fa29 12be 4031 d3bd 0a57 5ebe
00000010: cc71 a2bd ad1b ea3d 6255 093d dba7 44be
00000020: ff60 4abe 8c45 1f3e 70f7 8d3e 626a a43e
00000030: fa8b 12be 647c 5ebe aaaf 633e 6717 a1be
00000040: 90f3 b43e 9070 333e 0063 14be 4972 c43d
00000050: 6766 743e 9c8c 843e 9df1 d93d 13aa 1cbe
00000060: 5f26 813e 76b6 20be f0f9 22be ee5e 3d3e
00000070: 2755 a43e 0c82 6e3d e8ac 6b3e 4670 af3d
00000080: 6572 533e 148d 6fbe 2a6a dcbd 99ba 033e
00000090: 888f e03d b34c a2be d6b4 343c 9dfc 0c3e
000000a0: 2acd 6cbd a4f2 ebbd 8514 75bc eb3c abbd
000000b0: e96e 33be d14d fe3d 7cbb 913e c5e8 54be
000000c0: af8b 873e 8cfa 87bd 57fe 793e 906e 1ebd
000000d0: b5f3 923c 14c5 923b fcc5 4e3f ceec 0ebe
000000e0: 9fbf 8a3e 6d25 153e 20c4 013f c974 26bd
000000f0: 836a 683e 16f8 063e dea6 1fbe 4ebc 49be

bilstm.bias_ih_l0_reverse f4 [64]
0.0882078 0.18302058 -0.055625062 -0.31935075 -0.3068386 -0.36253947 0.078046314 0.18302019
-0.022647502 0.28656998 -0.1935999 -0.14383312 0.12502894 -0.42446253 -0.105966285 0.08827315
0.06872106 -0.13884808 0.14602949 0.4331632 0.102103755 0.1471877 -0.20740893 -0.08614761
0.323725 0.33035108 0.2943419 0.003337039 0.09686527 0.33739257 0.027033128 0.10088689
-0.20359534 0.089557976 0.075293116 0.048161425 -0.12649307 0.022125093 0.08195266 0.09782953
0.19001666 0.08446563 0.26361492 0.14781292 0.1668534 0.14700957 0.26071453 -0.2043742
0.051654708 -0.03138487 -0.07558004 0.25346678 0.39367864 -0.020324396 0.26385537 -0.14922306
0.2429611 0.31506914 0.19637473 0.49378788 -0.044485804 0.16148949 -0.3406653 0.008611696
00000000: 4ba6 b43d bf69 3b3e 1bd7 63bd f181 a3be
00000010: f319 9dbe c69e b9be bfd6 9f3d a569 3b3e
00000020: 4187 b9bc 4db9 923e 0d3f 46be fd48 13be
00000030: 9607 003e 2753 d9be da04 d9bd 8ec8 b43d
00000040: a1bd 8c3d 312e 0ebe c188 153e 91c7 dd3e
00000050: c61b d13d 5fb8 163e 0263 54be 286e b0bd
00000060: 48bf a53e c723 a93e fbb3 963e 39b2 5a3b
00000070: 4c61 c63d b8be ac3e 9474 dd3c c99d ce3d
00000080: 4c7b 50be 2c6a b73d 4733 9a3d ea44 453d
00000090: 6687 01be af3f b53c ccd6 a73d d95a c83d
000000a0: ba93 423e 51fc ac3d 89f8 863e 455c 173e
000000b0: 9edb 2a3e ad89 163e 607c 853e 7847 51be
000000c0: e393 533d 6c8d 00bd b5c9 9abd 66c6 813e
000000d0: 3f90 c93e 597f a6bc 0d18 873e eecd 18be
000000e0: cbca 783e be50 a13e 7516 493e c4d1 fc3e
000000f0: bf36 36bd 805d 253e af6b aebe 1218 0d3c

bilstm.weight_hh_l0 f4 [64, 16]
0.74475497 0.2305007 0.1295182 -0.07511199 0.04211173 0.65711445 -0.021822114 0.4671387
-0.023636278 -0.017861253 -0.36153626 -0.21317908 -0.0040552923 -0.16184565 0.6115882 -0.29696998
-0.43834236 -0.10687204 0.03492087 0.13220447 0.34736142 -0.11957669 -0.3189873 -0.012567384
0.20654173 0.01896867 0.06450436 0.10498532 -0.12028259 0.14169644 -0.1412292 -0.14044267
-0.18344271 0.059483755 -0.296081 -0.12780988 -0.084327586 -0.0022281576 -0.007916249 0.20942725
0.09695776 0.006157125 -0.06020372 0.12397687 -0.09497943 0.24001886 0.17606495 0.044142697
0.24256563 -0.10143047 -0.17574368 0.03456983 0.08967902 -0.19816475 0.10746627 0.1478371
0.09596126 0.18817294 0.09529076 -0.22091709 0.15763767 -0.15556198 0.22092754 -0.117608346
0.02170254 -0.43751764 -0.1779688 0.14904252 0.2750045 0.11586653 0.18577789 0.13502073
-0.5381669 -0.017324157 0.011797832 -0.24588865 -0.028114082 -0.02751021 -0.27723554 0.0015201736
0.03174054 0.29149535 0.042926885 -0.30408958 -0.3030335 -0.13829428 -0.33898342 0.055071007
0.4115039 -0.046265848 -0.11011979 -0.122600935 0.1005148 -0.344915 -0.07530872 -0.53256506
0.2402968 0.3835182 0.14642693 -0.3391244 0.10813829 0.19660814 -0.25360253 0.2781653
0.29237407 -0.3111192 -0.47419485 -0.31033963 -0.29732758 -0.5043307 0.2686133 -0.75212884
-0.21493086 -0.030766495 0.0070847413 0.21708648 0.3394151 0.09269882 -0.010998728 -0.16613816
-0.36687365 -0.21270312 -0.13961138 0.006412236 -0.21289681 -0.21180084 -0.27402952 -0.025123103
0.07521198 0.16797495 0.18626975 0.072824664 0.27370414 0.1557441 -0.19222467 -0.012496336
0.81251085 0.10945879 -0.15188542 0.08943778 -0.25376636 0.0022249739 0.36879745 0.2842001
0.19531034 -0.17540553 0.19777088 0.0165198 -0.18198468 0.31308857 -0.39889178 0.24875395
0.08020889 -0.12119653 -0.25983417 -0.0050739706 0.15089636 -0.23073581 0.106018074 -0.3048618
0.3067734 -0.12952149 0.16967463 0.16999902 0.04084278 0.05124266 -0.26332968 -0.17291133
-0.18706286 0.010763777 0.14087635 -0.040680233 -0.20438497 0.1350068 -0.021006316 0.058604214
-0.17475934 0.14396003 0.102500185 0.07020432 0.027335614 -0.1287802 -0.004679647 -0.23688893
0.17157462 0.03391361 0.2618226 0.21461809 0.2647587 -0.17425555 -0.09440675 0.06204103
0.056346755 -0.38433984 0.055774942 0.2634722 -0.17960352 -0.13492359 0.10315275 -0.024386607
-0.47650278 0.0024036844 0.12713161 0.14444338 0.011040096 0.21559653 -0.2134453 0.31541654
0.27249256 -0.2223846 0.049774844 -0.13284358 0.1971612 0.43696463 0.33660397 -0.08459445
-0.2553236 -0.29345596 0.12533532 -0.42678097 -0.030019125 -0.086031504 -0.4344643 0.64010525
-0.08436226 -0.17709287 -0.004421316 -0.18022625 0.06736471 -0.08506577 -0.49140495 0.13710634
-0.27133647 0.10668746 0.05183243 0.028749809 0.07229655 0.2336361 -0.2843659 0.2168804
0.11766791 0.07745262 0.04224721 -0.085105084 0.16249785 -0.3326128 -0.9454118 -0.30100843
0.28932595 0.07327021 -0.57490695 0.14010423 -0.12802012 0.12720934 -0.12622982 0.5290184
00000000: 43a8 3e3f 6008 6c3e 6ba0 043e 51d4 99bd
00000010: 597d 2c3d a738 283f 4ac4 b2bc ce2c ef3e
00000020: dea0 c1bc c351 92bc 481b b9be 9e4b 5abe
00000030: 42e2 84bb deba 25be 0b91 1c3f 730c 98be
00000040: 696e e0be badf dabd 3009 0f3d 9c60 073e
00000050: 5bd9 b13e a0e4 f4bd 4e52 a3be 6ee7 4dbc
00000060: ad7f 533e 2f64 9b3c dd1a 843d 8b02 d73d
00000070: b856 f6bd df18 113e 639e 10be 34d0 0fbe
00000080: 68d8 3bbe 3da5 733d ee97 97be 98e0 02be
00000090: f1b3 acbd 4806 12bb 28b3 01bc 1974 563e
000000a0: ca91 c63d b5c1 c93b 2d98 76bd 96e7 fd3d
000000b0: 9384 c2bd 81c7 753e 5f4a 343e f9ce 343d
000000c0: 2063 783e c7ba cfbd 27f6 33be 1899 0d3d
000000d0: a2a9 b73d b3eb 4abe 4717 dc3d 9c62 173e
000000e0: 5687 c43d 68b0 403e cd27 c33d 1738 62be
000000f0: c56b 213e a44b 1fbe d43a 623e a5dc f0bd
00000100: 86c9 b13c 5002 e0be 743d 36be 9a9e 183e
00000110: 64cd 8c3e 6e4b ed3d 8f3c 3e3e e042 0a3e
00000120: 4ec5 09bf 64eb 8dbc b24b 413c 3cca 7bbe
00000130: 814f e6bc 185d e1bc d1f1 8dbe 9040 c73a
00000140: 5e02 023d e13e 953e 1ad4 2f3d a1b1 9bbe
00000150: 3527 9bbe 049d 0dbe 3c8f adbe 2392 613d
00000160: a4b0 d23e 4281 3dbd 7c86 e1bd 3316 fbbd
00000170: b4da cd3d b398 b0be 753b 9abd 2f56 08bf
00000180: 5d10 763e 7f5c c43e f1f0 153e b7a1 adbe
00000190: 9c77 dd3d a553 493e 31d8 81be af6b 8e3e
000001a0: 0eb2 953e 044b 9fbe abc9 f2be d6e4 9ebe
000001b0: 523b 98be d11b 01bf af87 893e 848b 40bf
000001c0: d616 5cbe 040a fcbc 1e27 e83b eb4b 5e3e
000001d0: d1c7 ad3e e1d8 bd3d 0234 34bc 1f20 2abe
000001e0: ddd6 bbbe d9ce 59be 49f6 0ebe bc1d d23b
000001f0: 9f01 5abe 52e2 58be 994d 8cbe f7ce cdbc
00000200: bd08 9a3d a001 2c3e 7fbd 3e3e 1925 953d
00000210: f322 8c3e 627b 1f3e 8bd6 44be 6fbd 4cbc
00000220: b600 503f ee2b e03d da87 1bbe 282b b73d
00000230: aaed 81be ded0 113b 05d3 bc3e ad82 913e
00000240: 6fff 473e 829d 33be 7384 4a3e 8854 873c
00000250: 315a 3abe 254d a03e 8b3b ccbe 5bb9 7e3e
00000260: 8f44 a43d e335 f8bd fc08 85be 8d43 a6bb
00000270: 9384 1a3e 0246 6cbe 0120 d93d d916 9cbe
00000280: 6711 9d3e 48a1 04be 30bf 2d3e 3914 2e3e
00000290: c24a 273d d3e3 513d 26d3 86be ab0f 31be
000002a0: 688d 3fbe 8e5a 303c e441 103e 51a0 26bd
000002b0: 4b4a 51be 393f 0a3e 7015 acbc f90a 703d
000002c0: 1df4 32be 426a 133e 9eeb d13d 48c7 8f3d
000002d0: f0ee df3c f5de 03be b957 99bb 0393 72be
000002e0: 42b1 2f3e ffe8 0a3d 9d0d 863e d8c4 5b3e
000002f0: 748e 873e 0c70 32be 5358 c1bd bc1e 7e3d
00000300: dbcb 663d 31c8 c4be 4474 643d d4e5 863e
00000310: fce9 37be 6929 0abe c041 d33d 6cc6 c7bc
00000320: 2cf8 f3be 2287 1d3b ca2e 023e f7e8 133e
00000330: 85e1 343c 56c5 5c3e 6891 5abe 477e a13e
00000340: 2584 8b3e cab8 63be b5e0 4b3d 2608 08be
00000350: a0e4 493e d4b9 df3e 5b57 ac3e db3f adbd
00000360: c6b9 82be dc3f 96be e757 003e 0983 dabe
00000370: abea f5bc 4931 b0bd 1b72 debe f0dd 233f
00000380: 1fc6 acbd d557 35be b0e0 90bb 3b8d 38be
00000390: 82f6 893d f636 aebd 6e99 fbbe 9b65 0c3e
000003a0: 9dec 8abe f47e da3d 3e4e 543d b884 eb3c
000003b0: 3710 943d 4d3e 6f3e 6898 91be e515 5e3e
000003c0: e0fb f03d 7b9f 9e3d 690b 2d3d 934b aebd
000003d0: d665 263e 3a4c aabe 8206 72bf c71d 9abe
000003e0: 8822 943e b10e 963d 1a2d 13bf 7c77 0f3e
000003f0: b517 03be 2a43 023e 6442 01be c06d 073f

bilstm.weight_hh_l0_reverse f4 [64, 16]
-0.063862905 -0.31335136 -0.37693226 0.65994513 -0.19677243 0.51908636 -0.1767714 -0.49575666
-0.06392228 0.123119906 0.093136035 0.02371088 -0.42934665 0.018310841 0.14789231 -0.30122072
-0.15613715 0.22484788 -0.08930589 1.1589524 0.022928195 0.042235 -0.069717444 -0.04837668
0.32107502 0.3290704 0.1442022 -0.17291588 0.09139931 0.07273436 0.031710874 -0.103725314
0.38400885 0.35666117 -0.13799189 -0.13098331 0.25885543 -0.24269338 -0.32359898 0.6650662
-1.0107543 -0.24713242 -0.45663014 0.28777447 -0.047480423 0.74456567 0.3962559 -0.10734796
0.42080256 0.23299573 -0.10587899 0.4587629 0.76617926 0.35024583 -0.36949024 -0.35751507
-0.737218 -0.3877717 -0.30440772 0.362911 -0.17775103 0.68256986 -0.45628345 -0.330811
-0.025177918 -0.11516067 -0.1036608 -0.24538375 -0.029404541 0.719269 0.0032446207 -0.666333
0.104781665 -0.19050218 0.27227542 0.06093083 -0.4295928 -0.3998013 -0.045492332 -0.03862363
0.21035148 0.20887828 0.077566996 0.41983083 0.47804508 0.2381956 -0.24953498 0.16321737
-0.18986985 -0.059935365 -0.2453822 0.2392464 -0.06807633 0.31482315 0.312769 -0.6082761
0.37494776 0.4565001 -0.4721411 -0.32954848 0.25808883 0.47604683 0.11810247 -0.15287267
0.6063534 0.05901807 -0.09826095 -0.014988123 0.1046007 0.36480343 -0.31248987 -0.42541647
-0.04295434 -0.07998523 0.028488338 0.7269072 -0.23264532 -0.33902198 -0.22507024 0.26297125
0.474249 0.11347642 0.15453562 0.13962844 -0.22962357 -0.7738087 0.40071386 0.026526222
0.08548652 0.43184805 -0.30126813 -0.5098684 0.02734292 -0.73427707 -0.2525283 -0.08482211
0.12981309 -0.2523734 0.07622457 0.0962225 -0.008412484 0.55678093 0.16941412 -0.19302285
-0.15854168 0.1501138 0.1513216 -0.079173274 -0.26917845 0.0542989 -0.07199256 -0.2095104
-0.20406999 0.09658326 -0.10553706 -0.16121522 0.023756448 -0.026724152 -0.03693226 0.20632026
0.11310396 0.08585034 -0.04963612 0.35174936 -0.025601119 0.010134941 -0.47707623 0.24046081
-0.08251862 -0.22592108 0.14136563 0.4108455 0.03331484 0.19559498 0.004360473 -0.30031723
0.21979268 -0.2070685 0.09082446 -0.24521166 -0.10316677 -0.034956392 -0.19933127 0.02677087
-0.299498 -0.15504633 0.072702296 -0.23197854 0.053926602 0.13358684 0.0075083952 0.35158488
-0.14911912 -0.095233336 0.09872596 0.10674178 0.1510742 -0.29056454 -0.06230677 -0.49266592
-0.29473737 0.079591334 -0.18967152 0.10411963 -0.15118203 0.19026823 -0.24618764 0.044297613
0.12211593 0.2657369 0.22418064 0.46669948 0.04896799 0.24747778 -0.051569607 0.0615524
-0.18337663 -0.21337211 0.024349717 0.2045991 -0.068161875 -0.08934945 0.15568712 -0.11950045
-0.54896295 -0.10430364 -0.13807721 0.04175303 -0.23674653 -0.034088284 0.0781712 -0.10165033
-0.27607098 0.014948053 -0.13428038 0.08151182 -0.0774248 -0.48967952 -0.015471637 -0.17881954
0.23280124 0.052306175 0.1727584 -0.51769686 0.28258908 -0.66011375 -0.29993942 -0.3606896
-0.68690515 -0.026176438 -0.17937173 0.1740638 0.01750467 0.58024526 -0.21514061 0.04290351
00000000: 8eca 82bd 976f a0be 44fd c0be 2af2 283f
00000010: b67e 49be d8e2 043f 9003 35be d1d3 fdbe
00000020: afe9 82bd 4a26 fc3d 1bbe be3d 523d c23c
00000030: 53d3 dbbe 9e00 963c 1571 173e 9a39 9abe
00000040: 6be2 1fbe 863e 663e 02e6 b6bd 8d58 943f
00000050: e9d3 bb3c 9bfe 2c3d 05c8 8ebd a026 46bd
00000060: f263 a43e ea7b a83e bea9 133e dc10 31be
00000070: 902f bb3d c1f5 943d 43e3 013d f06d d4bd
00000080: cf9c c43e 4b9c b63e bf4d 0dbe 7d20 06be
00000090: b388 843e 9d84 78be c4ae a5be c741 2a3f
000000a0: 6660 81bf 4810 7dbe 6dcb e9be 2d57 933e
000000b0: d57a 42bd db9b 3e3f 0ee2 ca3e 3fd9 dbbd
000000c0: 6f73 d73e 6f96 6e3e 15d7 d8bd f9e2 ea3e
000000d0: 5324 443f 6c53 b33e d32d bdbe 370c b7be
000000e0: 52ba 3cbf 038a c6be 54db 9bbe 78cf b93e
000000f0: 5e04 36be e6bc 2e3f fc9d e9be 0f60 a9be
00000100: ec41 cebc 5bd9 ebbd 1d4c d4bd e145 7bbe
00000110: cbe1 f0bc 0322 383f b4a3 543b cd94 2abf
00000120: c597 d63d 0113 43be af67 8b3e 9b92 793d
00000130: 96f3 dbbe c2b2 ccbe 2b56 3abd d033 1ebd
00000140: 6166 573e 30e4 553e 72db 9e3d 11f4 d63e
00000150: 53c2 f43e 8ce9 733e 1986 7fbe 7422 273e
00000160: 3e6d 42be c97e 75bd 7945 7bbe 02fd 743e
00000170: 9a6b 8bbd 8030 a13e 4223 a03e fcb7 1bbf
00000180: 27f9 bf3e 62ba e93e 7abc f1be 94ba a8be
00000190: 3824 843e 69bc f33e b5df f13d a78a 1cbe
000001a0: fa39 1b3f efbc 713d 093d c9bd bf90 75bc
000001b0: e438 d63d 84c7 ba3e acfe 9fbe 30d0 d9be
000001c0: e4f0 2fbd 4ccf a3bd 6060 e93c 9716 3a3f
000001d0: 933a 6ebe 4a94 adbe d078 66be 2ba4 863e
000001e0: c4d0 f23e 5366 e83d 963e 1e3e c2fa 0e3e
000001f0: 7122 6bbe 5418 46bf 5e2a cd3e 854d d93c
00000200: 8e13 af3d 301b dd3e d13f 9abe bc86 02bf
00000210: 42fe df3c 95f9 3bbf 644b 81be 37b7 adbd
00000220: b9ed 043e 1637 81be a11b 9c3d 4d10 c53d
00000230: 84d4 09bc 3289 0e3f e57a 2d3e c8a7 45be
00000240: c058 22be 6fb7 193e 0df4 1a3e 9925 a2bd
00000250: c2d1 89be 8668 5e3d d670 93bd e589 56be
00000260: b9f7 50be 72cd c53d d023 d8bd 9a15 25be
00000270: e29c c23c 9cec dabc 4846 17bd 9e45 533e
00000280: 0da3 e73d 4ed2 af3d 3f4f 4bbd 7e18 b43e
00000290: 70b9 d1bc 060d 263c 5643 f4be 5c3b 763e
000002a0: 86ff a8bd db57 67be 27c2 103e 575a d23e
000002b0: 2475 083d 0d4a 483e 4ce2 8e3b 2ec3 99be
000002c0: 5511 613e c409 54be 2d02 ba3d c418 7bbe
000002d0: 1949 d3bd 6f2e 0fbd 7f1d 4cbe 954e db3c
000002e0: cd57 99be 77c4 1ebe f1e4 943d c88b 6dbe
000002f0: 24e2 5c3d fdca 083e fc08 f63b ef02 b43e
00000300: afb2 18be b209 c3bd d630 ca3d 6f9b da3d
00000310: 32b3 1a3e e0c4 94be 6235 7fbd b53e fcbe
00000320: d1e7 96be c800 a33d 4039 42be ac3c d53d
00000330: 76cf 1abe add5 423e 9d18 7cbe 6a71 353d
00000340: eb17 fa3d ab0e 883e 9c8f 653e 3cf3 ee3e
00000350: a992 483d d16a 7d3e a73a 53bd 5f1e 7c3d
00000360: 15c7 3bbe 387e 5abe 0f79 c73c 6d82 513e
00000370: 7498 8bbd d8fc b6bd 726c 1f3e a7bc f4bd
00000380: d688 0cbf 269d d5bd 1d64 0dbe 3a05 2b3d
00000390: af6d 72be 28a0 0bbd 3918 a03d 0c2e d0bd
000003a0: 2d59 8dbe aee8 743c cc80 09be abef a63d
000003b0: e590 9ebd 46b7 fabe c07c 7dbc 781c 37be
000003c0: 7363 6e3e 003f 563d 94e7 303e c887 04bf
000003d0: 84af 903e 37fd 28bf a991 99be 4fac b8be
000003e0: 04d9 2fbf f86f d6bc 39ad 37be c83d 323e
000003f0: f465 8f3c f48a 143f d24d 5cbe 97bb 2f3d

bilstm.weight_ih_l0 f4 [64, 32]
-0.11985004 0.14235927 0.3445691 0.3183754 0.10845769 -0.01342088 -0.53452384 0.042102795
0.14548628 0.16593315 0.30567235 0.07094578 0.8725141 0.012460057 0.48987934 0.06266394
-0.08282232 0.9537818 0.101742856 0.35393882 -0.16534647 -0.21146412 0.35996222 -0.15112764
-0.0718026 -0.16373712 -0.13597605 -0.23187158 0.14986607 0.103637405 0.25634 0.17319505
0.15072562 -0.03287499 -0.47729596 0.093235634 0.16186436 0.13654988 0.3649615 0.16785464
0.042271275 -0.4921394 -0.015000076 0.16016161 -0.60217726 0.0043794787 -0.7708059 -0.30200994
0.042700365 -1.1751548 0.8888868 -0.3663169 0.060349096 0.2092309 -0.091568775 0.15410638
-0.29238144 -0.12180233 -0.044642378 0.15708722 0.24125029 -0.04504357 -0.41099948 0.058751676
0.03230783 -0.24693078 0.17293914 -0.090601794 -0.019715544 -0.13494667 -0.15147455 0.04473141
0.14478223 -0.055515114 0.48025885 -0.138266 0.98041064 0.34680122 0.70446545 -0.05642145
0.2059748 0.4384126 0.31833243 0.011879722 -0.21032967 0.025712613 0.072438605 0.0063311076
-0.1899294 0.36741602 0.15278077 -0.016681023 0.042627797 -0.18726812 -0.08798442 0.080509365
0.1407991 -0.00049080985 -0.091637604 0.18686283 0.15679121 0.11878046 -0.2856036 0.18029854
0.2573372 -0.114125274 -0.2763936 -0.24233463 0.48752546 0.16482113 -0.15021142 0.048586603
0.32390633 0.016485292 0.1079664 0.24772198 -0.023076342 -0.13193321 0.1068646 0.10275701
-0.1526247 -0.06315274 0.07047403 0.2255513 0.07305081 0.038103104 0.11058538 -0.22520617
0.27435127 -0.052107293 -0.42672744 -0.42023808 0.17928109 0.017791376 -0.39981246 -0.1804373
0.028593794 -0.19024006 0.005812474 0.23838954 0.1919895 -0.19413027 -0.028940883 0.07723003
-0.26455942 -0.5489325 0.34494102 -0.10412607 -0.021397065 0.17193313 -0.23310906 0.21615636
-0.06605318 0.2692683 0.24742658 0.22765315 -0.09491797 0.19278002 -0.14915065 0.16793191
-0.08801875 0.1143339 -0.37284723 -0.31764966 0.2298733 0.14379135 -0.5072414 -0.21764745
0.38380653 0.69980496 0.6157687 0.2016309 0.38223475 -0.21193182 0.20924847 0.21019885
0.12536335 -0.074853264 -0.02144335 -0.09092265 -0.09167151 0.05762897 0.10291208 -0.22873451
0.2538224 -0.29058093 0.08638156 0.15841098 -0.12681113 0.058325157 0.49320638 0.04898817
-0.21992357 -0.36838862 -0.26246515 -0.08596406 -0.22372583 -0.53133494 -0.079501994 0.059746575
0.20039229 0.14693677 -0.4094931 -0.037075605 0.18966651 -0.086770386 0.097020864 0.10502003
-0.11917841 0.12266765 0.16646981 -0.124710366 0.22875129 0.05343633 -0.12773384 0.06872894
0.3086971 -0.034992922 -0.028367985 -0.02701341 0.04196802 -0.31992844 0.13507806 -0.13087721
0.2775808 0.28375077 -0.17163734 -0.13501923 -0.11749495 0.103666335 0.51816356 -0.15105757
0.03508055 0.07983538 0.004688431 -0.25270954 0.83955306 0.015873678 0.43228877 0.1591594
0.010220655 0.35319743 -0.016177997 -0.19016458 -0.110189795 -0.0592659 0.19370951 0.11015794
0.11550341 0.1183351 0.11946483 -0.08269219 -0.14793594 -0.059555914 0.1399104 0.18335603
00000000: f073 f5bd a1c6 113e 5c6b b03e 1a02 a33e
00000010: 111f de3d 40e3 5bbc 8ed6 08bf fb73 2c3d
00000020: 5bfa 143e 61ea 293e 1681 9c3e 054c 913d
00000030: 165d 5f3f 4425 4c3c 77d1 fa3e f455 803d
00000040: c09e a9bd 0b2b 743f 8f5e d03d 7837 b53e
00000050: 9650 29be 0d8a 58be f84c b83e 34c1 1abe
00000060: 3e0d 93bd b4aa 27be 4e3d 0bbe be6f 6dbe
00000070: 7e76 193e d93f d43d ff3e 833e 0b5a 313e
00000080: d157 1a3e eda7 06bd 2360 f4be 53f2 be3d
00000090: c5bf 253e bbd3 0b3e 3cdc ba3e 16e2 2b3e
000000a0: a524 2d3d b2f9 fbbe e1c2 75bc 6801 243e
000000b0: 4a28 1abf bb81 8f3b 8953 45bf 0ca1 9abe
000000c0: 94e6 2e3d 796b 96bf 168e 633f e48d bbbe
000000d0: 9d30 773d a040 563e 6988 bbbd 10ce 1d3e
000000e0: 05b3 95be 8073 f9bd edda 36bd 79db 203e
000000f0: 510a 773e 9b7f 38bd 866e d2be 99a5 703d
00000100: 3755 043d 6cdb 7cbe f516 313e 6f8d b9bd
00000110: 7e82 a1bc 762f 0abe 251c 1bbe 4838 373d
00000120: cb41 143e d163 63bd 7de4 f53e 9a95 0dbe
00000130: 31fc 7a3f ee8f b13e d957 343f 2e1a 67bd
00000140: 0feb 523e 9e77 e03e 78fc a23e 2aa3 423c
00000150: a960 57be 42a3 d23c b15a 943d 2e75 cf3b
00000160: da7c 42be f41d bc3e 9072 1c3e a4a6 88bc
00000170: 7c9a 2e3d 37c3 3fbe 2d31 b4bd 18e2 a43d
00000180: a42d 103e b1a9 00ba 7fac bbbd f858 3f3e
00000190: e08d 203e 2b43 f33d a33a 92be 2ea0 383e
000001a0: b4c1 833e 83ba e9bd 7683 8dbe 9226 78be
000001b0: f09c f93e dfc6 283e 06d1 19be bf02 473d
000001c0: 0dd7 a53e 2a0c 873c 7d1d dd3d d5aa 7d3e
000001d0: 990a bdbc 8019 07be d4db da3d 4472 d23d
000001e0: a649 1cbe 3956 81bd b054 903d ecf6 663e
000001f0: aa9b 953d 0012 1c3d 967a e23d 729c 66be
00000200: c577 8c3e 756e 55bd 057c dabe 7229 d7be
00000210: 7695 373e 38bf 913c 38b4 ccbe 8ec4 38be
00000220: 883d ea3c 4ace 42be 9176 be3b 631c 743e
00000230: e598 443e 16ca 46be 6e15 edbc c72a 9e3d
00000240: 5574 87be d786 0cbf 1c9c b03e 0d40 d5bd
00000250: e648 afbc 3d0f 303e 24b4 6ebe 1858 5d3e
00000260: e446 87bd 89dd 893e 655d 7d3e e81d 693e
00000270: 5a64 c2bd 2068 453e f3ba 18be 58f6 2b3e
00000280: 2d43 b4bd e427 ea3d d5e5 bebe faa2 a2be
00000290: e863 6b3e 0a3e 133e 93da 01bf f9de 5ebe
000002a0: 4a82 c43e 6b26 333f 04a3 1d3f 5578 4e3e
000002b0: 46b4 c33e a804 59be 3b45 563e 5e3e 573e
000002c0: 405f 003e ab4c 99bd f7a9 afbc a835 babd
000002d0: 46be bbbd 5b0c 6c3d 92c3 d23d 6139 6abe
000002e0: 02f5 813e 06c7 94be d1e8 b03d 7d36 223e
000002f0: c7da 01be 5ce6 6e3d 8c85 fc3e d2a7 483d
00000300: a533 61be 6f9d bcbe d561 86be ed0d b0bd
00000310: 6218 65be 9105 08bf f1d1 a2bd d3b8 743d
00000320: a333 4d3e 9876 163e 14a9 d1be 97dc 17bd
00000330: f037 423e acb4 b1bd e0b2 c63d be14 d73d
00000340: cf13 f4bd 2d39 fb3d 1077 2a3e 2668 ffbd
00000350: c73d 6a3e 0ee0 5a3d a9cc 02be c2c1 8c3d
00000360: 8c0d 9e3e bd54 0fbd fa63 e8bc 3a4b ddbc
00000370: a9e6 2b3d a9cd a3be e751 0a3e ad04 06be
00000380: 121f 8e3e c847 913e b3c1 2fbe 7b42 0abe
00000390: 31a1 f0bd 044f d43d 5ea6 043f d6ae 1abe
000003a0: 9fb0 0f3d bb80 a33d 69a1 993b 2563 81be
000003b0: f3ec 563f 8409 823c f454 dd3e affa 223e
000003c0: 8974 273c 4bd6 b43e b887 84bc 81ba 42be
000003d0: 30ab e1bd cdc0 72bd c95b 463e 7c9a e13d
000003e0: 0d8d ec3d ac59 f23d faa9 f43d 865a a9bd
000003f0: 857c 17be e7f0 73bd ac44 0f3e afc1 3b3e

bilstm.weight_ih_l0_reverse f4 [64, 32]
0.27990898 0.14015035 -0.021153243 0.117275305 0.10804919 0.29906455 -0.10204052 0.21688947
0.077043496 -0.09030214 0.041019745 0.13174556 0.025634177 0.030828414 0.20460078 -0.017906751
-0.22646403 -0.46903324 -0.105669595 -0.21291117 0.1483419 -0.1113104 -0.24814823 0.15659758
-0.07989542 0.14129171 0.21044354 -0.034680128 -0.21149509 -0.21597321 0.47798637 -0.024316568
-0.20727128 -0.3344861 -0.26840767 -0.25706568 0.18512177 -0.010121237 -0.16162881 0.18559602
0.1965755 0.03988205 -0.0044421707 -0.15238415 -0.23746319 0.31634536 -0.5992913 0.24590461
-0.06854186 -0.17358454 0.19171146 0.09674818 -0.22555609 0.1878729 -0.018833974 -0.5184794
-0.12289713 -0.22789887 0.005050596 -0.11355655 0.17170228 -0.005407005 -0.19832887 -0.22779588
-0.016176656 0.08198258 0.3029416 0.13224177 0.10620377 -0.2986879 0.3324698 -0.083853245
0.22651158 -0.115534395 -0.2650055 -0.072479606 0.06241422 -0.10676618 -0.84989166 0.009467992
-0.086974785 0.046881758 0.15817335 -0.0135663515 -0.019959873 0.10269792 -0.048988722 -0.3048592
0.049451027 -0.10419595 0.21122773 0.11808615 -0.006867477 0.11171223 -0.70457906 -0.15874831
0.21481769 -0.056583066 0.033983678 -0.341772 0.031684317 0.2776313 0.11986866 -0.03547539
0.020817934 -0.3967447 -0.09268053 0.032395855 0.087684184 -0.25535017 -0.0070102895 0.047705166
-0.3397131 -0.35972983 -0.06581539 -0.13633366 0.07622887 0.024421649 -0.11837228 -0.18618365
-0.27705395 -0.05359191 -0.13268049 -0.16848458 -0.08897775 0.16792978 0.23782228 -0.20350815
0.011912698 0.50735027 0.047310766 -0.13336879 -0.005873038 -0.07477817 0.21047807 -0.05176825
-0.38360843 0.009233701 0.18769877 0.25719938 -0.06389998 -0.3670643 0.2132409 -0.21836036
0.1633428 -0.16099866 -0.038768284 -0.00020447504 0.22200498 0.18382396 -0.071026474 0.13519289
0.25582737 -0.022685327 0.25525907 -0.11723539 -0.0155555215 -0.04687343 0.48737282 0.09641756
0.009923982 0.15680604 0.21228984 -0.08622353 -0.0006124328 0.34370938 0.14242455 -0.11785812
0.10684148 -0.007033272 -0.18880749 0.020281257 0.019497735 0.056923162 0.35114694 -0.37113306
-0.21837452 -0.3274388 0.19118072 -0.08760483 -0.07972834 0.36194107 -0.30819544 -0.31173837
0.028183501 -0.04065278 0.16012548 -0.104560696 0.17706747 0.087153524 0.37972438 -0.22529402
-0.19251499 -0.19810179 -0.24003628 0.16651216 -0.0578242 -0.08436025 -0.37780017 -0.036132213
-0.14573444 0.3419872 0.49394614 -0.11198597 0.083926745 0.29166964 0.39403096 0.19384435
-0.117834836 0.16755919 0.13386922 0.059898127 -0.12479198 0.24204312 0.22361971 0.13012952
0.10944353 -0.34356862 0.17656519 0.23417726 0.18350375 -0.09538509 0.469182 -0.08379652
-0.4684975 -0.18004285 -0.34354407 0.22797303 -0.11520673 0.50256145 -0.34668207 0.07023092
0.3081422 0.15082304 0.34987888 -0.13191375 0.47370416 -0.08723017 0.2989523 -0.17026894
-0.051382486 -0.2869855 0.108095266 -0.10523827 0.019467233 -0.13290888 -0.047154155 0.06295389
-0.03548157 -0.3082039 -0.17659603 0.1768069 -0.20186055 0.20149942 0.09651338 0.215472
00000000: 3b50 8f3e 9383 0f3e 9149 adbc 092e f03d
00000010: e548 dd3d fd1e 993e 9ffa d0bd 4618 5e3e
00000020: fbc8 9d3d 54f0 b8bd 5204 283d 4fe8 063e
00000030: c4fe d13c df8b fc3c de82 513e 2eb1 92bc
00000040: 30e6 67be 2025 f0be 4d69 d8bd 6305 5abe
00000050: f0e6 173e b5f6 e3bd 921a 7ebe 1e5b 203e
00000060: 36a0 a3bd c6ae 103e 837e 573e c00c 0ebd
00000070: 2b92 58be 1528 5dbe a1ba f43e 8a33 c7bc
00000080: ec3e 54be c341 abbe bb6c 89be 1d9e 83be
00000090: 9090 3d3e 8bd3 25bc 0682 25be e20c 3e3e
000000a0: 164b 493e 5c5b 233d a18f 91bb 970a 1cbe
000000b0: 8d29 73be 05f8 a13e 286b 19bf 6bce 7b3e
000000c0: ad5f 8cbd 25c0 31be 0250 443e e923 c63d
000000d0: 2df8 66be c161 403e b549 9abc 11bb 04bf
000000e0: 7eb1 fbbd 525e 69be 787f a53b 5690 e8bd
000000f0: b9d2 2f3e 3f2d b1bb b916 4bbe 5343 69be
00000100: e884 84bc 7ce6 a73d 291b 9b3e 636a 073e
00000110: 5d81 d93d 9fed 98be 7b39 aa3e 40bb abbd
00000120: a7f2 673e 4c9d ecbd cdae 87be 3070 94bd
00000130: 0ea6 7f3d 3aa8 dabd 8092 59bf a31f 1b3c
00000140: d61f b2bd 1607 403d 32f8 213e 6745 5ebc
00000150: e382 a3bc 4953 d23d 66a8 48bd 8116 9cbe
00000160: 298d 4a3d b064 d5bd 154c 583e 27d7 f13d
00000170: 9308 e1bb 62c9 e43d 4b5f 34bf eb8e 22be
00000180: 2bf9 5b3e a5c3 67bd 7832 0b3d bdfc aebe
00000190: 6ac7 013d b125 8e3e b37d f53d a44e 11bd
000001a0: 5f8a aa3c 1f22 cbbe 4acf bdbd 84b1 043d
000001b0: c493 b33d 42bd 82be 92b6 e5bb 7e66 433d
000001c0: e0ee adbe 822e b8be 38ca 86bd 0d9b 0bbe
000001d0: e21d 9c3d e90f c83c 2a6d f2bd eda6 3ebe
000001e0: 04da 8dbe 3183 5bbd 65dd 07be 3987 2cbe
000001f0: f739 b6bd c9f5 2b3e af87 733e 7164 50be
00000200: 7a2d 433c b5e1 013f efc8 413d d491 08be
00000210: 9d72 c0bb 4c25 99bd 9087 573e f20a 54bd
00000220: 5368 c4be f348 173c 1b34 403e a3af 833e
00000230: fedd 82bd daef bbbe d35b 5a3e dc99 5fbe
00000240: 5643 273e d5dc 24be 7ecb 1ebd 5a68 56b9
00000250: 4655 633e 593c 3c3e 5476 91bd 0170 0a3e
00000260: cefb 823e 94d6 b9bc 51b1 823e 1c19 f0bd
00000270: 96dc 7ebc 5bfe 3fbd ee88 f93e 9276 c53d
00000280: 3398 223c c391 203e 8262 593e f695 b0bd
00000290: ab8b 20ba adfa af3e bed7 113e 995f f1bd
000002a0: b5cf da3d 5d77 e6bb c056 41be e124 a63c
000002b0: b7b9 9f3c 4328 693d 88c9 b33e 2705 bebe
000002c0: 929d 5fbe 0fa6 a7be e1c4 433e 296a b3bd
000002d0: 9d48 a3bd 5750 b93e cbcb 9dbe 2c9c 9fbe
000002e0: 16e1 e63c 8883 26bd eff7 233e eb23 d6bd
000002f0: 2d51 353e 8c7d b23d 3c6b c23e 7ab3 66be
00000300: a622 45be 32db 4abe 12cc 75be 2a82 2a3e
00000310: 11d9 6cbd 11c5 acbd 066f c1be 5fff 13bd
00000320: 693b 15be f218 af3e 82e6 fc3e e658 e5bd
00000330: c9e1 ab3d b955 953e 6dbe c93e 227f 463e
00000340: 6453 f1bd a394 2b3e 0315 093e bd57 753d
00000350: f092 ffbd 27da 773e 91fc 643e ac40 053e
00000360: ee23 e03d 3ae8 afbe 81cd 343e 2acc 6f3e
00000370: 68e8 3b3e 4259 c3bd a038 f03e 839d abbd
00000380: e8de efbe 275d 38be 02e5 afbe c371 693e
00000390: 82f1 ebbd dea7 003f 5080 b1be 3bd5 8f3d
000003a0: d0c4 9d3e 5b71 1a3e 5323 b33e 6614 07be
000003b0: 5a89 f23e bba5 b2bd 4710 993e fb5a 2ebe
000003c0: 7176 52bd c3ef 92be 0d61 dd3d 2987 d7bd
000003d0: bf79 9f3c 4419 08be b724 41bd f8ed 803d
000003e0: 1f55 11bd e7cc 9dbe 97d5 34be de0c 353e
000003f0: 88b4 4ebe dd55 4e3e cfa8 c53d b1a4 5c3e

parallel_cnn_block.branches.0.0.weight f4 [1, 1, 2]
-0.41943896 0.72120464
00000000: b4c0 d6be dea0 383f

parallel_cnn_block.branches.0.2.bias f4 [16]
-0.20286871 0.36262378 -0.2110258 -1.0355707 -1.247985 -0.5481882 -0.23820637 -0.06803737
-0.16209964 0.86997104 0.5514095 0.47278088 0.034259886 0.601146 0.021244284 0.54274833
00000000: d1bc 4fbe d3a9 b93e 2617 58be 958d 84bf
00000010: f9bd 9fbf 1056 0cbf 5fec 73be 2d57 8bbd
00000020: 73fd 25be 6cb6 5e3f 2c29 0d3f 5610 f23e
00000030: 1854 0c3d b4e4 193f 7e08 ae3c 8ef1 0a3f

parallel_cnn_block.branches.0.2.weight f4 [16, 1, 2]
-0.27267736 -0.37132436 -0.7977926 -0.22600524 -0.6287687 -0.06125547 0.0647159 0.27855337
0.4682634 -0.06649441 -0.14006266 0.60412276 0.22092235 -0.06964637 0.34681946 0.4269981
0.48398617 0.7817414 -0.6551528 0.2952577 0.014215747 -0.105404064 0.08251285 0.012427636
0.65246695 -0.6889285 0.424582 -0.6160295 -0.68511486 0.65306723 -0.26111144 0.11153174
00000000: 5e9c 8bbe 3a1e bebe 233c 4cbf eb6d 67be
00000010: fcf6 20bf 04e7 7abd c589 843d 8c9e 8e3e
00000020: 38c0 ef3e 392e 88bd 966c 0fbe caa7 1a3f
00000030: 7839 623e c2a2 8ebd 5292 b13e 7f9f da3e
00000040: 09cd f73e 3420 483f 18b8 27bf 042c 973e
00000050: 2ae9 683c 16de d7bd 7ffc a83d 499d 4b3c
00000060: 1308 273f 9e5d 30bf d062 d93e 1cb4 1dbf
00000070: b063 2fbf 6a2f 273f 66b0 85be c16a e43d

parallel_cnn_block.branches.1.0.weight f4 [1, 1, 4]
-0.055196982 0.08342509 0.5991776 0.41529074
00000000: 3b16 62bd c6da aa3d b463 193f fda0 d43e

parallel_cnn_block.branches.1.2.bias f4 [32]
0.08018597 0.5496557 0.5644068 -0.0999251 -0.11806411 -0.5669385 -0.05101284 0.3947647
0.015921732 -0.009517854 0.8893139 0.6237553 0.4059104 -0.41667822 -0.5123191 0.27477375
-1.4490134 0.32903266 -0.16617249 0.13525327 -0.16704315 0.46794802 -0.583132 0.18801673
-0.6482501 -0.13269484 -0.28810507 -0.009067613 0.007969671 0.2635316 -0.35419422 0.013305016
00000000: 8b38 a43d 3cb6 0c3f f77c 103f 88a5 ccbd
00000010: 99cb f1bd e222 11bf d7f2 50bd 991e ca3e
00000020: 4b6e 823c c6f0 1bbc 13aa 633f 6dae 1f3f
00000030: 7dd3 cf3e d956 d5be 5827 03bf 25af 8c3e
00000040: 4579 b9bf f876 a83e 1f29 2abe d57f 0a3e
00000050: 5c0d 2bbe e296 ef3e 2448 15bf 7587 403e
00000060: b8f3 25bf 28e1 07be 8282 93be 5390 14bc
00000070: 3993 023c 9ded 863e f258 b5be 48fd 593c

parallel_cnn_block.branches.1.2.weight f4 [32, 1, 4]
0.118224084 0.25066674 -0.10988394 -0.3244233 0.042427335 -0.42919195 -0.11399123 0.29855585
-0.47037426 -0.22651987 -0.5631995 -0.010531952 0.38732362 -0.5093449 0.18101993 0.30833542
0.0047698044 0.30772153 -0.28948674 -0.6797243 -0.42356104 0.13362874 -0.23423803 0.3688007
0.30983478 0.3065753 0.3624683 -0.08147376 0.05456606 -0.5262005 0.18632211 0.080008395
-0.10938303 0.5095905 0.41057566 0.0939386 -0.069401346 -0.46650913 0.3756391 0.4021013
-0.49676466 -0.107286416 0.5211792 0.0037390986 -0.39773777 0.12816687 -0.3520354 0.3536303
0.016967913 0.4072822 -0.38503882 -0.61238986 0.3572264 0.42242637 -0.1941312 -0.44737905
0.3531674 0.33401963 -0.21948464 -0.24591532 0.37283075 -0.19567773 -0.34348807 0.14153436
0.04445873 0.115628585 -0.32895017 0.28721878 -0.11870305 0.3465178 -0.42330635 0.16733673
-0.07804626 -0.08816417 0.10663628 0.17947425 0.22830194 0.50041044 0.36327052 0.19114912
-0.31705505 -0.2084356 -0.22454113 -0.45641613 -0.27884084 0.15459754 -0.23223488 0.06496588
-0.52692807 -0.02086605 0.43098193 0.16067418 0.36092255 -0.09331552 -0.22580968 -0.25141367
-0.3565079 0.09776931 0.43061826 -0.039589338 -0.43085536 0.07482691 0.3941373 0.4066228
-0.8343608 0.29988408 -0.06378532 0.16944276 0.3075077 -0.14637303 -0.023870703 0.00565121
-0.17566445 0.2168322 -0.32729936 0.36271763 -0.061115783 0.55235523 -0.5470212 -0.5275063
-0.32688224 -0.068430126 -0.0006918907 -0.47238857 0.15615469 0.47291535 -0.40065446 -0.2645076
00000000: 781f f23d 6457 803e d50a e1bd d01a a6be
00000010: 49c8 2d3d 0cbf dbbe 3c74 e9bd 50dc 983e
00000020: e5d4 f0be d3f4 67be d82d 10bf 358e 2cbc
00000030: 484f c63e 6d64 02bf 4a5d 393e 24de 9d3e
00000040: 054c 9c3b ad8d 9d3e 9b37 94be 6902 2ebf
00000050: fedc d8be f9d5 083e 18dc 6fbe 72d3 bc3e
00000060: aaa2 9e3e 70f7 9c3e 7295 b93e b7db a6bd
00000070: a980 5f3d 13b5 06bf 39cb 3e3e 71db a33d
00000080: 3604 e0bd 8674 023f f936 d23e e162 c03d
00000090: 4b22 8ebd 49da eebe c553 c03e 39e0 cd3e
000000a0: f057 febe fbb8 dbbd 006c 053f aa0b 753b
000000b0: 49a4 cbbe 2d3e 033e fc3d b4be 080f b53e
000000c0: 4b00 8b3c 4b87 d03e cf23 c5be 95c5 1cbf
000000d0: 61e6 b63e 4548 d83e 54ca 46be de0e e5be
000000e0: 5cd2 b43e 9f04 ab3e 95c0 60be 3ad1 7bbe
000000f0: ace3 be3e be5f 48be abdd afbe 62ee 103e
00000100: 5b1a 363d aece ec3d 286c a8be 570e 933e
00000110: 961a f3bd c86a b13e 9cbb d8be 525a 2b3e
00000120: b8d6 9fbd 6b8f b4bd 1f64 da3d 19c8 373e
00000130: fcc7 693e e61a 003f 98fe b93e 98bc 433e
00000140: 0a55 a2be 2470 55be 1cee 65be 60af e9be
00000150: 3ac4 8ebe d14e 1e3e fbce 6dbe d50c 853d
00000160: c2e4 06bf 47ef aabc aaa9 dc3e c687 243e
00000170: d7ca b83e 351c bfbd a73a 67be 4bb9 80be
00000180: 3488 b6be 473b c83d ff79 dc3e 6e28 22bd
00000190: 1399 dcbe da3e 993d 5dcc c93e dd30 d03e
000001a0: ab98 55bf 688a 993e e1a1 82bd 6782 2d3e
000001b0: a671 9d3e d0e2 15be 7e8c c3bc c92d b93b
000001c0: 62e1 33be 4309 5e3e c893 a7be 20b6 b93e
000001d0: 8b54 7abd 2767 0d3f 9509 0cbf a70a 07bf
000001e0: 1c5d a7be 1825 8cbd 0060 35ba eadc f1be
000001f0: 04e7 1f3e f621 f23e 9522 cdbe 8a6d 87be

parallel_cnn_block.branches.2.0.weight f4 [1, 1, 8]
-0.5501842 -0.3063871 0.034368463 0.6011504 0.05387304 -0.13303368 0.38841546 -0.08455667
00000000: dfd8 0cbf c5de 9cbe f2c5 0c3d fee4 193f
00000010: faa9 5c3d fb39 08be 64de c63e 0c2c adbd

parallel_cnn_block.branches.2.2.bias f4 [64]
0.1213732 0.09406607 -0.59726834 0.23012015 0.055032417 -0.07510729 -0.16398335 0.21224026
0.023227768 -1.0365381 -0.030950839 0.2537562 0.048968803 -0.93368816 -0.07292168 -0.051864732
0.01092648 -1.0396566 -1.6131462 0.31552663 0.46690097 -0.20865533 0.47033182 0.36457637
-0.18433274 0.59415454 -0.14360616 -0.09145493 0.010875254 -0.019044833 -0.05154389 -0.79179966
-0.02233468 -0.07231792 0.1722011 0.11898483 -0.0035213307 -0.553716 0.41628072 0.20181313
0.07130576 -1.6023239 -0.07697138 -0.054996323 0.052548226 -0.030430654 0.30583495 -0.0276635
0.0024424985 0.2868182 0.3687935 -1.1935104 0.068893924 0.3149796 -0.026464656 0.33102778
0.27548167 0.2864114 0.015435999 -0.030501865 0.015270892 0.09278066 -1.031879 -0.04776264
00000000: 8392 f83d b6a5 c03d 94e6 18bf 9ea4 6b3e
00000010: ac69 613d dad1 99bd 40eb 27be 8355 593e
00000020: 2948 be3c 48ad 84bf 9d8c fdbc 55ec 813e
00000030: 8393 483d 3006 6fbf f657 95bd 1d70 54bd
00000040: fb04 333c 7813 85bf 937b cebf b58c a13e
00000050: a50d ef3e bea9 55be 55cf f03e c1a9 ba3e
00000060: b9c1 3cbe 831a 183f 7e0d 13be b94c bbbd
00000070: 1f2e 323c e903 9cbc b01f 53bd 62b3 4abf
00000080: 38f7 b6bc 6b1b 94bd 7c55 303e 52ae f33d
00000090: 20c6 66bb 55c0 0dbf bf22 d53e 1aa8 4e3e
000000a0: c108 923d f318 cdbf 2ca3 9dbd d343 61bd
000000b0: cf3c 573d b549 f9bc 6696 9c3e 909e e2bc
000000c0: 5312 203b d6d9 923e 80d2 bc3e f3c4 98bf
000000d0: 4218 8d3d 0245 a13e 68cc d8bc 797c a93e
000000e0: ef0b 8d3e 84a4 923e 46e7 7c3c 0cdf f9bc
000000f0: c332 7a3c c903 be3d 9c14 84bf c2a2 43bd

parallel_cnn_block.branches.2.2.weight f4 [64, 1, 8]
0.17215598 0.007780557 0.23756191 -0.73551714 0.41827226 0.015462941 0.08351926 -1.281612
-0.059190497 0.12938105 -0.49015296 0.23891151 0.1570128 0.20309189 0.1290012 0.30835408
0.3646113 -0.11343839 -0.07342832 0.056590304 0.47557533 0.19351774 -0.008059407 -0.13999555
0.24628921 -0.100312725 0.07159971 0.014296216 -0.24691758 -0.023715544 -0.15515037 0.30369407
-0.7597163 -0.023935078 0.11598709 0.5335789 -0.08433897 0.33048776 -0.16254772 -0.4371431
0.19341555 -0.2079465 -0.5597164 0.46987742 0.5990099 0.28475195 -0.27473387 0.12869151
0.47556105 0.4077959 0.45675358 0.42725506 0.69490445 0.39371458 0.19413681 0.23881954
-0.15630522 0.042956896 -0.089744 0.008543209 -0.1767528 0.14979082 0.08848693 0.0014631223
-0.13352129 0.552886 0.3499667 -0.32784024 -0.880104 0.30468154 0.02656121 -0.11120577
0.5674587 -0.29318056 0.01772831 0.1086009 0.044541277 -0.05664296 -0.0026562216 -0.027308336
0.549923 -0.29489368 -0.43678555 0.4919676 -0.11962627 -0.11053195 0.097448185 -0.3289437
0.13656631 -0.009625616 -0.091349244 0.080097616 -0.2582602 -0.096798144 -0.12536126 -0.011384073
-0.74864125 -0.13795345 0.20686047 0.13176969 0.5824303 0.09819854 0.04330599 -0.2753477
0.046970002 0.12716186 0.5144805 0.49118388 0.16569908 -0.37761927 -0.29743296 -0.06700503
-0.24970572 0.27535042 0.2751981 0.092640616 0.3739618 0.35355434 -0.45193666 -0.27414677
0.044338334 0.16689388 0.14868604 0.15310128 0.08649569 -0.20767216 0.23389953 0.119050145
-0.8533243 0.48625475 -0.24109037 -0.048118617 0.32941896 0.22487903 -0.025613002 0.26934314
0.11628056 0.009899428 0.35722667 0.021347087 -0.61574364 0.120175436 -0.08576786 0.35351124
0.11149345 0.2826153 0.024073893 0.14941677 -0.18669403 0.2713783 -0.123752 0.15478916
-0.14380312 0.35067013 0.0043908404 -0.17255765 0.038971923 -0.3791503 0.06572115 -0.29436988
0.25270224 -0.1956511 0.033269078 0.23148115 -0.26608208 -0.97351944 -0.91292995 -0.46148238
0.06972187 -0.1789526 -0.033188257 -0.040032256 0.6467587 0.39451146 0.3587191 0.04219355
0.22325033 -0.34326506 0.15897352 0.3081087 -0.32994676 0.092011884 -0.8850099 -0.45613423
0.27331161 -0.034275405 0.44863486 0.13801618 -0.2320436 -0.45550385 -1.3212492 0.19258745
0.4499043 0.2544948 0.50920486 0.47818422 0.740052 0.50284827 0.31596217 0.28191838
-0.23322174 -0.24673918 -0.36615288 -0.35108867 -0.14221565 -0.23501688 -0.41534665 0.3401982
0.16878515 0.34883258 -0.3473369 -0.4648505 -0.03407549 0.45022193 0.41016042 0.5095129
0.4272866 -0.14961213 -0.76460624 0.66505635 0.21906154 -0.033917792 0.22244914 0.12543248
0.085481174 -0.093203485 0.0938238 0.28081906 0.32541347 -0.22061689 0.29658663 0.09095204
-0.07214071 0.06336169 0.17877431 -0.2026374 0.48548314 0.14887965 -0.5327057 -0.042605653
0.4470886 -0.029798072 0.3994135 0.14546189 0.27195913 -0.20025598 0.25137246 -0.034984767
0.10280626 -0.0009899556 0.30701697 -0.24204616 0.07454624 0.3950133 0.16408576 0.4813077
00000000: a849 303e 0bf4 fe3b 6e43 733e da4a 3cbf
00000010: c827 d63e 4658 7d3c 250c ab3d dd0b a4bf
00000020: bc71 72bd 777c 043e 54f5 fabe 38a5 743e
00000030: f7c7 203e 52f7 4f3e e418 043e 96e0 9d3e
00000040: 55ae ba3e 6352 e8bd 9661 96bd 3ccb 673d
00000050: 9c7e f33e 8429 463e 9a0b 04bc fe5a 0fbe
00000060: 3d33 7c3e c270 cdbd dea2 923d ad3a 6a3c
00000070: f6d7 7cbe 1a47 c2bc bddf 1ebe ca7d 9b3e
00000080: c47c 42bf 7f13 c4bc a48a ed3d a098 083f
00000090: e9b9 acbd b135 a93e e972 26be 38d1 dfbe
000000a0: ba0e 463e edef 54be 9349 0fbf c693 f03e
000000b0: b658 193f 02cb 913e eba9 8cbe b5c7 033e
000000c0: bd7c f33e a0ca d03e 9bdb e93e 2dc1 da3e
000000d0: 42e5 313f f594 c93e cdcb 463e 1c8d 743e
000000e0: 7a0e 20be 92f3 2f3d b4cb b7bd d1f8 0b3c
000000f0: b0fe 34be c462 193e a338 b53d 3dc6 bf3a
00000100: ceb9 08be f089 0d3f d62e b33e adda a7be
00000110: 7f4e 61bf 38ff 9b3e e596 d93c dabf e3bd
00000120: f944 113f c31b 96be f63a 913c 266a de3d
00000130: ea70 363d 7302 68bd 0114 2ebb bbb5 dfbc
00000140: c1c7 0c3f 4efc 96be 5ba2 dfbe 2de3 fb3e
00000150: 9efe f4bd 935e e2bd ea92 c73d 4f6b a8be
00000160: 0ad8 0b3e c2b4 1dbc 5015 bbbd 380a a43d
00000170: ae3a 84be 1b3e c6bd b45e 00be 4384 3abc
00000180: f4a6 3fbf ab43 0dbe 3bd3 533e a2ee 063e
00000190: 271a 153f 511c c93d 9f61 313d 60fa 8cbe
000001a0: 9e63 403d b836 023e feb4 033f 747c fb3e
000001b0: 05ad 293e 5057 c1be 2249 98be ef39 89bd
000001c0: dbb2 7fbe bbfa 8c3e c4e6 8c3e 5dba bd3d
000001d0: ec77 bf3e 1305 b53e 3e64 e7be f75c 8cbe
000001e0: 1d9c 353d 3be6 2a3e 2741 183e 95c6 1c3e
000001f0: a724 b13d 03a8 54be 5c83 6f3e 90d0 f33d
00000200: 7673 5abf 62f6 f83e 65e0 76be 0718 45bd
00000210: 9aa9 a83e b046 663e 5cd2 d1bc 58e7 893e
00000220: 8124 ee3d 3631 223c 6ae6 b63e 16e0 ae3c
00000230: 60a1 1dbf 8a1e f63d 0fa7 afbd 6dff b43e
00000240: ae56 e43d f4b2 903e 9d36 c53c b600 193e
00000250: b82c 3fbe 19f2 8a3e b071 fdbd 0d81 1e3e
00000260: 2041 13be 098b b33e 0ae1 8f3b f4b2 30be
00000270: 06a1 1f3d fd1f c2be cf98 863d a6b7 96be
00000280: 3062 813e c358 48be 2845 083d 6509 6d3e
00000290: e93b 88be 9238 79bf c7b5 69bf 6b47 ecbe
000002a0: 57ca 8e3d 5a3f 37be 69f0 07bd ddf8 23bd
000002b0: fa91 253f 68fd c93e 08aa b73e 25d3 2c3d
000002c0: bc9b 643e 70c0 afbe f4c9 223e 6cc0 9d3e
000002d0: c8ee a8be ba70 bc3d 0290 62bf 6d8a e9be
000002e0: 80ef 8b3e 5e64 0cbd 78b3 e53e 1d54 0d3e
000002f0: d69c 6dbe cd37 e9be b21e a9bf a535 453e
00000300: db59 e63e 244d 823e 405b 023f 90d4 f43e
00000310: 0c74 3d3f aaba 003f cbc5 a13e 9b57 903e
00000320: aed1 6ebe 32a9 7cbe 6478 bbbe e5c1 b3be
00000330: fba0 11be 44a8 70be 51a8 d4be 752e ae3e
00000340: 04d6 2c3e 2f9a b23e 24d6 b1be e200 eebe
00000350: be92 0bbd 7d83 e63e 8c00 d23e 706f 023f
00000360: 4fc5 da3e ec33 19be 3cbd 43bf 2241 2a3f
00000370: ab51 603e 62ed 0abd b5c9 633e 5f71 003e
00000380: c110 af3d 78e1 bebd b126 c03d 84c7 8f3e
00000390: 989c a63e 65e9 61be 34da 973e 1045 ba3d
000003a0: 82be 93bd c6c3 813d 9d10 373e 2e80 4fbe
000003b0: 3f91 f83e e873 183e 675f 08bf 4483 2ebd
000003c0: cce8 e43e 161b f4bc ed7f cc3e f6f3 143e
000003d0: 3a3e 8b3e e70f 4dbe e4b3 803e 304c 0fbd
000003e0: 178c d23d 66c1 81ba 5431 9d3e f3da 77be
000003f0: b3ab 983d 2f3f ca3e 1906 283e f66d f63e

parallel_cnn_block.branches.3.0.weight f4 [1, 1, 32]
-0.075017035 0.021813486 -0.024319705 0.04925986 -0.08943588 0.11548451 0.28678563 0.1614379
0.20495254 0.121284634 0.35464993 0.22944981 0.16778755 0.009236543 -0.24125373 0.058880232
0.044621088 0.18548784 0.07672565 0.22356835 0.39020342 0.24345192 0.18405199 0.10327037
-0.116291374 0.008883272 -0.0107299285 -0.04560643 0.021786207 -0.018060751 0.036707018 -0.038074084
00000000: 88a2 99bd 32b2 b23c 1e3a c7bc b5c4 493d
00000010: 292a b7bd 2583 ec3d 91d5 923e fa4f 253e
00000020: 14df 513e 1464 f83d ad94 b53e e4f4 6a3e
00000030: 80d0 2b3e df54 173c 380b 77be 662c 713d
00000040: 9ac4 363d 86f0 3d3e 5622 9d3d 1aef 643e
00000050: bec8 c73e 764b 793e 2078 3c3e 6a7f d33d
00000060: 2c2a eebd 258b 113c 95cc 2fbc cfcd 3abd
00000070: fd78 b23c 24f4 93bc 195a 163d 92f3 1bbd

parallel_cnn_block.branches.3.2.bias f4 [16]
0.22001423 0.14775476 0.3553078 0.40084025 0.81683326 0.41163883 0.27481607 0.25912768
0.22083378 0.5309532 0.5967983 -0.6493414 -0.043301143 0.559334 0.09577002 0.18418169
00000000: 694b 613e 064d 173e e7ea b53e ef3a cd3e
00000010: fc1b 513f 53c2 d23e b1b4 8c3e 62ac 843e
00000020: 4022 623e 8dec 073f c6c7 183f 3d3b 26bf
00000030: 8a5c 31bd 8330 0f3f 1223 c43d 209a 3c3e
