remade/wide/modelpars_wide_i_74.safetensors (safetensors, 86584 bytes, 32 tensors)

bilstm.bias_hh_l0 f4 [64]
-0.14718175 -0.2514349 0.34049854 0.04317159 -0.044766497 0.0003109309 -0.40587214 0.02111806
0.04588998 -0.08217442 0.08070117 -0.066497274 -0.12984817 -0.03117578 -0.1298139 -0.15511027
0.37508333 0.18065494 0.12822396 0.10036641 0.25119343 -0.09492948 0.4341039 -0.0084723085
0.2931694 0.23960204 0.0130742695 -0.11873385 0.36265627 -0.25032812 0.22923593 -0.011279147
0.028808579 -0.21119608 -0.10635621 0.026082492 -0.194532 -0.011667969 -0.033256225 -0.071123704
0.06118853 0.23076124 0.3010153 0.09036956 0.06434053 -0.100182824 -0.026575627 -0.24571991
0.30305865 -0.2350435 0.307517 -0.39109543 0.05069326 0.08540358 0.54211277 0.22827291
0.31512114 0.2194731 0.4276454 0.17070867 -0.029713785 -0.24462888 -0.06617482 -0.09170972
00000000: d0b6 16be 13bc 80be d355 ae3e b1d4 303d
00000010: 135d 37bd 7004 a339 79ce cfbe c8ff ac3c
00000020: 22f7 3b3d 104b a8bd a846 a53d b92f 88bd
00000030: ebf6 04be 5964 ffbc efed 04be 3ad5 1ebe
00000040: ec0a c03e 9cfd 383e 244d 033e e88c cd3d
00000050: 6d9c 803e 636a c2bd de42 de3e 70cf 0abc
00000060: 4d1a 963e 3d5a 753e 7635 563c bc2a f3bd
00000070: 15ae b93e 022b 80be d3bc 6a3e 2ccc 38bc
00000080: f8ff eb3c c943 58be 49d1 d9bd f3aa d53c
00000090: 6633 47be 022b 3fbc ae37 08bd 4ea9 91bd
000000a0: d3a0 7a3d ad4c 6c3e ad1e 9a3e ad13 b93d
000000b0: f8c4 833d a72c cdbd 21b5 d9bc 009e 7bbe
000000c0: 812a 9b3e 3eaf 70be de72 9d3e a93d c8be
000000d0: bca3 4f3d 12e8 ae3d e7c7 0a3f 60c0 693e
000000e0: 8f57 a13e 8ebd 603e 56f4 da3e 41ce 2e3e
000000f0: 536a f3bc fe7f 7abe aa86 87bd 4ed2 bbbd

bilstm.bias_hh_l0_reverse f4 [64]
-0.0653356 0.0256348 0.19459787 -0.24097131 -0.43330264 -0.21160829 -0.2748898 -0.20471987
-0.29328772 0.2579735 -0.51525086 -0.042669058 0.31531882 -0.17307518 0.26440433 -0.30346698
0.38953653 0.2531246 0.034768503 0.22020476 0.05444898 0.034015585 0.241796 0.23106997
0.1236512 0.23539194 0.03180031 -0.03280584 0.19356501 0.43321 -0.104930796 -0.11883813
0.060812477 -0.01046212 0.09030126 0.04980419 -0.14228426 -0.13807115 -0.12838218 -0.18781175
0.23647033 0.0031722854 0.33551082 -0.23990291 0.21436736 -0.20839131 -0.1030827 -0.21377438
0.31027383 -0.14421949 -0.016660534 0.2441306 0.08206286 -0.07210811 -0.028963037 0.23382242
0.24775478 0.1550526 0.108515546 0.22374111 0.056203526 -0.16116992 -0.07129937 0.08392333
00000000: acce 85bd 1200 d23c aa44 473e 2fc1 76be
00000010: d8d9 ddbe d8af 58be 5bbe 8cbe 16a2 51be
00000020: cf29 96be 1a15 843e 7be7 03bf c0c5 2ebd
00000030: 7871 a13e 9f3a 31be 0160 873e 0660 9bbe
00000040: 5571 c73e 8c99 813e 6b69 0e3d 5b7d 613e
00000050: e505 5f3d ed53 0b3d 5f99 773e 9b9d 6c3e
00000060: d73c fd3d 960a 713e 0b41 023d 6b5f 06bd
00000070: e835 463e b3cd dd3e f5e5 d6bd 6861 f3bd
00000080: 8116 793d 5069 2bbc deef b83d 7aff 4b3d
00000090: f7b2 11be 8662 0dbe 9e76 03be b951 40be
000000a0: 4725 723e 1ee6 4f3b 13c8 ab3e 1ca9 75be
000000b0: 1e83 5b3e 8864 55be 061d d3bd ace7 5abe
000000c0: 36dc 9e3e 46ae 13be ac7b 88bc 5ffd 793e
000000d0: 9310 a83d 6bad 93bd e443 edbc 256f 6f3e
000000e0: 6eb3 7d3e 1cc6 1e3e 663d de3d 641c 653e
000000f0: ab35 663d ba09 25be 6705 92bd ffdf ab3d

bilstm.bias_ih_l0 f4 [64]
-0.078706734 -0.17776646 -0.09015539 -0.24822944 -0.07266926 0.11162669 0.021811884 -0.22683655
-0.23209034 0.16737607 0.2990607 0.34608662 -0.11520053 -0.24146588 0.20224038 -0.33278275
0.3763746 0.17130193 -0.16940889 0.102936506 0.22627151 0.2812936 0.14778839 -0.17779113
0.27502385 -0.15543707 -0.14825451 0.14150663 0.3430253 0.060541004 0.24457838 0.08914676
0.19346155 -0.22415112 -0.018665802 0.20086087 0.10409048 -0.32668933 0.012562669 0.1319648
-0.049909625 -0.17353866 0.03632734 -0.111707 -0.18227345 0.015539685 0.26588866 -0.20568292
0.27394292 -0.08225513 0.26251313 -0.07759784 0.04044161 0.05098077 0.83059144 -0.12767044
0.3004103 0.15112919 0.5982054 -0.044492904 0.2176041 0.12596855 -0.14005733 -0.2065349
00000000: ff30 a1bd 6908 36be 64a3 b8bd dc2f 7ebe
00000010: 9fd3 94bd 899c e43d d6ae b23c d747 68be
00000020: 17a9 6dbe a264 2b3e 7c1e 993e 4432 b13e
00000030: 41ee ebbd d542 77be 1a18 4f3e 8062 aabe
00000040: 2cb4 c03e c669 2f3e 8679 2dbe 60d0 d23d
00000050: b8b3 673e b705 903e d755 173e e10e 36be
00000060: edcf 8c3e e52a 1fbe 08d0 17be 1de7 103e
00000070: 03a1 af3e d8f9 773d c172 7a3e 9492 b63d
00000080: c91a 463e df87 65be 06e9 98bc 79ae 4d3e
00000090: 642d d53d d343 a7be a7d3 4d3c c821 073e
000000a0: 096e 4cbd 1eb4 31be facb 143d a4c6 e4bd
000000b0: e4a5 3abe 2a9a 7e3c 8f22 883e 8b9e 52be
000000c0: 3f42 8c3e 6175 a8bd 1f68 863e 9eeb 9ebd
000000d0: 1aa6 253d 36d1 503d a4a1 543f 0abc 02be
000000e0: 61cf 993e 9cc1 1a3e fd23 193f 313e 36bd
000000f0: 9cd3 5e3e e6fd 003e 306b 0fbe e37d 53be

bilstm.bias_ih_l0_reverse f4 [64]
0.076934405 0.17259093 -0.050610308 -0.3353382 -0.3108688 -0.3726033 0.050453022 0.13851148
-0.04859821 0.38079676 -0.173862 -0.129853 0.17652859 -0.4511074 -0.0045964695 0.08182583
0.084653914 -0.12560825 0.1689587 0.452856 0.11447896 0.16902338 -0.17062879 -0.101635456
0.35014343 0.3311575 0.30674112 0.043098323 0.13938206 0.3562977 0.024518881 0.09300093
-0.18595268 0.12399285 0.05422293 0.051673442 -0.14002348 0.02322192 0.014215244 0.09423814
0.19102888 0.1399488 0.33280906 0.08053001 0.1898593 0.15381908 0.28196234 -0.20560339
0.054165028 -0.002079772 -0.07581033 0.31354427 0.37697276 -0.010985225 0.3150932 -0.1582614
0.23732515 0.3226061 0.20109622 0.5066187 -0.055639103 0.1377464 -0.3076371 -0.024513628
00000000: c98f 9d3d adbb 303e c14c 4fbd 73b1 abbe
00000010: 322a 9fbe dcc5 bebe d4a7 4e3d f4d5 0d3e
00000020: eb0e 47bd cbf7 c23e e108 32be 2ff8 04be
00000030: e9c3 343e 8df7 e6be fb9d 96bb 4d94 a73d
00000040: 085f ad3d 739f 00be 8203 2d3e bedc e73e
00000050: f273 ea3d 7714 2d3e 50b9 2ebe 4026 d0bd
00000060: 0046 b33e 7a8d a93e 2c0d 9d3e de87 303d
00000070: 2cba 0e3e a76c b63e d2db c83c 4677 be3d
00000080: 616a 3ebe f7ef fd3d dd18 5e3d 88a7 533d
00000090: 5162 0fbe e53b be3c 0ee7 683c edff c03d
000000a0: 139d 433e bd4e 0f3e f365 aa3e ebec a43d
000000b0: 7a6a 423e c082 1d3e 5e5d 903e b289 52be
000000c0: 26dc 5d3d c94c 08bb 7242 9bbd e088 a03e
000000d0: 9302 c13e 60fb 33bc e553 a13e 470f 22be
000000e0: 5d05 733e a02c a53e 2bec 4d3e c3b1 013f
000000f0: d4e5 63bd 640d 0d3e 9c82 9dbe ced0 c8bc

bilstm.weight_hh_l0 f4 [64, 16]
0.9199807 0.24240686 0.11841641 -0.068088695 0.03787746 0.64497954 0.047401264 0.4719532
-0.11860815 0.004780007 -0.3676214 -0.21822289 0.0652293 -0.15534711 0.62599945 -0.35592675
-0.43244168 -0.08727849 0.080939695 0.178914 0.38642725 -0.13144228 -0.40467256 -0.0016590653
0.17473064 -0.016237112 0.058749363 0.07230406 -0.16564952 0.13434127 -0.11426082 -0.024518197
-0.20566893 0.0043586707 -0.38911462 -0.16097382 -0.090720005 -0.0776114 0.08162821 0.17407984
0.21422003 0.06951486 -0.086385906 0.1652649 -0.04521217 0.29806188 0.21569702 0.08994835
0.16961001 -0.06572907 -0.19081017 0.05901842 0.07421878 -0.22124383 0.14034656 0.15082775
0.11340403 0.20749058 0.04106551 -0.1998633 0.1815097 -0.105937295 0.28033102 -0.047424577
0.008564826 -0.45436358 -0.18297386 0.29000902 0.26854452 0.07695355 0.071697384 0.043904
-0.56840473 -0.012513383 0.029568702 -0.24001782 -0.023354452 -0.014206624 -0.34212533 0.06879607
0.056927197 0.3320943 0.02924338 -0.35733736 -0.31879994 -0.15430212 -0.5084947 0.03906755
0.44270644 -0.0731955 -0.057892155 -0.14272894 0.099001154 -0.35318828 -0.15499501 -0.5370393
0.27768356 0.3509173 0.1597363 -0.34590673 0.11150311 0.24887247 -0.2260597 0.30059507
0.3368882 -0.3248325 -0.49517447 -0.34599635 -0.31586447 -0.52298546 0.29309732 -0.98877317
-0.18336219 0.04442876 0.037569694 0.31005165 0.38456598 0.14432949 -0.033843596 -0.07542085
-0.21706766 -0.24628457 -0.15886122 -0.028055621 -0.23345216 -0.3081982 -0.14379272 -0.05193977
0.15283577 0.21943544 0.16445065 0.033211637 0.28453183 0.22408557 -0.21067335 0.057765167
0.974247 0.07061977 -0.24296395 0.0501314 -0.3205296 -0.050563015 0.52182543 0.25186136
0.20254259 -0.19340745 0.19084638 0.050541345 -0.1800541 0.24852566 -0.4556855 0.20062762
0.06589669 -0.09068117 -0.23727024 0.008468504 0.19039543 -0.21034773 0.021814134 -0.16077709
0.30097273 -0.08209349 0.17468151 0.17821053 0.07406528 0.075505584 -0.2987414 -0.2179364
-0.26675674 0.0029902041 0.085726194 -0.03223258 -0.1994472 0.17815123 -0.017183201 -0.0055600456
-0.19487424 0.16221921 0.08072246 0.054816134 0.008575674 -0.1544221 -0.03049638 -0.28022367
0.12456079 0.06080464 0.27460438 0.23229608 0.2831712 -0.1673256 -0.10840463 0.046815563
0.090991035 -0.39237428 -0.036141567 0.24002019 -0.17674972 -0.25761637 0.052567184 -0.07080293
-0.6315078 0.11543244 0.18468048 0.19457456 -0.0074067055 0.2628932 -0.22843912 0.35343075
0.30135688 -0.23080045 0.074663535 -0.11912421 0.17653027 0.47104898 0.3581661 -0.089773245
-0.37382197 -0.32038897 0.1057797 -0.45050812 -0.039443005 -0.094310336 -0.35838124 0.79372305
-0.058972195 -0.17003886 0.089584745 -0.14161049 0.07202335 -0.083285674 -0.4966177 0.13988611
-0.34383354 0.059088875 0.047737643 -0.006427219 0.051267166 0.222033 -0.25831944 0.32089785
0.16468015 0.095281094 0.098266885 -0.012508091 0.19702347 -0.30142453 -0.94624907 -0.33066973
0.35563433 0.051680844 -0.57249516 0.11359854 -0.15198596 0.08366743 -0.09505174 0.64366156
00000000: db83 6b3f 8139 783e 4e84 f23d 1672 8bbd
00000010: 6525 1b3d 611d 253f d427 423d daa3 f13e
00000020: d4e8 f2bd 9ba1 9c3b df38 bcbe d275 5fbe
00000030: f096 853d 5013 1fbe 8041 203f 083c b6be
00000040: ff68 ddbe 11bf b2bd b6c3 a53d 3b35 373e
00000050: cbd9 c53e ce98 06be 3e31 cfbe fe74 d9ba
00000060: 97ec 323e b103 85bc 2ca3 703d 2714 943d
00000070: 07a0 29be c290 093e 9401 eabd 63da c8bc
00000080: e09a 52be 2ed3 8e3b 083a c7be 52d6 24be
00000090: 69cb b9bd baf2 9ebd b12c a73d fc41 323e
000000a0: 7f5c 5b3e cf5d 8e3d 18eb b0bd 343b 293e
000000b0: 6530 39bd 919b 983e aedf 5c3e d736 b83d
000000c0: 3fae 2d3e f69c 86bd be63 43be 4cbd 713d
000000d0: 0400 983d be8d 62be 02b7 0f3e 9772 1a3e
000000e0: 5f40 e83d 6978 543e 4f34 283d f7a8 4cbe
000000f0: aedd 393e a7f5 d8bd 8c87 8f3e 4640 42bd
00000100: 7c53 0c3c 58a2 e8be 805d 3bbe 107c 943e
00000110: ab7e 893e d399 9d3d 14d6 923d aed4 333d
00000120: f982 11bf ef04 4dbc 103a f23c 3bc7 75be
00000130: d651 bfbc e6c2 68bc 0d2b afbe f4e4 8c3d
00000140: 7e2c 693d 4408 aa3e d08f ef3c ecf4 b6be
00000150: bf39 a3be 6001 1ebe b52c 02bf 4c05 203d
00000160: 6baa e23e 86e7 95bd 5320 6dbd 8927 12be
00000170: 1ec1 ca3d 18d5 b4be 03b7 1ebe 687b 09bf
00000180: 8a2c 8e3e 6fab b33e ea91 233e b01a b1be
00000190: be5b e43d 6dd8 7e3e 327c 67be 99e7 993e
000001a0: 9c7c ac3e 7250 a6be 8287 fdbe 6f26 b1be
000001b0: fdb8 a1be 60e2 05bf da10 963e 3d20 7dbf
000001c0: 4cc3 3bbe eefa 353d aee2 193d 17bf 9e3e
000001d0: d5e5 c43e 1ccb 133e 959f 0abd 3f76 9abd
000001e0: fc46 5ebe 0632 7cbe 84ac 22be e7d4 e5bc
000001f0: 150e 6fbe 28cc 9dbe 663e 13be ccbe 54bd
00000200: fb80 1c3e afb3 603e c065 283e ed08 083d
00000210: 28ae 913e b076 653e c1ba 57be 2b9b 6c3d
00000220: 4068 793f 19a1 903d 8bcb 78be 9556 4d3d
00000230: 751c a4be 2a1b 4fbd 5a96 053f f9f3 803e
00000240: 5367 4f3e 9a0c 46be 3c6d 433e 7104 4f3d
00000250: 1a60 38be 837d 7e3e 9c4f e9be 5471 4d3e
00000260: d8f4 863d 0db7 b9bd f8f6 72be 7bbf 0a3c
00000270: 05f7 423e 6565 57be 8eb3 b23c c0a2 24be
00000280: 1919 9a3e a220 a8bd b6df 323e d27c 363e
00000290: 8aaf 973d aca2 9a3d a2f4 98be b82a 5fbe
000002a0: 5794 88be 4df7 433b 3791 af3d 4f06 04bd
000002b0: e33b 4cbe 476d 363e c9c3 8cbc 0b31 b6bb
000002c0: 1d8d 47be cb1c 263e d151 a53d e286 603d
000002d0: fc80 0c3c d420 1ebe 8bd3 f9bc 7a79 8fbe
000002e0: ba19 ff3d 490e 793d f298 8c3e 06df 6d3e
000002f0: d1fb 903e 6757 2bbe 3f03 debd adc1 3f3d
00000300: 8259 ba3d 48e5 c8be 2e09 14bd dac7 753e
00000310: e1fd 34be 4be6 83be b050 573d 2001 91bd
00000320: 7faa 21bf d867 ec3d e11c 3d3e 8e3e 473e
00000330: f3b3 f2bb f099 863e f2eb 69be e0f4 b43e
00000340: 734b 9a3e f456 6cbe 32e9 983d 65f7 f3bd
00000350: 5ac4 343e 552d f13e 8c61 b73e 09db b7bd
00000360: 9865 bfbe 060a a4be 07a3 d83d 00a9 e6be
00000370: fd8e 21bd c725 c1bd bf7d b7be 6f31 4b3f
00000380: d48c 71bd ab1e 2ebe 3578 b73d 5702 11be
00000390: fa80 933d ae91 aabd ad44 febe 4e3e 0f3e
000003a0: f30a b0be 2d07 723d 8c88 433d 6c9b d2bb
000003b0: 85fd 513d 9e5c 633e 7242 84be b94c a43e
000003c0: eaa1 283e bc22 c33d 2640 c93d bcee 4cbc
000003d0: 85c0 493e 5154 9abe 613d 72bf 8b4d a9be
000003e0: b415 b63e 4baf 533d 0b8f 12bf 5aa6 e83d
000003f0: 35a2 1bbe d459 ab3d 7daa c2bd 01c7 243f

bilstm.weight_hh_l0_reverse f4 [64, 16]
-0.09225979 -0.38006404 -0.39479417 0.7391118 -0.17256835 0.42566127 -0.19331142 -0.5643818
-0.028305419 0.11891974 0.10321501 0.050134383 -0.5557402 0.004775114 0.11475599 -0.30710825
-0.062276687 0.35621804 -0.07128962 1.1949579 0.07564197 0.070044 -0.11206768 -0.02217736
0.32216388 0.35761493 0.096386194 -0.1884006 0.046446662 0.16333611 -0.029655512 -0.13984105
0.460403 0.42333815 -0.06146451 -0.08110916 0.2912318 -0.3550208 -0.3452743 0.7448013
-0.98790646 -0.2547421 -0.45896003 0.28810814 -0.085762314 0.8260403 0.41043547 -0.0903351
0.51218486 0.21899322 -0.12774193 0.4712086 0.8603481 0.31618273 -0.4501971 -0.35803482
-0.7933957 -0.41087967 -0.36270353 0.37775 -0.18485679 0.7535338 -0.4532894 -0.35107496
-0.0069109867 -0.12684958 -0.09990168 -0.33207732 -0.055716407 0.71090573 -5.2593106e-05 -0.6829462
0.07619836 -0.19613944 0.2609535 0.0556422 -0.41839302 -0.39488783 -0.046173062 -0.038505305
0.21657163 0.24866377 0.13309722 0.41456327 0.53235465 0.32325286 -0.2765368 0.24603392
-0.09201195 -0.08255169 -0.27278993 0.27025035 -0.07359116 0.39062572 0.38355038 -0.6042688
0.34625858 0.47090766 -0.6483545 -0.3788393 0.3186764 0.5308184 0.13363539 -0.1344044
0.6230988 0.023437006 -0.14632882 -0.00038955294 0.0364011 0.4629694 -0.30291313 -0.69442165
-0.061755937 -0.13757277 0.0110528385 0.7746107 -0.13320343 -0.4891341 -0.25068086 0.2124362
0.3070586 0.061873842 0.088629924 0.19940482 -0.27559468 -0.8360653 0.41832006 0.10646237
0.059374053 0.47080305 -0.26589182 -0.40060863 0.06957505 -0.74399006 -0.28283063 -0.083506115
0.13821617 -0.27776602 0.038360342 0.11686002 0.018917715 0.54638666 0.15564667 -0.20260075
-0.171015 0.14240804 0.174705 -0.071795 -0.27147314 0.056847855 -0.017184226 -0.20656455
-0.20819916 0.10612391 -0.06264442 -0.20505986 0.061387014 -0.029763242 -0.09803048 0.21925312
0.069000214 0.057988495 0.02450439 0.5169131 -0.048944153 0.080185205 -0.4808371 0.31207106
-0.15588008 -0.22000815 0.154561 0.39150128 -0.01716831 0.16764395 0.034366045 -0.2591343
0.27959284 -0.18622546 -0.010742005 -0.37012544 -0.099088445 -0.0006445499 -0.19085805 -0.052245077
-0.3331905 -0.15390253 0.083141215 -0.29990986 0.05663919 0.07317983 -0.016411897 0.35739315
-0.20991582 -0.13111942 0.08600223 0.1093062 0.06459525 -0.14710192 -0.018149465 -0.46622303
-0.39447534 0.14031725 -0.13322002 0.048198007 -0.19044282 0.12543541 -0.38000935 0.103743196
0.1575185 0.28313932 0.25906634 0.48618573 0.077726476 0.21896759 -0.06864125 0.052941304
-0.19292594 -0.23166536 0.0131345885 0.24135204 -0.046371672 -0.12495253 0.16165587 -0.121117234
-0.2991106 -0.17498744 -0.08203159 0.12126199 -0.3329078 -0.011608893 0.10426648 0.11383223
-0.08352142 0.11344535 -0.07212753 -0.010620862 -0.050735686 -0.38592333 -0.046875205 -0.16666737
0.20535946 0.009275217 0.1619609 -0.6825811 0.3190755 -0.82855767 -0.3043735 -0.32864308
-0.67663956 -0.052091636 -0.17089054 0.17867771 0.0135803595 0.6698589 -0.12700826 0.009005996
00000000: b3f2 bcbd c197 c2be 7622 cabe 6e36 3d3f
00000010: c2b5 30be 46f0 d93e 6ef3 45be 537b 10bf
00000020: c4e0 e7bc 318c f33d 6462 d33d b659 4d3d
00000030: fd44 0ebf 8f78 9c3b 3005 eb3d 4b3d 9dbe
00000040: d715 7fbd 3662 b63e 4b00 92bd 61f4 983f
00000050: 2dea 9a3d 3b73 8f3d bd83 e5bd 4bad b5bc
00000060: aaf2 a43e 4e19 b73e 2066 c53d 16ec 40be
00000070: db3e 3e3d 9541 273e 1ef0 f2bc 7e32 0fbe
00000080: f1b9 eb3e c7bf d83e 36c2 7bbd 8f1c a6bd
00000090: 561c 953e 49c5 b5be cbc7 b0be 4cab 3e3f
000000a0: 70e7 7cbf 8e6d 82be cffc eabe e982 933e
000000b0: 27a4 afbd 6177 533f 9924 d23e 9c01 b9bd
000000c0: 8c1e 033f c23f 603e c8ce 02be 4142 f13e
000000d0: c63f 5c3f b4e2 a13e 3c80 e6be 5750 b7be
000000e0: fb1b 4bbf d25e d2be 47b4 b9be 7368 c13e
000000f0: 194b 3dbe 97e7 403f 8c15 e8be 19c0 b3be
00000100: 8f75 e2bb dbe4 01be 4199 ccbd 0a06 aabe
00000110: e336 64bd ebfd 353f 6b97 5cb8 90d5 2ebf
00000120: e30d 9c3d c7d8 48be b29b 853e 13e9 633d
00000130: 9c37 d6be bd2e cabe f71f 3dbd bdb7 1dbd
00000140: f4c4 5d3e b7a1 7e3e a34a 083e a341 d43e
00000150: 6548 083f 6681 a53e 3b96 8dbe 51f0 7b3e
00000160: c370 bcbd dc10 a9bd 1fab 8bbe 415e 8a3e
00000170: f6b6 96bd 1800 c83e b760 c43e 5cb1 1abf
00000180: ce48 b13e cf1a f13e 8ffa 25bf 3af7 c1be
00000190: 8e29 a33e b7e3 073f b7d7 083e 4fa1 09be
000001a0: 6783 1f3f f7fe bf3c 39d7 15be e93c ccb9
000001b0: 5219 153d 530a ed3e 6e17 9bbe 9ec5 31bf
000001c0: cbf3 7cbd e0df 0cbe f716 353c e34c 463f
000001d0: 7b66 08be c96f fabe 3e59 80be e088 593e
000001e0: c936 9d3e 6d6f 7d3d 9b83 b53d c730 4c3e
000001f0: bf1a 8dbe 6008 56bf 0c2e d63e f108 da3d
00000200: 3532 733d 190d f13e f922 88be 931c cdbe
00000210: 5d7d 8e3d 2276 3ebf 2dcf 90be 4105 abbd
00000220: 8a88 0d3e 5937 8ebe bc1f 1d3d 4e54 ef3d
00000230: 53f9 9a3c ffdf 0b3f d761 1f3e 9276 4fbe
00000240: 8e1e 2fbe 6ad3 113e dee5 323e 4209 93bd
00000250: 87fe 8abe 4cd9 683d efc5 8cbc a885 53be
00000260: 2932 55be 7e57 d93d b84b 80bd 36fb 51be
00000270: f370 7b3d 0bd2 f3bc 34c4 c8bd e483 603e
00000280: fc4f 8d3d 5885 6d3d 6ebd c83c 6b54 043f
00000290: aa79 48bd 2438 a43d 4830 f6be c7c7 9f3e
000002a0: 079f 1fbe d149 61be 3d45 1e3e db72 c83e
000002b0: 8ea4 8cbc dbaa 2b3e 69c3 0c3d 40ad 84be
000002c0: cb26 8f3e e3b1 3ebe 3cff 2fbc 1581 bdbe
000002d0: e2ee cabd 03f7 28ba 4b70 43be effe 55bd
000002e0: f297 aabe a098 1dbe f145 aa3d c98d 99be
000002f0: 7ffe 673d 4fdf 953d 3e72 86bc 3cfc b63e
00000300: 2cf4 56be 2b44 06be f021 b03d eedb df3d
00000310: 844a 843d e3a1 16be 30ae 94bc c9b4 eebe
00000320: acf8 c9be 53af 0f3e d46a 08be 466b 453d
00000330: 7103 43be 2472 003e 9690 c2be 5077 d43d
00000340: 884c 213e a3f7 903e 58a4 843e 56ed f83e
00000350: 0f2f 9f3d 0a39 603e c993 8cbd fbd8 583d
00000360: 618e 45be af39 6dbe 7532 573c fd24 773e
00000370: 39f0 3dbd 1de7 ffbd 1e89 253e 500c f8bd
00000380: 0625 99be e82f 33be 2e00 a8bd 3558 f83d
00000390: e472 aabe 3a33 3ebc aa89 d53d df20 e93d
000003a0: 470d abbd 0956 e83d 99b7 93bd 2003 2ebc
000003b0: 39d0 4fbd be97 c5be 3700 40bd daaa 2abe
000003c0: c049 523e 14f7 173c 14d9 253e a3bd 2ebf
000003d0: dd5d a33e 5b1c 54bf d8d6 9bbe e843 a8be
000003e0: 4038 2dbf 0a5e 55bd eefd 2ebe 4af7 363e
000003f0: 2880 5e3c df7b 2b3f 740e 02be e38d 133c

bilstm.weight_ih_l0 f4 [64, 32]
-0.07162176 0.09201815 0.20024824 0.37735304 0.10845769 -0.0699191 -0.46367326 0.042102795
0.21498744 0.29788688 0.28923497 0.07094656 1.1308827 0.2290587 0.49170983 0.07590483
-0.13063914 1.0503793 0.12532972 0.413927 -0.16534647 -0.21146412 0.4679536 -0.14665452
-0.08783646 -0.1525757 -0.13542989 -0.20705669 0.14986607 0.102905 0.33611542 0.17319505
0.11891118 -0.041101802 -0.48119685 0.1143041 0.16146183 0.15905105 0.39912418 0.17825878
0.18423618 -0.34180441 -0.009645644 0.14339724 -0.54200995 0.017454475 -0.705404 -0.28712878
-0.002281449 -1.1823953 0.98507744 -0.39969757 0.060296796 0.2092309 -0.12047714 0.2221036
-0.27417204 -0.124563485 -0.017839685 0.16288249 0.24125029 0.020969164 -0.32208008 0.05867058
0.07740637 -0.2822359 0.21501882 -0.02284368 -0.02002113 -0.06865295 -0.40608487 0.027699087
-0.07860931 0.030458461 0.4196226 -0.13600022 0.8624071 0.1264043 0.5602877 -0.05987603
0.2673156 0.42947435 0.37569854 -0.040730294 -0.21033445 0.025712613 0.10155567 0.026112683
-0.16112311 0.3935586 0.13128327 -0.03871213 0.042627797 -0.21655774 -0.16991022 0.08050904
0.112769425 -0.02463724 -0.07537394 0.24038896 0.1567741 0.076788805 -0.38182926 0.1795251
0.10923331 -0.20650804 -0.39944413 -0.24235837 0.47395673 0.07038373 -0.2968533 0.07914413
0.30501112 0.051304713 0.026064238 0.21906853 -0.023076443 -0.13193321 0.13852979 0.10475455
-0.18021737 -0.024920294 0.0705491 0.23340133 0.07305081 0.0426166 -0.018686425 -0.22520617
0.31015754 -0.046424836 -0.3727188 -0.5103167 0.17971061 -0.025990847 -0.35722452 -0.18048982
0.12677418 -0.2526623 0.059067465 0.23549253 0.1422495 0.22787558 0.019768743 0.034430936
-0.2672463 -0.6844556 0.45246503 -0.14087932 -0.021397732 0.17193313 -0.2468922 0.20384797
0.015495786 0.3154715 0.25171503 0.20618302 -0.09491797 0.2495227 -0.21873958 0.16793035
-0.14715457 0.12938793 -0.4833396 -0.2816981 0.22987217 0.39763084 -0.46645337 -0.21704711
0.58336693 0.901317 0.65848315 0.20035152 0.39041907 -0.2782331 0.37829152 0.12850931
0.098497845 -0.016853575 -0.14419545 -0.1472058 -0.09167426 0.05762897 0.05262928 -0.27417052
0.21495825 -0.39564204 0.085747495 0.16969179 -0.12681113 0.06236814 0.73949164 0.04898817
-0.21800363 -0.3569472 -0.26357004 -0.039574273 -0.21656516 -0.48372227 -0.08473094 0.059612524
0.16447312 0.15230905 -0.36631948 -0.031438123 0.20743902 0.0681818 -0.029344404 0.08955965
-0.12771209 0.10761561 0.13212739 -0.1001282 0.22872508 0.05343633 -0.14410459 0.069005854
0.30080593 -0.035129488 -0.01518987 -0.046902735 0.04196802 -0.116426215 0.0795137 -0.1308683
0.15848418 0.24494287 -0.046702392 -0.17807367 -0.117668435 -0.1679773 0.5619694 -0.12744777
0.02473344 0.08260409 -0.031326666 -0.25213677 0.93321097 0.09040482 0.30600405 0.2001126
-0.023966923 0.28056902 -0.17609559 -0.1461172 -0.11017919 -0.0592659 0.2329007 0.091718085
-0.102434196 0.23968557 0.12392891 -0.0886052 -0.14793594 -0.016241575 0.0979061 0.18335603
00000000: 6eae 92bd 0374 bc3d e00d 4d3e 6b34 c13e
00000010: 111f de3d bf31 8fbd 9566 edbe fb73 2c3d
00000020: ab25 5c3e a184 983e 9b16 943e 6e4c 913d
00000030: c4c0 903f 5d8e 6a3e 64c1 fb3e fe73 9b3d
00000040: 44c6 05be d472 863f 6f56 003e 3dee d33e
00000050: 9650 29be 0d8a 58be 9d97 ef3e 9a2c 16be
00000060: 9ae3 b3bd ce3c 1cbe 22ae 0abe ab06 54be
00000070: 7e76 193e dbbf d23d 5217 ac3e 0b5a 313e
00000080: b487 f33d 5d5a 28bd 6f5f f6be 4518 ea3d
00000090: 4056 253e 47de 223e 015a cc3e 7889 363e
000000a0: 69a8 3c3e fd00 afbe c308 1ebc bad6 123e
000000b0: 2ac1 0abf b0fc 8e3c 5b95 34bf 8b02 93be
000000c0: 5d84 15bb bb58 97bf 092e 7c3f 29a5 ccbe
000000d0: c6f9 763d a040 563e b8bc f6bd 206f 633e
000000e0: 4760 8cbe 241b ffbd 8824 92bc abca 263e
000000f0: 510a 773e 86c7 ab3c aee7 a4be 9050 703d
00000100: 3b87 9e3d 3981 90be e52d 5c3e ab22 bbbc
00000110: 5a03 a4bc eb99 8cbd 5bea cfbe 32e9 e23c
00000120: ebfd a0bd 0684 f93c c6d8 d63e a443 0bbe
00000130: b6c6 5c3f 2170 013e 046f 0f3f 9140 75bd
00000140: 97dd 883e 10e4 db3e 8f5b c03e cfd4 26bd
00000150: ea61 57be 42a3 d23c 6bfc cf3d 44ea d53c
00000160: 75fd 24be 8380 c93e 1f6f 063e 9c90 1ebd
00000170: 7c9a 2e3d 50c1 5dbe f2fc 2dbe ece1 a43d
00000180: a8f3 e63d 0ad4 c9bc a75d 9abd 8628 763e
00000190: 6489 203e 7343 9d3d 207f c3be 6ed5 373e
000001a0: b7b5 df3d d876 53be f183 ccbe cb2c 78be
000001b0: 75aa f23e 5825 903d 28fd 97be 5116 a23d
000001c0: 6b2a 9c3e e424 523d ab84 d53c 8053 603e
000001d0: cf0a bdbc 8019 07be c1da 0d3e 8e89 d63d
000001e0: e78a 38be a525 ccbc 0c7c 903d c200 6f3e
000001f0: aa9b 953d be8e 2e3d 4614 99bc 729c 66be
00000200: f8cc 9e3e f827 3ebd 00d5 bebe 1ea4 02bf
00000210: 0f06 383e c2ea d4bc 22e6 b6be 53d2 38be
00000220: 17d1 013e f45c 81be baf0 713d f424 713e
00000230: daa9 113e 3758 693e 0ff2 a13c 7407 0d3d
00000240: 82d4 88be 7b38 2fbf 7fa9 e73e ab42 10be
00000250: 4c4a afbc 3d0f 303e 4fd1 7cbe 86bd 503e
00000260: 0ae2 7d3c 7b85 a13e cbe0 803e a421 533e
00000270: 5a64 c2bd e182 7f3e 45fd 5fbe eff5 2b3e
00000280: b0af 16be 457e 043e 4a78 f7be bc3a 90be
00000290: 9c63 6b3e 4596 cb3e fad2 eebe 9941 5ebe
000002a0: 8957 153f b6bc 663f 5a92 283f f328 4d3e
000002b0: 02e5 c73e 9274 8ebe 6daf c13e f297 033e
000002c0: 3db9 c93d 8210 8abc f9a7 13be 1ebd 16be
000002d0: b7bf bbbd 5b0c 6c3d cd91 573d 1460 8cbe
000002e0: 041e 5c3e 9891 cabe 629c af3d afc3 2d3e
000002f0: c7da 01be bc75 7f3d 534f 3d3f d2a7 483d
00000300: 583c 5fbe c9c1 b6be a7f2 86be a218 22bd
00000310: 42c3 5dbe 72aa f7be 6a87 adbd 432c 743d
00000320: a46b 283e e7f6 1b3e 3a8e bbbe 43c5 00bd
00000330: e56a 543e e6a2 8b3d ad63 f0bc 0d6b b73d
00000340: f5c6 02be 9365 dc3d 674c 073e 0410 cdbd
00000350: e836 6a3e 0ee0 5a3d 2790 13be f152 8d3d
00000360: 3c03 9a3e f0e3 0fbd efde 78bc 151d 40bd
00000370: a9e6 2b3d de70 eebd 14d8 a23d 5702 06be
00000380: ad49 223e 4ed2 7a3e 024b 3fbd f258 36be
00000390: 26fc f0bd 3e02 2cbe 3add 0f3f ab81 02be
000003a0: c89d ca3c 552c a93d 6450 00bd 1218 81be
000003b0: eae6 6e3f 2a26 b93d 90ac 9c3e 51ea 4c3e
000003c0: 4856 c4bc bea6 8f3e 6752 34be bf9f 15be
000003d0: a1a5 e1bd cdc0 72bd 857d 6e3e b1d6 bb3d
000003e0: 05c9 d1bd 2270 753e 71ce fd3d a576 b5bd
000003f0: 857c 17be 0d0d 85bc fe82 c83d afc1 3b3e

bilstm.weight_ih_l0_reverse f4 [64, 32]
0.33183333 0.120593786 -0.048080917 0.19883882 0.10960447 0.28762457 -0.16410409 0.20084369
0.13431242 -0.06586277 0.003796911 0.12704937 -0.000925598 -0.040493604 0.12893756 -0.024385141
-0.23380187 -0.50650704 -0.08315717 -0.24123456 0.14835253 -0.1113104 -0.25572643 0.16200587
-0.11282481 0.15811089 0.18620747 0.00073376787 -0.21149509 -0.20908648 0.46502802 -0.024316724
-0.15198909 -0.22457516 -0.27780616 -0.35513696 0.18423332 -0.05434086 -0.25565198 0.18652868
0.23718613 0.013555664 0.08640269 -0.15623131 -0.22372411 0.18709373 -0.630831 0.17542481
-0.036668856 -0.12224978 0.18997769 0.10708911 -0.22555609 0.1878729 -0.07808872 -0.5277241
-0.17629622 -0.2986076 0.0058762953 -0.07006697 0.17170228 0.047064327 -0.16962874 -0.22779588
0.09667098 0.06161791 0.3416827 0.106734075 0.10212629 -0.20916238 0.40868363 -0.08369112
0.27703694 -0.07471595 -0.2860912 -0.074687086 0.044223513 -0.14377908 -0.8443416 0.0024844324
-0.06505145 0.022376006 0.16525768 -0.026169011 -0.019973185 0.10269792 -0.07412809 -0.27151853
0.057865765 -0.07629858 0.19464493 0.17776296 -0.0068674814 0.12113323 -0.752753 -0.15874965
0.21625921 -0.076754384 0.03621272 -0.4674687 0.034141686 0.2381102 0.11323178 -0.032569274
0.023576597 -0.44596085 -0.078587376 0.015712928 0.07699695 -0.26646304 -0.005862303 0.044973154
-0.31263524 -0.27070174 -0.022750257 -0.15673661 0.07618462 0.024421649 -0.10850458 -0.2486493
-0.26434368 -0.053388357 -0.1554237 -0.18251395 -0.08897923 0.12555607 0.23509656 -0.20348504
-0.020103265 0.5591414 0.029087543 -0.13116936 -0.005526625 0.018794084 0.1650119 -0.0613031
-0.38951942 -0.03540567 0.13674092 0.25749522 -0.06919805 -0.4587936 0.3157349 -0.22479771
0.2075075 -0.13710317 -0.004846439 -0.04594819 0.22200912 0.18382396 -0.07670484 0.12731113
0.33176458 -0.022122666 0.3087234 -0.09784089 -0.0155555215 0.15431608 0.4348272 0.09641756
0.010393416 0.15394677 0.18864629 -0.17101547 -0.0027025675 0.39628765 0.047168553 -0.1128988
0.13499902 0.04916355 -0.14216857 0.051340304 0.050859552 0.09479855 0.31529003 -0.38249516
-0.23877996 -0.28816393 0.15831023 -0.06328892 -0.07972479 0.36194107 -0.3183574 -0.27431735
-0.024196357 -0.039911877 0.28145513 -0.040069755 0.17706645 0.26442942 0.37001964 -0.22529374
-0.23344018 -0.18748535 -0.34389624 0.63298017 -0.057777982 0.1179673 -0.30111116 -0.036243852
0.0019444335 0.39073867 0.59563845 -0.11144355 0.032561883 0.52818924 0.5414744 0.17920354
-0.2138173 0.04040507 0.19289504 0.047065735 -0.12479193 0.24204312 0.23253155 0.14235629
0.06096626 -0.40959236 0.17797202 0.26422524 0.18350375 -0.05981481 0.4020039 -0.08379652
-0.5195189 -0.14459749 -0.39840332 0.19493508 -0.11381258 0.5547015 -0.39139554 0.057281777
0.35872778 0.15750448 0.3952946 -0.13204515 0.51160246 -0.006010367 0.35683438 -0.11425315
-0.04215334 -0.27947402 0.03356261 -0.078039445 0.019491347 -0.13290888 -0.06657551 0.13502607
-0.059828978 -0.31588903 -0.19308151 0.17244436 -0.20186055 0.2569433 0.0916172 0.21547037
00000000: 0fe6 a93e e0f9 f63d 7ff0 44bd 679c 4b3e
00000010: 4f78 e03d 8743 933e e70a 28be f8a9 4d3e
00000020: 3289 093e 0fe3 86bd 99d5 783b 3b19 023e
00000030: d5a3 72ba 9fdc 25bd 3508 043e 59c3 c7bc
00000040: c269 6fbe 72aa 01bf 4e4e aabd 3106 77be
00000050: bae9 173e b5f6 e3bd 93ee 82be dee4 253e
00000060: b210 e7bd d2e7 213e 2cad 3e3e 545a 403a
00000070: 2b92 58be c41a 56be 2718 ee3e de33 c7bc
00000080: 07a3 1bbe 08f7 65be 9c3c 8ebe 83d4 b5be
00000090: a9a7 3c3e 8694 5ebd d1e4 82be 6001 3f3e
000000a0: ece0 723e 9318 5e3c e5f3 b03d 1afb 1fbe
000000b0: ef17 65be 8095 3f3e 247e 21bf 90a2 333e
000000c0: 1532 16bd 185e fabd 8389 423e 8951 db3d
000000d0: 2df8 66be c161 403e fbec 9fbd ed18 07bf
000000e0: ff86 34be 18e3 98be f08d c03b 467f 8fbd
000000f0: b9d2 2f3e 86c6 403d 28b3 2dbe 5343 69be
00000100: 6ffb c53d 1063 7c3d 09f1 ae3e 6597 da3d
00000110: 9727 d13d aa2e 56be fb3e d13e 4066 abbd
00000120: c9d7 8d3e ad04 99bd 8c7a 92be 8bf5 98bd
00000130: b723 353d d33a 13be c526 58bf dcd1 223b
00000140: b239 85bd e34d b73c 4f39 293e 6560 d6bc
00000150: ce9e a3bc 4953 d23d 78d0 97bd 7a04 8bbe
00000160: a704 6d3d 6e42 9cbd 0051 473e 7e07 363e
00000170: 9c08 e1bb b314 f83d 6cb4 40bf 458f 22be
00000180: 0e73 5d3e 6731 9dbd ca53 143d 0f58 efbe
00000190: 27d8 0b3d 29d3 733e 10e6 e73d 5c67 05bd
000001a0: b523 c13c fb54 e4be 6bf2 a0bd 66b8 803c
000001b0: 94b0 9d3d d86d 88be 9018 c0bb c535 383d
000001c0: ba11 a0be 6b99 8abe bf5e babc 907f 20be
000001d0: af06 9c3d e90f c83c a637 debd ec9d 7ebe
000001e0: 0e58 87be c0ad 5abd 6427 1fbe f0e4 3abe
000001f0: be3a b6bd c591 003e 27bd 703e 625e 50be
00000200: 9aaf a4bc e423 0f3f 0049 ee3c 4351 06be
00000210: b118 b5bb 0df6 993c e1f8 283e f618 7bbd
00000220: 176f c7be 8905 11bd d005 0c3e 6ad6 833e
00000230: b5b7 8dbd ffe6 eabe 01a8 a13e 5f31 66be
00000240: d97c 543e c664 0cbe e1ce 9ebb 2b34 3cbd
00000250: 5c56 633e 593c 3c3e 6d17 9dbd d95d 023e
00000260: 0cdd a93e 983a b5bc fe10 9e3e ce60 c8bd
00000270: 96dc 7ebc 0905 1e3e aca1 de3e 9276 c53d
00000280: 2549 2a3c 39a4 1d3e 7e2c 413e ae1e 2fbe
00000290: 8f1d 31bb 37e6 ca3e d033 413d 7c37 e7bd
000002a0: 2f3d 0a3e b85f 493d a394 11be 364a 523d
000002b0: 1b52 503d be25 c23d b26d a13e 68d6 c3be
000002c0: bc82 74be 398a 93be 141c 223e 9f9d 81bd
000002d0: c046 a3bd 5750 b93e beff a2be 5373 8cbe
000002e0: 7037 c6bc a37a 23bd e31a 903e 2f20 24bd
000002f0: e850 353e 4b63 873e 3773 bd3e 67b3 66be
00000300: f10a 6fbe 29fc 3fbe 2b13 b0be fd0a 223f
00000310: 9ba8 6cbd d798 f13d 3e2b 9abe 6f74 14bd
00000320: 5ddc fe3a e60e c83e c37b 183f 843c e4bd
00000330: 9c5f 053d 6937 073f 119e 0a3f 2281 373e
00000340: ecf2 5abe c97f 253d 4786 453e 00c8 403d
00000350: e992 ffbd 27da 773e c01c 6e3e d9c5 113e
00000360: c2b7 793d 17b6 d1be 4c3e 363e 8848 873e
00000370: 68e8 3b3e 6000 75bd 75d3 cd3e 839d abbd
00000380: 31ff 04bf 5d11 14be 85fb cbbe 109d 473e
00000390: 9216 e9bd eb00 0e3f ff64 c8be 4ca0 6a3d
000003a0: 2bab b73e db48 213e 0e64 ca3e d836 07be
000003b0: 61f8 023f 9df2 c4bb ffb2 b63e 8efd e9bd
000003c0: fba8 2cbd 3817 8fbe f378 093d 25d3 9fbd
000003d0: 51ac 9f3c 4419 08be be58 88bd 4644 0a3e
000003e0: 3b0f 75bd 35bc a1be 29b7 45be 4195 303e
000003f0: 88b4 4ebe 128e 833e cca1 bb3d 44a4 5c3e

parallel_cnn_block.branches.0.0.weight f4 [1, 1, 2]
-0.4128619 0.72579974
00000000: a362 d3be 03ce 393f

parallel_cnn_block.branches.0.2.bias f4 [16]
-0.20286871 0.37718245 -0.2110258 -1.0990288 -1.2880833 -0.6095767 -0.3301651 -0.073999256
-0.168674 0.87645465 0.5422534 0.45086223 0.0034951675 0.5858081 0.008371326 0.5464669
00000000: d1bc 4fbe 0f1e c13e 2617 58be faac 8cbf
00000010: eadf a4bf 380d 1cbf 660b a9be ec8c 97bd
00000020: e1b8 2cbe 555f 603f 1ed1 0a3f 6ad7 e63e
00000030: 2e0f 653b 85f7 153f e327 093c 41e5 0b3f

parallel_cnn_block.branches.0.2.weight f4 [16, 1, 2]
-0.27267736 -0.37132436 -0.8234651 -0.2290158 -0.6287687 -0.06125547 0.079054505 0.285242
0.4817475 -0.05025573 -0.10294477 0.6067987 0.24109648 -0.06282062 0.3296824 0.40690634
0.4656352 0.7655552 -0.6317875 0.29722166 -0.004961118 -0.12838815 0.06266328 -0.015855534
0.6870039 -0.6851374 0.4177342 -0.6378897 -0.6842234 0.645971 -0.2549831 0.099045515
00000000: 5e9c 8bbe 3a1e bebe 9cce 52bf 1e83 6abe
00000010: fcf6 20bf 04e7 7abd 54e7 a13d 3d0b 923e
00000020: 9ca7 f63e f4d8 4dbd b5d4 d2bd 2957 1b3f
00000030: ffe1 763e 19a8 80bd 22cc a83e 0756 d03e
00000040: bd67 ee3e 6dfb 433f d3bc 21bf 702d 983e
00000050: e090 a2bb 2f78 03be 9b55 803d 77e3 81bc
00000060: 7ddf 2f3f 2a65 2fbf 42e1 d53e bd4c 23bf
00000070: 4429 2fbf 5b5e 253f 258d 82be 60d8 ca3d

parallel_cnn_block.branches.1.0.weight f4 [1, 1, 4]
-0.07514112 0.05718907 0.5976662 0.40514654
00000000: 96e3 99bd 163f 6a3d a700 193f 5e6f cf3e

parallel_cnn_block.branches.1.2.bias f4 [32]
0.09786372 0.57636195 0.5461977 -0.12264348 -0.16891554 -0.62904966 -0.05656412 0.41801906
0.005493196 -0.0014050945 0.89482915 0.6531577 0.4246398 -0.43414855 -0.5217006 0.22527717
-1.5417131 0.29928523 -0.12909526 0.12864181 -0.16704315 0.46127763 -0.5552463 0.17255035
-0.6702436 -0.1480431 -0.25479797 -0.019006327 0.02855435 0.26254866 -0.35419422 0.04012292
00000000: c66c c83d 758c 133f 9dd3 0b3f 812c fbbd
00000010: 32f8 2cbe 6609 21bf c7af 67bd 9806 d63e
00000020: 4500 b43b 262b b8ba 8613 653f 5835 273f
00000030: 636a d93e b848 debe 2c8e 05bf 0faf 663e
00000040: db56 c5bf ea3b 993e 8c31 04be aeba 033e
00000050: 5c0d 2bbe 952c ec3e 9f24 0ebf 0ab1 303e
00000060: 1695 2bbf 9c98 17be e174 82be 28b3 9bbc
00000070: d0ea e93c c76c 863e f258 b5be ee57 243d

parallel_cnn_block.branches.1.2.weight f4 [32, 1, 4]
0.14300989 0.2688413 -0.11917396 -0.35320044 0.07408698 -0.4235939 -0.1096803 0.3213995
-0.55512595 -0.29710245 -0.6173921 -0.07618464 0.3776853 -0.52531815 0.15094747 0.2885268
0.07995556 0.33119938 -0.386757 -0.8271413 -0.44990808 0.10415595 -0.26184788 0.3424189
0.29820943 0.29482985 0.34484708 -0.092318185 0.057171907 -0.54780924 0.1660888 0.06485392
-0.11857681 0.50033695 0.39729953 0.08645121 -0.100380965 -0.4898436 0.3534007 0.38633326
-0.49769983 -0.10142757 0.52894664 0.004304226 -0.40590107 0.11711691 -0.3445229 0.37051734
0.016854418 0.41535106 -0.38630962 -0.6584347 0.36742374 0.42846984 -0.19286466 -0.45192248
0.35577562 0.33718023 -0.21903299 -0.25288582 0.39635673 -0.19457236 -0.352915 0.118501544
0.048427347 0.122265294 -0.31815067 0.29614785 -0.13641423 0.33407652 -0.4405013 0.15068777
-0.08432437 -0.09576094 0.0964183 0.1666719 0.22769926 0.49804938 0.35814232 0.1890775
-0.31705505 -0.2084356 -0.22454113 -0.45641613 -0.2994328 0.13609017 -0.24978958 0.032971986
-0.54452515 -0.0197385 0.44657123 0.15460557 0.37543485 -0.08897413 -0.22693396 -0.26145893
-0.3725138 0.09534534 0.43235746 -0.06091662 -0.46099967 0.055361647 0.36871648 0.3803354
-0.8894224 0.28277048 -0.07858962 0.15789524 0.31204665 -0.14277165 -0.022498235 0.013765409
-0.18397295 0.21921751 -0.3283623 0.35782218 -0.0490278 0.58521813 -0.569091 -0.6346603
-0.32688224 -0.068430126 -0.0006918907 -0.47238857 0.18356451 0.48819017 -0.4014028 -0.2830845
00000000: 2f71 123e 91a5 893e 7a11 f4bd b0d6 b4be
00000010: eaba 973d 4de1 d8be 11a0 e0bd 7a8e a43e
00000020: bc1c 0ebf d01d 98be 690d 1ebf b106 9cbd
00000030: f85f c13e 407b 06bf f991 1a3e c9b9 933e
00000040: bebf a33d f792 a93e 0305 c6be 88bf 53bf
00000050: 5a5a e6be b74f d53d ed10 86be 8851 af3e
00000060: e8ae 983e f0f3 963e cc8f b03e 5111 bdbd
00000070: 172d 6a3d 3a3d 0cbf 2f13 2a3e 22d2 843d
00000080: 66d8 f2bd 1516 003f d86a cb3e 550d b13d
00000090: 8994 cdbd c8cc fabe f0f0 b43e 79cd c53e
000000a0: 83d2 febe 42b9 cfbd 0c69 073f 770a 8d3b
000000b0: 44d2 cfbe feda ef3d 4e65 b0be 73b4 bd3e
000000c0: 4712 8a3c e5a8 d43e 60ca c5be 2d8f 28bf
000000d0: f71e bc3e 6660 db3e 507e 45be 6262 e7be
000000e0: 3928 b63e e3a2 ac3e 2f4a 60be 407a 81be
000000f0: 45ef ca3e fa3d 47be 46b1 b4be f0b0 f23d
00000100: c15b 463d 3a66 fa3d a5e4 a2be b1a0 973e
00000110: 2cb0 0bbe 140c ab3e 6389 e1be e54d 1a3e
00000120: 41b2 acbd 501e c4bd f576 c53d 0aac 2a3e
00000130: ff29 693e 5400 ff3e 6e5e b73e 889d 413e
00000140: 0a55 a2be 2470 55be 1cee 65be 60af e9be
00000150: 424f 99be 395b 0b3e d7c8 7fbe a20d 073d
00000160: 0066 0bbf a2b2 a1bc fca4 e43e ec50 1e3e
00000170: ff38 c03e 1238 b6bd 6061 68be f2dd 85be
00000180: 21ba bebe 6b44 c33d f55d dd3e b583 79bd
00000190: 2608 ecbe e5c2 623d 68c8 bc3e 52bb c23e
000001a0: 30b1 63bf 4bc7 903e 98f3 a0bd 4aaf 213e
000001b0: 94c4 9f3e bb32 12be 384e b8bc 4f88 613c
000001c0: 6863 3cbe 8e7a 603e 1a1f a8be 7834 b73e
000001d0: 60d1 48bd dbd0 153f f3af 11bf 1979 22bf
000001e0: 1c5d a7be 1825 8cbd 0060 35ba eadc f1be
000001f0: 56f8 3b3e 10f4 f93e ab84 cdbe 74f0 90be

parallel_cnn_block.branches.2.0.weight f4 [1, 1, 8]
-0.56713694 -0.31305885 0.033661082 0.60461813 0.058814093 -0.13112201 0.39985403 -0.07901642
00000000: e32f 11bf 4049 a0be 34e0 093d 41c8 1a3f
00000010: 0ce7 703d d944 06be abb9 cc3e 5cd3 a1bd

parallel_cnn_block.branches.2.2.bias f4 [64]
0.17484944 0.07886112 -0.6171938 0.21238497 0.071509786 -0.09267962 -0.17767446 0.21193631
0.022325085 -1.0556828 -0.04354925 0.2409699 0.06110565 -1.0092909 -0.06425772 -0.06618901
0.026939608 -1.0379959 -1.6866161 0.31619176 0.5265344 -0.22658178 0.5101912 0.3911291
-0.19678955 0.6733648 -0.15654801 -0.12254642 -0.0026084955 -0.030708207 -0.043009683 -0.7557879
-0.021847807 -0.082037196 0.17696406 0.13815255 -0.0071687535 -0.5926136 0.4638101 0.16691552
0.08268749 -1.6905769 -0.102305256 -0.07051066 0.053910967 -0.038209263 0.28698915 -0.033483412
0.012263184 0.27999872 0.39405987 -1.2556969 0.081296325 0.32668537 -0.030304842 0.3553796
0.2837657 0.3311233 0.01947696 -0.0344435 0.03748164 0.10597921 -1.0934436 -0.06846814
00000000: bb0b 333e f081 a13d 6a00 1ebf 727b 593e
00000010: b973 923d d0ce bdbd 4bf0 35be d505 593e
00000020: 19e3 b63c 9d20 87bf b360 32bd d0c0 763e
00000030: eb49 7a3d 7230 81bf 8d99 83bd 1b8e 87bd
00000040: 74b0 dc3c 0ddd 84bf 09e3 d7bf e3e3 a13e
00000050: f5ca 063f 0e05 68be e49b 023f 1342 c83e
00000060: 3383 49be a361 2c3f 1f4e 20be 9ef9 fabd
00000070: 4bf3 2abb c78f fbbc ec2a 30bd 517b 41bf
00000080: 2cfa b2bc 1e03 a8bd 1136 353e dd77 0d3e
00000090: dde7 eabb 86b5 17bf 8478 ed3e e7eb 2a3e
000000a0: 0f58 a93d d364 d8bf 6b85 d1bd e567 90bd
000000b0: bfd1 5c3d 5181 1cbd 3ef0 923e e725 09bd
000000c0: 86eb 483c fe5b 8f3e 37c2 c93e adba a0bf
000000d0: b07e a63d 4e43 a73e dc41 f8bc 51f4 b53e
000000e0: bd49 913e fe88 a93e 258e 9f3c a114 0dbd
000000f0: 5986 193d a10b d93d f6f5 8bbf 0639 8cbd

parallel_cnn_block.branches.2.2.weight f4 [64, 1, 8]
0.14857246 0.009505401 0.22516353 -0.7745467 0.4148088 0.005603764 0.10465644 -1.3821813
-0.1475445 0.08780083 -0.55723727 0.199538 0.107630774 0.13935934 0.09474507 0.29131204
0.3613665 -0.057908714 -0.09431748 0.028656997 0.53453296 0.13248675 0.049561605 -0.099685326
0.25014657 -0.10194627 0.07292231 -0.06058852 -0.2892436 0.01825399 -0.19745058 0.27327222
-0.75915605 -0.0036259515 0.1339362 0.55736387 -0.09758209 0.33369824 -0.14315875 -0.49611357
0.18308422 -0.21670948 -0.5764201 0.44918868 0.6328856 0.20374435 -0.28193468 0.13124426
0.5038391 0.379701 0.45757505 0.39317092 0.67891467 0.40708384 0.1981806 0.22460718
-0.1707151 0.07528548 -0.18153264 0.020035347 -0.20637012 0.14035633 0.08979349 0.024084358
-0.15890634 0.5490292 0.34736776 -0.34194756 -0.9491091 0.3258573 0.066126674 -0.095731854
0.57618654 -0.31329897 0.043789204 0.08784391 0.016885474 -0.15824407 -0.045771003 -0.0070543448
0.56560713 -0.3137768 -0.44041213 0.46739754 -0.17269385 -0.0977591 0.1294596 -0.3023355
0.12372734 0.049954873 -0.08570778 0.05698818 -0.34370118 -0.061032057 -0.16131555 -0.047057603
-0.8584256 -0.0719044 0.2552058 0.13915314 0.6250018 0.077624 -0.02314483 -0.30298278
0.085542254 0.18529095 0.57925105 0.5255335 0.1234786 -0.52781296 -0.35118118 -0.05710856
-0.23991059 0.27221715 0.32242888 0.056507252 0.39153853 0.3683948 -0.54686505 -0.33537784
0.05374921 0.16966726 0.14226674 0.14682811 0.059135824 -0.20790651 0.22373112 0.092078105
-1.0067838 0.49020475 -0.28134212 -0.041993063 0.37082648 0.2285465 -0.028409833 0.30007124
0.11583941 0.038645238 0.3809737 -0.021133102 -0.6871653 0.14159922 -0.102793105 0.33521706
0.10343655 0.26841575 0.01640951 0.16412576 -0.1884305 0.31054184 -0.0822316 0.17984322
-0.14023754 0.37843734 -0.049814038 -0.19960898 0.047183495 -0.37954357 0.13978513 -0.29419237
0.27592096 -0.20785317 0.054464757 0.23575762 -0.26794976 -1.1256222 -0.8851328 -0.54624546
0.10406255 -0.15524468 0.01873758 -0.045359273 0.6902571 0.40060556 0.32169726 0.04345825
0.2445086 -0.31983012 0.16889353 0.32283738 -0.32166433 0.108346455 -0.90206057 -0.5230138
0.2414013 -0.05099782 0.47742411 0.12164441 -0.2561524 -0.4413079 -1.2887524 0.24210033
0.47347736 0.23734617 0.5117887 0.45003423 0.73052573 0.5146231 0.30860075 0.27006006
-0.2892922 -0.23499636 -0.39755863 -0.37863618 -0.13536185 -0.15093668 -0.44343093 0.32046592
0.23257342 0.34940577 -0.34614778 -0.49235094 -0.042143513 0.44179747 0.40365383 0.51252675
0.43693036 -0.13371694 -0.7767221 0.66363347 0.25546917 -0.006505945 0.18783322 0.13564718
0.062599435 -0.08920722 0.1056824 0.2542471 0.29717374 -0.2567591 0.2802336 0.0403632
-0.060081437 0.030449167 0.19166288 -0.27361465 0.547202 0.21643746 -0.62888294 -0.053871293
0.4680173 -0.04236702 0.3923087 0.098734155 0.2569553 -0.2420862 0.28236395 -0.11030311
0.11667839 0.027066605 0.3377385 -0.2810501 0.08503201 0.41963676 0.16564582 0.527464
00000000: 6123 183e 8bbc 1b3c 4591 663e b148 46bf
00000010: d261 d43e c89f b73b 1e56 d63d 51eb b0bf
00000020: e815 17be ecd0 b33d 1aa7 0ebf b153 4c3e
00000030: 866d dc3d 37b4 0e3e b409 c23d da26 953e
00000040: 0805 b93e b031 6dbd 8629 c1bd 14c2 ea3c
00000050: 27d7 083f 9baa 073e 1c01 4b3d d227 ccbd
00000060: 3613 803e 35c9 d0bd 4b58 953d ab2b 78bd
00000070: bd17 94be 6489 953c 7c30 4abe 56ea 8b3e
00000080: 0d58 42bf 5fa1 6dbb 9226 093e 66af 0e3f
00000090: 1ed9 c7bd 7fda aa3e 3598 12be 9902 febe
000000a0: 6e7a 3b3e 17e9 5dbe 4590 13bf 0ffc e53e
000000b0: ca04 223f 5ca2 503e be59 90be e564 063e
000000c0: 99fb 003f 2b68 c23e 4747 ea3e b34d c93e
000000d0: 5acd 2d3f 4b6d d03e dbef 4a3e 6dff 653e
000000e0: f0cf 2ebe 462f 9a3d b1e3 39be 2b21 a43c
000000f0: b052 53be 92b9 0f3e a6e5 b73d 8f4c c53c
00000100: 58b8 22be 2d8d 0c3f 30da b13e c013 afbe
00000110: d0f8 72bf c5d6 a63e 6c6d 873d 100f c4bd
00000120: f680 133f b968 a0be 4f5c 333d 82e7 b33d
00000130: 6853 8a3c bc0a 22be 607a 3bbd 2228 e7bb
00000140: a1cb 103f 5aa7 a0be b37d e1be bb4e ef3e
00000150: a8d6 30be ec35 c8bd 0f91 043e b8cb 9abe
00000160: c264 fd3d 7b9d 4c3d 9087 afbd 706c 693d
00000170: 9af9 afbe c0fc 79bd e72f 25be 79bf 40bd
00000180: c8c1 5bbf 9d42 93bd 56aa 823e 297e 0e3e
00000190: 1e00 203f 55f9 9e3d 3a9a bdbc 8f20 9bbe
000001a0: c730 af3d e9bc 3d3e cc49 143f 5d89 063f
000001b0: 59e2 fc3d c01e 07bf 05ce b3be aaea 69bd
000001c0: 1fab 75be 0c60 8b3e 6615 a53e 2674 673d
000001d0: bd77 c83e 3e9e bc3e 59ff 0bbf a5b6 abbe
000001e0: 2228 5c3d 41bd 2d3e 5fae 113e 1c5a 163e
000001f0: 6838 723d 72e5 54be c519 653e 7293 bc3d
00000200: 4bde 80bf 1efc fa3e 130c 90be eb00 2cbd
00000210: f8dc bd3e 1808 6a3e bdbb e8bc f0a2 993e
00000220: 363d ed3d 784a 1e3d fc0e c33e 541f adbc
00000230: 11ea 2fbf 63ff 103e 3185 d2bd 92a1 ab3e
00000240: 8bd6 d33d ca6d 893e 3d6d 863c 9510 283e
00000250: edf3 40be 57ff 9e3e 0b69 a8bd d228 383e
00000260: 6e9a 0fbe 8ac2 c13e ce09 4cbd 4c66 4cbe
00000270: 7b43 413d 8953 c2be d523 0f3e 62a0 96be
00000280: 8345 8d3e 76d7 54be 7016 5f3d 726a 713e
00000290: b630 89be 6314 90bf 1098 62bf bed6 0bbf
000002a0: bf1e d53d 76f8 1ebe 8e7f 993c a5ca 39bd
000002b0: b0b4 303f 2c1c cd3e 81b5 a43e 4701 323d
000002c0: 7660 7a3e c6c0 a3be 6df2 2c3e f14a a53e
000002d0: 30b1 a4be bfe4 dd3d 71ed 66bf 3be4 05bf
000002e0: e731 773e 17e3 50bd ef70 f43e b420 f93d
000002f0: 6826 83be 1cf3 e1be d7f5 a4bf 26e9 773e
00000300: a06b f23e e00a 733e 9604 033f e36a e63e
00000310: bc03 3b3f 57be 033f eb00 9e3e 5045 8a3e
00000320: 1b1e 94be e3a2 70be ce8c cbbe 9adc c1be
00000330: 4c9c 0abe 258f 1abe 6109 e3be 1c14 a43e
00000340: ba27 6e3e 50e5 b23e 483a b1be 6c15 fcbe
00000350: ad9e 2cbd 4733 e23e b7ab ce3e f434 033f
00000360: 56b5 df3e 18ed 08be 42d7 46bf e2e3 293f
00000370: dbcc 823e d32f d5bb 5a57 403e 18e7 0a3e
00000380: 2234 803d 46b2 b6bd 0470 d83d ad2c 823e
00000390: 2827 983e ee75 83be c77a 8f3e e253 253d
000003a0: f417 76bd 8870 f93c 4643 443e 3817 8cbe
000003b0: 6e15 0c3f c8a1 5d3e 79fe 20bf 25a8 5cbd
000003c0: f79f ef3e 0a89 2dbd b0dc c83e 2235 ca3d
000003d0: a58f 833e 72e5 77be 0292 903e 99e6 e1bd
000003e0: 14f5 ee3d c9ba dd3c 10ec ac3e cce5 8fbe
000003f0: 4325 ae3d a1da d63e 0f9f 293e e107 073f

parallel_cnn_block.branches.3.0.weight f4 [1, 1, 32]
-0.06480968 0.02615483 -0.026923453 0.040026348 -0.10358953 0.092150174 0.27834955 0.15531372
0.22709157 0.13238195 0.37824458 0.21497147 0.127014 -0.028843192 -0.2524451 0.06405167
0.038859427 0.19094138 0.071794525 0.22508979 0.38947463 0.23126318 0.15331611 0.077314064
-0.12731633 0.01414484 -0.005770938 -0.033846494 0.03117038 -0.0068959044 0.031489044 -0.04748375
00000000: f0ba 84bd a742 d63c 938e dcbc abf2 233d
00000010: bf26 d4bd 3bb9 bc3d d583 8e3e 8f0a 1f3e
00000020: b18a 683e 228f 073e 46a9 c13e 7b21 5c3e
00000030: f50f 023e 8f48 ecbc 7c40 81be 862d 833d
00000040: 102b 1f3d 2386 433e 0209 933d f07d 663e
00000050: 3869 c73e 41d0 6c3e e6fe 1c3e d656 9e3d
00000060: 365f 02be c2bf 673c 231a bdbb 9fa2 0abd
00000070: 0659 ff3c 0af7 e1bb a8fa 003d 527e 42bd

parallel_cnn_block.branches.3.2.bias f4 [16]
0.24409144 0.121111065 0.43256107 0.40820804 0.82221735 0.47385055 0.29587546 0.2826099
0.23201594 0.52694464 0.6121835 -0.6443959 0.009353955 0.57114774 0.045036 0.23338926
00000000: 1bf3 793e 1409 f83d a578 dd3e a500 d13e
00000010: d67c 523f 8a9c f23e fd7c 973e 3fb2 903e
00000020: 9695 6d3e d8e5 063f 0fb8 1c3f 21f7 24bf
00000030: 5541 193c bd36 123f ab77 383d 98fd 6e3e
