remade/wide/modelpars_wide_i_80.safetensors (safetensors, 86584 bytes, 32 tensors)

bilstm.bias_hh_l0 f4 [64]
-0.196061 -0.26354027 0.30255145 0.022271648 -0.04026303 -0.021534594 -0.42461076 0.018449472
0.038801953 -0.089987256 0.078149445 -0.12515974 -0.089157276 -0.051592533 -0.1498126 -0.16250138
0.3653836 0.18078344 0.122181274 0.08367716 0.23659423 -0.07621883 0.44800696 0.0010287771
0.29996338 0.2192482 0.021921797 -0.15713342 0.3553824 -0.23859689 0.23236962 -0.007957902
0.025742386 -0.21357979 -0.054801762 0.03829306 -0.21149014 -0.009742172 -0.03241457 -0.073721424
0.06120689 0.2149469 0.32136092 0.02322097 0.057269838 -0.15727638 -0.036155917 -0.24585387
0.29126456 -0.24850707 0.29455426 -0.35267094 0.06293968 0.10565192 0.49125275 0.2302158
0.30801743 0.2105273 0.42112055 0.15642 -0.023408994 -0.2515622 -0.06071198 -0.09823944
00000000: 37c4 48be c0ee 86be 06e8 9a3e 0873 b63c
00000010: d9ea 24bd 5169 b0bc 9566 d9be 5923 973c
00000020: ccee 1e3d 3d4b b8bd d10c a03d e029 00be
00000030: 1798 b6bd b152 53bd 7968 19be c366 26be
00000040: 8f13 bb3e 4b1f 393e 2d3a fa3d ee5e ab3d
00000050: c245 723e 9e18 9cbd 2b61 e53e 08d8 863a
00000060: cd94 993e 9a82 603e 5795 b33c 95e7 20be
00000070: aff4 b53e be52 74be 4df2 6d3e dc61 02bc
00000080: b2e1 d23c a9b4 5abe d077 60bd 2fd9 1c3d
00000090: df90 58be a29d 1fbc 24c5 04bd 42fb 96bd
000000a0: 13b4 7a3d 0a1b 5c3e 6b89 a43e e739 be3c
000000b0: c793 6a3d 0f0d 21be 3a18 14bd 1ec1 7bbe
000000c0: a120 953e a378 7ebe d1cf 963e 4991 b4be
000000d0: 85e6 803d 0960 d83d 7b85 fb3e b1bd 6b3e
000000e0: 76b4 9d3e 7894 573e 1d9d d73e 912c 203e
000000f0: 38c4 bfbc c3cc 80be 20ad 78bd c231 c9bd

bilstm.bias_hh_l0_reverse f4 [64]
-0.061188783 0.013190193 0.1975052 -0.23883682 -0.44006047 -0.21901129 -0.29051703 -0.21254924
-0.3067528 0.2943643 -0.5185756 -0.041166417 0.30649954 -0.18469605 0.29081658 -0.2880846
0.39299816 0.26857352 0.039702974 0.23221181 0.05589136 0.062396564 0.25720957 0.21900707
0.13481735 0.23861223 0.0410224 -0.025663247 0.21170881 0.4410923 -0.1003952 -0.14083873
0.06421446 0.0013480264 0.07424314 0.06925996 -0.129155 -0.13895068 -0.13998325 -0.19065854
0.23999159 -0.014561298 0.35563943 -0.2583202 0.2346496 -0.21373859 -0.096278846 -0.21873845
0.30355367 -0.1394804 -0.04213561 0.28807926 0.08720563 -0.074381195 -0.028201241 0.2204164
0.25040275 0.14935382 0.10761898 0.23035513 0.052373506 -0.18212625 -0.05385328 0.08060737
00000000: 17a1 7abd ae1b 583c ce3e 4a3e a491 74be
00000010: 9b4f e1be 7f44 60be a6be 94be 82a6 59be
00000020: b40e 9dbe ebb6 963e 5fc1 04bf 1e9e 28bd
00000030: 82ed 9c3e f620 3dbe e9e5 943e d37f 93be
00000040: 0e37 c93e 7882 893e 969f 223d efc8 6d3e
00000050: 57ee 643d 8a93 7f3d f9b0 833e 6443 603e
00000060: 8f0d 0a3e c456 743e 1b07 283d bb3b d2bc
00000070: 32ca 583e dad6 e13e 009c cdbd 0738 10be
00000080: df82 833d 43b0 b03a ca0c 983d 2ad8 8d3d
00000090: 3541 04be 1649 0ebe c557 0fbe fe3b 43be
000000a0: 5bc0 753e 8392 6ebc 5f16 b63e 8c42 84be
000000b0: fc47 703e 4ade 5abe d82d c5bd f9fc 5fbe
000000c0: 636b 9b3e f3d3 0ebe 6496 2cbd 207f 933e
000000d0: de98 b23d 2b55 98bd 4a06 e7bc d6b4 613e
000000e0: ca34 803e 35f0 183e 5767 dc3d 37e2 6b3e
000000f0: 9a85 563d 4e7f 3abe 4295 5cbd 7a15 a53d

bilstm.bias_ih_l0 f4 [64]
-0.127586 -0.18987188 -0.12810217 -0.2691287 -0.068165906 0.08978105 0.0030730832 -0.22950523
-0.23917827 0.15956335 0.29650882 0.2874238 -0.07450966 -0.26188222 0.18224189 -0.3401738
0.36667487 0.17143042 -0.17545156 0.08624722 0.21167234 0.30000395 0.16169134 -0.16829008
0.28181782 -0.1757909 -0.13940726 0.10310736 0.33575144 0.07227221 0.24771197 0.092468075
0.1903955 -0.22653483 0.032888696 0.21307173 0.08713256 -0.32476404 0.013404309 0.12936714
-0.049891245 -0.18935302 0.056673184 -0.17885564 -0.18934421 -0.041553915 0.2563084 -0.2058169
0.26214883 -0.09571844 0.2495504 -0.039173473 0.05268804 0.07122914 0.77973104 -0.12572746
0.2933066 0.1421834 0.5916799 -0.058781505 0.22390887 0.11903513 -0.1345947 -0.21306457
00000000: e8a5 02be c66d 42be 372d 03be 3dcb 89be
00000010: 919a 8bbd 21df b73d c865 493b 6b03 6bbe
00000020: 26eb 74be 9364 233e 01d0 973e 3629 933e
00000030: 8598 98bd 6d15 86be 9e9d 3a3e 432b aebe
00000040: cfbc bb3e 758b 2f3e 93a9 33be 62a2 b03d
00000050: a2c0 583e 1e9a 993e 6a92 253e 3c54 2cbe
00000060: 6d4a 903e 8802 34be c7c0 0ebe f429 d33d
00000070: 9de7 ab3e 7403 943d 35a8 7d3e e75f bd3d
00000080: 0af7 423e bff8 67be 4cb6 063d 7a2f 5a3e
00000090: 8e72 b23d 7947 a6be bf9d 5b3c d278 043e
000000a0: c35a 4cbd c2e5 41be 2422 683d ef25 37be
000000b0: 73e3 41be 7034 2abd db3a 833e aac1 52be
000000c0: 5f38 863e 0808 c4bd 248a 7f3e 5d74 20bd
000000d0: 6acf 573d 95e0 913d 749c 473f b3be 00be
000000e0: 482c 963e 8698 113e 5578 173f e0c4 70bd
000000f0: 5e48 653e b1c8 f33d 31d3 09be 992d 5abe

bilstm.bias_ih_l0_reverse f4 [64]
0.081081234 0.16014645 -0.04770315 -0.33320352 -0.31762663 -0.38000584 0.034825552 0.13068208
-0.062062472 0.41718757 -0.17718711 -0.1283505 0.16770926 -0.46272805 0.021815753 0.09720869
0.08811598 -0.11015939 0.17389299 0.4648637 0.11592141 0.19740435 -0.15521477 -0.11369837
0.36130908 0.33437786 0.3159632 0.05024095 0.15752587 0.36418003 0.029054279 0.07100009
-0.18255062 0.13580297 0.03816504 0.07112917 -0.12689422 0.022342496 0.0026138416 0.09139152
0.19455014 0.12221518 0.35293767 0.062112357 0.21014154 0.1484718 0.28876624 -0.21056746
0.047444824 0.0026592636 -0.10128517 0.35749334 0.3821163 -0.013258192 0.31585455 -0.17166743
0.23997322 0.31690714 0.20019943 0.51323205 -0.059469014 0.11679023 -0.2901912 -0.027829664
00000000: eb0d a63d 6efd 233e 6164 43bd a799 aabe
00000010: f59f a2be 2090 c2be 3da5 0e3d 86d1 053e
00000020: 3835 7ebd 9c99 d53e 8a70 35be 506e 03be
00000030: fabb 2b3e b1ea ecbe f3b6 b23c 5a15 c73d
00000040: 2776 b43d 3f9b e1bd 0111 323e 9d02 ee3e
00000050: 3468 ed3d 5e24 4a3e 9ff0 1ebe b1da e8bd
00000060: 81fd b83e 9333 ab3e eec5 a13e 74c9 4d3d
00000070: 764e 213e ce75 ba3e 3d03 ee3c 7f68 913d
00000080: 8dee 3abe ef0f 0b3e f252 1c3d 2cac 913d
00000090: 8ff0 01be 9c07 b73c fc4c 2b3b 7a2b bb3d
000000a0: 2738 473e f44b fa3d 3fb4 b43e 8769 7e3d
000000b0: 582f 573e fe08 183e 2bd9 933e ff9e 57be
000000c0: 8155 423d 0a47 2e3b 996e cfbd 5e09 b73e
000000d0: bfa4 c33e e338 59bc b0b7 a13e 96c9 2fbe
000000e0: 8abb 753e a741 a23e 1401 4d3e 2d63 033f
000000f0: c895 73bd b72f ef3d f193 94be 09fb e3bc

bilstm.weight_hh_l0 f4 [64, 16]
1.0787392 0.2898111 0.22620705 -0.013084764 0.09564889 0.69231933 0.16761842 0.50748813
-0.15534714 -0.035302203 -0.37659812 -0.2788948 0.039829046 -0.21083087 0.6540808 -0.423168
-0.42302054 -0.08348681 0.09127329 0.23568517 0.4068816 -0.16872649 -0.47497833 -0.0068892473
0.14679836 -0.025222627 0.06768626 0.06539101 -0.17764807 0.13940091 -0.12116708 0.030403877
-0.1682122 0.027372384 -0.41252863 -0.1371179 -0.037361965 -0.10469921 0.15877971 0.21709293
0.33545113 0.06522436 -0.14187178 0.14182152 -0.06841011 0.27797428 0.257122 0.06625675
0.16708212 -0.07933707 -0.1740753 0.10224643 0.0859288 -0.20372222 0.17359547 0.16452096
0.14412184 0.18516397 0.0027260035 -0.21187295 0.18146877 -0.0809601 0.25059184 -0.006171177
-0.0017597595 -0.4256928 -0.17956595 0.36507446 0.27245426 0.033813834 -0.017003201 -0.015267763
-0.6803744 -0.009545506 0.065602586 -0.22772999 -0.016310155 -0.008974355 -0.3299401 0.17117414
0.09398322 0.3701309 0.045976497 -0.3538812 -0.30471238 -0.19567998 -0.6672524 0.036914628
0.45351937 -0.09612943 -0.04258128 -0.1596221 0.08698771 -0.37218437 -0.17707144 -0.5414745
0.2983898 0.35755032 0.1776634 -0.35011807 0.117711395 0.30000997 -0.18425268 0.31058505
0.3334679 -0.34256214 -0.49620417 -0.36987263 -0.33914483 -0.54275215 0.31458873 -1.0189546
-0.18858789 0.045277715 0.036680497 0.425562 0.36526066 0.14154156 -0.06731758 -0.072430745
-0.20212612 -0.23837112 -0.15190227 -0.033063367 -0.22104815 -0.327149 -0.101571634 -0.073008984
0.17714313 0.20949176 0.17009608 0.054223564 0.27359572 0.26056337 -0.14578502 0.061149158
1.0028784 0.054503474 -0.25627598 0.039980955 -0.35006496 -0.058181684 0.5254782 0.29793945
0.21937194 -0.17654587 0.2224259 0.09426012 -0.16386372 0.19874142 -0.37183896 0.18445958
0.077364005 -0.08514706 -0.20634799 0.0014392328 0.18549037 -0.21557826 -0.012412146 -0.10724847
0.32587874 -0.03130237 0.17813504 0.20374285 0.11207153 0.11283662 -0.34274852 -0.24320182
-0.24939522 -0.015448328 0.034412637 -0.033171393 -0.21463951 0.17927442 0.015424045 -0.046499316
-0.12325484 0.24773178 0.086304575 0.14169969 0.032624327 -0.0652616 0.014906863 -0.23768447
0.12236563 -0.02299645 0.26013994 0.19049287 0.22965662 -0.25033075 -0.09931126 0.052416578
0.09262111 -0.42297527 -0.043713853 0.2051784 -0.19230895 -0.25740835 -0.023873808 -0.089056924
-0.5811293 0.18563257 0.21166298 0.2208408 -0.02511149 0.292688 -0.19503875 0.3476507
0.32325602 -0.24184078 0.080274306 -0.074418515 0.2173099 0.49861893 0.37271658 -0.13223551
-0.35119697 -0.33355185 0.08373963 -0.45991626 -0.047850523 -0.10155856 -0.3859187 0.79916066
-0.03393552 -0.14870727 0.13575742 -0.12135123 0.085417844 -0.09931896 -0.5325908 0.13369666
-0.35695842 0.034323405 0.03968933 -0.029274749 0.033829633 0.19971249 -0.2506392 0.36807722
0.17560488 0.083883405 0.11217441 -0.0036188348 0.19689111 -0.2758772 -0.9608447 -0.3373529
0.38728878 0.049824778 -0.57667017 0.07195229 -0.16330376 0.058842875 -0.048247315 0.7108846
00000000: 2014 8a3f 1f62 943e d2a2 673e 7a61 56bc
00000010: 91e3 c33d d73b 313f 2aa4 2b3e beea 013f
00000020: 5213 1fbe 0b99 10bd 78d1 c0be 4dcb 8ebe
00000030: c823 233d 0ce4 57be d771 273f 7aa9 d8be
00000040: 2696 d8be 22fb aabd 7eed ba3d 7457 713e
00000050: c952 d03e a3c6 2cbe 5c30 f3be 32bf e1bb
00000060: 4f52 163e af9f cebc 189f 8a3d b9eb 853d
00000070: 60e9 35be 1dbf 0e3e 7226 f8bd 8d11 f93c
00000080: d23f 2cbe 0d3c e03c f436 d3be a368 0cbe
00000090: dc08 19bd 8a6c d6bd 2697 223e 9c4d 5e3e
000000a0: 40c0 ab3e 5994 853d d646 11be a939 113e
000000b0: 9a1a 8cbd a552 8e3e 7fa5 833e 9eb1 873d
000000c0: 9317 2b3e 797b a2bd cc40 32be 9466 d13d
000000d0: 70fb af3d 8f9c 50be 03c3 313e 2f78 283e
000000e0: ad94 133e a09b 3d3e c0a6 323b 39f5 58be
000000f0: f3d2 393e 69ce a5bd 934d 803e 9637 cabb
00000100: bba7 e6ba 68f4 d9be 23e0 37be 0aeb ba3e
00000110: 207f 8b3e 6080 0a3d 4c4a 8bbc a425 7abc
00000120: 042d 2ebf c164 1cbc a65a 863d 0d32 69be
00000130: e09c 85bc 2c09 13bc e9ed a8be 4648 2f3e
00000140: 467a c03d cc81 bd3e da51 3c3d eb2f b5be
00000150: 4303 9cbe 5560 48be 0ed1 2abf cb33 173d
00000160: b133 e83e 82df c4bd b569 2ebd fa73 23be
00000170: 9d26 b23d f38e bebe 3752 35be 139e 0abf
00000180: 8cc6 983e d610 b73e 65ed 353e ad42 b3be
00000190: ac12 f13d e89a 993e bcac 3cbe 0105 9f3e
000001a0: 4ebc aa3e 4e64 afbe 790e febe f25f bdbe
000001b0: 64a4 adbe cef1 0abf c611 a13e 1b6d 82bf
000001c0: 2f1d 41be 2075 393d 4a3e 163d 43e3 d93e
000001d0: 7203 bb3e 45f0 103e cddd 89bd 9256 94bd
000001e0: 26fa 4ebe 8f17 74be 458c 1bbe 746d 07bd
000001f0: 725a 62be 1380 a7be ca04 d0bd bc85 95bd
00000200: 0265 353e 0285 563e ab2d 2e3e 8719 5e3d
00000210: bd14 8c3e 9068 853e ab48 15be 8a77 7a3d
00000220: 525e 803f 093f 5f3d 9b36 83be 12c3 233d
00000230: b73b b3be eb4f 6ebd bd85 063f 858b 983e
00000240: 0aa3 603e 71c8 34be 9dc3 633e 730b c13d
00000250: e4cb 27be df82 4b3e ad61 bebe f9e2 3c3e
00000260: 0571 9e3d 9561 aebd e34c 53be a4a4 bc3a
00000270: 30f1 3d3e 8cc0 5cbe 505c 4bbc 16a5 dbbd
00000280: 94d9 a63e ea36 00bd 0869 363e f7a1 503e
00000290: c285 e53d e316 e73d bc7c afbe e609 79be
000002a0: 7661 7fbe fc1a 7dbc 44f4 0c3d bade 07bd
000002b0: 76ca 5bbe b793 373e 22b5 7c3c 1176 3ebd
000002c0: 096d fcbd 66ad 7d3e 74c0 b03d b919 113e
000002d0: 16a1 053d e0a7 85bd ea3b 743c 8f63 73be
000002e0: d59a fa3d 0d63 bcbc 1031 853e 9010 433e
000002f0: 1b2b 6b3e 5a2b 80be b463 cbbd c4b2 563d
00000300: 23b0 bd3d 3790 d8be 4c0d 33bd 491a 523e
00000310: a3ec 44be 07cb 83be 0193 c3bc 7a63 b6bd
00000320: e4c4 14bf 7716 3e3e 2ebe 583e 1724 623e
00000330: 9db6 cdbc 34db 953e 3db8 47be 46ff b13e
00000340: d081 a53e 1ca5 77be db66 a43d bc68 98bd
00000350: 7d86 5e3e fb4a ff3e b5d4 be3e bf68 07be
00000360: 17d0 b3be 4fc7 aabe af7f ab3d 257a ebbe
00000370: e9fe 43bd effd cfbd 2397 c5be cb95 4c3f
00000380: f9ff 0abd b846 18be fe03 0b3e fe86 f8bd
00000390: 8def ae3d bd67 cbbd df57 08bf c7e7 083e
000003a0: 41c3 b6be b396 0c3d 4791 223d 99d1 efbc
000003b0: f190 0a3d 6e81 4c3e c853 80be 9e74 bc3e
000003c0: c4d1 333e 10cb ab3d b2bb e53d f929 6dbb
000003d0: d39d 493e c73f 8dbe ebf9 75bf 85b9 acbe
000003e0: b74a c63e 1115 4c3d a8a0 13bf b95b 933d
000003f0: 1a39 27be 3a05 713d fa9e 45bd 88fc 353f

bilstm.weight_hh_l0_reverse f4 [64, 16]
-0.10276619 -0.37904894 -0.3790797 0.7630407 -0.15174831 0.35438108 -0.20087063 -0.54546654
-0.024565892 0.1288823 0.10930144 0.055137817 -0.60631216 0.025700323 0.09983938 -0.31182614
0.0053181523 0.4265975 -0.053085465 1.1763071 0.10414503 0.0928248 -0.14393045 -0.055293676
0.36432818 0.36526194 0.06904661 -0.19184965 0.042967413 0.25811145 -0.049512576 -0.16440257
0.51590264 0.47249398 -0.0337294 -0.08154534 0.31517795 -0.42535058 -0.3449265 0.7209442
-0.98537844 -0.25638577 -0.45490274 0.28711268 -0.107792616 0.8505502 0.4330613 -0.060390413
0.55206007 0.23524758 -0.11053502 0.47752148 0.894217 0.3027575 -0.48834068 -0.35627067
-0.8153991 -0.41209847 -0.38119906 0.37759167 -0.17555273 0.82189125 -0.45385125 -0.37549907
0.01841287 -0.11437796 -0.088161215 -0.37143776 -0.06538045 0.6966139 -0.010511475 -0.70921415
0.0880703 -0.20804276 0.25566843 0.049510583 -0.41046152 -0.39528078 -0.03110209 -0.0445119
0.21358295 0.23917563 0.14886133 0.42213592 0.54192007 0.3614739 -0.27969092 0.23858114
-0.0922667 -0.08949522 -0.28007215 0.28699443 -0.058911644 0.41549528 0.39525923 -0.6094466
0.3306082 0.4930233 -0.69310343 -0.38244912 0.3543736 0.5660603 0.1340763 -0.11502054
0.6300078 0.0007050263 -0.18925133 0.0062587466 -0.006923198 0.4796059 -0.27611914 -0.75884295
-0.09353141 -0.18234794 0.019977428 0.7916855 -0.0865355 -0.5028423 -0.22259557 0.20668124
0.21156219 0.056764092 0.070579395 0.21674407 -0.2781694 -0.896703 0.43503547 0.1617169
0.057008386 0.46613657 -0.24388959 -0.3535045 0.08136765 -0.72097576 -0.30754504 -0.05805512
0.12942371 -0.28704575 0.020307612 0.12178003 0.02118497 0.53447723 0.1586148 -0.2178769
-0.1769589 0.13886642 0.1822727 -0.068626255 -0.2822164 0.05705058 0.004404662 -0.20594491
-0.20981772 0.12149849 -0.045805644 -0.22397317 0.08293566 -0.030590286 -0.11917374 0.22625495
0.077324525 0.043257397 0.033116862 0.56189877 -0.012732473 0.096248604 -0.49705106 0.33530694
-0.21665989 -0.22022574 0.13021474 0.39789736 -0.035857365 0.20322631 0.06223535 -0.25325495
0.30099252 -0.21930975 -0.16761474 -0.43538254 -0.09940636 0.058902394 -0.19043495 -0.1124392
-0.4194068 -0.16117215 0.07866317 -0.33142397 0.0627111 0.03665926 -0.025614785 0.3490757
-0.19903141 -0.10460604 0.007044242 0.10482919 0.05247036 -0.03519858 -0.0148576675 -0.49390066
-0.38695702 0.14963298 -0.12757367 0.048911214 -0.15635832 0.09118595 -0.47806373 0.06866027
0.18781637 0.3069269 0.2888877 0.50985104 0.09510491 0.19767775 -0.07720536 0.044983022
-0.20338741 -0.24352077 0.002148859 0.2531864 -0.03159511 -0.13352123 0.17438255 -0.12697175
-0.2264142 -0.24189115 -0.06410616 0.1417304 -0.37807304 -0.043562487 0.08634371 0.16061872
-0.01723675 0.1430567 -0.051542677 -0.04447091 -0.066697605 -0.34898442 -0.05297889 -0.16741845
0.17113149 -0.027764536 0.12850058 -0.70246387 0.3206995 -0.8396051 -0.28648823 -0.36295143
-0.6203832 -0.043973234 -0.14683568 0.1788402 0.0618087 0.7196556 -0.17703003 0.0056260857
00000000: 1577 d2bd b412 c2be bc16 c2be a356 433f
00000010: e963 1bbe 7071 b53e 08b1 4dbe b2a3 0bbf
00000020: 693e c9bc b9f9 033e 6fd9 df3d 31d8 613d
00000030: 4637 1bbf 7c89 d23c 9778 cc3d ada7 9fbe
00000040: e543 ae3b fd6a da3e 2570 59bd 3b91 963f
00000050: fd49 d53d ee1a be3d 8162 13be 9f7b 62bd
00000060: 3989 ba3e 9d03 bb3e 4f68 8d3d 3c74 44be
00000070: 99fe 2f3d 2f27 843e b3cd 4abd 2659 28be
00000080: 3212 043f bbea f13e d727 0abd 3e01 a7bd
00000090: 015f a13e 8dc7 d9be 359a b0be cd8f 383f
000000a0: c341 7cbf ff44 83be 03e9 e8be 6f00 933e
000000b0: 60c2 dcbd a8bd 593f 36ba dd3e f05b 77bd
000000c0: cf53 0d3f bee4 703e 2f60 e2bd b27d f43e
000000d0: 68eb 643f 0803 9b3e ca07 fabe 1c69 b6be
000000e0: ffbd 50bf 92fe d2be 862c c3be b253 c13e
000000f0: 18c4 33be 7767 523f 315f e8be 6a41 c0be
00000100: 96d6 963c fe3e eabd de8d b4bd 172d bebe
00000110: 2fe6 85bd 4a55 323f 5238 2cbc 0f8f 35bf
00000120: 345e b43d 2909 55be f9e6 823e 9ccb 4a3d
00000130: 0328 d2be 3e62 cabe cfc9 febc 1c52 36bd
00000140: 7db5 5a3e 75ea 743e 1b6f 183e 3322 d83e
00000150: 46bb 0a3f 1b13 b93e a633 8fbe 9d4e 743e
00000160: 53f6 bcbd 4549 b7bd 9e65 8fbe eff0 923e
00000170: 564d 71bd ccbb d43e 6b5f ca3e b104 1cbf
00000180: 7a45 a93e 8d6d fc3e 3a6f 31bf 5fd0 c3be
00000190: 7570 b53e 54e9 103f 4c4b 093e e48f ebbd
000001a0: 3148 213f 84d1 383a 1acb 41be 2c16 cd3b
000001b0: fedb e2bb e88e f53e 7d5f 8dbe 8843 42bf
000001c0: 658d bfbd 6bb9 3abe b4a7 a33c e7ab 4a3f
000001d0: 8639 b1bd 46ba 00bf 18f0 63be 3fa4 533e
000001e0: c2a3 583e 7781 683d ee8b 903d 28f2 5d3e
000001f0: 386c 8ebe 548e 65bf f8bc de3e 1d99 253e
00000200: a081 693d 74a9 ee3e 31be 79be 8bfe b4be
00000210: 15a4 a63d de91 38bf 8b76 9dbe 35cb 6dbd
00000220: a687 043e a9f7 92be 265c a63c cf67 f93d
00000230: 1a8c ad3c 80d3 083f eb6b 223e 1f1b 5fbe
00000240: b734 35be 0033 0e3e b2a5 3a3e ec8b 8cbd
00000250: ab7e 90be dead 693d fc54 903b 39e3 52be
00000260: 75da 56be 33d4 f83d b39e 3bbd 3959 65be
00000270: 2cda a93d 7b98 fabc 5d11 f4bd 61af 673e
00000280: 525c 9e3d ab2e 313d 8ca5 073d 99d8 0f3f
00000290: dd9b 50bc fd1d c53d 7a7d febe 5aad ab3e
000002a0: 17dc 5dbe db82 61be 0357 053e 34b9 cb3e
000002b0: 2cdf 12bd 8f1a 503e 7fea 7e3d a2aa 81be
000002c0: b11b 9a3e bc92 60be 33a3 2bbe 76ea debe
000002d0: 9095 cbbd a343 713d 6101 43be 8646 e6bd
000002e0: 7dbc d6be 500a 25be 281a a13d 67b0 a9be
000002f0: ad6e 803d 0528 163d 19d6 d1bc 0dba b23e
00000300: e4ce 4bbe b13b d6bd 63d3 e63b b0b0 d63d
00000310: 29eb 563d 632c 10bd 936d 73bc 8ce0 fcbe
00000320: 3b1f c6be 6339 193e aca2 02be 2057 483d
00000330: 651c 20be b3bf ba3d c5c4 f4be c19d 8c3d
00000340: ef52 403e 8625 9d3e 17e9 933e 9985 023f
00000350: 5dc6 c23d 096c 4a3e d81d 9ebd 1e40 383d
00000360: ca44 50be 825d 79be dfd3 0c3b a6a1 813e
00000370: e069 01bd cab9 08be 5791 323e e204 02be
00000380: 20d9 67be 50b2 77be 174a 83bd c621 113e
00000390: ca92 c1be 946e 32bd f9d4 b03d 3c79 243e
000003a0: 1634 8dbc 757d 123e 6a1e 53bd 2127 36bd
000003b0: c198 88bd 16ae b2be 6400 59bd be6f 2bbe
000003c0: 183d 2f3e 7472 e3bc a895 033e acd4 33bf
000003d0: ba32 a43e 5cf0 56bf 96ae 92be c5d4 b9be
000003e0: 6fd1 1ebf 471d 34bd 185c 16be e321 373e
000003f0: 1f2b 7d3d 593b 383f 5c47 35be 075b b83b

bilstm.weight_ih_l0 f4 [64, 32]
-0.0931948 0.07698279 0.10975835 0.42443 0.10845769 -0.042104643 -0.452412 0.042103346
0.23791996 0.33882785 0.29360378 0.071969174 1.149332 0.2727191 0.52462924 0.043065622
-0.15441477 1.0949153 0.12895526 0.36742148 -0.16534647 -0.21146412 0.47662598 -0.14798063
-0.091939874 -0.18516369 -0.11944611 -0.20705669 0.14986607 0.08449687 0.37144768 0.17319505
0.0943222 -0.0371316 -0.48098835 0.079585016 0.16146256 0.14331558 0.43240875 0.17982589
0.1935905 -0.34238988 -0.020792505 0.21413732 -0.5475676 0.090893485 -0.6866994 -0.29983628
-0.029771814 -1.1735365 0.94406 -0.41866383 0.060150746 0.20425417 -0.14467135 0.28363165
-0.28037107 -0.12661979 -0.1730274 0.16288249 0.24125011 0.1060946 -0.3529199 0.058664028
0.007400842 -0.3004042 0.18440649 -0.024702651 -0.02002375 -0.058863938 -0.3860129 -0.11612875
-0.22885393 0.016951649 0.40929866 -0.24604188 0.71560246 -0.102627106 0.49375138 -0.07748429
0.269841 0.34155026 0.4545104 -0.05716019 -0.21033505 0.023561629 0.1039828 0.10074953
-0.20586438 0.36838478 0.050875247 -0.03845978 0.042627797 -0.18109946 -0.20675182 0.08050826
0.047309548 0.00090019073 -0.067627445 0.24755532 0.15677689 0.058846544 -0.4447797 0.16629688
0.1989832 -0.18949382 -0.34963563 -0.26949018 0.48507708 0.07113584 -0.23680985 0.1154454
0.30621067 0.043994118 0.08767906 0.25460443 -0.023075368 -0.13193363 0.18927038 0.12477997
-0.1616653 -0.03047122 0.03996628 0.23340133 0.07305081 0.06638566 0.040913716 -0.22520617
0.30953932 -0.009449748 -0.34852234 -0.5836518 0.17972226 -0.05595814 -0.31310338 -0.16563395
0.13384359 -0.23519337 0.08561694 0.29174235 0.1248994 0.3391619 0.03614112 0.017890038
-0.26332825 -0.67569226 0.4635679 -0.15630569 -0.021400232 0.1719341 -0.2484668 0.28374532
0.04407171 0.3410376 0.26596993 0.20618302 -0.094917975 0.20867085 -0.20254365 0.1679302
-0.20721151 0.15210152 -0.5610765 -0.29025277 0.22987217 0.5230938 -0.45096362 -0.21709727
0.6372713 1.017346 0.6072272 0.23092611 0.3692291 -0.26398635 0.4139752 0.073148035
0.076638944 -0.011798495 -0.22280528 -0.19310975 -0.09167478 0.05762897 0.020939259 -0.36090487
0.18509164 -0.45615435 0.0897379 0.17069386 -0.12681113 -0.053715646 0.8292643 0.048988856
-0.22227734 -0.3439737 -0.2647893 -0.001246932 -0.21591516 -0.42744324 -0.09228239 0.05972551
0.1797606 0.14537251 -0.32478642 -0.016668323 0.20330139 0.086138725 -0.018650541 0.074641615
-0.09354093 0.12431039 0.11159146 -0.09793913 0.2285512 0.053411093 -0.1589393 0.0452122
0.31681547 -0.047857992 0.024149148 -0.04686957 0.041966587 -0.028067853 0.12340072 -0.13085559
0.08919318 0.23374578 -0.016113658 -0.23389295 -0.11766949 -0.1906946 0.58384854 -0.12570986
0.052758764 0.060719006 -0.08465082 -0.22087878 0.9843014 0.15639222 0.18571214 0.22884916
-0.06235153 0.21898632 -0.29147756 -0.1368138 -0.110155955 -0.06004215 0.19881284 0.023700124
-0.057353873 0.35012284 0.07386509 -0.088593304 -0.1479358 -0.03572342 -0.0008659912 0.18335739
00000000: eadc bebd 27a9 9d3d fcc8 e03d e44e d93e
00000010: 111f de3d eb75 2cbd 8ca2 e7be 8f74 2c3d
00000020: 4aa1 733e d87a ad3e 3c53 963e 9364 933d
00000030: 501d 933f d6a1 8b3e 1a4e 063f 9465 303d
00000040: e81e 1ebe 2f26 8c3f d90c 043e ab1e bc3e
00000050: 9650 29be 0d8a 58be 5208 f43e 3c88 17be
00000060: f94a bcbd 8d9b 3dbe 2aa0 f4bd ab06 54be
00000070: 7e76 193e b20c ad3d 642e be3e 0b5a 313e
00000080: ff2b c13d 4e17 18bd 1b44 f6be 78fd a23d
00000090: 7156 253e 52c1 123e ae64 dd3e 4724 383e
000000a0: 973c 463e ba4d afbe 0b55 aabc d046 5b3e
000000b0: 642d 0cbf 5d26 ba3d 88cb 2fbf 2484 99be
000000c0: 05e4 f3bc 7236 96bf ebad 713f 1b5b d6be
000000d0: a160 763d 0128 513e ba24 14be 2b38 913e
000000e0: cc8c 8fbe 9ea8 01be 182e 31be abca 263e
000000f0: 450a 773e 2048 d93d ebb1 b4be b149 703d
00000100: c382 f23b 94ce 99be 0ed5 3c3e 375d cabc
00000110: d908 a4bc 501b 71bd 7ca3 c5be e9d4 edbd
00000120: af58 6abe 2fde 8a3c 988f d13e 67f2 7bbe
00000130: b931 373f 292e d2bd fbcc fc3e 15b0 9ebd
00000140: 9928 8a3e addf ae3e 96b5 e83e ce20 6abd
00000150: 1262 57be 5104 c13c eff4 d43d c555 ce3d
00000160: 1dce 52be ee9c bc3e 9062 503d 0188 1dbd
00000170: 7c9a 2e3d 2372 39be c0b6 53be 84e1 a43d
00000180: a8c7 413d c7fa 6b3a 4280 8abd 247f 7d3e
00000190: 1f8a 203e 1309 713d 2aba e3be bb49 2a3e
000001a0: 41c2 4b3e ab0a 42be 7103 b3be 9efa 89be
000001b0: 065c f83e abaf 913d 487e 72be a36e ec3d
000001c0: a5c7 9c3e 2d33 343d 1491 b33d 835b 823e
000001d0: 8e08 bdbc 9c19 07be 18d0 413e a48c ff3d
000001e0: 978b 25be c89e f9bc afb3 233d c200 6f3e
000001f0: aa9b 953d 34f5 873d 2495 273d 729c 66be
00000200: f07b 9e3e 1ed3 1abc 8571 b2be 346a 15bf
00000210: 1d09 383e 5d34 65bd 164f a0be f29b 29be
00000220: 4b0e 093e 88d6 70be ef57 af3d 415f 953e
00000230: 42cb ff3d a1a6 ad3e b608 143d 218e 923c
00000240: f6d2 86be 2bfa 2cbf c658 ed3e 990e 20be
00000250: 8a4f afbc 7e0f 303e 156e 7ebe 1147 913e
00000260: 8a84 343d 7b9c ae3e 362d 883e a421 533e
00000270: 5b64 c2bd d0ad 553e 9a67 4fbe e5f5 2b3e
00000280: 412f 54be 80c0 1b3e b6a2 0fbf 039c 94be
00000290: 9c63 6b3e 7ae9 053f b4e4 e6be bf4e 5ebe
000002a0: 3624 233f 6538 823f 3e73 1b3f e577 6c3e
000002b0: 990b bd3e 3829 87be 8ff4 d33e a3ce 953d
000002c0: e1f4 9c3d 7a4e 41bc 1127 64be 90be 45be
000002d0: fdbf bbbd 5b0c 6c3d cf88 ab3c 86c8 b8be
000002e0: aa88 3d3e 108d e9be 81c8 b73d 5fca 2e3e
000002f0: c7da 01be f004 5cbd aa4a 543f 8aa8 483d
00000300: ac9c 63be 521d b0be 7792 87be 1870 a3ba
00000310: dd18 5dbe d7d9 dabe 8dfe bcbd bda2 743d
00000320: 2a13 383e 88dc 143e 684a a6be 028c 88bc
00000330: 3d2e 503e 8069 b03d 05c9 98bc b4dd 983d
00000340: 6392 bfbd 7296 fe3d 108a e43d 5094 c8bd
00000350: 5309 6a3e 97c5 5a3d fcc0 22be 6e30 393d
00000360: a335 a23e be06 44bd 6fd4 c53c 4efa 3fbd
00000370: 28e5 2b3d 8eee e5bc 84b9 fc3d 02ff 05be
00000380: eaaa b63d 0e5b 6f3e ca00 84bc a281 6fbe
00000390: b4fc f0bd 7245 43be 1977 153f 16ba 00be
000003a0: 9319 583d 7eb4 783d 695d adbd 0c2e 62be
000003b0: 2dfb 7b3f 4825 203e 532b 3e3e 6f57 6a3e
000003c0: 5164 7fbd f33d 603e 8c3c 95be eb18 0cbe
000003d0: 7299 e1bd c2ee 75bd 9895 4b3e c326 c23c
000003e0: e5eb 6abd 4d43 b33e 9546 973d 6870 b5bd
000003f0: 7b7c 17be b952 12bd b003 63ba 0ac2 3b3e

bilstm.weight_ih_l0_reverse f4 [64, 32]
0.35790232 0.12653935 -0.052306112 0.200145 0.10962728 0.26009035 -0.15337832 0.19278522
0.18543221 -0.067067325 -0.0027820817 0.084812455 -0.005248584 -0.12740186 0.10987279 -0.019411275
-0.25720385 -0.5355774 -0.067324676 -0.24857505 0.14835253 -0.09138544 -0.27062675 0.09971831
-0.17674062 0.15084495 0.15313923 0.0011200637 -0.21149509 -0.24822706 0.40531597 -0.024315568
-0.14010906 -0.16542566 -0.24097961 -0.34573936 0.18423638 -0.025215989 -0.32243422 0.17635886
0.22239557 -0.003297846 0.10318347 -0.1557032 -0.22292954 0.15647066 -0.6462428 0.15785936
-0.011308549 -0.09527927 0.14355129 0.111333355 -0.2255571 0.18773517 -0.119262345 -0.4530062
-0.21296665 -0.31923807 -0.06962373 -0.07006902 0.17170179 0.09705671 -0.15492976 -0.22779739
0.10027832 0.022920975 0.32248667 0.07151127 0.101762205 -0.17715679 0.44138953 -0.070783645
0.23679712 -0.08281447 -0.3357839 0.030230284 0.033150654 -0.14554647 -0.7926816 -0.0005558605
-0.07028256 -0.022816073 0.14130723 -0.06271615 -0.019887816 0.10255767 -0.09719856 -0.23791179
0.049600046 -0.07710918 0.09234866 0.17656207 -0.006867515 0.12599216 -0.73292345 -0.15865102
0.2106189 -0.066602424 0.040084038 -0.4565482 0.03421648 0.24901013 0.11010811 -0.030501932
0.011028269 -0.45969433 -0.030665707 0.05834068 0.08305386 -0.28766206 -0.019248478 0.047661744
-0.29321843 -0.24351303 0.0011217322 -0.15617022 0.07622699 0.033320367 -0.100226715 -0.26526687
-0.2547534 -0.07591201 -0.109442286 -0.18251052 -0.08897761 0.08039957 0.24060588 -0.20347537
-0.06996891 0.6127752 0.035246674 -0.1154301 -0.0055247056 0.026923409 0.13701086 -0.06125106
-0.39247158 -0.03906295 0.15394364 0.25816032 -0.04862075 -0.55034447 0.3713722 -0.21967019
0.21470359 -0.10281201 0.019849466 -0.056331992 0.22201069 0.18502493 -0.07637771 0.1259381
0.33942464 -0.032568138 0.28818852 -0.09784089 -0.0155555215 0.1579749 0.4592077 0.096417665
-0.0066712764 0.12429614 0.14719963 -0.20033753 -0.002774146 0.36210555 0.04047876 -0.093814984
0.1581574 0.053238913 -0.14799401 0.156843 0.04031806 -0.0174578 0.30151463 -0.41767055
-0.2362674 -0.2902849 0.11483648 -0.0916673 -0.07971927 0.35289815 -0.35165426 -0.2914674
-0.030762287 -0.06242211 0.42249855 -0.040069453 0.17702375 0.3917802 0.3637139 -0.22529726
-0.24488617 -0.21807556 -0.37790647 0.84314746 -0.057777528 0.26237714 -0.28371003 -0.036212094
0.06868237 0.41081128 0.6023433 -0.1124641 0.0380705 0.57530415 0.6003248 0.19789664
-0.247248 -0.018972885 0.23242411 0.0027273893 -0.1247843 0.24204357 0.20085412 0.22209084
0.04605498 -0.42939678 0.14449403 0.26430362 0.18350375 -0.070527405 0.41859478 -0.0837904
-0.52041227 -0.16075517 -0.43991727 0.16255571 -0.11389824 0.52847064 -0.3563186 0.07843147
0.40122467 0.16081785 0.38765365 0.04786971 0.5002043 0.033474155 0.39521906 -0.09464535
-0.041523494 -0.28325358 -0.020976696 -0.083130166 0.019474693 -0.13276672 -0.099261336 0.13886997
-0.10316692 -0.28937772 -0.20043889 0.17247336 -0.20186055 0.30829215 0.11853106 0.21546413
00000000: f93e b73e 8893 013e ef3e 56bd d0f2 4c3e
00000010: 4484 e03d 902a 853e 350f 1dbe 7d69 453e
00000020: f1e1 3d3e 985a 89bd 9653 36bb 27b2 ad3d
00000030: 50fc abbb a275 02be fc04 e13d 6504 9fbc
00000040: 39b0 83be 9a1b 09bf 85e1 89bd 758a 7ebe
00000050: bae9 173e 4a28 bbbd 978f 8abe 1d39 cc3d
00000060: 7efb 34be 1977 1a3e 88d0 1c3e 1acf 923a
00000070: 2b92 58be 3c2f 7ebe 9385 cf3e 7131 c7bc
00000080: c078 0fbe 5865 29be 5cc3 76be c004 b1be
00000090: 76a8 3c3e c391 cebc 1916 a5be 6b97 343e
000000a0: aabb 633e ad20 58bb db51 d33d a970 1fbe
000000b0: a447 64be d839 203e 2b70 25bf e2a5 213e
000000c0: 7e47 39bc c721 c3bd 1cff 123e be02 e43d
000000d0: 71f8 66be a63d 403e d13f f4bd 6ef0 e7be
000000e0: ee13 5abe 2c73 a3be e396 8ebd 5980 8fbd
000000f0: 98d2 2f3e abc5 c63d e8a5 1ebe b843 69be
00000100: b85e cd3d c5c4 bb3c f91c a53e 8074 923d
00000110: b468 d03d 9768 35be cffd e13e 04f7 90bd
00000120: f27a 723e a29a a9bd deeb abbe 80a5 f73c
00000130: fbc8 073d 220a 15be 2eed 4abf 2bb7 11ba
00000140: 4ef0 8fbd c6e8 babc d8b2 103e 5371 80bd
00000150: c6eb a2bc c109 d23d 0a10 c7bd 269f 73be
00000160: 6b29 4b3d 6beb 9dbd 4b21 bd3d b0cc 343e
00000170: e408 e1bb 1704 013e dfa0 3bbf 6a75 22be
00000180: 7bac 573e da66 88bd 292f 243d b0c0 e9be
00000190: 9426 0c3d 83fc 7e3e 5c80 e13d 30df f9bc
000001a0: eaaf 343c 0e5d ebbe a636 fbbc a3f6 6e3d
000001b0: 2418 aa3d 7148 93be fcae 9dbc f638 433d
000001c0: ba20 96be 7b5b 79be 1607 933a 16eb 1fbe
000001d0: e51c 9c3d f07a 083d aa43 cdbd 0fd1 87be
000001e0: 0a6f 82be c277 9bbd 4723 e0bd 0ae4 3abe
000001f0: e539 b6bd 88a8 a43d 6361 763e d95b 50be
00000200: dc4b 8fbd d6de 1c3f d15e 103d 9e66 ecbd
00000210: 9708 b5bb 7b8e dc3c 934c 0c3e 64e2 7abd
00000220: 09f2 c8be 7900 20bd 67a3 1d3e 972d 843e
00000230: 8d26 47bd 60e3 0cbf 7f24 be3e 39f1 60be
00000240: 42db 5b3e 1a8f d2bd 599b a23c 60bc 66bd
00000250: c556 633e 2d77 3d3e eb6b 9cbd ebf5 003e
00000260: 11c9 ad3e 2b66 05bd 728d 933e ce60 c8bd
00000270: 96dc 7ebc 2cc4 213e 461d eb3e a076 c53d
00000280: b99a dabb fa8e fe3d 80bb 163e 4825 4dbe
00000290: 72ce 35bb e665 b93e 0ecd 253d 1222 c0bd
000002a0: 03f4 213e 0c11 5a3d be8b 17be 749b 203e
000002b0: 8d24 253d a903 8fbc 2060 9a3e ead8 d5be
000002c0: 15f0 71be 39a0 94be 632f eb3d 11bc bbbd
000002d0: db43 a3bd 11af b43e 070c b4be 373b 95be
000002e0: 3101 fcbc 54ae 7fbd bb51 d83e de1f 24bd
000002f0: b745 353e 6a97 c83e b538 ba3e 53b4 66be
00000300: 71c3 7abe 334f 5fbe f57c c1be 83d8 573f
00000310: 21a8 6cbd 4c56 863e 7142 91be 2253 14bd
00000320: 58a9 8c3d db55 d23e 2c33 1a3f 9453 e6bd
00000330: d0ef 1b3d 2247 133f e3ae 193f 6ba5 4a3e
00000340: 942e 7dbe 066d 9bbc 9600 6e3e 00be 323b
00000350: e98e ffbd 45da 773e b4ac 4d3e c86b 633e
00000360: 26a4 3c3d e5d9 dbbe 3ef6 133e ce52 873e
00000370: 68e8 3b3e ac70 90bd 0e52 d63e 4d9a abbd
00000380: bd39 05bf 019d 24be d63c e1be 0175 263e
00000390: 7b43 e9bd da49 073f 646f b6be aea0 a03d
000003a0: 526d cd3e 6fad 243e 8a7a c63e 0713 443d
000003b0: 640d 003f 321c 093d 275a ca3e 6cd5 c1bd
000003c0: 8a14 2abd 9d06 91be 52d7 abbc 2640 aabd
000003d0: 6489 9f3c 00f4 07be 8749 cbbd ee33 0e3e
000003e0: 2e49 d3bd 5129 94be da3f 4dbe db9c 303e
000003f0: 88b4 4ebe 78d8 9d3e 6ac0 f23d a1a2 5c3e

parallel_cnn_block.branches.0.0.weight f4 [1, 1, 2]
-0.4087944 0.72989357
00000000: 804d d1be 4eda 3a3f

parallel_cnn_block.branches.0.2.bias f4 [16]
-0.20286871 0.39146343 -0.2110258 -1.1126002 -1.3018184 -0.6536816 -0.35771218 -0.07842436
-0.16021915 0.8817268 0.5348421 0.42983487 -0.01254016 0.57434607 0.013355777 0.5389419
00000000: d1bc 4fbe e56d c83e 2617 58be af69 8ebf
00000010: fca1 a6bf ad57 27bf 0d26 b7be f39c a0bd
00000020: 7d10 24be d9b8 613f 69eb 083f 5113 dc3e
00000030: 3e75 4dbc 5808 133f 30d2 5a3c 19f8 093f

parallel_cnn_block.branches.0.2.weight f4 [16, 1, 2]
-0.27267736 -0.37132436 -0.83757746 -0.20990397 -0.6287687 -0.06125547 0.08723979 0.29634315
0.48768932 -0.04775668 -0.104639255 0.5968634 0.24768509 -0.060850874 0.32270148 0.39512402
0.4567338 0.76396435 -0.594649 0.3323654 -0.0021575582 -0.13800448 0.05556502 -0.031189702
0.69938046 -0.6929572 0.416399 -0.64730483 -0.7099759 0.6193189 -0.2540061 0.09933189
00000000: 5e9c 8bbe 3a1e bebe 7a6b 56bf 11f1 56be
00000010: fcf6 20bf 04e7 7abd c6aa b23d 4aba 973e
00000020: 6ab2 f93e 829c 43bd 1b4d d6bd 0acc 183f
00000030: 29a1 7d3e c43e 79bd 2139 a53e b24d ca3e
00000040: 03d9 e93e 2b93 433f eb3a 18bf cc2b aa3e
00000050: d265 0dbb 0c51 0dbe 2598 633d 8c81 ffbc
00000060: 990a 333f a565 31bf 4032 d53e c5b5 25bf
00000070: fbc0 35bf af8b 1e3f 160d 82be 856e cb3d

parallel_cnn_block.branches.1.0.weight f4 [1, 1, 4]
-0.072680056 0.06912221 0.5996033 0.39277127
00000000: 48d9 94bd f28f 8d3d 9a7f 193f 5119 c93e

parallel_cnn_block.branches.1.2.bias f4 [32]
0.09551229 0.5562459 0.54243207 -0.11941633 -0.20980063 -0.69876033 -0.053322867 0.4365719
0.004783732 0.0023146304 0.8965177 0.6557553 0.4350367 -0.45469442 -0.55640006 0.18490359
-1.5739777 0.27452958 -0.14392178 0.1289824 -0.16704315 0.47547758 -0.5492236 0.16001734
-0.6639341 -0.1410579 -0.21426056 -0.01005734 0.04897918 0.26704168 -0.35419422 0.03636896
00000000: f39b c33d 2266 0e3f d4dc 0a3f 8c90 f4bd
00000010: fad5 56be f5e1 32bf 1469 5abd 5a86 df3e
00000020: dac0 9c3b 0eb1 173b 2f82 653f 94df 273f
00000030: 21bd de3e b5cd e8be 3c70 0ebf 5e57 3d3e
00000040: 1a78 c9bf 248f 8c3e 3b60 13be f613 043e
00000050: 5c0d 2bbe cc71 f33e eb99 0cbf 96db 233e
00000060: 96f7 29bf 7b71 10be 1f67 5bbe 8bc7 24bc
00000070: 659e 483d b0b9 883e f258 b5be 9ef7 143d

parallel_cnn_block.branches.1.2.weight f4 [32, 1, 4]
0.15962929 0.2711077 -0.12910546 -0.36306703 0.07683752 -0.43985248 -0.11584662 0.33804208
-0.5902466 -0.34218776 -0.63587564 -0.09312876 0.3752392 -0.53322697 0.13833007 0.27426445
0.09723722 0.32880017 -0.4294034 -0.85892904 -0.5122696 0.043565124 -0.29745775 0.34839672
0.29770333 0.29346374 0.33909407 -0.10003129 0.027961843 -0.5559507 0.1693664 0.07603364
-0.12470424 0.5013978 0.39377916 0.07966037 -0.10099859 -0.48800915 0.35241023 0.37508234
-0.49875644 -0.09863696 0.5307263 -0.002713903 -0.4303513 0.09456061 -0.35011134 0.38599694
0.011593462 0.41058457 -0.38152975 -0.68090254 0.36689174 0.42317206 -0.20094086 -0.46048728
0.34759247 0.32641286 -0.23027954 -0.2655172 0.41183567 -0.19297521 -0.3581472 0.10825758
0.050452296 0.12667036 -0.31098497 0.29825208 -0.14054479 0.32382143 -0.45955768 0.12790328
-0.08018821 -0.09650633 0.090974756 0.15645547 0.23161936 0.4995871 0.35654393 0.186455
-0.31705505 -0.2084356 -0.22454113 -0.45641613 -0.29643965 0.16264944 -0.22781788 0.040655013
-0.5427085 -0.009004471 0.45625988 0.15213901 0.38976982 -0.09367792 -0.23499876 -0.26740095
-0.3711116 0.10204167 0.44174355 -0.06074196 -0.45844662 0.06018047 0.365102 0.36873466
-0.9456488 0.27476755 -0.07229191 0.17336918 0.31235605 -0.1465625 -0.028519383 0.0016147841
-0.17892951 0.22943026 -0.3246772 0.34856257 -0.027313799 0.6203878 -0.5376843 -0.6534569
-0.32688224 -0.068430126 -0.0006918907 -0.47238857 0.19575822 0.48823938 -0.41178212 -0.2972349
00000000: dc75 233e a1ce 8a3e 3934 04be ece3 b9be
00000010: fd5c 9d3d 5834 e1be fe40 edbd da13 ad3e
00000020: 671a 17bf 3c33 afbe bfc8 22bf 4bba bebd
00000030: 5a1f c03e 9081 08bf 66a6 0d3e 646c 8c3e
00000040: 4f24 c73d 7f58 a83e c3da dbbe c6e2 5bbf
00000050: 1a24 03bf 5871 323d 624c 98be 0e61 b23e
00000060: 926c 983e e140 963e bd9d ad3e 34dd ccbd
00000070: 3c10 e53c c952 0ebf 636e 2d3e 86b7 9b3d
00000080: f064 ffbd 9b5b 003f 6c9d c93e fa24 a33d
00000090: 59d8 cebd 56dc f9be 1d6f b43e cb0a c03e
000000a0: 015d ffbe 2d02 cabd aedd 073f bddb 31bb
000000b0: 0157 dcbe fea8 c13d cb41 b3be 64a1 c53e
000000c0: 81f2 3d3c 2438 d23e de57 c3be a14f 2ebf
000000d0: 3cd9 bb3e 02aa d83e 71c3 4dbe fdc4 ebbe
000000e0: a4f7 b13e 961f a73e 66ce 6bbe dff1 87be
000000f0: 20dc d23e 4b9b 45be 125f b7be 26b6 dd3d
00000100: 11a7 4e3d e0b5 013e 6c39 9fbe 7fb4 983e
00000110: f9ea 0fbe eccb a53e 254b ebbe 14f9 023e
00000120: b739 a4bd 1ca5 c5bd f950 ba3d dd35 203e
00000130: a02d 6d3e e1c9 ff3e ed8c b63e 0fee 3e3e
00000140: 0a55 a2be 2470 55be 1cee 65be 60af e9be
00000150: f0c6 97be 938d 263e 1749 69be df85 263d
00000160: f2ee 0abf 7d87 13bc e59a e93e 54ca 1b3e
00000170: e98f c73e 36da bfbd 84a3 70be c7e8 88be
00000180: 5702 bebe 39fb d03d 362c e23e 90cc 78bd
00000190: 84b9 eabe cc7f 763d a6ee ba3e caca bc3e
000001a0: 0a16 72bf 55ae 8c3e c80d 94bd b187 313e
000001b0: 22ed 9f3e 7b14 16be 7ba1 e9bc 2aa7 d33a
000001c0: 4c39 37be c4ef 6a3e 173c a6be cb76 b23e
000001d0: 30c1 dfbc bcd1 1e3f aea5 09bf f448 27bf
000001e0: 1c5d a7be 1825 8cbd 0060 35ba eadc f1be
000001f0: d874 483e 83fa f93e 1bd5 d2be 2c2f 98be

parallel_cnn_block.branches.2.0.weight f4 [1, 1, 8]
-0.5727911 -0.3157551 0.03114635 0.6058575 0.061585616 -0.13304304 0.40889448 -0.07119
00000000: 70a2 12bf a7aa a1be a126 ff3c 7a19 1b3f
00000010: 3341 7c3d 6f3c 08be 9e5a d13e 10cc 91bd

parallel_cnn_block.branches.2.2.bias f4 [64]
0.20935187 0.063493535 -0.61025447 0.20261739 0.08561078 -0.104088426 -0.1807749 0.22231896
0.040298685 -1.0524442 -0.039162405 0.22724932 0.076508105 -1.0438445 -0.06435636 -0.07312676
0.016003523 -1.0362883 -1.7036813 0.31645897 0.54264456 -0.26177895 0.5319437 0.41250056
-0.19618782 0.70955247 -0.16586003 -0.13423099 -0.018299915 -0.024930602 -0.056548804 -0.726033
-0.02815362 -0.09047356 0.16434857 0.159346 -0.00927274 -0.6197359 0.49175248 0.15107547
0.09688584 -1.7169045 -0.11086557 -0.08171586 0.06475575 -0.047526035 0.2745558 -0.03105091
0.02789973 0.2670876 0.41553605 -1.2556056 0.07932846 0.32006586 -0.034314405 0.3629058
0.27760124 0.3615784 0.021887643 -0.03767677 0.031164855 0.11070539 -1.107488 -0.07019397
00000000: 5660 563e e608 823d a339 1cbf ef7a 4f3e
00000010: b454 af3d 502c d5bd 0e1d 39be 95a7 633e
00000020: 3c10 253d 7eb6 86bf c268 20bd 0cb4 683e
00000030: 48b0 9c3d b29c 85bf 44cd 83bd 7cc3 95bd
00000040: d219 833c 18a5 84bf 3b12 dabf e906 a23e
00000050: c1ea 0a3f e407 86be 762d 083f 4633 d33e
00000060: 76e5 48be 3ba5 353f 36d7 29be d973 09be
00000070: b4e9 95bc 433b ccbc b89f 67bd 4cdd 39bf
00000080: 6ca2 e6bc 344a b9bd fe4a 283e 992b 233e
00000090: b1ec 17bc 03a7 1ebf fbc6 fb3e 87b3 1a3e
000000a0: 156c c63d 87c3 dbbf 7d0d e3bd a55a a7bd
000000b0: aa9e 843d a9aa 42bd 9492 8c3e 7a5e febc
000000c0: f98d e43c b5bf 883e 24c1 d43e afb7 a0bf
000000d0: f676 a23d acdf a33e 438d 0cbd cace b93e
000000e0: c021 8e3e ce20 b93e b74d b33c f552 1abd
000000f0: 704d ff3c 82b9 e23d 2bc2 8dbf dbc1 8fbd

parallel_cnn_block.branches.2.2.weight f4 [64, 1, 8]
0.15147841 0.0005514499 0.24198581 -0.7924286 0.4145865 0.014838975 0.093022496 -1.4514318
-0.18335728 0.053658213 -0.5894378 0.16764851 0.09691738 0.10408235 0.078681104 0.30216214
0.37013978 -0.009373477 -0.11599432 0.0427238 0.5532437 0.05068229 0.043943252 -0.14131954
0.22944373 -0.10029795 0.08633011 -0.09530731 -0.32822713 0.014505312 -0.20779318 0.24889337
-0.7658925 -0.03154978 0.13798586 0.5542783 -0.111060396 0.3365122 -0.1431337 -0.51301455
0.18807855 -0.21956006 -0.58600116 0.42727137 0.6739585 0.2072229 -0.2909232 0.13260786
0.5125766 0.37749818 0.4519285 0.3677365 0.6493027 0.38149112 0.20776188 0.18932736
-0.15893774 0.09994336 -0.20255364 0.025293972 -0.22327308 0.12488045 0.06477713 0.024025196
-0.1664509 0.54909694 0.3648417 -0.34926546 -0.99892366 0.36486542 0.041451376 -0.08202407
0.56652814 -0.3186706 0.053957175 0.081805535 0.036894172 -0.1873462 -0.0514998 -0.008405436
0.5614104 -0.30704412 -0.40999997 0.47537643 -0.19866645 -0.069996506 0.10710179 -0.34237826
0.107966006 0.08405338 -0.08438612 0.053774476 -0.37912643 -0.065060996 -0.1749659 -0.0843047
-0.9045755 -0.04396963 0.24250759 0.09550931 0.64848125 0.040698063 -0.05489068 -0.32798377
0.03874372 0.20130733 0.58968395 0.54943025 0.12154334 -0.6096764 -0.375138 -0.026629824
-0.23989592 0.2976404 0.33866182 0.039342176 0.41615465 0.39413202 -0.55084544 -0.33430266
0.022893965 0.15735255 0.13125642 0.13927011 0.06879788 -0.18768528 0.23608294 0.10316584
-1.0861875 0.4933938 -0.30791607 -0.043947883 0.42349118 0.20450924 -0.015238845 0.35649127
0.097578496 0.049513277 0.38069072 -0.0506558 -0.7342856 0.16019754 -0.11852026 0.26969013
0.111795895 0.28614408 -0.0041623046 0.15197189 -0.20206 0.32188973 -0.13465066 0.14403534
-0.114715785 0.39355224 -0.08445341 -0.178384 0.08678417 -0.38340157 0.1388268 -0.27833208
0.27788317 -0.20551404 0.049737636 0.2371305 -0.26449278 -1.2194092 -0.924728 -0.58907914
0.15474617 -0.18936124 0.018246641 -0.068687685 0.6929335 0.38870737 0.32721126 0.047523465
0.23737536 -0.31827998 0.17796423 0.3139253 -0.31999636 0.15446621 -0.87626946 -0.5448478
0.22466978 -0.041803736 0.49415544 0.11202832 -0.26440254 -0.41344818 -1.2595942 0.27335504
0.48251325 0.23849419 0.5025233 0.4324296 0.7120032 0.48864308 0.3134542 0.2425803
-0.31427354 -0.23235862 -0.40410656 -0.34903106 -0.13117337 -0.12148886 -0.4628554 0.32760206
0.24671727 0.3251238 -0.36499858 -0.54618347 -0.064897396 0.4186254 0.38195038 0.5115889
0.45396557 -0.12256321 -0.7863026 0.6431311 0.27613926 -0.001278165 0.14294659 0.11770643
0.047964893 -0.07957038 0.08932761 0.23922868 0.30551323 -0.29798758 0.2666025 0.02325641
-0.060725253 0.061218552 0.18759432 -0.33267236 0.5630029 0.20093124 -0.6979744 -0.023040714
0.45346573 -0.04438813 0.39724308 0.07358915 0.26021382 -0.23487964 0.30349272 -0.13204075
0.11813105 0.064060524 0.32093754 -0.3104529 0.07443836 0.4173011 0.17329235 0.5163058
00000000: 281d 1b3e 2d8f 103a 21cb 773e 9adc 4abf
00000010: af44 d43e 2c1f 733c 9482 be3d 84c8 b9bf
00000020: 03c2 3bbe b7c8 5b3d 65e5 16bf 0dac 2b3e
00000030: 9f7c c63d 2129 d53d 8f23 a13d ffb4 9a3e
00000040: f682 bd3e 3693 19bc 6e8e edbd 27ff 2e3d
00000050: 61a1 0d3f 3c98 4f3d d7fd 333d 12b6 10be
00000060: 4cf3 6a3e 0369 cdbd d7cd b03d 7b30 c3bd
00000070: 630d a8be b0a7 6d3c bcc7 54be e7dd 7e3e
00000080: 8811 44bf 583a 01bd 2a4c 0d3e 2fe5 0d3f
00000090: a273 e3bd 544b ac3e a491 12be ec54 03bf
000000a0: aa97 403e 5ad4 60be 2c04 16bf 50c3 da3e
000000b0: 8b88 2c3f 3d32 543e e3f3 94be 5bca 073e
000000c0: 3838 033f 7147 c13e 2c63 e73e f547 bc3e
000000d0: b438 263f ce52 c33e 88bf 543e 08df 413e
000000e0: 93c0 22be 1baf cc3d 396a 4fbe 4e35 cf3c
000000f0: b3a1 64be 52c1 ff3d dfa9 843d 7dd0 c43c
00000100: 1b72 2abe 9e91 0c3f 88cc ba3e ecd2 b2be
00000110: 76b9 7fbf a4cf ba3e ebc8 293d 3cfc a7bd
00000120: fd07 113f cb28 a3be 3302 5d3d a989 a73d
00000130: 581e 173d afd7 3fbe 74f1 52bd f4b6 09bc
00000140: 98b8 0f3f e334 9dbe 84eb d1be 8a64 f33e
00000150: 386f 4bbe 545a 8fbd 2f58 db3d 344c afbe
00000160: 481d dd3d 2e24 ac3d a1d2 acbd a042 5c3d
00000170: dc1c c2be b33e 85bd 432a 33be f1a7 acbd
00000180: 4392 67bf 8019 34bd e953 783e 639a c33d
00000190: de02 263f 03b3 263d 0dd5 60bd 7ded a7be
000001a0: bcb1 1e3d 8223 4e3e 87f5 163f 76a7 0c3f
000001b0: b7eb f83d c113 1cbf 1712 c0be ca26 dabc
000001c0: 47a7 75be 5364 983e 1565 ad3e 4325 213d
000001d0: 3912 d53e accb c93e 3504 0dbf b829 abbe
000001e0: 208c bb3c 0721 213e 1568 063e d39c 0e3e
000001f0: e7e5 8c3d 9230 40be babf 713e 9d48 d33d
00000200: 3108 8bbf 1d9e fc3e 2da7 9dbe b202 34bd
00000210: d6d3 d83e df6a 513e 59ac 79bc 0686 b63e
00000220: 3cd7 c73d 6fce 4a3d e5e9 c23e 757c 4fbd
00000230: 24fa 3bbf d30a 243e c0ba f2bd d314 8a3e
00000240: 3ff5 e43d 7a81 923e f163 88bb 859e 1b3e
00000250: d1e8 4ebe bbce a43e dde1 09be 007e 133e
00000260: 1cf0 eabd ae7f c93e e9f5 acbd 4caa 36be
00000270: e6bb b13d 364d c4be 9d28 0e3e 8b81 8ebe
00000280: b446 8e3e 4672 52be b1b9 4b3d 56d2 723e
00000290: 996b 87be 9a15 9cbf f9ba 6cbf e4cd 16bf
000002a0: c875 1e3e eae7 41be fb79 953c 21ac 8cbd
000002b0: 1764 313f a704 c73e 3c88 a73e f7a7 423d
000002c0: 8712 733e 98f5 a2be 413c 363e d1ba a03e
000002d0: 90d6 a3be 642c 1e3e 3253 60bf 257b 0bbf
000002e0: d60f 663e 653a 2bbd f101 fd3e 1b6f e53d
000002f0: c55f 87be 7baf d3be 623a a1bf 31f5 8b3e
00000300: fa0b f73e d237 743e 5ea5 003f 6a67 dd3e
00000310: d745 363f 6d2f fa3e 127d a03e f866 783e
00000320: 76e8 a0be 6bef 6dbe 0ee7 cebe 33b4 b2be
00000330: 5052 06be 27cf f8bd 62fb ecbe 75bb a73e
00000340: 74a3 7c3e a076 a63e 18e1 babe aed2 0bbf
00000350: ede8 84bd 1256 d63e 008f c33e 7df7 023f
00000360: 2d6e e83e 6c02 fbbd 214b 49bf 3da4 243f
00000370: 2062 8d3e 1a88 a7ba 9760 123e 1210 f13d
00000380: d676 443d ccf5 a2bd 65f1 b63d 5df8 743e
00000390: 3b6c 9c3e d491 98be 1f80 883e 3a84 be3c
000003a0: 0bbb 78bd 4ec0 7a3d ba18 403e 0854 aabe
000003b0: f520 103f ebc0 4d3e 73ae 32bf e1bf bcbc
000003c0: a92c e83e 54d0 35bd 7263 cb3e e9b5 963d
000003d0: bf3a 853e 4a84 70be 6663 9b3e b135 07be
000003e0: b1ee f13d 2a32 833d ed51 a43e aff3 9ebe
000003f0: 2473 983d 7da8 d53e 8d73 313e 9e2c 043f

parallel_cnn_block.branches.3.0.weight f4 [1, 1, 32]
-0.074640065 0.030575631 -0.015310036 0.047153503 -0.10340989 0.07951656 0.26702666 0.13300143
0.22498235 0.13000807 0.3956814 0.21710038 0.1212741 -0.03185975 -0.25443742 0.06848366
0.03076979 0.18346165 0.065074414 0.22978115 0.38987404 0.22544631 0.14585769 0.07161072
-0.12597741 0.018228643 -0.014033765 -0.036138196 0.0276439 -0.0042865374 0.032593355 -0.045823097
00000000: e4dc 98bd bf79 fa3c f2d6 7abc 0824 413d
00000010: 90c8 d3bd 94d9 a23d b8b7 883e 8731 083e
00000020: c661 663e d620 053e c196 ca3e 904f 5e3e
00000030: 8e5e f83d 5f7f 02bd 9f45 82be 2941 8c3d
00000040: ed10 fc3c 5fdd 3b3e bc45 853d c04b 6b3e
00000050: 929d c73e 66db 663e b85b 153e a4a8 923d
00000060: 3900 01be 3c54 953c e0ed 65bc a505 14bd
00000070: 7675 e23c 1576 8cbb 9c80 053d 00b1 3bbd

parallel_cnn_block.branches.3.2.bias f4 [16]
0.26455346 0.10752441 0.43489218 0.4106728 0.8308244 0.5232648 0.29547337 0.2960959
0.23111258 0.5343657 0.6031194 -0.62628466 0.027011806 0.57396245 0.037329815 0.2752903
00000000: 8d73 873e c235 dc3d 30aa de3e b543 d23e
00000010: e8b0 543f aff4 053f 4948 973e e299 973e
00000020: c7a8 6c3e 31cc 083f 0866 1a3f 3154 20bf
00000030: dd47 dd3c 34ef 123f 26e7 183d daf2 8c3e
