remade/wide/modelpars_wide_i_77.safetensors (safetensors, 86584 bytes, 32 tensors)

bilstm.bias_hh_l0 f4 [64]
-0.17769468 -0.25600484 0.32927263 0.040113047 -0.040993344 -0.0069610532 -0.4150389 0.016727498
0.039767552 -0.07771065 0.073502004 -0.09118133 -0.102577604 -0.039878994 -0.1412587 -0.16310368
0.3769991 0.18209036 0.12482819 0.12475498 0.24431576 -0.0851495 0.44379023 -0.008118792
0.3010792 0.23472553 0.026838643 -0.1718843 0.3609726 -0.24290913 0.2295581 -0.013166465
0.022356033 -0.21497226 -0.06104522 0.026495386 -0.19909123 -0.008888988 -0.034257013 -0.07385338
0.06396361 0.21879366 0.31914106 0.03621388 0.068951294 -0.119787574 -0.030553142 -0.24772677
0.2957747 -0.2466886 0.29928392 -0.3569096 0.05965908 0.10071907 0.51110774 0.227141
0.30324256 0.2100164 0.43360806 0.16352147 -0.022880567 -0.2512427 -0.06828664 -0.09908846
00000000: 98f5 35be 1113 83be 6c96 a83e 944d 243d
00000010: a3e8 27bd 8c19 e4bb fb7f d4be 1b08 893c
00000020: 4de3 223d c326 9fbd 3888 963d 47bd babd
00000030: 3514 d2bd 2858 23bd 1fa6 10be a704 27be
00000040: 0706 c13e e575 3a3e eca5 ff3d 8a7f ff3d
00000050: e92d 7a3e dc62 aebd 7938 e33e af04 05bc
00000060: 0e27 9a3e e45b 703e b7dc db3c 7002 30be
00000070: 67d1 b83e 2cbd 78be 4711 6b3e 28b8 57bc
00000080: 0024 b73c b021 5cbe 8d0a 7abd da0c d93c
00000090: 92de 4bbe 1ea3 11bc 1551 0cbd 7140 97bd
000000a0: 5aff 823d 720b 603e 7566 a33e 0155 143d
000000b0: 5636 8d3d 3053 f5bd 954a fabc 16ac 7dbe
000000c0: c86f 973e f09b 7cbe be3b 993e dbbc b6be
000000d0: 145d 743d cd45 ce3d f5d7 023f a697 683e
000000e0: 9c42 9b3e 8a0e 573e e001 de3e 2c72 273e
000000f0: 0770 bbbc e2a2 80be ded9 8bbd e4ee cabd

bilstm.bias_hh_l0_reverse f4 [64]
-0.06370874 0.015943028 0.19628629 -0.23980662 -0.43776554 -0.21413435 -0.28997907 -0.2187807
-0.29996184 0.27998215 -0.5184503 -0.05277226 0.30649793 -0.1814606 0.28473884 -0.28593296
0.3920396 0.26045963 0.03856573 0.22464198 0.056344785 0.042701505 0.25639012 0.23044285
0.13276283 0.23825417 0.043765824 -0.036063954 0.206047 0.437594 -0.095970795 -0.11902378
0.06349142 -0.00993566 0.08377124 0.058408696 -0.13735816 -0.14204527 -0.13169907 -0.1885106
0.23502156 -0.0038951812 0.34973723 -0.24568032 0.22678809 -0.21023235 -0.10433671 -0.21546994
0.3081984 -0.14126696 -0.02101979 0.24708122 0.08243713 -0.071812384 -0.02056951 0.22421561
0.24624206 0.14834055 0.10844545 0.24747144 0.047263257 -0.1821728 -0.06699353 0.078506306
00000000: ba79 82bd f49a 823c 46ff 483e de8f 75be
00000010: ce22 e0be 0946 5bbe 2378 94be 0c08 60be
00000020: 9994 99be d259 8f3e 29b9 04bf ba27 58bd
00000030: 4ced 9c3e cfd0 39be 4ac9 913e ce65 92be
00000040: 6ab9 c83e f75a 853e 19f7 1d3d 8c08 663e
00000050: cac9 663d c6e7 2e3d 9145 833e 36f9 6b3e
00000060: fbf2 073e e7f8 733e cb43 333d ccb7 13bd
00000070: fcfd 523e 520c e03e 568c c4bd bdc2 f3bd
00000080: ca07 823d 2ec9 22bc 4290 ab3d f53d 6f3d
00000090: 9ea7 0cbe 5174 11be 1fdc 06be ec08 41be
000000a0: 7ea9 703e 4c46 7fbb c210 b33e 9f93 7bbe
000000b0: 233b 683e 2647 57be 7cae d5bd 27a4 5cbe
000000c0: 2ecc 9d3e 49a8 10be b231 acbc dc02 7d3e
000000d0: ccd4 a83d 5f12 93bd 6481 a8bc c798 653e
000000e0: e126 7c3e 96e6 173e a618 de3d 2769 7d3e
000000f0: 1e97 413d 828b 3abe e733 89bd eac7 a03d

bilstm.bias_ih_l0 f4 [64]
-0.1092196 -0.1823364 -0.10138103 -0.25128776 -0.06889613 0.104354665 0.012645101 -0.23122711
-0.23821291 0.17183971 0.2918615 0.3214023 -0.08792999 -0.25016904 0.19079578 -0.34077638
0.37829039 0.17273735 -0.17280483 0.12732506 0.21939401 0.2910734 0.15747443 -0.17743766
0.28293365 -0.16031358 -0.13449015 0.088356316 0.34134164 0.06795988 0.24490051 0.08725952
0.18700908 -0.2279273 0.026645217 0.20127389 0.09953136 -0.3239105 0.011561884 0.12923513
-0.047134507 -0.18550625 0.05445307 -0.1658626 -0.17766269 -0.0040650493 0.26191103 -0.20768988
0.26665896 -0.09390009 0.2542801 -0.04341218 0.04940743 0.06629629 0.7995862 -0.12880228
0.28853172 0.14167249 0.6041678 -0.05168012 0.22443731 0.11935463 -0.14216939 -0.21391366
00000000: 87ae dfbd 65b6 3abe dca0 cfbd caa8 80be
00000010: 6a19 8dbd e6b7 d53d 662d 4f3c cdc6 6cbe
00000020: 16ee 73be c0f6 2f3e df6e 953e d88e a43e
00000030: a314 b4bd 2816 80be f85f 433e 3e7a aebe
00000040: 47af c13e 0fe2 303e c0f3 30be 8061 023e
00000050: d3a8 603e 9307 953e fa40 213e 38b2 35be
00000060: aedc 903e 3e29 24be c9b7 09be 28f4 b43d
00000070: 55c4 ae3e 8d2e 8b3d 33c7 7a3e 1fb5 b23d
00000080: 4f7f 3f3e c665 69be 1247 da3c be1a 4e3e
00000090: 19d7 cb3d 99d7 a5be 0e6e 3d3c 3756 043e
000000a0: 1d10 41bd 5af5 3dbe 2f0a 5f3d e3d7 29be
000000b0: 35ed 35be 1b34 85bb 3419 863e a8ac 54be
000000c0: 8687 883e b14e c0bd 0031 823e f8d0 31bd
000000d0: 725f 4a3d 59c6 873d aeb1 4c3f bfe4 03be
000000e0: 6eba 933e 9812 113e beaa 1a3f 89ae 53bd
000000f0: e5d2 653e 3370 f43d da94 11be 2f0c 5bbe

bilstm.bias_ih_l0_reverse f4 [64]
0.07856126 0.16289929 -0.048922066 -0.33417332 -0.3153317 -0.37512955 0.03536362 0.12445051
-0.05527181 0.40280542 -0.17706157 -0.1399563 0.16770783 -0.4594926 0.015738267 0.09936004
0.08715715 -0.1182732 0.17275581 0.45729354 0.11637481 0.17770933 -0.15603438 -0.1022624
0.35925475 0.33401957 0.31870672 0.03984026 0.15186405 0.3606817 0.033478826 0.09281529
-0.1832736 0.12451923 0.04769301 0.06027795 -0.13509738 0.019247679 0.010898161 0.09353923
0.18958011 0.1328814 0.34703547 0.074752174 0.20228003 0.15197805 0.2807082 -0.20729895
0.05208963 0.0008726874 -0.08016944 0.3164953 0.3773478 -0.010689433 0.3234864 -0.16786821
0.23581256 0.31589392 0.20102604 0.5303481 -0.06457935 0.11674359 -0.30333158 -0.0299307
00000000: bae4 a03d 12cf 263e 8162 48bd c418 abbe
00000010: 2873 a1be fb10 c0be 71d9 103d e9df fe3d
00000020: b264 62bd 833c ce3e a14f 35be b450 0fbe
00000030: 9abb 2b3e 9d42 ebbe 8aed 803c 477d cb3d
00000040: 737f b23d 3839 f2bd e6e6 303e 6122 ea3e
00000050: eb55 ee3d 6ff9 353e 7ac7 1fbe f36e d1bd
00000060: 3df0 b73e 9d04 ab3e 872d a33e 8a2f 233d
00000070: 4082 1b3e 46ab b83e 1821 093d f115 be3d
00000080: 13ac 3bbe f003 ff3d bf59 433d 03e6 763d
00000090: f856 0abe 4fad 9d3c 338e 323c 7f91 bf3d
000000a0: 4a21 423e 1012 083e a2ae b13e ab17 993d
000000b0: 7f22 4f3e 22a0 1b3e fcb8 8f3e 2d46 54be
000000c0: f05b 553d 0fc5 643a e02f a4bd ac0b a23e
000000d0: bb33 c13e bb22 2fbc 02a0 a53e a5e5 2bbe
000000e0: d978 713e d9bc a13e c5d9 4d3e e5c4 073f
000000f0: 2e42 84bd 4317 ef3d 474e 9bbe 3a31 f5bc

bilstm.weight_hh_l0 f4 [64, 16]
1.0064865 0.2753316 0.17052098 -0.05348976 0.059954826 0.67275375 0.09878123 0.49763408
-0.10346959 -0.021741541 -0.3755524 -0.2519722 0.048748977 -0.18712842 0.6404514 -0.4058572
-0.4328692 -0.08733239 0.079776056 0.20195955 0.39312965 -0.14998437 -0.45602074 -0.0047275443
0.17077835 -0.016193917 0.063539885 0.06857605 -0.16805363 0.13721019 -0.116581276 -0.0021343918
-0.1936134 0.009103978 -0.4044109 -0.16173436 -0.07134402 -0.09497085 0.12119207 0.17622302
0.2634356 0.076042704 -0.1070404 0.16341527 -0.045896422 0.3008931 0.21728054 0.08545854
0.16132058 -0.08945514 -0.17427212 0.09529412 0.07131653 -0.23067702 0.17858909 0.13358037
0.10164397 0.20474452 0.036452074 -0.19345036 0.19111022 -0.08018365 0.2320813 0.01141156
0.0013877943 -0.4447651 -0.18630534 0.34064904 0.2731167 0.054141577 0.025070447 0.015017281
-0.6097389 -0.005859001 0.049430706 -0.23378985 -0.016098492 -0.00699689 -0.35516465 0.09367885
0.07170558 0.34945068 0.02898855 -0.36865368 -0.32256785 -0.1780245 -0.6002274 0.037452735
0.45252562 -0.08382583 -0.04257336 -0.1501336 0.093737945 -0.36100277 -0.17211281 -0.5509464
0.29083097 0.35378462 0.16797613 -0.35216406 0.116271175 0.27156308 -0.21113451 0.3094477
0.33535364 -0.33721614 -0.49736366 -0.35691136 -0.32798982 -0.5324426 0.30511662 -1.0150797
-0.18306686 0.055430334 0.03769309 0.35623366 0.38060895 0.14825454 -0.05346726 -0.07077238
-0.19543286 -0.24514557 -0.15720852 -0.03238583 -0.22909705 -0.32386443 -0.12861398 -0.068920515
0.16486198 0.20847584 0.16867293 0.045643434 0.28450906 0.24489255 -0.15721206 0.06379279
0.97353506 0.06209323 -0.25374004 0.046541587 -0.33677858 -0.054613486 0.52751267 0.27544057
0.20273815 -0.1952044 0.20133264 0.055452857 -0.17716984 0.22152802 -0.42144206 0.17839769
0.06788097 -0.08039327 -0.20969653 0.012960727 0.19844237 -0.20433919 -0.010857577 -0.12520222
0.32378402 -0.055372532 0.18472458 0.18806349 0.097560935 0.10556238 -0.3130356 -0.22065489
-0.26112056 -0.017773677 0.060007732 -0.040611237 -0.21835949 0.17321062 -0.008576394 -0.027398955
-0.1620227 0.20896769 0.0846499 0.10073218 0.018783882 -0.096382126 -0.019427415 -0.2454715
0.15618442 0.024910664 0.27068722 0.21160829 0.26081052 -0.21471123 -0.10858933 0.010919517
0.11063433 -0.41231325 -0.059543423 0.2282178 -0.18335646 -0.26491338 0.027968265 -0.08971391
-0.6220861 0.16867995 0.20497793 0.22138825 -0.049781382 0.28680947 -0.22536047 0.355547
0.3111342 -0.24561515 0.07592262 -0.0843576 0.19980241 0.48301634 0.3612718 -0.119091764
-0.3596966 -0.32657513 0.10054037 -0.45556912 -0.042511605 -0.096360765 -0.3868957 0.79239625
-0.042816438 -0.159005 0.12074631 -0.14271122 0.07473406 -0.08364241 -0.49734232 0.14343631
-0.3460277 0.0373683 0.04648187 -0.021531539 0.035067827 0.2070831 -0.25502843 0.33087558
0.17534198 0.10622942 0.10791246 -8.381477e-05 0.20010829 -0.2857974 -0.96933764 -0.32768896
0.38253334 0.04671482 -0.57454646 0.08762076 -0.16146669 0.06345504 -0.069100276 0.6652885
00000000: 8dd4 803f 43f8 8c3e 0d9d 2e3e 1418 5bbd
00000010: 3193 753d 9739 2c3f d04d ca3d e5c9 fe3e
00000020: dde7 d3bd 511b b2bc 6748 c0be 8002 81be
00000030: 02ad 473d 989e 3fbe 9ff4 233f 84cc cfbe
00000040: 08a1 ddbe 53db b2bd a161 a33d 7cce 4e3e
00000050: 4a48 c93e 8195 19be 8d7b e9be 84e9 9abb
00000060: 85e0 2e3e 1ba9 84bc 3321 823d 9a71 8c3d
00000070: 4016 2cbe d480 0c3e 2ac2 eebd 27e1 0bbb
00000080: 9742 46be da28 153c f20e cfbe b19d 25be
00000090: d01c 92bd 1480 c2bd 8c33 f83d cf73 343e
000000a0: 08e1 863e 47bc 9b3d ff37 dbbd 5556 273e
000000b0: e3fd 3bbd a90e 9a3e ca7e 5e3e e304 af3d
000000c0: 3931 253e 4234 b7bd 6474 32be 9029 c33d
000000d0: 670e 923d 9936 6cbe 0fe0 363e 4bc9 083e
000000e0: b72a d03d 8ca8 513e c54e 153d da17 46be
000000f0: 66b2 433e 5337 a4bd b8a6 6d3e 8df7 3a3c
00000100: a6e6 b53a 40b8 e3be d4c6 3ebe 8d69 ae3e
00000110: f4d5 8b3e 8fc3 5d3d 8a60 cd3c 0b0b 763c
00000120: d917 1cbf ddfc bfbb da77 4a3d 9b66 6fbe
00000130: fce0 83bc 2b46 e5bb 24d8 b5be b2da bf3d
00000140: 60da 923d 33eb b23e 6579 ed3c 2dc0 bcbe
00000150: 9d27 a5be 0e4c 36be 81a8 19bf 0a68 193d
00000160: 70b1 e73e e0ac abbd 6761 2ebd 9fbc 19be
00000170: aef9 bf3d 5bd5 b8be 573e 30be d30a 0dbf
00000180: cce7 943e 4223 b53e ef01 2c3e d94e b4be
00000190: 951f ee3d 510a 8b3e a533 58be ee6f 9e3e
000001a0: 79b3 ab3e 98a7 acbe 73a6 febe 16bd b6be
000001b0: 48ee a7be 294e 08bf 3f38 9c3e 22ee 81bf
000001c0: e175 3bbe eb0a 633d 1264 1a3d 4264 b63e
000001d0: 2ddf c23e 0ad0 173e 7c00 5bbd 1cf1 90bd
000001e0: 8d1f 48be 7107 7bbe 45fb 20be 01a7 04bd
000001f0: 6b98 6abe 8fd1 a5be 62b3 03be 3326 8dbd
00000200: 94d1 283e b17a 553e 99b8 2c3e 9cf4 3a3d
00000210: 2cab 913e 1dc5 7a3e 33fc 20be cba5 823d
00000220: 9839 793f 7955 7e3d 37ea 81be 64a2 3e3d
00000230: 3e6e acbe 64b2 5fbd 120b 073f 8c06 8d3e
00000240: 979a 4f3e aae3 47be 252a 4e3e 8922 633d
00000250: 036c 35be 3ed8 623e 41c7 d7be e2ad 363e
00000260: 2e05 8b3d 3aa5 a4bd b0ba 56be 3b59 543c
00000270: 7a34 4b3e 4b3e 51be fbe3 31bc 0335 00be
00000280: 05c7 a53e 4fce 62bd 7128 3d3e b793 403e
00000290: 07ce c73d 1731 d83d 3446 a0be 5bf3 61be
000002a0: 98b1 85be 1a9a 91bc abca 753d f857 26bd
000002b0: a199 5fbe 205e 313e 0184 0cbc c673 e0bc
000002c0: 47e9 25be a0fb 553e ed5c ad3d ac4c ce3d
000002d0: a8e0 993c fe63 c5bd 3e26 9fbc e25c 7bbe
000002e0: cfee 1f3e 7311 cc3c 8497 8a3e d8af 583e
000002f0: f588 853e 43dd 5bbe 1564 debd c6e7 323c
00000300: 4094 e23d b91a d3be cee3 73bd edb1 693e
00000310: ccc1 3bbe baa2 87be b41d e53c edbb b7bd
00000320: 0941 1fbf 70ba 2c3e bce5 513e 9ab3 623e
00000330: 90e7 4bbd b1d8 923e e5c4 66be 420a b63e
00000340: fb4c 9f3e 8a82 7bbe 527d 9b3d adc3 acbd
00000350: 0199 4c3e eb4d f73e 9ef8 b83e 62e6 f3bd
00000360: 272a b8be db34 a7be 1ce8 cd3d 5b40 e9be
00000370: a620 2ebd cb58 c5bd 3117 c6be 7bda 4a3f
00000380: 4a60 2fbd 35d2 22be d749 f73d e422 12be
00000390: 2c0e 993d b64c abbd a7a3 febe f8e0 123e
000003a0: 8b2a b1be 810f 193d c663 3e3d e962 b0bc
000003b0: 48a3 0f3d 980d 543e 1693 82be 8668 a93e
000003c0: d98c 333e cf8e d93d 3501 dd3d b6c5 afb8
000003d0: 30e9 4c3e 0954 92be 8326 78bf d9c6 a7be
000003e0: 69db c33e 0a58 3f3d 7a15 13bf 8372 b33d
000003f0: 8657 25be b7f4 813d 7284 8dbd 5950 2a3f

bilstm.weight_hh_l0_reverse f4 [64, 16]
-0.09165348 -0.37469918 -0.39272088 0.7362798 -0.16433531 0.38839605 -0.19648717 -0.5521739
-0.03373501 0.12503298 0.10917195 0.05071063 -0.58371127 0.013519388 0.103209935 -0.30947617
-0.027398987 0.39342818 -0.06945932 1.1979665 0.10010628 0.0810566 -0.13422471 -0.047986157
0.34623778 0.35538337 0.07362963 -0.18456544 0.04356 0.21909773 -0.0428409 -0.1621453
0.49351314 0.45327687 -0.0481139 -0.09389532 0.2992008 -0.39575508 -0.34681034 0.7346233
-0.98347896 -0.25435045 -0.45373204 0.28581908 -0.10013462 0.8467049 0.41756043 -0.07367915
0.5342687 0.2384526 -0.117970385 0.47865984 0.8838239 0.30080223 -0.47369525 -0.35471606
-0.81397915 -0.41231427 -0.377828 0.3752405 -0.18165761 0.78718644 -0.4463154 -0.36170796
0.0076872245 -0.114089094 -0.09734551 -0.35484242 -0.057578795 0.7023456 -0.0075072437 -0.69292134
0.080323435 -0.20393865 0.25814793 0.055325773 -0.4142386 -0.39407685 -0.036336705 -0.042958494
0.2086879 0.2301657 0.13578442 0.42611277 0.53805804 0.34427324 -0.27909133 0.24169333
-0.10530504 -0.08467293 -0.27500066 0.27684408 -0.065878786 0.4025231 0.3868167 -0.61075354
0.34385234 0.484972 -0.67311585 -0.38591596 0.34238136 0.5423004 0.12984465 -0.15100877
0.6247575 0.0025859964 -0.17278579 0.008551632 0.010518965 0.47415915 -0.28141704 -0.73439866
-0.07268146 -0.15634044 0.010212152 0.7613364 -0.09963844 -0.5070877 -0.24625866 0.20851946
0.25973135 0.047908798 0.07096707 0.21529394 -0.2894581 -0.85177964 0.43749812 0.12642178
0.052444626 0.46745938 -0.2581797 -0.3734704 0.07639765 -0.7507683 -0.2953448 -0.07365722
0.13044517 -0.28127822 0.028934512 0.11894268 0.016217064 0.5368632 0.15479816 -0.20681295
-0.17506057 0.14054866 0.17917904 -0.06977544 -0.2760198 0.056932535 -0.0056367265 -0.20601995
-0.20891684 0.115568824 -0.052097782 -0.21609561 0.07344884 -0.030328713 -0.110086 0.2222768
0.07326923 0.05488683 0.028983228 0.5348047 -0.03669191 0.08476026 -0.4911902 0.33483237
-0.1791332 -0.22045808 0.14774607 0.39585587 -0.025333013 0.17431651 0.047985543 -0.25514936
0.30180547 -0.19985212 -0.10874987 -0.41613254 -0.09422781 0.0625833 -0.19377168 -0.07506784
-0.37347627 -0.16590896 0.0745441 -0.31341693 0.050882954 0.066118516 -0.013720137 0.34561273
-0.20435141 -0.11723475 0.047316793 0.117599115 0.069828086 -0.098036066 -0.01990292 -0.48873812
-0.4065751 0.13999215 -0.13522251 0.051120482 -0.1856684 0.10886533 -0.4181859 0.09809579
0.1715944 0.2971587 0.2718693 0.4976686 0.08858238 0.20422527 -0.07580366 0.050948843
-0.19299915 -0.24010904 0.0054260404 0.2505867 -0.043448675 -0.13052574 0.16785379 -0.12472608
-0.25768754 -0.1891317 -0.07092026 0.13111767 -0.3627263 -0.016307976 0.10427886 0.13616848
-0.045557365 0.13527077 -0.05325384 -0.0361149 -0.05751628 -0.3692301 -0.05230117 -0.1589567
0.17518185 -0.014050702 0.14661564 -0.6888102 0.30891678 -0.8306119 -0.2820808 -0.3609215
-0.64346635 -0.03344657 -0.14752561 0.16906255 0.043384228 0.6889381 -0.16474201 0.013741455
00000000: d2b4 bbbd 92d8 bfbe b612 c9be d57c 3c3f
00000010: 8447 28be d9db c63e ef33 49be 455b 0dbf
00000020: b92d 0abd a508 003e 8b95 df3d f3b5 4f3d
00000030: 1a6e 15bf 6c80 5d3c bb5f d33d a973 9ebe
00000040: d773 e0bc 6b6f c93e b040 8ebd f756 993f
00000050: 8504 cd3d 0101 a63d 3472 09be 228d 44bd
00000060: 1446 b13e cff4 b53e 22cb 963d b9fe 3cbe
00000070: f86b 323d 285b 603e f179 2fbd 6b09 26be
00000080: c1ad fc3e e813 e83e 1513 45bd 314c c0bd
00000090: d930 993e 69a0 cabe 2091 b1be 4610 3c3f
000000a0: 47c5 7bbf 393a 82be 914f e8be e156 923e
000000b0: 6113 cdbd a7c1 583f 7bca d53e 18e5 96bd
000000c0: d5c5 083f eb2c 743e 759a f1bd e712 f53e
000000d0: 4842 623f c002 9a3e 2f88 f2be 589d b5be
000000e0: f060 50bf db1a d3be ac72 c1be 861f c03e
000000f0: 7404 3abe 0d85 493f 7483 e4be c931 b9be
00000100: 1de5 fb3b 8ba7 e9bd 155d c7bd e8ad b5be
00000110: bed7 6bbd eccc 333f 53ff f5bb 4b63 31bf
00000120: 9d80 a43d 4bd5 50be f72b 843e 479d 623d
00000130: 1517 d4be 71c4 c9be ccd5 14bd 3ff5 2fbd
00000140: 48b2 553e 8fb0 6b3e 120b 0b3e 742b da3e
00000150: 2cbe 093f 9544 b03e 0fe5 8ebe 757e 773e
00000160: 2baa d7bd 0069 adbd e3cc 8cbe 82be 8d3e
00000170: 75eb 86bd 8217 ce3e d70c c63e 585a 1cbf
00000180: 6a0d b03e 404e f83e 5251 2cbf c796 c5be
00000190: 9c4c af3e 33d4 0a3f fff5 043e 0ba2 1abe
000001a0: 1cf0 1f3f d279 293b c2ee 30be 251c 0c3c
000001b0: bd57 2c3c fdc4 f23e e515 90be 8d01 3cbf
000001c0: 04da 94bd b517 20be df50 273c f1e6 423f
000001d0: 3d0f ccbd 80d0 01bf 3b2b 7cbe 2086 553e
000001e0: 82fb 843e 043c 443d 2f57 913d 0476 5c3e
000001f0: da33 94be 3b0e 5abf c1ff df3e b674 013e
00000200: 2dd0 563d d656 ef3e 2130 84be 8337 bfbe
00000210: 5f76 9c3d 5a32 40bf 6f37 97be 99d9 96bd
00000220: 6b93 053e b303 90be 1208 ed3c 3898 f33d
00000230: a6d9 843c de6f 093f 6983 1e3e c6c6 53be
00000240: 1443 33be fdeb 0f3e b67a 373e 6de6 8ebd
00000250: 7852 8dbe 1732 693d 4ab4 b8bb e5f6 52be
00000260: 4cee 55be 59af ec3d 7c64 55bd 2b48 5dbe
00000270: 586c 963d ec73 f8bc c574 e1bd 889c 633e
00000280: 2e0e 963d 03d1 603d 3c6e ed3c f6e8 083f
00000290: 424a 16bd ca96 ad3d 487d fbbe 266f ab3e
000002a0: b26e 37be c3bf 61be bf4a 173e 9fad ca3e
000002b0: 2e87 cfbc 0780 323e 7d8c 443d f0a2 82be
000002c0: 3f86 9a3e 09a6 4cbe 40b8 debd 530f d5be
000002d0: 83fa c0bd ac2b 803d 156c 46be 2bbd 99bd
000002e0: 4838 bfbe 0ae4 29be 94aa 983d 2f78 a0be
000002f0: a56a 503d 2569 873d 6dca 60bc 27f4 b03e
00000300: 7f41 51be c618 f0bd 41cf 413d ced7 f03d
00000310: 0702 8f3d 22c7 c8bd 730b a3bc e23b fabe
00000320: 9d2a d0be 1a5a 0f3e c577 0abe b663 513d
00000330: db1f 3ebe c9f4 de3d 761c d6be 72e6 c83d
00000340: 71b6 2f3e 2f25 983e 7432 8b3e 6bce fe3e
00000350: ae6a b53d 6e20 513e f33e 9bbd bcaf 503d
00000360: 92a1 45be 25df 75be edcc b13b e64c 803e
00000370: 3df7 31bd 8aa8 05be dde1 2b3e 6370 ffbd
00000380: 9fef 83be beab 41be a43e 91bd b643 063e
00000390: 43b7 b9be 4e98 85bc 2890 d53d c06f 0b3e
000003a0: 5c9a 3abd 6c84 0a3e b320 5abd 38ed 13bd
000003b0: 3196 6bbd ba0b bdbe c039 56bd 8cc5 22be
000003c0: df62 333e ea34 66bc 6922 163e de55 30bf
000003d0: 572a 9e3e fba2 54bf e56c 90be b4ca b8be
000003e0: 36ba 24bf 45ff 08bd f410 17be bc1e 2d3e
000003f0: a9b3 313d 3f5e 303f 21b2 28be d723 613c

bilstm.weight_ih_l0 f4 [64, 32]
-0.097236104 0.09028688 0.17008094 0.42086676 0.10845769 -0.06645447 -0.4626043 0.042103115
0.2190721 0.30056393 0.27420926 0.06675026 1.1559664 0.22611679 0.5101392 0.06585719
-0.16499706 1.0832756 0.12642908 0.39098963 -0.16534647 -0.21146412 0.4572595 -0.14060736
-0.091873765 -0.17176895 -0.13710114 -0.20705669 0.14986607 0.10568564 0.35477144 0.17319505
0.10083029 -0.041605197 -0.47533736 0.09778374 0.1614625 0.15109813 0.40740615 0.18070106
0.18322119 -0.3394557 -0.009527056 0.21003963 -0.54896265 0.06356448 -0.6941184 -0.2944057
-0.014836174 -1.171573 0.9640584 -0.40981603 0.060150746 0.2092309 -0.13178112 0.250049
-0.28631875 -0.1263495 -0.07022555 0.16288249 0.24125029 0.10103111 -0.33496705 0.058664113
0.056459386 -0.26326022 0.21611707 -0.044612054 -0.020023566 -0.0804208 -0.34541622 -0.11303866
-0.16947417 0.030116512 0.44530442 -0.21812333 0.7989827 -0.05807307 0.5469621 -0.03886483
0.2597811 0.39714733 0.3784904 -0.019347914 -0.21033505 0.025712613 0.13064624 0.04559226
-0.17702973 0.41015837 0.101909235 -0.03871199 0.042627797 -0.20407064 -0.20610116 0.080508284
0.07948294 -0.037907247 -0.07488961 0.23288856 0.15677689 0.0726253 -0.41536543 0.16964298
0.13673285 -0.2410344 -0.40551957 -0.24443889 0.4845092 0.07504748 -0.28704247 0.07788466
0.29575056 0.04453397 0.03715375 0.20977288 -0.023075368 -0.13193321 0.15177044 0.09298408
-0.16734883 -0.030608503 0.065975346 0.23340133 0.07305081 0.045864753 0.0034280743 -0.22520617
0.308534 -0.027441058 -0.36232036 -0.5465686 0.1797217 -0.03227198 -0.33774543 -0.16705182
0.13980508 -0.25395712 0.085532926 0.28577513 0.10564801 0.3296385 0.027679522 0.023342546
-0.26162377 -0.67957383 0.46018204 -0.1485902 -0.021400232 0.17193313 -0.25169584 0.24083462
0.034929268 0.327385 0.26197016 0.20618302 -0.09491797 0.2482169 -0.20274118 0.1679302
-0.17775601 0.13425605 -0.509749 -0.25177526 0.22987217 0.46090704 -0.4451148 -0.2170907
0.5953759 0.98174375 0.6271695 0.21029043 0.3853686 -0.30256307 0.39827165 0.09751706
0.087668486 -0.0021328996 -0.17459482 -0.17924127 -0.09167478 0.05762897 0.030448029 -0.31119037
0.20187576 -0.43173024 0.09100863 0.16970941 -0.12681113 0.036829986 0.78732204 0.048988856
-0.22514822 -0.34520486 -0.2659914 -0.020103531 -0.21618994 -0.46346593 -0.093490936 0.05966005
0.16947368 0.15053266 -0.35242105 -0.02858173 0.2037982 0.07648956 -0.031242805 0.08622669
-0.10608808 0.116163686 0.12558031 -0.099317916 0.2285512 0.05343633 -0.15029226 0.070176356
0.30992785 -0.036416035 0.01826119 -0.046901006 0.041967608 -0.09972953 0.08755775 -0.13086157
0.11701343 0.24335234 -0.026198603 -0.20919935 -0.11766944 -0.17824718 0.5573657 -0.12527923
0.017517807 0.070450924 -0.07271629 -0.2550568 0.95488846 0.13386995 0.23600224 0.21513619
-0.04349848 0.27070183 -0.22336695 -0.15802059 -0.110155955 -0.0592659 0.20573707 0.034438875
-0.078436166 0.2954935 0.082180254 -0.08860518 -0.14793584 -0.023429526 0.02214483 0.18335739
00000000: b923 c7bd 54e8 b83d b329 2e3e d97b d73e
00000010: 111f de3d 4819 88bd 79da ecbe 5174 2c3d
00000020: 7054 603e 84e3 993e 2865 8c3e 5cb4 883d
00000030: b5f6 933f 298b 673e 7c98 023f 22e0 863d
00000040: fdf4 28be c6a8 8a3f a076 013e cb2f c83e
00000050: 9650 29be 0d8a 58be eb1d ea3e 60fb 0fbe
00000060: 5028 bcbd 33e4 2fbe 3e64 0cbe ab06 54be
00000070: 7e76 193e b671 d83d 9aa4 b53e 0b5a 313e
00000080: 1c80 ce3d 366a 2abd 6b5f f3be d742 c83d
00000090: 6d56 253e 78b9 1a3e 8a97 d03e b309 393e
000000a0: 569e 3b3e 23cd adbe 5e17 1cbc a114 573e
000000b0: d188 0cbf 182e 823d beb1 31bf 58bc 96be
000000c0: 6d13 73bc 1bf6 95bf 88cc 763f 68d3 d1be
000000d0: a160 763d a040 563e a1f1 06be 6c06 803e
000000e0: 5f98 92be c361 01be 6ad2 8fbd abca 263e
000000f0: 510a 773e 66e9 ce3d cd80 abbe c849 703d
00000100: f541 673d 0bca 86be cb4d 5d3e 21bb 36bd
00000110: 7608 a4bc a9b3 a4bd 65da b0be d080 e7bd
00000120: a38a 2dbe e7b6 f63c f1fe e33e b95b 5fbe
00000130: 218a 4c3f 07de 6dbd b505 0c3f ba30 1fbd
00000140: 0702 853e e556 cb3e 7ec9 c13e 847f 9ebc
00000150: 1262 57be 42a3 d23c 21c8 053e f3be 3a3d
00000160: 4847 35be 4700 d23e cab5 d03d 7790 1ebd
00000170: 7c9a 2e3d e5f7 50be 2f0c 53be 87e1 a43d
00000180: f4c7 a23d a144 1bbd b95f 99bd 577a 6e3e
00000190: 1f8a 203e 93bc 943d c7aa d4be e4b6 2d3e
000001a0: b203 0c3e b9d1 76be 43a0 cfbe 304e 7abe
000001b0: 9711 f83e 7eb2 993d 3bf7 92be fe81 9f3d
000001c0: 9e6c 973e 4169 363d 882e 183d b4ce 563e
000001d0: 8e08 bdbc 8019 07be b669 1b3e 706e be3d
000001e0: 7e5d 2bbe afbe fabc 151e 873d c200 6f3e
000001f0: aa9b 953d aedc 3b3d 8ba9 603b 729c 66be
00000200: 2bf8 9d3e 12cc e0bc 0e82 b9be ebeb 0bbf
00000210: f708 383e a02f 04bd f8ec acbe a20f 2bbe
00000220: 1029 0f3e ab06 82be e32b af3d 1e51 923e
00000230: fc5d d83d 61c6 a83e 2ac0 e23c de38 bf3c
00000240: 8df3 85be 8df8 2dbf fb9c eb3e 0828 18be
00000250: 8a4f afbc 3d0f 303e 47de 80be 5a9d 763e
00000260: fe11 0f3d 029f a73e f420 863e a421 533e
00000270: 5a64 c2bd 922c 7e3e 629b 4fbe e5f5 2b3e
00000280: ac05 36be 6b7a 093e e97e 02bf b0e8 80be
00000290: 9c63 6b3e 02fc eb3e 16e6 e3be 064d 5ebe
000002a0: 8e6a 183f 8f53 7b3f 2e8e 203f 6056 573e
000002b0: 084f c53e 8ce9 9abe 43ea cb3e 06b7 c73d
000002c0: 898b b33d 1ec8 0bbb fcc8 32be 068b 37be
000002d0: fdbf bbbd 5b0c 6c3d 256e f93c 5854 9fbe
000002e0: 85b8 4e3e bf0b ddbe bc62 ba3d 4ec8 2d3e
000002f0: c7da 01be 0adb 163d f08d 493f 8aa8 483d
00000300: 418d 66be b1be b0be 0630 88be 29b0 a4bc
00000310: e560 5dbe 684b edbe 2d78 bfbd 195e 743d
00000320: 828a 2d3e 3c25 1a3e 8870 b4be 3b24 eabc
00000330: 7ab0 503e 8fa6 9c3d e9f0 ffbc 9e97 b03d
00000340: b544 d9bd 3ae7 ed3d 2098 003e 3167 cbbd
00000350: 5309 6a3e 0ee0 5a3d 37e6 19be 9fb8 8f3d
00000360: ddae 9e3e fb28 15bd 7e98 953c 451b 40bd
00000370: 3ae6 2b3d ff3e ccbd 7a51 b33d 9300 06be
00000380: bda4 ef3d 5b31 793e 749e d6bc 5b38 56be
00000390: adfc f0bd 6e86 36be 85af 0e3f 3349 00be
000003a0: 8181 8f3c 9348 903d 47ec 94bd ce96 82be
000003b0: 9273 743f 3415 093e 92aa 713e a94c 5c3e
000003c0: 762b 32bd 6e99 8a3e 4eba 64be 26d0 21be
000003d0: 7299 e1bd cdc0 72bd bdac 523e c70f 0d3d
000003e0: 24a3 a0bd ed4a 973e 1f4e a83d a276 b5bd
000003f0: 7e7c 17be 47ef bfbc 1369 b53c 0ac2 3b3e

bilstm.weight_ih_l0_reverse f4 [64, 32]
0.32489777 0.13958037 -0.052197866 0.21537809 0.10962474 0.2838521 -0.16521817 0.1901566
0.16003639 -0.06652316 0.0046451925 0.10964404 -0.0073999455 -0.09374639 0.12753412 -0.026859488
-0.24277659 -0.51722103 -0.06169249 -0.23624036 0.14835253 -0.1113104 -0.26485303 0.13983946
-0.14931978 0.14231242 0.17799595 0.0009909451 -0.21149509 -0.21459405 0.4455457 -0.024315568
-0.13764651 -0.20138988 -0.27030435 -0.3255386 0.18423638 -0.034564998 -0.2947363 0.1877434
0.24788272 -0.0024498394 0.09775013 -0.1526898 -0.21406406 0.17901637 -0.6360822 0.16306621
-0.025602521 -0.12124617 0.17355645 0.10163125 -0.2255571 0.1878729 -0.104642004 -0.5002913
-0.19858791 -0.31152636 -0.009119188 -0.07006805 0.17170228 0.052220024 -0.14916076 -0.22779739
0.08867364 0.06570432 0.33848622 0.10853607 0.101884276 -0.1667771 0.43791002 -0.061184973
0.237487 -0.08729796 -0.31110516 -0.06307452 0.021706142 -0.119940475 -0.83760464 0.0077592977
-0.063286826 0.0041737137 0.14369436 -0.050757244 -0.019887816 0.10269792 -0.07983446 -0.25490823
0.071794875 -0.08263105 0.20117304 0.17776771 -0.0068674446 0.12710236 -0.74722034 -0.1586509
0.20481804 -0.07793398 0.041571405 -0.45589203 0.034205906 0.24585633 0.12047193 -0.031145073
0.020312328 -0.45583305 -0.051615097 0.0140473 0.077203095 -0.2841918 -0.012776902 0.049017016
-0.2942674 -0.2505292 -0.016213836 -0.16466354 0.07622699 0.024421649 -0.104425505 -0.2588689
-0.25416994 -0.06291815 -0.11959072 -0.18251055 -0.08896944 0.10900478 0.23830499 -0.20347537
-0.03540292 0.6089258 0.03339688 -0.12154544 -0.005525008 0.036096845 0.15702938 -0.061260153
-0.38934153 -0.043125466 0.14271772 0.25779516 -0.062793694 -0.49996018 0.3524968 -0.21832103
0.21602628 -0.117328696 0.009201109 -0.043335136 0.22201069 0.18382396 -0.07146176 0.139692
0.34410226 -0.02142352 0.28669775 -0.09784089 -0.0155555215 0.16459338 0.43084794 0.096417665
0.01894592 0.13910991 0.16469294 -0.18029474 -0.0027597963 0.37584323 0.04293223 -0.09486837
0.13793865 0.04391442 -0.14701563 0.048299953 0.0391938 0.04952692 0.30156204 -0.39806488
-0.23964986 -0.29814985 0.12637709 -0.07791553 -0.07971927 0.36194107 -0.32675403 -0.28556976
-0.024535423 -0.04191225 0.3684338 -0.04006999 0.17706692 0.34136656 0.36065856 -0.22529726
-0.24871202 -0.20086807 -0.36075267 0.76974964 -0.057777885 0.2081326 -0.29221967 -0.036210753
0.042097658 0.40107897 0.6078464 -0.113275915 0.04020048 0.5678136 0.5851767 0.17940384
-0.24446024 0.0092549 0.20881963 0.02555516 -0.1247843 0.24204312 0.20884784 0.16882753
0.040727504 -0.43709502 0.17588802 0.26421982 0.18350375 -0.09736402 0.40754533 -0.0837904
-0.5300723 -0.14231786 -0.41334513 0.16436486 -0.113954104 0.54177296 -0.3719998 0.101002365
0.37420872 0.15723255 0.40769237 0.013560326 0.5032932 0.032590434 0.3551271 -0.089091845
-0.06016748 -0.28405875 0.0024445218 -0.066840515 0.019474693 -0.13290888 -0.07482692 0.14874457
-0.08847672 -0.3163533 -0.18421379 0.17244631 -0.20186055 0.24701065 0.09393493 0.21546413
00000000: 0059 a63e 28ee 0e3e 6ecd 55bd 138c 5c3e
00000010: f082 e03d 1055 913e f42e 29be 69b8 423e
00000020: 94e0 233e 4b3d 88bd b336 983b 0e8d e03d
00000030: 3e7b f2bb 1bfe bfbd 4e98 023e 6e08 dcbc
00000040: 6d9a 78be 9968 04bf 44b1 7cbd fee8 71be
00000050: bae9 173e b5f6 e3bd d19a 87be 1332 0f3e
00000060: 49e7 18be 59ba 113e 9244 363e 9ae2 813a
00000070: 2b92 58be 8bbe 5bbe 911e e43e 7131 c7bc
00000080: 35f3 0cbe 2639 4ebe 5565 8abe ffac a6be
00000090: 76a8 3c3e 0794 0dbd ade7 96be ce3f 403e
000000a0: f8d4 7d3e 7c8d 20bb 3831 c83d b75a 1cbe
000000b0: 9c33 5bbe 1150 373e 48d6 22bf d4fa 263e
000000c0: 61bc d1bc e94f f8bd c8b8 313e 0b24 d03d
000000d0: 71f8 66be c161 403e 8c4e d6bd 1713 00bf
000000e0: a15a 4bbe 6280 9fbe a668 15bc d67f 8fbd
000000f0: b9d2 2f3e aae4 553d 99bd 18be b843 69be
00000100: 869a b53d fd8f 863d 114e ad3e 2948 de3d
00000110: b4a8 d03d 9ec7 2abe be35 e03e 189d 7abd
00000120: cb2f 733e 46c9 b2bd 2d49 9fbe 372d 81bd
00000130: 14d1 b13c 5aa3 f5bd 426d 56bf b541 fe3b
00000140: 869c 81bd a6c3 883b 9d24 133e d4e6 4fbd
00000150: c6eb a2bc 4953 d23d 4080 a3bd 5583 82be
00000160: 3109 933d 783a a9bd 4e00 4e3e bd08 363e
00000170: 4d08 e1bb 1f27 023e d549 3fbf 6275 22be
00000180: d2bb 513e da9b 9fbd c746 2a3d ae6a e9be
00000190: 7e1b 0c3d c3c1 7b3e fdb9 f63d f423 ffbc
000001a0: 0a66 a63c f362 e9be 5a6a 53bd a626 663c
000001b0: a81c 9e3d 9681 91be 3656 51bc 11c6 483d
000001c0: 37aa 96be 5d45 80be e1d2 84bc 8f9d 28be
000001d0: e51c 9c3d e90f c83c 0add d5bd 778a 84be
000001e0: 9022 82be 3bdb 80bd fbeb f4bd 0ce4 3abe
000001f0: 9c35 b6bd e63d df3d 3906 743e d95b 50be
00000200: a702 11bd 90e2 1b3f 2bcb 083d d1ec f8bd
00000210: 200b b5bb 49da 133d 4fcc 203e edeb 7abd
00000220: c657 c7be 54a4 30bd 9824 123e bafd 833e
00000230: fb99 80bd c8fa ffbe 767a b43e 8c8f 5fbe
00000240: fe35 5d3e 074a f0bd 40c0 163c 2f80 31bd
00000250: c556 633e 593c 3c3e 8b5a 92bd 6b0b 0f3e
00000260: 2c2e b03e 6180 afbc 0cca 923e ce60 c8bd
00000270: 96dc 7ebc 2b8b 283e 1a98 dc3e a076 c53d
00000280: 7934 9b3c d472 0e3e 44a5 283e 2f9f 38be
00000290: b3dd 34bb 866e c03e b5d9 2f3d 594a c2bd
000002a0: ca3f 0d3e 9bdf 333d 448b 16be 2cd6 453d
000002b0: ae89 203d bddc 4a3d 5766 9a3e 29cf cbbe
000002c0: c666 75be 19a7 98be ff68 013e 2d92 9fbd
000002d0: db43 a3bd 5750 b93e 4e4c a7be 3336 92be
000002e0: 83fe c8bc 2eac 2bbd 5ba3 bc3e 6e20 24bd
000002f0: 0851 353e 99c7 ae3e 3da8 b83e 53b4 66be
00000300: 5dae 7ebe 5cb0 4dbe 93b4 b8be 500e 453f
00000310: 81a8 6cbd b620 553e d19d 95be ba51 14bd
00000320: 986e 2c3d 395a cd3e d29b 1b3f 34fd e7bd
00000330: 42a9 243d 3b5c 113f 24ce 153f a4b5 373e
00000340: c953 7abe dda1 173c d0d4 553e 0e59 d13c
00000350: e98e ffbd 27da 773e 35dc 553e 20e1 2c3e
00000360: e2d1 263d ebca dfbe fd1b 343e d247 873e
00000370: 68e8 3b3e ca66 c7bd c8a9 d03e 4d9a abbd
00000380: d1b2 07bf c6bb 11be f9a1 d3be 434f 283e
00000390: c560 e9bd a2b1 0a3f c276 bebe 54da ce3d
000003a0: 4998 bf3e 9201 213e 0ebd d03e 212c 5e3c
000003b0: d3d7 003f 8c7d 053d 38d3 b53e c975 b6bd
000003c0: 2d72 76bd 2670 91be 4534 203b aee3 88bd
000003d0: 6489 9f3c 4419 08be db3e 99bd 7f50 183e
000003e0: 4833 b5bd 0ff9 a1be 8aa2 3cbe c495 303e
000003f0: 88b4 4ebe 5cf0 7c3e f560 c03d a1a2 5c3e

parallel_cnn_block.branches.0.0.weight f4 [1, 1, 2]
-0.40954047 0.72843814
00000000: 4aaf d1be ec7a 3a3f

parallel_cnn_block.branches.0.2.bias f4 [16]
-0.20286871 0.38137195 -0.2110258 -1.1061575 -1.2903854 -0.6382288 -0.3389752 -0.08210689
-0.16596511 0.88502574 0.54019797 0.44588825 -0.002751078 0.5826471 0.0059605227 0.54768395
00000000: d1bc 4fbe 2f43 c33e 2617 58be 9296 8dbf
00000010: 592b a5bf f662 23bf 288e adbe a827 a8bd
00000020: c2f2 29be 0c91 623f 6a4a 0a3f 774b e43e
00000030: 6e4b 34bb 5c28 153f 7d50 c33b 0435 0c3f

parallel_cnn_block.branches.0.2.weight f4 [16, 1, 2]
-0.27267736 -0.37132436 -0.8319019 -0.2252542 -0.6287687 -0.06125547 0.08333206 0.28650463
0.48814368 -0.051685218 -0.10337515 0.6030092 0.25069052 -0.062319584 0.3259265 0.40206143
0.46598008 0.7712039 -0.6043135 0.32435626 -0.0024291577 -0.13350354 0.06437347 -0.015680203
0.69564205 -0.6851607 0.42231306 -0.63633066 -0.68789726 0.63583946 -0.25282472 0.09967479
00000000: 5e9c 8bbe 3a1e bebe 86f7 54bf 09a9 66be
00000010: fcf6 20bf 04e7 7abd 00aa aa3d bcb0 923e
00000020: f8ed f93e e1b3 53bd 5ab6 d3bd d05e 1a3f
00000030: 825a 803e d242 7fbd d7df a63e ffda cd3e
00000040: f194 ee3e 9e6d 453f 4ab4 1abf 0612 a63e
00000050: 8132 1fbb 27b5 08be 3dd6 833d c573 80bc
00000060: 9915 323f b166 2fbf 6b39 d83e 91e6 22bf
00000070: 091a 30bf 60c6 223f 3e72 81be 4c22 cc3d

parallel_cnn_block.branches.1.0.weight f4 [1, 1, 4]
-0.07286008 0.06268077 0.6004772 0.3994845
00000000: aa37 95bd c75e 803d e0b8 193f 3b89 cc3e

parallel_cnn_block.branches.1.2.bias f4 [32]
0.09197634 0.5656594 0.5429623 -0.12189007 -0.19024628 -0.6529387 -0.054058965 0.42595258
0.005792799 -0.002252539 0.8968526 0.6532045 0.4244472 -0.442515 -0.534173 0.20718654
-1.55395 0.28130922 -0.13853852 0.12800893 -0.16704315 0.47826606 -0.55604655 0.16232009
-0.66137046 -0.14631246 -0.23579371 -0.018081091 0.038859364 0.2618895 -0.35419422 0.020840637
00000000: 175e bc3d 0ecf 103f 94ff 0a3f 80a1 f9bd
00000010: eccf 42be fe26 27bf ef6c 5dbd 7516 da3e
00000020: 85d1 bd3b 559f 13bb 2298 653f 6938 273f
00000030: 2551 d93e 5391 e2be 90bf 08bf b528 543e
00000040: d5e7 c6bf c307 903e 0bdd 0dbe c614 033e
00000050: 5c0d 2bbe 4adf f43e 1159 0ebf 3d37 263e
00000060: 934f 29bf efd2 15be e873 71be cc1e 94bc
00000070: ff2a 1f3d 6116 863e f258 b5be fcb9 aa3c

parallel_cnn_block.branches.1.2.weight f4 [32, 1, 4]
0.1606077 0.27997217 -0.11313751 -0.35100424 0.074916705 -0.43167868 -0.111282915 0.3347859
-0.5731644 -0.32129234 -0.63500583 -0.090468764 0.37927303 -0.525009 0.14791435 0.27776465
0.09596503 0.3345892 -0.4068012 -0.8245537 -0.48094463 0.07602078 -0.2700799 0.36605895
0.30297643 0.30066025 0.34802586 -0.098848075 0.03978658 -0.562426 0.15985182 0.07453595
-0.11951116 0.5038829 0.39808783 0.07747419 -0.093045026 -0.4827529 0.35598055 0.3735462
-0.5013512 -0.10461761 0.5243012 -0.0050743483 -0.42538255 0.09746996 -0.353053 0.38312355
0.014639919 0.41436458 -0.38562733 -0.6741755 0.36911178 0.4276557 -0.19505079 -0.4550058
0.3539583 0.33352396 -0.22374561 -0.25865287 0.41050297 -0.18738388 -0.34895486 0.12087898
0.054509033 0.12834246 -0.31316444 0.29600155 -0.13283752 0.33250836 -0.45264766 0.12765728
-0.08590354 -0.09826766 0.08933884 0.14906459 0.22982648 0.5002612 0.35977173 0.18571469
-0.31705505 -0.2084356 -0.22454113 -0.45641613 -0.29016638 0.15930463 -0.22508195 0.052613273
-0.54290843 -0.017037364 0.44866678 0.15679574 0.38378012 -0.091476604 -0.23261613 -0.2659851
-0.365007 0.10411721 0.44003612 -0.05848696 -0.45879927 0.058990844 0.3666506 0.36726955
-0.9190153 0.2759099 -0.06557842 0.18199931 0.31219682 -0.14571062 -0.026998078 0.00076789
-0.17849848 0.22704706 -0.3247819 0.34746665 -0.031405 0.6086831 -0.5509071 -0.6424297
-0.32688224 -0.068430126 -0.0006918907 -0.47238857 0.18321618 0.48223382 -0.4119317 -0.29727665
00000000: 5876 243e 8358 8f3e a4b4 e7bd d4b6 b3be
00000010: ee6d 993d fd04 ddbe 4ce8 e3bd 0f69 ab3e
00000020: e7ba 12bf 6e80 a4be be8f 22bf b047 b9bd
00000030: 1330 c23e fd66 06bf dc76 173e 2b37 8e3e
00000040: 5089 c43d 474f ab3e 3f48 d0be f415 53bf
00000050: 603e f6be c8b0 9b3d ea47 8abe 146c bb3e
00000060: ba1f 9b3e 24f0 993e 7230 b23e dc70 cabd
00000070: 41f7 223d 26fb 0fbf 32b0 233e 4ea6 983d
00000080: 44c2 f4bd 78fe 003f 2bd2 cb3e caaa 9e3d
00000090: 648e bebd 632b f7be 1543 b63e 7341 bf3e
000000a0: 8d58 00bf c241 d6bd 9a38 063f b846 a6bb
000000b0: becb d9be 559e c73d 5dc3 b4be c528 c43e
000000c0: 45dc 6f3c 9827 d43e f270 c5be c496 2cbf
000000d0: 38fc bc3e b0f5 da3e 65bb 47be 85f6 e8be
000000e0: 063a b53e a7c3 aa3e 921d 65be 266e 84be
000000f0: 722d d23e 8fe1 3fbe 36aa b2be 668f f73d
00000100: dd44 5f3d 356c 033e 1757 a0be 848d 973e
00000110: 8f06 08be 893e aa3e 6fc1 e7be 97b8 023e
00000120: 32ee afbd 8e40 c9bd 48f7 b63d 63a4 183e
00000130: a257 6b3e 1e11 003f 0034 b83e fe2b 3e3e
00000140: 0a55 a2be 2470 55be 1cee 65be 60af e9be
00000150: b090 94be c120 233e e27b 66be 0481 573d
00000160: 0cfc 0abf f191 8bbc a7b7 e53e 108f 203e
00000170: d47e c43e 1658 bbbd ec32 6ebe 332f 88be
00000180: 33e2 babe 673b d53d 6a4c e13e 0690 6fbd
00000190: bde7 eabe 62a0 713d a1b9 bb3e c10a bc3e
000001a0: 9644 6bbf 1044 8d3e fb4d 86bd 075e 3a3e
000001b0: 43d8 9f3e 2a35 15be 132b ddbc 3a4c 493a
000001c0: 4ec8 36be 067f 683e d049 a6be 26e7 b13e
000001d0: 87a2 00bd a8d2 1b3f 3f08 0dbf 4676 24bf
000001e0: 1c5d a7be 1825 8cbd 0060 35ba eadc f1be
000001f0: 069d 3b3e 5ae7 f63e b6e8 d2be a534 98be

parallel_cnn_block.branches.2.0.weight f4 [1, 1, 8]
-0.5700795 -0.3156014 0.03080666 0.60452324 0.059301753 -0.13174112 0.40403244 -0.074037716
00000000: bbf0 11bf 8296 a1be 405e fc3c 09c2 1a3f
00000010: 65e6 723d 25e7 06be 57dd ce3e 16a1 97bd

parallel_cnn_block.branches.2.2.bias f4 [64]
0.19475189 0.06486841 -0.62147343 0.20492342 0.079579934 -0.09927033 -0.18215254 0.21829735
0.029358458 -1.0574813 -0.045487348 0.23432268 0.06552687 -1.0273875 -0.06669916 -0.07608051
0.017468987 -1.0345699 -1.702792 0.32189205 0.535704 -0.2497281 0.5228274 0.40341794
-0.19859956 0.6894666 -0.16900542 -0.1331681 -0.012305456 -0.035048872 -0.050600458 -0.74285996
-0.031977016 -0.08541186 0.17409904 0.14915788 0.00028546367 -0.61458796 0.47862944 0.16307211
0.09535152 -1.7074386 -0.10870289 -0.073176384 0.052937694 -0.03813465 0.28275484 -0.0307105
0.025273083 0.27092806 0.40575624 -1.2583885 0.069657296 0.3254108 -0.03286218 0.3625549
0.28316087 0.3451189 0.023020223 -0.038065862 0.022031382 0.107633024 -1.1014392 -0.06937314
00000000: 0a6d 473e bbd9 843d e218 1fbf 72d7 513e
00000010: cefa a23d 3e4e cbbd 3286 3abe 5789 5f3e
00000020: 2681 f03c 8c5b 87bf f150 3abd 49f2 6f3e
00000030: f432 863d 6f81 83bf 9299 88bd 19d0 9bbd
00000040: 1f1b 8f3c c96c 84bf 17f5 d9bf 09cf a43e
00000050: e623 093f b9b8 7fbe 04d8 053f cc8c ce3e
00000060: af5d 4bbe e280 303f c20f 2dbe 385d 08be
00000070: d39c 49bc 688f 0fbd 6d42 4fbd 122c 3ebf
00000080: 55fa 02bd 6aec aebd 0547 323e d8bc 183e
00000090: 49aa 9539 a355 1dbf eb0e f53e 60fc 263e
000000a0: a847 c33d 598d dabf 9f9f debd 80dd 95bd
000000b0: 32d5 583d 1433 1cbd 3ec5 903e 9694 fbbc
000000c0: 7f09 cf3c 15b7 8a3e 48bf cf3e e012 a1bf
000000d0: 7ca8 8e3d 3f9c a63e 7e9a 06bd cca0 b93e
000000e0: 76fa 903e 6db3 b03e e894 bc3c f3ea 1bbd
000000f0: 287b b43c b46e dc3d f6fb 8cbf 8113 8ebd

parallel_cnn_block.branches.2.2.weight f4 [64, 1, 8]
0.15440287 0.01141813 0.21974128 -0.7917917 0.40032172 0.0017518413 0.091825314 -1.4277838
-0.16370629 0.08014276 -0.58569634 0.18105628 0.08372235 0.1250781 0.076795675 0.2897193
0.35733584 -0.04525581 -0.11580742 0.023928171 0.5293257 0.08939479 0.04314284 -0.1373023
0.24196115 -0.102951154 0.071601264 -0.09222989 -0.32855868 0.0034505136 -0.21151544 0.2505955
-0.76661766 -0.015575696 0.13527305 0.5515054 -0.1105855 0.32559285 -0.14994897 -0.5082325
0.18930453 -0.21831633 -0.5819059 0.43870232 0.6532196 0.2118986 -0.2696516 0.14915499
0.49867553 0.37529886 0.4520586 0.37600777 0.66026443 0.38405246 0.1918016 0.18994126
-0.1644248 0.09918793 -0.18778433 0.022999248 -0.22244568 0.12096957 0.07119119 0.0255383
-0.16711369 0.55735767 0.3507188 -0.36542058 -0.9784575 0.33958367 0.048821636 -0.08689651
0.56965715 -0.31637833 0.051140863 0.0829092 0.032898627 -0.17698464 -0.08039995 -0.0051461123
0.5623854 -0.31022328 -0.42513672 0.47240224 -0.17847458 -0.0694518 0.12204694 -0.33288246
0.11520046 0.06963269 -0.09300697 0.054039933 -0.35805708 -0.05318682 -0.1667769 -0.056157228
-0.8845266 -0.047000445 0.25235954 0.11134835 0.6211513 0.047034055 -0.053475134 -0.33232236
0.05915732 0.17745699 0.57620156 0.52873915 0.120911285 -0.56601334 -0.35864213 -0.057805225
-0.23209965 0.28636914 0.32595697 0.05036908 0.40953943 0.38050646 -0.54785305 -0.34463367
0.036375895 0.16051106 0.13616852 0.1467884 0.07260467 -0.18784426 0.24007432 0.11131056
-1.0367038 0.50442255 -0.29927078 -0.053419698 0.39197695 0.22084334 -0.027261546 0.33627877
0.10652688 0.039790154 0.3893996 -0.030146323 -0.7166286 0.15157174 -0.1206943 0.2887046
0.110434845 0.27362823 0.007415739 0.15903352 -0.18749239 0.3048429 -0.12120451 0.15107433
-0.13481693 0.39869165 -0.06474643 -0.19773377 0.06713113 -0.3675379 0.15517971 -0.26772
0.27455628 -0.21315941 0.048901442 0.23716463 -0.2603408 -1.1808563 -0.9041606 -0.560099
0.116921365 -0.18329853 -0.005059525 -0.0615923 0.702305 0.40055454 0.33045694 0.056146648
0.24095339 -0.32209143 0.16423275 0.32091486 -0.30612406 0.13406448 -0.89592636 -0.525882
0.23204729 -0.045108773 0.47786006 0.113788456 -0.25892538 -0.42709565 -1.2824244 0.26756886
0.47201046 0.23520191 0.5050425 0.43768215 0.7205935 0.4969712 0.30408236 0.24285801
-0.30218628 -0.24348864 -0.40714806 -0.36072487 -0.13397759 -0.11865609 -0.4522458 0.33632305
0.23197033 0.34172946 -0.36154142 -0.52925754 -0.08190515 0.42632136 0.37176389 0.4997671
0.44686076 -0.12720726 -0.78518593 0.6517197 0.25156945 -0.017474022 0.16352619 0.12088996
0.059845652 -0.085290335 0.09078624 0.25030372 0.2980741 -0.26564202 0.28256986 0.031973083
-0.052334476 0.05395319 0.18102904 -0.30968863 0.5540783 0.20592906 -0.6786311 -0.035798937
0.45787898 -0.03925247 0.39858946 0.09864684 0.25848287 -0.23892806 0.3013442 -0.110832386
0.11231393 0.039818585 0.330036 -0.30595022 0.07595746 0.40154615 0.16116937 0.5213788
00000000: c91b 1e3e 1c13 3b3c dc03 613e dcb2 4abf
00000010: f8f6 cc3e 0a9e e53a e90e bc3d 9fc1 b6bf
00000020: 9fa2 27be e321 a43d 32f0 15bf d166 393e
00000030: a076 ab3d 7914 003e 0d47 9d3d 1756 943e
00000040: b9f4 b63e 285e 39bd 712c edbd 0305 c43c
00000050: e481 073f 9e14 b73d 8cb6 303d f998 0cbe
00000060: aac4 773e 0ed8 d2bd afa3 923d 06e3 bcbd
00000070: d838 a8be 0322 623b 8197 58be 0e4e 803e
00000080: 0e41 44bf 3431 7fbc 0585 0a3e 752f 0d3f
00000090: a77a e2bd 1bb4 a63e 398c 19be 861b 02bf
000000a0: 0cd9 413e 518e 5fbe c9f7 14bf 979d e03e
000000b0: 6639 273f f2fb 583e c60f 8abe 16bc 183e
000000c0: 6652 ff3e 2c27 c03e 3a74 e73e 1784 c03e
000000d0: 1707 293f 86a2 c43e a367 443e f67f 423e
000000e0: fa5e 28be 0b23 cb3d 894a 40be eb68 bc3c
000000f0: cdc8 63be e5be f73d b0cc 913d b235 d13c
00000100: da1f 2bbe feae 0e3f 6a91 b33e 6818 bbbe
00000110: 317c 7abf e9dd ad3e 32f9 473d ccf6 b1bd
00000120: 0dd5 113f 57fc a1be 1579 513d 4ccc a93d
00000130: b6c0 063d 763b 35be bba8 a4bd b8a0 a8bb
00000140: 7df8 0f3f 96d5 9ebe 85ab d9be b5de f13e
00000150: 0ac2 36be bf3c 8ebd bff3 f93d 926f aabe
00000160: 38ee eb3d 959b 8e3d 707a bebd fa58 5d3d
00000170: 4253 b7be 6cda 59bd 90c7 2abe 1f05 66bd
00000180: 5670 62bf 8a83 40bd 4535 813e 9b0a e43d
00000190: c603 1f3f c8a6 403d be08 5bbd 2826 aabe
000001a0: f24e 723d 49b7 353e f281 133f 735b 073f
000001b0: 56a0 f73d 40e6 10bf f19f b7be 2cc5 6cbd
000001c0: 88ab 6dbe fa9e 923e d5e3 a63e cf4f 4e3d
000001d0: 27af d13e bed1 c23e 1940 0cbf d373 b0be
000001e0: e4fe 143d 035d 243e c36f 0b3e b34f 163e
000001f0: c2b1 943d 3f5a 40be 0bd6 753e caf6 e33d
00000200: b6b2 84bf d621 013f 053a 99be 9dce 5abd
00000210: 34b1 c83e c224 623e 9b53 dfbc bb2c ac3e
00000220: c42a da3d 00fb 223d 625f c73e 6cf5 f6bc
00000230: f974 37bf 9f35 1b3e 932e f7bd 17d1 933e
00000240: aa2b e23d 0019 8c3e baff f23b afd9 223e
00000250: 01fe 3fbe 5e14 9c3e 123a f8bd 3bb3 1a3e
00000260: 730d 0abe 5021 cc3e c799 84bd b97a 4abe
00000270: 0c7c 893d ed2d bcbe 6ee7 1e3e 9912 89be
00000280: a492 8c3e 7646 5abe e14c 483d 49db 723e
00000290: 644b 85be 4d26 97bf 1277 67bf a662 0fbf
000002a0: 7874 ef3d 9cb2 3bbe 5fca a5bb 3548 7cbd
000002b0: 43ca 333f 7c15 cd3e a731 a93e 07fa 653d
000002c0: 7cbc 763e 2be9 a4be a12c 283e f44e a43e
000002d0: 4bbc 9cbe 3348 093e 6e5b 65bf 34a0 06bf
000002e0: ce9d 6d3e fac3 38bd 13aa f43e ec09 e93d
000002f0: de91 84be 48ac dabe 7c26 a4bf c9fe 883e
00000300: 5bab f13e c5d8 703e 774a 013f e017 e03e
00000310: d178 383f 0273 fe3e afb0 9b3e c5af 783e
00000320: 29b8 9abe 1655 79be b675 d0be eeb0 b8be
00000330: 6c31 09be f701 f3bd c38c e7be 8932 ac3e
00000340: a189 6d3e 2af7 ae3e f51b b9be 6c7d 07bf
00000350: e3bd a7bd cb46 da3e d657 be3e 79e1 ff3e
00000360: efca e43e 9f42 02be f201 49bf 1ad7 263f
00000370: b6cd 803e ae25 8fbc 6973 273e 2895 f73d
00000380: b720 753d b3ac aebd 23ee b93d cf27 803e
00000390: 2b9d 983e 3b02 88be ffac 903e 35f6 023d
000003a0: ad5c 56bd 05fe 5c3d ad5f 393e 828f 9ebe
000003b0: 13d8 0d3f 11df 523e c5ba 2dbf e8a1 12bd
000003c0: 1d6f ea3e 33c7 20bd eb13 cc3e 5b07 ca3d
000003d0: de57 843e 8fa9 74be c949 9a3e 17fc e2bd
000003e0: d904 e63d d018 233d 7bfa a83e 82a5 9cbe
000003f0: 968f 9b3d 7597 cd3e 9509 253e 1579 053f

parallel_cnn_block.branches.3.0.weight f4 [1, 1, 32]
-0.07074453 0.029020665 -0.01894174 0.047532897 -0.098240934 0.08796917 0.2705453 0.13939872
0.22102723 0.12802312 0.38527158 0.21486121 0.11826987 -0.033191472 -0.25656536 0.06461838
0.03225846 0.1852299 0.070200756 0.22967681 0.39243263 0.22922224 0.14774433 0.07236594
-0.12597191 0.017055688 -0.01005 -0.03567765 0.029625133 -0.004417621 0.03437041 -0.04365196
00000000: 82e2 90bd bfbc ed3c b52b 9bbc dbb1 423d
00000010: 8b32 c9bd 2e29 b43d ea84 8a3e 8abe 0e3e
00000020: f654 623e 7e18 033e 5142 c53e 9404 5c3e
00000030: 7937 f23d c8f3 07bd 895c 83be a456 843d
00000040: 7221 043d e8ac 3d3e 6ac5 8f3d 6630 6b3e
00000050: eeec c83e 3cb9 6a3e 4a4a 173e 9834 943d
00000060: c8fe 00be 5fb8 8b3c c1a8 24bc ba22 12bd
00000070: 68b0 f23c b1c1 90bb fdc7 0c3d 66cc 32bd

parallel_cnn_block.branches.3.2.bias f4 [16]
0.26360026 0.11416479 0.4252255 0.4069455 0.8300466 0.49759215 0.2943634 0.29034457
0.23287 0.53531367 0.6027174 -0.63032454 0.026089914 0.5704885 0.036325745 0.26394916
00000000: 9df6 863e 3bcf e93d 28b7 d93e 295b d03e
00000010: ef7d 543f 66c4 fe3e cdb6 963e 0ba8 943e
00000020: 7975 6e3e 510a 093f b04b 1a3f f35c 21bf
00000030: 84ba d53c 890b 123f 4eca 143d 5824 873e
