remade/narrow/modelpars_narrow_i_48.safetensors (safetensors, 86584 bytes, 32 tensors)

bilstm.bias_hh_l0 f4 [64]
0	0xbf2dcf29	-0.67894226
1	0xbe5727ad	-0.21011229
2	0x3d98ebb7	0.07466834
3	0xbdba0610	-0.090831876
4	0x3da74d37	0.081690244
5	0xbf0736b3	-0.5281784
6	0xbdc13c48	-0.09435326
7	0x3e019380	0.12653923
8	0x3cbb4b51	0.022863062
9	0xbe17aaad	-0.14811201
10	0xbd90723f	-0.07053041
11	0xbe0a171c	-0.13485378
12	0xbe8a08ec	-0.26959932
13	0xbe47b2ef	-0.19501851
14	0x3e8a73ae	0.27041382
15	0xbd6c7ae6	-0.057734393
16	0x3e8a893d	0.2705783
17	0xbce50393	-0.027955806
18	0x3e8fe158	0.2810161
19	0xbdcffe72	-0.101559535
20	0xbd29f483	-0.04149295
21	0x3e1dc81d	0.15408368
22	0x3e5afa3c	0.2138452
23	0x3d89f86d	0.067368366
24	0x3d98e452	0.07465424
25	0x3d132a88	0.035929233
26	0x3e9836a4	0.29729187
27	0xbd9787ef	-0.07398974
28	0xbe3603c6	-0.17774877
29	0x3de661e4	0.1124914
30	0x3e8a1dd3	0.2697588
31	0xbc91133f	-0.017709373
32	0xbaae21df	-0.0013285241
33	0xbe4150de	-0.18878505
34	0xbd83e90e	-0.06440936
35	0xbe175bd2	-0.1478112
36	0xba246f6c	-0.00062727067
37	0x3d75873d	0.059943426
38	0xbe53ad0f	-0.20671485
39	0x3cd753b8	0.026285037
40	0x3e126a25	0.14298303
41	0x3e4946b6	0.1965588
42	0xbdd1a329	-0.102361985
43	0xbe21304e	-0.15741083
44	0x3dc24cf5	0.09487335
45	0x3e2b8761	0.16750862
46	0xbe494047	-0.19653426
47	0x3dc128af	0.09431588
48	0xbe20947c	-0.15681642
49	0x3eabc762	0.33550555
50	0x3e5ef773	0.21774082
51	0x3dfa2693	0.12214389
52	0xbe03f60c	-0.12886828
53	0x3de5c6a5	0.11219529
54	0x3e9e0e77	0.3087041
55	0x3d818dc5	0.063258685
56	0x3c78439f	0.015152841
57	0xbeb18533	-0.34671935
58	0xbdaea3e5	-0.08527354
59	0x3d6e737d	0.058215607
60	0x3e8c5034	0.2740494
61	0xba9ece38	-0.0012115901
62	0x3e4dc723	0.20095496
63	0x3e556a8e	0.20841429

bilstm.bias_hh_l0_reverse f4 [64]
0	0xbe0326c3	-0.12807755
1	0xbd6e7fa4	-0.058227196
2	0xbebd21de	-0.369399
3	0x3e87686c	0.26446855
4	0x3ea07a5f	0.31343362
5	0x3eae5d66	0.34055632
6	0xbe92b0b3	-0.28650436
7	0x3e51d641	0.20491888
8	0xbcc07e6c	-0.023497783
9	0x3e74e8f2	0.23916987
10	0xbd52a09b	-0.051422697
11	0xbbf40907	-0.007447365
12	0x3e21a22a	0.15784517
13	0x3e3e8088	0.18603718
14	0xbde7c4ad	-0.1131681
15	0xbea137e2	-0.31487948
16	0x3c3fc262	0.011704059
17	0x3dff1681	0.12455464
18	0xbe5c3b10	-0.21506906
19	0x3e0d0104	0.13769919
20	0x3d0ff120	0.035142064
21	0x3e0f6cf2	0.14006403
22	0x3eadd21a	0.33949357
23	0xbc3b2105	-0.011421447
24	0x3d8f8159	0.07007093
25	0x3e1c290f	0.15250038
26	0x3dc13065	0.09433059
27	0x3ead705e	0.33874792
28	0x3e34af05	0.1764489
29	0x3cc38b41	0.023870112
30	0xbe532867	-0.20620881
31	0x3e5518dd	0.20810266
32	0xbe8770af	-0.26453158
33	0x3d8a645b	0.067574225
34	0xbe132b4d	-0.14371987
35	0x3e201b21	0.15635349
36	0xbdcdf858	-0.100571334
37	0x3e15b630	0.1462028
38	0xbe07e7f1	-0.13272072
39	0x3dc09457	0.094032936
40	0xbe07d3bf	-0.13264368
41	0xbe7bf831	-0.24606396
42	0xbe423fff	-0.18969725
43	0xbd6f6a5d	-0.058451045
44	0xbe009d41	-0.12559988
45	0xbe0f895c	-0.14017242
46	0x3c9378df	0.018001972
47	0x3d62a70a	0.055335082
48	0xbdea8c8c	-0.114525884
49	0x3c95abbe	0.01827037
50	0xba79ae30	-0.0009524552
51	0x3e5e1461	0.21687461
52	0x3e8f35bf	0.27970693
53	0x3e1f39b9	0.15549363
54	0x3e0db5ec	0.13838929
55	0xbe245b50	-0.16050458
56	0xbd8c478d	-0.06849585
57	0x3dd4aa6c	0.10384068
58	0x3e436370	0.19080901
59	0x3dea439f	0.11438679
60	0x3e577b8f	0.21043228
61	0x3dc263fc	0.09491727
62	0xbe8d2e4e	-0.2757439
63	0xbe02afb1	-0.12762333

bilstm.bias_ih_l0 f4 [64]
0	0xbe9b1402	-0.30288702
1	0xbe29c117	-0.16577564
2	0x3ea99921	0.3312464
3	0x3d2f8b65	0.042857546
4	0x3e82f013	0.25573787
5	0xbec569a9	-0.38557175
6	0x3e94a8af	0.29034945
7	0x3df5c39f	0.120002024
8	0x3ea699a7	0.32539102
9	0xbecd2af9	-0.40071848
10	0xbe9335cd	-0.28751984
11	0xbf05f276	-0.5232309
12	0xbcd527d2	-0.026019964
13	0xbe5abf9f	-0.2136216
14	0x3ee65446	0.4498617
15	0x3d4db4ae	0.050221138
16	0x3dbc0457	0.09180515
17	0x3ea9d65b	0.33171353
18	0xbd003f68	-0.03131047
19	0x3e94fd69	0.29099587
20	0xbe4ed759	-0.20199336
21	0x3db485ae	0.0881456
22	0x3e11e4be	0.14247414
23	0xbda96291	-0.08270753
24	0x3e9c8e42	0.30577284
25	0xbb4a7f69	-0.0030898696
26	0x3d231c74	0.039822057
27	0xbdf739c3	-0.12071564
28	0x3e79fc39	0.24412622
29	0xbe846ab7	-0.25862667
30	0x3e49f761	0.19723274
31	0x3c3028b2	0.01075189
32	0xbdc7103b	-0.097198926
33	0xbe2270b8	-0.15863311
34	0xbdaa7b6a	-0.083243206
35	0xbd5e0e8d	-0.054213095
36	0x3d6205d8	0.055181354
37	0x3e8c3f28	0.27391934
38	0x3df6f73d	0.12058876
39	0xbe398483	-0.18116955
40	0xbc8ec9e9	-0.017430263
41	0x3e66f67a	0.22554961
42	0x3e9469a9	0.28986862
43	0x3d527bd4	0.051387623
44	0xbe32a6f8	-0.17446506
45	0x3c980edc	0.018561773
46	0xbc13cfef	-0.009021743
47	0x3df94104	0.12170604
48	0xbe4de4e2	-0.20106843
49	0x3d38dc9a	0.045132257
50	0x3e1a0e75	0.15044577
51	0xbd9e908a	-0.077424124
52	0xbe43ed02	-0.1913338
53	0xbe5476da	-0.20748463
54	0xbc9d55e6	-0.019205999
55	0xbc5dfca9	-0.013549008
56	0x3de1acf2	0.11019315
57	0xbdf2264e	-0.11823712
58	0xbdf0026b	-0.11719211
59	0x3e094acc	0.13407439
60	0x3e907655	0.2821528
61	0xbe17168d	-0.14754696
62	0x3e403a8d	0.18772335
63	0x3e823549	0.25431278

bilstm.bias_ih_l0_reverse f4 [64]
0	0x3d8d64bd	0.0690398
1	0x3e249a3e	0.16074464
2	0xbe084f16	-0.13311419
3	0x3b9e5c6c	0.004832795
4	0x3e9b3ff2	0.30322224
5	0x3e103243	0.14081673
6	0xbe515f95	-0.20446618
7	0xbccfe8f6	-0.02537964
8	0xbe0a954f	-0.13533519
9	0x3dc591f2	0.096469775
10	0xbe1e06f3	-0.15432338
11	0xbde23c1b	-0.110466205
12	0x3daa6903	0.08320811
13	0x3d530ceb	0.05152599
14	0xbde17afd	-0.11009786
15	0xbda83860	-0.08213878
16	0x3ddefdd8	0.108882606
17	0x3dcf2247	0.1011396
18	0xbe244cc0	-0.16044903
19	0x3cefa971	0.0292556
20	0x3cd2ecb4	0.025747634
21	0xbe09f9e8	-0.13474238
22	0xbd649efd	-0.055815686
23	0x3dfab56d	0.122416355
24	0x3cdb8665	0.026797483
25	0x3e06431f	0.13111542
26	0x3dbfbf1f	0.09362625
27	0x3eaa1fa4	0.33227265
28	0x3e577c8f	0.21043609
29	0x3d83a62b	0.064281784
30	0x3d540229	0.051759873
31	0x3e66bd7f	0.22533225
32	0xbe8423cf	-0.2580857
33	0x3e25615d	0.16150422
34	0xbd8dbd5c	-0.06920883
35	0x3d389c12	0.045070715
36	0x3e92a9c3	0.28645143
37	0x3d4c48ee	0.04987424
38	0xba4afd25	-0.000774341
39	0xbea0660b	-0.31327853
40	0x3d0c766f	0.034292635
41	0xbdf6956b	-0.12040218
42	0x3e064b55	0.13114674
43	0xbd4c7b99	-0.04992256
44	0xbdb74c87	-0.08950143
45	0xbd9eea0a	-0.07759483
46	0x3ea85f66	0.32885283
47	0x3df72449	0.12067468
48	0xbe8f5578	-0.27994895
49	0xbcc46d25	-0.023977825
50	0x3d1689fd	0.03675269
51	0x3ebee2ba	0.37282354
52	0x3e979d67	0.29612276
53	0xbe0f7d99	-0.14012755
54	0xbe60f406	-0.21968088
55	0xbe339550	-0.17537427
56	0x3eacfbbe	0.33785814
57	0x3e01a006	0.126587
58	0xbe0c9074	-0.1372698
59	0x3ec9e0e3	0.39429387
60	0x3cfe187c	0.031017534
61	0xbe1a9a15	-0.1509784
62	0xbe19499f	-0.1496949
63	0xbe87f3c8	-0.26553178

bilstm.weight_hh_l0 f4 [64, 16]
0	0xbe8bec17	-0.2732856
1	0x3da8daf2	0.082448855
2	0x3e682018	0.22668493
3	0x3dfe4620	0.12415719
4	0xbe862bdb	-0.26205334
5	0x3e1b8a0e	0.15189382
6	0xbee2e485	-0.44314972
7	0x3ebb7a88	0.3661692
8	0x3e0a18fc	0.13486093
9	0x3ab1a396	0.0013552781
10	0xbdac787d	-0.08421419
11	0xbc68125d	-0.014164534
12	0xbe87f73e	-0.26555818
13	0xbcc7d558	-0.024393722
14	0xbdccdaca	-0.10002668
15	0x3e5e3092	0.21698216
16	0x3cf31af8	0.029675946
17	0xbeb9d009	-0.3629153
18	0xbec32b70	-0.38119078
19	0xbd8c1264	-0.06839445
20	0xbcaf6f71	-0.021415444
21	0xbdee509a	-0.11636467
22	0x3ef6f717	0.4823539
23	0xbd927fc2	-0.07153274
24	0x3e69736c	0.22797936
25	0x3eabba97	0.33540794
26	0xbe9c26c1	-0.30498317
27	0x3db6e56d	0.08930478
28	0x3ef9aded	0.48765507
29	0x3d6024e7	0.054722693
30	0xbd40f4e5	-0.04710855
31	0xbebb6cd4	-0.36606467
32	0xbe83880a	-0.25689727
33	0xbd98382c	-0.07432589
34	0x3d669db5	0.056302745
35	0xbd404bd5	-0.04694732
36	0xbd852b1a	-0.065023616
37	0x3e83c4bf	0.25736043
38	0x3d701963	0.05861796
39	0x3cab936d	0.020944322
40	0xbd413925	-0.047173638
41	0xbcd0f5af	-0.025507776
42	0x3e32d0a8	0.17462409
43	0x3cb01e53	0.021498835
44	0x3e4e3a25	0.20139368
45	0x3d1cfe6d	0.038328577
46	0xbe0e3b02	-0.13889697
47	0x3dd34ce8	0.10317403
48	0x3e2b082e	0.16702339
49	0xbe7e7ebc	-0.24853033
50	0xbdb319e1	-0.087451704
51	0xbddbdae8	-0.107351124
52	0xbdfa6488	-0.12226206
53	0xbdec54cf	-0.115396135
54	0x3e2421d4	0.1602853
55	0xbe6bb839	-0.23019494
56	0xbf690a5d	-0.9103144
57	0x3cce4f8c	0.025184415
58	0x3d0ed151	0.03486759
59	0xbda8d8a5	-0.08244447
60	0x3e868fde	0.26281637
61	0xbece8f5b	-0.40343747
62	0xbe014477	-0.12623774
63	0x3cf72b88	0.030172125
64	0xbe0a81ea	-0.13526121
65	0x3f0b4597	0.5440306
66	0xbe496ee7	-0.19671212
67	0xbdd6d29b	-0.104893886
68	0xbcb3cdbd	-0.02194869
69	0xbe989409	-0.29800442
70	0xbefd503b	-0.49475273
71	0x3f0ee292	0.5581447
72	0x3e43a780	0.19106865
73	0x3e386656	0.18007788
74	0x3d9c3708	0.07627684
75	0xbe2b2642	-0.16713813
76	0xbecf4015	-0.40478578
77	0xbc02bf29	-0.007980146
78	0x3e869cf2	0.26291615
79	0x3ee3f10b	0.4451984
80	0xbd758d9b	-0.0599495
81	0xbe965f30	-0.29369497
82	0x3ca27541	0.019831302
83	0x3d8bbddb	0.068233214
84	0x3d46e642	0.048559435
85	0x3e9b3386	0.30312747
86	0xbd91316d	-0.07089505
87	0x3ec814fe	0.39078516
88	0xbe1c0a61	-0.15238334
89	0xbd08fe6e	-0.033445768
90	0xbe63df08	-0.22253048
91	0xbd941f90	-0.072325826
92	0x3e16eba7	0.14738332
93	0xbda72ddc	-0.08163044
94	0xbe2e5054	-0.1702283
95	0xbd81eaff	-0.0634365
96	0xbe34236e	-0.1759164
97	0x3ea8de18	0.32981944
98	0x3e79ed19	0.24406852
99	0xbe574269	-0.21021427
100	0x3cd871ca	0.026421446
101	0x3e792378	0.24329937
102	0xbdb5038d	-0.08838568
103	0x3ee62241	0.4494801
104	0xbd0bfefe	-0.034178726
105	0xbd6ba091	-0.057526175
106	0x3d9d43b3	0.07678928
107	0x3c90ea26	0.017689776
108	0xbed77b73	-0.42086372
109	0x3e506f32	0.20354918
110	0x3ebb6d94	0.3660704
111	0x3f2f4c18	0.68475485
112	0x3d5c184e	0.053734116
113	0xbe1e5aec	-0.15464371
114	0x3e90da23	0.28291425
115	0xbdf92f0b	-0.12167176
116	0xbbd4aed0	-0.006490566
117	0xbe55a084	-0.20862013
118	0x3e6e2650	0.23256803
119	0xbd13775c	-0.0360025
120	0xbd87138e	-0.06595527
121	0xbe287c30	-0.16453624
122	0x3e3ae756	0.1825231
123	0xbdbec0a9	-0.09314091
124	0xbe287f2d	-0.16454764
125	0xbe45af02	-0.19305041
126	0x3bb3ddc3	0.0054890825
127	0x3df78047	0.12085014
128	0xbe8c61b6	-0.27418298
129	0x3ed989ce	0.4248795
130	0x3e43d85e	0.19125506
131	0x3df1c6fc	0.118055314
132	0xbee3ed21	-0.44516852
133	0x3da3f027	0.0800479
134	0xbee8b4fc	-0.4545058
135	0x3e7699e4	0.24082142
136	0xbe88ef4e	-0.26745075
137	0x3dc42a0d	0.09578333
138	0x3e907895	0.28216997
139	0xbebec6c4	-0.3726102
140	0x3e964599	0.29349974
141	0xbe070526	-0.13185558
142	0x3f17052f	0.58992285
143	0x3dd3004d	0.10302792
144	0x3e937bcd	0.2880539
145	0xbf61f446	-0.88263357
146	0xbb87e601	-0.0041472916
147	0xbd03341b	-0.032032114
148	0x3e1a6456	0.15077338
149	0x3dab28de	0.08357404
150	0x3ca5f10d	0.020256544
151	0x3d8abf50	0.06774771
152	0xbee056e2	-0.43816286
153	0x3e199314	0.14997512
154	0x3b75cb84	0.0037505338
155	0xbe0917dd	-0.1338801
156	0xbf16d6b7	-0.5892138
157	0x3e27d776	0.16390786
158	0xbe89aeec	-0.26891267
159	0x3e2034ca	0.15645137
160	0x3ec80834	0.39068758
161	0xbe991ae1	-0.2990332
162	0xbe9b3b8c	-0.30318868
163	0x3cf6ab63	0.03011102
164	0x3df3d66b	0.11906131
165	0xbe8630a5	-0.26208988
166	0x3bef50af	0.0073033194
167	0xbee57319	-0.44814375
168	0xbc9a80b6	-0.018860202
169	0x3e4949b7	0.19657026
170	0xbe7a1a23	-0.24424033
171	0x3e400bbb	0.18754475
172	0xbe56a2f4	-0.20960599
173	0xbe79c1cc	-0.24390334
174	0xbeac97fd	-0.33709708
175	0xbd35cba9	-0.04438368
176	0xbda85c74	-0.08220759
177	0x3e13cd11	0.14433695
178	0xbd820754	-0.06349054
179	0x3db39995	0.08769528
180	0x3dcebb31	0.10094298
181	0xbc3edf2a	-0.011649886
182	0xbe9a2e11	-0.3011327
183	0x3e08719e	0.13324592
184	0xbea2f161	-0.31824782
185	0xbdb94367	-0.09046059
186	0xbd5e0ba8	-0.054210335
187	0x3da5044e	0.08057462
188	0x3d8a2054	0.06744447
189	0xbebca552	-0.3684488
190	0xbe0eeb12	-0.1395686
191	0xbdf8b944	-0.121447116
192	0x3e06d8ff	0.13168715
193	0xbe8e791b	-0.2782677
194	0xbe7dd42a	-0.24787965
195	0xbd9b8ee5	-0.07595614
196	0x3e788a44	0.24271494
197	0xbc013d47	-0.007888145
198	0x3e715cbb	0.2357053
199	0xbe825d1c	-0.25461662
200	0xbc5e69e6	-0.013575053
201	0xbdfbd8dc	-0.12297222
202	0x3e0d5dd4	0.13805324
203	0x3e45aff8	0.19305408
204	0x3ddbd4bd	0.10733936
205	0xbe5ca828	-0.21548522
206	0xbe835377	-0.25649616
207	0xbe436fec	-0.19085664
208	0x3e963e9b	0.2934464
209	0xbeba5a1a	-0.36396867
210	0x3e258b4d	0.1616642
211	0xbcdc91db	-0.026925018
212	0x3e870830	0.26373434
213	0xbe0a961c	-0.13533825
214	0x3d388dff	0.045057293
215	0xbe9d18bd	-0.30682936
216	0xbf279aae	-0.654704
217	0xbd9c9ac8	-0.0764671
218	0xbe655372	-0.22395113
219	0x3e31dac7	0.17368613
220	0x3ececb43	0.4038945
221	0xbe9853be	-0.2975139
222	0xbee55530	-0.44791555
223	0xbe022b64	-0.12711865
224	0x3dc0b96a	0.09410365
225	0x3e9de823	0.3084117
226	0x3e100451	0.14064147
227	0x3e9baa68	0.30403447
228	0x3d08a71e	0.0333625
229	0x3ce4e1bd	0.027939672
230	0xbbff6444	-0.007793935
231	0x3d5bc9ce	0.053659253
232	0xbe199f15	-0.15002091
233	0xbe949eb9	-0.29027346
234	0xbdfa2054	-0.12213197
235	0x3d484376	0.04889246
236	0xbd376b6b	-0.044780176
237	0xbde207e2	-0.1103666
238	0x3d8e0feb	0.0693663
239	0x3e7c8970	0.24661803
240	0xbd8c47e2	-0.06849648
241	0x3d749587	0.059712913
242	0x3dc2ab90	0.09505379
243	0x3e02b7c0	0.12765408
244	0xbdc9f8f4	-0.09861937
245	0xbdc6a29f	-0.09698986
246	0xbe817c68	-0.25290227
247	0xbd987716	-0.07444589
248	0xbe4b2ed1	-0.19842078
249	0x3ddb903d	0.10720871
250	0x3e945817	0.28973457
251	0xbd95779f	-0.072982065
252	0x3e4587f7	0.19290148
253	0xbe27dac7	-0.1639205
254	0xbe81c76c	-0.2534746
255	0x3e5d7284	0.21625715

bilstm.weight_hh_l0_reverse f4 [64, 16]
0	0xbdeb11fa	-0.11478038
1	0xbdf9d10c	-0.12198076
2	0x3e83e87e	0.25763315
3	0x3c58c947	0.013231582
4	0xbecc86d2	-0.3994661
5	0xbc3e181f	-0.011602431
6	0xbeb7d70e	-0.3590626
7	0xbe1a4f96	-0.15069422
8	0xbe189e1a	-0.14904061
9	0xbdac80a1	-0.084229715
10	0xbeb242b6	-0.3481652
11	0x3e48beca	0.1960403
12	0x3c19ebdd	0.009394613
13	0x3a8bb44f	0.0010658595
14	0x3e6563aa	0.224013
15	0x3ae9024c	0.0017777174
16	0x3dfee347	0.124456935
17	0x3e090a14	0.13382751
18	0xbd5a405a	-0.053284027
19	0x3e0fec63	0.14055018
20	0x3e1d6db7	0.15373884
21	0x3df77dcc	0.12084541
22	0xbe7abcd2	-0.24486092
23	0x3d115f13	0.03549106
24	0xbea3cf31	-0.31994012
25	0xbeb0f6cf	-0.345633
26	0x3ec797ca	0.38982993
27	0xbeb19ce9	-0.34690025
28	0xbe420adf	-0.1894946
29	0xbec9dc35	-0.39425817
30	0xbe2f830e	-0.17139837
31	0x3e5157ab	0.20443599
32	0x3e41d5bf	0.18929194
33	0xbe369ab1	-0.17832448
34	0xbd34f263	-0.04417647
35	0xbe681532	-0.22664335
36	0x3e41bfba	0.18920794
37	0x3e357c78	0.17723262
38	0xbd153cf5	-0.036435086
39	0xbdb0cc20	-0.08632684
40	0x3ead18e9	0.33808067
41	0x3e589d84	0.21153837
42	0xbdb345db	-0.08753558
43	0x3deed1ef	0.116611354
44	0x3ea77a04	0.32710278
45	0x3e2cb6e0	0.16866636
46	0x3d3b840c	0.045780227
47	0xbe1a1521	-0.15047123
48	0x3d46ee75	0.048567254
49	0xbe25bf52	-0.16186264
50	0x3f1761ec	0.5913379
51	0xbdac6ff0	-0.08419788
52	0xbd316902	-0.043313034
53	0xbd95324c	-0.07284984
54	0x3edb0742	0.42778975
55	0x3eb10f87	0.3458216
56	0x3dc9b66e	0.09849249
57	0x3cfe6ddd	0.031058246
58	0x3e7a07c0	0.24417019
59	0xbe151b44	-0.14561182
60	0xbe07e028	-0.13269103
61	0xbde14ff5	-0.11001579
62	0xbd96bddc	-0.073604316
63	0xbee9157e	-0.4552421
64	0x3e261177	0.162176
65	0x3e15f349	0.14643587
66	0xbdc81ddc	-0.0977132
67	0x3ec4ef65	0.38463894
68	0x3e886631	0.26640466
69	0x3f016e9e	0.50559413
70	0xbd922d79	-0.071375795
71	0x3e6ccd6d	0.23125239
72	0xbe34e77e	-0.17666432
73	0xbef7dd43	-0.48410997
74	0x3ea73a17	0.32661507
75	0xbe1eca23	-0.15506797
76	0xbe6aeb97	-0.22941433
77	0xbebf9d58	-0.3742473
78	0xbf180525	-0.5938285
79	0xbd7ec376	-0.062198125
80	0xbe8cae03	-0.2747651
81	0xbdfe4368	-0.124152005
82	0xbe5957a0	-0.21224833
83	0x3df7705f	0.1208198
84	0xbceae04f	-0.028671412
85	0x3e2dd413	0.16975431
86	0x3dfb64ea	0.12275107
87	0x3e0e5db7	0.13902937
88	0xbe10a5c9	-0.14125742
89	0x3dacc6de	0.084363684
90	0xbd7f3095	-0.06230219
91	0x3dd33fab	0.10314878
92	0xbe878ddf	-0.26475427
93	0x3d47b9a3	0.04876102
94	0xbd2ab9d5	-0.04168113
95	0xbda334a6	-0.07969026
96	0xbd9182d5	-0.07105032
97	0xbc3daab8	-0.011576347
98	0xbe0ed0c7	-0.1394683
99	0xbeba3190	-0.36365938
100	0xbe7bede0	-0.24602461
101	0xbed850da	-0.42249185
102	0xbf556a32	-0.83365166
103	0xbeef1a8f	-0.4669995
104	0x3e666257	0.22498451
105	0x3eacc829	0.3374646
106	0x3d118a10	0.035532057
107	0x3e930609	0.28715542
108	0x3ecaa60f	0.39579818
109	0x3cc18988	0.02362515
110	0x3e0a50f3	0.13507442
111	0x3e583358	0.21113336
112	0x3e6b3820	0.22970629
113	0xbd40cdfc	-0.047071442
114	0xbf5e65e3	-0.86874217
115	0x3dd868cc	0.105668634
116	0x3e06c452	0.13160828
117	0xbbc76409	-0.006084923
118	0x3f23d99d	0.64003927
119	0xbe4ae907	-0.19815455
120	0x3eaa3cc4	0.33249485
121	0x3e0a3a55	0.13498814
122	0xbc9d4b5f	-0.019200979
123	0xbe087312	-0.13325146
124	0x3e668e44	0.22515208
125	0x3df0b3d9	0.11753053
126	0xbe91f7d4	-0.2850939
127	0xbd3caeb4	-0.046065047
128	0xbec26c37	-0.37973186
129	0xbe90dc0a	-0.28292876
130	0x3e85af2a	0.26110202
131	0xbec460d2	-0.38355118
132	0xbe11c055	-0.14233525
133	0xbda5bacf	-0.080922715
134	0xbf0541e0	-0.5205364
135	0x3c6fab53	0.014628249
136	0x3dc41433	0.09574165
137	0x3e8a5f2e	0.2702574
138	0xbe0f84fd	-0.14015575
139	0x3da00d20	0.078150034
140	0xbd5242e2	-0.051333316
141	0xbc62619f	-0.01381722
142	0xbe013c71	-0.12620713
143	0x3f3cbb2b	0.73723096
144	0xbd231102	-0.03981114
145	0x3e99fd97	0.30076286
146	0xbdcfeeb6	-0.101529524
147	0x3e5582fc	0.20850748
148	0x3e98b9aa	0.2982915
149	0x3eb57e06	0.3544771
150	0x3d13fbb0	0.0361287
151	0x3eebfb65	0.46090236
152	0xbe2554f4	-0.16145688
153	0xbf0434f5	-0.51643306
154	0x3c270230	0.010193393
155	0xbec00c4e	-0.37509388
156	0xbe2adae2	-0.1668506
157	0xbebffd07	-0.37497732
158	0xbe9c7d1d	-0.30564204
159	0xbe2304c3	-0.15919785
160	0xbd2bcd30	-0.04194373
161	0xbdf5cf2b	-0.12002405
162	0xbf0c0eee	-0.5471028
163	0x3dbdd1bd	0.0926852
164	0x3d9d7229	0.0768779
165	0xbeb24583	-0.34818658
166	0x3dcb8d8a	0.09939106
167	0x3e3e52ed	0.18586321
168	0x3ec6c50c	0.3882221
169	0x3e279b7e	0.1636791
170	0x3e75b92c	0.23996419
171	0x3d944e5d	0.07241509
172	0x3e6a913a	0.22906962
173	0xbdcb4873	-0.09925928
174	0xbe597a75	-0.2123812
175	0xbcf629c8	-0.03004922
176	0xbe0784e7	-0.13234292
177	0x3cbd770f	0.02312806
178	0xbf24bef7	-0.6435389
179	0xbda6fc68	-0.081536114
180	0xbe8b600b	-0.27221712
181	0xbe4bd040	-0.1990366
182	0xbef70c4f	-0.48251578
183	0xbe4cf7f6	-0.20016465
184	0xbedba502	-0.42899328
185	0xbe616446	-0.22010908
186	0xbe7af2dc	-0.24506706
187	0xbed8a1d9	-0.4231098
188	0xbe0a4abc	-0.13505071
189	0xbde7ef98	-0.11324996
190	0x3e994631	0.29936364
191	0x3ed63a23	0.4184123
192	0xbe282c32	-0.16423109
193	0x3e6df93c	0.23239607
194	0xbed8375e	-0.42229742
195	0xbe216bd7	-0.15763794
196	0x3dff964e	0.1247984
197	0xbe3bdb3a	-0.18345347
198	0xbef3dc7c	-0.47629154
199	0xbe82771f	-0.25481507
200	0xbdfc520e	-0.12320338
201	0xbdc03a25	-0.0938609
202	0xbc772069	-0.015083411
203	0xbe576642	-0.21035102
204	0xbe45f3a1	-0.19331218
205	0xbe4296ad	-0.19002791
206	0x3e611e69	0.21984257
207	0x3ef22c5b	0.47299466
208	0xbeaac026	-0.33349723
209	0xbe30deae	-0.17272446
210	0x3e84ff0e	0.2597584
211	0xbe76f072	-0.2411516
212	0x3e6fbd97	0.23412167
213	0xbe62dff2	-0.22155741
214	0x3f231eed	0.63719064
215	0x3ead222b	0.3381513
216	0xbd6e0c11	-0.058116976
217	0xbe5b5a0b	-0.21421067
218	0x3e333af1	0.17502953
219	0xbd7320d7	-0.05935749
220	0xbe90f023	-0.2830821
221	0xbe535708	-0.20638669
222	0xbec4a50d	-0.38407174
223	0xbecf1a98	-0.40449977
224	0x3d5cc777	0.053901162
225	0xbdf71045	-0.1206365
226	0xbf629c11	-0.8851939
227	0xbe079056	-0.13238654
228	0xbe800357	-0.25002548
229	0x3e9ba9a2	0.30402857
230	0xbb908c53	-0.004411259
231	0xbed7c880	-0.42145157
232	0x3de2bf9a	0.11071701
233	0x3d047c03	0.03234483
234	0x3d7c9efd	0.06167506
235	0x3df078f6	0.117418215
236	0x3e0de684	0.13857466
237	0x3da67f3b	0.08129736
238	0x3dff121f	0.12454628
239	0x3df70f4e	0.12063466
240	0x3e58ed27	0.21184216
241	0xbd51e874	-0.051247075
242	0xbdf99ce9	-0.12188131
243	0xbebcbb24	-0.36861527
244	0x3ce72e3b	0.028220287
245	0x3d4e567a	0.05037544
246	0xbf1a0dab	-0.60177106
247	0x3cf39a65	0.029736707
248	0x3ea8e4bb	0.32987007
249	0x3ddbfe5f	0.10741877
250	0xbe564038	-0.20922935
251	0x3cbb1e84	0.0228417
252	0xbc41635a	-0.011803472
253	0x3ed4e337	0.415796
254	0x3e147745	0.14498623
255	0x3e9f79aa	0.3114751

bilstm.weight_ih_l0 f4 [64, 32]
0	0x3dc60236	0.096683905
1	0x3c63f5c6	0.013913577
2	0x3d175fc1	0.036956552
3	0xbd6da6c4	-0.05802037
4	0x3e1977c9	0.149871
5	0xbd93dce3	-0.07219865
6	0xbde8e48b	-0.11371716
7	0xbde6da02	-0.112720504
8	0xbcb29ec6	-0.021804225
9	0xbe29ee00	-0.16594696
10	0x3e5447b7	0.20730482
11	0xbdc4aaee	-0.09602915
12	0xbe858951	-0.26081327
13	0xbe8107d2	-0.2520128
14	0x3c993f62	0.018706981
15	0x3ec5fce3	0.386695
16	0x3d171115	0.036881525
17	0xbe0e341b	-0.13887064
18	0xbd5cd957	-0.05391821
19	0xbd9198cf	-0.07109224
20	0x3dcb32d9	0.09921808
21	0xbe0f9e89	-0.1402532
22	0xbd11f63a	-0.03563521
23	0xbd66cdb5	-0.05634852
24	0xbeb5f030	-0.3553481
25	0xbe01b98c	-0.12668437
26	0xbd667cd4	-0.05627139
27	0x3e281a0e	0.16416189
28	0x3e72bce2	0.23704866
29	0x3e73a99f	0.23795174
30	0xbe6f952a	-0.23396745
31	0xbe6d65d0	-0.2318337
32	0xbcb91c8f	-0.022596626
33	0xbf14bddb	-0.58102196
34	0xbea64e9a	-0.32481843
35	0xbe0dec58	-0.13859689
36	0xbe572edf	-0.21013974
37	0x3c5bb2ec	0.0134093575
38	0x3c8ed16d	0.017433846
39	0xbe47aa7f	-0.19498633
40	0xbdb0f3e2	-0.08640267
41	0xbe8d0ed0	-0.27550364
42	0xbe3b5e46	-0.18297681
43	0x3f229723	0.63511866
44	0xbead07dc	-0.3379506
45	0xbe5f2bcb	-0.2179405
46	0x3d9eac2d	0.07747684
47	0x3e0ea14a	0.13928714
48	0x3c9161f3	0.017746901
49	0xbe8f7cd3	-0.2802492
50	0x3e403389	0.18769659
51	0x3b91e584	0.004452409
52	0xbdbe0299	-0.09277839
53	0xbdee32eb	-0.116308056
54	0xbe2cd72d	-0.16878958
55	0xbdc089ca	-0.09401281
56	0xbe624856	-0.22097906
57	0x3e8a55b2	0.27018505
58	0xbe669b6f	-0.2252023
59	0x3d0285e3	0.031865966
60	0x3d8367d1	0.06416286
61	0xbee2c865	-0.44293514
62	0x3e7f2db9	0.24919786
63	0xbe1986d8	-0.14992845
64	0x3e18eea3	0.14934783
65	0x3e1a15ff	0.15047453
66	0xbe1ee42c	-0.15516728
67	0xbce35f9e	-0.027755555
68	0x3e6f2566	0.2335411
69	0xbd0a4b86	-0.03376343
70	0xbe268bc4	-0.16264254
71	0xbe257ba2	-0.16160443
72	0x3d2b0921	0.041756753
73	0x3d0f0786	0.034919284
74	0x3e5a45bd	0.21315666
75	0x3ffd4590	1.9786854
76	0xbdc4387e	-0.095810875
77	0x3de9f26f	0.11423194
78	0x3db64511	0.08899892
79	0xbcbb765e	-0.02288359
80	0xbe445557	-0.1917318
81	0x3ec12d47	0.37729856
82	0x3edfed06	0.43735522
83	0x3e20c4aa	0.15700021
84	0x3ea6aff7	0.32556126
85	0x3f64e6c1	0.894146
86	0xbe0ff14a	-0.14056888
87	0x3cebb143	0.028771048
88	0xbd51699b	-0.051126104
89	0xbe6ada41	-0.2293482
90	0x3eb4ce80	0.35313797
91	0xbd80c106	-0.06286816
92	0x3e21a559	0.15785731
93	0x3ea1870a	0.3154834
94	0x3d983e39	0.07433743
95	0xbdd4ab67	-0.10384255
96	0x3df8487c	0.121232
97	0x3e2b9d64	0.16759259
98	0x3e8c501d	0.27404872
99	0xbcf72843	-0.030170565
100	0x3edd6bd4	0.4324633
101	0xbf70d75f	-0.9407863
102	0x3d97fa2f	0.074207656
103	0xbd4c59be	-0.049890272
104	0x3de380f1	0.11108578
105	0x3e228ef2	0.15874842
106	0xbe8f1e16	-0.2795264
107	0xbfb00256	-1.3750713
108	0xbc214876	-0.009843936
109	0x3ef8d045	0.48596397
110	0x3e7e3142	0.24823478
111	0x3dd8d669	0.105877705
112	0x3e688947	0.22708617
113	0xbe469457	-0.19392525
114	0xbc975b50	-0.018476158
115	0x3e5baaab	0.21451823
116	0x3d3e7740	0.046500444
117	0xbed5dd6b	-0.4177049
118	0xba7ae4d0	-0.0009570839
119	0xbe48c0f7	-0.1960486
120	0xbec2a298	-0.38014674
121	0xbd804a09	-0.06264121
122	0xbe2d4b2e	-0.1692321
123	0xbe1587a7	-0.14602529
124	0xbe7d77ba	-0.24752703
125	0xbe6d12c3	-0.23151688
126	0xbd90904c	-0.070587724
127	0xbe35b592	-0.17745045
128	0x3e9b4f23	0.30333814
129	0xbde0f4a6	-0.10984163
130	0x3ce5eea4	0.028067894
131	0xbcd5b717	-0.02608828
132	0xbdf0325c	-0.11728355
133	0xbda1613d	-0.07879875
134	0xbda2c542	-0.0794778
135	0x3e91eaed	0.28499547
136	0xbdb549e1	-0.08851982
137	0x3e6f24b7	0.2335385
138	0x3cbb93a8	0.022897556
139	0xbf9474f3	-1.159819
140	0x3d348a62	0.044077285
141	0xbe6df368	-0.23237383
142	0x3ec8e471	0.39236787
143	0x3ec7a67b	0.38994202
144	0xbd91ad81	-0.07113171
145	0x3d686f97	0.056747045
146	0x3dbc2e69	0.091885395
147	0xbd119078	-0.035538167
148	0xbd47bfdb	-0.048766952
149	0x3df7ffce	0.12109338
150	0xbe2c6e25	-0.16838892
151	0xbe2f0732	-0.17092589
152	0xbdbb3521	-0.09140993
153	0xbe5b1c5a	-0.21397534
154	0x3db434c5	0.087991275
155	0xbe7e183f	-0.24813937
156	0xbe08c304	-0.13355643
157	0xbdd96175	-0.106142916
158	0xbe3b1c82	-0.18272594
159	0xbd8cc3e9	-0.068733044
160	0x3d5003eb	0.050784986
161	0xbdb1363c	-0.086529225
162	0x3e9f390f	0.3109822
163	0x3e709268	0.2349335
164	0x3e23bfd7	0.1599115
165	0x3e2aa145	0.16663082
166	0xbd3e4d5b	-0.04646049
167	0xbe018406	-0.12648019
168	0x3e1c0db9	0.1523961
169	0xbe03a0ef	-0.1285436
170	0x3e82db66	0.25558013
171	0xbd3c265c	-0.04593502
172	0xbdff38cb	-0.12462004
173	0xbdc45fb9	-0.0958857
174	0x3e66f2db	0.2255358
175	0x3ebc1a0c	0.36738622
176	0x3de47838	0.111557424
177	0x3dcc2c37	0.09969371
178	0xbe08b535	-0.13350375
179	0x3dd34493	0.10315814
180	0xbe0985ac	-0.13429898
181	0x3ee87101	0.45398715
182	0x3ec32e6c	0.38121355
183	0xbe657326	-0.22407207
184	0xbd5b7ce3	-0.053585898
185	0xbd6cdcb6	-0.057827674
186	0xbea44d62	-0.32090288
187	0xbe98bb24	-0.29830277
188	0x3e795d39	0.24351968
189	0x3e746b57	0.23869072
190	0xbee539c9	-0.4477065
191	0x3e1d070d	0.15334721
192	0xbe3e57c7	-0.18588172
193	0xbc5967eb	-0.013269405
194	0xbef87c85	-0.485325
195	0xbd8e8f4a	-0.06960924
196	0xbe42283c	-0.1896066
197	0x3e26fdb6	0.1630772
198	0x3e8e2733	0.27764282
199	0xbd032bfd	-0.032024372
200	0xbe1066da	-0.14101735
201	0xbe1c53ed	-0.1526639
202	0x3ca23bde	0.019803938
203	0xbe3c8e07	-0.18413554
204	0xbdf75818	-0.120773494
205	0xbe13e0cd	-0.14441223
206	0xbe04d5ff	-0.12972258
207	0x3d5f55a8	0.054525048
208	0xbdf5f55a	-0.12009688
209	0xbe552277	-0.20813929
210	0xbd4413f7	-0.047870602
211	0xbe43e395	-0.19129784
212	0xbf0a94ea	-0.54133475
213	0x3d7014bf	0.058613535
214	0x3ec35106	0.38147753
215	0xbb212292	-0.0024587256
216	0x3e9fe11e	0.31226438
217	0xbde4e5f8	-0.111766756
218	0xbdaadb52	-0.08342613
219	0x3d196212	0.037447043
220	0xbd457a53	-0.04821236
221	0x3c815e02	0.015791897
222	0x3f076f28	0.52903986
223	0x3e39f5be	0.1816015
224	0x3d840557	0.06446331
225	0xbdf1ecb7	-0.11812728
226	0x3e67beab	0.22631328
227	0x3ddcce02	0.1078148
228	0xbd5eabc1	-0.054363016
229	0x3e2ce0af	0.16882585
230	0x3ef39a05	0.47578445
231	0xbb3682b6	-0.0027848906
232	0x3e8e5b3f	0.2780399
233	0x3ef88ff5	0.4854733
234	0x3da4e0c9	0.08050687
235	0x3f9e8c52	1.2386572
236	0x3d4cdd3c	0.050015673
237	0x3e0f26f1	0.13979699
238	0x3db17a5e	0.08665918
239	0x3ec028a4	0.37531006
240	0x3c764eab	0.015033404
241	0x3f04066a	0.5157229
242	0xbe3b98b0	-0.18319964
243	0x3f05126f	0.5198125
244	0x3e81c8af	0.25348422
245	0x3d362cc7	0.044476297
246	0x3c90ad75	0.017660836
247	0x3e2092ed	0.15681048
248	0x3e7457ed	0.23861666
249	0xbd446d76	-0.047955953
250	0x3ef9fe76	0.4882695
251	0xbe4c8a30	-0.1997459
252	0x3dda9da6	0.106746
253	0x3e3279a9	0.17429222
254	0x3e63e2fc	0.22254556
255	0x3d25c29a	0.04046879

bilstm.weight_ih_l0_reverse f4 [64, 32]
0	0x3d04a6f7	0.032385793
1	0x3d24b944	0.040215746
2	0xbe2bc9d5	-0.16776212
3	0x3dd1b282	0.10239126
4	0xbe2a6bbc	-0.1664266
5	0x3f3cddc9	0.7377592
6	0x3e4ca004	0.19982916
7	0x3e6d5f2c	0.23180836
8	0x3e652102	0.22375873
9	0x3dcec78a	0.10096653
10	0xbe2ab1fd	-0.1666946
11	0x3e10e40a	0.1414949
12	0x3d1a3ad2	0.03765375
13	0xbd93c9f2	-0.072162524
14	0x3e94d438	0.2906816
15	0xbe84cc16	-0.25936955
16	0xbcf4e702	-0.02989531
17	0xbe7ec5d3	-0.24880151
18	0xbd89bc03	-0.067253135
19	0xb9e9af62	-0.00044571894
20	0x3d7e176a	0.06203405
21	0x3e1a8d41	0.15092947
22	0x3e2dc9d3	0.16971521
23	0x3d65c6bf	0.056097742
24	0xbea41c7c	-0.32052982
25	0x3d5b2519	0.053502176
26	0x3d6e5106	0.05818274
27	0xbe792018	-0.24328649
28	0xbe46bd32	-0.1940811
29	0xbd7d8442	-0.06189371
30	0x3eac40a4	0.33643067
31	0xbe2fcf48	-0.17168915
32	0x3e060ee0	0.13091612
33	0x3ed79de5	0.4211265
34	0x3d433f58	0.04766783
35	0x3dcb87e6	0.0993803
36	0x3e186ad6	0.14884505
37	0xbef84914	-0.48493254
38	0x3e128448	0.14308274
39	0xbc839b30	-0.01606521
40	0x3ed4522f	0.4146895
41	0x3d865c61	0.06560589
42	0xbcb90c3b	-0.02258884
43	0xbf5b171a	-0.85582125
44	0x3df38e30	0.118923545
45	0x3e800bbf	0.25008962
46	0x3e8e4138	0.27784133
47	0x3ee4dc58	0.4469936
48	0x3e264e3b	0.1624078
49	0x3f0c5d05	0.54829437
50	0xbdfdb7d1	-0.12388576
51	0x3e581384	0.21101195
52	0xbe6e4689	-0.23269095
53	0x3f2cc011	0.6748057
54	0xbd192d9f	-0.037397023
55	0x3ee465e9	0.44609
56	0x3f05ff6c	0.5234287
57	0xbdbbb23a	-0.091648534
58	0xbe3cf5da	-0.1845316
59	0xbdb7a003	-0.08966067
60	0x3e07d760	0.13265753
61	0xbd6422f8	-0.05569741
62	0xbe2ace84	-0.16680342
63	0xbe629d1b	-0.22130243
64	0xbe394d7e	-0.18095967
65	0xbd54f447	-0.051990774
66	0xbf1e6910	-0.6187906
67	0xbddf8bf7	-0.10915368
68	0xbeae7444	-0.3407308
69	0x3e942659	0.28935507
70	0xbe41644e	-0.1888592
71	0xbe095e2f	-0.13414834
72	0xbea0bfc1	-0.31396297
73	0xbe14591c	-0.14487118
74	0xbe55431d	-0.20826383
75	0x3e820886	0.25397128
76	0x3e169120	0.14703798
77	0x3db1a807	0.08674627
78	0xbdfd694d	-0.123736
79	0xbf557686	-0.8338398
80	0xbe23b561	-0.1598716
81	0xbc52f429	-0.012875595
82	0xbe7811aa	-0.24225488
83	0x3dc0cbd3	0.094138764
84	0x3e35de08	0.1776048
85	0xbe25a5d4	-0.1617654
86	0xbd98a57f	-0.07453441
87	0xbece367e	-0.4027595
88	0xbf2ad6ca	-0.6673399
89	0x3e1161cc	0.14197463
90	0x3d4afdb3	0.049558353
91	0xbcaace6c	-0.020850383
92	0xbdab63fb	-0.08368679
93	0xbe9b075a	-0.30279046
94	0xbeb1e511	-0.34745076
95	0x3e46f38c	0.19428843
96	0xbe3d8d2d	-0.18510886
97	0xbe99d1a5	-0.3004276
98	0xbd00ee35	-0.031477172
99	0x3e7d89b0	0.24759555
100	0x3e8fc191	0.28077367
101	0x3f29fc88	0.6640096
102	0xbe25e739	-0.16201486
103	0x3dcf87e4	0.10133341
104	0x3e8916d4	0.2677523
105	0xbe5c33ea	-0.21504179
106	0xbe76a80a	-0.2408754
107	0xbf626ed9	-0.8845039
108	0xbe14b59b	-0.14522402
109	0x3df78030	0.12084997
110	0xbd117518	-0.03551206
111	0xbd9128d4	-0.070878655
112	0x3ddd9584	0.108195335
113	0x3d8085ad	0.06275497
114	0x3d088435	0.033329207
115	0x3d29f922	0.041497357
116	0x3d0f68e1	0.03501213
117	0xbd278b19	-0.04090414
118	0x3e1359b1	0.14389683
119	0xbde69006	-0.11257939
120	0xbe43c3e0	-0.19117689
121	0x3e9322a5	0.2873737
122	0x3e461039	0.19342126
123	0x3e2601fa	0.16211691
124	0x3e7f5763	0.24935679
125	0x3e75c735	0.24001773
126	0x3f2407a2	0.64074147
127	0xbe819fca	-0.25317222
128	0x3dc55701	0.09635735
129	0xbe2e7c41	-0.17039587
130	0x3dfa10f1	0.122102626
131	0x3e9c283a	0.3049944
132	0xbcf8e8b1	-0.030384393
133	0xbeadf4f6	-0.33975953
134	0xbcc41eb2	-0.023940418
135	0xbe504bab	-0.20341365
136	0x3e0bb917	0.13644825
137	0x3ec3c54d	0.38236466
138	0xbdd37763	-0.103255056
139	0x3f805089	1.0024577
140	0x3e211b39	0.15733041
141	0x3edaa764	0.42705834
142	0x3cfb02b5	0.03064094
143	0x3ea58e74	0.32335246
144	0x3dfbed36	0.12301104
145	0x3e302be0	0.17204237
146	0xbe4a428d	-0.1975195
147	0xbc650c41	-0.013979972
148	0x3ee948d8	0.45563388
149	0x3f01dc0f	0.5072641
150	0x3c3949b5	0.011309077
151	0x3e8c5ba2	0.2741366
152	0x3e953e67	0.29149172
153	0xbd74c9b4	-0.05976267
154	0x3e865be8	0.26241994
155	0x3eb330ab	0.34998068
156	0xb900fe85	-0.00012301847
157	0x3ea68268	0.32521367
158	0xbe0948a1	-0.13406612
159	0x3e345381	0.17609979
160	0x3e5ef5d7	0.21773468
161	0x3c941e2e	0.018080797
162	0x3ec2def1	0.38060716
163	0xbdd5ac37	-0.10433238
164	0x3e6be394	0.23036033
165	0xbe475b7c	-0.19468492
166	0xbe51ef9f	-0.20501564
167	0x3eb105f0	0.34574842
168	0x3e2d06a1	0.1689706
169	0xbe0dbef3	-0.13842373
170	0x3d5cbc96	0.053890787
171	0x3e94c0b9	0.29053286
172	0xbe4a02be	-0.19727609
173	0xbe17ee1e	-0.14836928
174	0x3d52cc70	0.051464498
175	0xbd8cfd70	-0.06884277
176	0xbe218a29	-0.1577536
177	0xb8d1491a	-9.979513e-05
178	0xbd841c7f	-0.06450748
179	0x3d68b8b4	0.05681677
180	0x3e3e7f11	0.1860316
181	0x3f65c5b4	0.89754796
182	0xbe60b185	-0.21942718
183	0xbe3af1a2	-0.18256238
184	0x3eeb1fd0	0.4592271
185	0x3e8d7bb2	0.27633435
186	0x3e8262ff	0.25466153
187	0xbefbd452	-0.49185425
188	0xbe269579	-0.16267957
189	0x3e23b5a3	0.15987258
190	0xbe46950d	-0.19392796
191	0xbdb332a4	-0.08749893
192	0xbc42e990	-0.011896506
193	0x3e8a8f71	0.27062562
194	0xbcf31dd1	-0.029677304
195	0xbde0eb2d	-0.10982356
196	0x3dc2ce1c	0.095119685
197	0xbe603c8c	-0.21898097
198	0xbd1b43b5	-0.037906367
199	0xbe3b1490	-0.18269563
200	0xbe5601f2	-0.2089918
201	0xbe7c96cf	-0.24666904
202	0x3e05a827	0.13052426
203	0xbf180aae	-0.59391296
204	0xbe5b265f	-0.21401356
205	0xbe43eeaa	-0.19134012
206	0xbe23149d	-0.15925832
207	0xbe3ef9aa	-0.18649927
208	0x3e590daa	0.21196619
209	0xbe1a41ac	-0.15064114
210	0x3e75d057	0.24005257
211	0xbcbf62f0	-0.023362607
212	0xbea03f41	-0.3129826
213	0xbe86d1e1	-0.26332
214	0x3d8eab8d	0.069663145
215	0xbe6342b7	-0.22193418
216	0x3dc1b77d	0.09458826
217	0xbc844091	-0.016144069
218	0xbe36f27f	-0.17865942
219	0x3e910dc8	0.28330827
220	0x3d8ba8f8	0.068193376
221	0xbe051589	-0.12996496
222	0x3e356c7f	0.17717169
223	0x3c2b4035	0.01045232
224	0x3d0eef08	0.034895927
225	0xbda9d057	-0.08291691
226	0xbd77fa7a	-0.060541607
227	0x3e818f9f	0.25304887
228	0x3c1264ab	0.008935134
229	0xbc4abd37	-0.012374214
230	0xbdf8d58e	-0.12150107
231	0x3ce1b05b	0.027549913
232	0xbd8321f5	-0.06402961
233	0xbd9229c6	-0.07136874
234	0x3e3402e7	0.17579232
235	0xbe936ce4	-0.28794014
236	0xbda8a2ab	-0.082341515
237	0xbe23f8da	-0.16012898
238	0xbdfe8315	-0.12427346
239	0x3ea899da	0.3292988
240	0xbe45fcf1	-0.1933477
241	0xba9c2200	-0.0011911988
242	0x3e80734d	0.25087968
243	0x3e6b14fc	0.22957224
244	0x3db0ef26	0.08639364
245	0xbe204e8d	-0.15654965
246	0xbdfab79d	-0.12242053
247	0x3db1b06c	0.08676228
248	0x3eb26321	0.34841254
249	0xbdf061b8	-0.11737388
250	0x3d49ce71	0.049269143
251	0xbcc07cc0	-0.023496985
252	0x3e209e23	0.15685324
253	0xbd882870	-0.06648338
254	0xbe42e533	-0.19032745
255	0xbd17c52c	-0.037053272

parallel_cnn_block.branches.0.0.weight f4 [1, 1, 2]
0	0x3f012faa	0.50463355
1	0x3f25f49f	0.6482639

parallel_cnn_block.branches.0.2.bias f4 [16]
0	0x3d4966d7	0.04917034
1	0x3f2f6d0a	0.68525755
2	0xbf1a2dda	-0.60226214
3	0x3e0ac7c2	0.13552764
4	0xbcbc70f0	-0.023003072
5	0xbe0a553c	-0.13509077
6	0xbe6a3fe7	-0.2287594
7	0x3e000337	0.12501226
8	0xbededddc	-0.4352864
9	0x3ebfbb2a	0.37447482
10	0x3eee04a8	0.46487927
11	0xbf55ee8a	-0.83567107
12	0x3d26a199	0.040681455
13	0x3c872883	0.01649881
14	0x3d05515e	0.0325483
15	0x3ea7ae5d	0.32750216

parallel_cnn_block.branches.0.2.weight f4 [16, 1, 2]
0	0x3ee37b12	0.44429833
1	0xbf18fc9a	-0.5976044
2	0xbdbd2472	-0.09235467
3	0x3f058749	0.52159554
4	0x3f252810	0.64514256
5	0xbe8f20b4	-0.27954638
6	0x3e6569e2	0.22403672
7	0xbe72c1fd	-0.23706813
8	0xbd9bd835	-0.076095976
9	0x3e22b200	0.15888214
10	0x3e3932b2	0.18085745
11	0xbdbc18cd	-0.09184418
12	0x3e18cadb	0.14921133
13	0xbd1eda3e	-0.03878235
14	0x3ef94b8a	0.48690444
15	0xbeed3064	-0.46325982
16	0x3ce7641f	0.028245984
17	0x3e6fb924	0.2341047
18	0x3c9fc9de	0.019505437
19	0xbea13df7	-0.31492588
20	0x3ee62b27	0.44954798
21	0xbf263136	-0.6491884
22	0x3dc099ad	0.09404311
23	0x3e4f078c	0.20217723
24	0x3ed4040d	0.4140934
25	0xbf197e84	-0.5995867
26	0x3f0e6a53	0.5563099
27	0xbf0a9765	-0.5413726
28	0xbe0fb310	-0.1403315
29	0x3e26623c	0.16248411
30	0xbfa27174	-1.2690873
31	0x3eb6e4fa	0.3572157

parallel_cnn_block.branches.1.0.weight f4 [1, 1, 4]
0	0xbd50ba2b	-0.050958794
1	0x3f21725e	0.63065135
2	0xbe8f9dc9	-0.28050068
3	0x3c61aa99	0.013773584

parallel_cnn_block.branches.1.2.bias f4 [32]
0	0x3c978d98	0.018500134
1	0x3da1e429	0.07904846
2	0x3f00d577	0.5032572
3	0xba84d707	-0.0010134884
4	0x3c139893	0.0090085445
5	0xbece4254	-0.4028498
6	0x3e4e8609	0.20168318
7	0xbe3c7f48	-0.18407929
8	0xbda1bc9b	-0.07897302
9	0xbe91d55c	-0.28483093
10	0x3dc4b74f	0.09605276
11	0x3ef9ccac	0.48788965
12	0x3f036ecc	0.5134094
13	0xbdf3bc68	-0.1190117
14	0xbef40d3e	-0.47666353
15	0xbecbef85	-0.39831176
16	0x3e96df1e	0.294671
17	0xbca03307	-0.019555582
18	0x3e6709ed	0.2256238
19	0x3dd26e5d	0.102749564
20	0xbe49403f	-0.19653414
21	0xbc470117	-0.012146256
22	0xbf138dd3	-0.5763828
23	0xbd2a620d	-0.041597415
24	0x3e4119de	0.18857524
25	0x3f0cbb13	0.5497295
26	0xbdcafc19	-0.09911365
27	0x3eca816b	0.39551863
28	0xbf0bc344	-0.54594827
29	0xbde30285	-0.11084465
30	0x3d0b92df	0.034075614
31	0x3d0a0dc3	0.03370453

parallel_cnn_block.branches.1.2.weight f4 [32, 1, 4]
0	0xbf114a13	-0.56753653
1	0x3eac094d	0.33600846
2	0x3ea09c82	0.31369406
3	0x3e823196	0.25428456
4	0xbf37ef42	-0.71849453
5	0xbee90da6	-0.45518225
6	0x3ec6b8b6	0.38812798
7	0xbc90094c	-0.017582558
8	0xbc77d22e	-0.015125794
9	0xbef927f9	-0.4866331
10	0x3e8942f2	0.26808888
11	0x3ee62e24	0.44957078
12	0xbed7a97a	-0.42121488
13	0x3da673af	0.08127534
14	0x3e526569	0.20546497
15	0xbf81d242	-1.014229
16	0x3bb62069	0.005558063
17	0x39b3ebfa	0.00034317357
18	0x3f142328	0.57866144
19	0xbed65847	-0.41864225
20	0xbdf4707d	-0.11935518
21	0x3f0eb725	0.55748206
22	0xbd54ef39	-0.051985953
23	0xbdc17b27	-0.094473176
24	0xbeeaa0a6	-0.4582569
25	0x3eebad78	0.46030784
26	0xbd34dede	-0.044157855
27	0x3e133d37	0.1437882
28	0x3e7162fa	0.23572913
29	0x3e8acb34	0.27108157
30	0x3eb4e65e	0.35332006
31	0xbf378c27	-0.7169823
32	0xbc0620f1	-0.008186565
33	0x3be28102	0.0069123516
34	0x3f35797a	0.70888484
35	0xbf1c9e1f	-0.61178774
36	0x3ea77027	0.32702753
37	0xbe698c34	-0.2280739
38	0x3eab2d0f	0.33432814
39	0x3d51210d	0.05105691
40	0x3e676d34	0.22600251
41	0x3f2650cf	0.64967054
42	0xbf0aa623	-0.54159755
43	0xbded1062	-0.115753904
44	0xbd8a0b3c	-0.06740424
45	0x3eb045d9	0.3442829
46	0xbedc15b1	-0.429853
47	0x3e28d636	0.16487965
48	0x3e4e2580	0.20131493
49	0xbebd91f5	-0.3702542
50	0x3d4ab692	0.04949052
51	0x3e66e59d	0.22548528
52	0xbf0fee4d	-0.56222993
53	0x3e1d75e0	0.15376997
54	0x3f2e36ea	0.6805254
55	0xbe3b7485	-0.18306167
56	0x3e2a90cc	0.16656798
57	0x3e0df477	0.13862787
58	0xbe38e695	-0.1805671
59	0x3f1806c5	0.5938533
60	0xbe154432	-0.14576796
61	0xbc9de32e	-0.019273367
62	0xbe2307c2	-0.15920928
63	0xbdff6623	-0.12470653
64	0xbe28e273	-0.16492634
65	0x3f060560	0.5235195
66	0xbf6638a2	-0.89930165
67	0x3f0e1565	0.55501395
68	0xbe94356c	-0.28947008
69	0x3e830ebb	0.25597176
70	0x3ed17942	0.40912825
71	0x3e31e149	0.17371096
72	0x3e7ecb6b	0.24882285
73	0xbf66d589	-0.9016958
74	0xbcca63e5	-0.024705837
75	0xbf032cf5	-0.51240474
76	0xbc5d0f8b	-0.013492475
77	0x3eecd3da	0.4625538
78	0xbeb813c6	-0.35952586
79	0xbd9161a5	-0.07098702
80	0xbd173b0c	-0.036921546
81	0xbf052470	-0.52008724
82	0x3e893fab	0.26806387
83	0x3eb173ac	0.34658563
84	0xbea6572d	-0.32488385
85	0x3e3b9a6d	0.18320628
86	0x3f0bdfbb	0.5463826
87	0xbec94890	-0.39313173
88	0x3ecc80dc	0.39942062
89	0x3eeeef81	0.46667102
90	0xbf5c79e7	-0.8612351
91	0xbd4b8b6a	-0.049693502
92	0xbf238647	-0.63876766
93	0x3f596656	0.8492178
94	0xbe60c417	-0.21949802
95	0x3d471b2c	0.048609897
96	0x3e22efb8	0.15911758
97	0x3dcc3fe6	0.09973125
98	0xbdd875bd	-0.10569332
99	0xbe440543	-0.19142632
100	0xbcc7d631	-0.024394127
101	0xbebc5b3e	-0.36788362
102	0x3e9466cb	0.28984675
103	0x3dc1d2d1	0.09464038
104	0x3cb5dc24	0.022199698
105	0x3e74c973	0.23904972
106	0xbf1c46da	-0.6104561
107	0x3f132b9e	0.5748843
108	0xbf09539e	-0.53643215
109	0xbeafa24b	-0.34303507
110	0x3e46834f	0.19386028
111	0xbe0d5728	-0.13802779
112	0xbeb7f73e	-0.35930818
113	0x3f5ba688	0.8580098
114	0xbec9b5e3	-0.3939658
115	0x3df02bd9	0.11727113
116	0xbf045968	-0.51698923
117	0x3d69b755	0.057059605
118	0x3f1898fa	0.59608424
119	0x3dee8c87	0.11647897
120	0xbf1119c0	-0.56679916
121	0x3c3dd883	0.011587265
122	0x3eb5d781	0.3551598
123	0x3e21bc3d	0.15794463
124	0x3ee2f1c2	0.44325072
125	0x3d1e37ee	0.038627557
126	0x3c8cbd8e	0.01718023
127	0x3eb2dd6d	0.3493456

parallel_cnn_block.branches.2.0.weight f4 [1, 1, 8]
0	0xbc4e064d	-0.012574744
1	0x3cc809af	0.02441868
2	0xbe5a5aea	-0.21323743
3	0x3f0eb610	0.55746555
4	0x3e8d1640	0.27556038
5	0xbe549993	-0.20761709
6	0x3d210fb9	0.039321635
7	0xbc7835ca	-0.015149543

parallel_cnn_block.branches.2.2.bias f4 [64]
0	0x3e2aa560	0.16664648
1	0xbed011ed	-0.40638676
2	0xbda46b68	-0.080282986
3	0xbf521a11	-0.82071024
4	0x3dca382b	0.098739944
5	0xbeac77d8	-0.33685184
6	0xbddb2ce8	-0.107019246
7	0xbed73344	-0.420313
8	0x3ef7ae02	0.48374945
9	0x3ec720e4	0.3889228
10	0x3e2921ad	0.16516753
11	0x3d730583	0.05933143
12	0xbda35767	-0.07975655
13	0xbdd682f4	-0.10474196
14	0x3eaf0858	0.34186053
15	0xbb542863	-0.0032372705
16	0xbf1320f3	-0.5747215
17	0x3d034f5a	0.032058097
18	0x3e607685	0.21920212
19	0x3cbbe3ed	0.022935832
20	0x3e29cc42	0.16581824
21	0x3da06780	0.07832241
22	0x3e86172d	0.26189557
23	0xbe791c1d	-0.2432713
24	0xbdbbff09	-0.091795035
25	0x3dc587fe	0.09645079
26	0x3dbb8273	0.091557406
27	0x3e27a13c	0.163701
28	0x3e859a2e	0.26094192
29	0x3cdea45e	0.027177986
30	0xbf1b0244	-0.6055033
31	0xbebeb40b	-0.37246737
32	0x3e9fa540	0.31180763
33	0xbdfd20f6	-0.123598024
34	0x3d1d73f1	0.03844065
35	0x3ed40d72	0.41416508
36	0x3e31f097	0.17376934
37	0x3edf6e43	0.4363881
38	0xbf2984da	-0.6621834
39	0x3ea2dbca	0.3180831
40	0xbda47f24	-0.08032063
41	0x3e54a9b0	0.20767856
42	0x3eb3882c	0.35064828
43	0x3d198e8a	0.03748945
44	0xbe1b3e83	-0.15160565
45	0x3db22961	0.08699299
46	0x3ebe194e	0.3712868
47	0xbcde676d	-0.027148927
48	0xbfb2b06f	-1.3960093
49	0xbe8b2eeb	-0.27184233
50	0xbf425e20	-0.75924873
51	0x3ea62ee4	0.3245765
52	0x3e53836d	0.20655604
53	0xbe83d1f7	-0.25746128
54	0xbe668f99	-0.22515716
55	0xbe01a9b0	-0.12662387
56	0xbe802396	-0.2502715
57	0xbe65625f	-0.22400807
58	0xbbe3d295	-0.0069525936
59	0x3c2fc50a	0.01072813
60	0x3deb8c6d	0.115013935
61	0x3ebf03a8	0.37307477
62	0xbe035c28	-0.12828124
63	0x3d912661	0.07087398

parallel_cnn_block.branches.2.2.weight f4 [64, 1, 8]
0	0xbeaa0307	-0.33205435
1	0xbda7fc6e	-0.08202444
2	0x3e610a87	0.21976672
3	0xbe8df4c8	-0.27725816
4	0x3e990c5f	0.2989225
5	0xbe520029	-0.20507874
6	0x3e61643d	0.22010894
7	0x3e126f85	0.14300354
8	0x3d916225	0.07098798
9	0xbd824b33	-0.06361999
10	0x3e70ee86	0.2352849
11	0xbec48bb4	-0.38387835
12	0x3e8acb7a	0.27108365
13	0xbde4249d	-0.11139796
14	0x3e6e7eae	0.23290512
15	0xbe1c8c55	-0.15287907
16	0xbe578515	-0.2104686
17	0xbf0a5d18	-0.540483
18	0x3e9743b9	0.29543856
19	0x3ce0eb88	0.02745606
20	0x3c562f21	0.01307276
21	0x3e26b396	0.16279444
22	0x3e744809	0.23855604
23	0xbdb0325e	-0.08603357
24	0x3e881736	0.2658021
25	0x3b07a11d	0.0020695396
26	0xbe3cdd74	-0.18443853
27	0x3e319747	0.17342864
28	0x3d940b41	0.07228709
29	0x3e3e547a	0.18586913
30	0xbd914902	-0.07094003
31	0xbe6542ae	-0.22388718
32	0xbf0e0c6a	-0.5548769
33	0xbeb855b4	-0.36002886
34	0xbdfe6a1b	-0.12422582
35	0x3eb1988e	0.34686702
36	0x3ee65db5	0.44993368
37	0x3ecec240	0.40382576
38	0xbe00434f	-0.12525676
39	0x3cc45ae8	0.023969129
40	0x3e3c0448	0.18361008
41	0x3e016918	0.12637746
42	0xbe6563ab	-0.22401302
43	0xbf0efd88	-0.5585561
44	0xbe946f6e	-0.28991264
45	0x3ddf3bdb	0.109000884
46	0xbc51f2d1	-0.01281424
47	0xbcc27ef6	-0.02374218
48	0x3dc0393c	0.093859166
49	0x3e937b78	0.28805137
50	0xbd8e5612	-0.0695001
51	0xbea3d1fe	-0.3199615
52	0x3e2a4cc1	0.16630842
53	0x3de31038	0.11087078
54	0x3e30be20	0.17260027
55	0x3e1f4dca	0.15557018
56	0x3e8cc7f5	0.27496305
57	0xbe24864f	-0.1606686
58	0xbef41a58	-0.4767635
59	0xbe977d3a	-0.29587728
60	0x3e4a5e8c	0.1976263
61	0x3e93ce72	0.28868443
62	0x3da70aef	0.08156382
63	0x3e110390	0.14161515
64	0x3e227f51	0.1586888
65	0xbea73364	-0.32656395
66	0x3ece12ed	0.40248814
67	0xbe544394	-0.20728904
68	0xbdbafe71	-0.09130562
69	0x3e4a796b	0.1977288
70	0xbd07a247	-0.033113744
71	0xbda8213d	-0.08209465
72	0xbd03e600	-0.032201767
73	0x3df45c9d	0.11931727
74	0xbe9344fb	-0.28763565
75	0xbe736c4a	-0.23771778
76	0xbe8a4641	-0.27006724
77	0x3e6270d6	0.22113356
78	0x3dc3d9b6	0.095630094
79	0x3e6ea7e8	0.23306239
80	0xbee249d0	-0.4419694
81	0xbe8829be	-0.26594347
82	0xbd83d531	-0.064371474
83	0x3e9e73b4	0.3094765
84	0xbd899e70	-0.06719673
85	0xbe6cb1d0	-0.23114705
86	0x3e8b30ae	0.27185577
87	0x3e647f56	0.223142
88	0x3e3ac41f	0.18238877
89	0xbe6e2bf4	-0.23258954
90	0x3e39b043	0.18133645
91	0xbd8e2ced	-0.06942163
92	0x3d307ef6	0.04308983
93	0xbd8e1aa5	-0.06938676
94	0x3db60b5b	0.08888885
95	0x3ce8c5c0	0.028414607
96	0x3d121f75	0.03567453
97	0xbf1d3b06	-0.6141819
98	0xbeb87835	-0.3602921
99	0x3ef16cac	0.47153223
100	0xbe852eb3	-0.2601219
101	0x3eb2b9df	0.34907433
102	0x3e746f67	0.23870622
103	0x3e1b74c0	0.15181255
104	0x3da6578d	0.08122168
105	0x3eae6ee1	0.3406897
106	0x3e305a6e	0.17221996
107	0xbe988abb	-0.29793343
108	0x3ed2dc9a	0.4118393
109	0xbee161ab	-0.44019827
110	0xbeaf1f4c	-0.34203565
111	0x3d81e099	0.06341667
112	0x3d9b2e30	0.07577169
113	0x3ea32e21	0.3187113
114	0x3ddb550d	0.107095815
115	0xbe85312b	-0.26014075
116	0xbed3116f	-0.41224238
117	0xbe0a3736	-0.13497624
118	0xbd527955	-0.051385242
119	0x3eb595f7	0.35465977
120	0x3ebfde3b	0.37474236
121	0x3c69cf32	0.014270591
122	0x3e5eaca2	0.21745542
123	0x3de81c4e	0.11333524
124	0x3e575e00	0.21031952
125	0xbdadf678	-0.08494276
126	0xbed8ab93	-0.423184
127	0xbec20e6f	-0.37901637
128	0xbcb1e0f4	-0.021713711
129	0x3e75d208	0.24005902
130	0x3e9f544f	0.3111901
131	0x3e1a3ae2	0.15061525
132	0xbe249cb7	-0.16075407
133	0xbee96c44	-0.45590413
134	0xbd154128	-0.03643909
135	0xbcc10ebc	-0.023566596
136	0x3da3880f	0.079849355
137	0xbd1e3675	-0.038626153
138	0x3ded1894	0.115769535
139	0xbdee8a6c	-0.116474956
140	0x3d1e5943	0.038659345
141	0x3ebaceac	0.36485803
142	0xbf759d6f	-0.9594335
143	0xbf21c97a	-0.63198054
144	0xbe80024f	-0.2500176
145	0xbee55e83	-0.4479867
146	0xbf149e1e	-0.5805377
147	0xbe5467ac	-0.20742673
148	0x3e97639e	0.2956819
149	0x3e6e604d	0.23278923
150	0x3d8e4e7f	0.06948566
151	0xbe800472	-0.25003392
152	0xbdc5bc7c	-0.09655091
153	0xbd08fcb0	-0.033444107
154	0x3ee419f0	0.4455104
155	0x3d51b5a9	0.051198635
156	0x3ed49e38	0.4152696
157	0xbe60c5b8	-0.21950424
158	0xbd32d1a3	-0.043656956
159	0xbedfbafb	-0.43697342
160	0xbec44dcd	-0.38340607
161	0xbc9ea41d	-0.019365365
162	0x3e9496f8	0.2902143
163	0xbdc104f7	-0.09424775
164	0xbdb9e83a	-0.09077497
165	0x3eb736c8	0.35783982
166	0x3e23a7c2	0.15981963
167	0x3cbcfdee	0.023070302
168	0x3db6f322	0.08933093
169	0xbc307eed	-0.010772449
170	0xbea6b05f	-0.32556435
171	0xbe83f584	-0.2577325
172	0x3ebc6fbb	0.36803994
173	0x3ebb0605	0.3652803
174	0xbe48980a	-0.19589248
175	0xbd1d8a2d	-0.038461853
176	0xbec70282	-0.388691
177	0xbe69a63b	-0.22817318
178	0xbead8a37	-0.33894512
179	0x3ec74c9c	0.38925636
180	0xbdef6ccc	-0.11690673
181	0x3e52b203	0.20575719
182	0xbda4d443	-0.08048298
183	0x3dcdbdb0	0.10045946
184	0xbc949ecc	-0.018142127
185	0x3e4d6b08	0.2006036
186	0xbe29589d	-0.1653771
187	0xbd89391f	-0.06700348
188	0xbd901a29	-0.0703624
189	0x3ede13a5	0.43374363
190	0x3ea25fed	0.3171381
191	0x3d63ef24	0.055647984
192	0xbe2591b4	-0.16168863
193	0xbe41b4f2	-0.18916681
194	0xbe5c57f1	-0.21517922
195	0xbdc8e840	-0.09809923
196	0xbe4d1f57	-0.20031486
197	0xbe754d9c	-0.23955387
198	0xbeb0a9e0	-0.34504604
199	0xbe20a579	-0.15688123
200	0x3e132702	0.14370349
201	0xbe74bb82	-0.23899654
202	0xbe998a74	-0.29988444
203	0xbf20444c	-0.6260421
204	0xbcc6b7bb	-0.024257531
205	0x3ecf9611	0.4054418
206	0x3e2662ce	0.16248628
207	0xbdffdc87	-0.12493234
208	0x3e130410	0.14357018
209	0xbeb93b78	-0.36178184
210	0xbf3d4b79	-0.7394329
211	0x3edf4bd3	0.43612537
212	0xbc93f67a	-0.018061865
213	0x3e542d23	0.20720343
214	0x3d7b435d	0.06134354
215	0x3d1e18a9	0.038597737
216	0xbd7c8d2a	-0.061658062
217	0xbec8a1af	-0.39185855
218	0xbeae6319	-0.3405998
219	0xbcdd462e	-0.027011003
220	0x3e16c000	0.1472168
221	0x3e513cd6	0.20433363
222	0xbd6fd656	-0.058554016
223	0x3d56b2f3	0.052416753
224	0xbc4f9b03	-0.012671235
225	0x3e87787a	0.26459104
226	0xbe908dd5	-0.2823321
227	0xbf0d2994	-0.5514157
228	0x3e9d7d7d	0.30759802
229	0xbe87f402	-0.2655335
230	0x3e305288	0.17218983
231	0x3eb7e048	0.359133
232	0xbdd9b8fb	-0.10630985
233	0x3e804b44	0.25057423
234	0x3c674978	0.014116637
235	0x3d50dcf1	0.050991956
236	0xbdf40daf	-0.119166724
237	0x3e61a2ef	0.2203481
238	0x3da26fcc	0.0793148
239	0xbec0b59e	-0.37638563
240	0x3e2a158e	0.16609785
241	0xbea4cdc5	-0.3218824
242	0x3eacdb98	0.33761287
243	0xbd8fa35a	-0.07013579
244	0xbe2e74d3	-0.17036752
245	0x3ea197c0	0.3156109
246	0xbce147fe	-0.027500149
247	0xbe116842	-0.14199927
248	0x3d727171	0.059190217
249	0x3e9fb56f	0.3119311
250	0xbefbf88d	-0.49213067
251	0x3ef0ab9d	0.4700593
252	0xbe3c6aa1	-0.1840005
253	0xbdfb220e	-0.12262355
254	0x3ea93675	0.3304936
255	0xbcfebabe	-0.031094905

parallel_cnn_block.branches.3.0.weight f4 [1, 1, 32]
0	0xbd81ffcd	-0.06347618
1	0xbd1adc9e	-0.037808053
2	0xbc99cc68	-0.018774226
3	0xbd315156	-0.04329046
4	0xbd6972d6	-0.05699428
5	0xbd5576ce	-0.052115254
6	0xbcb107d0	-0.02161017
7	0xbdc6586c	-0.09684834
8	0x3cd0ec3c	0.02550327
9	0xb7af9090	-2.0928943e-05
10	0xbdb5abc4	-0.08870652
11	0xbd88e39e	-0.066840395
12	0xbb9afdae	-0.004729948
13	0xbd2cb1e4	-0.042161837
14	0x3e0302d8	0.12794054
15	0xbcf80d96	-0.030279916
16	0xbdef29dd	-0.11677907
17	0xbc57d0c0	-0.0131723285
18	0xbbc3a6fe	-0.0059708348
19	0x3ac542cd	0.0015049815
20	0x3d8bfd21	0.0683539
21	0x3df1a19f	0.11798405
22	0x3d44c13d	0.04803585
23	0x3e2b1994	0.16708976
24	0x3e2ae50c	0.16688937
25	0x3e33dc3a	0.17564479
26	0xbd3df260	-0.046373725
27	0xbdd95c15	-0.106132664
28	0xbdbef51b	-0.09324094
29	0x3d9eb7ad	0.07749877
30	0x3c967de4	0.018370576
31	0xbd589a25	-0.05288138

parallel_cnn_block.branches.3.2.bias f4 [16]
0	0x3e649a1a	0.2232441
1	0xbdaff7f8	-0.08592218
2	0x3c2436af	0.010022803
3	0x3db79161	0.08963276
4	0x3dea744c	0.11447963
5	0x3e1d15bc	0.15340322
6	0x3e41c640	0.18923283
7	0xbc2cbb00	-0.010542631
8	0x3ee9755e	0.45597357
9	0x39a707ad	0.0003185844
10	0x3ea748df	0.32672784
11	0x3c9fdf25	0.019515583
12	0x3e69bea6	0.22826633
13	0x3eaf6100	0.34253693
14	0xbe04ad93	-0.12956838
15	0x3d85310e	0.06503497
