remade/narrow/modelpars_narrow_i_62.safetensors (safetensors, 86584 bytes, 32 tensors)

bilstm.bias_hh_l0 f4 [64]
000000 6b 09 3f bf c3 76 57 be e7 b0 1a 3e a6 ee ca bd
       -0.74623746 -0.21041398 0.15106545 -0.099088
000010 a1 7f 91 3d 28 55 0c bf fe b1 9d bd 45 b9 23 3e
       0.071044214 -0.5481744 -0.07699965 0.15988643
000020 82 f7 3f 3d 85 2a 48 be 50 4f c5 bd db 5f 76 be
       0.0468669 -0.1954747 -0.09634268 -0.24060003
000030 28 36 a9 be f4 cb 4c be 8b da ca 3e 4f f7 bb bc
       -0.3304913 -0.19999677 0.3961986 -0.022945074
000040 e4 1e 73 3e be cc fc 3a 88 05 90 3e 34 b1 e8 bd
       0.23742253 0.0019287092 0.2812922 -0.11361924
000050 fb f6 01 bd 68 05 3e 3e 60 62 5a 3e b5 99 d2 3d
       -0.03172968 0.1855675 0.2132659 0.102832235
000060 c5 eb c5 3d 2a 11 0c 3d 92 8f ac 3e 1d f1 96 bd
       0.0966411 0.034196056 0.33703285 -0.073702075
000070 97 d1 2e be c0 ea 10 3e b9 24 a3 3e c6 24 f0 bd
       -0.1707214 0.1415205 0.31863955 -0.11725764
000080 fc c4 05 3c 03 5e 42 be b4 16 61 bd 8a 6b 83 be
       0.0081646405 -0.18981175 -0.054953292 -0.25667983
000090 27 91 62 bc af 03 18 3d 41 7f 52 be 37 ea 2f 3d
       -0.013828552 0.037112888 -0.20556356 0.042947974
0000a0 ad b9 1e 3e b8 61 21 3e 14 b4 c7 bd 4f da 23 be
       0.15500517 0.15759933 -0.09751144 -0.16001247
0000b0 7d 4d b6 3d e5 6e 28 3e da 77 3e be ca 61 87 3d
       0.089014985 0.16448553 -0.18600407 0.06610449
0000c0 77 a8 35 be 75 96 a2 3e ae 9d 30 3e 0f 32 a4 3d
       -0.17740045 0.31755415 0.1724765 0.080173604
0000d0 5a b3 04 be 72 6d fb 3d be 1e 99 3e 36 af da 3d
       -0.12959042 0.122767344 0.29906267 0.1067795
0000e0 01 1e fb 3c e0 af a0 be 97 71 af bd 60 1b 9f 3d
       0.030653955 -0.31384182 -0.085665874 0.07768893
0000f0 0f fa 8e 3e ea 7d 09 3d a7 f5 78 3e e6 a1 71 3e
       0.27925155 0.033567347 0.24312459 0.23596916

bilstm.bias_hh_l0_reverse f4 [64]
000000 4c 21 02 be 5e 07 08 be 5e 3e b8 be 48 77 89 3e
       -0.12708014 -0.1328406 -0.35985082 0.26848817
000010 7d fd c1 3e 3c 49 9c 3e 40 48 9f be 3b a9 73 3e
       0.3788871 0.30524623 -0.3110981 0.23795025
000020 41 b4 e5 bc fc 0f 0e 3e 80 8e a6 bc cb 16 e0 3b
       -0.028040053 0.13873285 -0.020331621 0.0068386546
000030 79 0d 14 3e 32 7c 51 3e 86 03 0d be 4e 6a ad be
       0.14458264 0.20457533 -0.13770875 -0.33870167
000040 eb 31 43 bd 35 c4 c9 3d bd 06 59 be fd 3d 21 3e
       -0.047655027 0.09851877 -0.21193977 0.15746303
000050 65 6a da 3b 19 19 1c 3e 8a 75 af 3e a2 a3 60 bc
       0.0066655152 0.15243949 0.34269363 -0.013710888
000060 ce 03 ae 3d d9 8d 5d 3e c0 38 db 3d ba 65 b8 3e
       0.084968194 0.21636142 0.107041836 0.3601511
000070 62 dc 4d 3e 38 91 16 3b 95 43 5b be 56 df 64 3e
       0.201036 0.002297474 -0.21412499 0.22350821
000080 b9 89 63 be 22 c9 06 3e d2 5a 16 be 9c 23 2a 3e
       -0.22220506 0.13162664 -0.14683083 0.16615146
000090 96 64 c6 bd bd c1 15 3e 9c b3 fe bd c7 59 b0 3d
       -0.09687154 0.14624687 -0.124366015 0.08610874
0000a0 6a 84 09 be 57 67 8d be 55 32 4a be 9d 68 f5 bd
       -0.13429418 -0.27617905 -0.19745763 -0.11982844
0000b0 0e dc 05 be 20 11 f0 bd 43 89 32 3d 0f 8c 45 3d
       -0.13072225 -0.11722016 0.043587934 0.048229273
0000c0 83 bd d9 bd 86 ac fb 3d 5d eb dc 3b 2b b4 9f 3e
       -0.106318496 0.122887656 0.0067419247 0.31192145
0000d0 71 44 a3 3e 48 b7 12 3e bf 61 fc 3d 3d 3b 34 be
       0.31888154 0.14327729 0.12323331 -0.17600723
0000e0 33 8c cd bd 46 73 44 3e 34 72 6d 3e 5f 30 2c 3e
       -0.100365065 0.19184598 0.23188096 0.16815327
0000f0 c5 25 4d 3e 1b 96 b9 3d 0f 56 93 be 31 10 0b be
       0.20033939 0.090618335 -0.28776595 -0.13580395

bilstm.bias_ih_l0 f4 [64]
000000 86 88 bd be 2d 10 2a be 93 b6 d0 3e 4f ba 0d 3d
       -0.37018222 -0.16607733 0.40764293 0.034601506
000010 5b f9 7a 3e 83 a6 cf be 19 8b 9d 3e 77 07 1d 3e
       0.24509184 -0.40556726 0.30770186 0.15334879
000020 dd e3 b2 3e aa 6a e5 be f9 6c a0 be b6 04 21 bf
       0.3493947 -0.4480794 -0.3133314 -0.62897813
000030 43 ff b1 bd a4 d8 5f be 7a 5d 13 3f 03 1a ae 3d
       -0.086912654 -0.21859986 0.5756451 0.08501055
000040 ae 39 70 3d 40 23 b9 3e ce 3c fe bc b9 d0 8e 3e
       0.058648758 0.36159706 -0.031034853 0.27893618
000050 07 d8 44 be 2b 00 f5 3d e2 4c 11 3e 87 82 41 bd
       -0.19223033 0.11962923 0.14189485 -0.04724362
000060 2b d0 a7 3e a3 0a 9e bb cd f1 a2 3d 17 a3 f6 bd
       0.32776007 -0.0048230453 0.07956276 -0.12042826
000070 40 97 80 3e 94 1b 6b be dd 04 7c 3e e3 da b5 bd
       0.25115395 -0.22959739 0.2461123 -0.0887964
000080 23 9f b3 bd dd 7d 23 be d8 1d 97 bd be fe 26 be
       -0.08770587 -0.15965982 -0.07378739 -0.16308114
000090 36 f3 2b 3d b5 8e 80 3e 85 52 f9 3d 66 74 28 be
       0.04197999 0.25108877 0.121739425 -0.16450652
0000a0 20 35 b1 bb 7c 11 3f 3e 76 e5 96 3e 88 d3 47 3d
       -0.0054079443 0.18659014 0.2947194 0.048785716
0000b0 bb a6 38 be 68 94 7e 3c eb b3 c5 3a 1d 7a bf 3d
       -0.18032353 0.0155383125 0.0015083527 0.09349463
0000c0 dd f8 62 be 5f ac de 3c 6c 69 d7 3d 0b 85 f4 bd
       -0.22165246 0.027181802 0.105181545 -0.119394384
0000d0 50 aa 44 be 7e a3 49 be 2e 51 ec bc b1 86 f5 3c
       -0.19205594 -0.19691274 -0.028847303 0.029971452
0000e0 fc b5 00 3e 71 d0 ae bd 31 d0 f0 bd a2 3b 1d 3e
       0.12569422 -0.08535851 -0.11758459 0.1535478
0000f0 21 20 93 3e f3 f2 e6 bd 11 69 6b 3e fa 50 90 3e
       0.2873545 -0.11276808 0.22989298 0.2818678

bilstm.bias_ih_l0_reverse f4 [64]
000000 ad 6f 8f 3d e8 65 b0 3d 4c 10 fd bd fb 04 11 3c
       0.07003722 0.08613187 -0.12356624 0.008851285
000010 10 c3 bc 3e 09 14 d8 3d d3 8e 6a be bb b9 fa 3b
       0.3686757 0.105506964 -0.22906046 0.0076515353
000020 ef 3b 0f be 9a fe 81 bb 29 61 fc bd 1c fa c4 bd
       -0.13987707 -0.0039671184 -0.12323219 -0.09618017
000030 c7 3f 8f 3d b9 7d 8f 3d ae de 09 be d1 01 d9 bd
       0.069945864 0.070064016 -0.13463852 -0.105960496
000040 35 d9 4a 3d fb cf 99 3d 6d 18 21 be 63 c8 48 3d
       0.04952355 0.07510372 -0.15731974 0.04901923
000050 ca d6 32 bb 7b 9b fa bd 39 84 57 bd 08 05 f6 3d
       -0.0027288669 -0.12236687 -0.05261633 0.120126784
000060 46 c8 2a 3d e9 a7 47 3e 7a c7 d9 3d 00 15 b5 3e
       0.041694902 0.19497646 0.1063375 0.35367584
000070 dc a9 70 3e e9 ef 2e 3d 41 95 33 3d f8 83 76 3e
       0.23502296 0.042709265 0.04384351 0.2407378
000080 0a f0 5c be 91 f8 66 3e aa 1c 94 bd 47 bd 60 3d
       -0.21575943 0.22555758 -0.0723203 0.05486801
000090 a9 8e 94 3e 13 77 4c 3d 3b 63 f8 3b c6 74 a4 be
       0.2901509 0.049918246 0.0075801886 -0.3212034
0000a0 37 b4 05 3d 3c 21 1a be 05 b2 fc 3d 3f f1 e3 bd
       0.03264257 -0.1505174 0.12338642 -0.111299984
0000b0 45 ca c1 bd 60 d1 5f bd 0b 79 b5 3e c3 96 e8 3d
       -0.09462408 -0.054643035 0.3544391 0.113568805
0000c0 ac 21 8b be 4f 26 a5 3d 16 0e 36 3d af 8c ef 3e
       -0.27174127 0.080639474 0.044447027 0.4678702
0000d0 19 ac ab 3e 0a 00 1c be 17 79 70 be 47 75 43 be
       0.33529738 -0.1523439 -0.23483692 -0.19087707
0000e0 89 aa 9c 3e 20 be 5b 3e 63 03 c5 bd 45 68 e5 3e
       0.30598858 0.21459246 -0.096197866 0.44806114
0000f0 6e 6a ab 3c 22 01 1f be 20 99 25 be 06 24 8c be
       0.020924773 -0.15527776 -0.16171694 -0.27371234

bilstm.weight_hh_l0 f4 [64, 16]
000000 d9 d7 e7 bd 65 d8 ad bd 56 07 3d 3e 83 65 b9 3d
       -0.113204665 -0.084885396 0.1845983 0.09052565
000010 de d1 0b be 74 b3 0f 3e d1 41 bb be 67 2a a7 3e
       -0.13654277 0.140333 -0.3657365 0.32649538
000020 67 11 cb 3d 58 98 00 3e 88 f8 f5 bd 57 14 76 bc
       0.099154286 0.12558115 -0.12010294 -0.015019498
000030 15 6b 7f be cc de 34 bd 31 a0 e2 bd 16 ec 5a 3e
       -0.24943192 -0.04415779 -0.1106571 0.21379122
000040 72 8c 43 3d 0b 39 c3 be 9f 3d c0 be b4 b7 c7 bd
       0.04774136 -0.38129458 -0.37547013 -0.097518355
000050 a3 85 a6 bc c2 ad 02 be b3 42 02 3f 3b 33 64 bd
       -0.020327395 -0.12761596 0.50883025 -0.05571292
000060 01 74 a4 3e ea 2e b2 3e fa 91 ee be f0 8c be 3d
       0.32119754 0.34801418 -0.46595746 0.093042254
000070 67 ce 15 3f e0 9b 11 3e d2 73 11 bd eb 2a b9 be
       0.5851807 0.14219618 -0.035510845 -0.36165556
000080 b6 8d 84 be bf 81 97 bd 4b fd 82 3d f6 ad 2c bd
       -0.25889367 -0.07397794 0.06395968 -0.04215809
000090 36 48 8e bd c1 5f 85 3e 03 9a 5e 3d b6 bf 08 3d
       -0.06947367 0.26049617 0.054346096 0.033385955
0000a0 c5 51 3e bd 67 11 e7 bc 39 0d 33 3e e6 12 6b 3c
       -0.0464647 -0.02820654 0.17485513 0.014347767
0000b0 20 b6 4c 3e 24 62 09 3d 0e 42 f0 bd 80 c9 ef 3d
       0.1999135 0.03354086 -0.11731349 0.11708355
0000c0 9a 98 40 3e f3 fa 66 be 21 a4 7b bd 1a df b1 bd
       0.18808213 -0.22556667 -0.061435822 -0.08685131
0000d0 d7 2f b8 bd 15 20 cd bd b8 c1 08 3e 0b 83 4c be
       -0.089935 -0.10015885 0.13355148 -0.19971864
0000e0 86 5c 65 bf 29 6e cb 3d 59 42 14 3e d0 77 be bd
       -0.89594305 0.09933121 0.14478435 -0.09300196
0000f0 a8 2f 8e 3e 43 c9 df be 5b ec eb bd 4f 6c 39 3d
       0.27770734 -0.43708238 -0.115196906 0.045269307
000100 9d b3 f6 bc 8c 2d 42 3f 6d 6b 7e be ee 9e 19 be
       -0.030114943 0.7585075 -0.24845667 -0.15002033
000110 aa b5 bd 3d d4 35 b0 be f3 b5 f8 be 2d 32 1c 3f
       0.09263165 -0.34416068 -0.48576316 0.6101406
000120 34 09 d4 3d 6f ba c9 3e 98 80 da 39 b5 56 38 be
       0.10353318 0.3940005 0.0004167601 -0.18001826
000130 ec 17 e3 be 20 c2 bb 3d 14 31 8b 3e 78 39 02 3f
       -0.44354188 0.09167886 0.2718588 0.5086894
000140 7d e7 bf bd 40 55 a2 be 50 62 cf 3c e1 55 81 3d
       -0.09370325 -0.31705666 0.025315434 0.06315208
000150 ed 30 2a 3d ef e8 ab 3e 2c b2 b1 bd 71 34 c6 3e
       0.041550566 0.33576152 -0.08676562 0.38711885
000160 9f b2 70 3d f5 ce 90 3d 98 2b 4d be 42 ed a2 bd
       0.058764096 0.07070724 -0.20036161 -0.079554096
000170 e4 8a 89 3e c1 2b f9 bd 93 e3 2e be f2 a0 86 bd
       0.26863778 -0.121665485 -0.17079 -0.06573667
000180 26 e0 2a be 36 07 c8 3e 90 75 7a 3e e2 46 54 be
       -0.16687068 0.39068002 0.24458909 -0.20730165
000190 af 59 a0 3c 92 99 8a 3e 5a 2f db bd 7b 72 f9 3e
       0.019574014 0.2707029 -0.10702391 0.48720154
0001a0 a3 b1 9b bd 70 89 08 be d6 f2 b1 3d 16 35 9f 3b
       -0.07602241 -0.13333678 0.086888954 0.0048586233
0001b0 c9 d9 d7 be e6 fe 7e 3e 70 0a c4 3e 83 50 38 3f
       -0.42158344 0.24901924 0.38289213 0.7199785
0001c0 52 ce 57 3d d3 ff 1d be ce 94 93 3e bb 2a f2 bd
       0.052686997 -0.1542962 0.28824466 -0.118245564
0001d0 c3 83 22 bc fb c3 53 be a7 04 6d 3e f6 d4 06 bd
       -0.00991911 -0.2068023 0.23146306 -0.03291794
0001e0 a6 ed 85 bd 91 f6 2a be a2 0b 3b 3e 0a f4 c6 bd
       -0.065394685 -0.1669562 0.18266156 -0.097145155
0001f0 6d 72 29 be e8 19 4a be 12 a6 46 3c 08 29 01 3e
       -0.16547556 -0.19736445 0.012124555 0.12613308
000200 6e 10 be be 61 05 9c 3e 9b 45 36 3e fb f9 1a 3e
       -0.3712191 0.30472854 0.1779999 0.15134422
000210 66 34 fc be 3b cf 88 3d b3 d8 b3 be bd fe 1d 3e
       -0.49258727 0.06680151 -0.35126266 0.15429206
000220 ae f2 b8 be 5d 33 1b 3e 2b ae a9 3e 9d a7 c7 be
       -0.3612265 0.15156312 0.33140692 -0.38995066
000230 24 95 f7 3e f5 d8 03 be e2 99 15 3f b3 72 89 3d
       0.48355973 -0.12875731 0.5843793 0.0671133
000240 f0 ed 95 3e ca 7d 98 bf 32 93 9d bd 52 89 02 bd
       0.29283094 -1.1913388 -0.07694091 -0.03186924
000250 8f f9 55 3e d8 4c 93 3d b1 f5 1d 3e cf 16 bb bd
       0.2089598 0.07192391 0.15425755 -0.0913521
000260 f7 eb c7 be 0c 73 71 3d 56 8b 33 3b 8f 76 4d bd
       -0.39047214 0.058947608 0.0027396283 -0.050161894
000270 c3 e3 09 bf d6 d5 e1 3d f9 0e b5 be bf 6d 67 3d
       -0.5386316 0.11027114 -0.35362986 0.056501146
000280 c6 32 ce 3e 9e 2f 80 be 40 06 a5 be 37 20 0c 3c
       0.40273112 -0.2503633 -0.3223133 0.0085526025
000290 c9 b4 0d 3e b7 d8 92 be 27 e5 90 3c c1 3e ed be
       0.13838495 -0.28680965 0.017687393 -0.4633694
0002a0 54 63 d8 3b 03 b4 36 3e d2 a2 87 be 40 b8 53 3e
       0.0066036377 0.17842107 -0.2649141 0.20675755
0002b0 07 b0 38 be fd 9c 63 be 10 db b6 be 41 a6 89 bd
       -0.18035899 -0.22227855 -0.35714006 -0.067211635
0002c0 31 f5 0a be 25 0e 27 3e 39 43 9b bd e2 09 16 3e
       -0.13570096 0.1631399 -0.07581181 0.14652207
0002d0 a6 89 c4 3d 89 55 d2 bb c7 0e b0 be 30 bf 27 3e
       0.09596567 -0.006418888 -0.34386274 0.16381526
0002e0 a5 32 b0 be 1d b3 72 bd 94 56 6a bc a4 36 00 3e
       -0.3441364 -0.059252847 -0.014302868 0.12520844
0002f0 e4 ae 57 bc ef 78 00 bf 37 51 06 be d8 31 d4 bd
       -0.013164256 -0.5018453 -0.13116919 -0.103610694
000300 62 bc 56 3e 67 5b ff be 98 39 80 be 1b 4f b5 bd
       0.209703 -0.49874422 -0.2504394 -0.08852979
000310 b8 14 98 3e 9b 6f bb bd 5b 17 0a 3e 11 4c 29 be
       0.29703307 -0.091521464 0.13485472 -0.16532923
000320 0f 51 9b be 65 f7 4d be ce 88 32 3e e3 8f 75 3e
       -0.3033528 -0.20113905 0.17435 0.2398067
000330 f7 90 fd 3d 43 36 ee bd e9 97 9a be 8b da 3b be
       0.123811655 -0.11631443 -0.30194023 -0.18345086
000340 08 6f 9b 3e ad 38 dc be 4c 65 43 3e f8 95 99 bc
       0.30358148 -0.4301199 0.1908161 -0.018748268
000350 7b 6b 88 3e 12 6e 09 be 9a 59 80 3c d6 e7 9f be
       0.266445 -0.13420895 0.015667725 -0.31231564
000360 ac 84 38 bf f5 3a a8 bd 71 c5 37 be 34 ed 49 3e
       -0.7207744 -0.0821437 -0.17946412 0.19719392
000370 16 db a1 3e db 24 64 be 96 f0 f0 be 03 e4 ff bd
       0.31612462 -0.22279684 -0.47058553 -0.12494662
000380 34 21 bb 3d 11 39 9e 3e 29 2e 23 3e e1 a2 a2 3e
       0.09137192 0.30902913 0.15935577 0.31764892
000390 ad 71 a4 3c 94 4d 0b 3d ff b0 24 bc 82 19 81 3d
       0.020073736 0.03400953 -0.010051965 0.06303693
0003a0 ad 7c 18 be 19 91 99 be 01 94 f9 bd ee 47 0e 3d
       -0.1489131 -0.29993513 -0.12186433 0.034736566
0003b0 1a 19 42 bd 94 68 03 be 5d be b7 3d 72 ec 85 3e
       -0.04738722 -0.12832862 0.08971856 0.26156956
0003c0 15 d5 81 bd 0b 42 47 3d 70 b8 b0 3d 45 2d f3 3d
       -0.0633947 0.048646968 0.08628929 0.11873869
0003d0 bc a1 c7 bd fb c7 ca bd 7f 9c 80 be 03 e2 bd bd
       -0.09747645 -0.099014245 -0.25119397 -0.09271624
0003e0 6e 8e 4d be 07 30 d0 3d 8c e2 91 3e f5 62 83 bd
       -0.20073864 0.101654105 0.28493154 -0.06415359
0003f0 06 ff 4b 3e 7a b0 23 be 00 fb 87 be 41 f7 51 3e
       0.19921502 -0.15985289 -0.26558685 0.20504476

bilstm.weight_hh_l0_reverse f4 [64, 16]
000000 1d f5 86 be cc 97 01 be 37 9f 9e 3e b0 da 20 3d
       -0.26358882 -0.12655562 0.30980846 0.039271057
000010 1f 9a ea be 5d f2 5a bc 2f cb c7 be e9 6f 06 be
       -0.4582071 -0.013363448 -0.39022204 -0.13128628
000020 1a 89 e3 bd fc cc a2 bd 84 92 b1 be bb 0c 52 3e
       -0.111101344 -0.07949254 -0.34682095 0.20512669
000030 01 75 41 3c 18 2d 6a 38 70 5f 4d 3e ab e2 83 bd
       0.011807681 5.5831944e-05 0.20055938 -0.06439718
000040 4c 5d 6b 3e 38 d9 4e 3e 75 32 12 be 98 92 63 3e
       0.22984809 0.2020005 -0.1427706 0.2222389
000050 d3 a8 60 3e 1d 77 0f 3e 6f e2 89 be 14 a9 17 3e
       0.21939401 0.14010282 -0.26930568 0.14810592
000060 5c 37 a1 be fa c7 d9 be 27 b4 f1 3e 35 49 c0 be
       -0.31487548 -0.42535383 0.47207758 -0.37555853
000070 22 c8 50 be 8f bc e7 be ed 84 80 be 53 70 61 3e
       -0.20388845 -0.45261046 -0.25101414 0.22015505
000080 16 1e 6b 3e 53 60 2a be 91 3d 84 bc 9d 0f 56 be
       0.22960696 -0.16638307 -0.016142638 -0.20904393
000090 08 65 4b 3e 49 77 45 3e 11 04 8d bd 58 55 aa bd
       0.19862759 0.19283785 -0.06885541 -0.08317059
0000a0 c1 34 a7 3e c3 9e 4b 3e 97 4e a9 bd 75 ad d0 3d
       0.32657436 0.19884782 -0.08266943 0.10189334
0000b0 c6 77 9f 3e b3 cc 36 3e 51 66 56 3d 36 4b ca bd
       0.31146067 0.17851524 0.05234367 -0.098776266
0000c0 a6 57 b6 bc 93 cf 38 be 9d e6 0f 3f 0b ac f3 bd
       -0.02225859 -0.18047933 0.5621126 -0.11898049
0000d0 2a 73 ba 3d 84 c8 07 be 7b 6b eb 3e ca 39 b5 3e
       0.09103997 -0.13260084 0.4598044 0.35395652
0000e0 e3 d8 19 3e d4 3f 5b 3d 31 07 79 3e 60 0e d1 bd
       0.15024142 0.053527668 0.2431915 -0.1020782
0000f0 21 64 a7 bd 4a c2 ef bd ff f6 82 bd e6 18 02 bf
       -0.08173395 -0.117069796 -0.06394767 -0.5081924
000100 02 5a 44 3e 38 22 48 3e a8 20 23 be d6 e6 cf 3e
       0.1917496 0.19544303 -0.15930426 0.406058
000110 f0 b7 80 3e 39 ed 0c 3f f2 24 0f be e8 5f 82 3e
       0.25140333 0.55049473 -0.13978937 0.25463796
000120 80 6f 76 be a9 bb 06 bf b2 cb b5 3e 5e f0 4e be
       -0.24065971 -0.52630097 0.3550697 -0.2020888
000130 46 0e 8c be 78 d5 ce be 6e 45 1e bf 5f ef e1 3b
       -0.2735464 -0.4039724 -0.6182469 0.0068949903
000140 71 e5 88 be 78 7d 08 be 10 e3 47 be 34 e5 11 3e
       -0.2673755 -0.13329113 -0.19520211 0.1424759
000150 26 7e 52 3b 57 52 48 3e 04 37 17 3e f8 69 39 3e
       0.0032118647 0.1956266 0.1476708 0.1810683
000160 cf 3b f6 bd de c2 98 3d 3d ec c7 bd e4 19 22 3e
       -0.12023126 0.07459043 -0.09761856 0.15830189
000170 38 1f 4c be cf 60 00 3d a3 14 83 3c f7 bc b7 bd
       -0.19933784 0.031342324 0.016001051 -0.08971589
000180 27 c3 9e bd 2d c5 08 bd 85 96 fe bd f0 a2 bf be
       -0.07752066 -0.033391166 -0.12431053 -0.37429
000190 4a 95 7f be 34 ae e3 be 42 8c 54 bf 7c 09 f7 be
       -0.24959293 -0.44468844 -0.83026516 -0.48249424
0001a0 97 57 63 3e 47 98 b6 3e b3 4d 95 3c f0 4a 9a 3e
       0.22201382 0.35663053 0.018225526 0.30135298
0001b0 48 d0 d0 3e 15 0f 15 3d 35 da 0f 3e 71 7c 55 3e
       0.40783906 0.036391336 0.14048083 0.20848252
0001c0 f7 9f 9d 3e 75 9f cc bc e8 54 50 bf 47 af b4 3d
       0.30786106 -0.024978379 -0.81379557 0.08822494
0001d0 86 a4 72 3e 73 47 f4 bc 1a 17 20 3f ba af 59 be
       0.23695573 -0.029819226 0.6253525 -0.2125844
0001e0 21 49 9d 3e 54 7e da 3d ca 6a 06 bc 9a 94 24 be
       0.30719855 0.106686264 -0.008204171 -0.16072312
0001f0 8f be 4b 3e 7c b4 de 3d 67 9c 97 be 4f bb 7c 3c
       0.19896911 0.108742684 -0.29611513 0.015425517
000200 2a 73 cf be a3 fa 92 be bd 7f 9e 3e 9c 8e c6 be
       -0.4051755 -0.28706846 0.30956832 -0.38780677
000210 aa 21 18 be a3 50 af bd 0d 24 09 bf 8b f9 c6 39
       -0.14856592 -0.08560302 -0.53570634 0.00037951427
000220 1a 8b 11 3e b4 a1 8c 3e 68 32 17 be 2a 52 9f 3d
       0.1421322 0.2746712 -0.14765322 0.077793434
000230 61 dd 4e bd 1c 77 a0 3a fa 44 bf bd 30 f7 40 3f
       -0.050504092 0.0012242529 -0.09339328 0.7537718
000240 3a 32 4a 3d b3 29 f4 3e ff c7 2d be be dc 80 3e
       0.049364306 0.47688064 -0.16970824 0.25168413
000250 e1 d7 66 3e c7 be de 3e cd c1 f8 bb 03 d4 25 3f
       0.22543289 0.43504927 -0.007591462 0.6477663
000260 02 1f ce bd c9 09 30 bf f6 80 1b 3e fb 85 08 bf
       -0.10064508 -0.6876493 0.15185913 -0.5332944
000270 f3 75 ba bd aa ef 06 bf 79 e7 c7 be a1 cf 12 be
       -0.09104528 -0.5270945 -0.39043787 -0.14337017
000280 22 1c 30 bc c1 44 d3 bd 5f 5e 0e bf f4 d7 bc 3d
       -0.010748895 -0.10315848 -0.5561275 0.09220877
000290 ae 11 5c 3d 00 8d b5 be 1f 5f c0 3d fe 2a 66 3e
       0.0537278 -0.35459137 0.09393143 0.22477338
0002a0 4d d0 c3 3e 87 f1 06 3e ba 60 97 3e 89 9f 4c 3d
       0.38244858 0.13178073 0.29565984 0.049956832
0002b0 5f d5 58 3e 2c 56 bd bd f4 99 91 be 7d 8c 3e 3d
       0.21175145 -0.092449516 -0.2843777 0.0465207
0002c0 a8 87 17 be cc 9a d5 3c 54 97 20 bf a9 b8 86 bd
       -0.14797843 0.02607479 -0.6273091 -0.0657819
0002d0 6a a8 83 be 91 05 65 be 34 fe 1d bf d0 2b 4d be
       -0.25714427 -0.22365405 -0.6171601 -0.20036244
0002e0 71 fe 19 bf 47 56 61 be b6 68 79 be b1 1f ee be
       -0.6015387 -0.22005568 -0.2435635 -0.46508554
0002f0 c4 38 60 be ef 14 fe bd 7d fc c5 3e 2e 5a 11 3f
       -0.21896654 -0.124063365 0.38669196 0.5677823
000300 74 df 83 bd e4 99 75 3e 7c 6a c8 be 8d 5b 22 be
       -0.06439105 0.23984486 -0.3914374 -0.15855236
000310 03 d2 1f 3e 4c f3 6f be 97 6b 1c bf b6 56 80 be
       0.15607457 -0.23432654 -0.6110167 -0.25066155
000320 54 25 7e be 8e 52 c7 bd 9c e2 84 bc b1 11 6e be
       -0.24818927 -0.09732543 -0.016221337 -0.23248936
000330 f7 38 65 be 71 44 31 be 66 b3 98 3e 75 cc 1f 3f
       -0.22385012 -0.17311265 0.2982437 0.6242135
000340 e2 95 a9 be c5 0b 20 be d3 3b 2b 3e e4 57 89 be
       -0.33122164 -0.1562949 0.1672204 -0.26824868
000350 14 3c 97 3e d7 38 81 be 4a bf 13 3f 8d be c3 3e
       0.29538023 -0.25238678 0.5771376 0.38231316
000360 e4 c0 d9 bd ef ad 6e be 49 ad 5a 3e 8b c1 af bd
       -0.10632494 -0.23308538 0.21355166 -0.08581837
000370 7c ab 9f be 20 39 5e be 25 ac e9 be c5 d8 92 be
       -0.3118552 -0.21701479 -0.45639148 -0.28681007
000380 fa 33 ec 3d dd 66 12 be cf 3f 63 bf 4b 77 30 be
       0.11533351 -0.14297052 -0.8876924 -0.17233007
000390 ba b8 e6 be 44 0f a4 3e 5a 63 a3 3d 93 ad fc be
       -0.4506281 0.32042897 0.07977934 -0.49351177
0003a0 3b 64 4e 3e ee 7f 4e 3d 0b 49 4c 3c fd ad 08 3e
       0.20155422 0.050414972 0.012468587 0.13347621
0003b0 47 8e 20 3e ff f0 43 3e ec 74 04 3e ba 3a 8e 3d
       0.15679274 0.19134901 0.12935227 0.06944795
0003c0 51 72 48 3e 42 7a 98 bd 72 7c c0 bd f3 0a c2 be
       0.19574858 -0.07445194 -0.09398736 -0.3789898
0003d0 25 51 87 3c eb 89 a5 3c dc ea 1c bf c8 35 61 3c
       0.016518185 0.020207366 -0.61295867 0.013745733
0003e0 b7 56 a5 3e e0 a1 03 3e f2 de 68 be e3 43 22 3d
       0.3229272 0.12854719 -0.22741297 0.039615523
0003f0 fa 2c 2b 3b 7b b7 da 3e 41 b8 1b 3e 74 bb a3 3e
       0.0026119337 0.4271811 0.15207006 0.31978953

bilstm.weight_ih_l0 f4 [64, 32]
000000 ab b0 f1 3c 03 a9 60 3d 16 a6 3d 3c e5 8a 33 bd
       0.029503187 0.054848682 0.0115752425 -0.043833632
000010 fc ce a2 3d 3a 5b 23 be 0a 06 25 be 23 24 09 be
       0.079496354 -0.15952769 -0.16115585 -0.13392691
000020 fe 89 ec bb e8 6f 32 be ee 87 70 3e 7b af 91 bd
       -0.0072185984 -0.17425501 0.23489353 -0.07113548
000030 02 99 b5 be 41 0d 9c be 8f a4 01 be 48 40 ec 3e
       -0.35468298 -0.30478862 -0.1266043 0.46142793
000040 15 11 17 3d aa 9d fd 3a f9 1e 00 bc b5 c2 a0 bd
       0.036881525 0.0019349356 -0.007819884 -0.078496374
000050 3c db f9 3b 07 26 e1 bd 84 e1 a0 bd 8e b1 17 3d
       0.0076250117 -0.10993581 -0.07855514 0.037034564
000060 0c db c6 be f3 7a 3a be b6 16 dd bc 3e 57 d1 3d
       -0.38838995 -0.18210964 -0.026988368 0.10221718
000070 e2 bc 72 3e c2 82 81 3e e8 4e 76 be f8 19 a8 be
       0.23704866 0.25295073 -0.24053538 -0.32832313
000080 85 30 c1 bc e0 a3 25 bf f3 25 bd be 7c d6 44 be
       -0.023582706 -0.6470318 -0.36943015 -0.19222444
000090 26 79 48 be b5 7c ca 3d 91 94 56 bd e2 90 ad be
       -0.19577464 0.09887067 -0.052387778 -0.338996
0000a0 fe 5b 22 be 76 f9 89 be 09 d0 a3 be b6 81 1d 3f
       -0.15855405 -0.26948136 -0.31994656 0.6152605
0000b0 ba 88 b3 be c1 4d 60 be 5c e5 c9 3d a2 af e6 3d
       -0.35065252 -0.21904661 0.098582 0.11263968
0000c0 be 38 8d 3c 67 3d a1 be 31 cd 93 3e d9 68 cd bc
       0.01723897 -0.3149216 0.28867486 -0.02507441
0000d0 52 e2 bd bd d6 9e 28 be b8 bf 81 be a5 0f 2f be
       -0.09271683 -0.16466841 -0.25341582 -0.17095812
0000e0 9f 96 6c be 1e f8 ef 3e fd b2 6d be 48 40 d3 3d
       -0.23104332 0.46868986 -0.2321281 0.10314995
0000f0 d1 67 83 3d 83 f3 f8 be 5e 02 7f 3e a1 5b 4a be
       0.06416286 -0.48623285 0.24903247 -0.19761516
000100 71 0e 61 3e 5e ee 2d 3e ab 29 15 be a8 5e 2b 3d
       0.21978165 0.16985461 -0.14566676 0.041838318
000110 cc 29 81 3e 24 25 af bb ac 12 13 be df 7b 25 be
       0.252272 -0.0053450037 -0.14362592 -0.16160534
000120 50 bd 06 3e 87 4a 0e 3e 8e 97 5b 3e 4c 41 03 40
       0.13158154 0.13895617 0.21444532 2.0508604
000130 49 11 ae bd af 8e 1f 3e a6 74 ee 3d 53 25 32 3d
       -0.08499391 0.15581773 0.11643343 0.043492626
000140 57 55 44 be 09 db e6 3e 1c a0 ea 3e 5b 06 69 3e
       -0.1917318 0.45088986 0.4582528 0.2275633
000150 a8 59 bd 3e f8 1e 5e 3f 75 f2 0f be 7b 11 e3 3d
       0.36982465 0.86766005 -0.14057334 0.110873185
000160 89 cd 89 bd ec 59 6a be eb 6d e6 3e 4b a2 7c bd
       -0.06728656 -0.22885865 0.45005736 -0.061678212
000170 59 a5 21 3e f8 80 bb 3e 88 47 eb 3d 06 7d d4 bd
       0.15785731 0.36621833 0.11488253 -0.10375409
000180 bd 15 0d 3e c2 3c 0a 3e eb ff bb 3e 02 39 3a bd
       0.13777824 0.1349974 0.36718687 -0.045464523
000190 b8 1b f5 3e 5e 07 86 bf 23 f0 10 3d 5f 30 28 be
       0.4787271 -1.0470998 0.035385262 -0.16424702
0001a0 ba 48 bf 3d 5b 78 0a 3e c9 84 e0 be c2 ca aa bf
       0.09340043 0.13522474 -0.43851307 -1.3343127
0001b0 3d f3 9f 3c 86 0a f3 3e a7 b8 64 3e b7 cf f6 3d
       0.019525165 0.47468966 0.22336064 0.12051337
0001c0 e3 7d 62 3e c4 a2 74 be dd 05 4a 3d d3 6a 55 3e
       0.22118334 -0.23890215 0.049321998 0.20841531
0001d0 5d 60 5c 3d 9d 97 df be c7 54 01 3d b4 18 7d be
       0.053802837 -0.4367036 0.03157499 -0.24716455
0001e0 20 33 9e be 08 c6 b4 bc a4 d6 09 be de 32 ea bd
       -0.3089838 -0.022067085 -0.13460785 -0.114354834
0001f0 ba 77 7d be 12 7f 89 be 86 1c 3d 3c 89 06 67 be
       -0.24752703 -0.2685476 0.011542445 -0.22561087
000200 1e 3f 93 3e 8a 01 1c bd d7 16 59 3c 68 d8 6b 3d
       0.28759092 -0.038087405 0.013250074 0.057579428
000210 ad 51 29 be db e5 1e be 79 00 5d bd 63 d4 97 3e
       -0.16535063 -0.1551737 -0.05395553 0.29654226
000220 8a 9e 96 bd c5 b0 6f 3e 75 ae f2 3d 79 cd 91 bf
       -0.07354458 0.23407276 0.11849681 -1.139083
000230 cf 0e 76 3d a3 4e 90 be 51 9a c1 3e f5 16 b6 3e
       0.060072716 -0.28184995 0.37813047 0.3556439
000240 ed 15 9a bd f6 33 ce 3d 66 41 35 3e e0 1e 14 bc
       -0.07523713 0.100685045 0.17700729 -0.009040564
000250 bf db aa bc 15 dd 17 3e 4d 7c 3c be cc 2e 19 be
       -0.020856736 0.1483043 -0.18406792 -0.14959258
000260 60 4b 1a be 5c 62 d9 be 2f 22 a3 3b 14 58 8a be
       -0.15067816 -0.42457855 0.0049784402 -0.27020323
000270 04 c3 08 be a4 17 dc bd f8 4d 52 be a9 5d d2 3d
       -0.13355643 -0.107466966 -0.20537555 0.102717705
000280 cc 5a 1e 3d 58 e0 02 be a0 92 c8 3e 28 bc 6a 3e
       0.03866081 -0.12780893 0.39174366 0.22923338
000290 9f 03 5a 3e 39 5a 15 3e f3 48 67 3b 3f b3 c6 bb
       0.21290444 0.14585198 0.0035291284 -0.0060638483
0002a0 d9 26 1d 3e f1 59 36 be be 16 93 3e a3 e6 48 bd
       0.1534685 -0.17807747 0.28728288 -0.049048077
0002b0 90 07 11 be f4 cf 31 be de af 19 3e 1e ed a3 3e
       -0.14163041 -0.17364484 0.15008494 0.32016844
0002c0 05 40 e4 3d 78 30 a1 3d 45 85 3c be f5 29 c6 3d
       0.11145023 0.07870573 -0.18410213 0.096759714
0002d0 8c ff 07 be 63 77 f2 3e dd 24 f2 3e cb c9 2f be
       -0.13281077 0.4735671 0.4729375 -0.17166822
0002e0 0c 06 09 be 67 42 87 bd 8c 50 bc be 34 95 9b be
       -0.13381213 -0.06604462 -0.36780202 -0.3038727
0002f0 39 5d 79 3e 04 65 7b 3e 5f cf c4 be ce d2 31 3e
       0.24351968 0.24550253 -0.38439462 0.17365572
000300 42 b7 5f be 31 73 26 bb 54 94 09 bf af a6 e9 bc
       -0.21847251 -0.002539825 -0.53741956 -0.028521864
000310 60 64 33 be 09 05 28 3d 54 7d ab 3e 02 b9 c9 3d
       -0.17518759 0.041020427 0.33494055 0.098497406
000320 61 7d 37 be 86 57 d8 bd 1b bd d2 3e 68 c3 5a be
       -0.17918922 -0.10563569 0.411599 -0.21363604
000330 62 e9 4b be 34 88 cb bd 36 88 1b be 02 bd 4c 3d
       -0.19913247 -0.09938088 -0.15188679 0.04998494
000340 56 fc ed bd 9f f0 7d be 23 24 28 be 89 eb 3e be
       -0.11620395 -0.24798821 -0.16420035 -0.18644537
000350 f6 44 fe be f1 e3 99 3d 36 54 b1 3e 24 d2 92 bc
       -0.49661988 0.075141795 0.3463456 -0.017922468
000360 ae 60 98 3e 09 fa 4b be 3a ee 90 bd b2 e0 c4 3a
       0.2976126 -0.199196 -0.07076688 0.0015020578
000370 53 7a 45 bd 18 bf 87 3c d0 a8 02 3f d8 59 a3 3e
       -0.04821236 0.016570613 0.5103884 0.31904483
000380 bf ce c8 3d af ad e8 bd ee 99 67 3e 7d 5a 18 3e
       0.09805059 -0.113612525 0.22617313 0.14878269
000390 ee ff 4a bd 8f 6e 2f 3e 89 e7 fd 3e 5d 87 36 bb
       -0.04956048 0.17132019 0.4959071 -0.002785168
0003a0 80 b0 bc 3e d7 fd 04 3f b8 54 a5 3d a0 d1 a1 3f
       0.3685341 0.5194983 0.080727994 1.2642097
0003b0 b9 69 9c 3d e6 67 26 3e 5a ea cf 3d f2 de c7 3e
       0.076373525 0.16250572 0.10152121 0.3903728
0003c0 ab 4e 76 3c 7e 32 0e 3f cf 1e 3c be 3f c8 17 3f
       0.015033404 0.55545795 -0.18371128 0.59289926
0003d0 44 24 8d 3e eb c9 22 3d 6c ad 90 3c 53 79 52 3e
       0.2756673 0.039743345 0.017660819 0.20554094
0003e0 f6 5e 72 3e 32 d4 43 bd 4f 3d 06 3f fc 75 4c be
       0.23669037 -0.047809787 0.524373 -0.19966882
0003f0 a6 9d da 3d 1a 4a 56 3e 98 f8 60 3e 3e c8 25 3d
       0.106746 0.20926705 0.21969831 0.04047417

bilstm.weight_ih_l0_reverse f4 [64, 32]
000000 ed 63 16 bd 7d 4a 2d 3d 94 60 ca bd f8 d2 07 3d
       -0.03671639 0.042307366 -0.09881702 0.03316018
000010 7c 27 17 be c9 93 11 3f 43 c7 4a 3e 3b 15 91 3e
       -0.14761156 0.5686613 0.19802575 0.2833651
000020 db 00 7e 3e a0 e1 16 3e 9c 69 b0 be 0d 1e 19 3e
       0.24805014 0.14734507 -0.34455574 0.1495287
000030 9b a4 93 3d 2f 27 1a bd e0 b2 e7 3e 6e a9 6a be
       0.072091304 -0.037635025 0.45253658 -0.22916195
000040 b9 66 df bc ab 1c 6f be 28 be e4 3d fe d4 e8 bc
       -0.027270662 -0.2335078 0.11169082 -0.028421875
000050 7c 95 7a 3d 9e b9 4b 3e e8 7f 71 3e f1 b5 61 3d
       0.061177716 0.19895026 0.23583949 0.055105153
000060 a6 28 c0 be 60 88 bf bb a6 e2 9d 3d a5 c3 f3 be
       -0.37531012 -0.0058451146 0.077092454 -0.47610202
000070 32 bd 46 be 4b 7c 85 bc f0 0d f3 3e 0e 53 bf be
       -0.1940811 -0.016294619 0.4747157 -0.37368053
000080 eb 7a 08 bd 22 f7 0d 3f d2 2c 50 3e 86 ce b5 3d
       -0.03332035 0.5545522 0.20329598 0.08877282
000090 64 30 93 3e a1 b0 15 bf 68 29 fe 3d e5 98 18 3d
       0.28747857 -0.5847264 0.12410241 0.037255187
0000a0 25 47 e6 3e bb 61 49 3c e3 93 2e 3d a0 58 4c bf
       0.44976154 0.012291367 0.042621505 -0.7982273
0000b0 e6 89 55 3e d1 e9 34 3e 59 71 58 3e 6f fb 05 3f
       0.20853385 0.17667319 0.21136989 0.5233678
0000c0 31 51 26 3e 08 c5 2b 3f 61 df c8 bd c2 03 49 3e
       0.1624191 0.6709752 -0.09808231 0.1963034
0000d0 c7 63 c5 be 37 10 32 3f e3 71 8d bd 50 fe d8 3e
       -0.38552687 0.6955599 -0.06906488 0.42381525
0000e0 7e 3a 3c 3f 27 85 c2 be 8a b0 c3 be bb cf 99 bd
       0.7352675 -0.37992212 -0.38220626 -0.075103246
0000f0 60 d7 07 3e ca 0d 9b bd 86 89 d0 bd 0e 8a 86 be
       0.13265753 -0.075709894 -0.101824805 -0.26277202
000100 53 7a 34 be a3 14 6e be 74 f9 23 bf 58 aa b8 bd
       -0.17624788 -0.2325006 -0.6405251 -0.090168655
000110 83 89 c2 be ff 6c 6f 3e b0 29 55 be ac 51 8b be
       -0.37995538 0.23381422 -0.20816684 -0.27210748
000120 9a 0d a9 be ce 76 16 be f9 8b 87 be 57 4c 7c 3e
       -0.3301819 -0.14693758 -0.26473978 0.24638496
000130 dd 9e fa 3d 27 3a cc 3d 53 95 24 be d6 7e 58 bf
       0.12237332 0.09972029 -0.16072588 -0.84568536
000140 76 9e 1f be 79 6c ad bc 90 4c 19 be 8a 03 c6 3d
       -0.15587792 -0.021169888 -0.14970613 0.09668644
000150 c4 0d 3a 3e 75 2a 39 be aa b5 28 be 15 bc c9 be
       0.18169314 -0.18082602 -0.1647555 -0.39401308
000160 52 92 27 bf 38 f8 79 3e 76 f9 80 3d d5 4b 11 bc
       -0.6545764 0.24411094 0.06297581 -0.008868177
000170 fb 63 ab bd 1d e7 9d be 1e 2b be be 02 ed 3d 3e
       -0.08368679 -0.30840388 -0.3714227 0.18547443
000180 98 51 7c be 83 38 55 be 7c 6d be bd 49 38 85 3e
       -0.246405 -0.20822339 -0.09298226 0.26019505
000190 54 3e 74 3e 47 b4 72 3f b1 c2 c9 bd 7e e8 85 3d
       0.23851901 0.9480633 -0.098515876 0.06538485
0001a0 39 f4 a4 3e 2c 30 33 be fb 44 92 be fc 23 5e bf
       0.32217577 -0.17498845 -0.28568253 -0.8677366
0001b0 84 ab e3 bd c8 b4 81 3c 66 85 09 3b 98 d1 3d bd
       -0.111166984 0.015833274 0.0020984053 -0.046342462
0001c0 ad 91 dd 3d e2 d1 d3 3d fd 0d 94 3c 16 ef 5a 3d
       0.10818801 0.10342766 0.018073076 0.053450666
0001d0 79 47 d4 3b f4 26 73 bc 45 b7 31 3d 74 0f be bd
       0.0064782468 -0.01484083 0.04338767 -0.09280291
0001e0 f2 1d f6 bd 49 69 c5 3e 6a c3 38 3e 66 b9 23 3e
       -0.1201743 0.3855689 0.18043295 0.15988693
0001f0 63 57 7f 3e 15 bc 86 3e fd cd 20 3f 0c 9c 60 be
       0.24935679 0.2631537 0.62814313 -0.21934527
000200 7b d4 31 3e 83 38 13 be ca 63 38 3e a1 ad a0 3e
       0.17366211 -0.14377026 0.18006817 0.31382468
000210 4d 5c 90 bd 4a 70 ad be 88 c8 9d bc 53 bd 5f be
       -0.07048855 -0.33874732 -0.01926066 -0.21849565
000220 05 a8 0d 3e 32 df eb 3e 6f 74 b5 bd 23 a7 88 3f
       0.13833626 0.46068722 -0.088600986 1.0676006
000230 c9 b4 0a 3e 68 71 e7 3e 95 06 90 3c ce a3 a7 3e
       0.13545527 0.4520371 0.017581264 0.3274216
000240 0a 1e fc 3d 98 ab 57 3e a1 f3 49 be dc 61 41 bc
       0.12310417 0.21061552 -0.19721843 -0.011803117
000250 2e cd 10 3f 16 56 12 3f 74 7e fc 3b d8 6f 92 3e
       0.5656308 0.57162607 0.007705504 0.28600955
000260 1b 80 99 3e f3 cd 94 bd 53 7b 87 3e 6e d9 a8 3e
       0.2998055 -0.07265844 0.26461276 0.32978386
000270 85 fe 00 b9 0f 7d a8 3e 62 1c 27 be 49 a2 56 3e
       -0.00012301847 0.32907912 -0.16319421 0.20960344
000280 5e 61 60 3e 08 2e b6 bc ac df ae 3e a1 d4 12 be
       0.21912143 -0.022238746 0.34155023 -0.14338924
000290 4c ca ae 3e 23 d8 2b be be c0 79 be e4 aa 4c 3e
       0.34138715 -0.16781668 -0.24389932 0.19987065
0002a0 ca 7b 12 3e 10 58 2c be 44 47 12 be b8 f5 90 3e
       0.14305034 -0.16830468 -0.14284998 0.2831247
0002b0 f7 24 35 be 3c 15 17 be e8 6a 6d 3d d0 c6 db bd
       -0.17689882 -0.14754194 0.057963282 -0.1073128
0002c0 29 8a 21 be 17 8e 1d bc 64 e2 1d be 63 ab a9 ba
       -0.1577536 -0.009616396 -0.15418392 -0.0012944754
0002d0 aa 6d 2f 3e 58 95 72 3f cc 84 56 be 52 d7 75 be
       0.17131677 0.9475913 -0.20949095 -0.2400792
0002e0 95 74 f7 3e 1e 57 7e 3e a1 01 5a 3e 15 a1 00 bf
       0.48331133 0.2483792 0.21289684 -0.5024579
0002f0 79 95 26 be b2 19 19 3e b3 9c 39 be be 29 c8 be
       -0.16267957 0.14951208 -0.18126182 -0.39094347
000300 77 4e ee bc 43 02 92 3e df 62 36 bd 93 0f f6 bd
       -0.02909015 0.2851735 -0.044527885 -0.12014689
000310 ac b5 60 3d 1e f0 58 be a1 8c 63 bd 2e a4 e3 bd
       0.054860756 -0.21185347 -0.055554036 -0.11115299
000320 aa 66 58 be b5 fd 80 be 0e 25 32 3e 86 18 18 bf
       -0.21132913 -0.25193563 0.17396948 -0.5941242
000330 ce 6d 5a be 59 6b 4d be 09 75 38 be a9 5d 42 be
       -0.2133095 -0.20060481 -0.18013395 -0.18981041
000340 49 50 64 3e a2 eb 0d be 23 ae 77 3e 72 81 fb bc
       0.22296251 -0.13859418 0.24187522 -0.030701373
000350 7a 4c a3 be 0c 17 84 be bd 0e 13 3d d1 7c 63 be
       -0.31894284 -0.25798833 0.035902727 -0.22215582
000360 b0 86 9c 3d db 99 29 bd d9 7f 3c be 7b f5 86 3e
       0.07642877 -0.041406494 -0.18408145 0.26359162
000370 f8 a8 8b 3d 60 bc 01 be 1d 8c 0c 3e 2e 51 27 3d
       0.068193376 -0.12669516 0.13725324 0.040848903
000380 c5 ff 6f 3d c4 b4 a5 bd fa 62 8b bd 67 e4 86 3e
       0.05859353 -0.08091119 -0.06805988 0.26346132
000390 07 6f 2b 3c 4d 51 ad bc 4d 57 e4 bd 3f c2 00 3e
       0.010463483 -0.021156931 -0.11149464 0.12574099
0003a0 fe da 81 bd 8a b9 65 bd 1c 93 0e 3e ac 75 8a be
       -0.063405976 -0.056085147 0.13923305 -0.27042902
0003b0 c7 68 80 bd 86 e3 c4 bd 6f 49 d3 bd 71 51 b4 3e
       -0.06269985 -0.09613709 -0.10316741 0.35218385
0003c0 8b 1f 2f be fe 3b 2f bd 66 65 08 3e a0 9c 7e 3e
       -0.17101876 -0.042781822 0.1331993 0.24864435
0003d0 e3 00 a8 3d 41 a6 03 be 0a 8c 69 be 79 0b 85 3d
       0.08203294 -0.1285639 -0.22807327 0.06496329
0003e0 0f af 9c 3e 24 79 a9 bd 7b c8 a0 3d 92 50 27 3b
       0.3060231 -0.08275059 0.078507386 0.0025530201
0003f0 23 9e 20 3e 61 89 26 bd 37 a4 89 be 2a 39 e4 3d
       0.15685324 -0.04065836 -0.26883098 0.11143716

parallel_cnn_block.branches.0.0.weight f4 [1, 1, 2]
000000 90 50 ff 3e 3b 97 20 3f
       0.49866152 0.6273076

parallel_cnn_block.branches.0.2.bias f4 [16]
000000 0d db 57 3d 8e e0 2c 3f c1 1d 26 bf 0a 92 03 3e
       0.052699137 0.67530143 -0.6488915 0.12848678
000010 c1 14 b7 bc 3b 28 5e be e0 c6 9e be 93 1d fd 3d
       -0.022348763 -0.21695034 -0.31011105 0.123591565
000020 9e 29 d0 be 94 ef c6 3e c7 de ea 3e ae c6 53 bf
       -0.4065675 0.3885466 0.4587309 -0.82725036
000030 0c 7c 1a 3d c2 91 62 3d 10 3c 5c 3d 3c 3a b9 3e
       0.037715957 0.055314787 0.053768218 0.36177242

parallel_cnn_block.branches.0.2.weight f4 [16, 1, 2]
000000 4e 85 e8 3e 5e 14 18 bf 72 ff d3 bd 1c 34 01 3f
       0.45414203 -0.5940608 -0.10351457 0.5047014
000010 7b ee 1a 3f 61 2e a4 be f9 ec 62 3e ee 3f 72 be
       0.6052014 -0.32066634 0.2216071 -0.236572
000020 fb 6b d2 bd b8 a0 05 3e 0d 6e 38 3e 39 0b 8a bd
       -0.10274502 0.1304959 0.18010731 -0.06740422
000030 f3 79 d0 3d 76 8e c1 bd 86 86 f8 3e 96 33 f1 be
       0.1017951 -0.094510004 0.48540133 -0.4710967
000040 da 12 b9 3c 9d 16 32 3e 50 f4 fc 3c 05 de b8 be
       0.022591997 0.17391439 0.030878216 -0.36106887
000050 35 50 e7 3e 5b b6 20 bf cf 64 97 3d 41 d1 08 3e
       0.4517838 -0.6277825 0.073922746 0.13361074
000060 91 b2 d8 3e 6f 90 19 bf 20 8c 0f 3f 32 f6 0b bf
       0.42323735 -0.59986013 0.5607319 -0.5467254
000070 57 a9 16 be 90 2e 1d 3e 43 4f b0 bf 04 b4 da 3e
       -0.14713036 0.15349793 -1.3774189 0.42715466

parallel_cnn_block.branches.1.0.weight f4 [1, 1, 4]
000000 5c 09 18 bd d4 89 1d 3f 9d dd 8a be b1 4c cb 3c
       -0.0371183 0.61538434 -0.27122203 0.024816843

parallel_cnn_block.branches.1.2.bias f4 [32]
000000 47 f3 3f 3d 1e 92 d1 3d 72 a8 fe 3e 72 63 07 39
       0.046862867 0.10232948 0.4973789 0.0001291165
000010 85 f4 3a bb 9a 56 fd be ac 3a 4a 3e 98 99 0e be
       -0.0028527093 -0.49480134 0.19748944 -0.13925779
000020 5b 5d 01 be c0 25 c2 be 27 56 f1 3d dd e4 fa 3e
       -0.12633269 -0.37919426 0.117840104 0.49002734
000030 77 f2 00 3f 27 3d 14 be f7 48 ff be 85 ef cb be
       0.5036997 -0.14476453 -0.49860355 -0.39831176
000040 81 6c a5 3e a8 16 59 bc c1 cf 5e 3e 28 c9 cc 3d
       0.32309344 -0.013250031 0.2175894 0.09999305
000050 f3 50 36 be 31 39 33 bc 16 47 01 bf 9f f8 3a bd
       -0.17804317 -0.010938928 -0.50499094 -0.04564726
000060 53 f3 56 3e 0a 6d 0b 3f 4c df b3 bd c5 78 c5 3e
       0.20991258 0.54463255 -0.08782825 0.38568702
000070 ec 70 0a bf 86 68 f3 bd 96 5a 22 3d e0 22 58 3c
       -0.54078555 -0.11885171 0.03963717 0.013191909

parallel_cnn_block.branches.1.2.weight f4 [32, 1, 4]
000000 b8 9a 0f bf da 85 ac 3e a5 ff 8f 3e c7 49 68 3e
       -0.5609546 0.3369587 0.2812473 0.22684394
000010 b7 a9 2e bf 32 0d e7 be 27 0e ca 3e 43 b0 2b 3a
       -0.68227714 -0.45127255 0.39463922 0.00065493974
000020 0a e9 2c bc c9 15 f1 be 99 26 7e 3e 46 4f dd 3e
       -0.010553608 -0.47086933 0.24819411 0.43224543
000030 6d bd c2 be 06 88 a0 3d 65 04 59 3e 19 03 87 bf
       -0.38035145 0.078384444 0.21193083 -1.054782
000040 a4 a9 d8 3a 4f b7 3c 3b f3 f2 14 3f 4d b4 dc be
       0.0016530049 0.0028795784 0.5818321 -0.4310631
000050 b6 13 3e be e4 43 02 3f 31 3b a3 bd e9 48 e1 bd
       -0.18562207 0.5088484 -0.07970274 -0.11000235
000060 60 14 d0 be bf 42 04 3f ff b5 d0 bc 8f 61 09 3e
       -0.40640545 0.51664346 -0.025477408 0.13416122
000070 b0 4d 68 3e 65 16 6c 3e 97 15 d0 3e a7 4d 3e bf
       0.22685885 0.23055418 0.40641472 -0.7433724
000080 51 39 39 bb 3f 5e 41 3c cb 83 38 3f be 07 22 bf
       -0.0028262923 0.011802255 0.720761 -0.63293064
000090 a0 d7 9a 3e b3 db 8b be 4a a3 9b 3e 70 93 5f 3d
       0.30242634 -0.27316055 0.30398017 0.054583967
0000a0 62 4b 47 3e f1 0c 28 3f 93 c3 0a bf 69 40 f5 bd
       0.1946235 0.65644747 -0.5420467 -0.11975176
0000b0 58 0a 89 bd 18 0f b7 3e 43 6c ce be c7 49 3c 3e
       -0.06691426 0.35753703 -0.40316972 0.18387519
0000c0 84 a7 50 3e be 5a b6 be 62 db 57 3d 10 42 6d 3e
       0.20376402 -0.35616106 0.052699454 0.23169732
0000d0 68 ad 0c bf fd 8b 0f 3e 96 9c 37 3f 71 b9 1b be
       -0.54952097 0.14018245 0.71723306 -0.15207459
0000e0 f8 b8 1f 3e ef 09 14 3e 91 c7 4a be af 18 18 3f
       0.15597904 0.14456914 -0.19802691 0.59412664
0000f0 32 44 15 be 2e e3 9d bc c2 07 23 be 23 66 ff bd
       -0.14576796 -0.019273367 -0.15920928 -0.12470653
000100 90 e5 30 be ef 73 07 3f a9 ae 65 bf 3d 42 09 3f
       -0.17275071 0.52911276 -0.89719635 0.53616697
000110 b8 f9 8d be 5b 20 79 3e e0 39 bb 3e 7f 52 13 3e
       -0.27729583 0.24328749 0.36567593 0.14386939
000120 7c 1a 64 3e 89 36 79 bf 97 a2 1f bd aa 86 03 bf
       0.22275728 -0.9734884 -0.038973417 -0.51377356
000130 66 b9 12 bd 35 d6 f2 3e 63 9e b9 be c6 39 81 bd
       -0.03582134 0.47429052 -0.36253652 -0.063098475
000140 37 ba 74 bb a7 0f 09 bf 52 b6 80 3e a9 e4 b3 3e
       -0.0037342438 -0.5353951 0.251391 0.3513539
000150 63 c6 a3 be 05 a3 37 3e 50 28 0b 3f f0 a5 c9 be
       -0.31987295 0.17933281 0.54358387 -0.39384413
000160 e9 09 bf 3e 61 c0 f0 3e 57 6e 61 bf 8b 70 69 bd
       0.37312248 0.47021773 -0.8805899 -0.056992095
000170 eb 84 2b bf e0 11 5a 3f ce c6 7b be 96 bb 37 3d
       -0.6699969 0.85183525 -0.24587557 0.04485663
000180 e3 09 3b 3e 96 1d ce 3d 6d 04 f3 bd c8 d9 45 be
       0.1826549 0.10064237 -0.118660785 -0.19321358
000190 fb 9b 4c bc 56 c1 c1 be c5 9b 85 3e b0 29 9a 3d
       -0.0124883605 -0.37842816 0.26095405 0.075274825
0001a0 1e 67 9f 3c 60 f4 7b 3e 9c 09 1f bf a1 4a 18 3f
       0.01945835 0.2460494 -0.6212404 0.59488875
0001b0 28 ad f1 be 35 f1 d7 be 7c 4b 39 3e b8 03 e4 bd
       -0.4720242 -0.42176214 0.18095201 -0.11133522
0001c0 94 38 be be ac 45 60 3f 70 45 bf be 26 fd e7 3d
       -0.3715254 0.8760631 -0.37357664 0.11327581
0001d0 af 07 08 bf e6 18 00 3d 32 d7 0d 3f f9 6c 9e 3d
       -0.53136724 0.031273745 0.55406487 0.07735629
0001e0 59 21 11 bf 4e 52 90 bc 9d 78 ae 3e 6f 80 09 3e
       -0.5669151 -0.017617371 0.34076396 0.134279
0001f0 23 66 d2 3e 7a 1d dc 3a 76 a6 a1 3b 02 92 b1 3e
       0.4109355 0.0016793453 0.004933174 0.34681708

parallel_cnn_block.branches.2.0.weight f4 [1, 1, 8]
000000 69 ba d9 bc 27 40 ac 3b e3 21 59 be d1 60 09 3f
       -0.026578145 0.005256671 -0.21204333 0.53663355
000010 12 2f 84 3e 05 2f 4c be 12 11 22 3d 62 e2 9d bc
       0.25817162 -0.19939812 0.03956706 -0.019272987

parallel_cnn_block.branches.2.2.bias f4 [64]
000000 36 50 f2 3d 63 d0 da be 0d ba e5 bd e6 93 4e bf
       0.11831705 -0.4273711 -0.11217127 -0.80694425
000010 af 45 cd 3d 25 af 8d be a2 93 08 be e9 f2 09 bf
       0.10023057 -0.27672687 -0.13337567 -0.53886276
000020 a6 65 f5 3e 85 20 b2 3e f7 c8 29 3e ae e6 02 3d
       0.47929114 0.34790435 0.16580568 0.031958275
000030 c6 af 01 bd e0 1f 71 bd d0 11 96 3e d6 d1 26 3b
       -0.03166177 -0.05886829 0.29310465 0.0025454662
000040 fb f4 0f bf 68 47 89 3d 88 78 74 3e 40 c3 80 3d
       -0.56233186 0.06703073 0.23874104 0.06287241
000050 ef 87 05 3e f5 d0 81 3d be e0 97 3e ea 0a 87 be
       0.13040136 0.063386835 0.29663652 -0.26375514
000060 09 ff bb bd 49 4f b0 3d 92 ad 8a 3d 0d 91 20 3e
       -0.091795035 0.086088724 0.06771387 0.15680332
000070 b7 90 8b 3e 96 cc 75 3b ac 43 30 bf e8 59 df be
       0.27258846 0.0037505976 -0.6885326 -0.4362328
000080 34 be 98 3e 3a 3e 20 be 5a 74 1f 3d a9 3c d4 3e
       0.29832613 -0.15648738 0.03892932 0.4145253
000090 f6 4f 3e 3e 72 f3 d6 3e b3 f9 4e bf 44 d0 98 3e
       0.1858519 0.4198261 -0.8084976 0.29846394
0000a0 15 84 af bd 18 41 65 3e 7a 21 ae 3e 1a e7 04 3d
       -0.085701145 0.22388113 0.34009916 0.032446958
0000b0 d1 ca 68 be bc 87 92 3d 51 77 bb 3e b4 2e be bd
       -0.22733618 0.071547955 0.3661447 -0.09286252
0000c0 f2 7b c4 bf b9 b8 87 be 95 0b 35 bf 34 79 92 3e
       -1.5350325 -0.2650812 -0.707208 0.28608096
0000d0 6a a7 35 3e ef 55 97 be b1 09 85 be c6 0d 21 bd
       0.17739645 -0.2955775 -0.25983956 -0.039319776
0000e0 a2 e2 79 be be cc 7f be c3 8f 9b bb 30 f3 f9 3c
       -0.2440286 -0.24980447 -0.0047473623 0.030511469
0000f0 a2 6d d5 3d e9 62 bb 3e d3 74 11 be ac b3 33 3d
       0.104213014 0.365989 -0.14204721 0.04387252

parallel_cnn_block.branches.2.2.weight f4 [64, 1, 8]
000000 53 a7 b5 be a8 2f ca bd 76 74 6d 3e 89 f3 95 be
       -0.3547922 -0.09872371 0.23188958 -0.29287365
000010 1f a4 99 3e 46 f9 2f be ea 31 75 3e 1c 90 ff 3d
       0.30008027 -0.17184934 0.23944822 0.124786586
000020 5f 6d b4 3d 82 86 4d bc c7 58 8f 3e 79 25 d7 be
       0.088099234 -0.012544276 0.2799742 -0.42020777
000030 f0 f9 89 3e 33 9b da bd 01 03 85 3e 51 e6 62 be
       0.269485 -0.10674133 0.25978854 -0.22158171
000040 9a f4 ac be 72 04 10 bf df d4 a9 3e 05 7b 10 3d
       -0.33780366 -0.56256783 0.3317022 0.03527357
000050 c8 c5 06 3d e0 12 31 3e e4 c9 72 3e bb 3b 1e be
       0.032903463 0.17292356 0.23709828 -0.15452473
000060 9c 79 99 3e 7e 23 76 3d 80 92 3c be 9f 2f 3b 3e
       0.29975593 0.06009244 -0.1841526 0.18279885
000070 3f e0 43 3d 09 22 17 3e 32 3d d2 bd 50 f0 86 be
       0.04782128 0.14759077 -0.10265578 -0.2635522
000080 19 72 0f bf 19 0b b4 be 12 19 b4 bd 44 eb b0 3e
       -0.56033474 -0.35164717 -0.08793844 0.34554493
000090 da 40 db 3e 70 28 c3 3e db f0 07 be 17 25 e0 3c
       0.42822915 0.3811679 -0.13275473 0.027361436
0000a0 91 0e 34 3e 27 15 1c 3e b9 6e 56 be 0b 53 02 bf
       0.17583682 0.15242444 -0.20940675 -0.50907964
0000b0 da f3 51 be dc 0a 7b 3d cf fb 80 bd dd 06 0d bd
       -0.20503178 0.061289653 -0.06298029 -0.034430373
0000c0 59 d5 6a 3c 33 9c 72 3e 11 0b 1e bd 29 e0 9d be
       0.014333093 0.23692398 -0.038584772 -0.30835083
0000d0 6e a8 34 3e 45 62 cb 3d d7 ea f7 3d 0d c9 b8 3d
       0.17642376 0.09930853 0.12105339 0.090227224
0000e0 b9 e7 9b 3e ff b8 a6 bd ef 4c f3 be 77 f2 99 be
       0.30450228 -0.08140754 -0.47519633 -0.30067798
0000f0 aa 7e 54 3e c3 f4 80 3e e6 30 91 3d c2 4b 1d 3e
       0.20751444 0.25186738 0.07089405 0.1536093
000100 6b 46 28 3e b7 ec 9f be 54 ff d1 3e 93 10 55 be
       0.16433112 -0.31235287 0.41015112 -0.20807104
000110 36 9a b4 bd 73 1f 55 3e 71 2e b0 bc ca 54 f9 bd
       -0.08818476 0.20812778 -0.02150652 -0.12174375
000120 7f 2f bb bc f0 ab e5 3d a1 59 ab be 08 fa 81 be
       -0.022849796 0.11214435 -0.3346682 -0.2538607
000130 3b 88 98 be 83 04 50 3e 0a 30 b2 3d e3 e6 7f 3e
       -0.29791436 0.20314221 0.08700569 0.2499042
000140 35 17 fc be 5e da 6d be 9a cf 30 bc e2 29 a6 3e
       -0.49236456 -0.23227832 -0.010791684 0.3245383
000150 f4 a8 8d bd 16 ab 74 be 4e 89 85 3e 39 16 45 3e
       -0.06916991 -0.23893389 0.26081318 0.19246759
000160 b4 47 39 3e b3 38 67 be 84 63 3e 3e ee be ac bd
       0.18093759 -0.22580223 0.1859265 -0.084348544
000170 a3 ec 71 3d 85 d0 6d bd f5 45 6a 3d ce 25 f8 3c
       0.059063565 -0.058060188 0.057195622 0.030291464
000180 26 b2 8b 3c 25 18 21 bf b0 8d b5 be 01 d7 fc 3e
       0.017052721 -0.62927467 -0.3545966 0.49382785
000190 03 e9 79 be 30 18 b1 3e d2 94 6e 3e e2 87 03 3e
       -0.24405293 0.34588766 0.23298958 0.12844804
0001a0 e3 27 54 3d 0f c8 9f 3e 28 1a 26 3e dc 5e 9d be
       0.05179585 0.3120732 0.16220915 -0.30736434
0001b0 2c fe c3 3e ed d7 f9 be 4a bd b6 be 03 23 de 3c
       0.38279855 -0.4879755 -0.3569129 0.027116304
0001c0 3f 32 6b 3d a0 de 95 3e 5c 7b 02 3e a1 58 79 be
       0.057420965 0.29271412 0.1274237 -0.24350215
0001d0 c3 74 cb be a4 af f3 bd 28 86 51 bd da e7 a3 3e
       -0.3973752 -0.11898735 -0.051153332 0.32012826
0001e0 99 6e b4 3e df cd 1e 3c 1c 0d 51 3e d6 ba 00 3e
       0.3524063 0.009692638 0.20415157 0.12571272
0001f0 88 cf 5b 3e 19 07 cc bd cf 04 e2 be c5 b2 b4 be
       0.21465886 -0.09962291 -0.44144294 -0.3529264
000200 0e 8b 42 bd 5c f9 6a 3e 00 1b af 3e 2a e8 14 3e
       -0.047495894 0.22946686 0.34200287 0.14541689
000210 1e db 2d be 98 54 d9 be ea 47 14 bd 3c ab 42 bc
       -0.16978118 -0.42447352 -0.036201395 -0.011881646
000220 a7 ac 94 3d fa c9 14 bd 1b 24 e4 3d 27 2d f4 bd
       0.07259493 -0.036325432 0.11139699 -0.119226746
000230 e6 f5 27 3a 67 00 c2 3e b1 9d 8d bf 30 b9 39 bf
       0.0006407186 0.37890932 -1.1063749 -0.725482
000240 ee f9 ad be 51 f7 de be 9c 85 0e bf a8 83 2b be
       -0.33979744 -0.43548062 -0.5567262 -0.16749442
000250 c9 75 a2 3e 2c d2 62 3e 08 2b 41 3d 79 1a c2 be
       0.31730488 0.22150487 0.04716018 -0.37910822
000260 23 ad ca bd 0f 5e 33 bd 40 07 e5 3e 6b 88 89 3d
       -0.098963045 -0.043790873 0.44732094 0.06715473
000270 04 10 cd 3e 26 9b 65 be f5 96 41 bd 4d 91 c3 be
       0.4005128 -0.22422466 -0.047263104 -0.38196793
000280 f9 10 e3 be e2 35 66 bb 84 4e 9c 3e 5a fa c9 bd
       -0.44348887 -0.0035127332 0.30528653 -0.09862204
000290 8d c5 e6 bd 67 2b b2 3e 81 33 1e 3e e7 75 bb 3b
       -0.112681486 0.34798738 0.15449335 0.005720842
0002a0 60 bb c6 3d f0 0d 03 3d 00 50 b2 be 20 3c 90 be
       0.09703708 0.031995714 -0.3482666 -0.28170872
0002b0 5d 5a bd 3e 43 c9 bf 3e c2 21 33 be ef 2d 09 bd
       0.36983004 0.37458238 -0.17493346 -0.03349107
0002c0 1c 3f e6 be 1b cc 5c be 2f f4 a8 be af 43 d1 3e
       -0.44970024 -0.21562235 -0.32998797 0.4087195
0002d0 cb 28 07 be c6 f6 30 3e 6a 82 cd bd f5 f3 95 3d
       -0.13199155 0.17281637 -0.1003464 0.07321922
0002e0 e1 56 83 bd b6 a7 4b 3e 51 46 08 be 0e 5f 4d bd
       -0.06413055 0.19888195 -0.13308074 -0.05013948
0002f0 5b 50 66 bd 52 b0 e4 3e bc fe 95 3e 7b 1d b9 b9
       -0.056228977 0.44665772 0.2929591 -0.00035307914
000300 b4 91 25 be f2 b4 41 be f1 57 5c be 40 e8 c8 bd
       -0.16168863 -0.18916681 -0.21517922 -0.09809923
000310 57 1f 4d be 9c 4d 75 be e0 a9 b0 be 79 a5 20 be
       -0.20031486 -0.23955387 -0.34504604 -0.15688123
000320 0f 5d 17 3e 51 0c 1a be 1e 74 81 be 97 b5 39 bf
       0.14781593 -0.15043761 -0.25283903 -0.7254271
000330 b2 25 75 bc 17 d7 d1 3e 32 02 41 3e a6 68 0f be
       -0.014962601 0.40984413 0.18848494 -0.14004764
000340 73 ad 58 3e fd 58 82 be 4a 19 42 bf 3c 73 e5 3e
       0.21159916 -0.25458518 -0.7581984 0.4481448
000350 4f a0 92 3c 9b 4b 2e 3e da a3 1c 3d b6 86 2e 3d
       0.017898707 0.17021029 0.0382422 0.04260894
000360 36 68 a5 bd 63 64 11 bf 70 5c fe be d4 5b 9e bb
       -0.08076517 -0.567938 -0.496799 -0.004832724
000370 eb 03 28 3e d6 2e 2c 3e 40 75 ac bd 0b 98 d2 3d
       0.16407745 0.16814741 -0.08420801 0.10282906
000380 80 96 50 bb 82 fc 7c 3e d1 df a9 be c4 33 14 bf
       -0.0031827986 0.24705699 -0.3317857 -0.5789149
000390 22 9c 9f 3e 3a 77 7b be 2e e2 54 3e 65 fc ba 3e
       0.31173807 -0.245572 0.20789406 0.36520687
0003a0 36 86 19 be aa df 7c 3e 2d d9 af 3c 54 57 bc 3d
       -0.14992604 0.24694696 0.021465862 0.09196344
0003b0 c7 20 de bd 86 3a 3f 3e 12 0a 47 3d b6 7c d3 be
       -0.108460955 0.18674669 0.04859359 -0.41306084
0003c0 58 d2 45 3e 63 9b 9a be fc 69 b1 3e 38 ff 94 bd
       0.19318521 -0.30196676 0.34651172 -0.072752416
0003d0 0f 8c 32 be 31 a7 aa 3e 1c 43 08 bd fb 31 22 be
       -0.1743624 0.33330682 -0.033267125 -0.15839379
0003e0 01 35 95 3d 62 ec b2 3e ff 3b f9 be be c5 f2 3e
       0.072855 0.3494597 -0.48678586 0.4741649
0003f0 3d 68 42 be 46 06 e3 bd c8 20 a5 3e c4 93 7f bd
       -0.18985076 -0.11085181 0.32251573 -0.06239678
