remade/narrow/modelpars_narrow_i_30.safetensors (safetensors, 86584 bytes, 32 tensors)

bilstm.bias_hh_l0 f4 [64]
0	0xbe1982ad	-0.14991255
1	0xbe3862ff	-0.18006514
2	0x3ce3e63a	0.027819742
3	0xbde3467e	-0.1109743
4	0x3c945c41	0.018110396
5	0xbef2833e	-0.47365755
6	0xbe0a7747	-0.13522063
7	0x3dbfe5cb	0.093700014
8	0x3c39f7a4	0.011350546
9	0xbe2180a1	-0.15771724
10	0xbd0f30c3	-0.034958612
11	0xbd0fe769	-0.0351328
12	0xbe8d229f	-0.27565476
13	0xbe3afe98	-0.18261182
14	0x3dbf8b0d	0.09352694
15	0xbda05543	-0.078287624
16	0x3e589617	0.21151005
17	0xbda30190	-0.079592824
18	0x3e8981d4	0.26856863
19	0xbdf52ae2	-0.1197107
20	0xbccfd364	-0.025369354
21	0x3e224e26	0.15850124
22	0x3e7e8154	0.24854022
23	0x3cf6517b	0.03006815
24	0x3d492238	0.0491049
25	0xbb96c9fd	-0.0046017156
26	0x3e89bc86	0.26901644
27	0x3d74189c	0.05959378
28	0xbe3adba9	-0.18247856
29	0x3dd1747c	0.10227296
30	0x3e5a747b	0.21333496
31	0xbcc1a5ca	-0.023638625
32	0xbc282a5a	-0.010264004
33	0xbe2c6f13	-0.16839246
34	0xbd89f65b	-0.06736442
35	0x3cba0022	0.022705141
36	0xbd960b0c	-0.07326326
37	0xbd0ad03b	-0.03388999
38	0xbe699eef	-0.22814535
39	0x3c8f0778	0.017459616
40	0x3e3543d1	0.17701651
41	0x3e3f4c2f	0.18681405
42	0xbde2760e	-0.110576734
43	0xbe658ed5	-0.22417767
44	0x3d8205d7	0.0634877
45	0x3e2dead8	0.16984117
46	0xbe4db243	-0.20087533
47	0x3dbb00a4	0.091309816
48	0xbdfaf69f	-0.122540705
49	0x3e376e74	0.17913228
50	0x3e30e54e	0.17274973
51	0x3e441368	0.19148028
52	0xbda44408	-0.080207884
53	0x3dd3c16a	0.10339625
54	0x3e9f82e7	0.31154558
55	0x3cb4e08d	0.02207973
56	0x3e484210	0.19556451
57	0xbe956b8a	-0.29183608
58	0xbdf034a4	-0.117287904
59	0xbcc6b3b4	-0.024255611
60	0x3e299f3a	0.16564646
61	0xbd468657	-0.04846796
62	0x3e46a9ae	0.19400665
63	0x3e5cbbc6	0.21556005

bilstm.bias_hh_l0_reverse f4 [64]
0	0xbdebb604	-0.11509326
1	0x3c177f2e	0.009246631
2	0xbec06ce2	-0.3758307
3	0x3e41386a	0.18869177
4	0x3e385240	0.18000126
5	0x3ea44f98	0.32091975
6	0xbe7ef5c6	-0.24898443
7	0x3e3ed8fa	0.18637457
8	0xbc2db82f	-0.010602995
9	0x3e29ffc1	0.16601469
10	0xbd129096	-0.03578242
11	0xbc3aa9ad	-0.011392993
12	0x3e1846c0	0.14870739
13	0x3e2b145e	0.16706988
14	0xbdab05b1	-0.08350695
15	0xbe8f027d	-0.27931586
16	0xbd34c85b	-0.044136386
17	0x3de02682	0.10944845
18	0xbe653ee5	-0.22387274
19	0x3ddc0ee1	0.107450254
20	0x3d691b4a	0.05691079
21	0x3dbed48b	0.09317883
22	0x3eadffa5	0.33984104
23	0xbc04aee7	-0.008098341
24	0x3d5e2f42	0.054244287
25	0x3da314f1	0.07962979
26	0x3dc48ed6	0.09597556
27	0x3e81d7d3	0.25359973
28	0x3de7f441	0.113258846
29	0x3cb5376e	0.022121157
30	0xbe5a284b	-0.21304433
31	0x3e4c2460	0.19935751
32	0xbe73538e	-0.23762342
33	0x3d0074f4	0.031361535
34	0xbe225bb1	-0.1585529
35	0x3e28bb0d	0.16477604
36	0xbe122179	-0.14270581
37	0x3e459c75	0.19297965
38	0xbe1a08f2	-0.15042475
39	0x3e263667	0.1623169
40	0xbdfbcfa3	-0.12295463
41	0xbe6bc383	-0.230238
42	0xbe34ab82	-0.1764355
43	0x3c05cd11	0.008166567
44	0xbddfc9fa	-0.10927196
45	0xbe083e69	-0.13305058
46	0x39c23af4	0.00037046487
47	0x3d8c8644	0.06861547
48	0xbd8f9987	-0.07011705
49	0xbd8ffee3	-0.07031038
50	0x3cec3e8e	0.028838422
51	0x3dcb3f2b	0.09924158
52	0x3e8cb199	0.27479246
53	0x3e33e850	0.17569089
54	0x3e42b8a7	0.19015752
55	0xbe6d77b7	-0.23190199
56	0xbdc3998e	-0.095507726
57	0xbb7a7685	-0.0038217616
58	0x3e38b1d4	0.18036586
59	0x3d29e120	0.04147446
60	0x3e89d22e	0.26918167
61	0x3e498f73	0.19683628
62	0xbe8835e1	-0.26603606
63	0xbde92111	-0.1138326

bilstm.bias_ih_l0 f4 [64]
0	0x3e67924a	0.22614399
1	0xbe0afc69	-0.1357285
2	0x3e919cb5	0.2843987
3	0x3cba1533	0.022715187
4	0x3e44c514	0.19215804
5	0xbea97f7c	-0.33105075
6	0x3e7f784e	0.24948236
7	0x3db28261	0.08716274
8	0x3ea0b4a7	0.31387827
9	0xbed215f3	-0.4103237
10	0xbe80ff55	-0.25194803
11	0xbed8d62e	-0.42350906
12	0xbd036204	-0.032075897
13	0xbe4e0b48	-0.20121491
14	0x3e8bc391	0.27297643
15	0x3cf309e7	0.029667808
16	0x3d06173e	0.03273701
17	0x3e8f6614	0.28007567
18	0xbd333bd3	-0.043758225
19	0x3e8bb24a	0.2728446
20	0xbe3e549b	-0.18586962
21	0x3dbd91fd	0.09256361
22	0x3e356bd6	0.17716917
23	0xbdf5c6b6	-0.12000792
24	0x3e8f7968	0.28022313
25	0xbd32aba6	-0.043620728
26	0x3c3d3123	0.01154736
27	0x3c52d417	0.012867949
28	0x3e752459	0.23939647
29	0xbe89a60f	-0.26884505
30	0x3e103061	0.14080955
31	0x3b9e0738	0.004822638
32	0xbdd95cfc	-0.106134385
33	0xbe0d8eed	-0.13824053
34	0xbdb088b7	-0.08619826
35	0x3dee305d	0.11630318
36	0xbc8efd19	-0.01745467
37	0x3e386871	0.18008591
38	0x3dcb137e	0.09915827
39	0xbe428dfa	-0.18999472
40	0x3c880387	0.016603244
41	0x3e5cfbf3	0.21580486
42	0x3e9034fa	0.28165418
43	0xbc7bfa35	-0.015379478
44	0xbe52cac2	-0.20585158
45	0x3cab2a8b	0.02089431
46	0xbc5af048	-0.013362952
47	0x3df318f9	0.118699975
48	0xbe2acbb6	-0.16679272
49	0xbde3d2a1	-0.11124159
50	0x3dd7f857	0.10545414
51	0xbc0481ae	-0.008087559
52	0xbe1218e2	-0.14267305
53	0xbe5d7994	-0.2162841
54	0xbc860f8f	-0.01636484
55	0xbd602a89	-0.054728065
56	0x3e94ca11	0.29060414
57	0xbd81bfcd	-0.06335411
58	0xbe18c990	-0.1492064
59	0x3d535dce	0.05160313
60	0x3e31eb8c	0.1737501
61	0xbe477aa2	-0.19480374
62	0x3e391d18	0.18077505
63	0x3e85ddd4	0.26145804

bilstm.bias_ih_l0_reverse f4 [64]
0	0x3da7fc0a	0.082023695
1	0x3e69b200	0.22821808
2	0xbe0ee55f	-0.13954686
3	0xbd914b09	-0.0709439
4	0x3e2ddd5c	0.16978973
5	0x3df82ce7	0.121179394
6	0xbe2af426	-0.16694698
7	0xbd33e9a1	-0.043923978
8	0xbdfac1cd	-0.12243996
9	0x3cbefd1d	0.023314053
10	0xbe0e0300	-0.13868332
11	0xbdea50c8	-0.11441189
12	0x3d97b26f	0.074070804
13	0x3d055be9	0.032558355
14	0xbda4bbfd	-0.080436684
15	0xbd3ec68e	-0.046576075
16	0x3d5942a9	0.053042088
17	0x3db03244	0.086033374
18	0xbe2d5095	-0.16925271
19	0xba822e27	-0.0009931967
20	0x3d42a092	0.047516413
21	0xbe39fc9e	-0.18162772
22	0xbd6332e0	-0.05546844
23	0x3e00c1d7	0.12573944
24	0x3c33bf70	0.010970935
25	0x3d6e9273	0.058245134
26	0x3dc31d90	0.09527123
27	0x3e7d0e2f	0.24712442
28	0x3e16c7a4	0.14724594
29	0x3d80112b	0.062532745
30	0x3d38025b	0.04492412
31	0x3e5dc902	0.2165871
32	0xbe6cb9d2	-0.2311776
33	0x3e004c3b	0.1252908
34	0xbdac1e01	-0.0840416
35	0x3d5b1bcb	0.053493302
36	0x3e7a2e1b	0.2443165
37	0x3dc5f0e0	0.09665084
38	0xbc97601f	-0.018478451
39	0xbe7adf93	-0.2449935
40	0x3d34259b	0.043981176
41	0xbdd62bca	-0.10457571
42	0x3e13dfd2	0.1444085
43	0x3c88c409	0.01669504
44	0xbd95dc0e	-0.07317363
45	0xbd905409	-0.070472784
46	0x3e9f5875	0.31122175
47	0x3e092b90	0.13395524
48	0xbe713126	-0.23553905
49	0xbde6851c	-0.11255857
50	0x3d8847fd	0.06654356
51	0x3e82a874	0.25519145
52	0x3e951941	0.2912083
53	0xbdf59dd1	-0.11992992
54	0xbe2bf14b	-0.16791265
55	0xbe7cb1bf	-0.2467718
56	0x3e9f273e	0.31084627
57	0x3c9b07bd	0.018924588
58	0xbe174210	-0.14771295
59	0x3ea48c09	0.32138088
60	0x3db7d809	0.08976752
61	0xbd48f2a6	-0.049059533
62	0xbe0f5896	-0.13998637
63	0xbe80e444	-0.25174153

bilstm.weight_hh_l0 f4 [64, 16]
0	0xbe68a2d1	-0.2271836
1	0x3d94c478	0.07264036
2	0x3e502b4d	0.20329018
3	0xbc443a2a	-0.011976758
4	0xbe86cce4	-0.26328194
5	0x3dd15faf	0.10223328
6	0xbe8349bd	-0.25642195
7	0x3e2d79ff	0.16941069
8	0xbca7ca83	-0.020482307
9	0xbcddcd67	-0.027075483
10	0xbe13f00a	-0.14447036
11	0x3e0debd9	0.138595
12	0xbe94e63f	-0.29081914
13	0xbba9a7ab	-0.0051774583
14	0xbe45b63e	-0.19307801
15	0x3d261e2c	0.040556118
16	0xbd3714d6	-0.044697605
17	0xbe9aed09	-0.30258968
18	0xbeaf574c	-0.3424629
19	0x3be6a471	0.007038646
20	0xbd1dc919	-0.03852186
21	0xbb586afc	-0.0033022752
22	0x3eccf964	0.4003402
23	0xbd984b74	-0.074362665
24	0xbdfcd171	-0.12344635
25	0x3e806671	0.25078157
26	0xbde607a7	-0.11231928
27	0x3db023d0	0.08600581
28	0x3e6d7736	0.23190007
29	0x3ddb32ed	0.10703073
30	0xbcdb72d2	-0.026788149
31	0xbeac4f2f	-0.33654162
32	0xbe82d0f3	-0.2555004
33	0xbd995e2b	-0.07488664
34	0x3d53e162	0.051728614
35	0xbd4e408f	-0.050354537
36	0xbd800bf3	-0.06252279
37	0x3e82d1dd	0.25550738
38	0x3d847cff	0.064691536
39	0xbc109bfa	-0.00882625
40	0xbd42f029	-0.047592316
41	0xbcaf9c92	-0.021436963
42	0x3e32aec2	0.17449477
43	0x3ce5812e	0.0280157
44	0x3e4f0346	0.20216092
45	0x3d2adebc	0.041716322
46	0xbe422cb7	-0.1896237
47	0x3db3743e	0.08762406
48	0x3e42c51b	0.19020502
49	0xbe8fd286	-0.28090304
50	0xbe025c09	-0.12730421
51	0xbe0b592c	-0.13608235
52	0xbde3ed61	-0.11129261
53	0xbe1b00ef	-0.15137075
54	0x3e5e8e33	0.21733932
55	0xbe86cfce	-0.26330417
56	0xbf5e6fa2	-0.8688909
57	0xbc0aaacf	-0.0084635755
58	0xbdbee61e	-0.09321235
59	0xbd73cc01	-0.059520725
60	0x3e226133	0.15857391
61	0xbeeb3c57	-0.45944473
62	0xbe1faac8	-0.15592492
63	0x3992ffca	0.00028037868
64	0xbe0352bd	-0.12824531
65	0xbb3c1fa3	-0.002870538
66	0xbe672524	-0.22572762
67	0xbdea00d7	-0.114259414
68	0xbd342931	-0.043984596
69	0xbe5e19c3	-0.21689515
70	0xbe96da24	-0.29463303
71	0x3ea3f37c	0.320217
72	0x3ef2be94	0.47411025
73	0x3da29c59	0.07939977
74	0x3d9bd94a	0.07609804
75	0xbd0f98a3	-0.035057675
76	0xbe82c6c3	-0.25542268
77	0xbdc9334c	-0.09824237
78	0x3e2366b8	0.15957153
79	0x3e886a9f	0.26643845
80	0xbccf9ce9	-0.025343375
81	0xbe877ac0	-0.26460838
82	0xbc18d3e5	-0.009327863
83	0x3d9aea87	0.07564264
84	0x3de9db88	0.114188254
85	0x3e8c4319	0.2739494
86	0xba1d91c5	-0.0006010796
87	0x3ec5a611	0.3860326
88	0xbe7090ea	-0.2349278
89	0xbc6d09d5	-0.014467676
90	0xbe7c18e5	-0.24618872
91	0xbd6ebf61	-0.058287982
92	0x3d69da77	0.05709311
93	0xbe16b968	-0.14719164
94	0xbe426797	-0.18984829
95	0xbdad7eb6	-0.08471434
96	0xbe2c8fa0	-0.16851664
97	0x3e81919c	0.25306404
98	0x3e55a2d8	0.20862901
99	0xbe726824	-0.23672539
100	0x3d7285d0	0.059209645
101	0x3e3b0e2d	0.18267126
102	0xbd04f322	-0.032458432
103	0x3ec6e965	0.3884994
104	0x3dd1acc2	0.10238029
105	0x3cbc329c	0.022973351
106	0x3d9e7f7a	0.07739158
107	0x3d3d7b00	0.04625988
108	0xbe9cdb5d	-0.3063611
109	0x3e2460f4	0.1605261
110	0x3eafe971	0.3435779
111	0x3f2395df	0.6390056
112	0x3d627b03	0.055293094
113	0xbe1e852c	-0.15480489
114	0x3e8ef514	0.27921355
115	0xbe0059fe	-0.1253433
116	0xbb812c6f	-0.0039420645
117	0xbe56d223	-0.20978598
118	0x3e6f529b	0.23371355
119	0xbd272b1b	-0.040812593
120	0xbd884ade	-0.06654905
121	0xbe25114e	-0.16119882
122	0x3e3acb56	0.18241629
123	0xbdb6d0e4	-0.089265615
124	0xbe27b1c8	-0.16376412
125	0xbe429c83	-0.19005017
126	0xbaa25c54	-0.0012387135
127	0x3debba46	0.11510138
128	0xbe50773d	-0.20357986
129	0x3e8cdec4	0.27513707
130	0x3e439499	0.19099654
131	0x3df0fcec	0.11766991
132	0xbebcb5fa	-0.36857587
133	0x3dae0271	0.084965594
134	0xbed967ee	-0.42462105
135	0x3e89cd00	0.26914215
136	0xbeb52901	-0.35382846
137	0x3e1d7f97	0.15380703
138	0x3e42a043	0.19006447
139	0xbeb6252c	-0.35575235
140	0x3d380f5d	0.044936527
141	0xbdfe3dae	-0.12414108
142	0x3f145415	0.579408
143	0x3da250cf	0.07925569
144	0x3e9784de	0.29593557
145	0xbed214f5	-0.41031614
146	0xbd3b31a8	-0.045701653
147	0xbe046637	-0.12929617
148	0x3ea2ce29	0.31797913
149	0xbde90144	-0.113771945
150	0x3e2e4a00	0.17020416
151	0x3d8ee0d8	0.06976479
152	0xbe56a686	-0.20961961
153	0x3e01682b	0.12637393
154	0xbce588d1	-0.02801934
155	0xbdc4b0bb	-0.09604021
156	0xbed1f93d	-0.41010466
157	0x3de468a0	0.11152768
158	0xbeb2e6ca	-0.34941703
159	0x3dc1ceb8	0.094632566
160	0x3ec113ee	0.37710518
161	0xbe8a78bb	-0.27045235
162	0xbe8b9b14	-0.27266753
163	0x3d8c188d	0.0684062
164	0x3dc56e8d	0.096402265
165	0xbe6f1179	-0.23346509
166	0xb96ce516	-0.00022592055
167	0xbed44f87	-0.41466925
168	0xbd7f686c	-0.062355444
169	0x3e35b274	0.17743856
170	0xbe57b98e	-0.21066877
171	0x3e1f189c	0.15536731
172	0xbde8e70b	-0.11372193
173	0x3d9229c6	0.07136874
174	0xbe9eab42	-0.30990034
175	0xbbf91d52	-0.007602372
176	0xbd97c8a6	-0.074113175
177	0x3e1424c6	0.14467153
178	0xbdb06f9d	-0.086150385
179	0xbcf0b2d2	-0.029382143
180	0x3e352b30	0.17692256
181	0xbd612159	-0.054963443
182	0xbe79a320	-0.24378633
183	0x3df18a5c	0.11793968
184	0xbe0ea3cb	-0.1392967
185	0xbc890436	-0.01672564
186	0xbe2d6250	-0.16932034
187	0x3db9f928	0.09080726
188	0x3da59d8c	0.0808669
189	0xbe0694c2	-0.13142684
190	0xbe2f4877	-0.17117487
191	0xbe33fea2	-0.17577603
192	0x3e3d37ed	0.18478365
193	0xbea3f7ec	-0.32025087
194	0xbe9fa4fe	-0.31180567
195	0xbde7918a	-0.11307056
196	0x3e7d97dc	0.24764961
197	0xbd944651	-0.07239974
198	0x3e935ead	0.2878317
199	0xbe7eadee	-0.24871036
200	0x3e0ef842	0.1396189
201	0xbdb2d87f	-0.087326996
202	0x3d4de71f	0.050269242
203	0x3e36b71d	0.1784329
204	0x3d4f08ce	0.050545506
205	0xbddd37d8	-0.10801667
206	0xbe83b996	-0.25727528
207	0xbe276b5b	-0.16349547
208	0x3e9d2dbb	0.30698952
209	0xbe41f2b8	-0.18940246
210	0x3dd07a16	0.10179536
211	0xbd96bccf	-0.07360231
212	0x3e96748b	0.2938579
213	0xbe527a06	-0.20554361
214	0x3d00b334	0.0314209
215	0xbe889d55	-0.26682535
216	0xbea2a286	-0.3176462
217	0xbcb5d1a3	-0.02219469
218	0xbe856d7e	-0.26060098
219	0x3dfa7edc	0.12231228
220	0x3eab7084	0.3348428
221	0xbef37b06	-0.47554797
222	0xbed72354	-0.4201914
223	0xbdd4a1e9	-0.103824444
224	0x3de48369	0.11157877
225	0x3e9ccd6f	0.30625483
226	0x3dbbe764	0.09174994
227	0x3e8d82f0	0.2763896
228	0x3d7f8f3a	0.06239245
229	0x3c806208	0.015671745
230	0xbb7ccd81	-0.0038574638
231	0x3cd4b6bc	0.02596604
232	0xbe1d16ff	-0.15340804
233	0xbe7db179	-0.24774732
234	0xbdfadcd1	-0.12249149
235	0x3da4b1b6	0.08041708
236	0xbd22f5f7	-0.03978535
237	0xbd7efd35	-0.062253196
238	0x3b57b5dc	0.0032914793
239	0x3e54838a	0.20753303
240	0xbd8c5fc1	-0.06854201
241	0x3d71de02	0.059049614
242	0x3dc20d0a	0.09475143
243	0x3e024d29	0.12724747
244	0xbdc90266	-0.098149106
245	0xbdc748d9	-0.097306915
246	0xbe8131fa	-0.25233442
247	0xbd9696dc	-0.07352993
248	0xbe4b4c21	-0.1985326
249	0x3de061c8	0.1095615
250	0x3e9452f5	0.2896954
251	0xbd9349b8	-0.07191795
252	0x3e45a144	0.19299799
253	0xbe25f394	-0.16206199
254	0xbe82de04	-0.2556001
255	0x3e5c1cb5	0.21495326

bilstm.weight_hh_l0_reverse f4 [64, 16]
0	0xbd36a9f1	-0.044595663
1	0xbdef3f39	-0.11681981
2	0x3e8016e6	0.2501747
3	0xba7d7270	-0.00096682366
4	0xbec5ecd3	-0.38657245
5	0xbd42cd06	-0.047558807
6	0xbe807cec	-0.25095308
7	0xbe009a58	-0.12558877
8	0xbe32bd2c	-0.17454976
9	0xbddc7ddc	-0.10766193
10	0xbeadcc7d	-0.33945075
11	0x3e2b7da5	0.16747148
12	0xbc0bb8b0	-0.00852792
13	0xbcb6ebb6	-0.022329193
14	0x3e38fe0d	0.18065663
15	0xbda49a7c	-0.08037278
16	0x3d06f82d	0.032951523
17	0x3cbe6762	0.023242656
18	0x3d0fd0a1	0.035111073
19	0x3d1819d2	0.037134
20	0x3e2c2c08	0.16813672
21	0x3c54d051	0.01298912
22	0xbe69bafb	-0.22825234
23	0xbda433d9	-0.08017702
24	0xbe9bc3d0	-0.3042283
25	0xbe6badec	-0.23015565
26	0x3e925035	0.28576818
27	0xbe929f0d	-0.2863697
28	0xbe0d1a0d	-0.13779469
29	0xbeab52dd	-0.33461657
30	0xbd81394f	-0.06309759
31	0x3e546fc7	0.20745765
32	0x3e0cd072	0.1375139
33	0xbe41b41e	-0.18916366
34	0xbdcce076	-0.1000375
35	0xbe79cd6e	-0.24394771
36	0x3e3787fa	0.17922965
37	0x3e2c8d22	0.16850713
38	0xbab2b17d	-0.0013633218
39	0xbda66595	-0.08124844
40	0x3eb28ae5	0.34871593
41	0x3e6395e4	0.22225147
42	0xbdb7fefd	-0.08984182
43	0x3e03aeb0	0.12859607
44	0x3eac4778	0.33648276
45	0x3e24aa0d	0.16080494
46	0x3d26893b	0.040658217
47	0xbe5dbbc1	-0.21653654
48	0x3d998e48	0.07497841
49	0xbe0f3173	-0.13983707
50	0x3f1d0afb	0.6134488
51	0xbd198ce3	-0.037487876
52	0xbd9b0dc8	-0.07570988
53	0xbd3e6cab	-0.046490353
54	0x3e916bc1	0.28402522
55	0x3ea41166	0.32044524
56	0xbc4ad6cf	-0.012380316
57	0x3bc69e0d	0.0060613216
58	0x3e7575da	0.23970738
59	0xbe68b552	-0.22725418
60	0xbe6cde38	-0.23131645
61	0xbe179426	-0.14802608
62	0xbd980afd	-0.07423971
63	0xbe93a89d	-0.2883958
64	0x3dfef864	0.124497205
65	0xbb634f02	-0.0034684543
66	0x3c815d16	0.015791457
67	0x3e78b096	0.24286112
68	0x3e275b58	0.16343439
69	0x3ecdf97c	0.40229404
70	0x3cd9bce5	0.02657933
71	0x3dbc4c98	0.091942966
72	0xbcd11ca6	-0.025526356
73	0xbea79df5	-0.327377
74	0x3e2d33d9	0.1691431
75	0x3b80a208	0.0039255656
76	0xbd8e86b9	-0.0695929
77	0xbe6c8ef4	-0.23101407
78	0xbeef1990	-0.4669919
79	0xbdc32e33	-0.09530296
80	0xbe9b52e4	-0.30336678
81	0xbe17ef9d	-0.14837499
82	0xbe71fac4	-0.23630816
83	0xbc44c330	-0.012009427
84	0xbafbfaf2	-0.0019224568
85	0x3e93b7e2	0.2885123
86	0x3e233afc	0.1594047
87	0x3ddf3cda	0.109002784
88	0xbdc5f622	-0.09666087
89	0x3df0d199	0.117587276
90	0xbd877640	-0.06614351
91	0x3e13ad9c	0.14421695
92	0xbe484cd8	-0.19560564
93	0x3dcd305a	0.10018988
94	0xbd9288eb	-0.07155021
95	0xbdeaafc6	-0.114593074
96	0xbdd152c9	-0.10220868
97	0x3cbed550	0.023295075
98	0xbe3840bf	-0.17993449
99	0xbeafc276	-0.3432805
100	0xbe704831	-0.23465039
101	0xbecb4387	-0.39699957
102	0xbf57b76e	-0.84264266
103	0xbee0d7e9	-0.43914726
104	0x3e6ac955	0.22928365
105	0x3e9db744	0.30803883
106	0x3d87d3e0	0.06632209
107	0x3e8826c9	0.2659209
108	0x3ec18687	0.3779795
109	0xbab93ff0	-0.0014133435
110	0x3e015e0a	0.1263353
111	0x3e55d024	0.2088018
112	0x3c0d8b7d	0.008639214
113	0xbd4d03c0	-0.050052404
114	0xbf76f448	-0.96466494
115	0x3e1d371f	0.15353058
116	0x3dcd3197	0.10019224
117	0xbb04dd2e	-0.0020273435
118	0x3f26366c	0.6492679
119	0xbe4ec1b5	-0.20191081
120	0x3eaf6db0	0.34263372
121	0x3e1769a7	0.14786397
122	0xbc040939	-0.0080588395
123	0xbdf6df23	-0.12054279
124	0x3e6d9b1d	0.23203702
125	0x3d8aae79	0.06771559
126	0xbe7f70cf	-0.24945377
127	0xbdbf47a3	-0.093398355
128	0xbea5e16a	-0.3239854
129	0xbe8be6ad	-0.2732443
130	0x3e42a9a6	0.19010028
131	0xbebfa737	-0.37432262
132	0xbe08e731	-0.13369443
133	0xbd889efc	-0.06670949
134	0xbed4d79f	-0.41570756
135	0x3cee64ec	0.029100858
136	0x3d3baf7d	0.045821656
137	0x3e8624cb	0.26199946
138	0xbe047939	-0.12936868
139	0x3d92c9ef	0.07167422
140	0xbd7918f3	-0.06081481
141	0xbd083556	-0.03325399
142	0xbe2da63c	-0.16957945
143	0x3f2c5d89	0.67330223
144	0x3d933bd8	0.07189149
145	0x3e1c1e4d	0.15245934
146	0xbd14e981	-0.0363555
147	0x3e0936dd	0.13399835
148	0x3e24a185	0.1607724
149	0x3eb04a01	0.3443146
150	0x3d8a196c	0.0674313
151	0x3e93d872	0.28876072
152	0xbe5d770d	-0.21627446
153	0xbebf58d0	-0.37372446
154	0xbdd38a37	-0.10329097
155	0xbe84d05b	-0.25940213
156	0xbe2189f5	-0.15775283
157	0xbe72b35d	-0.23701234
158	0xbe8d470a	-0.2759326
159	0xbe299e8f	-0.16564392
160	0xbd865045	-0.06558279
161	0xbda943ca	-0.08264883
162	0xbf0be099	-0.54639584
163	0x3e1d4de3	0.15361743
164	0x3dd22046	0.10260062
165	0xbe7325ae	-0.23744842
166	0xbd99fceb	-0.075189434
167	0x3e18175a	0.14852658
168	0x3e861ba0	0.2619295
169	0x3e112ca6	0.14177188
170	0x3e684a38	0.22684562
171	0x3ce36db7	0.027762277
172	0x3e34d1bf	0.17658137
173	0xbe06d968	-0.13168871
174	0xbe625c87	-0.22105609
175	0x3bb6b96b	0.0055763028
176	0xbdd6ba9d	-0.104848124
177	0x3c46dedd	0.012138096
178	0xbf128baa	-0.5724436
179	0xbde9f5a4	-0.11423805
180	0xbe93306a	-0.28747874
181	0xbe46ce41	-0.19414617
182	0xbe6c5ab7	-0.2308148
183	0xbe51ed40	-0.2050066
184	0xbe1a1c09	-0.15049757
185	0xbe5c5b64	-0.21519238
186	0xbe7f1223	-0.24909262
187	0xbea682f2	-0.32521778
188	0x3d6bee4b	0.0576003
189	0xbda4380a	-0.08018501
190	0x3e5c445e	0.21510455
191	0x3e4a8759	0.19778194
192	0xbe5b2eab	-0.21404521
193	0x3e50316c	0.20331353
194	0xbeb03dad	-0.34422055
195	0xbe3f4ab1	-0.18680836
196	0x3de0c4e3	0.10975053
197	0xbe31ac3a	-0.17350855
198	0xbe6b7aa8	-0.22996008
199	0xbe8c7831	-0.2743545
200	0x3d739a5b	0.059473377
201	0xbd9f98c0	-0.077928066
202	0xbd0b0bae	-0.033946685
203	0xbe1937d5	-0.14962704
204	0xbdbcb383	-0.09213927
205	0xbe3ad081	-0.182436
206	0x3e2df906	0.16989526
207	0x3e809d04	0.25119793
208	0xbea49dfc	-0.32151783
209	0xbe430540	-0.19044971
210	0x3ec89d74	0.39182627
211	0xbe71614b	-0.2357227
212	0x3e868f0d	0.26281014
213	0xbe4f2e76	-0.20232567
214	0x3f10316a	0.563254
215	0x3e5c443a	0.21510401
216	0xbdbe77c4	-0.09300187
217	0xbe41ca8e	-0.18924925
218	0x3df12b71	0.11775864
219	0xb9a218e4	-0.00030917593
220	0xbe5b0436	-0.21388325
221	0xbe085d75	-0.13316901
222	0xbe98747f	-0.2977638
223	0xbed831a4	-0.42225373
224	0x3cd76948	0.02629532
225	0xbdb3bdaf	-0.08776414
226	0xbf5a6469	-0.85309464
227	0xbdc7be60	-0.09753108
228	0xbc0c76aa	-0.008573214
229	0x3e896012	0.26831108
230	0xbe0f9a7d	-0.14023776
231	0xbe9e70b6	-0.30945367
232	0xbd001678	-0.031271428
233	0x3c4267c6	0.011865562
234	0x3ddb4b82	0.10707761
235	0x3dc2377e	0.094832405
236	0x3dd976cc	0.10618362
237	0xbd77f905	-0.060540218
238	0x3e2ecbe3	0.17069964
239	0x3e1e7bc5	0.15476902
240	0x3e5975b0	0.212363
241	0xbc750a04	-0.014956001
242	0xbe376268	-0.17908633
243	0xbeb239d5	-0.34809747
244	0x3d17622a	0.03695885
245	0x3dafbfd2	0.08581509
246	0xbf161da4	-0.5863898
247	0x3d702505	0.058629055
248	0x3eaf78a1	0.3427172
249	0x3d9a32f6	0.07529251
250	0xbe359112	-0.17731121
251	0xbaa9005e	-0.0012893786
252	0xbd011298	-0.031511873
253	0x3ecad058	0.3961208
254	0x3e051505	0.129963
255	0x3e94e927	0.2908413

bilstm.weight_ih_l0 f4 [64, 32]
0	0x3dabcc68	0.08388597
1	0xbd8ef81a	-0.06980915
2	0x3d39c509	0.045353923
3	0xbd32f484	-0.04369022
4	0x3e24d444	0.16096598
5	0xbe711292	-0.2354224
6	0xbd27d981	-0.040978912
7	0x3cd665c7	0.026171578
8	0x3d661d49	0.056180272
9	0xbe0738a8	-0.13205206
10	0x3e5447b7	0.20730482
11	0xbbd6c6b2	-0.006554448
12	0xbe2b968c	-0.16756648
13	0xbe523fd2	-0.20532158
14	0x3da463a9	0.08026821
15	0x3eaafd22	0.3339625
16	0x3d171115	0.036881525
17	0xbde5005f	-0.111817114
18	0xbccd8cfc	-0.02509164
19	0xbcfb2084	-0.030655153
20	0x3deb42a8	0.11487323
21	0xbdfa6d7e	-0.12227915
22	0xbd635229	-0.055498276
23	0xbdbd4c40	-0.09243059
24	0xbe3ce072	-0.18444994
25	0xbe3d72d0	-0.18500829
26	0x3d7d4305	0.061831493
27	0x3e19e462	0.15028527
28	0x3e72bce2	0.23704866
29	0x3e798020	0.24365282
30	0x3ca0d6ba	0.01963364
31	0xbe6d65d0	-0.2318337
32	0xbdbe6ba4	-0.092978746
33	0xbe797067	-0.24359284
34	0xbe66fc91	-0.22557284
35	0xbde8477a	-0.11341758
36	0xbe505dd8	-0.20348299
37	0xbe550443	-0.20802407
38	0x3e105578	0.14095104
39	0x3bf1da40	0.0073807538
40	0xba8f2f77	-0.001092418
41	0xbe6ee809	-0.23330702
42	0xbe458b1e	-0.1929135
43	0x3f404492	0.7510463
44	0xbe5fea76	-0.21866783
45	0xbe166471	-0.14686753
46	0x3e00bf6f	0.12573026
47	0x3c0ede86	0.008720046
48	0x3c9161e6	0.017746877
49	0xbe72d130	-0.23712611
50	0x3cc1729d	0.023614222
51	0x3d68bc75	0.05682035
52	0xbd7ef0ef	-0.06224149
53	0xbe64396a	-0.22287527
54	0xbdcc8321	-0.09985948
55	0xbc8d581d	-0.01725393
56	0xbec674dd	-0.38761035
57	0xbddffcbb	-0.109368764
58	0xbe9ee565	-0.3103439
59	0x3d653b06	0.055964492
60	0x3d7e01ef	0.062013563
61	0xbeb12094	-0.34595168
62	0xbe2a8dc7	-0.16655646
63	0xbe1986d8	-0.14992845
64	0x3dc8ebf3	0.09810629
65	0x3e1723d8	0.14759767
66	0xbe2265c8	-0.15859139
67	0xbd70b206	-0.058763526
68	0x3e629dba	0.2213048
69	0xbd5b2ff4	-0.05351253
70	0xbe36a52b	-0.17836444
71	0xbe257e37	-0.16161428
72	0xbc2d5f75	-0.010581841
73	0xbd8dd272	-0.06924905
74	0x3e5a45bd	0.21315666
75	0x3fe66931	1.8000852
76	0xbde453f3	-0.111488245
77	0x3db0fffe	0.08642577
78	0x3d96a33f	0.073553555
79	0xbd927fbe	-0.07153271
80	0xbe445557	-0.1917318
81	0x3ea65a72	0.3249088
82	0x3ead62bd	0.33864394
83	0x3deca087	0.11554056
84	0x3e95cda8	0.29258466
85	0x3f5edfe0	0.87060356
86	0xbe0fcc7c	-0.14042848
87	0xbc9cebec	-0.019155465
88	0x3dc0f495	0.0942165
89	0xbe6b1d2f	-0.22960351
90	0x3e90b4c0	0.282629
91	0xbd737a3f	-0.059442755
92	0x3e21a559	0.15785731
93	0x3e8f4430	0.2798171
94	0x3df62976	0.12019627
95	0xbdd4ab67	-0.10384255
96	0x3d80e282	0.06293203
97	0x3c902702	0.017596725
98	0x3e43183e	0.19052216
99	0xbc8863ba	-0.016649116
100	0x3e74051a	0.23830071
101	0xbf636550	-0.88826466
102	0x3dca18ce	0.09868012
103	0xbd2a48d6	-0.041573368
104	0x3dce5eee	0.100767
105	0x3e25d546	0.16194639
106	0xbe891d88	-0.26780343
107	0xbfbe37db	-1.4860796
108	0xbd9cab24	-0.0764983
109	0x3eccedf1	0.40025285
110	0x3e4881e7	0.19580804
111	0x3d98cd0b	0.07460984
112	0x3e688996	0.22708735
113	0xbdf99c1b	-0.12187978
114	0xbdbca3f9	-0.09210963
115	0x3e426912	0.18985394
116	0xbb800f22	-0.003908054
117	0xbecc74f1	-0.3993297
118	0x3d52ee90	0.051497042
119	0xbe4ec2de	-0.20191523
120	0xbeca62a7	-0.3952839
121	0xbc1e5995	-0.009664913
122	0xbe5800b1	-0.21094014
123	0xbe2a83b9	-0.1665181
124	0xbe5961b5	-0.21228679
125	0xbe5d25f3	-0.21596508
126	0xbe56db24	-0.20982033
127	0xbe35b592	-0.17745045
128	0x3eb1d94e	0.34736103
129	0xbe67b2fd	-0.22626872
130	0x3cff79e1	0.031186046
131	0x3b5231ba	0.0032073096
132	0xbe0d58b4	-0.13803369
133	0xbd857351	-0.065161355
134	0xbda16ceb	-0.078821026
135	0x3e60325c	0.2189421
136	0xbdcbea7b	-0.09956833
137	0x3e877510	0.264565
138	0xbd06cf9b	-0.03291283
139	0xbf9660c0	-1.1748276
140	0x3d552337	0.052035537
141	0xbe69b8c3	-0.22824387
142	0x3ed4a0ce	0.41528934
143	0x3eba7ebf	0.36424825
144	0xbd91d727	-0.07121115
145	0x3d117986	0.035516284
146	0x3dab28eb	0.08357414
147	0xbd3bd089	-0.04585317
148	0xbd273394	-0.040820673
149	0x3dd5b7a2	0.10435416
150	0xbe32c548	-0.1745807
151	0xbe3b37e1	-0.18283035
152	0xbde9f506	-0.11423688
153	0xbe0fe732	-0.14053038
154	0x3dbd282e	0.09236179
155	0xbe75edb5	-0.2401646
156	0xbe08cdd7	-0.13359772
157	0xbdc3b5e2	-0.09556176
158	0xbe4cd148	-0.2000171
159	0xbd8cc3e9	-0.068733044
160	0x3cccae02	0.024985317
161	0xbdc5b7a6	-0.09654169
162	0x3e8e0eb8	0.27745605
163	0x3e715ed6	0.23571333
164	0xbd4c4849	-0.049873624
165	0x3d263ffd	0.040588368
166	0x3bab0b81	0.005219877
167	0xbd0a1b1d	-0.033717263
168	0x3df3c339	0.1190247
169	0xbe0c9e3f	-0.13732241
170	0x3e7221e9	0.23645748
171	0xbd533883	-0.051567566
172	0xbe08e329	-0.13367905
173	0xbe0a998c	-0.13535136
174	0x3e777dc2	0.24169067
175	0x3ed3c5cb	0.41361842
176	0x3de478e2	0.11155869
177	0x3d879dad	0.06621871
178	0xbe0f20e6	-0.13977394
179	0x3d9bf7d6	0.0761563
180	0xbe3c34bc	-0.18379492
181	0x3ef84b3d	0.48494902
182	0x3e8f0a22	0.27937418
183	0xbe85c3dc	-0.2612599
184	0x3bfa0e2d	0.0076310844
185	0xbc87564f	-0.016520647
186	0xbe9a6593	-0.3015562
187	0xbeb35840	-0.35028267
188	0x3e792c38	0.24333274
189	0x3e66c8c8	0.2253753
190	0xbf081a8c	-0.5316551
191	0x3e1d070d	0.15334721
192	0xbe0c8a21	-0.13724567
193	0x3dd008b4	0.1015791
194	0xbed9d744	-0.42547047
195	0xbdcfe18e	-0.10150443
196	0xbdf8fec8	-0.12157971
197	0x3e3b5115	0.18292649
198	0x3e8949f5	0.26814237
199	0xbd6384aa	-0.05554644
200	0xbdd32fa8	-0.10311824
201	0xbe2bba3b	-0.1677026
202	0x3d092fbc	0.03349279
203	0xbe415b8e	-0.18882582
204	0xbd83b6f0	-0.06431377
205	0xbe2e4b84	-0.17020994
206	0xbd7fd46e	-0.062458448
207	0x3df37252	0.11887039
208	0xbdf5dc15	-0.12004868
209	0xbe303f22	-0.17211583
210	0xbcb51165	-0.02210302
211	0xbe320109	-0.17383207
212	0xbf197d04	-0.59956384
213	0x3d4198cf	0.04726487
214	0x3ebc982b	0.36834845
215	0x3d10d754	0.035361603
216	0x3eb1fe16	0.34764165
217	0x3e13aa8f	0.14420532
218	0xbd93d8d9	-0.07219095
219	0x3e064c5e	0.1311507
220	0xbd45c678	-0.048284978
221	0x3c6a9614	0.014318008
222	0x3f1054f7	0.56379646
223	0x3e39f5be	0.1816015
224	0xbc408b60	-0.01175198
225	0xbdf2415f	-0.11828875
226	0x3e608da3	0.2192903
227	0x3d49f7e8	0.049308687
228	0xbd7aaead	-0.06120174
229	0x3e2bf79e	0.16793677
230	0x3edd9b07	0.4328234
231	0xbb36a751	-0.0027870724
232	0x3e0ef002	0.13958743
233	0x3ed2b33d	0.41152373
234	0x3da4e0c9	0.08050687
235	0x3f94b52e	1.1617792
236	0x3c339d37	0.010962776
237	0x3dc2c3c8	0.095099986
238	0x3d8559d3	0.06511273
239	0x3ea2e550	0.31815577
240	0x3c764eab	0.015033404
241	0x3ee52e52	0.44761902
242	0xbe400e88	-0.18755543
243	0x3ed34a9b	0.41267857
244	0x3e3a6fb4	0.18206674
245	0x3cd9de37	0.026595218
246	0x3c918b0d	0.0177665
247	0x3d67f9c9	0.056634698
248	0x3e6ec60b	0.23317735
249	0xbd448fee	-0.047988825
250	0x3ecccc6f	0.3999972
251	0xbe4b50fb	-0.1985511
252	0x3dda9da6	0.106746
253	0x3dda7b77	0.1066808
254	0x3e66dd09	0.22545256
255	0x3d25c29a	0.04046879

bilstm.weight_ih_l0_reverse f4 [64, 32]
0	0x3d85ebb6	0.06539099
1	0x3d019c5f	0.031643268
2	0xbe4dcbab	-0.20097224
3	0x3df2d623	0.118572496
4	0xbe4ec0a1	-0.2019067
5	0x3f35b5dc	0.7098062
6	0x3e431715	0.19051774
7	0x3dd5576d	0.10417066
8	0x3e40f6bf	0.18844126
9	0x3d230d65	0.039807696
10	0xbe258fe0	-0.16168165
11	0x3e0ddf5f	0.1385474
12	0x3c3ce18f	0.011528387
13	0x3d10c296	0.03534182
14	0x3e444d68	0.19170153
15	0xbe6d839e	-0.23194739
16	0xbcf4ce9a	-0.029883672
17	0xbe799e55	-0.24376805
18	0xbd6880e2	-0.056763537
19	0xbc4e4218	-0.012589
20	0x3d8fe00f	0.07025158
21	0x3da6c9a3	0.08143928
22	0x3e448028	0.19189513
23	0x3da5e830	0.08100927
24	0xbe70be31	-0.23510052
25	0x3dce6462	0.1007774
26	0x3da2f13d	0.07956169
27	0xbe21e762	-0.15810922
28	0xbe469050	-0.19390988
29	0xbdc4e106	-0.09613232
30	0x3e5bc28a	0.2146093
31	0xbe2fcf48	-0.17168915
32	0x3e9dbda3	0.30808744
33	0x3e6edcbb	0.2332639
34	0xbde5b067	-0.11215287
35	0x3e339a29	0.17539276
36	0xbd952537	-0.07282489
37	0xbde76cf9	-0.11300082
38	0x3e724360	0.23658514
39	0xbd03fe7e	-0.032225125
40	0x3ed3d027	0.41369745
41	0x3e64fb13	0.22361402
42	0xbcb8dfc6	-0.022567641
43	0xbf6543c7	-0.89556545
44	0x3cb298b9	0.02180134
45	0x3e3a244f	0.18177913
46	0x3ec106cb	0.37700495
47	0x3e62795d	0.22116609
48	0x3e264e3b	0.1624078
49	0x3ea8c950	0.3296609
50	0xbde42b4c	-0.11141071
51	0x3e8121dd	0.25221148
52	0xbc5abda2	-0.013350876
53	0x3efe7561	0.49698928
54	0xbd65cad3	-0.05610163
55	0x3ee3bb72	0.44478947
56	0x3e9e47db	0.30914196
57	0x3db75f8f	0.08953773
58	0x3d9dda5d	0.07707665
59	0x3dff44f4	0.12464324
60	0x3e07d768	0.13265765
61	0x3bd4ce6a	0.006494333
62	0xbd57bc68	-0.052669913
63	0xbe629d1b	-0.22130243
64	0xbe3154bd	-0.17317481
65	0x3d18956c	0.037251875
66	0xbf159b7f	-0.58440393
67	0xbdf92ecc	-0.12167129
68	0xbe76063c	-0.24025816
69	0x3eb105da	0.34574777
70	0xbe29543e	-0.16536042
71	0xbdaacc9a	-0.08339806
72	0xbe96d678	-0.29460502
73	0xbe0fc420	-0.1403966
74	0xbe588018	-0.21142614
75	0x3e89adf6	0.26890534
76	0x3e38fe2f	0.18065713
77	0x3d9c33f0	0.07627094
78	0xbd8e6113	-0.06952109
79	0xbf45f34f	-0.77324384
80	0xbe23b56a	-0.15987173
81	0xbc63a1b3	-0.013893533
82	0xbe47ea8f	-0.19523071
83	0x3dd01d74	0.10161868
84	0x3e34ee2d	0.17668982
85	0xbd9ec5c2	-0.07752563
86	0xbd760593	-0.06006391
87	0xbecf7471	-0.40518525
88	0xbf23989e	-0.6390475
89	0x3e3c1b41	0.18369772
90	0x3d4dd058	0.05024752
91	0xbd9a7c37	-0.07543223
92	0xbdb4d272	-0.08829202
93	0xbe94779b	-0.28997502
94	0xbed1d015	-0.40979066
95	0x3e46f38c	0.19428843
96	0xbe09a08a	-0.13440147
97	0xbdeee1e9	-0.11664183
98	0xbdfa74e1	-0.12229324
99	0x3e8ecf37	0.27892467
100	0x3d705e2f	0.05868357
101	0x3ea05f71	0.31322816
102	0xbe07c58a	-0.13258949
103	0x3d2bec87	0.041973617
104	0x3e8ad9bc	0.27119243
105	0xbe17331b	-0.14765589
106	0xbe73eb21	-0.23820163
107	0xbf6840d8	-0.90723944
108	0xbe1d9cc8	-0.15391839
109	0x3e24d0bd	0.16095252
110	0xbd8dcf78	-0.06924337
111	0xbded78e7	-0.11595326
112	0x3ddd9592	0.10819544
113	0x3e1688b3	0.14700584
114	0x3dfbbd0c	0.12291917
115	0x3d8b3a09	0.06798179
116	0x3d2a17a0	0.041526437
117	0xbe0dd87f	-0.13852118
118	0x3e619f53	0.22033434
119	0xbdd5c202	-0.10437395
120	0xbea306d8	-0.3184116
121	0xbd9eb900	-0.0775013
122	0x3e49e720	0.19717073
123	0x3d9024b4	0.070382506
124	0x3e73c3dd	0.23805185
125	0x3e6f329a	0.23359147
126	0x3ea73291	0.32655767
127	0xbe819fca	-0.25317222
128	0xbd8e5498	-0.06949729
129	0xbdf96018	-0.121765316
130	0x3d0d6d23	0.03452791
131	0x3e9744c6	0.29544657
132	0xbd3e867d	-0.046514977
133	0xbeae106e	-0.3399691
134	0xbcddc13e	-0.027069684
135	0xbe507462	-0.20356897
136	0x3e09512c	0.13409871
137	0x3e9af487	0.30264685
138	0xbdd38b7d	-0.1032934
139	0x3f55988a	0.8343588
140	0x3df4fd68	0.11962396
141	0x3ebc5664	0.3678466
142	0x3c5ffc1e	0.013670949
143	0x3e99a763	0.30010518
144	0x3dfbed36	0.12301104
145	0x3d904dc3	0.07046082
146	0xbe4ad12f	-0.1980636
147	0xbc87b7fb	-0.01656722
148	0x3e8afd30	0.27146292
149	0x3edf215b	0.43580136
150	0x3dcedeb7	0.10101073
151	0x3e889bf5	0.26681486
152	0x3e1c0a44	0.15238291
153	0xbdf612cd	-0.12015305
154	0x3e832881	0.2561684
155	0x3e8a9b90	0.2707181
156	0xb90162aa	-0.00012339154
157	0x3ea53223	0.32264814
158	0xbdc0849d	-0.09400294
159	0x3e345381	0.17609979
160	0x3df03f6e	0.11730848
161	0x3d8c01b1	0.0683626
162	0x3e3a5828	0.18197691
163	0xbe01ceec	-0.1267659
164	0x3e2ec5a4	0.17067581
165	0x3e03fca3	0.12889342
166	0xbe116d58	-0.14201868
167	0x3e4f322f	0.20233987
168	0x3e61572e	0.22005913
169	0xbe041e29	-0.1290213
170	0x3d5cbc96	0.053890787
171	0x3eb9e583	0.36307916
172	0xbe134e2f	-0.14385293
173	0xbdf892e5	-0.12137393
174	0x3e558ece	0.20855257
175	0xbde4cf50	-0.11172354
176	0xbe218a29	-0.1577536
177	0xba816a42	-0.0009873586
178	0x3d4a4216	0.04937943
179	0x3d960130	0.07324445
180	0x3dc14986	0.094378516
181	0x3f2c05bc	0.6719625
182	0xbdd8a293	-0.105778836
183	0xbe122802	-0.14273074
184	0x3ed4f7a8	0.41595197
185	0x3e25c08c	0.16186732
186	0x3e8dab92	0.2766996
187	0xbea5e375	-0.32400098
188	0xbe269579	-0.16267957
189	0x3e4db75a	0.20089474
190	0xbe198f43	-0.14996056
191	0xbdb332a4	-0.08749893
192	0x3bb3ec69	0.005490829
193	0x3e4bc52c	0.19899434
194	0xbbd17c47	-0.006392989
195	0xbdc7971f	-0.09745621
196	0x3e0c91f2	0.13727549
197	0xbe887301	-0.2665024
198	0xbc84bfcb	-0.016204735
199	0xbe035719	-0.12826194
200	0xbe4e91d1	-0.20172812
201	0xbe7c23d5	-0.24623044
202	0x3e04e1fa	0.12976828
203	0xbf165531	-0.5872374
204	0xbe595465	-0.212236
205	0xbe463192	-0.19354847
206	0xbe361748	-0.17782319
207	0xbe42b483	-0.19014172
208	0x3e592186	0.21204194
209	0xbe21bc53	-0.15794496
210	0x3e5a00f4	0.21289426
211	0xbc6fe1de	-0.014641253
212	0xbe9b3321	-0.30312446
213	0xbe8c2624	-0.2737285
214	0x3da1587f	0.078782074
215	0xbe613451	-0.21992613
216	0x3da296ea	0.07938941
217	0xbdb20381	-0.086920746
218	0xbe31fb83	-0.173811
219	0x3e5c7347	0.2152835
220	0x3d9080ef	0.07055842
221	0xbe080b69	-0.13285603
222	0x3e2698da	0.16269246
223	0x3c2b4035	0.01045232
224	0x3d53518b	0.051591437
225	0xbe010f17	-0.12603413
226	0xbd97a7b3	-0.07405033
227	0x3e512c39	0.20427026
228	0x3ac2995e	0.0014846732
229	0x3c9a51a5	0.01883776
230	0xbe2094e3	-0.15681796
231	0xbd04885b	-0.0323566
232	0xbd8e4484	-0.06946662
233	0xbd739c27	-0.05947509
234	0x3e40a124	0.1881147
235	0xbe911ed9	-0.28343847
236	0xbdb4bafb	-0.08824726
237	0xbe07bf51	-0.13256575
238	0xbe0f1d63	-0.13976054
239	0x3ea91fd5	0.33032098
240	0xbe4e91f9	-0.20172872
241	0xbd7c568b	-0.06160597
242	0x3e9f760c	0.3114475
243	0x3e75154b	0.23933904
244	0x3db6fb41	0.08934642
245	0xbe238259	-0.15967692
246	0xbe040c85	-0.12895401
247	0x3dd4560b	0.10367974
248	0x3ec6b7a5	0.38811985
249	0x3d798489	0.06091741
250	0x3d619294	0.05507143
251	0xbca374f7	-0.019953234
252	0x3e0f1442	0.13972571
253	0xbd8b4c94	-0.068017155
254	0xbe0f4e36	-0.13994679
255	0xbd17c52c	-0.037053272

parallel_cnn_block.branches.0.0.weight f4 [1, 1, 2]
0	0x3f063ad5	0.5243352
1	0x3f28061f	0.6563434

parallel_cnn_block.branches.0.2.bias f4 [16]
0	0x3d53e84e	0.051735215
1	0x3f34617b	0.70461243
2	0xbf07db46	-0.5306896
3	0x3e1da4b0	0.15394855
4	0xbbeaa52d	-0.007160804
5	0xbdee324e	-0.116306886
6	0xbeaf1dab	-0.34202322
7	0x3de70313	0.11279883
8	0xbeb189ad	-0.3467535
9	0x3ecae8c6	0.39630717
10	0x3ee6bea2	0.45067316
11	0xbf5c8497	-0.86139816
12	0x3cf3bb81	0.029752495
13	0xbc54db24	-0.0129917
14	0x3cf91eed	0.030410254
15	0x3ebb1cc9	0.365454

parallel_cnn_block.branches.0.2.weight f4 [16, 1, 2]
0	0x3ee90f25	0.45519367
1	0xbf1453f8	-0.57940626
2	0xbd5351bb	-0.051591616
3	0x3f0b839b	0.5449769
4	0x3f3350c0	0.7004509
5	0xbe3537b7	-0.17697035
6	0x3e5a79bf	0.21335505
7	0xbe6ef453	-0.2333539
8	0xbd7d4672	-0.06183476
9	0x3e3cccda	0.1843752
10	0x3e2baac8	0.16764367
11	0xbdd35734	-0.10319367
12	0x3e3ed1e0	0.18634748
13	0x3c34831b	0.011017586
14	0x3efb416f	0.4907336
15	0xbee42e1e	-0.44566435
16	0x3dab3240	0.08359194
17	0x3e99a0a8	0.30005383
18	0x3ce81599	0.028330611
19	0xbe9e1670	-0.30876493
20	0x3ef20a35	0.47273412
21	0xbf250851	-0.64465815
22	0x3e1530bc	0.14569372
23	0x3e92d21c	0.28675926
24	0x3ed5b8b8	0.41742492
25	0xbf1636d3	-0.58677405
26	0x3f0c5ff0	0.5483389
27	0xbf093f39	-0.53612095
28	0xbdfee7ad	-0.124465324
29	0x3e19d0d4	0.15021068
30	0xbf801dd5	-1.0009104
31	0x3e9dadde	0.30796713

parallel_cnn_block.branches.1.0.weight f4 [1, 1, 4]
0	0xbd6ca461	-0.05777395
1	0x3f292ece	0.66087043
2	0xbe870f7f	-0.2637901
3	0x3c6e4931	0.014543817

parallel_cnn_block.branches.1.2.bias f4 [32]
0	0x3cc43fe3	0.023956245
1	0x3d2c1043	0.042007696
2	0x3f057bc4	0.52141976
3	0xbb3275a4	-0.0027230764
4	0xbc550203	-0.013000968
5	0xbeb0a5da	-0.34501535
6	0x3e5ae51d	0.21376462
7	0xbe5287ef	-0.20559667
8	0xbd20b37e	-0.039233677
9	0xbe711985	-0.23544891
10	0x3ddea38b	0.10871037
11	0x3efb9d77	0.49143574
12	0x3f084328	0.5322747
13	0xbd877f10	-0.06616032
14	0xbec4e080	-0.3845253
15	0xbecbef85	-0.39831176
16	0x3ea49831	0.32147363
17	0xbc4a3d95	-0.012343784
18	0x3e67d202	0.22638705
19	0x3df079b7	0.11741965
20	0xbe52b8d3	-0.20578317
21	0xbbf3217c	-0.007419763
22	0xbf2d8441	-0.6777993
23	0xbd83d3b3	-0.06436863
24	0x3e242022	0.16027883
25	0x3f106045	0.56396896
26	0xbd96d472	-0.073647395
27	0x3ecb7841	0.39740184
28	0xbefb8dcd	-0.49131623
29	0xbd9a030d	-0.07520113
30	0x3d1167f4	0.035499528
31	0x3d20e126	0.03927722

parallel_cnn_block.branches.1.2.weight f4 [32, 1, 4]
0	0xbf126a13	-0.57193106
1	0x3eb265d9	0.3484333
2	0x3ebc4304	0.3676988
3	0x3e7b9983	0.24570279
4	0xbf3e602f	-0.74365515
5	0xbeea953e	-0.45816988
6	0x3ecea5af	0.40360782
7	0xbd0b7829	-0.03405014
8	0xbc083e77	-0.008315674
9	0xbef9261b	-0.48661885
10	0x3e8b8e60	0.2725706
11	0x3ed39a2d	0.41328564
12	0xbeaa077a	-0.3320883
13	0x3d6b1cc4	0.05740048
14	0x3e1dfe73	0.15429096
15	0xbf631bdf	-0.887144
16	0xbbdfaf82	-0.006826342
17	0x3c3ff2ac	0.011715572
18	0x3f0e87b3	0.5567581
19	0xbed3fca7	-0.41403696
20	0xbda89b66	-0.08232765
21	0x3f12276a	0.5709139
22	0xbd7a7bca	-0.06115321
23	0xbe040bc6	-0.12895116
24	0xbeeda4e9	-0.4641488
25	0x3edf8d27	0.43662378
26	0xbcc33aae	-0.023831692
27	0x3dd8b84b	0.10582026
28	0x3e858e58	0.26085162
29	0x3eab2451	0.33426145
30	0x3e94bdbd	0.2905101
31	0xbf1fa6d7	-0.6236395
32	0xbc4cb255	-0.01249369
33	0x3c83de83	0.016097313
34	0x3f2e7593	0.68148154
35	0xbf1103f7	-0.56646675
36	0x3ebe6ebf	0.37193868
37	0xbe449fab	-0.19201533
38	0x3eb9f678	0.36320853
39	0x3de2053c	0.11036155
40	0x3e72fe98	0.23729932
41	0x3f28031f	0.6562976
42	0xbf07a4c1	-0.5298577
43	0xbdc28220	-0.094974756
44	0xbd0c1835	-0.034202773
45	0x3eb2161a	0.34782487
46	0xbed10787	-0.40826055
47	0x3e1bdec3	0.15221696
48	0x3e6821c2	0.22669128
49	0xbeaf315f	-0.34217355
50	0x3d14fa19	0.036371324
51	0x3e223dbb	0.15843861
52	0xbf111b78	-0.5668254
53	0x3e3ca5d6	0.18422636
54	0x3f2b128d	0.6682518
55	0xbe46b955	-0.19406636
56	0x3e43effb	0.19134514
57	0x3e1849ad	0.14871855
58	0xbd69c750	-0.057074845
59	0x3f2ab65c	0.6668451
60	0xbe154432	-0.14576796
61	0xbc9de32e	-0.019273367
62	0xbe2307c2	-0.15920928
63	0xbdff6623	-0.12470653
64	0xbe32ff0c	-0.17480105
65	0x3efeafcf	0.49743506
66	0xbf60f0b4	-0.87867284
67	0x3f14fb35	0.5819581
68	0xbe9d84b5	-0.3076531
69	0x3ea79de5	0.3273765
70	0x3f064a15	0.5245679
71	0x3e327275	0.17426474
72	0xbceabe04	-0.02865506
73	0xbf6379b9	-0.8885761
74	0xbd45375f	-0.04814851
75	0xbf1282d3	-0.5723087
76	0x3cbd53da	0.023111273
77	0x3eeab5c1	0.45841792
78	0xbeb7646d	-0.35818806
79	0xbd96151c	-0.07328245
80	0xbd4b6be3	-0.049663436
81	0xbf077401	-0.5291138
82	0x3e9b755b	0.30362973
83	0x3eaef3b4	0.34170306
84	0xbea5c6f3	-0.3237835
85	0x3e583619	0.21114387
86	0x3f0c9922	0.5492116
87	0xbed4e08a	-0.4157756
88	0x3ed8119d	0.42200938
89	0x3ef345e2	0.47514254
90	0xbf4fd86e	-0.8118962
91	0xbdb6d0ed	-0.08926568
92	0xbf1a0f23	-0.60179347
93	0x3f5317df	0.824583
94	0xbe5f2c53	-0.21794252
95	0x3d0263da	0.031833507
96	0x3e65b038	0.22430503
97	0x3de7a3f9	0.11310572
98	0xbdd8a03c	-0.10577437
99	0xbe4e9bda	-0.2017664
100	0xbc4ff7da	-0.01269337
101	0xbeb4609e	-0.35229963
102	0x3e9aa0cc	0.30200803
103	0x3dacbaf0	0.08434093
104	0x3d2c6d92	0.042096682
105	0x3e674bcb	0.22587506
106	0xbf16764d	-0.5877426
107	0x3f02cffd	0.51098615
108	0xbf1fb542	-0.6238595
109	0xbeb84160	-0.35987377
110	0x3e605d4f	0.21910594
111	0xbe08a328	-0.13343489
112	0xbe9bacd5	-0.30405298
113	0x3f59f291	0.8513575
114	0xbeda2faa	-0.4261449
115	0x3e0e9c18	0.13926733
116	0xbef73e6a	-0.48289806
117	0x3dfe7cf2	0.12426175
118	0x3f2d1cfe	0.67622364
119	0x3e178a25	0.14798792
120	0xbf1f37c4	-0.62194467
121	0x3cb753d7	0.022378845
122	0x3eb96446	0.36209315
123	0x3e18e001	0.149292
124	0x3efb48cb	0.49078974
125	0x3d871426	0.0659564
126	0x3d26e1d2	0.040742703
127	0x3ec54d0a	0.3853534

parallel_cnn_block.branches.2.0.weight f4 [1, 1, 8]
0	0xbc8bf277	-0.01708339
1	0x3c3d8405	0.01156712
2	0xbe57d7e1	-0.21078445
3	0x3f13560e	0.57553184
4	0x3e921b55	0.28536478
5	0xbe84cdb6	-0.25938195
6	0x3d6bd3ed	0.057575155
7	0xbc9a2e58	-0.018820927

parallel_cnn_block.branches.2.2.bias f4 [64]
0	0x3e5045e2	0.20339158
1	0xbf087403	-0.5330202
2	0xbe0b8f85	-0.13628967
3	0xbf22c494	-0.63581204
4	0x3d8313ad	0.06400237
5	0xbeb3e46b	-0.35135207
6	0xbdde7c6b	-0.108635746
7	0xbeb38a96	-0.3506667
8	0x3ef5a64d	0.4797844
9	0x3ecfa8b2	0.40558392
10	0x3e133813	0.1437686
11	0x3d8ab9bf	0.067737095
12	0xbd83218b	-0.06402882
13	0xbd8c6df8	-0.068569124
14	0x3ec47dd0	0.38377237
15	0x3d1e73f4	0.0386848
16	0xbf08aa21	-0.53384596
17	0x3d8e6d20	0.06954408
18	0x3e5e8efc	0.21734232
19	0x3b8ded6f	0.004331283
20	0x3e40ab95	0.18815453
21	0x3dcc4431	0.09973944
22	0x3e83162e	0.2560286
23	0xbe4133ca	-0.18867412
24	0xbdbbff09	-0.091795035
25	0x3de5f35a	0.11228056
26	0x3dd3f5de	0.1034963
27	0x3e40762e	0.18795082
28	0x3e656175	0.22400458
29	0x3d9016d2	0.07035603
30	0xbedad525	-0.4274074
31	0xbeb34f9d	-0.35021678
32	0x3ea75f1b	0.32689747
33	0xbd7196b2	-0.058981605
34	0x3d45093f	0.04810452
35	0x3ed1a905	0.40949264
36	0x3e5f28dc	0.2179293
37	0x3eeb6fcd	0.45983735
38	0xbf09948f	-0.5374231
39	0x3ea704e7	0.32620928
40	0xbd44df2a	-0.04806439
41	0x3e471564	0.19441754
42	0x3eb3dd98	0.3513
43	0x3d7b9638	0.061422557
44	0xbd580fd8	-0.052749485
45	0x3db3f2c5	0.08786539
46	0x3ec36fec	0.38171327
47	0x3b2a0610	0.0025943555
48	0xbf8eee03	-1.1166385
49	0xbe8a0606	-0.2695772
50	0xbf1bd3fc	-0.6087034
51	0x3ea00720	0.31255436
52	0x3e615c85	0.2200795
53	0xbecfdd30	-0.4059844
54	0xbe32621d	-0.1742024
55	0xbe233ca3	-0.159411
56	0xbe9a6c47	-0.30160734
57	0xbe97446d	-0.29544392
58	0xbd6e9ce1	-0.05825508
59	0x3d44e1b1	0.0480668
60	0x3e160120	0.14648867
61	0x3ec6761a	0.3876198
62	0xbdc23454	-0.09482637
63	0x3d821fb8	0.06353706

parallel_cnn_block.branches.2.2.weight f4 [64, 1, 8]
0	0xbe9b70f8	-0.30359626
1	0xbd3f6a7a	-0.046732403
2	0x3e6cc74c	0.231229
3	0xbe75be1b	-0.239983
4	0x3ea4b117	0.3216636
5	0xbe71e94b	-0.2362415
6	0x3e4be983	0.19913296
7	0x3e17b589	0.14815344
8	0x3da1827a	0.078862146
9	0xbdb5ef96	-0.08883588
10	0x3e634d86	0.22197542
11	0xbea3da83	-0.3200265
12	0x3e89a4f6	0.26883668
13	0xbe02a2c9	-0.1275741
14	0x3e7a1263	0.24421076
15	0xbdc589e1	-0.09645439
16	0xbdb2ba0c	-0.08726892
17	0xbee3840b	-0.44436678
18	0x3e91fdfd	0.2851409
19	0x3d82d572	0.06388368
20	0x3d066406	0.032810234
21	0x3e2146b1	0.15749623
22	0x3e64d7c6	0.22347936
23	0xbd85fc89	-0.06542308
24	0x3e9c0cdb	0.30478558
25	0x3cc6d549	0.024271624
26	0xbe2860b9	-0.16443147
27	0x3e1a407f	0.15063666
28	0x3d74fdf2	0.059812494
29	0x3e1a0d5a	0.15044156
30	0xbdda1c26	-0.106499
31	0xbe759bc4	-0.23985201
32	0xbf168ab9	-0.58805424
33	0xbec14557	-0.37748215
34	0xbe22bece	-0.15893099
35	0x3ebc6528	0.36795926
36	0x3ee304a4	0.44339478
37	0x3ec542b4	0.38527453
38	0xbdd35e13	-0.103206776
39	0x3d959bad	0.073050834
40	0x3e5cfec7	0.21581565
41	0x3e08397a	0.13303176
42	0xbe6644ab	-0.22487132
43	0xbf0bec69	-0.5465761
44	0xbec696ba	-0.3878687
45	0x3b042319	0.0020162521
46	0xbd85355b	-0.065043174
47	0xbce7c7f9	-0.028293597
48	0x3e19174a	0.1495029
49	0x3eae1e7f	0.34007642
50	0xbd4cd5d4	-0.05000861
51	0xbeadf66c	-0.33977067
52	0x3e2dd1d6	0.16974577
53	0x3e24b565	0.16084822
54	0x3e6ba027	0.23010312
55	0x3e5072d1	0.20356299
56	0x3e8cab10	0.2747426
57	0xbe742d59	-0.23845424
58	0xbee2c275	-0.44288984
59	0xbe875c57	-0.26437637
60	0x3e3c8467	0.18409882
61	0x3eaf41c7	0.34229872
62	0x3dacd918	0.08439845
63	0x3de54678	0.111950815
64	0x3e1842c0	0.14869213
65	0xbe930c4f	-0.28720328
66	0x3ed99cf4	0.42502558
67	0xbe5d6b55	-0.21622975
68	0xbdedcfdf	-0.11611914
69	0x3e4d06e3	0.20022158
70	0xbcdf5a1d	-0.027264649
71	0xbdbb8a82	-0.09157278
72	0x3cea1301	0.028573515
73	0x3e20f0fe	0.15716931
74	0xbe97dd3d	-0.2966098
75	0xbe89e822	-0.26934916
76	0xbe7a88ad	-0.244662
77	0x3e85609e	0.26050276
78	0x3dd99ec6	0.10625987
79	0x3e807693	0.25090465
80	0xbedbad2f	-0.42905566
81	0xbe653cfb	-0.22386543
82	0xbd8e0c26	-0.06935911
83	0x3e8fbd50	0.2807412
84	0xbdcad1c6	-0.09903292
85	0xbe49bb19	-0.19700278
86	0x3e9f888c	0.31158864
87	0x3e8e0800	0.2774048
88	0x3e2b09d7	0.16702972
89	0xbe5f5aae	-0.21811935
90	0x3e258b43	0.16166405
91	0xbd27c78c	-0.040961787
92	0x3d9ebde9	0.07751066
93	0xbc8c8749	-0.017154353
94	0x3ddc2f87	0.107512526
95	0x3b6ba235	0.0035954837
96	0x3c0940f6	0.008377304
97	0xbf18b784	-0.5965502
98	0xbeb9893e	-0.3623752
99	0x3eed8ee3	0.46398076
100	0xbe832d41	-0.25620463
101	0x3ea65137	0.32483837
102	0x3e7e8113	0.24853925
103	0x3e22ce9a	0.15899125
104	0x3db5b521	0.08872438
105	0x3eacb493	0.33731517
106	0x3e43ad49	0.19109072
107	0xbe7b7e0a	-0.24559799
108	0x3eef866a	0.46782237
109	0xbec5b695	-0.38615862
110	0xbeb0eb59	-0.34554556
111	0xbda7ead4	-0.08199087
112	0x3e136c1e	0.14396712
113	0x3eba1735	0.3634583
114	0x3df3db99	0.11907119
115	0xbe8d6539	-0.2761629
116	0xbedf3353	-0.43593845
117	0xbe171396	-0.14753565
118	0xbdea8611	-0.114513524
119	0x3eab2b40	0.33431435
120	0x3ec87770	0.39153624
121	0xbc4431db	-0.011974777
122	0x3e5ffd3d	0.21873946
123	0x3dde09a7	0.10841685
124	0x3e7e6816	0.24844393
125	0xbd7c2454	-0.061558083
126	0xbecd43a4	-0.40090668
127	0xbed0fdb0	-0.40818548
128	0x3d80779d	0.062728144
129	0x3e756349	0.23963656
130	0x3e8a22f0	0.2697978
131	0x3e1ce4ac	0.15321606
132	0xbe2c105d	-0.16803117
133	0xbef91cb4	-0.4865471
134	0x3c5354a4	0.012898598
135	0xbd8905f9	-0.06690592
136	0x3d991353	0.07474389
137	0xbd539fe9	-0.051666174
138	0x3dd260b2	0.102723494
139	0xbe10d398	-0.14143217
140	0x3d52e6c5	0.05148961
141	0x3e938b89	0.28817394
142	0xbf308930	-0.6895933
143	0xbf08209c	-0.5317476
144	0xbd925b32	-0.071463004
145	0xbecfe822	-0.4060679
146	0xbf02ad06	-0.5104526
147	0xbe4d852c	-0.20070332
148	0x3e8c3743	0.2738591
149	0x3e56431b	0.20924036
150	0x3d894a67	0.06703644
151	0xbe7a6304	-0.24451834
152	0xbd17b44c	-0.03703718
153	0xbcb0bd2c	-0.02157458
154	0x3ee9da33	0.45674285
155	0x3d05bd27	0.032651093
156	0x3ed8a04a	0.4230979
157	0xbe5bf688	-0.21480763
158	0xbd286c63	-0.04111899
159	0xbeea5d6b	-0.45774397
160	0xbeba9646	-0.36442775
161	0x3bebe5cf	0.007199026
162	0x3e965698	0.2936294
163	0xbdc8e1ea	-0.09808715
164	0xbdb7d2b2	-0.08975734
165	0x3ec41c86	0.38303012
166	0x3e2ea149	0.17053713
167	0xbbaa23f0	-0.0051922724
168	0x3dd2e507	0.1029759
169	0x3caa7fef	0.020812957
170	0xbe97f9b0	-0.29682684
171	0xbe6c5765	-0.23080213
172	0x3ec06255	0.3757502
173	0x3ea84b7a	0.32870084
174	0xbe6d24f3	-0.23158626
175	0xbdbd19d1	-0.0923344
176	0xbed84158	-0.42237353
177	0xbe5bd65e	-0.21468493
178	0xbea3e195	-0.32008043
179	0x3ebc5da9	0.36790207
180	0xbe0386b9	-0.12844361
181	0x3e5905ca	0.21193615
182	0xbe80a733	-0.25127563
183	0xbd07a4e1	-0.033116225
184	0x3c6e91e7	0.014561153
185	0x3e7042fa	0.2346305
186	0xbe0f1774	-0.1397379
187	0xbdda6211	-0.10663236
188	0xbdf1c2e9	-0.11804754
189	0x3ee23b1d	0.44185725
190	0x3eaeda89	0.34151104
191	0x3dba79c9	0.0910526
192	0xbe2591b4	-0.16168863
193	0xbe41b4f2	-0.18916681
194	0xbe5c57f1	-0.21517922
195	0xbdc8e840	-0.09809923
196	0xbe4d1f57	-0.20031486
197	0xbe754d9c	-0.23955387
198	0xbeb0a9e0	-0.34504604
199	0xbe20a579	-0.15688123
200	0x3df9e4c8	0.1220184
201	0xbe93698d	-0.28791466
202	0xbe5e6e1e	-0.21721694
203	0xbee522f9	-0.44753245
204	0xbe321c6d	-0.17393656
205	0x3eb58ba9	0.35458115
206	0x3dfc9546	0.12333159
207	0xbe039196	-0.12848505
208	0x3de5a716	0.1121351
209	0xbed6b3ac	-0.41933954
210	0xbf34680d	-0.7047127
211	0x3ed81b59	0.42208365
212	0xbdaa9808	-0.08329779
213	0x3e259d6b	0.16173331
214	0x3d99dbc7	0.07512622
215	0x3d0e2d30	0.034711063
216	0xbd6bbb31	-0.057551567
217	0xbe608995	-0.21927483
218	0xbe67d882	-0.22641185
219	0x3d1460ea	0.036225237
220	0x3e61b10e	0.22040197
221	0x3e7abbbc	0.24485677
222	0xbcc0b507	-0.02352382
223	0x3db6bf26	0.089231774
224	0xbdbe574f	-0.092939965
225	0x3e90f937	0.28315136
226	0xbe6043a3	-0.21900801
227	0xbf027db8	-0.5097308
228	0x3e8d6f45	0.27623954
229	0xbea84da5	-0.32871738
230	0x3e21f389	0.15815558
231	0x3ec70375	0.38869825
232	0xbd0b51e5	-0.034013648
233	0x3ea3d0b1	0.31995156
234	0x3d82b260	0.063816786
235	0x3c85ab7b	0.01631712
236	0xbe00a58c	-0.12563151
237	0x3e31f0dd	0.17377038
238	0x3da47eca	0.080319956
239	0xbeb00cb9	-0.34384707
240	0x3e15304e	0.14569208
241	0xbeae431b	-0.34035572
242	0x3e9be334	0.3044678
243	0xbd880baf	-0.066428535
244	0xbe1335e3	-0.14376025
245	0x3ea7f13d	0.32801238
246	0xbc29c2d0	-0.010361388
247	0xbe2a26e7	-0.16616403
248	0x3de6d30c	0.11270723
249	0x3ea1ead3	0.3162447
250	0xbef46941	-0.47736552
251	0x3ee02cc6	0.4378416
252	0xbe33410a	-0.17505279
253	0xbdf085f5	-0.117443
254	0x3eb2472f	0.34819934
255	0x3d143123	0.036179673

parallel_cnn_block.branches.3.0.weight f4 [1, 1, 32]
0	0xbdfd8c09	-0.12380225
1	0xba048094	-0.000505456
2	0xbca17409	-0.01970865
3	0xbd71b454	-0.059009865
4	0xbd225807	-0.03963473
5	0xbda4e47e	-0.08051394
6	0xba5621f0	-0.0008168509
7	0xbdc38a33	-0.09547844
8	0x3d653596	0.055959307
9	0x3acd480d	0.0015661732
10	0xbe199118	-0.14996755
11	0xbd6f29fd	-0.058389653
12	0x3cc2c46d	0.023775304
13	0xbdb42636	-0.08796351
14	0x3deae894	0.11470142
15	0xbd9f131b	-0.07767316
16	0xbe030ad1	-0.12797095
17	0x3d2a5183	0.041581642
18	0x3bfa4ce2	0.0076385597
19	0x3d3ae400	0.045627594
20	0x3d90583a	0.07048078
21	0x3deadbf3	0.11467733
22	0x3d91ce28	0.07119399
23	0x3e37f272	0.1796358
24	0x3e312f8c	0.17303294
25	0x3e3395e6	0.1753765
26	0xbd32c15c	-0.043641433
27	0xbdc74987	-0.09730821
28	0xbdfb522e	-0.12271534
29	0x3d874354	0.06604639
30	0x3d27505c	0.04084812
31	0xbdb1ebd1	-0.086875565

parallel_cnn_block.branches.3.2.bias f4 [16]
0	0x3e639ae6	0.22227058
1	0xbd8a0816	-0.067398235
2	0x3c456d4b	0.012049983
3	0x3da4abc4	0.08040574
4	0x3dd48943	0.10377743
5	0x3dd3eed8	0.1034829
6	0x3e2d6002	0.16931155
7	0xbc8db3f1	-0.017297717
8	0x3eb65391	0.3561063
9	0x3d549055	0.05189546
10	0x3e84b6a3	0.2592059
11	0x3d0954e7	0.033528235
12	0x3e06fbc6	0.13181981
13	0x3ea91852	0.33026367
14	0xbdefea83	-0.117146514
15	0x3d303498	0.043018907
