remade/narrow/modelpars_narrow_i_24.safetensors (safetensors, 86584 bytes, 32 tensors)

bilstm.bias_hh_l0 f4 [64]
0	0xbde86ffc	-0.11349484
1	0xbe307d40	-0.17235279
2	0x3c9f8c0a	0.019475956
3	0xbde148f4	-0.11000243
4	0x3c13b36f	0.009014948
5	0xbec2f12f	-0.38074633
6	0xbe07e6f8	-0.13271701
7	0x3db0efa7	0.0863946
8	0x3cd70fac	0.02625259
9	0xbe1cdd44	-0.15318781
10	0xbc917648	-0.017756596
11	0x3df3ef09	0.11910827
12	0xbe55b1f7	-0.2086867
13	0xbe1fbe0e	-0.15599844
14	0x3d3eec0a	0.046611823
15	0xbda8db66	-0.08244972
16	0x3e47de8a	0.19518486
17	0xbdadb571	-0.08481873
18	0x3e886dae	0.2664618
19	0xbdeb7ed3	-0.11498799
20	0xbd318d67	-0.043347742
21	0x3e2c7dab	0.16844814
22	0x3e8532ed	0.26015416
23	0x3cb14b77	0.02164243
24	0x3d74ea9d	0.059794057
25	0xbd2f9431	-0.042865936
26	0x3e72e8c7	0.2372161
27	0x3d81a54e	0.063303575
28	0xbe55088a	-0.20804039
29	0x3dcbb40b	0.0994645
30	0x3e4f8397	0.20265041
31	0xbcdb9438	-0.026804075
32	0xbc604ead	-0.013690633
33	0xbe1fca57	-0.1560453
34	0xbd8a8e17	-0.06765383
35	0x3d42354c	0.04741411
36	0xbd966896	-0.07344167
37	0xbd0679e2	-0.03283108
38	0xbe6dc577	-0.23219858
39	0x3c8173bc	0.015802257
40	0x3e394a08	0.18094647
41	0x3e4c9891	0.19980074
42	0xbdea9a91	-0.114552625
43	0xbe81d6fd	-0.25359336
44	0x3d4f3b77	0.05059382
45	0x3e2f5f65	0.17126234
46	0xbe4e30bf	-0.20135783
47	0x3db97257	0.09055012
48	0xbdacf080	-0.08444309
49	0x3e2a1c52	0.16612366
50	0x3e1ce1ea	0.15320554
51	0x3e44a4c9	0.19203486
52	0xbd7ec279	-0.062197182
53	0x3db928cc	0.090409845
54	0x3e949f70	0.2902789
55	0xbbdb6553	-0.0066954284
56	0x3e0ee5a2	0.13954785
57	0xbe8e38e7	-0.27777788
58	0xbdf919dc	-0.121631354
59	0xbd49e7ac	-0.049293205
60	0x3e037fdf	0.12841748
61	0xbce1ccba	-0.027563442
62	0x3e37a7c3	0.1793509
63	0x3e70f990	0.235327

bilstm.bias_hh_l0_reverse f4 [64]
0	0xbdaa9f9c	-0.08331224
1	0x3c4d157d	0.01251733
2	0xbec2a2de	-0.38014883
3	0x3e195742	0.14974692
4	0x3e1af7df	0.15133618
5	0x3e9efd8c	0.31052816
6	0xbe700f99	-0.2344345
7	0x3e3fde25	0.18737085
8	0xba54a789	-0.0008112123
9	0x3e21df5f	0.15807866
10	0xbcb97054	-0.02263657
11	0xbbbd16de	-0.0057705482
12	0x3e17f692	0.14840153
13	0x3e520e87	0.20513354
14	0xbd5c092a	-0.053719677
15	0xbe88f5c5	-0.26750007
16	0xbd1a47ac	-0.037666008
17	0x3dbf30ab	0.093354546
18	0xbe646ecc	-0.2230789
19	0x3dddfa49	0.10838754
20	0x3d4e6a9b	0.050394636
21	0x3db7d839	0.08976788
22	0x3eae4ba9	0.340421
23	0xbc8941eb	-0.016755065
24	0x3d81a79c	0.06330797
25	0x3d8d8ccb	0.0691162
26	0x3db45041	0.0880437
27	0x3e62dbb4	0.22154123
28	0x3ddcc918	0.10780543
29	0x3ce747d1	0.028232487
30	0xbe64b43a	-0.22334376
31	0x3e4acfbc	0.19805807
32	0xbe749cab	-0.23887889
33	0x3c10a5e0	0.00882861
34	0xbe216709	-0.15761961
35	0x3e29d384	0.16584593
36	0xbe224fde	-0.1585078
37	0x3e4353ad	0.19074889
38	0xbe1ff528	-0.15620863
39	0x3e345493	0.17610388
40	0xbde95061	-0.11392284
41	0xbe6768ee	-0.22598621
42	0xbe1faf95	-0.15594323
43	0x3be5e139	0.007015374
44	0xbdf11d75	-0.117731966
45	0xbe0f8323	-0.14014868
46	0xba3526ce	-0.00069103844
47	0x3d915258	0.07095784
48	0xbd6e73ee	-0.058216028
49	0xbdaf0118	-0.085451305
50	0x3d4df537	0.050282683
51	0x3d82eafb	0.06392475
52	0x3e86d388	0.2633326
53	0x3e3a6ba6	0.18205127
54	0x3e5ff626	0.21871242
55	0xbe82b5ea	-0.25529414
56	0xbddc6610	-0.107616544
57	0xbd41b722	-0.04729379
58	0x3e58c8e9	0.21170391
59	0x3c8fd124	0.01755578
60	0x3e867c01	0.26266482
61	0x3e38185a	0.1797804
62	0xbe85cfcd	-0.26135102
63	0xbdd84e72	-0.10561837

bilstm.bias_ih_l0 f4 [64]
0	0x3e866e70	0.26256132
1	0xbe03169e	-0.12801597
2	0x3e8d572c	0.2760557
3	0x3cc20b42	0.023687009
4	0x3e3b74aa	0.18306223
5	0xbe73dad7	-0.2381395
6	0x3e810454	0.25198615
7	0x3da38c3d	0.07985733
8	0x3ea855e7	0.32878038
9	0xbecfc41b	-0.40579304
10	0xbe706138	-0.23474586
11	0xbe89dd7e	-0.26926798
12	0x3d0eeb1d	0.03489219
13	0xbe32cabe	-0.17460153
14	0x3e677c8e	0.22606108
15	0x3cd0f1d0	0.02550593
16	0x3c867252	0.016411934
17	0x3e8cb911	0.27484944
18	0xbd3bdd26	-0.0458652
19	0x3e8e1d4d	0.2775673
20	0xbe50bd93	-0.20384817
21	0x3dd1f137	0.10251086
22	0x3e415057	0.18878303
23	0xbe038422	-0.12843373
24	0x3e94f27d	0.29091254
25	0xbda7b34a	-0.081884935
26	0xbca5e93a	-0.020252813
27	0x3c87cdda	0.01657765
28	0x3e5af778	0.21383464
29	0xbe8b1629	-0.27165344
30	0x3e053f7d	0.130125
31	0x3ad9370e	0.0016572194
32	0xbde06184	-0.109561
33	0xbe00ea37	-0.12589346
34	0xbdb12073	-0.08648767
35	0x3e106572	0.14101198
36	0xbc907393	-0.017633235
37	0x3e397e14	0.18114501
38	0x3dc2c683	0.09510519
39	0xbe44406c	-0.191652
40	0x3ca83532	0.020533178
41	0x3e6a4855	0.22879155
42	0x3e8e2bc2	0.2776776
43	0xbd377af8	-0.044795007
44	0xbe5ffecf	-0.21874546
45	0x3cb6ce82	0.022315267
46	0xbc62d766	-0.0138453
47	0x3df18aac	0.11794028
48	0xbe03c892	-0.1286948
49	0xbdfe76f8	-0.12425035
50	0x3daff16a	0.08590968
51	0xbbf6d52f	-0.0075327377
52	0xbdff4efe	-0.124662384
53	0xbe6ac5e5	-0.22927053
54	0xbd1a232b	-0.037631195
55	0xbdab03b4	-0.08350316
56	0x3e7037ce	0.23458788
57	0xbd49eab1	-0.049296085
58	0xbe1d3c1c	-0.15354961
59	0x3cd9a021	0.026565613
60	0x3e0bcc31	0.13652112
61	0xbe3212ac	-0.17389935
62	0x3e2a1b2d	0.16611929
63	0x3e8ffccb	0.28122553

bilstm.bias_ih_l0_reverse f4 [64]
0	0x3de91272	0.11380471
1	0x3e6d0b69	0.23148884
2	0xbe135138	-0.14386451
3	0xbde10d5f	-0.109888785
4	0x3e1082fb	0.14112465
5	0x3de2e4e9	0.110788174
6	0xbe1c0df9	-0.15239705
7	0xbd2fd4e7	-0.04292765
8	0xbde6b419	-0.1126482
9	0x3c7bf39a	0.015377903
10	0xbe008cdc	-0.12553734
11	0xbddecd0c	-0.10878953
12	0x3d97121a	0.073764995
13	0x3d90a241	0.070621975
14	0xbd4f75bd	-0.050649393
15	0xbd0e60c6	-0.03476026
16	0x3d73c358	0.059512466
17	0x3d8f3c6d	0.06993947
18	0xbe2c807c	-0.16845888
19	0xb86a2f68	-5.5834098e-05
20	0x3d27efe6	0.04100027
21	0xbe3d7ac7	-0.18503867
22	0xbd60d30d	-0.054888774
23	0x3defc91c	0.117082804
24	0x3ca41f71	0.020034524
25	0x3d438211	0.047731463
26	0x3db2defb	0.087339364
27	0x3e5c3a2b	0.21506564
28	0x3e113234	0.14179307
29	0x3d8c953f	0.06864404
30	0x3d0dd2c3	0.034624826
31	0x3e5c745e	0.21528766
32	0xbe6e02ef	-0.23243307
33	0x3dd272c9	0.102758
34	0xbdaa34f4	-0.08310881
35	0x3d5f7d98	0.054563135
36	0x3e69ffb6	0.22851452
37	0x3dc15f58	0.094420135
38	0xbcc6c148	-0.024262086
39	0xbe6cc166	-0.2312065
40	0x3d592426	0.05301299
41	0xbdcd769f	-0.10032391
42	0x3e28dbbe	0.16490075
43	0x3c7eabb9	0.015543872
44	0xbda72f89	-0.081633635
45	0xbd9edd89	-0.07757098
46	0x3e9ecd51	0.3101602
47	0x3e0b919b	0.13629763
48	0xbe650178	-0.22363842
49	0xbe02c3ad	-0.12769957
50	0x3db432ea	0.087987736
51	0x3e6126db	0.21987478
52	0x3e8f3b30	0.27974844
53	0xbde89709	-0.11356933
54	0xbe0eb3cd	-0.13935776
55	0xbe8a52ea	-0.27016383
56	0x3e98f40d	0.29873696
57	0xbcc91799	-0.024547385
58	0xbdee5612	-0.1163751
59	0x3e984ced	0.2974619
60	0x3daa7f03	0.08325007
61	0xbd876798	-0.06611556
62	0xbe0a8c63	-0.13530116
63	0xbe795f3b	-0.24352734

bilstm.weight_hh_l0 f4 [64, 16]
0	0xbe4c50e4	-0.19952732
1	0x3d1b6a36	0.037943088
2	0x3e24e2a3	0.1610208
3	0xbd31d12a	-0.043412365
4	0xbe6fb3fb	-0.23408501
5	0x3d9b0e2e	0.07571064
6	0xbe588387	-0.21143924
7	0x3dac872f	0.08424222
8	0xbcabb958	-0.020962402
9	0x3c88309b	0.01662474
10	0xbe2ccf1c	-0.16875881
11	0x3e3dc44e	0.18531916
12	0xbe90fea8	-0.28319287
13	0x3d01e72b	0.0317146
14	0xbe854f87	-0.26037237
15	0xbce4a1d5	-0.027909199
16	0xbd8705e0	-0.065929174
17	0xbe946879	-0.28985956
18	0xbeaad706	-0.33367175
19	0x3c21f3f4	0.009884823
20	0xbd4736e7	-0.048636343
21	0x3d1fcbdb	0.03901277
22	0x3ed88235	0.4228684
23	0xbdfbf06b	-0.123017155
24	0xbda695f4	-0.0813407
25	0x3dfa7a3d	0.12230346
26	0xbe0ee67d	-0.13955112
27	0x3dfae55d	0.12250779
28	0x3db9e5c5	0.09077028
29	0xbd446684	-0.04794933
30	0xbd07bebc	-0.033140883
31	0xbeb81b41	-0.35958293
32	0xbe82b13d	-0.25525847
33	0xbd998050	-0.07495177
34	0x3d523b83	0.051326286
35	0xbd4f0314	-0.050540045
36	0xbd7f5494	-0.06233652
37	0x3e82c654	0.25541937
38	0x3d857172	0.065157786
39	0xbc58cff8	-0.013233177
40	0xbd43203e	-0.04763817
41	0xbcac377d	-0.021022553
42	0x3e32ac05	0.17448433
43	0x3ce93865	0.028469274
44	0x3e4f097d	0.20218463
45	0x3d2afd13	0.041745257
46	0xbe4c8cc5	-0.19975574
47	0x3db09d2b	0.086237274
48	0x3e433e3f	0.19066714
49	0xbe8b0ace	-0.2715668
50	0xbe1366da	-0.14394704
51	0xbe2776cd	-0.16353913
52	0xbdd81c3c	-0.1055226
53	0xbe29f8f9	-0.16598882
54	0x3e655e94	0.2239936
55	0xbe88bd0b	-0.26706728
56	0xbf2d4759	-0.6768699
57	0x3b7a5349	0.0038196614
58	0xbdbc0102	-0.0917988
59	0xbd74aa43	-0.059732687
60	0x3e317fd3	0.17333917
61	0xbec72420	-0.3889475
62	0xbe254549	-0.16139711
63	0x3aa30586	0.0012437559
64	0xbde5fae5	-0.11229495
65	0xbd24b59a	-0.04021225
66	0xbe689697	-0.22713695
67	0xbdc1f017	-0.09469622
68	0xbdc2f585	-0.095194854
69	0xbe011375	-0.12605079
70	0xbe7a6b5b	-0.24455015
71	0x3e63c75e	0.22244021
72	0x3edcb480	0.4310646
73	0x3d3f4886	0.046700023
74	0x3da817d1	0.082076676
75	0x3c93f5a3	0.018061465
76	0xbe3362ad	-0.1751811
77	0xbdeb4a4b	-0.1148878
78	0x3e11ac02	0.14225772
79	0x3e5de706	0.2167016
80	0xbda02391	-0.07819284
81	0xbe1c19c1	-0.152442
82	0x3c84ce89	0.016211765
83	0x3d3c4a4a	0.045969285
84	0x3dc6fa09	0.09715659
85	0x3e952fff	0.2913818
86	0xbd68dad1	-0.056849305
87	0x3ed9ffa6	0.42577857
88	0xbcd7a433	-0.026323413
89	0xbcf0fb83	-0.029416805
90	0xbe3af8d8	-0.18258989
91	0xbddc5a30	-0.107593894
92	0xbda76dcc	-0.08175239
93	0xbe084902	-0.133091
94	0xbe18ae4e	-0.14910242
95	0xbd2d6ec4	-0.042341962
96	0xbe3630ec	-0.177921
97	0x3e774f57	0.2415136
98	0x3e5d9517	0.21638905
99	0xbe64439a	-0.22291413
100	0x3d521ad8	0.05129513
101	0x3e31f647	0.17379104
102	0xbcad879b	-0.021182826
103	0x3ec7d288	0.3902781
104	0x3e089f08	0.13341916
105	0x3bc985e3	0.0061499937
106	0x3da846c6	0.08216624
107	0x3d11b875	0.035576303
108	0xbe902528	-0.28153348
109	0x3e03f2c9	0.12885584
110	0x3eb301fa	0.34962445
111	0x3f237f08	0.6386571
112	0x3d648bae	0.05579727
113	0xbe1e17a5	-0.15438707
114	0x3e8e7392	0.27822548
115	0xbe00f115	-0.12591965
116	0xbb51db78	-0.0032021683
117	0xbe56f4e2	-0.20991853
118	0x3e6f237e	0.23353383
119	0xbd2ce17a	-0.04220722
120	0xbd88811c	-0.06665251
121	0xbe24c255	-0.16089757
122	0x3e3ad630	0.18245769
123	0xbdb60c5c	-0.08889076
124	0xbe27a971	-0.1637323
125	0xbe4222d2	-0.18958595
126	0xbb43cf9a	-0.002987838
127	0x3de9486b	0.11390766
128	0xbe541227	-0.2071005
129	0x3e958675	0.29204145
130	0x3e521108	0.2051431
131	0x3e213057	0.15741096
132	0xbec37644	-0.38176167
133	0x3df70755	0.12061945
134	0xbee8d8ad	-0.4547781
135	0x3e958728	0.2920468
136	0xbedde6df	-0.43340203
137	0x3e32c9b3	0.17459755
138	0x3e33bdf0	0.17552924
139	0xbeb5ddb5	-0.35520712
140	0xbd7d76f9	-0.06188104
141	0xbe1c3d9f	-0.15257882
142	0x3f1854d5	0.59504443
143	0x3db4ed24	0.088342935
144	0x3e96ffc4	0.2949201
145	0xbecbfb60	-0.3984022
146	0xbceccea7	-0.028907133
147	0xbe0f49d6	-0.1399301
148	0x3ea92bfb	0.33041367
149	0xbde9498b	-0.1139098
150	0x3e157622	0.14595845
151	0x3d53b60f	0.051687296
152	0xbea9dff4	-0.33178675
153	0x3e194495	0.14967568
154	0xbcba58f4	-0.022747494
155	0xbd55f5a1	-0.052236203
156	0xbe9bbe90	-0.30418825
157	0x3e0467c8	0.12930214
158	0xbeb5948e	-0.354649
159	0x3d963003	0.07333376
160	0x3eba4bcd	0.36385956
161	0xbe8ce3c0	-0.2751751
162	0xbe823c65	-0.25436702
163	0x3da56805	0.08076481
164	0x3db405f0	0.08790195
165	0xbe5e4cc7	-0.21708976
166	0xbc0a4071	-0.008438216
167	0xbecb442e	-0.39700454
168	0xbdb1aaa6	-0.08675127
169	0x3e20b8d5	0.15695508
170	0xbe6e8336	-0.2329224
171	0x3e10f410	0.14155602
172	0xbde3c279	-0.11121077
173	0x3e3ac7f0	0.18240333
174	0xbe96e150	-0.29468775
175	0x3c15b6e0	0.009137839
176	0xbda4f89b	-0.0805523
177	0x3e20dc4b	0.15709035
178	0xbda0c0a2	-0.07849242
179	0xbd46924e	-0.04847937
180	0x3e4bbfe7	0.19897424
181	0xbd4aba48	-0.049494058
182	0xbe2f7022	-0.17132619
183	0x3dc82e08	0.09774405
184	0xbdf9e5e7	-0.122020535
185	0xbcb355c4	-0.021891482
186	0xbe518346	-0.20460233
187	0x3d9eeeff	0.07760429
188	0x3dc929af	0.09822404
189	0xbe093af0	-0.13401389
190	0xbe267257	-0.16254555
191	0xbe493c12	-0.19651821
192	0x3df92228	0.12164718
193	0xbe8d6f1f	-0.2762384
194	0xbe856d29	-0.26059845
195	0xbd1ed92f	-0.03878134
196	0x3e33b892	0.17550877
197	0xbd83b36d	-0.06430707
198	0x3e84c43f	0.25930974
199	0xbe2b16e6	-0.16707954
200	0x3e8a7282	0.27040488
201	0xbe08c146	-0.13354978
202	0x3d9f0769	0.07765085
203	0x3dc68131	0.0969261
204	0xbc80e437	-0.015733821
205	0xbe3c84d2	-0.18410042
206	0xbe44e0bf	-0.19226359
207	0xbdc464c6	-0.095895335
208	0x3e951d2e	0.29123825
209	0xbe06e7dd	-0.13174386
210	0x3de03fb7	0.10949653
211	0xbdc27c8a	-0.0949641
212	0x3e975273	0.2955509
213	0xbe4aad0d	-0.19792576
214	0xbc87b18a	-0.01656415
215	0xbe6a63bc	-0.22889608
216	0xbe948a9f	-0.2901201
217	0xbcbef82f	-0.023311703
218	0xbe6b0043	-0.22949319
219	0x3da9e657	0.08295887
220	0x3e83518c	0.25648153
221	0xbee87d00	-0.45407867
222	0xbec9ee55	-0.39439645
223	0xbd827227	-0.06369429
224	0x3dff91d5	0.12478987
225	0x3e9c01a8	0.30470014
226	0x3d8e4c30	0.06948125
227	0x3e88e7c6	0.2673933
228	0x3d97afa5	0.074065484
229	0x3c2eb57e	0.010663388
230	0xbb6b8ed4	-0.0035943286
231	0x3c923216	0.017846148
232	0xbe1e55ac	-0.15462369
233	0xbe6a50bd	-0.22882362
234	0xbdfad465	-0.12247542
235	0x3dba27ba	0.090896085
236	0xbd19532b	-0.03743283
237	0xbd262bdd	-0.040569175
238	0xbcf20c77	-0.02954696
239	0x3e45aaec	0.19303483
240	0xbd8ba583	-0.06818678
241	0x3d7128b2	0.0588767
242	0x3dc0fa7f	0.09422778
243	0x3e020c92	0.12700108
244	0xbdc863b6	-0.09784643
245	0xbdc78527	-0.09742194
246	0xbe810640	-0.2520008
247	0xbd9ec545	-0.0775247
248	0xbe4b62b4	-0.19861871
249	0x3de2370a	0.11045654
250	0x3e945199	0.28968504
251	0xbd9232e6	-0.07138614
252	0x3e45b7b3	0.19308357
253	0xbe25b2ed	-0.16181536
254	0xbe850d29	-0.25986603
255	0x3e5ac491	0.21364047

bilstm.weight_hh_l0_reverse f4 [64, 16]
0	0xbca77dc7	-0.020445717
1	0xbdb272c3	-0.08713295
2	0x3e83cece	0.25743717
3	0x3cba79ec	0.022763215
4	0xbe943fdd	-0.28954974
5	0xbd73247c	-0.059360966
6	0xbe4fcfee	-0.20294163
7	0xbdac6a5a	-0.084187225
8	0xbe40c1ea	-0.18823972
9	0xbe14e682	-0.14541057
10	0xbe9d76a0	-0.30754566
11	0x3e0475ed	0.1293561
12	0xbcfd9526	-0.030954909
13	0xbd310f81	-0.043227676
14	0x3e097d32	0.13426664
15	0xbdb05347	-0.08609634
16	0x3c729592	0.014806168
17	0x3bd82d48	0.006597195
18	0xba2143cf	-0.0006151767
19	0x3cbd495c	0.02310627
20	0x3e2cf947	0.16891967
21	0xbc7489da	-0.0149254445
22	0xbe3fd157	-0.187322
23	0xbda70982	-0.0815611
24	0xbe7a6782	-0.24453548
25	0xbe5caf87	-0.21551333
26	0x3e8d5d1c	0.276101
27	0xbe822290	-0.25416994
28	0xbda9f3fc	-0.082984895
29	0xbea7eef8	-0.32799506
30	0xbd5d3cfd	-0.05401324
31	0x3e3823d0	0.17982411
32	0x3e06d4b8	0.13167083
33	0xbe458d40	-0.19292164
34	0xbe00a770	-0.12563872
35	0xbe7e5963	-0.24838786
36	0x3e39c779	0.18142499
37	0x3e27bb0b	0.16379945
38	0xbc8df1bd	-0.017327184
39	0xbda03c3b	-0.07823988
40	0x3eb05716	0.3444144
41	0x3e673502	0.22578815
42	0xbdb68bf0	-0.0891341
43	0x3e029272	0.12751177
44	0x3ea88554	0.3291422
45	0x3e20271e	0.15639922
46	0x3d2a3d11	0.041562144
47	0xbe53158c	-0.20613688
48	0x3d86e2bd	0.06586216
49	0xbe21152f	-0.15730737
50	0x3f24b482	0.64337933
51	0xbd44f749	-0.048087392
52	0xbdd28893	-0.10279956
53	0xbd88229c	-0.06647226
54	0x3e93efc4	0.28893864
55	0x3e977f07	0.29589102
56	0xbc09e8bd	-0.008417306
57	0x3cba8e7a	0.022773016
58	0x3e62797b	0.22116654
59	0xbe61d199	-0.22052611
60	0xbe66d139	-0.2254075
61	0xbe14a4a4	-0.1451593
62	0xbd6435a0	-0.055715203
63	0xbe92fd7f	-0.28709027
64	0x3de27d66	0.11059074
65	0xbd3f0f32	-0.04664535
66	0x3d2c6305	0.04208662
67	0x3e492b62	0.19645455
68	0x3e0d3f58	0.13793695
69	0x3ebb83e4	0.36624062
70	0x3d44594b	0.04793672
71	0x3d5c8948	0.05384186
72	0x3c3e35f9	0.011609548
73	0xbe8f3950	-0.27973413
74	0x3df5f3a1	0.12009359
75	0x3d45ed67	0.048322108
76	0xbccb70e4	-0.024834104
77	0xbe401678	-0.18758571
78	0xbede2b9f	-0.43392655
79	0xbdc7c10e	-0.09753619
80	0xbe9c0036	-0.3046891
81	0xbe1bb396	-0.15205225
82	0xbe6b71fa	-0.22992697
83	0xbc80cbd2	-0.01572219
84	0xbb1c10bc	-0.0023813685
85	0x3e90e0cf	0.28296515
86	0x3e23597b	0.15952103
87	0x3dbfe602	0.093700424
88	0xbdc65454	-0.09684053
89	0x3df92ff5	0.1216735
90	0xbd8ed64a	-0.06974466
91	0x3e14361d	0.14473768
92	0xbe486d9b	-0.19573061
93	0x3dd015f8	0.1016044
94	0xbd92bd04	-0.07164958
95	0xbdeabb35	-0.11461488
96	0xbdd37c9a	-0.103265
97	0x3d15ee55	0.036604244
98	0xbe4a77c1	-0.19772245
99	0xbeab0cc2	-0.3340817
100	0xbe6c7b02	-0.23093799
101	0xbec577c6	-0.38567942
102	0xbf585471	-0.8450385
103	0xbeda8e4c	-0.4268669
104	0x3e6d5a27	0.23178922
105	0x3e979797	0.2960784
106	0x3da3b133	0.079927824
107	0x3e83c565	0.25736538
108	0x3ebdb34b	0.37050852
109	0xbc244826	-0.010026967
110	0x3dff3dc0	0.1246295
111	0x3e50a7e0	0.20376539
112	0xbc1559e6	-0.009115672
113	0xbd23540b	-0.03987507
114	0xbf81f11f	-1.0151709
115	0x3e32afe5	0.17449911
116	0x3da43d5d	0.080195166
117	0x3c2ad9fc	0.010427948
118	0x3f1d5f34	0.61473393
119	0xbe4c42a5	-0.19947298
120	0x3ea75717	0.32683632
121	0x3e159b37	0.14609991
122	0xbb5e08ac	-0.003387968
123	0xbe02d54b	-0.12776677
124	0x3e5b9869	0.21444859
125	0x3ca38d93	0.019964969
126	0xbe707ecf	-0.23485874
127	0xbdca0dcc	-0.09865913
128	0xbea7a0d5	-0.32739893
129	0xbe894986	-0.26813906
130	0x3e3c762c	0.18404454
131	0xbebc19a3	-0.3673831
132	0xbdf881eb	-0.12134155
133	0xbd6400f9	-0.05566499
134	0xbeb11f7a	-0.34594327
135	0x3d0ef0a7	0.034897473
136	0x3d023fe2	0.031799205
137	0x3e834a32	0.25642544
138	0xbdffcb4c	-0.12489948
139	0x3d8384b5	0.06421796
140	0xbd8cea18	-0.06880587
141	0xbd276d05	-0.040875454
142	0xbe41cffc	-0.18926996
143	0x3f1cb5f1	0.6121512
144	0x3d103178	0.035203427
145	0x3d3b314a	0.045701303
146	0xbc5c570e	-0.01344849
147	0xbacfacc9	-0.0015844341
148	0x3e100b28	0.14066756
149	0x3e6ef495	0.23335488
150	0x3d93da1b	0.07219335
151	0x3e354612	0.17702511
152	0xbe69368f	-0.22774719
153	0xbe993cab	-0.29929098
154	0xbe53b48d	-0.20674343
155	0xbe6df679	-0.23238553
156	0xbde325dd	-0.11091206
157	0xbe54f525	-0.2079664
158	0xbe39468b	-0.18093316
159	0xbe2a4530	-0.16627955
160	0xbd5875ea	-0.052846827
161	0xbd7f963c	-0.062399134
162	0xbf0e1a47	-0.55508846
163	0x3e35d1da	0.17755833
164	0x3d911667	0.07084351
165	0xbe292e8e	-0.16521665
166	0xbe154968	-0.14578784
167	0x3de394c3	0.111123584
168	0x3e49a49a	0.19691697
169	0x3e037d62	0.12840798
170	0x3e667e7f	0.22509192
171	0x3c743068	0.014904119
172	0x3e29bd16	0.16576037
173	0xbe16e936	-0.147374
174	0xbe5dc045	-0.21655376
175	0x3d221793	0.039573263
176	0xbdc30057	-0.09521549
177	0x3bbfafba	0.0058498057
178	0xbef96490	-0.48709536
179	0xbe02d96a	-0.1277825
180	0xbe9a367e	-0.301197
181	0xbe4d248a	-0.2003347
182	0xbe105742	-0.14095786
183	0xbe5a8c26	-0.21342525
184	0xbe03b113	-0.12860517
185	0xbe563922	-0.20920232
186	0xbe824520	-0.25443363
187	0xbe889ec2	-0.26683623
188	0x3e0747be	0.13210961
189	0xbd71eeff	-0.059065815
190	0x3e5fe036	0.21862873
191	0x3e233fd2	0.15942314
192	0xbe637ae5	-0.2221485
193	0x3e466f2e	0.19378349
194	0xbe88486e	-0.2661776
195	0xbe478aac	-0.19486493
196	0x3db3fdf5	0.08788673
197	0xbe32600e	-0.17419454
198	0xbe16eb67	-0.14738236
199	0xbe92cee2	-0.28673464
200	0x3d9646e1	0.07337738
201	0xbd931bd1	-0.0718304
202	0xbd34b065	-0.044113535
203	0xbdf146ba	-0.11781068
204	0xbcffa1a0	-0.031204998
205	0xbe265382	-0.16242793
206	0x3e2864a0	0.16444635
207	0x3e4ef287	0.20209704
208	0xbe85cb72	-0.2613178
209	0xbe2323d2	-0.15931633
210	0x3eb0e631	0.34550622
211	0xbe5a338d	-0.21308728
212	0x3e8614cb	0.2618774
213	0xbe272390	-0.1632216
214	0x3ef96712	0.4871145
215	0x3e5164f8	0.20448673
216	0xbe27ec81	-0.16398813
217	0xbe5f2a79	-0.21793546
218	0x3e09db84	0.13462645
219	0x39eeaf69	0.00045525588
220	0xbe531c45	-0.20616253
221	0xbdf22a7f	-0.11824512
222	0xbea15ee7	-0.31517717
223	0xbebedc05	-0.37277237
224	0x3d68c1ff	0.056825634
225	0xbd6d6b33	-0.05796356
226	0xbf4ee9b8	-0.80825377
227	0xbd8c2923	-0.06843784
228	0xbc9d0843	-0.019168979
229	0x3e97966f	0.2960696
230	0xbe4d68f5	-0.20059569
231	0xbe81b087	-0.25329992
232	0xbd94d8f5	-0.07267944
233	0xbc751432	-0.014958428
234	0x3e0e7c49	0.13914599
235	0x3d7c9dc0	0.06167388
236	0x3d8a8050	0.06762755
237	0xbe183367	-0.14863358
238	0x3e1d27ba	0.15347186
239	0x3e11a63e	0.14223573
240	0x3e5ad1d6	0.21369109
241	0xbb4fe333	-0.0031721115
242	0xbe48b803	-0.19601445
243	0xbeae2d11	-0.34018758
244	0x3d25c360	0.040469527
245	0x3dc4bb8e	0.09606086
246	0xbf15a5a8	-0.58455896
247	0x3d8ec2ce	0.0697075
248	0x3eb203dd	0.34768572
249	0x3d83fea1	0.06445051
250	0xbe296171	-0.16541077
251	0xbc16878b	-0.009187589
252	0xbd1c0b7a	-0.038096882
253	0x3ec73461	0.3890715
254	0x3e0465b3	0.1292942
255	0x3e91c15c	0.28467834

bilstm.weight_ih_l0 f4 [64, 32]
0	0x3e607598	0.21919858
1	0xbd9c2543	-0.076242946
2	0x3dbeee15	0.09322754
3	0xbb9d2efc	-0.0047968607
4	0x3e60f3fe	0.21968076
5	0xbe6e4d72	-0.2327173
6	0x3d0386b3	0.03211088
7	0x3cd665c7	0.026171578
8	0x3e17c29d	0.14820333
9	0x3e0f39b6	0.13986859
10	0x3e5447b7	0.20730482
11	0x3e955c29	0.29171875
12	0xbb89d577	-0.004206355
13	0xbe4bdfa4	-0.19909531
14	0x3e62be17	0.22142826
15	0x3e54c9e6	0.20780143
16	0x3d171115	0.036881525
17	0x3d947572	0.072489634
18	0x3defc13c	0.117067784
19	0xbbe1fa66	-0.006896305
20	0x3e835684	0.25651944
21	0xbe557570	-0.2084558
22	0xbda24964	-0.079241544
23	0xbdb117f9	-0.086471505
24	0xbe531a44	-0.20615488
25	0xbe3d72d0	-0.18500829
26	0x3d6fb9f5	0.05852695
27	0x3df93b4b	0.12169512
28	0x3e72bce2	0.23704866
29	0x3e863b9d	0.26217356
30	0x3be29b28	0.0069154687
31	0xbe6d65d0	-0.2318337
32	0xbe17b30a	-0.14814392
33	0xbdb295d6	-0.08719985
34	0xbd9dd404	-0.077064544
35	0xbe062245	-0.1309901
36	0xbcf91d6e	-0.030409541
37	0xbd24f479	-0.04027221
38	0x3e1965c2	0.14980224
39	0x3bf13cfb	0.0073620058
40	0x3ca75e97	0.020430846
41	0xbe887fb7	-0.2665994
42	0xbe458b1e	-0.1929135
43	0x3f593a2c	0.8485439
44	0xbdfa992a	-0.12236245
45	0xbe445bc0	-0.19175625
46	0x3e494c67	0.19658051
47	0xbe0c8071	-0.13720872
48	0x3c9161e6	0.017746877
49	0xbe5d2957	-0.21597801
50	0xba936fbe	-0.0011248512
51	0x3d77f5ba	0.060537077
52	0xbd574eac	-0.05256526
53	0xbeabeeb8	-0.33580565
54	0xbdc28d7f	-0.094996445
55	0xbc940e6b	-0.018073281
56	0xbeb35249	-0.35023716
57	0xbddffcae	-0.10936867
58	0xbec9ab9a	-0.39388734
59	0x3da64a0d	0.08119593
60	0x3d7e01ef	0.062013563
61	0xbe91b692	-0.28459603
62	0xbe5283bd	-0.20558067
63	0xbe1986d8	-0.14992845
64	0x3dae4c73	0.08510675
65	0x3e165f2c	0.14684743
66	0xbe24563b	-0.1604852
67	0xbd85c773	-0.065321825
68	0x3e620d5c	0.22075409
69	0xbd45c9f3	-0.048288297
70	0xbe3c3804	-0.18380743
71	0xbe257e37	-0.16161428
72	0xbca42826	-0.020038676
73	0xbdc96a58	-0.098347366
74	0x3e5a45bd	0.21315666
75	0x3fdcdfc9	1.7255794
76	0xbdeb9ba5	-0.11504296
77	0x3da562b6	0.08075468
78	0x3d8cd49a	0.06876488
79	0xbda2ba78	-0.07945722
80	0xbe445557	-0.1917318
81	0x3ea0cd3c	0.3140658
82	0x3e62c0b8	0.22143829
83	0x3ddac71a	0.10682507
84	0x3e904bb9	0.28182772
85	0x3f434fbc	0.7629354
86	0xbdf463d4	-0.11933103
87	0xbcec51c1	-0.028847577
88	0x3ddf5a2e	0.10905872
89	0xbe6b1d2f	-0.22960351
90	0x3e8a8c4c	0.27060163
91	0xbd12ff3a	-0.035887934
92	0x3e21a559	0.15785731
93	0x3e8b01f2	0.27149922
94	0x3ddcfaa1	0.10789991
95	0xbdd4ab67	-0.10384255
96	0x3d1a16d5	0.03761943
97	0x3e30e06a	0.17273107
98	0x3e44d9e0	0.19223738
99	0xbcb07ec0	-0.021544814
100	0x3e4354cc	0.19075316
101	0xbf5d1c8e	-0.86371696
102	0x3dde9796	0.108687565
103	0xbd2a37d7	-0.04155716
104	0x3de7c45c	0.113167495
105	0x3e240742	0.16018394
106	0xbe891d88	-0.26780343
107	0xbfc18533	-1.5118774
108	0xbdc65fd8	-0.096862495
109	0x3eb14115	0.34619966
110	0x3e70a2d1	0.2349961
111	0x3d8c87bd	0.068618275
112	0x3e688996	0.22708735
113	0xbda7fad3	-0.08202138
114	0xbda76bf5	-0.08174888
115	0x3e3bffad	0.18359251
116	0xbba75a07	-0.0051071676
117	0xbec4b465	-0.3841888
118	0x3de49036	0.111603186
119	0xbe462db8	-0.19353378
120	0xbec1e3b5	-0.3786904
121	0xbc1e00a7	-0.00964371
122	0xbe59091a	-0.21194878
123	0xbe865eef	-0.26244304
124	0xbe5961b5	-0.21228679
125	0xbe4e88c8	-0.20169365
126	0xbe3d0053	-0.18457155
127	0xbe35b592	-0.17745045
128	0x3e8cf882	0.27533346
129	0xbe9c2db7	-0.30503628
130	0x3c6b98bc	0.014379676
131	0x3ca20ef6	0.019782525
132	0xbd8d522b	-0.06900438
133	0xbd2e917c	-0.042619213
134	0xbd7f4cc1	-0.062329058
135	0x3e6018c9	0.21884455
136	0xbda30b9b	-0.07961198
137	0x3e90b175	0.2826039
138	0xbd06cf9b	-0.03291283
139	0xbf99379a	-1.1970093
140	0x3cf3239e	0.02968007
141	0xbe618d6a	-0.22026601
142	0x3ec51c6d	0.3849825
143	0x3ec74447	0.3891928
144	0xbd91d727	-0.07121115
145	0x3d6133ba	0.05498097
146	0x3d87289a	0.06599541
147	0xbd32f87d	-0.04369401
148	0xbc3222e9	-0.010872581
149	0x3dd01cc1	0.10161734
150	0xbe244df2	-0.16045359
151	0xbe2b7a46	-0.16745862
152	0xbdb32139	-0.08746571
153	0xbe0eb466	-0.13936004
154	0x3df26356	0.11835353
155	0xbe60c264	-0.21949154
156	0xbe08cdd7	-0.13359772
157	0xbd85e831	-0.065384276
158	0xbe358836	-0.17727742
159	0xbd8cc3e9	-0.068733044
160	0x3cb91544	0.022593148
161	0x3c7838b0	0.015150234
162	0x3e8520b7	0.26001522
163	0x3e781353	0.24226122
164	0xbc9cf7f2	-0.019161198
165	0xbe16c5f9	-0.14723958
166	0x3c87a0ac	0.016556107
167	0xbd0a1b17	-0.03371724
168	0x3e0f4fcd	0.13995285
169	0xbe0563c4	-0.13026339
170	0x3e7221e9	0.23645748
171	0xbda2b7e4	-0.079452306
172	0xbe2939a4	-0.16525894
173	0xbe13f2df	-0.14448117
174	0x3e84554c	0.25846326
175	0x3eec5963	0.46161947
176	0x3de478e2	0.11155869
177	0x3db322c6	0.08746867
178	0xbd84a20c	-0.064762205
179	0x3dbd8594	0.09253994
180	0xbe42fc03	-0.19041447
181	0x3f03ae96	0.5143827
182	0x3e5e8b91	0.21732928
183	0xbe88ad08	-0.26694512
184	0x3e5ea9e9	0.21744503
185	0xbc718e91	-0.014743463
186	0xbe85b697	-0.26115867
187	0xbe9db12e	-0.3079924
188	0x3e792c38	0.24333274
189	0x3e661d56	0.22472128
190	0xbe95bae3	-0.29244146
191	0x3e1d070d	0.15334721
192	0xbdd7319f	-0.10507511
193	0x3e3d22a8	0.18470252
194	0xbec5c527	-0.38626978
195	0xbdc7aaf3	-0.09749403
196	0xbe01a31e	-0.1265988
197	0x3e3be012	0.18347195
198	0x3e8db79e	0.2767915
199	0xbd78ddc2	-0.06075836
200	0xbdc8d836	-0.09806864
201	0xbe1ac07c	-0.1511249
202	0x3d092fbc	0.03349279
203	0xbe564ce0	-0.20927763
204	0xbd710fd9	-0.058853004
205	0xbe17f68a	-0.14840141
206	0xbd10af76	-0.035323583
207	0x3dff46cf	0.124646775
208	0xbdf5dc15	-0.12004868
209	0xbe1b224d	-0.15149803
210	0xbc9cb0f3	-0.019127345
211	0xbe2c6f99	-0.16839446
212	0xbf17c79a	-0.5928894
213	0x3d4a916f	0.049455103
214	0x3ebd0d96	0.36924428
215	0x3d2e4274	0.042543843
216	0x3eb61e3b	0.3556994
217	0x3e13ac91	0.14421298
218	0xbd89e96c	-0.06733975
219	0x3dac7f52	0.08422722
220	0xbd45c678	-0.048284978
221	0x3c92fd66	0.017943095
222	0x3f1470a6	0.5798439
223	0x3e39f5be	0.1816015
224	0xbd2b6ca7	-0.041851666
225	0xbdf1f075	-0.11813442
226	0x3e5d0e4f	0.2158749
227	0x3d054b78	0.032542676
228	0xbd7be419	-0.061496828
229	0x3e31cf56	0.17364249
230	0x3ed55ad0	0.41670847
231	0xbb36a751	-0.0027870724
232	0x3dc9ec1b	0.09859487
233	0x3ec06a1e	0.3758096
234	0x3da4e0c9	0.08050687
235	0x3f8c42f3	1.0957931
236	0x3b09d621	0.0021032172
237	0x3da5bd1d	0.08092711
238	0x3d713f49	0.058898244
239	0x3e94bf10	0.2905202
240	0x3c764eab	0.015033404
241	0x3ed67f2c	0.418939
242	0xbe3ca541	-0.18422414
243	0x3ec50531	0.38480523
244	0x3e17fa52	0.14841583
245	0xba315ef3	-0.00067661627
246	0x3cce6e15	0.025198976
247	0x3ca6fd54	0.020384468
248	0x3e673584	0.22579008
249	0xbd448fee	-0.047988825
250	0x3ebb09a3	0.3653079
251	0xbe3fd6be	-0.18734261
252	0x3dda9da6	0.106746
253	0x3da5b667	0.08091431
254	0x3e671095	0.2256492
255	0x3d25c29a	0.04046879

bilstm.weight_ih_l0_reverse f4 [64, 32]
0	0x3d696d5b	0.056989055
1	0x3e55c26b	0.20874946
2	0xbe7d3ec3	-0.24730973
3	0x3de9484b	0.11390742
4	0xbe591300	-0.21198654
5	0x3f2fbd34	0.68648076
6	0x3e2461b8	0.16052902
7	0x3dd55652	0.10416855
8	0x3e3852cc	0.18000335
9	0x3d2fe970	0.042947233
10	0xbe258fe0	-0.16168165
11	0x3df51b66	0.119681165
12	0xbc3d2169	-0.01154361
13	0x3c29d032	0.010364579
14	0x3e1f1c9d	0.15538259
15	0xbe5463ac	-0.20741147
16	0xbcf4ce9a	-0.029883672
17	0xbe604bef	-0.21903966
18	0xbddd96af	-0.10819756
19	0xbc8a7143	-0.01689971
20	0x3d137834	0.036003307
21	0x3dcc9469	0.099892445
22	0x3e1de740	0.15420246
23	0x3d9344c7	0.071908526
24	0xbe2ce1ec	-0.16883057
25	0x3dce622c	0.100773185
26	0x3db045e0	0.086070776
27	0xbdac212e	-0.08404766
28	0xbe469050	-0.19390988
29	0xbdf944d6	-0.121713325
30	0x3e49d5e7	0.19710504
31	0xbe2fcf48	-0.17168915
32	0x3ea542ac	0.3227743
33	0x3db3fd91	0.08788598
34	0xbdd0e990	-0.102007985
35	0x3e3fed15	0.18742783
36	0xbd2ebf08	-0.04266265
37	0xbdaf68bc	-0.08564898
38	0x3e71a2dc	0.23597282
39	0xbd03f023	-0.032211434
40	0x3ed753c4	0.42056096
41	0x3e5da06a	0.21643224
42	0xbcb8dfc6	-0.022567641
43	0xbf640388	-0.8906789
44	0x3ca530a8	0.020164803
45	0x3e2bd332	0.16779783
46	0x3ebec3c0	0.3725872
47	0x3e0f9829	0.14022888
48	0x3e264e3b	0.1624078
49	0x3eaa9105	0.33313766
50	0xbda1b8f1	-0.07896603
51	0x3e873d65	0.26414028
52	0x3ca9171f	0.020640908
53	0x3ecf1e77	0.4045293
54	0xbcbc2edb	-0.022971561
55	0x3eead163	0.45862874
56	0x3e8f1ef8	0.27953315
57	0x3db75ec5	0.08953623
58	0x3dbbe303	0.091741584
59	0x3e17eb35	0.14835818
60	0x3e07d768	0.13265765
61	0x3cd413ad	0.025888288
62	0xbdc0087d	-0.09376619
63	0xbe629d1b	-0.22130243
64	0xbe32980b	-0.17440812
65	0xbe1601bf	-0.14649104
66	0xbf1327ab	-0.57482404
67	0xbdf45ef6	-0.11932175
68	0xbe50b86f	-0.20382856
69	0x3eae6e10	0.34068346
70	0xbe2916f7	-0.16512667
71	0xbdb26823	-0.08711269
72	0xbe95958a	-0.29215652
73	0xbe14618f	-0.1449034
74	0xbe588018	-0.21142614
75	0x3e8a36ee	0.26995033
76	0x3e3db911	0.18527628
77	0x3d87c3c3	0.066291355
78	0xbd8dbe9f	-0.06921124
79	0xbf3fa096	-0.7485441
80	0xbe23b56a	-0.15987173
81	0xbc567d7a	-0.013091439
82	0xbe1b0845	-0.15139873
83	0x3dd5bb0f	0.10436069
84	0x3e3531bd	0.17694755
85	0xbd11b087	-0.03556874
86	0xbd918480	-0.071053505
87	0xbed059f5	-0.40693632
88	0xbf07c505	-0.53035
89	0x3e3c3b9d	0.18382116
90	0x3d4daf8d	0.050216246
91	0xbdd37a61	-0.10326076
92	0xbdb4d272	-0.08829202
93	0xbe92e716	-0.2869193
94	0xbee91efd	-0.45531455
95	0x3e46f38c	0.19428843
96	0xbe04cdcf	-0.12969135
97	0xbe08340c	-0.13301104
98	0xbe026044	-0.12732035
99	0x3e87d52f	0.26529834
100	0x3d30cefe	0.043166153
101	0x3e7e318d	0.2482359
102	0xbe0e27a6	-0.13882312
103	0x3d2ae37f	0.041720863
104	0x3e829719	0.25505903
105	0xbe0b497e	-0.13602254
106	0xbe73eb21	-0.23820163
107	0xbf6c29bf	-0.922512
108	0xbe226358	-0.15858209
109	0x3e306ae0	0.1722827
110	0xbc1ea2ca	-0.009682367
111	0xbe102fc9	-0.14080729
112	0x3ddd9592	0.10819544
113	0x3e1f2358	0.15540826
114	0x3e81db33	0.25362548
115	0x3d54530f	0.051837023
116	0x3d08e4fe	0.03342151
117	0xbe313257	-0.1730436
118	0x3e504c49	0.203416
119	0xbe10511b	-0.1409344
120	0xbeb8b4bf	-0.36075398
121	0xbd9eb6f4	-0.07749739
122	0x3e314296	0.17310557
123	0xbd2f8367	-0.042849924
124	0x3e73c3dd	0.23805185
125	0x3e60f592	0.21968678
126	0x3e8761c9	0.26441792
127	0xbe819fca	-0.25317222
128	0xbde26199	-0.110537715
129	0xbdeeb91d	-0.11656401
130	0x3cd0b6d3	0.025477802
131	0x3e966d64	0.29380333
132	0xbc4e1a5c	-0.012579527
133	0xbeae0f4c	-0.33996046
134	0xbce3b1b9	-0.027794706
135	0xbe507467	-0.20356904
136	0x3e08e9fb	0.13370506
137	0x3e850af8	0.2598493
138	0xbdd38b7d	-0.1032934
139	0x3f4ea3ec	0.80718875
140	0x3df67312	0.12033667
141	0x3eb0a777	0.34502766
142	0x3d0802e6	0.03320589
143	0x3e92b1cb	0.2865127
144	0x3dfbed36	0.12301104
145	0x3cd9f980	0.026608229
146	0xbe4ac30e	-0.1980097
147	0xbc8c639d	-0.017137343
148	0x3e57cca4	0.21074158
149	0x3ec85173	0.3912464
150	0x3dd942c0	0.10608435
151	0x3e878178	0.26465964
152	0x3e0c815f	0.13721226
153	0xbdf61925	-0.12016515
154	0x3e828915	0.2549521
155	0x3e3e126b	0.18561713
156	0xb90162aa	-0.00012339154
157	0x3ea4e988	0.3220942
158	0xbdb0f6b9	-0.086408086
159	0x3e345381	0.17609979
160	0x3ddf528b	0.10904416
161	0x3d9e5ec5	0.077329196
162	0x3e38aac3	0.1803389
163	0xbe06a4b1	-0.13148762
164	0x3e2f2a86	0.17106065
165	0x3e4e1b5a	0.20127621
166	0xbe147cf4	-0.14500791
167	0x3e4f3201	0.20233919
168	0x3e58f016	0.21185336
169	0xbe0c2db4	-0.1368931
170	0x3d5cbc96	0.053890787
171	0x3eaa12dc	0.33217514
172	0xbe1438fc	-0.14474863
173	0xbdfeb5f7	-0.12437051
174	0x3e56b8ce	0.20968935
175	0xbdf671f1	-0.12033451
176	0xbe218a29	-0.1577536
177	0xbbb99efc	-0.0056647044
178	0x3d34b5f8	0.04411885
179	0x3d87b7f7	0.066268854
180	0x3d9c5591	0.07633508
181	0x3f140868	0.57825327
182	0xbdb9732b	-0.0905517
183	0xbe1d4f58	-0.15362298
184	0x3e9e7a67	0.3095276
185	0x3e25c08c	0.16186732
186	0x3e899c0b	0.26876864
187	0xbe67dcf1	-0.22642876
188	0xbe269579	-0.16267957
189	0x3e46ec62	0.1942611
190	0xbe1c59f5	-0.15268691
191	0xbdb332a4	-0.08749893
192	0x3c5195ae	0.012792034
193	0x3e438352	0.19093063
194	0x3b2a8fd1	0.0026025663
195	0xbdbd2fff	-0.0923767
196	0x3e1f417e	0.15552327
197	0xbe8c4244	-0.27394307
198	0xbba38ff8	-0.0049915276
199	0xbe0236c4	-0.12716204
200	0xbe49b510	-0.19697976
201	0xbe7c3aa9	-0.24631752
202	0x3e04e1fa	0.12976828
203	0xbf162fed	-0.5866688
204	0xbe5db2eb	-0.21650283
205	0xbe47e917	-0.1952251
206	0xbe3c04cd	-0.18361206
207	0xbe443b26	-0.19163188
208	0x3e592186	0.21204194
209	0xbe21478f	-0.15749954
210	0x3e6e7553	0.23286943
211	0xbc0bc4e4	-0.008530829
212	0xbe9a7b00	-0.30171967
213	0xbe8f5e1b	-0.28001484
214	0x3dafe9df	0.08589529
215	0xbe5d4864	-0.21609646
216	0x3d8f8b89	0.07009036
217	0xbdb5497d	-0.088519074
218	0xbe2f7691	-0.17135073
219	0x3e70010c	0.234379
220	0x3d9080ef	0.07055842
221	0xbe06b749	-0.13155855
222	0x3e2cbc7b	0.16868775
223	0x3c2b4035	0.01045232
224	0x3d851076	0.0649728
225	0xbe517b2d	-0.20457144
226	0xbd923eaf	-0.07140862
227	0x3e569f82	0.20959285
228	0x3ae9626d	0.0017805822
229	0xbd9d2efe	-0.07674979
230	0xbe22bf30	-0.15893245
231	0xbd053fde	-0.03253161
232	0xbda88d9b	-0.08230134
233	0xbd379cc2	-0.04482723
234	0x3e40a124	0.1881147
235	0xbe8cae00	-0.274765
236	0xbda4f2bf	-0.08054113
237	0xbdf3e9ac	-0.11909804
238	0xbe004aaf	-0.1252849
239	0x3e8d9376	0.27651566
240	0xbe4e91f9	-0.20172872
241	0xbda1cc30	-0.07900274
242	0x3e9df43a	0.30850393
243	0x3e7a0aba	0.24418154
244	0x3dc7eda5	0.09762124
245	0xbe3d7846	-0.18502912
246	0xbe80e7e1	-0.2517691
247	0x3db126d4	0.08649984
248	0x3ea83679	0.3285406
249	0x3d85a472	0.06525506
250	0x3c8ce7e6	0.017200422
251	0xbe2b5a04	-0.16733557
252	0x3e0f1442	0.13972571
253	0xbdaf8819	-0.085708804
254	0xbe54d107	-0.20782863
255	0xbd17c52c	-0.037053272

parallel_cnn_block.branches.0.0.weight f4 [1, 1, 2]
0	0x3f055c65	0.5209411
1	0x3f2aa932	0.6666442

parallel_cnn_block.branches.0.2.bias f4 [16]
0	0x3d9c6f79	0.07638449
1	0x3f34e926	0.70668256
2	0xbefa12f2	-0.4884258
3	0x3e1e6f34	0.15472108
4	0xbb6c8475	-0.0036089693
5	0xbe0ecf42	-0.1394625
6	0xbea6c607	-0.32572958
7	0x3dd85630	0.10563314
8	0xbe9b6727	-0.30352136
9	0x3ed6053e	0.41800874
10	0x3eed213a	0.46314412
11	0xbf4f2148	-0.8091016
12	0x3cadc1ca	0.02121057
13	0xbcb832dc	-0.02248519
14	0x3d198583	0.037480842
15	0x3ed025fc	0.4065398

parallel_cnn_block.branches.0.2.weight f4 [16, 1, 2]
0	0x3ee2bb8b	0.4428371
1	0xbf16847e	-0.5879592
2	0xbd267cab	-0.040646236
3	0x3f0d997d	0.5531233
4	0x3f36c397	0.71392196
5	0xbe26a2ce	-0.16273043
6	0x3e5a82b3	0.2133892
7	0xbe6899ab	-0.2271487
8	0xbd7d9041	-0.06190515
9	0x3e4b4a5d	0.19852586
10	0x3e2be242	0.1678553
11	0xbdca33e2	-0.09873177
12	0x3e4b4354	0.19849902
13	0x3c8dfcd1	0.017332466
14	0x3efba456	0.49148816
15	0xbee0b8af	-0.43890902
16	0x3dda9d1d	0.10674498
17	0x3eac5cf4	0.33664668
18	0x3cf9b908	0.030483738
19	0xbe9a8a3b	-0.30183586
20	0x3ef08e0a	0.46983367
21	0xbf255149	-0.64577156
22	0x3e315885	0.17318924
23	0x3ea1b9f9	0.31587198
24	0x3ed3fe3b	0.414049
25	0xbf1529c5	-0.5826686
26	0x3f0e12b4	0.5549729
27	0xbf0581f9	-0.5215145
28	0xbde2fcb3	-0.11083355
29	0x3e24cfc4	0.16094881
30	0xbf6908da	-0.9102913
31	0x3e96480c	0.29351842

parallel_cnn_block.branches.1.0.weight f4 [1, 1, 4]
0	0xbd803792	-0.06260599
1	0x3f2e2ce9	0.6803728
2	0xbe83d3c1	-0.25747493
3	0x3c4e1065	0.012577151

parallel_cnn_block.branches.1.2.bias f4 [32]
0	0x3d114bbd	0.03547262
1	0xbb4d3d6f	-0.0031317135
2	0x3f06630b	0.5249488
3	0x3b456442	0.0030119573
4	0xbc93e06e	-0.018051352
5	0xbeabb938	-0.33539748
6	0x3e60e341	0.2196169
7	0xbe470202	-0.1943436
8	0xbc9d7d4a	-0.019224782
9	0xbe506835	-0.20352252
10	0x3de2860a	0.11060722
11	0x3efbd40b	0.49185213
12	0x3f096906	0.5367588
13	0xbd799cf6	-0.060940705
14	0xbeade7ce	-0.33965915
15	0xbecbef85	-0.39831176
16	0x3eac9ddc	0.33714187
17	0xbbaed4aa	-0.00533541
18	0x3e5dca42	0.21659186
19	0x3def1ceb	0.116754375
20	0xbe74cbec	-0.23905915
21	0xbc5998c1	-0.013281048
22	0xbf360cd1	-0.71113306
23	0xbd8091f8	-0.06277841
24	0x3e23e6fa	0.1600608
25	0x3f112290	0.56693363
26	0xbd405bec	-0.046962664
27	0x3ecd348a	0.40079147
28	0xbee8e188	-0.45484567
29	0xbd804c9a	-0.062646106
30	0x3d21ada9	0.039472256
31	0x3d390845	0.045173902

parallel_cnn_block.branches.1.2.weight f4 [32, 1, 4]
0	0xbf13190f	-0.5746011
1	0x3eb12811	0.3460088
2	0x3ec3e5f8	0.3826139
3	0x3e7e454c	0.24831122
4	0xbf2b4289	-0.668984
5	0xbede4016	-0.4340827
6	0x3ed7dfa5	0.42162815
7	0xbc4d20a8	-0.012519993
8	0x3bacc45c	0.0052724313
9	0xbef41a43	-0.47676286
10	0x3e8b1892	0.27167183
11	0x3ed3bece	0.4135651
12	0xbea86099	-0.32886198
13	0x3be8efb1	0.0071086516
14	0x3e07c33f	0.13258074
15	0xbf6084c2	-0.8770257
16	0xbbb7a60c	-0.005604511
17	0x3cc8e73a	0.02452432
18	0x3f0c2341	0.54741293
19	0xbed9e1d5	-0.4255511
20	0xbda9b9c0	-0.08287382
21	0x3f13771c	0.5760362
22	0xbd7c4b43	-0.061595213
23	0xbe0a677f	-0.13516043
24	0xbee5ac5d	-0.44858065
25	0x3ee16a0b	0.44026217
26	0xbca902e0	-0.020631254
27	0x3db9466c	0.09046635
28	0x3e899d69	0.26877907
29	0x3eb1fd31	0.34763482
30	0x3e8d84ae	0.2764029
31	0xbf19f1ab	-0.6013438
32	0xbbe50392	-0.006988951
33	0x3c8daf2a	0.017295439
34	0x3f2a1347	0.66435665
35	0xbf1412ea	-0.5784136
36	0x3ec6efd4	0.3885485
37	0xbe2190ef	-0.15777944
38	0x3ec177e4	0.37786782
39	0x3e0fc16d	0.1403863
40	0x3e7c0cd2	0.24614266
41	0x3f2766f2	0.6539146
42	0xbf0d0ead	-0.5510052
43	0xbdc096d6	-0.0940377
44	0xbd1665ef	-0.036718305
45	0x3eb033a8	0.3441441
46	0xbed0d0cd	-0.40784302
47	0x3e132295	0.14368661
48	0x3e744c96	0.2385734
49	0xbea89005	-0.32922378
50	0x3cc72457	0.02430932
51	0x3e08c5da	0.13356724
52	0xbf161b53	-0.58635443
53	0x3e4288d9	0.18997516
54	0x3f282673	0.6568367
55	0xbe59bc02	-0.21263126
56	0x3e46c932	0.19412687
57	0x3e28da62	0.16489556
58	0xbcd0a291	-0.025468143
59	0x3f30943a	0.68976176
60	0xbe154432	-0.14576796
61	0xbc9de32e	-0.019273367
62	0xbe2307c2	-0.15920928
63	0xbdff6623	-0.12470653
64	0xbe4a9cee	-0.19786426
65	0x3eff09cb	0.4981216
66	0xbf59d984	-0.8509753
67	0x3f18211d	0.59425527
68	0xbea40af0	-0.32039595
69	0x3eacc229	0.33741882
70	0x3f0c187a	0.5472485
71	0x3e3ec1e0	0.18628645
72	0xbd551578	-0.052022427
73	0xbf5642eb	-0.8369586
74	0xbe0a29c0	-0.13492489
75	0xbf0ade5e	-0.54245555
76	0x3d1fccef	0.0390138
77	0x3ef043a2	0.469266
78	0xbeaccb01	-0.3374863
79	0xbd86bb1b	-0.06578656
80	0xbd3f9e8e	-0.04678207
81	0xbf0b5236	-0.5442232
82	0x3e9cd9f8	0.30635047
83	0x3eae7944	0.34076893
84	0xbeac7244	-0.33680928
85	0x3e59919b	0.2124695
86	0x3f0e011c	0.5547044
87	0xbed190ab	-0.40930685
88	0x3edc2d36	0.43003243
89	0x3ef5a6e5	0.47978893
90	0xbf511577	-0.8167338
91	0xbe031e94	-0.12804633
92	0xbf144576	-0.5791849
93	0x3f5255e5	0.82162315
94	0xbe59d826	-0.2127386
95	0x3cab4199	0.020905303
96	0x3e6a94e3	0.22908358
97	0x3ddd9e37	0.10821193
98	0xbde48a89	-0.11159236
99	0xbe523b37	-0.20530401
100	0xbb063d01	-0.0020483139
101	0xbeae54b0	-0.34048986
102	0x3e9b9497	0.30386803
103	0x3db3aee3	0.08773591
104	0x3cee8e2e	0.029120531
105	0x3e6ae7fe	0.2294006
106	0xbf0f76ef	-0.56040853
107	0x3f00458a	0.5010611
108	0xbf25b09e	-0.6472262
109	0xbeb843e1	-0.35989287
110	0x3e750ce3	0.23930697
111	0xbe1637c5	-0.14669712
112	0xbe920638	-0.2852037
113	0x3f58995f	0.84609026
114	0xbee1ef2e	-0.44127792
115	0x3e29ef7d	0.16595264
116	0xbef515a2	-0.47868067
117	0x3e146fff	0.14495848
118	0x3f342efb	0.70384187
119	0x3e27d0d8	0.16388261
120	0xbf231f52	-0.63719666
121	0x3d2b195b	0.041772228
122	0x3ebf8055	0.37402597
123	0x3e1085f6	0.14113602
124	0x3eff2ebf	0.49840352
125	0x3d956898	0.0729534
126	0x3d444239	0.047914717
127	0x3ec9cfd4	0.39416373

parallel_cnn_block.branches.2.0.weight f4 [1, 1, 8]
0	0xbc869586	-0.01642872
1	0x3caa2d25	0.02077348
2	0xbe64e765	-0.22353895
3	0x3f172a2e	0.59048736
4	0x3e93f888	0.28900552
5	0xbe8b74c2	-0.27237517
6	0x3d80bd58	0.062861145
7	0xbcc48b46	-0.023992192

parallel_cnn_block.branches.2.2.bias f4 [64]
0	0x3e54ce34	0.20781785
1	0xbf05cbb7	-0.5226397
2	0xbde24289	-0.11047847
3	0xbf06afcf	-0.5261201
4	0x3d2b4594	0.0418144
5	0xbe98a9e5	-0.2981712
6	0xbdd89ebe	-0.10577153
7	0xbebdf90a	-0.37104064
8	0x3ef47a0d	0.47749367
9	0x3ed2e632	0.4119125
10	0x3df89962	0.121386304
11	0x3d933dda	0.071895316
12	0xbd871753	-0.065962456
13	0xbd7bc7bf	-0.06146979
14	0x3ecb65e7	0.39726183
15	0x3d20200a	0.039093055
16	0xbef4bb5b	-0.4779919
17	0x3dc00d3a	0.09377523
18	0x3e63f9e5	0.22263296
19	0x3c481054	0.012210924
20	0x3e421449	0.1895305
21	0x3dd98525	0.106210984
22	0x3e867c4e	0.26266712
23	0xbe2c27e0	-0.16812086
24	0xbdbbff09	-0.091795035
25	0x3e08b41d	0.13349958
26	0x3dd7e06d	0.10540853
27	0x3e44ff4a	0.1923801
28	0x3e5e70b5	0.21722682
29	0x3da519e6	0.0806158
30	0xbeb36d65	-0.350444
31	0xbea81356	-0.32827252
32	0x3eac0641	0.3359852
33	0xbca1aed7	-0.01973669
34	0x3cfae7c4	0.030628093
35	0x3ed07c18	0.40719676
36	0x3e6e9bdb	0.23301642
37	0x3eebe7d7	0.46075317
38	0xbed3cd62	-0.41367632
39	0x3ea5c57e	0.32377237
40	0xbd2c1d8c	-0.042020366
41	0x3e4591a9	0.19293846
42	0x3eb37f87	0.35058233
43	0x3da3a5f5	0.07990638
44	0x3b88451b	0.0041586286
45	0x3dbc7b38	0.092031896
46	0x3ec51503	0.38492593
47	0x3bf3077b	0.007416663
48	0xbf7958e2	-0.9740125
49	0xbe86abe4	-0.26303017
50	0xbf129c70	-0.57269955
51	0x3e8dfb48	0.27730775
52	0x3e624e56	0.22100195
53	0xbecf7a11	-0.40522817
54	0xbe2315ef	-0.15926336
55	0xbdcd57e5	-0.1002653
56	0xbe9abead	-0.302236
57	0xbebb1f4c	-0.36547315
58	0xbd9d27f3	-0.07673635
59	0x3d3ee75f	0.04660737
60	0x3e2d4c2d	0.1692359
61	0x3ec71658	0.38884234
62	0xbd9cfe29	-0.07665665
63	0x3d76c95b	0.06025062

parallel_cnn_block.branches.2.2.weight f4 [64, 1, 8]
0	0xbe978cd4	-0.2959963
1	0xbcf1669e	-0.029467877
2	0x3e7470b6	0.23871121
3	0xbe712964	-0.23550946
4	0x3ea6c5aa	0.3257268
5	0xbe77f365	-0.24213941
6	0x3e4c559a	0.1995453
7	0x3e267f21	0.16259433
8	0x3d195d60	0.037442565
9	0xbdc4eea7	-0.09615832
10	0x3e4331b2	0.19061926
11	0xbe9a00dd	-0.30078784
12	0x3e8546e0	0.26030636
13	0xbdf9294b	-0.12166079
14	0x3e885365	0.26626125
15	0xbdb027e8	-0.086013615
16	0xbd81be72	-0.06335153
17	0xbee80707	-0.4531786
18	0x3e82241e	0.2541818
19	0x3d9cd93c	0.07658622
20	0x3d365b52	0.044520684
21	0x3e14fd9e	0.14549872
22	0x3e47227c	0.19446748
23	0xbd0333bc	-0.03203176
24	0x3e9d6110	0.30738115
25	0x3a0f2ca5	0.00054616696
26	0xbe3d6e35	-0.18499072
27	0x3e0fc598	0.1404022
28	0x3d49bccc	0.049252316
29	0x3e23bae3	0.1598926
30	0xbdab8d50	-0.083765626
31	0xbe580d9b	-0.2109894
32	0xbf144f36	-0.57933366
33	0xbebf6509	-0.3738177
34	0xbe2801db	-0.16406958
35	0x3ec5e60b	0.3865207
36	0x3ee7a95d	0.452464
37	0x3ec77e32	0.38963467
38	0xbdec0336	-0.1152405
39	0x3d653fef	0.055969175
40	0x3e6d2611	0.23159052
41	0x3e14d0fe	0.14532849
42	0xbe580b90	-0.2109816
43	0xbf024b3f	-0.50896066
44	0xbed4ab98	-0.41537166
45	0xbcd2c5a7	-0.025729014
46	0xbd9e6298	-0.07733649
47	0xbda97fc7	-0.08276325
48	0x3e1dd39f	0.15412758
49	0x3eb18a79	0.3467596
50	0xbd5d7963	-0.05407084
51	0xbeb228d2	-0.34796768
52	0x3e2ea788	0.17056096
53	0x3e30cee0	0.17266417
54	0x3e760e50	0.24028897
55	0x3e6cfd46	0.23143491
56	0x3e810862	0.25201708
57	0xbe958eaa	-0.29210407
58	0xbed98767	-0.42486116
59	0xbe6d300f	-0.23162864
60	0x3e357ddb	0.17723791
61	0x3ea58521	0.32328132
62	0x3d9310ef	0.07180964
63	0x3dd018fa	0.10161014
64	0x3e19efee	0.15032932
65	0xbe8d9aba	-0.2765711
66	0x3ed94980	0.4243889
67	0xbe61c1c2	-0.22046569
68	0xbde62fca	-0.11239584
69	0x3e4bd54f	0.1990559
70	0xbd2337ce	-0.03984814
71	0xbdc5ec1c	-0.09664175
72	0x3d1de987	0.038552787
73	0x3e2e7bbc	0.17039388
74	0xbe93e2c8	-0.28883958
75	0xbe828beb	-0.25497374
76	0xbe65c829	-0.22439636
77	0x3e891d35	0.26780096
78	0x3de356fe	0.11100577
79	0x3e8338c5	0.2562925
80	0xbedcb49d	-0.43106547
81	0xbe78adc2	-0.24285033
82	0xbd820146	-0.06347899
83	0x3e8dffc9	0.2773421
84	0xbde373e0	-0.11106086
85	0xbe3db108	-0.18524563
86	0x3ea24b29	0.31697968
87	0x3e9e485b	0.30914578
88	0x3e343471	0.1759813
89	0xbe4af291	-0.19819094
90	0x3e414090	0.18872285
91	0xbc8930a4	-0.016746826
92	0x3dd60688	0.104504645
93	0x3b308a6a	0.002693797
94	0x3de2164d	0.1103941
95	0x3bace174	0.0052758995
96	0x3b8a41f5	0.0042192885
97	0xbf19b5ff	-0.6004333
98	0xbebb745b	-0.3661221
99	0x3ee5ab51	0.44857267
100	0xbe829eb9	-0.2551172
101	0x3e9c4052	0.30517823
102	0x3e7bbfcc	0.24584883
103	0x3e24648a	0.16053978
104	0x3da8bba3	0.08238914
105	0x3eac0cc6	0.33603495
106	0x3e63aeb9	0.2223462
107	0xbe5db600	-0.21651459
108	0x3eeedba7	0.46651956
109	0xbeca4ec2	-0.39513212
110	0xbeb80699	-0.35942534
111	0xbe07d4a9	-0.13264717
112	0x3e21a78d	0.15786572
113	0x3ebf9e32	0.3742538
114	0x3ddae43c	0.106880635
115	0xbe90ec73	-0.28305396
116	0xbee0739a	-0.43838197
117	0xbe18b9da	-0.14914647
118	0xbe0411d1	-0.12897421
119	0x3ea2105b	0.31653103
120	0x3ec7fbb4	0.39059222
121	0xbcc478ed	-0.023983443
122	0x3e5aff36	0.21386418
123	0x3dce56a5	0.1007512
124	0x3e855d0e	0.26047558
125	0xbd8f3695	-0.069928326
126	0xbed79b87	-0.42110845
127	0xbed5b3c4	-0.41738713
128	0x3da45e3f	0.080257885
129	0x3e81924a	0.25306922
130	0x3e82aa26	0.25520438
131	0x3e1b338a	0.1515638
132	0xbe13f31e	-0.1444821
133	0xbefe497b	-0.49665436
134	0x3b564123	0.0032692633
135	0xbd4b163e	-0.04958176
136	0x3d91876c	0.07105908
137	0xbd516cd8	-0.051129192
138	0x3e120e9f	0.1426339
139	0xbe0694db	-0.13142721
140	0x3d1835ae	0.037160568
141	0x3e6e8f96	0.23296961
142	0xbf1f2409	-0.6216436
143	0xbee7b750	-0.45257044
144	0x3c07ead9	0.008295738
145	0xbe9903de	-0.29885763
146	0xbef59c3b	-0.47970757
147	0xbe52b40f	-0.205765
148	0x3e86bd04	0.26316082
149	0x3e3d7899	0.18503036
150	0x3d6405d9	0.05566964
151	0xbe7d367f	-0.2472782
152	0xbd633ba2	-0.055476792
153	0xbd11494e	-0.0354703
154	0x3eefcd69	0.46836403
155	0x3d465445	0.04842021
156	0x3edcdf39	0.43139055
157	0xbe6d0b87	-0.23148929
158	0xbd18b9d6	-0.037286602
159	0xbedc7e00	-0.4306488
160	0xbebe21ae	-0.3713507
161	0x3bb6108f	0.005556173
162	0x3e8e3b1a	0.27779466
163	0xbdd9e510	-0.10639393
164	0xbdc23634	-0.09482995
165	0x3ec045c0	0.37553215
166	0x3e2c9394	0.16853172
167	0xbc1c75de	-0.009549586
168	0x3dbfd5d2	0.09366955
169	0x3c94f124	0.018181391
170	0xbea25db2	-0.3171211
171	0xbe6681fe	-0.22510526
172	0x3ec09dbb	0.3762034
173	0x3ea5e6d8	0.32402682
174	0xbe5fb260	-0.21845388
175	0xbe03758f	-0.12837814
176	0xbef1fe01	-0.47264102
177	0xbe6d5ae0	-0.23179197
178	0xbe963128	-0.29334378
179	0x3ebed9cc	0.3727554
180	0xbdf1e1c0	-0.118106365
181	0x3e7c83ac	0.24659604
182	0xbe8efe1c	-0.27928245
183	0xbcfb82c2	-0.030701999
184	0x3d09f09c	0.03367673
185	0x3e8566f4	0.2605511
186	0xbe0f5b30	-0.13999629
187	0xbe0daae4	-0.13834721
188	0xbe0e65e8	-0.13906062
189	0x3ee23212	0.44178826
190	0x3eb22b1d	0.34798518
191	0x3dda2387	0.106513076
192	0xbe2591b4	-0.16168863
193	0xbe41b4f2	-0.18916681
194	0xbe5c57f1	-0.21517922
195	0xbdc8e840	-0.09809923
196	0xbe4d1f57	-0.20031486
197	0xbe754d9c	-0.23955387
198	0xbeb0a9e0	-0.34504604
199	0xbe20a579	-0.15688123
200	0x3e011d07	0.1260873
201	0xbe8c7e2b	-0.2744001
202	0xbe16c036	-0.1472176
203	0xbec465b1	-0.38358834
204	0xbe61c915	-0.22049363
205	0x3eacd7f8	0.3375852
206	0x3e042df8	0.1290816
207	0xbdc02a07	-0.09383016
208	0x3ded4f27	0.11587363
209	0xbef4b340	-0.47793007
210	0xbf2df8c6	-0.67957723
211	0x3ed1f18c	0.41004598
212	0xbdc9e751	-0.09858573
213	0x3e02c2cd	0.12769623
214	0x3dbf7779	0.093489595
215	0x3bd80414	0.006592283
216	0xbd5f1ba0	-0.054469705
217	0xbe46ae7c	-0.19402498
218	0xbe5bdbee	-0.21470615
219	0x3ce6d462	0.028177444
220	0x3e739b87	0.23789798
221	0x3e802090	0.25024843
222	0xbc3b94c0	-0.011449039
223	0x3dc5050e	0.09620105
224	0xbde6ebac	-0.112754196
225	0x3e8e31ee	0.27772468
226	0xbe661a30	-0.22470927
227	0xbef6351d	-0.48087397
228	0x3e8bbb74	0.27291453
229	0xbeb1400f	-0.34619185
230	0x3e24c328	0.16090071
231	0x3eca143f	0.39468572
232	0xbd06da7a	-0.0329232
233	0x3ea83f0f	0.3286061
234	0x3d92af4a	0.0716234
235	0x3cf8f7c6	0.030391585
236	0xbdc6b10e	-0.09701739
237	0x3e2ec419	0.17066993
238	0x3d258fe1	0.040420417
239	0xbec1897b	-0.37800202
240	0x3e10d272	0.14142779
241	0xbeae242d	-0.34011975
242	0x3e95b048	0.29236054
243	0xbd605f2d	-0.054778267
244	0xbe040077	-0.12890802
245	0x3ea316e8	0.31853414
246	0xbcc2c812	-0.023777042
247	0xbe4f0920	-0.20218325
248	0x3e0323b5	0.1280659
249	0x3ea18848	0.31549287
250	0xbee9994c	-0.4562477
251	0x3ed7e363	0.4216567
252	0xbe446ce9	-0.19182171
253	0xbdd09000	-0.10183716
254	0x3ebbb729	0.36663178
255	0x3d669738	0.056296557

parallel_cnn_block.branches.3.0.weight f4 [1, 1, 32]
0	0xbe100501	-0.14064409
1	0x3c89d5f4	0.016825654
2	0xbcd85271	-0.026406499
3	0xbda3aa98	-0.079915226
4	0xbd1a0226	-0.037599705
5	0xbdcffc90	-0.10155594
6	0xbbca1449	-0.006166969
7	0xbdc091f5	-0.09402839
8	0x3d87ab98	0.06624526
9	0x3c5a6604	0.0133299865
10	0xbe241d36	-0.16026768
11	0xbd961cba	-0.07329698
12	0x3cc6f8ff	0.024288652
13	0xbdaff999	-0.08592529
14	0x3df50a9b	0.119649135
15	0xbd9e329a	-0.07724495
16	0xbe114ad2	-0.14188698
17	0x3cd3ac65	0.02583904
18	0xbc4ffd41	-0.012694658
19	0x3d0717b4	0.03298159
20	0x3d7d7d1e	0.0618869
21	0x3dedd9c2	0.116138
22	0x3d9a3525	0.07529668
23	0x3e393108	0.1808511
24	0x3e348eb6	0.17632565
25	0x3e44e39d	0.19227453
26	0xbd094c0e	-0.033519797
27	0xbd931a02	-0.07182695
28	0xbe009501	-0.1255684
29	0x3d9bff5f	0.076170675
30	0x3d61c0c1	0.055115465
31	0xbdc1de0e	-0.09466182

parallel_cnn_block.branches.3.2.bias f4 [16]
0	0x3e483a90	0.1955359
1	0x3c525cf0	0.012839541
2	0xb91750a2	-0.0001443052
3	0x3d33231a	0.043734647
4	0x3e05636e	0.1302621
5	0x3dd2f1e8	0.10300046
6	0x3e0eb5b5	0.13936503
7	0xbcb593bd	-0.022165174
8	0x3e929155	0.28626505
9	0x3d9ec2e5	0.07752017
10	0x3e8ad9b7	0.27119228
11	0x3d6babd7	0.057536926
12	0x3dc2b0e3	0.09506395
13	0x3ea03fd4	0.31298697
14	0xbdce2ec1	-0.10067511
15	0x3d3b29c5	0.04569413
