remade/narrow/modelpars_narrow_i_95.safetensors (safetensors, 86584 bytes, 32 tensors)

bilstm.bias_hh_l0 f4 [64]
00000000: 4fc3 03bf 3d45 63be eae0 8c3e f3f7 ebbd
00000010: 702b 423e 996b 14bf 3562 07bd 39be 663e
00000020: cdd8 023d 4bd3 04be 46c4 10be 40dd 0abf
00000030: d879 a4be e011 58be ef4f ea3e 447b 5cbe
00000040: 17ea f93e 256e 383d b10f 963e a89b 02be
00000050: adc4 0cbc 0a07 503e 9e7a 813e ab3a 283e
00000060: e80c 063e 65b4 4a3d 14e7 ba3e ee45 19bd
00000070: 83da 3dbe 5db7 283e 654f ae3e aadf 44be
00000080: 9e0e 063c 3e52 43be c1aa 17bd f23e 9dbe
00000090: 800d d73c e968 dfbd 8d9a 63be 1e1b 933d
000000a0: 7642 2a3e fe69 cf3d d5e6 c7bd 0beb c4bd
000000b0: 064a e73d cc20 343e 72d4 0dbe ee9c ba3d
000000c0: 03c0 51be db5f 1e3d c4ce 713e 01e9 403c
000000d0: af13 16be 4e18 433e 2f28 3a3e c74c 3e3e
000000e0: b717 75bc 9e73 cfbe 9ce4 dcbd ea23 1e3e
000000f0: 9b58 a73e 030d ce3d cc27 933e 6e9b 8f3e
-0.5146989 -0.22194381 0.27515346 -0.11521902 0.18961883 -0.5797668 -0.033052642 0.22533502
0.03194504 -0.12971227 -0.14137372 -0.5424385 -0.3212421 -0.21100569 0.4576411 -0.21531397
0.4881141 0.045026917 0.29308847 -0.1275469 -0.008591813 0.20315185 0.25288862 0.1642863
0.13090861 0.049488444 0.36504424 -0.037420206 -0.18540387 0.16476198 0.34044948 -0.19225946
0.008182196 -0.19074342 -0.037028078 -0.30712086 0.026251554 -0.10908682 -0.22226925 0.071829066
0.16626915 0.10127638 -0.097608246 -0.096151434 0.11293416 0.17590636 -0.13850573 0.09111963
-0.20483403 0.038665634 0.23614031 0.011774302 -0.14655946 0.1905224 0.18179391 0.18583976
-0.014959267 -0.40517896 -0.10785791 0.15443388 0.32684788 0.100610755 0.287413 0.2804827

bilstm.bias_hh_l0_reverse f4 [64]
00000000: de55 8abd 8424 a0bd fc83 b4be 3442 a03e
00000010: 81d8 d73e 3b3a 333f 00a1 b5be b98d 953e
00000020: 567e 38bd 3b09 12bd 81d0 3f3d 40cb ee3c
00000030: 30de c13d b32f 893e ed00 cfbd 1866 c6be
00000040: c33f 0bbe 9f7b ea3d 1417 4abe f049 263e
00000050: 1715 d6bb df26 fc3d b606 b43e edd4 dfbc
00000060: 50e1 033e 1673 8f3e 7caa 0e3e 047a 8b3e
00000070: 7ab9 1a3e 564a 82bc 23d4 5abe 0bde 6d3e
00000080: 9e84 58be 95bb 9d3e 1ddd 0ebe 7775 473e
00000090: eaf0 cdbd 8c32 e53d ac6d d6bd 0854 063e
000000a0: b99d ccbd c2e7 aabe 7bae 38be ca55 99be
000000b0: 7d76 1ebe 8e53 22be 870b 703d a173 f93c
000000c0: 36a4 9fbd a639 8a3e 4ff5 923c 82c6 d83e
000000d0: 60f9 ad3e c058 293e c933 c23d b312 a8be
000000e0: 6a75 78be 7741 a03d 7252 c33e a234 853e
000000f0: 4f40 323e 23f4 173e 50c6 abbe 7a38 f5bd
-0.06754659 -0.07819465 -0.35256946 0.3130051 0.42157367 0.7001073 -0.35474396 0.29209688
-0.04504236 -0.035653334 0.046829704 0.029149652 0.09466207 0.26794204 -0.101075985 -0.38749766
-0.13598542 0.1144936 -0.19735366 0.16239142 -0.006533276 0.123121016 0.3516137 -0.02732321
0.12878919 0.2801749 0.13932222 0.27241528 0.15109816 -0.015904587 -0.21369986 0.23229234
-0.2114434 0.30807176 -0.13951536 0.19478403 -0.10055716 0.11191282 -0.10470137 0.13117993
-0.09991021 -0.33379942 -0.18035309 -0.29948264 -0.15474887 -0.15852186 0.058604743 0.030450644
-0.077949926 0.26997107 0.017939238 0.4233895 0.3397932 0.16537762 0.094825335 -0.32826766
-0.2426354 0.078249864 0.38148838 0.26016718 0.17407344 0.14839225 -0.33549738 -0.11973663

bilstm.bias_ih_l0 f4 [64]
00000000: 18f8 0dbe a7de 35be 5a1f 083f f74f 973c
00000010: 4f32 ba3e eed3 dfbe 500b b43e 6b0c 603e
00000020: 0d40 ab3e 4dbf c3be 847b b7be 244a 6ebf
00000030: 720e 9fbd 901e 6bbe fd17 233f c9de dbbd
00000040: f261 9e3e 5334 cf3e 0d9a 9dbc 3caf 873e
00000050: 9326 2dbe de81 0c3e fedf 393e d2d3 683c
00000060: c85b b93e 7c87 2b3c 0750 dc3d 0c55 acbd
00000070: 6d25 723e f74e 53be 222d 893e b6ba 27be
00000080: 1b96 b3bd 1872 24be c3cf 64bd 8ea5 5abe
00000090: 190f a83d ddcf d63d f31b d73d 7be1 0abe
000000a0: feef bf3b bc64 053e b4d8 963e 2cb3 e63d
000000b0: 6b28 20be 0dd9 dc3c 20bc 483d 3cb5 f23d
000000c0: 6910 7fbe 95df 80be e6e5 2c3e eb4c 40be
000000d0: a70a 56be ea41 04be 639f 15be f84b df3d
000000e0: 4401 a43d 4eef 34be 9e21 0fbe dcd1 6b3e
000000f0: ad7e ab3e ac49 3bbd 7061 8c3e 7e1b a73e
-0.13864172 -0.17760716 0.5317284 0.018470747 0.36366507 -0.43716377 0.3516488 0.21879737
0.33447304 -0.38231888 -0.35836422 -0.9308188 -0.07766427 -0.22960877 0.6370848 -0.10735852
0.309341 0.40469608 -0.019238496 0.2650088 -0.16909246 0.13721415 0.18151852 0.014210658
0.36202836 0.010469314 0.107574515 -0.08414659 0.2364709 -0.20635591 0.26792246 -0.16379818
-0.08768865 -0.16059148 -0.0558622 -0.21352217 0.08206005 0.104888655 0.10503378 -0.13562576
0.0058574667 0.13026708 0.29462206 0.11264643 -0.15640418 0.026958967 0.049007535 0.11850974
-0.24908604 -0.2517058 0.16884574 -0.18779342 -0.20902501 -0.12915769 -0.14611582 0.10903162
0.08008054 -0.17669412 -0.13977668 0.23029274 0.33495083 -0.045724556 0.2741809 0.32638162

bilstm.bias_ih_l0_reverse f4 [64]
00000000: 43ae 043e 0228 103e f027 eebd fa97 5a3d
00000010: 139e d23e 4618 003f 42a0 8bbe fa1e 7d3d
00000020: 09a5 20be 49a2 36be f9aa 65bd c748 97bd
00000030: 170b a43c 30a2 083e 35b7 c8bd a878 1ebe
00000040: 1bf4 1ebd 6587 ba3d c428 12be d3f7 5c3d
00000050: c17a 82bc 5e53 1bbe 29fa 32bd 1e24 da3d
00000060: 0023 af3d 1a80 843e e2f1 0d3e 4a29 883e
00000070: f086 3d3e 70c3 c83c 8e52 353d bc82 7f3e
00000080: f0ea 51be 5ed3 cd3e 5721 85bd 0302 ab3d
00000090: cbab 923e 4e58 7f3c 4b30 df3c 4c61 8dbe
000000a0: 3545 893d 8d21 55be d5dc 0f3e e4f7 94be
000000b0: 32ff f2bd 6b7e c4bd 4429 bd3e 8a2d c43d
000000c0: 6f36 79be 2030 693e 3eeb 633d a04f 143f
000000d0: 0861 b63e 925e 05be fec7 86be adaf afbe
000000e0: aca5 273e a1d6 ce3d 12c4 5a3d 6a42 0a3f
000000f0: 6506 afbb 62b0 c7bd 8c79 56be 0fea 83be
0.129571 0.14077762 -0.11628711 0.053367592 0.41136226 0.5003704 -0.27270705 0.06179712
-0.15687956 -0.17835344 -0.056071255 -0.07386928 0.02002482 0.1334312 -0.09800569 -0.15475714
-0.038807016 0.09107856 -0.14273363 0.05394728 -0.015927674 -0.15168521 -0.043695603 0.1065142
0.085515976 0.25878984 0.13861802 0.26594 0.18508506 0.024507254 0.044268183 0.24952215
-0.20499778 0.40200323 -0.065005 0.08349993 0.28646693 0.015585018 0.027244708 -0.27613294
0.06702653 -0.2081358 0.14049084 -0.29095376 -0.11865081 -0.09594425 0.36945546 0.095789984
-0.24337171 0.22772264 0.055644266 0.57934 0.35620904 -0.13024357 -0.26324457 -0.34313717
0.16371793 0.10099531 0.053409643 0.5400759 -0.0053413385 -0.09750439 -0.20944804 -0.2576451

bilstm.weight_hh_l0 f4 [64, 16]
00000000: cd04 abbe d540 49be 8e13 c13e 45c2 993d
00000010: 1dea a6be ae83 ac3e f534 edbe 86dc e13e
00000020: f387 b53e 7418 bc3e d661 1e3d 56a7 d6bc
00000030: 8f6a 10be 2b0e 94be 948b a53d 62bf a53e
00000040: 2fbf bb3d aa60 05bf a23b c2be bf39 48be
00000050: 6e1a f7bc ab15 14be 3f7c 173f 6e13 b7bc
00000060: 577b ea3e 4da1 f83e f647 5dbf 5df4 363e
00000070: ef11 153f 518e b63e 2aa3 473b 9f4c aebe
00000080: afe5 85be 56f6 97bd 612d 8f3d 23a6 1dbd
00000090: e93e 96bd 5987 863e 4f89 533d a682 2e3d
000000a0: b8ec 38bd 49b2 f3bc 69ea 333e c9a6 3b3c
000000b0: fc93 4b3e ea27 0c3d 3228 dabd 5d47 013e
000000c0: 97d7 8a3e 2727 c2be 283c 7bbc 9fb0 663d
000000d0: 0217 78bc 11b2 02be f4f7 533e c43c 6cbe
000000e0: 77c9 8ebf ea76 af3d ef14 aa3e d0c8 17bd
000000f0: bbbe 43bd 07b0 1bbf 8d67 10be b206 d83c
00000100: 5d99 f83b 7b9c 4a3f 4087 79be 25a7 3cbe
00000110: b84f 353e a57a 8fbe 5310 06bf 4c05 423f
00000120: 9b55 5d3d 4c3f 3a3f b9f1 21bd daaa a3be
00000130: 6f61 07bf c32d 383e 859a dd3e fc8a 323f
00000140: 0b5e 28be a724 08bf 7342 d43c b8e3 953c
00000150: 4bf8 b33d 018b bd3e ed18 8bbd 0386 b83e
00000160: a5bc 8f3d 24a5 3c3c 7e37 9ebe 50d9 4abc
00000170: cc18 943e 588a 613d 5ac0 3fbe 54a0 b1bc
00000180: 582f 82be a31e d33e 9c84 753e c31d 4dbe
00000190: 014e 043d b25f aa3e a3eb 1fbe 86a8 0b3f
000001a0: b18f 07be 1db4 80be aa06 d83d e628 2dbd
000001b0: 7e77 09bf 5f89 bd3e ef70 d73e 3294 453f
000001c0: d45b 503d 5e93 1dbe 04dd 983e c87d e6bd
000001d0: bb42 81bc 5e29 51be 62a2 6b3e 1863 d1bc
000001e0: 371a 83bd 15ce 2ebe 6e3e 3b3e f30e cebd
000001f0: feee 2abe ed51 4ebe 0b7f cc3c 4432 0b3e
00000200: 2b77 04bf 44d5 ca3d 0940 f33d 9930 113e
00000210: 528b 1bbf 5753 033e 8fa4 e2bc c44c 0ebc
00000220: ddf0 90be 6694 bd3e 19b9 853e 1bce c1be
00000230: b36a 463f 8263 e8bd 2444 083f de58 9cbd
00000240: b4dd d33d 8158 c4bf 8212 b33b 396e 293e
00000250: d609 8e3d 746d 493e d364 ae3e 67a2 93be
00000260: 7c2f f7be 9e96 c8be 30da 503e 9d27 afbd
00000270: 054a 51bf 9b50 4ebe faac a6be 3b67 7dbd
00000280: 0ca8 e33e a1df a7bd 065d b5be 5e1e dcbc
00000290: b32c 2b3e ebb7 a8be 437e 283d 9978 f7be
000002a0: 85f8 873d 875b 913d e32c a9be 1b73 6a3e
000002b0: 09b2 02be 870d 07be c2f1 c5be 670a debd
000002c0: b18c 94be a00c cc3e 9eb0 0cbe 3d00 473e
000002d0: 013f 2abb 9486 6fbe cad9 d3be b1ba 453e
000002e0: c685 1cbe 2aee 133e bb90 913d dd09 bf3e
000002f0: 37be c1be f01d 1bbf 4bde 3abe feae 49be
00000300: 6fb5 573e 8e88 45bf 4673 50be 6666 803d
00000310: 0af1 783e d4ec 2ebe f790 8b3d 8e65 58bd
00000320: 8309 a9be 9869 fdbe 88db 9a3e ffc5 503e
00000330: fc68 e9bc a6f2 38be e45e a4be 56bc 5bbe
00000340: ff98 c33e e298 0cbf ae37 673e e1a3 58bc
00000350: eafb 913e e118 27be 742a 15bd 06dc a8be
00000360: b6c1 51bf c106 80be b435 16be 7c7e 813e
00000370: 4c5a d13e ff23 a0be 20db 03bf c66c 0abe
00000380: e816 b83d 0539 9e3e da2a 323e 0271 a73e
00000390: 52dc 283c 411b 193d 7fc1 36bc a7c9 903d
000003a0: 90b6 17be b301 9dbe 075b f9bd 083a f03c
000003b0: e2d9 49bd a9c2 0cbe a602 d83d b94e 8b3e
000003c0: 4c86 82bd 94ff 15be 5ea3 97bd c73d b8bd
000003d0: 8a5e e13d 95f5 84be f963 23be cb73 9dbe
000003e0: c5ba 88be 88b2 623d 0f3c 5d3e 2dbb 493e
000003f0: d2b5 123f 4d01 473d 4636 f8be b6e9 823d
-0.334021 -0.19653638 0.37710232 0.07507757 -0.3260049 0.33694214 -0.46329466 0.4411356
0.35455284 0.36737406 0.038667522 -0.026202839 -0.14103149 -0.2891706 0.08083263 0.32372576
0.09167325 -0.5210062 -0.3793612 -0.19553278 -0.03016397 -0.1446139 0.5917396 -0.022348132
0.45797226 0.48560563 -0.8643793 0.17866655 0.5823049 0.35655454 0.0030462244 -0.34042832
-0.26151797 -0.07420032 0.06991077 -0.03848852 -0.07336218 0.26275137 0.05164462 0.042605065
-0.045147628 -0.029748099 0.17569889 0.011453339 0.1988067 0.034217753 -0.10652198 0.12624879
0.27117607 -0.37920496 -0.015334167 0.056320783 -0.015142204 -0.1276324 0.20700055 -0.23070055
-1.1155232 0.08567603 0.33219096 -0.037056744 -0.047789317 -0.6081547 -0.14102001 0.02637038
0.0075866417 0.7914502 -0.24368 -0.18423136 0.17706192 -0.28023258 -0.5236866 0.7578933
0.054036718 0.72752833 -0.039537165 -0.31966287 -0.52883047 0.17986207 0.43281952 0.69743323
-0.16442125 -0.5318093 0.025910592 0.018297061 0.087875925 0.37020114 -0.067918636 0.36039743
0.07018403 0.011513982 -0.30901712 -0.012380913 0.2892517 0.055063576 -0.1872572 -0.021682896
-0.25426745 0.4123431 0.23976368 -0.20030884 0.032300953 0.33276135 -0.15617232 0.5455402
-0.13238408 -0.25137416 0.10548146 -0.042275332 -0.53697956 0.37018868 0.4207835 0.77179253
0.050868824 -0.15388247 0.29856122 -0.112544596 -0.01577889 -0.20425937 0.23011163 -0.025559947
-0.064014845 -0.17070802 0.18285534 -0.10061445 -0.16692731 -0.2014844 0.024962923 0.13593394
-0.51744336 0.099039584 0.11877448 0.14178695 -0.6075946 0.1282476 -0.027666358 -0.008685295
-0.28308764 0.37027282 0.2611778 -0.37852558 0.7750656 -0.113471046 0.53228974 -0.076341376
0.10345021 -1.5339509 0.005464853 0.16545953 0.0693547 0.1967066 0.34061298 -0.2883484
-0.48278415 -0.39177412 0.20395732 -0.085524775 -0.8175357 -0.20147936 -0.32553846 -0.061866026
0.44464147 -0.08196951 -0.35422534 -0.026869949 0.1671627 -0.32952818 0.041136038 -0.48334196
0.06639198 0.070975356 -0.33042058 0.22895472 -0.12763228 -0.13188754 -0.3866101 -0.10841828
-0.2901359 0.39853382 -0.13739249 0.19433685 -0.0025977495 -0.23391181 -0.41377097 0.19309498
-0.15285406 0.14446321 0.07107683 0.37312213 -0.37840435 -0.60592556 -0.1824886 -0.1969566
0.21065305 -0.7716149 -0.20356473 0.06269531 0.24310699 -0.1708253 0.06814759 -0.052831225
-0.3301507 -0.49494624 0.30245614 0.2038803 -0.028492443 -0.18061313 -0.32103646 -0.21458563
0.38202664 -0.5492078 0.22579834 -0.0132226655 0.28512508 -0.16318084 -0.03641744 -0.32980365
-0.81936204 -0.25005153 -0.14668924 0.25291812 0.40889204 -0.31277463 -0.51506233 -0.13518056
0.08988744 0.30902877 0.17399159 0.32703406 0.010306435 0.037379507 -0.0111545315 0.07069712
-0.14815736 -0.3066536 -0.12175565 0.029324546 -0.049280055 -0.13746132 0.1054738 0.27208498
-0.06373271 -0.14648277 -0.07404207 -0.08996158 0.1100436 -0.25968614 -0.15956105 -0.30752406
-0.26704994 0.055346042 0.21604942 0.19700308 0.57308686 0.048585225 -0.48478907 0.06392233

bilstm.weight_hh_l0_reverse f4 [64, 16]
00000000: 5dd7 bdbe ad40 9cbd 106e 093d 6057 253e
00000010: 416e b9be 5cea 20be f550 94be 8469 cc3c
00000020: bfd2 9bbd 021f 08be 1bf8 8cbe 636b 033e
00000030: 3775 b0bd 4d00 b7bd f1c8 873d 5d87 4ebe
00000040: 5552 db3e a875 ba3e 08e6 4fbe e52b e93e
00000050: 33ba b23e 29da a33e 2423 96be 7aff bd3e
00000060: a772 a0be 0abd 1bbf 338f 243f 6c2c edbe
00000070: 5870 95be 516d 14bf 177c f5be a89f 873e
00000080: 7831 613e 0f63 1cbe c7e0 9bbb e3da 3dbe
00000090: 7db1 7e3e d11a 633e a932 9abd 34b5 9fbd
000000a0: 51f4 aa3e 9791 3d3e bbda 98bd 0a3f a93d
000000b0: 4f6b 943e 769a 593e 3818 b33d ea6c cabd
000000c0: 6c43 8abd be81 21be 0e75 e63e c148 04be
000000d0: a436 103e 62e6 07be 660e b03e c3de c03e
000000e0: 9cb3 0b3e ac3b 123d d755 903e 06ec ddbd
000000f0: 9bba b0bd 232f 18be 040b 5ebe df2b 04bf
00000100: b4d6 093f 22f2 953e 53d3 9bbe 753a c93e
00000110: 39b0 1e3e 23c4 333f 2f1e e2be 4aef 4f3e
00000120: 40ef e3be 4ba1 15bf e255 cb3e a244 92be
00000130: 4131 b6be 51be e4be 6670 13bf f209 7a3e
00000140: 23fd 8ebe d181 86bd be02 30be 0647 973b
00000150: a16d 1fbd e116 8bbe bcb2 e3bd fcbe c63e
00000160: 7b99 39be 1fa0 923d 64e4 ac3b 4a81 173e
00000170: faf2 a1be 5fee cebd 86f2 63bd 12f5 eb39
00000180: 7869 cebd 42d7 93bd f270 e5bd 2da0 c6be
00000190: c8ad 85be 8cc1 fcbe b97e 53bf 2447 00bf
000001a0: 6ec4 543e 1590 c63e 84e6 0cbc a682 a33e
000001b0: 70f6 d63e 32be 5e3d 88d5 0e3e 2676 4d3e
000001c0: 6cea 173f fa87 b6ba 31ad 38bf 06cd 2e3d
000001d0: 18bf f53e d6c5 e6bd dd26 153f 8d2d 7abe
000001e0: 6dde 873e 5f2d 8a3d d14b 183c 5c90 4abe
000001f0: 65ed 2c3e f018 8c3d a3af 8cbe 7afb 5a3e
00000200: 7bcc a4be 9e8e 9bbe 8330 b43e 1c53 ccbe
00000210: 8220 5bbe 2642 b7bd 21dd f4be 8a7b 29bd
00000220: 3c50 803e f332 953e 0454 2dbe 70a2 9a3d
00000230: a66a 3cbd 01f0 2d3d 8959 65bc 9b80 403f
00000240: 9125 d13e 4c83 873f 5adb bcbe e09f fc3e
00000250: 6cea 953e ee5b 4f3f 7da4 1ebe 734c 993f
00000260: fc1d b03d eb05 a2bf f70d 013f 0015 67bf
00000270: 1fe1 dbbc 3995 88bf aa26 1dbf c970 87bd
00000280: aea1 86bb c194 a6bd 59a5 c2be d137 813d
00000290: c964 80bd d90c cebe 4d79 133e 84ae 6a3e
000002a0: f354 d03e a7a4 8a3d c9ac bf3e 0f98 963c
000002b0: 751e 3b3e 7cda ac3c 06c7 8fbe 119a 0c3e
000002c0: 1faf fbbd 4765 973c dab7 1abf 48b2 9cbd
000002d0: c49e 75be f6e1 85be 4d35 64bf f25f 5fbe
000002e0: cd0a 4bbf cc76 58be d1a7 7dbe ab0a 07bf
000002f0: d7bc 80be e105 d7bd 1a69 103f 0056 623f
00000300: 893f 323e d621 543e cb77 8bbe 3bea 4cbe
00000310: 6a27 523e 5ce9 dabe a655 68bf 7ab1 92be
00000320: e61d e5be 4dda 80bd 4b5c 67bd e744 9abe
00000330: e610 99be a3f6 fdbd bd64 f63e c9c7 7a3f
00000340: 2755 d6be 435e dabd 897e 1e3b 7cf9 aebe
00000350: e75f 3a3e ff9b 75be c98a 113f 9b7e f73e
00000360: 5a78 17be 3d2c 91be 1935 a23e bec6 ebbd
00000370: acf4 b1be d8db 39be 05a6 26bf 3429 3abe
00000380: 7562 873e 1f28 c5bd 9d0c 6ebf 33d7 27be
00000390: 2a8a c5be aef1 143f c60c 0f3e 056c 05bf
000003a0: 626b 7e3e d0a8 15b9 0450 243c eed7 ab3d
000003b0: a095 e03d b35a 673e 7487 c23d 9151 a23d
000003c0: 4a7b 093e 0a62 f3bd bd90 a2bd 8f65 ccbe
000003d0: 1ef8 c3bc 2d33 10bd d39d 1bbf 5847 30bc
000003e0: 3151 a13e 54fa 2c3e 9d46 85be 9370 8e3d
000003f0: 1e59 e23c fbab e53e 9b65 0f3e a335 9f3e
-0.37078372 -0.076295234 0.03355223 0.16146612 -0.3621693 -0.15714401 -0.28968015 0.024952658
-0.07608556 -0.13293079 -0.2753304 0.12833934 -0.08616107 -0.08935604 0.066301234 -0.20168824
0.42836252 0.3641789 -0.20302594 0.455413 0.34907684 0.3200238 -0.29323685 0.37108976
-0.31337473 -0.60835326 0.64281005 -0.46322954 -0.29187274 -0.57979304 -0.47946236 0.26488996
0.21991527 -0.15272163 -0.00475702 -0.1854053 0.24872394 0.22178198 -0.07529194 -0.07798234
0.33389524 0.1851257 -0.074635945 0.08263977 0.2898812 0.21250328 0.08744854 -0.09884055
-0.06751141 -0.15772149 0.4501118 -0.12918378 0.14083344 -0.13271478 0.34385985 0.37669954
0.13642734 0.03570144 0.2819049 -0.108360335 -0.08629342 -0.14861731 -0.2168389 -0.5162944
0.53843236 0.29286295 -0.30434665 0.39302412 0.15496911 0.70221156 -0.44163653 0.20306125
-0.4451847 -0.5844924 0.3971396 -0.28567988 -0.35584453 -0.4467645 -0.5759338 0.24417856
-0.27927503 -0.06567729 -0.17188546 0.004616621 -0.03892291 -0.27165893 -0.11118075 0.38817585
-0.18124954 0.07159447 0.0052762497 0.14795414 -0.3163069 -0.101040594 -0.05565121 0.00045005284
-0.1007871 -0.072187915 -0.11203183 -0.3879408 -0.26109147 -0.49366415 -0.8261524 -0.5010855
0.20778057 0.387818 -0.008599881 0.31935614 0.41984892 0.054380603 0.13948643 0.20064601
0.59342074 -0.0013926022 -0.7213927 0.042675994 0.47997355 -0.11268203 0.58262426 -0.24431439
0.26536885 0.06746935 0.00929542 -0.19781631 0.16887434 0.06840694 -0.2747775 0.21384993
-0.32187256 -0.30382246 0.35193262 -0.39907157 -0.2139912 -0.08948164 -0.47824958 -0.04137758
0.25061214 0.29140434 -0.1692658 0.07550514 -0.046000145 0.042465214 -0.013998398 0.75196236
0.40848973 1.0586944 -0.36886102 0.49340725 0.29280412 0.8099965 -0.15492435 1.1976455
0.08599469 -1.2658056 0.50411934 -0.9026642 -0.026840745 -1.0670539 -0.6138712 -0.06613309
-0.004108629 -0.08133841 -0.38016775 0.06309474 -0.06269223 -0.40244177 0.14401741 0.22918135
0.4068981 0.06769686 0.37436512 0.018383054 0.18273337 0.021100275 -0.2808153 0.13730647
-0.12289261 0.01848091 -0.60436785 -0.07651192 -0.23986346 -0.26148957 -0.8914383 -0.21813944
-0.79313356 -0.21139067 -0.24771048 -0.52750653 -0.25144073 -0.10499168 0.5641037 0.88412476
0.17407049 0.20716032 -0.27239832 -0.20011227 0.20522848 -0.42756164 -0.9075569 -0.2865103
-0.44749373 -0.062916376 -0.0564845 -0.30130693 -0.29895705 -0.12400558 0.48123732 0.979611
-0.4186184 -0.1066251 0.0024184308 -0.34174716 0.18200646 -0.23985289 0.56852394 0.4833878
-0.14792004 -0.28354064 0.31681135 -0.115125164 -0.34756982 -0.1815027 -0.65097076 -0.1817978
0.26442304 -0.09626793 -0.92987996 -0.16390686 -0.38581973 0.58181274 0.13969716 -0.5211795
0.24845651 -0.00014272635 0.010028843 0.08390795 0.10966039 0.22593193 0.09498492 0.07925714
0.13425937 -0.11883934 -0.07937763 -0.39921233 -0.023922022 -0.035205055 -0.60787696 -0.010759197
0.31507257 0.16892368 -0.26030436 0.069550656 0.027630385 0.44857773 0.14003603 0.3109561

bilstm.weight_ih_l0 f4 [64, 32]
00000000: 64b7 5abd 772a d83d 468b 183e fb21 513d
00000010: 6f12 9b3d 8f86 26be be72 5abe 7856 183b
00000020: 6902 58bd 3560 5cbe 2b1d 503e 7e64 23bd
00000030: 827d b7be bddf 1dbe c9bf 45be f4fe e33e
00000040: 1511 173d 6859 523d af2f 01bd c431 5dbe
00000050: 88dc 303e 6434 5c3c 049f bd3c 6511 86bd
00000060: bda7 c9be e797 79be 540b 6eba fff7 463d
00000070: e2bc 723e 8e81 3b3e 410c 78be b9a1 f8be
00000080: 2ed6 0fbe 7960 0bbf 4e59 e7be d702 4fbe
00000090: ee13 15be 81cb 223e 19eb f2bd dbf7 c0be
000000a0: e9ac 6fbe 75c1 7dbe 1c66 c1be 279f 143f
000000b0: 0960 cebe 2723 6fbe 4d5e cb3d 728d d83d
000000c0: be38 8d3c 847f adbe 8fb8 073e 7aab 80bd
000000d0: c0c2 d8bd 47a3 51be 1782 b63c 413e 7dbe
000000e0: 93cf 9abe e7c4 4e3e 71d7 6cbe d6be 763e
000000f0: a92a 833d 02d6 0ebf 7858 363e e167 98bd
00000100: e149 b13e 7a12 343e 280a cabd a083 283e
00000110: af54 813e 268e b63c 5b40 cfbd 7e62 25be
00000120: 47d7 993e 43f5 903e 9c8c 583e fdc3 0a40
00000130: 521f f2bc 94f5 5d3e a036 4d3e 27c4 0c3e
00000140: 5755 44be 71fb 063f e76e f23e b501 c03e
00000150: c4bb 033f d916 613f ea14 10be 8354 993e
00000160: f348 a3bd 7d52 6abe 5349 193f f4ed 6fbd
00000170: 59a5 213e e101 e13e e19d 0b3e 6770 d4bd
00000180: 2208 823e 18e1 cfbd b95f f03e 8e7c 92bd
00000190: 41be 083f 3fc9 9bbf 78fa 2c3d 373a 99be
000001a0: 8011 033e 9bdd c03d d10c 11bf 773c 97bf
000001b0: 7c40 453d 76f8 083f e700 b13d 965c 1f3e
000001c0: e37d 623e 00f1 9ebe a614 683e eeac 623e
000001d0: b4ee 983d 2977 10bf 4176 933e 3087 69be
000001e0: 2da8 adbe 61b5 8ebd 6c3b bdbd b9ed 0cbc
000001f0: 1177 7dbe 080d bfbe f58b 433e dd07 59be
00000200: 8cfd 663e 2fc8 11bc a3e1 7dbd 638f 6c3d
00000210: ae78 64be 23b1 8fbe 0233 98bc d3e3 483e
00000220: 7764 d2bd c69e 5b3e c8df 5d3d 9acd 8fbf
00000230: 919e f33c 134e adbe 1bcb be3e 0718 a53e
00000240: ed15 9abd 41fe 813d a675 433e a48e a4bc
00000250: 933a 98bd 0644 583e 0701 fabd 65af 2ebe
00000260: ac62 d33a 85b7 27bf bd02 33bd a406 80be
00000270: 9ac4 08be d3f3 34be f857 05bb 2bb3 793e
00000280: b820 313d f9bd 1d3b 6db9 fb3e 93b3 7e3e
00000290: e90d a93e ca58 913e a267 ad3d 098c 34bc
000002a0: 9e44 4e3e 51b0 64be 9078 e53e 7836 a1bd
000002b0: 65cb 29be 8ecd 84be 7805 1f3e 7d2f 9d3e
000002c0: 0540 e43d f8f4 823e 45a4 103e 7c80 e93d
000002d0: 4e03 f2bd e275 273f 728d 053f fb17 b7bd
000002e0: f5a9 dbbd f2b8 41be dfdb b9be 69dd 48be
000002f0: 1065 793e 4e94 ac3e 201a 2bbe 56a3 213e
00000300: 44a4 a2be e5c1 ac3b 150b 34bf 5eba 3dbd
00000310: 53bd 45be 3087 1b3d 8c6e ac3e 4d79 73bb
00000320: 0e55 80be c251 b6bd 2fb8 c43e 76b8 8abe
00000330: f2c7 94be 64a5 14be 0214 92be b50b 383d
00000340: 56fc edbd 2589 88be ed00 a0be 9768 42be
00000350: 503f 02bf 0513 1a3e 96ce dd3d 4149 d8bd
00000360: 3de8 303e 3889 91be 763b 0dbe 77f2 97bd
00000370: a17e 45bd 98fe c03c b8ae bc3e 25d0 843e
00000380: c858 1e3e 24d5 e5bd 9663 603e 2906 483e
00000390: 99cf 8dbd 45ab 2f3e 659b 013f de24 36bb
000003a0: 3145 fa3e de3e 123f d197 ad3d 746d aa3f
000003b0: 60d6 083e 2de2 553e a057 e73d 33b0 e03e
000003c0: ab4e 763c 6d93 1b3f d819 47be d3fb 343f
000003d0: c7b3 b13e c932 473d aba5 903c 0bcc a23e
000003e0: 1161 673e 1dd5 43bd 560e 153f 59b9 4dbe
000003f0: a69d da3d c2d7 7d3e e3ed 483e 7c36 253d
-0.05339755 0.105549745 0.14896879 0.051057797 0.07571875 -0.16262268 -0.21332833 0.0023244899
-0.052736674 -0.21521075 0.20323627 -0.03989076 -0.35837942 -0.1541738 -0.19311441 0.4453045
0.036881525 0.051354796 -0.031539615 -0.21601015 0.17271626 0.013440225 0.023147114 -0.065462865
-0.39385787 -0.24374352 -0.00090806675 0.04857635 0.23704866 0.1831114 -0.24223424 -0.48560885
-0.14046547 -0.5444408 -0.45185322 -0.20215927 -0.14558384 0.15897943 -0.118612476 -0.376891
-0.23405804 -0.24780829 -0.37773216 0.5805535 -0.40307644 -0.23353253 0.09930096 0.105738536
0.01723897 -0.3388635 0.13253997 -0.062827066 -0.105840206 -0.20472442 0.022278829 -0.24730779
-0.30236492 0.201923 -0.2312906 0.24096236 0.06404621 -0.557953 0.17807186 -0.07441688
0.34626678 0.17585173 -0.098652184 0.16456461 0.2525992 0.022284579 -0.10119697 -0.16150853
0.30047056 0.2831212 0.21147388 2.1682122 -0.02955595 0.21675712 0.20040369 0.13746701
-0.1917318 0.5272742 0.47350237 0.37501302 0.5145838 0.8792549 -0.14070478 0.2994729
-0.07972898 -0.2288303 0.5987751 -0.05857654 0.15785731 0.43946746 0.13634445 -0.103730015
0.2539683 -0.10150355 0.4694803 -0.07152663 0.53415304 -1.217079 0.042231053 -0.29927227
0.12799644 0.09417268 -0.5666018 -1.1815327 0.0481572 0.5350412 0.0864275 0.15562662
0.22118334 -0.31043243 0.22664127 0.2213628 0.07467404 -0.56431824 0.28801158 -0.22805476
-0.3391737 -0.06968189 -0.092398494 -0.008601599 -0.24752451 -0.3731463 0.19096358 -0.21194406
0.22557658 -0.008897825 -0.061982762 0.05775393 -0.2231166 -0.28064832 -0.01857901 0.19618158
-0.102730684 0.21447286 0.054168493 -1.123462 0.029738696 -0.33848628 0.37264332 0.32244894
-0.07523713 0.06347323 0.19087848 -0.020087548 -0.07433047 0.21119699 -0.12207227 -0.17059095
0.0016127429 -0.65514404 -0.043703783 -0.25005066 -0.13356248 -0.17671137 -0.0020346623 0.24384753
0.043244094 0.0024069531 0.49164906 0.2487319 0.33018425 0.28388053 0.08467032 -0.011019715
0.20143363 -0.22332884 0.44818544 -0.07871717 -0.16581495 -0.25938076 0.1552943 0.30700293
0.11145023 0.2557752 0.14125164 0.114014596 -0.118170366 0.6541425 0.52168953 -0.08940121
-0.10725776 -0.18918207 -0.3630056 -0.19615711 0.24354959 0.33706897 -0.16709185 0.15784964
-0.3176595 0.0052721375 -0.7032941 -0.04632031 -0.19310503 0.03797072 0.3367809 -0.0037151158
-0.25064892 -0.08902313 0.3842177 -0.27093858 -0.29058796 -0.14516217 -0.2853089 0.04493304
-0.11620395 -0.26667133 -0.31250706 -0.1898521 -0.5087786 0.15046318 0.10830419 -0.10560847
0.17276092 -0.28425002 -0.13792214 -0.074192934 -0.048216466 0.0235589 0.3685205 0.25940052
0.15463555 -0.11222294 0.21912989 0.195336 -0.06924362 0.17155178 0.5062774 -0.002779297
0.48880914 0.5712718 0.08476222 1.3314652 0.13363028 0.2088706 0.1129601 0.4388443
0.015033404 0.6077183 -0.19443452 0.70696753 0.34707472 0.048632417 0.017657122 0.31796297
0.22595622 -0.047810663 0.58225 -0.20090236 0.106746 0.24789336 0.19621997 0.040335163

bilstm.weight_ih_l0_reverse f4 [64, 32]
00000000: 9b9e 1ebe 16e5 4cbe 4f6f 253d c048 40bc
00000010: 55d9 07be af38 bd3e 3e00 5d3e f18a 003f
00000020: afd0 963e 9660 983d 1bd5 6fbe 874e 123e
00000030: fbb1 333a 9c04 b9bd a474 c43e b6df 1abe
00000040: b966 dfbc e468 64be 5e62 b63e 8ae6 e6bc
00000050: 1a3d 863d 25f7 9d3e 9963 f73e b65a 533e
00000060: 0958 13bf 2c7e c23d 91fc 553e 654d 11bf
00000070: 52b5 46be 9776 4c3d 5f76 893e e4e6 04bf
00000080: 317b 583d 8581 303f d5be 193f 6dce 003e
00000090: f642 103f 8ab7 2dbf 8e95 d93d 3bad eabd
000000a0: 00bd e43e db40 893e cdbb ac3e c08c 4cbf
000000b0: ce1b 643e 4606 d53e a2c7 3c3e a0e2 323f
000000c0: 3151 263e 3d4e 983f ec31 413d 6e1e a13e
000000d0: 99ea a2be ae2d 653f 9ca4 d1bd 4df5 f33e
000000e0: 9433 323f 1663 17bf 1486 26be 61c9 c4bc
000000f0: 6cd8 073e 7d28 4abd be34 b6bc 6d58 b53c
00000100: a123 16be e5ea edbe 4a03 3cbf 2950 7ebd
00000110: eb9b 05bf b828 5c3e b36a 92be cbda e0be
00000120: 0b8c babe f853 43be c87a 06bf 2884 553e
00000130: ba7c 4b3d 5f8c fc3d 9830 86be 5ba2 4cbf
00000140: 769e 1fbe 776e e4bc 68b4 abbd dde0 b83d
00000150: 1ec9 243e 58cd b7bd bb5d 5f3c 6ffa c5be
00000160: c539 debe 7da3 2a3f e058 a63d 5757 e43d
00000170: bbe9 aebd 07a6 b4be 0308 8cbe e27e 0bbe
00000180: 7a54 90be 25ce 79be ee9b b43b 4a17 823e
00000190: 8862 783e 34ea 813f dc42 96bd 8a14 cf3d
000001a0: b52e 923e df92 25be 5b64 9cbe 36e4 52bf
000001b0: fb45 4739 f5cc 5d3d 04b8 2f3e 44c5 f33c
000001c0: ad91 dd3d a259 053e 4da6 de3c 7832 803c
000001d0: e2bd 0a3d f5d6 0d3d 67b3 4abc f5af 14be
000001e0: 58a9 54be cc90 ef3d d020 183e b958 da3e
000001f0: 2f89 7f3e 81c7 653e 521b 303f c096 bbbe
00000200: 84b2 2c3e 927e 8ebe 1183 b63a 53b1 623e
00000210: 3584 e7bd 9b81 c9be d068 0dbe 34c4 9cbe
00000220: 79e8 02be 95de 673e 6c62 debe b7ff 6f3f
00000230: e2f7 0c3b e764 b73e 1b59 a33d 7941 263e
00000240: 0a1e fc3d dac1 213d 5a5b 333e 9fc5 87be
00000250: b446 333f 3be4 be3e c806 00be 8a2c 873d
00000260: 3fdb b13e e35c 02bf 890d 863d 29ca ac3e
00000270: 611c 00b9 8117 bb3c 7197 39bd 1daa 933e
00000280: dc34 693e 0398 b0bd 8367 a43e a8d6 b4bd
00000290: e7d9 103f af55 22bd f4ee a2be e871 eebc
000002a0: 0882 2d3e e647 0bbe dccd 18be 7fcd 723e
000002b0: 1271 67be 50c8 14be 249a aa3d 89c4 473d
000002c0: 298a 21be 29ad f83d 477f 36be a079 f7bc
000002d0: d406 7d3e 0cc8 8b3f 30be ffbd 4abc 64be
000002e0: c6c7 283f 9160 7c3e 89af d43e db06 c1be
000002f0: 7995 26be dbbf 6e3e 0623 953e ac7b b5be
00000300: 6285 6cbd 6f54 8b3e 3aa3 8cbd 86e0 05be
00000310: c432 743a 3114 49be 2ee4 cebd 5ba6 bd3d
00000320: 76fb 59be 5dbb 83be 4134 543e 69e8 16bf
00000330: 730e 65be dd71 50be 4390 6abe 405a 38be
00000340: 4950 643e 00ac 05be 2e72 3f3e 8b93 26bd
00000350: 7ed5 a2be d41b 83be a60f 18bc 52bc 5fbe
00000360: e933 a33d 9c91 4cba 0208 3cbe 6820 863e
00000370: a030 8d3d 6391 d5bd 5026 093e d767 28bc
00000380: e677 163d 3409 0cbc 3ba2 0ebd 9a05 863e
00000390: c3f1 3cbc 9826 3cbd 193a d9bd 8435 1a3d
000003a0: 7c75 9fbd d27b 4cbd 8ce4 e53d 63fd 87be
000003b0: 346e a8bd 91e2 d9bd 3bd5 f0bd 13f3 f53e
000003c0: 8b1f 2fbe 89e9 e7bc b08c 183e ae1e 633e
000003d0: 9bfa 473d 0c2d 59bc 6a7c a4be 8c4d 4d3d
000003e0: b2e3 d13e 5d58 0abe 1c35 3b3d c14b 91bd
000003f0: 8de3 203e 9224 02bd f4c3 88be fdc9 013e
-0.1549019 -0.20009264 0.040389355 -0.011736095 -0.132665 0.3695731 0.21582124 0.5021201
0.29456088 0.07440297 -0.23421137 0.14287768 0.0006854829 -0.09034082 0.3837024 -0.15124401
-0.027270662 -0.22305638 0.35621923 -0.028186101 0.06554623 0.3085262 0.48318174 0.20640072
-0.57556206 0.094967216 0.20897128 -0.5675872 -0.19405106 0.049917784 0.26848122 -0.5191481
0.05285186 0.6894763 0.6005681 0.12578745 0.56352174 -0.67858183 0.106242284 -0.11458822
0.44675446 0.26807293 0.3373703 -0.7990227 0.22276232 0.4160635 0.18435529 0.6987705
0.1624191 1.1898876 0.04716675 0.31468529 -0.3181961 0.89522827 -0.10236475 0.47648087
0.6960995 -0.5913557 -0.16262084 -0.024021806 0.13266152 -0.04935502 -0.022241946 0.022136891
-0.14662029 -0.46468273 -0.7344252 -0.062088165 -0.52191037 0.21499908 -0.2859703 -0.43916926
-0.3643497 -0.19075 -0.525311 0.20851195 0.049679495 0.12331461 -0.2620895 -0.79935235
-0.15587792 -0.027884705 -0.08384019 0.09027264 0.16092345 -0.08974713 0.013633187 -0.38667628
-0.4340345 0.66655713 0.0812242 0.11149471 -0.08540674 -0.3528292 -0.27349862 -0.1362262
-0.2818945 -0.24395044 0.0055117523 0.25408393 0.24256337 1.0149598 -0.07336971 0.101113394
0.2855126 -0.16169308 -0.30545315 -0.8237947 0.00019004189 0.05415054 0.1716004 0.02975715
0.10818801 0.13022473 0.027178908 0.015649065 0.033872493 0.034628827 -0.012371874 -0.14520247
-0.20767725 0.1169754 0.14856267 0.42645815 0.24954675 0.22439386 0.6879169 -0.3663845
0.16864973 -0.2783094 0.0013924559 0.22137956 -0.11304513 -0.39356694 -0.13809514 -0.3061844
-0.12783994 0.22643502 -0.43434465 0.93749565 0.0021510054 0.3581917 0.0797598 0.16235913
0.12310417 0.039491512 0.17515317 -0.2651796 0.7002976 0.372835 -0.12502587 0.06600292
0.34737584 -0.50922984 0.065455504 0.33747986 -0.00012217603 0.022838356 -0.04531044 0.28840724
0.2277407 -0.08622744 0.32110223 -0.08830005 0.5658249 -0.039632495 -0.31822932 -0.02910705
0.16944134 -0.13601646 -0.14922279 0.23711203 -0.22601727 -0.14529538 0.08330181 0.048771415
-0.1577536 0.12142403 -0.1782199 -0.030209363 0.24709636 1.0920424 -0.12487447 -0.22337452
0.6592983 0.24646212 0.41540173 -0.37700543 -0.16267957 0.23315375 0.29128283 -0.35445917
-0.05774439 0.27212855 -0.068670705 -0.1307393 0.0009315426 -0.19636609 -0.101021156 0.092602454
-0.21287331 -0.25728884 0.20723058 -0.5894838 -0.22368793 -0.20355935 -0.22906594 -0.18003178
0.22296251 -0.13053894 0.186959 -0.04066805 -0.31803507 -0.2560717 -0.009281075 -0.21849182
0.079688855 -0.000780368 -0.1836243 0.261966 0.0689404 -0.10428121 0.13393521 -0.010278664
0.036735438 -0.008547116 -0.034822684 0.2617615 -0.01153225 -0.045935243 -0.106067844 0.037648693
-0.0778608 -0.04992277 0.112252325 -0.26560506 -0.082241446 -0.10638917 -0.117594205 0.48037013
-0.17101876 -0.0283096 0.14897418 0.22179672 0.04882298 -0.013255369 -0.3212617 0.050122783
0.4099403 -0.1351027 0.045704946 -0.07094527 0.15711804 -0.031773157 -0.26712 0.12674709

parallel_cnn_block.branches.0.0.weight f4 [1, 1, 2]
00000000: 40c3 fa3e 47f5 1e3f
0.4897709 0.62093014

parallel_cnn_block.branches.0.2.bias f4 [16]
00000000: 44ea ec3b 7b43 233f 037f 25bf 24e6 1e3e
00000010: fee7 243b 9130 19be 752c bebe d819 0c3e
00000020: 1ab3 b9be ef48 c53e 26a6 d53e 4b44 66bf
00000030: d222 063d 1ae8 b63d ef56 0d3e a981 ab3e
0.007230075 0.6377484 -0.6464693 0.15517479 0.0025162692 -0.14959933 -0.37143293 0.13681734
-0.36269456 0.38532206 0.41728324 -0.89947957 0.03274805 0.089309886 0.13802694 0.3349736

parallel_cnn_block.branches.0.2.weight f4 [16, 1, 2]
00000000: 9199 ee3e 69b7 16bf 348d 00be 22e4 f73e
00000010: d2ef 0f3f 9bb8 a8be ce57 603e f265 79be
00000020: d3e6 33be b8ed be3d 30f4 0e3e 61dc d8bd
00000030: 597a 8d3d 8f7a 46be d30c 043f 7416 e8be
00000040: 6fb5 bd3c 053a ef3d eb1f 023d 8ef3 fdbe
00000050: 1a08 e43e 00b0 1ebf b63f 303d d8ae ca3d
00000060: 8de6 d93e c089 1fbf 1e8a 113f a9d2 0fbf
00000070: 08d4 30be ccf5 063e 54e6 babf 9e5b ed3e
0.46601537 -0.5887361 -0.12553865 0.4841624 0.5622531 -0.32953343 0.21908495 -0.24355295
-0.17568521 0.09322685 0.13960338 -0.10588909 0.069081016 -0.1938269 0.5158207 -0.4532963
0.023157803 0.11680988 0.03176872 -0.4959988 0.4453743 -0.61987305 0.04302951 0.0989663
0.4255871 -0.62319565 0.56851375 -0.56180817 -0.17268384 0.13179702 -1.460154 0.4635896

parallel_cnn_block.branches.1.0.weight f4 [1, 1, 4]
00000000: 166f 54bc 761b 173f 7555 88be 40af aa3c
-0.012965938 0.5902628 -0.266277 0.020835519

parallel_cnn_block.branches.1.2.bias f4 [32]
00000000: b3f5 573d 8c1c a43d 27ea f13e 45c1 213c
00000010: b3af ef3b 953b 3fbf 5cb9 2e3e 77d2 a0bd
00000020: 78db 53be 5a98 f0be 5d88 173e 270f f23e
00000030: 50b4 f83e a316 07be f4f7 dfbe 85ef cbbe
00000040: a44c 8e3e 3741 72bc 0443 643e 980f 263d
00000050: 6883 31be 3bee 5abb 9f9d a9be c9ba 57bc
00000060: 4155 5b3e acfc 083f 3f90 6ebe cbe6 cf3e
00000070: d43c 12bf b470 06be a63b 293d bf20 1abb
0.05272455 0.080132574 0.47248957 0.009872739 0.007314646 -0.7470029 0.17062896 -0.07852643
-0.2068919 -0.46991235 0.14798112 0.47277185 0.48575068 -0.13192229 -0.4374386 -0.39831176
0.27792847 -0.014786056 0.2229119 0.040542215 -0.17335284 -0.0033406157 -0.33128068 -0.013167092
0.2141924 0.53510547 -0.23297213 0.4060577 -0.57124066 -0.1312893 0.04131665 -0.0023518053

parallel_cnn_block.branches.1.2.weight f4 [32, 1, 4]
00000000: 0f42 0ebf 5d91 a43e 2103 523e 2ed6 583e
00000010: dd91 3bbf c389 e1be b4c3 ca3e b98e 5c3c
00000020: 714a bf3b 53bd f4be 6b4b 7b3e 17d7 d53e
00000030: db0a eebe ef4b 9b3d 7631 9c3e 8f54 a3bf
00000040: ba3f 17bb fe1d 35bd 7c6a 173f 505b e4be
00000050: 9792 6dbe 32ff fd3e 0570 c4bd 6130 22be
00000060: abdc d0be 8142 ff3e f9ac a1bd 2df3 0d3e
00000070: 5266 3c3e c87a 3a3e bd8d e63e b9b4 42bf
00000080: e77c 2f3c 860a 9e3b d7ea 3b3f 0543 27bf
00000090: ab88 a73e c8d8 b7be 41e1 8d3e d908 cbbc
000000a0: 135c 353e 4f2e 2a3f 6814 0cbf 5981 08be
000000b0: f573 2abd 837f ba3e c9a5 ddbe 160b 363e
000000c0: 54ac 4b3e 20d4 b2be a56f 7c3d cc6b 743e
000000d0: 1f75 05bf 1778 013e f9ba 403f 0d7d 16be
000000e0: 809b 0b3e 1ca9 053e 164c 65be dadb 0b3f
000000f0: 3244 15be 2ee3 9dbc c207 23be 2366 ffbd
00000100: 199c 14be 23c7 003f 7f6c 6dbf fbcd 0e3f
00000110: 0bf3 82be feaa 313e 0606 993e a8d8 003e
00000120: d560 8c3e 79e0 88bf 21d1 7fbc 26ba 10bf
00000130: f8fe c7bc ce61 ff3e 5856 c4be d61e 10bd
00000140: 23f0 f83c ba37 05bf 8024 773e 21d7 ae3e
00000150: eb05 93be 8f0c 443e 1447 0e3f 075e d4be
00000160: d0b0 ab3e 884c fb3e bc54 69bf b6cd eebc
00000170: 77cd 33bf 6cfd 5c3f 2248 5abe 3cc6 c63c
00000180: 9665 393e b8e0 913d 8fb2 0ebe 6091 45be
00000190: 326b e43c 4912 ccbe 5f1e 6f3e e9ff 7b3d
000001a0: c526 5d3c 2b46 623e 6de3 26bf cf1d 273f
000001b0: 66db c2be 3cbc f2be b329 473e 38a1 d2bd
000001c0: 290e c4be 8dd0 663f c30a b8be 1526 ef3d
000001d0: f0e4 05bf 2fd5 cab9 0262 003f 8164 a73d
000001e0: 965f f2be d816 7abd ce2e a33e 3b69 123e
000001f0: aa0a c03e b45a 90bc 069c 50bc 9888 963e
-0.5556955 0.32142153 0.20509006 0.21175453 -0.73269445 -0.44050416 0.39602435 0.013461762
0.0058377315 -0.47800693 0.24540488 0.41765663 -0.46492657 0.075828426 0.30506486 -1.276018
-0.0023078755 -0.044218056 0.5914686 -0.44600916 -0.23200451 0.4960876 -0.095916785 -0.15838768
-0.40793356 0.49855426 -0.0789432 0.13862295 0.18398407 0.182109 0.45030013 -0.7605701
0.010710931 0.004823032 0.7340521 -0.6533664 0.32721457 -0.35907578 0.27710918 -0.024784492
0.17710905 0.6647691 -0.5471864 -0.13330592 -0.04161449 0.3642541 -0.43290547 0.17777666
0.19889957 -0.34927464 0.06162991 0.23869246 -0.5213184 0.12643467 0.752853 -0.1469614
0.13633537 0.13052791 -0.22392306 0.5463234 -0.14576796 -0.019273367 -0.15920928 -0.12470653
-0.14512672 0.5030386 -0.92743677 0.5578305 -0.25576052 0.17350385 0.29887408 0.12582648
0.27417627 -1.0693504 -0.015613825 -0.5653404 -0.02441357 0.49879307 -0.38347125 -0.035185657
0.030387944 -0.52038157 0.24135017 0.34148505 -0.28715453 0.19145416 0.55577207 -0.41477987
0.33533335 0.49081826 -0.9114492 -0.029150825 -0.7023539 0.8632419 -0.21316579 0.024264447
0.18105158 0.0712294 -0.13935302 -0.19293737 0.027883146 -0.398577 0.2335143 0.06152335
0.013498013 0.2209708 -0.65190774 0.6527986 -0.38058013 -0.47409236 0.194495 -0.10284656
-0.38292053 0.90161973 -0.3594571 0.116771854 -0.52302456 -0.00038687277 0.5014955 0.081734665
-0.4733855 -0.06105694 0.31871647 0.14297955 0.37508136 -0.017621376 -0.012732511 0.29401088

parallel_cnn_block.branches.2.0.weight f4 [1, 1, 8]
00000000: 566a 95bc ea8b 913c 6d34 49be 4a79 023f
00000010: abdd 643e 0b6a 20be 555e 213d fcd6 b2bc
-0.018239181 0.017766912 -0.19648905 0.5096632 0.22350185 -0.15665452 0.039396603 -0.021831028

parallel_cnn_block.branches.2.2.bias f4 [64]
00000000: f341 ec3d 8780 16bf 1be3 a6bd cdf6 56bf
00000010: 5187 0c3e 5998 21be f36b cabd 4be7 31bf
00000020: 386d ef3e 1aa2 963e 3560 e03d 36ae 96bb
00000030: 14ee 473c 2ad2 07bd 6013 823e 0ba6 a43d
00000040: 994a 1abf ee82 8a3d 7431 733e b4c3 4a3d
00000050: c234 593d 10a8 303d d59b af3e a2f3 9bbe
00000060: 09ff bbbd 8bed bb3d 093c ea3c 86c1 4b3e
00000070: 19b5 8d3e 412e c53a 955a 17bf 1b77 00bf
00000080: fcde 3b3e aa43 e9bd c373 013d 5f37 d23e
00000090: ad5e 4a3e 0031 b13e 561c 8ebf 69e6 8e3e
000000a0: 1949 68bd 21a1 3f3e 789c 943e 0d19 b13d
000000b0: 64ad bebe b939 d03d 21ec a33e 0f7b 31be
000000c0: 7918 d3bf 0780 41be 0e36 44bf 2070 853e
000000d0: 350a 033e b40e ebbd c173 99be 05ad 99bd
000000e0: f996 40be aaaf 7bbe 4406 24bc 8cf7 d63b
000000f0: 98c7 9f3d 2fc2 c13e 262b 0fbe 3b3a e43c
0.11536016 -0.5878987 -0.08148786 -0.8397034 0.13723494 -0.15780772 -0.09883871 -0.6949355
0.46763015 0.2942055 0.1095585 -0.0045984043 0.012202758 -0.033159412 0.25405407 0.08039483
-0.60270077 0.06763254 0.23749334 0.049503043 0.05302883 0.043129027 0.34298578 -0.30459315
-0.091795035 0.09176167 0.02859308 0.19898042 0.2767723 0.0015043692 -0.5912259 -0.5018174
0.1834678 -0.11389859 0.03160454 0.4105787 0.19762678 0.34607697 -1.1102397 0.27910164
-0.056710336 0.1871381 0.29025626 0.08647356 -0.37241662 0.1016726 0.3201609 -0.173321
-1.6491843 -0.18896495 -0.7664498 0.26062107 0.12796862 -0.11477414 -0.29971126 -0.07503704
-0.18807591 -0.2457873 -0.0100112595 0.0065602716 0.07801741 0.37843463 -0.13981304 0.027859798

parallel_cnn_block.branches.2.2.weight f4 [64, 1, 8]
00000000: ca73 c3be 2fae 17be 92c1 8e3e 42fb 9bbe
00000010: 63c4 8b3e ec42 3dbe fbf4 7a3e 7fd9 f73d
00000020: 7f93 d03c 3f98 febc e3bc bb3e 527b cfbe
00000030: 82d3 8e3e 7853 f3bd e04f 8c3e bab1 8abe
00000040: 1381 0ebf 218c 28bf fd57 b73e 6635 6b3c
00000050: 1023 de3c 493b 413e 099e 893e 9a51 e6bd
00000060: 1710 973e 398f b93d 83e0 79be 1bb2 113e
00000070: e4fe febb 2521 303e f0fe 7fbd 80c7 aebe
00000080: 3bc0 13bf df82 b5be 9c47 80bd 1ea1 ac3e
00000090: 49be d03e 4b99 bb3e 40f0 04be 05e6 b23c
000000a0: 171b 323e 292d 083e 8f42 82be e860 18bf
000000b0: 76ed a0bd dd3b f53d 17a8 ebbc 4348 7dbc
000000c0: f7ff 16bd 0663 463e 4d41 c2bc 2e22 a7be
000000d0: 7299 363e a318 673d 12d2 3a3d 33f2 2bbd
000000e0: d633 9d3e 40d0 68bc 3a53 01bf 2c96 b1be
000000f0: 8a3a 753e 808c 803e 6389 963d 94d9 d73d
00000100: c439 1f3e a9be 93be d8db d93e fb95 5dbe
00000110: 1026 03be 09c8 483e 33e5 35bb d573 e7bd
00000120: 592c 733b 11ea 2f3e 5a3c 9cbe c182 7dbe
00000130: 6e9e a8be bb6e 4a3e e219 a03d 16e0 823e
00000140: 5ce5 01bf 9b1b 81be ef03 013c a75a b73e
00000150: 4386 62bd a220 a2be 6bf5 693e 1023 203e
00000160: 611a 263e 36b7 8bbe 1378 613e 4692 c6bd
00000170: da40 98bc 380f 16be 84a5 d0bb d905 753d
00000180: 071a fa3d 729f 1fbf 44cc b3be 6ce0 043f
00000190: 37e2 8dbe 51ac 7b3e 8ad6 383e 2b5f 0d3e
000001a0: ea10 c93c 71da 933e aa89 0e3e 396c 88be
000001b0: 7dd4 cb3e f6dd 04bf 90cf e0be f913 9f3d
000001c0: 76b4 a6bc d681 813e fb50 293e 788f 53be
000001d0: db01 b4be b9d6 1bbe fda0 debc 874a a33e
000001e0: 2c89 b03e 3f7b 0b3d 39db 223e f77e 133e
000001f0: 61b2 3e3e dcb4 1dbe ac18 e4be d468 9dbe
00000200: e4fc fbbb 279a 683e 3fdd b73e e157 033e
00000210: c1a4 32be 9f28 f6be 57f2 c2bc aa2f 7f3c
00000220: d5cb ac3d e974 5c3b 172b f83d 646f debd
00000230: 8eb4 0ebd 448e f43e 01c2 a3bf 76d0 2cbf
00000240: 9ba2 d0be 9b21 a0be 0203 02bf c64b 40be
00000250: 815a 9f3e 0c5a 8c3e d1a0 9d3d 6474 c3be
00000260: 2b79 04be 868a 60bd 4180 e33e ee81 903d
00000270: 139e c03e 28ae 43be 4185 f8bc 110e c5be
00000280: 0ded dbbe 6f5f 2d3d 1c84 9b3e 5d0b f1bd
00000290: 14e9 3dbe bd3c a53e 0788 fd3d d2dd 853c
000002a0: db3b a03d dbfc 873d bd2f b4be 960e 99be
000002b0: 994e ba3e 5c65 c33e 532c 34be 96c3 19bc
000002c0: 02e7 f4be ee77 33be a155 a8be 1e74 dc3e
000002d0: f9ce 1fbe 7ef8 183e 4f3b 83bd ed75 d73c
000002e0: b471 80bd 9000 373e df0e 0abe 9d98 47bd
000002f0: 125b 40bd dc5d e63e ae6b 653e 2f76 b4bd
00000300: b491 25be f2b4 41be f157 5cbe 40e8 c8bd
00000310: 571f 4dbe 9c4d 75be e0a9 b0be 79a5 20be
00000320: 2f42 df3d fcc4 e1bd c570 7cbe f855 50bf
00000330: 93cc a33c 3518 e33e 3aed 693e 990e 1dbe
00000340: e760 2d3e 70eb 58be 0ca1 4cbf 71f2 e73e
00000350: e2a2 643d a932 153e 627d 5b3d bc3d d13c
00000360: ffea 8dbe e044 6abf 9b28 49bf b4cb ce3c
00000370: 520b 093e bbfd b13c b717 85bc 8e41 e63d
00000380: c295 a93b ece8 783e b857 b1be afb0 22bf
00000390: e99c 953e d06b 6bbe 67d7 803e 3362 b53e
000003a0: cdfb 29be de2c 813e 6bd8 b63b f8c7 913d
000003b0: 67a0 00be edef 4c3e bf72 503d 04e6 f5be
000003c0: 5a3a fc3d ab8c b7be b090 ca3e 9e29 17bd
000003d0: c6e2 6abe 3bbd c03e 7bde c2bb f299 26be
000003e0: 1211 bc3d dcdf ad3e 3f0d 0cbf 849a fa3e
000003f0: d17a 58be 6a7e 7fbd 12b3 a73e bafb 87bd
-0.38174278 -0.1481254 0.27882057 -0.30465132 0.2729827 -0.1848256 0.24507515 0.12102031
0.025460957 -0.031078456 0.36667547 -0.40523773 0.27895743 -0.11881155 0.2740469 -0.2708872
-0.556657 -0.6583882 0.35809317 0.014355993 0.027116328 0.18870272 0.26878384 -0.11246033
0.29504463 0.09060521 -0.2440205 0.14228098 -0.00778185 0.17200144 -0.062498987 -0.3413658
-0.57715195 -0.3545141 -0.062636584 0.33716673 0.40770176 0.3664039 -0.12982273 0.021838197
0.17393146 0.13298477 -0.25441405 -0.5952287 -0.07857792 0.11974309 -0.028766675 -0.015459123
-0.0368652 0.19373712 -0.023712778 -0.32643265 0.17831972 0.05641998 0.045610495 -0.041979026
0.3070361 -0.014209807 -0.5051762 -0.34684885 0.23948112 0.25107193 0.07350423 0.105395466
0.1554938 -0.288564 0.4255054 -0.21639244 -0.12807488 0.19607557 -0.0027755022 -0.1130139
0.003710529 0.17179133 -0.30514795 -0.2475691 -0.32933372 0.19768803 0.07817437 0.2556159
-0.507406 -0.25216374 0.007874473 0.3581135 -0.055303823 -0.31665522 0.22847526 0.15638375
0.16221 -0.27288216 0.22018461 -0.09695868 -0.018585611 -0.14654243 -0.0063673873 0.05982003
0.122119956 -0.6235267 -0.3511678 0.5190494 -0.2771165 0.24577452 0.1805059 0.13805835
0.024544198 0.28877595 0.13919702 -0.26645067 0.39810553 -0.51901186 -0.43908358 0.07767481
-0.020349722 0.2529437 0.16534798 -0.20660198 -0.35157666 -0.15218629 -0.027176375 0.31892797
0.34479654 0.034053084 0.1590394 0.14403902 0.18622734 -0.15401024 -0.44550073 -0.3074404
-0.007690059 0.22715054 0.35910985 0.12826492 -0.17445661 -0.48077866 -0.023797197 0.015575329
0.084373154 0.003363902 0.12117594 -0.1086109 -0.03484016 0.4776479 -1.279358 -0.67505586
-0.40749058 -0.3127564 -0.5078584 -0.18778905 0.31123737 0.2741245 0.07696689 -0.38174736
-0.12936847 -0.054819606 0.44433787 0.07056032 0.376206 -0.19109404 -0.030336978 -0.38487294
-0.42954293 0.04232734 0.3037423 -0.117697455 -0.18545943 0.32272902 0.12379461 0.016341124
0.078239165 0.06640025 -0.3519267 -0.2989394 0.3638809 0.3816327 -0.17595033 -0.00938501
-0.47832495 -0.17526218 -0.3287783 0.4305734 -0.15606298 0.14938542 -0.064077966 0.026301349
-0.06271687 0.17871308 -0.13482235 -0.048729528 -0.04696185 0.44993484 0.22404358 -0.08811604
-0.16168863 -0.18916681 -0.21517922 -0.09809923 -0.20031486 -0.23955387 -0.34504604 -0.15688123
0.109012954 -0.110239 -0.24652393 -0.8138118 0.01999501 0.44354406 0.22844401 -0.153376
0.16931497 -0.21183562 -0.7993324 0.45302156 0.0558194 0.14570107 0.05358637 0.025542133
-0.2771835 -0.91511345 -0.78577584 0.025243618 0.13383225 0.021727433 -0.01624666 0.11242972
0.005175323 0.24307603 -0.34637237 -0.6355085 0.29221275 -0.22990346 0.2516434 0.35426483
-0.1659996 0.25229543 0.0055799983 0.07118219 -0.12561189 0.200134 0.05089068 -0.4802705
0.12315817 -0.3584951 0.39563513 -0.036904924 -0.2293807 0.3764437 -0.005946932 -0.16269663
0.091829434 0.33959854 -0.5470771 0.4894601 -0.211406 -0.062376417 0.32753807 -0.0663981

parallel_cnn_block.branches.3.0.weight f4 [1, 1, 32]
00000000: d9ee 7ebd 9146 11bd 6970 143c 779f 23bd
00000010: 8ffd 68bd 196f c9bc 70d3 5ebc 767b b8bd
00000020: 2f1b a43c 4712 38bc 7b78 86bd b0cb 06bd
00000030: 4a31 8dbd 2a67 96bd b990 8b3d 79c3 20bd
00000040: b1a4 7abd 3650 14bc 92c2 89bb 1e26 1ebc
00000050: d633 5c3d 2c75 d83d e175 9c3c c5b1 153e
00000060: 9acb 393e 26fa 203e 3bdf 80bd 1fdb a7bd
00000070: 8b9e 9abd d026 af3d c010 fa38 f8aa d0bc
-0.0622395 -0.035467688 0.009060004 -0.039947 -0.056882437 -0.024589108 -0.013600215 -0.09007923
0.020032493 -0.011234826 -0.065659486 -0.032909095 -0.06894167 -0.07343896 0.06814713 -0.039248917
-0.06119222 -0.009052327 -0.004204103 -0.0096526425 0.053760372 0.10569224 0.019099178 0.14618595
0.18144074 0.15720424 -0.06292578 -0.08196091 -0.07549771 0.08552325 0.00011924049 -0.02547215

parallel_cnn_block.branches.3.2.bias f4 [16]
00000000: 7dca 9c3e 35af 3fbe 9053 ee3c 2afb 2a3b
00000010: da0e 913e f317 353e a602 613e 6ab9 2f3d
00000020: bd3d 023f f3b5 c7bb d0b9 dd3e e682 7e3c
00000030: d700 6b3e 4f28 cd3e efc5 09be 9489 f73d
0.30623236 -0.1871918 0.02909258 0.0026089647 0.28331643 0.17684917 0.21973667 0.042901434
0.50875455 -0.006094688 0.43305826 0.015534138 0.22949539 0.40069816 -0.13454412 0.12086788
