cross100/narrow/primogiro.safetensors (safetensors, 86192 bytes, 32 tensors)

0.conv_2_16.conv.bias f4 [16]
0	0x3f0b57da	0.54430926
1	0xbefb5a78	-0.4909246
2	0x3f0baa4f	0.54556745
3	0xbd145518	-0.036213964
4	0x3f0a3e79	0.54001576
5	0x3f1517cd	0.5823944
6	0x3ec51a28	0.38496518
7	0xbf33a49f	-0.70173067
8	0x3f0f756b	0.5603854
9	0x3f33e338	0.70268583
10	0x3eb6d72d	0.3571104
11	0xbe3a4c95	-0.18193276
12	0xbe761350	-0.24030805
13	0x3db59840	0.0886693
14	0x3dca79cc	0.09886512
15	0x3e12fee5	0.14355047

0.conv_2_16.conv.weight f4 [16, 1, 2]
0	0x3eb1c44c	0.34720075
1	0xbf1580b3	-0.58399504
2	0x3f2dca5a	0.6788689
3	0x3ebca21a	0.36842424
4	0x3ed078b2	0.40717083
5	0xbea7f681	-0.32805255
6	0xbe4586b2	-0.19289663
7	0xbd93b5ed	-0.07212434
8	0x3ee3d521	0.44498542
9	0x3ebaac0b	0.36459383
10	0xbe1ffbc5	-0.15623386
11	0x3da71336	0.08157961
12	0x3dbea1c5	0.09308199
13	0xbf14158a	-0.57845366
14	0x3cf194cc	0.029489897
15	0xbef2d87b	-0.47430786
16	0xbe694489	-0.2278005
17	0x3f0321d4	0.5122349
18	0x3ebfc65e	0.3745603
19	0xbeee0c99	-0.46493986
20	0xbdee081e	-0.11622642
21	0xbcc0d692	-0.023539815
22	0x3c945c79	0.0181105
23	0x3eee155b	0.46500668
24	0x3ec0b247	0.37636015
25	0x3e8c38af	0.27386996
26	0x3f0c4c64	0.5480406
27	0xbb25bd3c	-0.0025289794
28	0x3efc0c7d	0.49228278
29	0x3e99483a	0.29937917
30	0x3f1e5d7c	0.61861396
31	0xbf04abb2	-0.51824486

0.conv_2_16.conv_bn.weight f4 [1, 1, 2]
0	0xbece62fb	-0.4030989
1	0xbf2178fe	-0.63075244

0.conv_32_16.conv.bias f4 [16]
0	0x3d2600cf	0.040528115
1	0x3df5eb92	0.12007822
2	0xbdad8d72	-0.08474244
3	0x3e2cd746	0.16878995
4	0x3da7b2a1	0.08188368
5	0x3df0f298	0.11765021
6	0xbd834bd7	-0.0641095
7	0xbc91aabc	-0.017781608
8	0xbd1364a4	-0.03598465
9	0x3dee5ba8	0.11638576
10	0xbd880243	-0.066410564
11	0x3cb9a303	0.022660738
12	0xbdda988e	-0.10673629
13	0xbe1e37bb	-0.15450947
14	0xbc30d73b	-0.010793502
15	0xbdc9a5d0	-0.09846079

0.conv_32_16.conv.weight f4 [16, 1, 32]
0	0xbc8e98d4	-0.017406859
1	0xbb9ff406	-0.004881385
2	0xbd83b4e1	-0.06430984
3	0x3d9df203	0.07712176
4	0xbdfde4ff	-0.12397193
5	0xbe1e2d7d	-0.1544704
6	0xbdda8882	-0.10670568
7	0xbe17542a	-0.147782
8	0x3d190d8a	0.037366427
9	0xbdef9636	-0.11698572
10	0xbdc905d9	-0.098155685
11	0x3beb3bdd	0.007178767
12	0x3d64845b	0.055790287
13	0x3d38c4b7	0.045109477
14	0xbd3f6299	-0.04672489
15	0x3ddf2fb5	0.10897771
16	0xbda3cd43	-0.07998135
17	0xbc42d8e7	-0.011892534
18	0xbd0d8ca0	-0.03455794
19	0xbda1ffb2	-0.07910098
20	0x3d24661c	0.04013644
21	0xbd58f90f	-0.052971896
22	0xbddf08c1	-0.108903416
23	0x3d39259c	0.045201883
24	0x3c7cf0c6	0.015438264
25	0xbdc357cc	-0.0953823
26	0x3c7e8e6e	0.015536888
27	0x3dee86a3	0.11646774
28	0x3dd7a8c6	0.10530238
29	0xbdca6d9b	-0.09884187
30	0x3e058d93	0.13042288
31	0xbe0848ad	-0.13308974
32	0xbd8afa0e	-0.067859754
33	0x3dfa5412	0.122230664
34	0x3e14d8a3	0.14535765
35	0xbde618e9	-0.1123522
36	0x3dfb3fbf	0.12268018
37	0x3e2f7958	0.17136133
38	0xbe1baba4	-0.15202194
39	0xbb6645b9	-0.0035136773
40	0x3de3a1c0	0.11114836
41	0xbc3bbb16	-0.011458179
42	0xbe2b17a1	-0.16708232
43	0xbde4bf29	-0.111692734
44	0xbd8c2dda	-0.06844683
45	0x3ded1a3e	0.11577271
46	0xbcc7a832	-0.024372194
47	0x3d9c6227	0.076359086
48	0x3da91e56	0.08257739
49	0x3dc056ea	0.093915775
50	0x3e02288b	0.12710778
51	0xbe20e8df	-0.15713833
52	0xbd97b33a	-0.07407232
53	0xbde97efb	-0.11401173
54	0x3e0098ae	0.12558243
55	0xbd4c100e	-0.04982
56	0xbe1ae22a	-0.15125337
57	0x3d9a94db	0.07547923
58	0x3cebd6cf	0.028788952
59	0x3d6adba7	0.057338383
60	0x3dd1a3ab	0.10236295
61	0xbd83c283	-0.064335845
62	0xbd0512d6	-0.032488666
63	0xbde640a3	-0.11242797
64	0x3d46950b	0.048481982
65	0x3de8a8e0	0.11360335
66	0x3dcfd5c6	0.10148196
67	0xbb174295	-0.0023080457
68	0x3dfd1103	0.1235676
69	0x3e336345	0.17518337
70	0xbe2b3b05	-0.16721733
71	0xbd064bfc	-0.032787308
72	0xbdb23245	-0.087009944
73	0x3d8eef24	0.06979206
74	0x3e0b0050	0.13574338
75	0x3e0e81a2	0.13916638
76	0xbd34a411	-0.04410178
77	0x3d97a75b	0.074049674
78	0xbcf63ee1	-0.03005928
79	0xbd82f90f	-0.063951604
80	0xbe095af4	-0.13413602
81	0x3d68b422	0.056812413
82	0xbcb80b03	-0.022466188
83	0xbd05bf9a	-0.03265343
84	0x3da313a6	0.07962732
85	0xbd96c658	-0.0736205
86	0x3dea0bff	0.11428069
87	0x3df9fbed	0.12206254
88	0x3e029cd3	0.12755136
89	0x3df7c8cd	0.120988466
90	0x3ca1e497	0.01976232
91	0x3e2a4cdb	0.1663088
92	0x3d84c773	0.064833544
93	0x3d29f606	0.04149439
94	0xbe18d49c	-0.14924854
95	0xbdd2c953	-0.10292306
96	0xbcdeeeeb	-0.027213534
97	0x3d97bc7b	0.07408997
98	0x3d87183a	0.06596418
99	0x3d860fcb	0.06545981
100	0xbd32d979	-0.04366443
101	0x3e2d5147	0.16925536
102	0x3df7c843	0.12098744
103	0x3de32bf1	0.110923655
104	0x3b8b8e92	0.004258939
105	0x3b11a618	0.0022224244
106	0xbe166b08	-0.14689267
107	0x3d33a50e	0.04385858
108	0xbd374add	-0.04474913
109	0xbcf36645	-0.029711852
110	0xbcd643aa	-0.026155312
111	0xbd82d113	-0.06387534
112	0xbcfcd4aa	-0.030863125
113	0x3cf8c52c	0.030367456
114	0xbd3acfaa	-0.0456082
115	0xbd3eba76	-0.04656454
116	0x3de080ee	0.109620914
117	0xbd43f5a2	-0.047841676
118	0x3e05a929	0.1305281
119	0x3b2edb0a	0.002668085
120	0x3e204d53	0.15654497
121	0xbd0b3d27	-0.033993866
122	0x3e0f84d1	0.14015509
123	0x3df7ae90	0.12093842
124	0xbd0adfdf	-0.033904906
125	0xbd94b2cd	-0.07260666
126	0xbd23d6ec	-0.039999887
127	0xbe0b2197	-0.13587032
128	0xbdc47883	-0.09593298
129	0x3e1cb43a	0.15303126
130	0x3d653928	0.05596271
131	0x3ce61078	0.028084025
132	0xba127382	-0.000558667
133	0xbe20bd6b	-0.15697257
134	0x3bb7ca88	0.0056088604
135	0x3e30a88b	0.17251794
136	0xbe2759e0	-0.16342878
137	0xbdc03c39	-0.093864866
138	0x3cf72264	0.030167766
139	0x3e2fd26c	0.17170113
140	0x3dd1097a	0.10206886
141	0x3db13565	0.08652762
142	0x3d65d57e	0.056111805
143	0xbd6f496c	-0.05841963
144	0x3dbaa00e	0.09112559
145	0x3de56f1e	0.112028345
146	0x3cb3d12e	0.02195033
147	0xbd3487b1	-0.044074718
148	0xbdcabb11	-0.09898961
149	0xbd5c9803	-0.053855907
150	0xbe1b6c3f	-0.15178011
151	0xbe10c7ba	-0.1413869
152	0xbd249cc5	-0.04018857
153	0x3c5e0061	0.013549895
154	0x3c9125f9	0.017718302
155	0xbd341a2b	-0.04397027
156	0xbd1265c9	-0.0357416
157	0xbd3b76d7	-0.04576763
158	0xbd889738	-0.06669468
159	0xbe2143ac	-0.15748471
160	0xbe05b666	-0.1305786
161	0xbe171a6c	-0.14756173
162	0xbd7c838f	-0.0616489
163	0xbd902ecf	-0.07040178
164	0x3d5d15ff	0.053976055
165	0xbdfa3474	-0.12217036
166	0xbc3d5426	-0.011555707
167	0x3d603f42	0.054747827
168	0xbdb387ea	-0.08766158
169	0xbdb3c129	-0.08777077
170	0xbd426304	-0.04745771
171	0xbdfac647	-0.1224485
172	0x3dad8b49	0.08473832
173	0x3de8895d	0.11354325
174	0xbd1fae49	-0.03898457
175	0x3e23c5ea	0.15993467
176	0x3d5ddf6f	0.05416816
177	0xbdbe98cf	-0.0930649
178	0xbddc873a	-0.1076798
179	0x3d25d256	0.040483795
180	0x3e134a9a	0.14383927
181	0x3d2e7033	0.04258747
182	0x3d46c81c	0.048530683
183	0x3dd77539	0.10520405
184	0xbdfeacaf	-0.124352805
185	0xbd0d86a6	-0.03455224
186	0xbd2b4f7e	-0.041823857
187	0x3d3e3e4a	0.046446122
188	0xbd97c609	-0.07410819
189	0xbd4c37c0	-0.049857855
190	0xbe30b26c	-0.17255563
191	0xbe1f5d2b	-0.15562885
192	0x3d4ffccf	0.050778206
193	0xbe181b81	-0.14854242
194	0xbd3da29d	-0.04629766
195	0x3e13434e	0.14381143
196	0xbdbe227d	-0.09283922
197	0xbd043f50	-0.032286942
198	0xbcab5301	-0.020913603
199	0xbd9acd4c	-0.075586885
200	0xbba5eee9	-0.0050638807
201	0xbc81a2dd	-0.01582473
202	0x3b924723	0.0044640466
203	0x3e021ef4	0.1270712
204	0xbd0bedb8	-0.034162253
205	0xbe079009	-0.13238539
206	0x3db962d7	0.09052055
207	0xbdb88455	-0.09009615
208	0xbe04b486	-0.12959489
209	0xbe118353	-0.14210252
210	0xbd48871f	-0.048956987
211	0xbde880b1	-0.11352671
212	0x3e0b9659	0.13631572
213	0xbe21e57d	-0.15810199
214	0xbdd2f891	-0.103013165
215	0xbd82ee38	-0.06393093
216	0x3c91eb09	0.017812269
217	0xbe1ffa0e	-0.15622732
218	0xbd351961	-0.044213656
219	0x3ce65805	0.028118143
220	0x3df252d2	0.11832203
221	0x3dd7916b	0.10525783
222	0x3d94627e	0.072453484
223	0x3ddc13fb	0.107459985
224	0x3df51bdf	0.119682066
225	0xbe349d0d	-0.17638035
226	0xbd8d62cf	-0.06903612
227	0x3d456552	0.04819233
228	0x3d00353f	0.03130078
229	0x3e058658	0.1303953
230	0xbe0cceec	-0.1375081
231	0xbd6ab5a0	-0.057302117
232	0x3d55ec6d	0.052227426
233	0x3dea9b9b	0.11455461
234	0xbd6b7ea7	-0.057493832
235	0xbde54d31	-0.11196364
236	0xbe1d8b93	-0.15385275
237	0x3daa66b3	0.083203696
238	0x3d847dbf	0.06469297
239	0x3dd795ba	0.10526605
240	0xbdcca9a2	-0.099932924
241	0xbe1de434	-0.15419084
242	0xbda31104	-0.0796223
243	0x3e109193	0.14118032
244	0xbcaee699	-0.021350192
245	0x3e2b9642	0.16756538
246	0x3e3428bc	0.17593664
247	0xbe098024	-0.13427788
248	0xbe18368e	-0.14864561
249	0x3d3e6632	0.04648418
250	0xbe174627	-0.14772855
251	0xbe109b0c	-0.14121646
252	0xbd155f95	-0.036468107
253	0x3e104e5d	0.14092393
254	0x3dab5ed4	0.083676964
255	0x3e272669	0.16323246

0.conv_32_16.conv_bn.weight f4 [1, 1, 32]
0	0xbded8c4d	-0.11599026
1	0x3de505b7	0.11182731
2	0xbd2ad19d	-0.04170381
3	0x3ca9fd4c	0.020750664
4	0xbd60856e	-0.05481475
5	0x3ddc5016	0.10757463
6	0xbe184f4c	-0.14874
7	0x3d340401	0.04394913
8	0xbcd14477	-0.025545342
9	0xbd9a7ea0	-0.07543683
10	0x3dea875a	0.114515975
11	0x3d23b6c0	0.039969206
12	0x3e3078ba	0.17233554
13	0x3d21a87c	0.03946732
14	0xbe0f8d0d	-0.1401865
15	0x3dd825a5	0.10554055
16	0x3e0918d9	0.13388385
17	0x3e0007b8	0.12502944
18	0xbcc40194	-0.023926534
19	0x3e0fdb7c	0.1404857
20	0x3df1b733	0.118025206
21	0x3de0386b	0.10948261
22	0xbd979769	-0.07401926
23	0xbcd0891a	-0.025456
24	0xbcb2958c	-0.021799825
25	0xbdbc33b3	-0.09189548
26	0x3e0cb67e	0.1374149
27	0xbdec2de8	-0.115321934
28	0xbdef5bc0	-0.11687422
29	0xbe2a21d1	-0.16614462
30	0x3dc7c35b	0.09754058
31	0x3df50f68	0.11965829

0.conv_4_32.conv.bias f4 [32]
0	0xbebb3bb2	-0.3656898
1	0x3d351320	0.044207692
2	0xbdac1c14	-0.08403793
3	0xbeb99a91	-0.36250737
4	0xbeb0fb22	-0.345666
5	0xbec2ed2b	-0.3807157
6	0x3dbd08c8	0.092301905
7	0x3ea1a9e4	0.3157493
8	0x3e967112	0.2938314
9	0x3e43e6f4	0.1913107
10	0xbe81e623	-0.25370893
11	0x3ed2f712	0.41204125
12	0xbea24896	-0.31696004
13	0x3e4032e0	0.18769407
14	0x3eb5cc96	0.3550765
15	0x3eaf4f52	0.34240204
16	0x3d32d840	0.043663263
17	0x3e05ca8c	0.13065547
18	0xbee902d8	-0.45509982
19	0x3ec31d34	0.38108218
20	0xbe85db5c	-0.2614392
21	0xbeac3173	-0.33631477
22	0x3d3a7ad0	0.04552728
23	0x3efd62f6	0.49489564
24	0x3d83a1e0	0.064273596
25	0xbd8103c0	-0.062995434
26	0x3eea681e	0.4578256
27	0x3ee758ac	0.4518484
28	0xbe54fcf0	-0.20799613
29	0xbdc4067c	-0.09571549
30	0xbdc8387c	-0.097763985
31	0xbe71ed86	-0.23625764

0.conv_4_32.conv.weight f4 [32, 1, 4]
0	0x3e4d0350	0.20020795
1	0x3eb35c90	0.35031557
2	0xbe5c29e6	-0.21500358
3	0x3e1fbbd8	0.15599
4	0x3edad704	0.4274217
5	0xbedbdf1a	-0.4294365
6	0xbdcd3900	-0.100206375
7	0xbd349da8	-0.044095665
8	0xbcb018a0	-0.021496117
9	0x3eebc342	0.46047407
10	0xbd881c1c	-0.066459864
11	0x3ea78dd2	0.32725388
12	0xbdf9fe9c	-0.12206766
13	0x3e49c81c	0.19705242
14	0x3d4165a0	0.047216058
15	0x3ee94f64	0.45568383
16	0xbe207092	-0.15667942
17	0x3e91bffe	0.2846679
18	0x3e0dff48	0.13866913
19	0xbd9568c0	-0.0729537
20	0xbdf826e4	-0.12116793
21	0xbc975ab0	-0.01847586
22	0x3b1b0a00	0.0023657084
23	0x3dc543d0	0.09632075
24	0x3e8d1800	0.27557373
25	0xbb687c00	-0.00354743
26	0xbef7bf39	-0.4838808
27	0xbe7fd7f0	-0.24984717
28	0xbddf106c	-0.10891804
29	0x3ef8317a	0.48475248
30	0x3ee3c8c6	0.44489115
31	0xbdc03350	-0.09384787
32	0xbeac00dd	-0.3359441
33	0xbe9e64ce	-0.30936283
34	0xbeece3fa	-0.46267682
35	0x3dd0f358	0.10202664
36	0x3d912730	0.070875525
37	0x3ea168a6	0.31525153
38	0xbdb277c4	-0.0871425
39	0xbe6e254a	-0.23256412
40	0xbe6b6e9e	-0.22991416
41	0x3e807d04	0.2509538
42	0x3e39cc04	0.18144232
43	0x3c527f80	0.012847781
44	0xbe0bfac0	-0.13669872
45	0xbec588f2	-0.38581043
46	0x3ec6f87c	0.38861454
47	0xbecd6d0f	-0.40122268
48	0x3eb3fe9a	0.35155183
49	0xbe78d38a	-0.24299446
50	0x3e86f458	0.26358294
51	0xbdfa3628	-0.12217361
52	0xbe079402	-0.13240054
53	0x3eca7b48	0.3954718
54	0x3e81a210	0.25318956
55	0xbef8919c	-0.4854859
56	0xbecb0002	-0.39648443
57	0x3d89d318	0.06729716
58	0x3e5790d4	0.21051341
59	0xbed31c47	-0.4123251
60	0x3e1c7378	0.15278423
61	0xbd8e68cc	-0.06953582
62	0xbde1ddf4	-0.11028662
63	0x3e0384f8	0.12843692
64	0x3e9af92c	0.30268228
65	0xbef74515	-0.48294893
66	0xbe940496	-0.2890975
67	0x3e6580bc	0.2241239
68	0xbe86b79d	-0.2631196
69	0x3ebb91ea	0.3663476
70	0xbe967176	-0.2938344
71	0x3eadf1c4	0.33973515
72	0x3e1c3e00	0.15258026
73	0xbe0f4934	-0.13992769
74	0x3efb9c56	0.49142712
75	0x3e379374	0.17927343
76	0x3e94a2a2	0.2903033
77	0xbed3bf44	-0.41356862
78	0x3ebd37f2	0.36956745
79	0xbeddea58	-0.43342853
80	0x3e634890	0.22195649
81	0x3ecb32c8	0.3968718
82	0xbde83718	-0.11338633
83	0x3d39f370	0.045398176
84	0x3ec6a258	0.38795733
85	0x3edc1c08	0.42990136
86	0x3ed77014	0.42077696
87	0xbea14fc2	-0.31506163
88	0xbe87b5ce	-0.26505893
89	0x3e62ffa4	0.22167832
90	0x3e94f954	0.29096472
91	0x3d1d4f40	0.038405657
92	0x3e800fc4	0.25012028
93	0xbeeacc85	-0.4585916
94	0x3ee12002	0.43969733
95	0xbd141b58	-0.03615889
96	0xbe7e4b5a	-0.24833432
97	0x3e65925c	0.22419113
98	0xbdddd14c	-0.10830936
99	0xbeb21cf6	-0.3478772
100	0x3eb46dea	0.35240108
101	0xbeec77c2	-0.46185118
102	0xbee11840	-0.43963814
103	0x3d5b32a0	0.053515077
104	0xbe94636c	-0.28982103
105	0x3ee923b0	0.4553504
106	0x3e8d9676	0.27653855
107	0xbd30c230	-0.04315394
108	0xbe21d392	-0.15803364
109	0x3e81cd10	0.25351763
110	0x3e96a4a2	0.2942248
111	0xbd4f6328	-0.050631672
112	0x3ecb438e	0.39699978
113	0x3eb715b4	0.35758746
114	0x3e246d00	0.16057205
115	0xbeb97216	-0.36219853
116	0xbd6a8278	-0.05725333
117	0xbe8f4420	-0.27981663
118	0xbdd3ffa0	-0.10351491
119	0xbe9c658c	-0.30546224
120	0x3e0870fc	0.1332435
121	0xbe3aa31c	-0.18226284
122	0x3e59bef8	0.21264255
123	0x3e9bfc36	0.3046586
124	0x3eaa5ac8	0.33272386
125	0xbe3b3a18	-0.1828388
126	0x3d6f6870	0.05844921
127	0xbe0b4e3c	-0.13604063

0.conv_4_32.conv_bn.weight f4 [1, 1, 4]
0	0x3ed5212a	0.41626865
1	0x3eaaf130	0.33387136
2	0x3e982856	0.29718274
3	0xbe3012d6	-0.17194685

0.conv_64_8.conv.bias f4 [8]
0	0x3d972888	0.073807776
1	0xbd9c8998	-0.076434314
2	0xbd6b8218	-0.057497114
3	0x3d001948	0.03127411
4	0x3d14ab90	0.036296427
5	0xbddd3f8c	-0.10803136
6	0xbbae26e0	-0.005314693
7	0x3de7148c	0.11283216

0.conv_64_8.conv.weight f4 [8, 1, 64]
0	0x3dbe25cc	0.09284553
1	0x3c9c8f70	0.019111365
2	0xbd3c95f8	-0.04604146
3	0x3dd01a46	0.10161261
4	0xbd1bb834	-0.038017467
5	0xbdd4a3d0	-0.10382807
6	0x3da13fa2	0.07873465
7	0x3d682424	0.05667509
8	0xbdbd4956	-0.09242503
9	0x3d51d624	0.05122961
10	0xbde34d98	-0.11098784
11	0x3d940e22	0.07229258
12	0x3c440d70	0.011966094
13	0x3dab3190	0.08359063
14	0x3deaa522	0.11457278
15	0x3b9945e0	0.004677519
16	0x3d5f14ec	0.054463312
17	0x3df8c30a	0.12146576
18	0x3de8e67e	0.11372088
19	0xbd8d997c	-0.069140404
20	0xbc837bb8	-0.016050205
21	0x3d8939b0	0.06700456
22	0xbd248894	-0.040169314
23	0x3df1ce6a	0.118069485
24	0xbd993674	-0.07481089
25	0xbbb2a170	-0.0054513738
26	0x3dc2f8da	0.09520121
27	0xbc8a2058	-0.016861126
28	0x3d632d50	0.055463135
29	0x3d4bc59c	0.049749
30	0x3d098400	0.03357315
31	0xbdfa9256	-0.122349426
32	0x3ca73788	0.020412222
33	0xbd35569e	-0.044272058
34	0x3dcf1174	0.10110751
35	0xbd853f30	-0.06506193
36	0x3d48a4d8	0.048985332
37	0x3a059700	0.0005096048
38	0x3d645088	0.055740863
39	0x3dd26af6	0.102743074
40	0xbda0056c	-0.07813534
41	0xbda2a2f0	-0.07941234
42	0x3d90aafa	0.07063861
43	0x3d36f558	0.04466757
44	0xbcebcd20	-0.028784335
45	0xbd50a8fc	-0.050942406
46	0xbd113c1c	-0.035457715
47	0x3d3977b0	0.04528016
48	0xbdebc011	-0.11511243
49	0xbd471420	-0.048603177
50	0x3df3f012	0.11911024
51	0xbdcd9cf4	-0.10039702
52	0xbdf93a2c	-0.121692985
53	0x3c95c748	0.018283501
54	0xb9e05d00	-0.000427939
55	0xbd1dfb4e	-0.03856974
56	0x3d3ee470	0.046604574
57	0x3c5c1b70	0.013434276
58	0xbbb29380	-0.0054497123
59	0x3df750e4	0.120759755
60	0xbdebf13a	-0.1152062
61	0xbdefd708	-0.11710936
62	0xbd08f5ea	-0.033437647
63	0x3bbe0800	0.0057992935
64	0x3da0099a	0.07814331
65	0xbddda075	-0.108216204
66	0x3d2392f0	0.039935052
67	0xbd8934ec	-0.06699547
68	0xbd4c37d8	-0.049857944
69	0x3dfbeee4	0.12301424
70	0x3c4b8790	0.012422457
71	0x3dda6068	0.10662919
72	0xbd3ecd80	-0.0465827
73	0xbd4c52e0	-0.049883723
74	0xbdfacddc	-0.12246296
75	0xbd3989c2	-0.04529739
76	0xbdf9b5ef	-0.12192904
77	0xbd3f11d2	-0.046647854
78	0x3c9a88e8	0.01886411
79	0xbd28f4c8	-0.041249067
80	0x3d36ed14	0.04465969
81	0xbd6c691e	-0.057717435
82	0x3d375e7c	0.04476784
83	0x3d2c8970	0.042123258
84	0x3da69ac4	0.08134988
85	0xbd4e0e04	-0.050306335
86	0xbdb72e24	-0.089443475
87	0xbdebe153	-0.115175866
88	0x3ba05e20	0.004894033
89	0x3d585618	0.05281648
90	0x3cdda7a8	0.027057484
91	0xbbc28080	-0.0059357285
92	0xbc719110	-0.014744058
93	0x3d1ea348	0.038729936
94	0xbd32d0fe	-0.04365634
95	0x3dd29b7c	0.102835625
96	0xbd95a84b	-0.0730749
97	0x3df4c51e	0.119516596
98	0xbd88a451	-0.06671966
99	0xbd0cfc80	-0.03442049
100	0xbdd026c1	-0.10163642
101	0xbd94db82	-0.0726843
102	0xbd4c217c	-0.04983662
103	0xbd049d30	-0.03237647
104	0x3d45049c	0.0481001
105	0x3dd7ec40	0.10543108
106	0x3ca8a878	0.020588145
107	0x3ce44e98	0.027869508
108	0x3dbf4a2a	0.093403175
109	0xbd5e5724	-0.054282323
110	0xbbfbe7c0	-0.007687539
111	0xbc26d968	-0.01018367
112	0x3deaf5ce	0.11472665
113	0xbdf811e4	-0.12112787
114	0xbd570474	-0.05249448
115	0x3d7949a0	0.06086123
116	0x3bb196e0	0.005419597
117	0xbd71e084	-0.059052005
118	0x3da7db32	0.08196105
119	0x3c87e288	0.01658751
120	0xbdcffaa4	-0.10155228
121	0x3cd38770	0.025821418
122	0x3c6f7f60	0.014617771
123	0x3c710b10	0.01471211
124	0xbd54cfea	-0.051956095
125	0xbd8a99e5	-0.06767634
126	0xbc22f300	-0.009945631
127	0xbb382da0	-0.0028103366
128	0x3d32e08c	0.043671176
129	0x3bf1b680	0.007376492
130	0xbd1248a8	-0.03571382
131	0x3d4a2b90	0.04935795
132	0x3db21e78	0.08697218
133	0x3d09d2e4	0.033648387
134	0xbb23e660	-0.002500914
135	0x3dc1afee	0.09457384
136	0x3cd06c88	0.025442377
137	0xbd890c41	-0.0669179
138	0x3df8c7dc	0.12147495
139	0x3d6ccfdc	0.057815418
140	0x3de636bc	0.112409085
141	0x3ab1cb00	0.0013564527
142	0xbd00f670	-0.03148502
143	0x3dc99972	0.098437205
144	0xbdb14701	-0.08656121
145	0x3d3bd19c	0.045854196
146	0xbda42ff4	-0.08016959
147	0x3db1a79a	0.086745456
148	0xbd952c1c	-0.07283804
149	0xbd3e1ea8	-0.046415955
150	0xbd93c152	-0.07214607
151	0x3c397c80	0.011321187
152	0x3a933280	0.001123026
153	0x3da87fe0	0.08227515
154	0x3c43a3a0	0.011940867
155	0xbde8c58b	-0.11365803
156	0x3de5b58c	0.11216268
157	0x3c9f7588	0.019465223
158	0xbc8b195c	-0.016979866
159	0xbdf96437	-0.121773176
160	0xbd7bc4b2	-0.06146688
161	0x3cb9ef38	0.022697076
162	0xbdacca8a	-0.08437069
163	0x3dbd8c9c	0.09255335
164	0x3b808f40	0.0039233267
165	0xbd879f18	-0.066221416
166	0x3d1046fc	0.035223946
167	0xbd0af0de	-0.033921115
168	0x3d284e78	0.04109046
169	0x3dab57a0	0.083663225
170	0x3ce00bc8	0.027349368
171	0x3de0e8b0	0.109818816
172	0xbd0a1f86	-0.03372147
173	0x3df61004	0.120147735
174	0x3dbe557a	0.09293647
175	0x3d98afac	0.07455382
176	0xb948ea00	-0.00019160658
177	0x3da41c14	0.08013168
178	0xbd5e7edc	-0.0543202
179	0xbdd0afc5	-0.101897754
180	0xbda5f25f	-0.08102869
181	0xbc965efc	-0.018355839
182	0x3da32e90	0.079678655
183	0x3df2b11c	0.11850187
184	0xbd9e06a6	-0.07716112
185	0xbcf6b840	-0.030117154
186	0xbd0016f0	-0.031271875
187	0xbd42a924	-0.047524586
188	0x3c0ae700	0.008477926
189	0xbd6d39c8	-0.057916433
190	0x3db0f3f2	0.08640279
191	0x3d872e0a	0.06600578
192	0xbcc9f1ec	-0.02465149
193	0x3d874348	0.0660463
194	0xba9b5d00	-0.0011853278
195	0xbdce2ddf	-0.10067343
196	0x3dea75c2	0.11448242
197	0x3cb9e800	0.022693634
198	0xbc950848	-0.018192425
199	0x3de7c4fc	0.11316869
200	0x3d90a09c	0.07061884
201	0xbdaae9f4	-0.08345404
202	0x3d320d50	0.043469727
203	0xbdaaff42	-0.08349468
204	0x3db20ee4	0.086942464
205	0xbc8d357c	-0.017237417
206	0xbd5b8c94	-0.053600863
207	0x3cfc53a8	0.03080161
208	0xbdbec2b0	-0.093144774
209	0x3cf82e70	0.03029558
210	0x3dc2ea28	0.09517318
211	0xbcf834b8	-0.030298576
212	0xbdc83874	-0.097763926
213	0xbc547c00	-0.012969017
214	0xbd271e6a	-0.04080049
215	0xbbdb05e0	-0.00668405
216	0xbdafd54a	-0.085856035
217	0x3d1f7284	0.03892757
218	0xbbf61c80	-0.0075107217
219	0x3c180e70	0.009280786
220	0xbdfcc9cd	-0.12343178
221	0xbd7dded2	-0.061980076
222	0xbc8beaf0	-0.0170798
223	0xbcf99e6c	-0.03047105
224	0xbd822470	-0.06354606
225	0x3d82ebd0	0.06392634
226	0xbc60d300	-0.013722181
227	0xbdfa9397	-0.12235182
228	0xbd7bb160	-0.061448455
229	0xbdf3bd13	-0.119012974
230	0xbd98031e	-0.074224696
231	0xbde7e25a	-0.1132247
232	0x3d68bed4	0.056822613
233	0x3d3ba2f8	0.045809716
234	0x3de0192e	0.10942303
235	0xbce61ee8	-0.02809091
236	0xbd3a564c	-0.045492455
237	0x3d49c8a4	0.04926361
238	0x3ccd6728	0.025073603
239	0x3dd0f012	0.1020204
240	0x3dc02c9a	0.09383507
241	0x3cb132c0	0.021630645
242	0xbd4a66f4	-0.04941459
243	0x3cc36878	0.023853526
244	0xbddcfb6c	-0.107901424
245	0xbdbe2412	-0.092842236
246	0x3bba63a0	0.0056881458
247	0x3dcc7568	0.09983331
248	0xbd820816	-0.063491985
249	0xbd0cf784	-0.034415737
250	0x3dff4a84	0.124653846
251	0xbda37ef8	-0.07983202
252	0x3dfee590	0.12446129
253	0x3b34fa40	0.002761498
254	0x3b58c600	0.0033077002
255	0xbdf606ec	-0.12013039

0.conv_64_8.conv_bn.weight f4 [1, 1, 64]
0	0xbdfcf778	-0.123518884
1	0xbdc514a0	-0.096230745
2	0xbb8ae2a0	-0.0042384416
3	0xbcd50d68	-0.02600737
4	0xbbcd3160	-0.0062619895
5	0xbdc6ee3e	-0.0971341
6	0x3cda1c80	0.026624918
7	0xbdb7b676	-0.089703485
8	0xbd0d003a	-0.034424044
9	0xbdda3c3c	-0.1065602
10	0xbdde1234	-0.10843316
11	0x3df9ea32	0.12202872
12	0x3dc3d6c4	0.09562448
13	0x3dbef378	0.09323782
14	0x3db8e2b6	0.09027617
15	0xbca322c0	-0.019914031
16	0xbdda699e	-0.10664676
17	0xbca9ced0	-0.020728499
18	0x3dd642ec	0.10461983
19	0x3dc30fe6	0.09524517
20	0x3def094e	0.116716966
21	0xbd1d12d0	-0.03834802
22	0x3ca748d0	0.020420462
23	0xbca0dce0	-0.019636571
24	0xbd8ee750	-0.06977713
25	0x3d7f55ec	0.0623378
26	0xbdc454a7	-0.09586459
27	0xbdf027f5	-0.11726371
28	0x3df9f73e	0.12205361
29	0x3d064980	0.03278494
30	0xbd48a470	-0.048984945
31	0x3d4825a0	0.048864007
32	0xbaf4b040	-0.0018668249
33	0x3de76de0	0.11300254
34	0x3dd5173c	0.10404822
35	0x3d6f69c0	0.05845046
36	0x3dce762e	0.10081135
37	0xbd93b77c	-0.07212731
38	0x3de94aac	0.11391196
39	0xbdd63863	-0.10459974
40	0xbd680434	-0.056644633
41	0xbcec1368	-0.028817847
42	0x3d84e2dc	0.064885825
43	0xbcfa07b0	-0.030521244
44	0xbd821d40	-0.06353235
45	0x3d20bbd4	0.039241627
46	0xbd8fabfb	-0.070152245
47	0x3dec902e	0.115509376
48	0x3d5e6850	0.0542987
49	0x3d9ca3ca	0.07648428
50	0xbd4a46de	-0.04938399
51	0xbda11ae2	-0.078664556
52	0xbd91f0a8	-0.0712598
53	0x3dd46f92	0.10372843
54	0xbd927dd6	-0.071529076
55	0x3c67fcb0	0.0141593665
56	0x3de19372	0.11014451
57	0xbda6ea88	-0.08150202
58	0x3c5bba40	0.013411105
59	0xbd9cb69a	-0.07652016
60	0x3d56f704	0.052481666
61	0xbcce2668	-0.025164798
62	0x3d9d46f0	0.07679546
63	0xbd84af90	-0.064787984

0.conv_8_64.conv.bias f4 [64]
0	0xbe3ffd15	-0.18748887
1	0xbcc79b8f	-0.024366168
2	0x3e73251b	0.23744623
3	0xbe9ea3a5	-0.30984226
4	0x3d62c533	0.055363845
5	0xbea6a125	-0.3254482
6	0x3da3f7a6	0.080062196
7	0x3e46b8b8	0.19406402
8	0xbdcea61b	-0.10090276
9	0x3e566e3c	0.20940489
10	0xbe23d41f	-0.15998887
11	0x3e5ec68f	0.21755432
12	0x3ead7d58	0.33884692
13	0x3dcf1267	0.10110932
14	0x3ddce0ca	0.107850626
15	0xbde15c63	-0.110039495
16	0xbe1fe266	-0.15613708
17	0xbe597e49	-0.2123958
18	0xbdcbf660	-0.09959102
19	0xbdd94f0d	-0.10610781
20	0xbe8602e8	-0.26174092
21	0xbe449ea0	-0.19201136
22	0xbe5f92e2	-0.21833375
23	0x3e8f74a7	0.28018686
24	0xbde035d8	-0.1094777
25	0x3e1351df	0.143867
26	0xbe87e313	-0.2654043
27	0xbea075c3	-0.31339845
28	0x3e4f8376	0.20264992
29	0x3e4a2251	0.19739653
30	0x3e7bcf22	0.24590734
31	0xbe92bc2c	-0.2865919
32	0x3dea8a67	0.114521794
33	0x3d89e911	0.06733907
34	0xbe45cf2e	-0.19317314
35	0x3ce89072	0.02838919
36	0x3e1c0fbe	0.1524038
37	0x3eb396b5	0.35075918
38	0x3e618235	0.22022326
39	0xbd8264a8	-0.06366855
40	0x3e927136	0.28601998
41	0x3e55d79f	0.20883034
42	0xbde1fdc3	-0.11034729
43	0x3e4a9e6a	0.19786993
44	0xbdd6917b	-0.10476967
45	0x3e14675b	0.14492552
46	0xbd981b7c	-0.07427117
47	0x3d1e3407	0.038623836
48	0xbe952f19	-0.29137495
49	0xbea44dee	-0.32090706
50	0xbe229f97	-0.15881191
51	0xbddc7e58	-0.10766286
52	0x3dd7bbcd	0.10533867
53	0x3eb0339b	0.34414372
54	0xbde78271	-0.113041766
55	0xbd5dbfe7	-0.05413809
56	0x3c8d9e29	0.01728733
57	0xbe81ae11	-0.25328115
58	0xbe9d5c20	-0.30734348
59	0xbe478058	-0.19482553
60	0xbe10df5e	-0.14147708
61	0xbe11b15a	-0.1422781
62	0x3e2b4d42	0.1672869
63	0x3d8edc34	0.06975594

0.conv_8_64.conv.weight f4 [64, 1, 8]
0	0x3d3feb1b	0.046855073
1	0x3e1fa5b3	0.15590553
2	0xbeafc4e8	-0.34329915
3	0xbe62ded7	-0.22155319
4	0x3e450a8b	0.19242303
5	0xbe821e39	-0.25413683
6	0x3dc5723f	0.09640931
7	0x3dc5d790	0.09660256
8	0x3db5e619	0.08881778
9	0xbe19b10b	-0.15008943
10	0x3e58b55e	0.21162936
11	0xbe4bc81d	-0.19900556
12	0x3e7d3250	0.24726224
13	0x3e92127b	0.28529724
14	0x3d63c29c	0.055605516
15	0x3e876050	0.26440668
16	0x3e61bbba	0.22044268
17	0x3e86ffb3	0.26366958
18	0xbdc5d943	-0.0966058
19	0x3e837d10	0.25681353
20	0x3d84dd51	0.06487525
21	0x3e346703	0.17617421
22	0xbe83bbcc	-0.25729215
23	0xbeae67ba	-0.34063512
24	0x3e7c75ec	0.24654359
25	0xbe4bdb8c	-0.19907969
26	0xbd9286ec	-0.071546406
27	0xbe8b4a68	-0.27205205
28	0xbd08975c	-0.033347473
29	0xbe04f1ce	-0.12982866
30	0xbe854d7d	-0.2603568
31	0xbe2fee73	-0.17180805
32	0xbe6ad972	-0.22934511
33	0x3e9e5171	0.3092151
34	0x3ea96219	0.33082655
35	0x3e81c98f	0.2534909
36	0x3e25b9fa	0.16184226
37	0x3ea7457c	0.326702
38	0x3ea6225f	0.32448098
39	0x3cb390ec	0.02191969
40	0xbd0aed1b	-0.033917528
41	0x3dd52e86	0.10409264
42	0xbd9f9eac	-0.07793936
43	0x3e73be8c	0.23803157
44	0x3dc71009	0.09719855
45	0x3e81cfaa	0.25353748
46	0x3e192025	0.14953668
47	0xbe7b0795	-0.24514611
48	0x3e54a1a2	0.20764783
49	0x3e0f6cf3	0.14006405
50	0xbcf7c2e7	-0.030244304
51	0xbbb476ff	-0.0055073495
52	0x3e5061a3	0.20349745
53	0xbd93bc9f	-0.07213711
54	0x3e83b533	0.25724182
55	0x3d184063	0.03717078
56	0x3e6751bd	0.22589774
57	0x3e61ed53	0.22063188
58	0x3e736aa0	0.23771143
59	0x3e1f4281	0.15552713
60	0x3e88831b	0.26662526
61	0xbd09b1fb	-0.033617
62	0x3c9480fa	0.018127907
63	0xbdd5e64b	-0.104443155
64	0xbe684364	-0.22681957
65	0x3e8fdca9	0.28098038
66	0xbe94a781	-0.29034045
67	0x3e6fe30d	0.23426457
68	0x3daa7734	0.083235174
69	0xbe377723	-0.17916541
70	0x3de6fcdd	0.112786986
71	0x3d8ff1c4	0.07028535
72	0xbe8ef185	-0.2791864
73	0x3d789720	0.060691
74	0xbe0ca1f0	-0.13733649
75	0xbea44619	-0.3208473
76	0x3dee3d54	0.11632791
77	0xbd50ca66	-0.050974272
78	0x3ea54185	0.3227655
79	0xbd5362c0	-0.051607847
80	0x3e2db814	0.16964751
81	0xbe0f8de4	-0.1401897
82	0xbdeae1c1	-0.114688404
83	0x3dd38d7c	0.103297204
84	0x3dba0990	0.09083855
85	0x3dad53fd	0.08463285
86	0xbd2d817c	-0.042359814
87	0xbe3c9ed8	-0.18419969
88	0x3e9366a4	0.28789246
89	0x3d46bcf3	0.04852004
90	0x3e04be75	0.12963279
91	0xbeb2c111	-0.34912923
92	0x3e9eb8e3	0.31000432
93	0xbce0c5a7	-0.027437998
94	0xbe951bca	-0.29122764
95	0x3e8cc737	0.2749574
96	0xbd9d1735	-0.07670442
97	0xbe8a6bc5	-0.27035347
98	0x3e45da6f	0.19321607
99	0xbd7cf59c	-0.06175767
100	0xbd1ddfe7	-0.038543608
101	0xbe27693c	-0.16348737
102	0x3e58dcd7	0.21177994
103	0x3dbb7997	0.09154051
104	0x3d9faf8b	0.07797154
105	0xbd3c1040	-0.045913935
106	0xbd508038	-0.05090353
107	0x3d2c85b6	0.042119704
108	0xbd9e3171	-0.07724274
109	0x3e804003	0.25048837
110	0x3c6e1922	0.014532359
111	0xbe88548f	-0.26627013
112	0x3e957006	0.2918703
113	0xbe84b6c6	-0.25920695
114	0x3cfa3d7d	0.030546898
115	0xbe8ec0aa	-0.27881366
116	0xbe8705e3	-0.2637168
117	0xbeab85cf	-0.33500525
118	0xbea445a7	-0.3208439
119	0x3e0fd6ed	0.14046831
120	0x3d409e66	0.04702606
121	0xbea22911	-0.31671956
122	0xbe325158	-0.17413843
123	0xbbd3fb43	-0.0064691617
124	0xbdc8e0e4	-0.098085195
125	0x3e8780f5	0.26465574
126	0x3e59bc66	0.21263275
127	0x3e4632ca	0.19355312
128	0xbe8789c2	-0.26472288
129	0x3dfab10e	0.12240802
130	0xbe76c8c4	-0.24100024
131	0xbdc14188	-0.09436327
132	0xbe89bdf9	-0.2690275
133	0xba9cb22b	-0.0011954954
134	0xbe87323c	-0.26405513
135	0x3e5c7e77	0.21532618
136	0xbde5b38a	-0.11215885
137	0xbe4435eb	-0.19161193
138	0x3eaebb62	0.34127337
139	0xbeace858	-0.33771014
140	0x3e9a47bf	0.30132863
141	0x3e9ec0b9	0.3100641
142	0x3e6e2c07	0.23258983
143	0x3dcf0aa0	0.101094484
144	0x3e19ab47	0.15006743
145	0xbe03bc56	-0.12864813
146	0xbc857f2d	-0.016295994
147	0xbea1cab6	-0.3159997
148	0x3e873041	0.26404002
149	0xbe574cab	-0.2102534
150	0xbe828b56	-0.2549693
151	0x3e8a5d19	0.27024153
152	0x3da26d86	0.07931046
153	0xbc6747a4	-0.014116202
154	0xbcf7b008	-0.030235305
155	0x3e1a3439	0.15058984
156	0xbeb05dce	-0.34446567
157	0x3e61752e	0.22017357
158	0x3dfd57e1	0.12370277
159	0xbe042c08	-0.12907422
160	0x3d6cb170	0.057786405
161	0x3c21fe93	0.009887355
162	0xbe8966cc	-0.2683624
163	0xbe4b0379	-0.19825543
164	0xbe966121	-0.29370978
165	0x3e292ed2	0.16521767
166	0xbe875eea	-0.264396
167	0xbccf197f	-0.025280712
168	0x3df2f7e0	0.11863685
169	0xbea181da	-0.3154438
170	0xbda730e3	-0.08163621
171	0xbe1c476d	-0.15261622
172	0x3e002cfb	0.12517159
173	0x3d925712	0.071455136
174	0x3e57314c	0.21014899
175	0x3e297c29	0.1655127
176	0x3e4e64da	0.2015566
177	0x3baa24b7	0.005192365
178	0xbe0b9514	-0.13631088
179	0x3e94c7dd	0.29058734
180	0x3db602a5	0.08887223
181	0xbe152061	-0.14563133
182	0xbe71ecc4	-0.23625475
183	0x3eab2738	0.3342836
184	0xbeacc0d4	-0.33740866
185	0xbe8ae859	-0.27130392
186	0x3d9dd51f	0.07706665
187	0x3e2d3c96	0.16917643
188	0x3ce1b3fe	0.027551647
189	0x3db0a64e	0.0862547
190	0x3e7d88de	0.24759242
191	0x3e98f3bc	0.29873455
192	0x3eacb348	0.3373053
193	0x3e05a940	0.13052845
194	0xbe5893b5	-0.21150096
195	0x3e738297	0.23780285
196	0xbe5eb054	-0.21746951
197	0xbe91f8e8	-0.28510213
198	0x3e379462	0.17927697
199	0xbd52aae1	-0.051432494
200	0xbc0eaeed	-0.008708698
201	0xbea2cdcf	-0.31797644
202	0xbe7d18e4	-0.24716526
203	0xbb9dd332	-0.004816436
204	0xbea414bf	-0.32047078
205	0xbe84a02e	-0.25903457
206	0x3e87258a	0.26395828
207	0xbd9f23cd	-0.077705
208	0xbe997347	-0.29970762
209	0xbe8c313c	-0.27381313
210	0x3ba07d61	0.004897759
211	0x3dd6889b	0.10475274
212	0x3d4d6624	0.050146237
213	0x3e430e7a	0.19048491
214	0xbe87cf83	-0.26525506
215	0x3e9c1ee9	0.30492333
216	0x3e8b2aeb	0.2718118
217	0x3e1c7279	0.15278043
218	0xbeb0265a	-0.3440426
219	0xbca01d58	-0.019545242
220	0x3ea41529	0.32047394
221	0xbb27b94a	-0.0025592619
222	0xbe56859c	-0.20949405
223	0x3e8310fb	0.25598893
224	0xbe32fa7a	-0.17478362
225	0x3e06f071	0.13177659
226	0x3bc32d94	0.005956361
227	0x3e94d1b4	0.2906624
228	0x3e00587a	0.12533751
229	0xbc68a3a0	-0.0141991675
230	0x3e4e623f	0.20154665
231	0x3c3163a2	0.010826977
232	0x3eac5c05	0.33663955
233	0xbde09710	-0.10966313
234	0xbe6eb4f4	-0.23311216
235	0xbb5c9531	-0.003365826
236	0x3e709a29	0.23496307
237	0x3e9fbfe7	0.31201097
238	0xbe73f67b	-0.23824494
239	0xbdf390f1	-0.1189288
240	0xbdeff59a	-0.11716767
241	0xbe694174	-0.22778875
242	0xbd94bc68	-0.07262498
243	0xbea63e3a	-0.3246935
244	0x3e887069	0.26648262
245	0x3e3d45ee	0.18483707
246	0xbdd09ecd	-0.10186539
247	0xbe0a3d6a	-0.1349999
248	0x3e0a3c9b	0.13499682
249	0x3e82793b	0.25483117
250	0x3e273735	0.16329654
251	0xbde27691	-0.11057771
252	0x3eb33368	0.35000157
253	0x3e95839e	0.29201978
254	0x3e6b4922	0.22977117
255	0xbe99450a	-0.29935485

0.conv_8_64.conv_bn.weight f4 [1, 1, 8]
0	0x3df24f9b	0.1183159
1	0xbe9b9075	-0.3038365
2	0x3c463245	0.012096946
3	0xbe79a38e	-0.24378797
4	0x3e66b63e	0.22530457
5	0x3e1e81bb	0.15479176
6	0x3e10c681	0.14138223
7	0x3e41097e	0.18851277

11.bias f4 [16]
0	0xbd522684	-0.051306263
1	0xbc52e2b8	-0.012871437
2	0x3d681421	0.05665982
3	0x3e1f5fc3	0.15563874
4	0xbd896288	-0.067082465
5	0x3bf09911	0.0073424657
6	0x3d7f7f5b	0.062377315
7	0x3d743b7c	0.05962704
8	0x3e0d6e41	0.1381159
9	0x3e20eab7	0.15714537
10	0x3e1b7a81	0.1518345
11	0xbe2e8755	-0.17043813
12	0xbd539302	-0.05165387
13	0xbd19cf87	-0.03755143
14	0x3cf8a8fa	0.030354012
15	0x3e111cce	0.14171144

11.weight f4 [16, 32]
0	0x3d666c3d	0.056255568
1	0xbdabef98	-0.08395308
2	0xbd87b0fc	-0.06625554
3	0x3d83f5dc	0.06443378
4	0x3e14df08	0.14538205
5	0x3de09a47	0.10966926
6	0xbddd5caf	-0.108086936
7	0x3d8992f2	0.06717481
8	0x3debf504	0.115213424
9	0x3d64fceb	0.055905264
10	0xbdbc9f9a	-0.09210129
11	0x3e007bc0	0.12547207
12	0x3d0f61c8	0.03500536
13	0xbdf2a420	-0.118477106
14	0xbe0b14a5	-0.13582094
15	0xbd256b8b	-0.040385764
16	0xbdad0f4a	-0.08450182
17	0x3de2dd22	0.11077334
18	0x3d25519f	0.040361043
19	0xbdd8dfdc	-0.10589573
20	0xbd688d98	-0.05677566
21	0x3b71812c	0.0036850674
22	0x3e200e62	0.15630487
23	0x3dcefae4	0.10106447
24	0xbd8f5cb8	-0.070001066
25	0x3e01c3b7	0.12672316
26	0x3dc44800	0.095840454
27	0x3e2435b6	0.16036114
28	0x3e25b8f0	0.1618383
29	0xbd39af74	-0.04533334
30	0xbdee2d14	-0.11629692
31	0xbe2fd4f4	-0.17171079
32	0xbded4676	-0.11585705
33	0xbd1d86f1	-0.03845877
34	0xbd1e139c	-0.03859292
35	0x3e00443a	0.12526026
36	0x3e1ff79d	0.156218
37	0xbc86b725	-0.016444752
38	0x39a20c8a	0.0003090839
39	0xbcfbd31a	-0.03074031
40	0xbdfad6c6	-0.12247996
41	0x3d24f563	0.04027308
42	0xbcc618e7	-0.024181796
43	0xbe1d0a87	-0.15336047
44	0xbe312cdb	-0.17302267
45	0x3ca160ab	0.019699415
46	0x3deb679e	0.11494373
47	0x3b520263	0.003204488
48	0x3ce093c2	0.027414206
49	0xbd42f95d	-0.047601093
50	0xbbbde12c	-0.005794665
51	0xbdc933ca	-0.09824331
52	0x3d3a6205	0.045503635
53	0xbe027637	-0.12740408
54	0xbdddf703	-0.10838129
55	0xbe18383c	-0.14865202
56	0x3d587455	0.052845318
57	0xbd4f62ba	-0.050631262
58	0xbd50e2dc	-0.0509976
59	0x3c135a1d	0.008993653
60	0x3cb87119	0.022514867
61	0x3d0804be	0.033207648
62	0x3debbaf2	0.11510266
63	0xbd9bc02f	-0.076050155
64	0xbde9efe9	-0.11422712
65	0x3e0dc5ee	0.13845035
66	0xbd26334d	-0.040576268
67	0xbdcba016	-0.09942643
68	0x3e34cc30	0.17656016
69	0xbc61534c	-0.01375277
70	0x3cd73639	0.026270973
71	0xbd6e3c1d	-0.058162797
72	0xbd920547	-0.07129913
73	0x3deaa3ac	0.11456999
74	0x3e2ac417	0.16676365
75	0xbd337843	-0.043815862
76	0xbd8ed64e	-0.06974469
77	0xbe0d1ae4	-0.13779789
78	0x3e1c7531	0.1527908
79	0x3c5c0b21	0.013430388
80	0x3d8d26b4	0.06892148
81	0xbdc5d7f5	-0.09660331
82	0x3d4337f7	0.047660794
83	0x3da4bd7c	0.08043954
84	0x3a1ac331	0.00059037196
85	0x3db226cc	0.08698806
86	0xbe324ef1	-0.17412926
87	0xbcc8b7fe	-0.024501797
88	0x3dcdf907	0.10057264
89	0xbe16e143	-0.14734368
90	0x3e1b2dc6	0.1515418
91	0xbd06e44f	-0.032932576
92	0x3daf37f3	0.08555593
93	0x3e1f35dc	0.1554789
94	0xbdaaf372	-0.08347215
95	0x3e01d393	0.12678365
96	0xbdf23e37	-0.11828273
97	0xbe0bc3c0	-0.13648891
98	0x3cd36df9	0.025809275
99	0xbcbd15d5	-0.0230817
100	0xbd976302	-0.07391931
101	0xbe0ec75c	-0.13943237
102	0x3d05f5a9	0.032704983
103	0xbdb05b3e	-0.08611153
104	0x3e242869	0.1603104
105	0x3d80bc3f	0.06285905
106	0x3cc3058a	0.023806352
107	0x3dce24ea	0.100656345
108	0x3e04aeaa	0.12957254
109	0xbe2f46c2	-0.17116836
110	0xbd06ad28	-0.03287998
111	0x3e039291	0.1284888
112	0xbd702aa0	-0.0586344
113	0xbdb32d30	-0.08748853
114	0x3d05ea21	0.032693986
115	0xbbe226e6	-0.0069016097
116	0x3e27efd5	0.16400082
117	0xbd109839	-0.03530142
118	0xbe105498	-0.1409477
119	0xbcfee7bf	-0.031116365
120	0xbd562d04	-0.052289024
121	0xbda48c46	-0.080345675
122	0x3bfe1b2c	0.007754704
123	0x3dcd05f6	0.100109026
124	0xbdff9951	-0.12480415
125	0xbd916de7	-0.0710104
126	0xbd3a7653	-0.045523
127	0xbd5b1898	-0.05349025
128	0x3d9cf6d0	0.07664263
129	0xbcd55aea	-0.026044328
130	0x3df4a1d4	0.11944929
131	0xbda1de0f	-0.079036824
132	0xbdc8cceb	-0.0980471
133	0xbd43fc08	-0.047847778
134	0xbe1cc60f	-0.15309928
135	0xbd749beb	-0.059719007
136	0xbc972b1d	-0.018453175
137	0xbe280e1b	-0.16411631
138	0xbe3118cf	-0.1729462
139	0xbde76bf5	-0.11299888
140	0xbd4f0388	-0.050540477
141	0x3e0c7943	0.13718133
142	0xbdb3de27	-0.087826066
143	0xbda753be	-0.081702694
144	0xbd873fdf	-0.06603979
145	0x3d8b9e8c	0.0681735
146	0x3d53653f	0.051610228
147	0xbdb2da91	-0.087330945
148	0xbc84a279	-0.016190754
149	0x3d502c19	0.050823305
150	0xbc99a35b	-0.018754652
151	0x3e2e0f24	0.16997963
152	0x3e1389b3	0.14407997
153	0x3e134a29	0.14383759
154	0x3d8d645b	0.06903907
155	0x3d18f026	0.0373384
156	0x3e0a13ed	0.13484164
157	0x3daa9cdf	0.08330702
158	0x3e26b2f6	0.16279206
159	0xbcf595ca	-0.029978652
160	0xbddaad22	-0.10677554
161	0xbcf50cca	-0.029913325
162	0x3e0402f8	0.12891757
163	0x3d1f7ca2	0.03893722
164	0xbe2d7a71	-0.16941239
165	0x3df81e8d	0.12115202
166	0x3d6568cc	0.056008145
167	0xbe34891e	-0.17630431
168	0x3bf8694b	0.0075809113
169	0x3def455e	0.116831526
170	0xbcf014cb	-0.02930679
171	0xbdc72504	-0.09723857
172	0xbd0bdb17	-0.034144487
173	0x3d97a8b4	0.074052244
174	0x3c406f55	0.011745294
175	0x3da508d8	0.080583274
176	0xbd0307dd	-0.03198992
177	0xbe18e0dd	-0.14929529
178	0xbd72309a	-0.05912838
179	0x3d649192	0.05580289
180	0x3ca8fdb8	0.020628795
181	0x3d581765	0.052756686
182	0x3d1cf240	0.038316965
183	0x3d0cdb71	0.034388963
184	0xbca1b7d2	-0.019740973
185	0x3e27270c	0.16323489
186	0x3e0e4b3c	0.13895887
187	0x3ded72a5	0.11594132
188	0xbd93ff9c	-0.07226488
189	0x3d4a0433	0.04932041
190	0x3e2bfb98	0.16795194
191	0xbd5f1e46	-0.05447223
192	0x3da560d9	0.08075113
193	0xbe10ad34	-0.14128572
194	0xbce8174f	-0.028331427
195	0xbde12f4f	-0.109953515
196	0xbde3232e	-0.11090694
197	0xbcd0ae23	-0.02547366
198	0x3da7b6fb	0.08189198
199	0x3d0a4071	0.033752862
200	0xbda5a756	-0.080885574
201	0xbca3060f	-0.01990035
202	0xbe2b7ec0	-0.1674757
203	0xbe041bd1	-0.12901236
204	0x3df6d07f	0.12051486
205	0xbc6d52f8	-0.014485113
206	0xbdea8ae1	-0.1145227
207	0x3d93573e	0.071943745
208	0xbe265cb7	-0.16246305
209	0xbe072afa	-0.13199988
210	0xbde0855a	-0.10962935
211	0x3bf39764	0.0074338187
212	0xbd5df068	-0.054184347
213	0x3d70841e	0.058719747
214	0xbe00f5c7	-0.12593757
215	0xbdec8412	-0.11548628
216	0xbe1f7bd3	-0.15574579
217	0x3d2d37a9	0.04228941
218	0x3e1e7cda	0.15477315
219	0x3da7b20e	0.08188258
220	0xbd975119	-0.07388515
221	0xbd896824	-0.067093164
222	0x3e2f81f9	0.17139424
223	0xbe255ce8	-0.16148722
224	0xbb24fd41	-0.0025175365
225	0x3dc976b3	0.09837093
226	0xbd0eef19	-0.03489599
227	0x3dec5775	0.115401186
228	0x3d92fd95	0.07177273
229	0xbda6f435	-0.081520475
230	0x3cbab915	0.022793332
231	0xbda46bb1	-0.08028353
232	0xbd979605	-0.07401661
233	0xbe2a77ee	-0.16647312
234	0xbdf5ddf3	-0.12005224
235	0xbdf0d561	-0.11759449
236	0x3d9c309f	0.07626461
237	0x3d583786	0.052787326
238	0xbe202be4	-0.15641743
239	0x3dc91a6c	0.09819493
240	0xbc500b8c	-0.0126980655
241	0x3e135b3c	0.14390272
242	0x3d56a232	0.052400775
243	0xbcb1c73f	-0.021701453
244	0x3e0de6fc	0.13857645
245	0x3cab4066	0.020904731
246	0xbe222c1e	-0.15837142
247	0x3d54c5d4	0.051946476
248	0xbceb8f6f	-0.028754918
249	0x3e09f0db	0.13470785
250	0xbda8226b	-0.0820969
251	0x3e032d8e	0.12810346
252	0x3d0bffc0	0.03417945
253	0x3dfe123e	0.12405823
254	0x3df1b60d	0.118023016
255	0x3c3cba93	0.011519092

13.weight f4 [1, 16]
0	0xbd158cc0	-0.036511183
1	0x3e408972	0.18802431
2	0x3d24d030	0.040237606
3	0x3e24bd80	0.16087914
4	0x3d8f2974	0.069903284
5	0xbe1bb480	-0.15205574
6	0xbe652bf8	-0.22380054
7	0x3dce0248	0.10059029
8	0x3e096084	0.13415724
9	0xbd1b5238	-0.037920207
10	0x3ca2b5e0	0.019862115
11	0x3d7d6388	0.0618625
12	0xbd15e070	-0.036590993
13	0x3dbef2f4	0.093236834
14	0x3e264960	0.16238928
15	0x3e0f0eec	0.13970536

2.bias f4 [64]
0	0xbd7dd601	-0.06197167
1	0x3c9a1e52	0.018813286
2	0xbcd6a1e0	-0.026200235
3	0x3ca66545	0.020311961
4	0xbd502052	-0.050812073
5	0x3d897c58	0.0671317
6	0x3d82e494	0.06391254
7	0xbd67fa35	-0.0566351
8	0x3d215470	0.039387167
9	0xbcd4b087	-0.025963081
10	0x3d0d45ba	0.034490325
11	0x3d455f23	0.048186433
12	0x3ccca79e	0.02498227
13	0x3d2f3e01	0.04278374
14	0x3d6be4a9	0.057591114
15	0x3bbbf1d7	0.0057356167
16	0xbd350a56	-0.04419931
17	0x3ba08c94	0.0048995707
18	0x3d847d06	0.06469159
19	0xbd8cbdae	-0.06872116
20	0x3d8369af	0.06416642
21	0x3d90ea1f	0.07075905
22	0xbd0f2464	-0.034946814
23	0xbca234ff	-0.019800661
24	0xbdabe010	-0.08392346
25	0xbd8d5344	-0.06900647
26	0xbc21c2f3	-0.00987314
27	0x3d17c85c	0.037056312
28	0x3da7a6d1	0.081861146
29	0x3bf46515	0.007458339
30	0xbce8d069	-0.02841969
31	0xbda4f2e0	-0.08054137
32	0xbb3b3022	-0.0028562625
33	0xbd1edb0d	-0.03878312
34	0x3c8b4a0d	0.017003084
35	0xbd8c10fd	-0.06839178
36	0xbc82f3d0	-0.0159854
37	0xbdaf13c7	-0.08548694
38	0x3d4019dd	0.046899665
39	0x3d5e642e	0.054294758
40	0x3d38420d	0.044984866
41	0xbcdf686b	-0.02727147
42	0x3d93b6d9	0.0721261
43	0xbca7b8af	-0.020473806
44	0xbd175b18	-0.03695211
45	0xbd33b5db	-0.043874603
46	0x3ce3e484	0.027818926
47	0x3d4c3383	0.049853813
48	0xbcbcca51	-0.02304569
49	0xbc60b536	-0.013715079
50	0xbdaa270f	-0.08308231
51	0xbc9f4ef1	-0.019446822
52	0xbda86cc4	-0.082238704
53	0x3d6033d9	0.054736946
54	0xbda127af	-0.07868897
55	0x3d552236	0.05203458
56	0x3d41b25a	0.04728923
57	0x3ca032f8	0.019555554
58	0x3cb01bad	0.021497572
59	0x3cb53261	0.02211875
60	0x3d3b6c5a	0.04575763
61	0x3d65e8ac	0.056130096
62	0x3c2880bd	0.0102846
63	0xbda1986c	-0.078904

2.weight f4 [64, 136]
0	0xbd7a0092	-0.0610357
1	0x3c38302a	0.011241952
2	0xbd4ba0b5	-0.04971381
3	0xbd164a9d	-0.03669225
4	0xbd500b11	-0.050791804
5	0x3d1655a7	0.03670278
6	0x3ccca9c3	0.024983292
7	0x3d8b8fa8	0.0681451
8	0x3d1b1492	0.037861414
9	0xbd8fc130	-0.070192695
10	0xba49bfd4	-0.0007696126
11	0x3d94884c	0.07252559
12	0x3dabb623	0.08384349
13	0xbd6f34ea	-0.058400072
14	0x3d851454	0.06498018
15	0x3d2a7555	0.041615803
16	0xbd3f7a92	-0.04674775
17	0xbd310923	-0.043221604
18	0x3d8aad91	0.067713864
19	0xbd022b60	-0.031779647
20	0xbcde603f	-0.027145503
21	0xbda989b4	-0.08278218
22	0xbd1c071d	-0.03809272
23	0xbd317806	-0.043327354
24	0x3dae46d6	0.08509605
25	0xbd7d6687	-0.061865356
26	0x3d99070c	0.07472047
27	0x3d7f0ddf	0.062269088
28	0xbd98f127	-0.07467871
29	0xbb8412c6	-0.0040305583
30	0xbd784513	-0.06061275
31	0xbd602c37	-0.054729667
32	0xbcf7d7be	-0.030254241
33	0xbcf9b84e	-0.030483391
34	0x3da6cc33	0.08144417
35	0xbd6ac8c9	-0.05732039
36	0xbc1780eb	-0.009247045
37	0xbd5e22c4	-0.054232374
38	0x3d4087e1	0.047004584
39	0xbd9b476c	-0.07581982
40	0xbd7fb197	-0.062425222
41	0x3d610e2b	0.054945152
42	0xbc886436	-0.016649347
43	0xbc392f9c	-0.011302855
44	0x3d85d81d	0.06535361
45	0xbda2bf40	-0.07946634
46	0xbc32cb37	-0.010912708
47	0x3d10cad3	0.03534968
48	0xbd75d1bc	-0.06001447
49	0x3c4d2757	0.012521586
50	0xbd9b5057	-0.07583683
51	0xbc1d8831	-0.00961499
52	0xbd8eeca5	-0.0697873
53	0x3d2ec096	0.042664133
54	0x3d1b343f	0.037891623
55	0xbc96325e	-0.018334564
56	0x3c618875	0.013765444
57	0x3c6cc704	0.014451746
58	0xbc30c738	-0.010789685
59	0x3c8802f9	0.01660298
60	0xbc0d2540	-0.008614838
61	0xbda3d3e0	-0.07999396
62	0xbcc750c6	-0.024330508
63	0xbcb31589	-0.021860855
64	0xbd69dc92	-0.057095118
65	0x3daee345	0.08539442
66	0x3d7984f6	0.060917817
67	0xbc0d6f2b	-0.008632462
68	0xbd752d4c	-0.05985765
69	0x3d7bba57	0.061457004
70	0xbd9aa932	-0.07551803
71	0x3d35aae9	0.044352446
72	0x3ce264f6	0.027636033
73	0x3d7d0aae	0.061777763
74	0xbc7f4831	-0.015581177
75	0x3da53a03	0.080677055
76	0xbc8c0e08	-0.017096534
77	0x3da9345d	0.08261941
78	0x3d2d2fa7	0.042281773
79	0x3b6fa421	0.0036566334
80	0xbd39c8af	-0.045357402
81	0x3da82d7f	0.08211803
82	0x3c868492	0.016420636
83	0xbd5affa3	-0.05346645
84	0x3c3b33a6	0.011425888
85	0xbd6fe5f1	-0.0585689
86	0xbb41379f	-0.0029482616
87	0x3d3f8add	0.04676329
88	0x3d6b839a	0.057498552
89	0xbd834107	-0.06408887
90	0xbbb26c55	-0.005445043
91	0x3c17851f	0.009248047
92	0xbcf95be9	-0.030439334
93	0x3b3ea92f	0.002909254
94	0xbca6e326	-0.020371985
95	0x3d297ca3	0.04137863
96	0xbd11fb29	-0.035639916
97	0x3d88f33e	0.0668702
98	0x3d738db7	0.05946132
99	0xbc44ec91	-0.012019292
100	0xbd3e6751	-0.04648525
101	0x3d085490	0.03328377
102	0x3dade123	0.08490207
103	0xbd17f9b0	-0.037103355
104	0x3c22e786	0.009942895
105	0x3d5c3409	0.053760562
106	0x3c4c8021	0.01248172
107	0x3d714866	0.058906935
108	0xbd15ebc4	-0.036601797
109	0xbdaa5bf5	-0.08318321
110	0xbd58f5f0	-0.05296892
111	0xbd17ad25	-0.037030358
112	0x3d0880f8	0.03332612
113	0xbd702b69	-0.05863515
114	0x3da595b1	0.08085192
115	0x3d1ffb10	0.03905779
116	0x3d317b1c	0.043330297
117	0xbd7d7926	-0.061883114
118	0xb8c82908	-9.544386e-05
119	0xbcc33851	-0.023830565
120	0xbd7e8cf8	-0.062146157
121	0xbd7461e6	-0.059663676
122	0xbcdb0191	-0.026734145
123	0x3dab11e5	0.083530225
124	0xbd856048	-0.06512505
125	0x3c8f3c7a	0.017484892
126	0xbd540eec	-0.051772043
127	0xbc3fb9e8	-0.011702038
128	0x3d313e79	0.04327247
129	0xbd5d883f	-0.054085013
130	0x3d9bd94c	0.076098055
131	0x3c96c35f	0.018403707
132	0x3d3ddb41	0.046351675
133	0x3be0ead9	0.0068639335
134	0x3d65130a	0.05592636
135	0xbd30973e	-0.043112986
136	0xbd7131f1	-0.05888552
137	0x3c861c7e	0.016371008
138	0xbc4d18ce	-0.012518121
139	0xbce8ff9d	-0.028442198
140	0x3c13fd32	0.009032534
141	0x3d629e9b	0.05532704
142	0xbd26f08f	-0.04075676
143	0xbd1de3e4	-0.03854741
144	0xbdadbbc8	-0.08483082
145	0x3d1dfbba	0.038570143
146	0x3cada1b0	0.021195263
147	0x3d47d040	0.048782587
148	0xbd8369ec	-0.06416687
149	0x3d10e46e	0.035374098
150	0x3da8c763	0.08241155
151	0xbd0286a8	-0.0318667
152	0x3cfd2441	0.030901076
153	0x3d976aca	0.07393415
154	0xbca1b0e0	-0.01973766
155	0xbcd2e4ad	-0.025743807
156	0x3d87fff4	0.06640616
157	0x3d4ec4f9	0.050480817
158	0x3d8ba862	0.06819226
159	0x3d1b25c4	0.037877813
160	0x3d49c3c3	0.04925896
161	0xbd2a2627	-0.04154029
162	0xbbea8691	-0.007157155
163	0x3d9b59d7	0.07585495
164	0xbd9ad067	-0.07559281
165	0xbd665afd	-0.056239117
166	0x3c18f478	0.00933563
167	0x3ce4c5c2	0.02792633
168	0xbc24d4d7	-0.010060511
169	0xbd98dc10	-0.074638486
170	0x3d763e3d	0.06011795
171	0x3d07b078	0.033127278
172	0xbc2584f8	-0.010102503
173	0x3d9e8dfd	0.07741926
174	0xbd91c4ac	-0.0711759
175	0x3da996c5	0.0828071
176	0x3d985db4	0.074397475
177	0x3d81b0f0	0.06332576
178	0xbd1216aa	-0.035666145
179	0x3c749c43	0.014929834
180	0x3d3b0fc9	0.04566935
181	0x3d248771	0.04016823
182	0xbc0d675d	-0.008630601
183	0xbd0f91a0	-0.03505099
184	0xbca27c72	-0.01983473
185	0x3d27b001	0.040939335
186	0x3c9053b3	0.017618036
187	0xbd985fcd	-0.074401475
188	0xbcc3316a	-0.023827273
189	0x3d40e25d	0.047090877
190	0xbd74aad2	-0.05973322
191	0xbd8ae80a	-0.06782539
192	0x3d9c2364	0.07623938
193	0xbca96e64	-0.020682521
194	0x3d8a00e0	0.06738448
195	0x3da5ed82	0.08101942
196	0x3d011a2b	0.031519096
197	0xbb13b694	-0.0022539245
198	0xbda819ab	-0.08208021
199	0x3ca5b64c	0.020228527
200	0x3d33f555	0.04393514
201	0xbcc68931	-0.02423534
202	0x3d547042	0.05186487
203	0x3d4f22a2	0.050570138
204	0xbb727992	-0.003699873
205	0x3c931e34	0.017958738
206	0x3c913edd	0.01773017
207	0xbc19e05e	-0.009391872
208	0xbd86619e	-0.06561588
209	0x3ce647f4	0.028110482
210	0xbce451f4	-0.02787111
211	0xbca49c60	-0.020094097
212	0x3ce8e8be	0.028431293
213	0xbd169104	-0.03675939
214	0x3d568f08	0.0523825
215	0xbd8f6557	-0.07001751
216	0xbc876231	-0.016526313
217	0x3da10e0b	0.078640066
218	0x3d601e64	0.054716483
219	0xbdab0b69	-0.08351786
220	0x3d23f44e	0.04002791
221	0x3c554172	0.013016092
222	0xbda95480	-0.0826807
223	0x3d24311d	0.0400859
224	0xbd84b064	-0.06478956
225	0xbd7b3ce1	-0.061337356
226	0x3a31728b	0.00067690824
227	0xbd0fb53e	-0.035084955
228	0x3d293128	0.041306645
229	0x3cd4fd5c	0.025999717
230	0xbcd6850a	-0.026186485
231	0xbd826af8	-0.06368059
232	0xbd50b58c	-0.050954387
233	0xbcfa2067	-0.030533029
234	0x3da7cee1	0.08193756
235	0x3d58c003	0.05291749
236	0xbca4a2ad	-0.020097101
237	0x3d6ad4c0	0.0573318
238	0x3c95305f	0.018211542
239	0x3d64ca9d	0.05585729
240	0x3d86f0c0	0.06588888
241	0x3c369da8	0.011145987
242	0xbd027683	-0.031851303
243	0x3c9436ed	0.018092597
244	0x3a222007	0.0006184582
245	0xbd9e7fbf	-0.077392094
246	0x3d35d43b	0.044391852
247	0x3da97111	0.08273519
248	0xbb8fcfdc	-0.0043887924
249	0x3cb1359f	0.021632014
250	0x3c17f9e9	0.009275892
251	0xbd4232a1	-0.047411565
252	0x3c2a8cb6	0.010409525
253	0x3d9e7bc2	0.07738449
254	0x3b708290	0.0036698915
255	0xbcce7f3d	-0.025207156

4.bias f4 [32]
0	0x3d5a7c18	0.053341
1	0xbda0dbf0	-0.0785445
2	0xbc6712d0	-0.014103606
3	0x3dc07338	0.09396976
4	0xbda24870	-0.079239726
5	0x3d46b970	0.04851669
6	0x3d988b8e	0.07448493
7	0xbcbfd710	-0.02341798
8	0x3ace1200	0.0015721917
9	0x3da2c17e	0.07947062
10	0xbc90cd30	-0.017675966
11	0x3aa86d80	0.0012850016
12	0x3ace0300	0.0015717447
13	0x3d4b6a1c	0.04966174
14	0xbd787b38	-0.060664386
15	0x3db5d034	0.08877602
16	0xbd7e75c0	-0.062124014
17	0x3d097474	0.033558324
18	0xbd4c5ddc	-0.0498942
19	0x3d362db8	0.044477195
20	0x3de44214	0.11145416
21	0xbdf9a94c	-0.12190494
22	0x3d064e64	0.032789603
23	0x3d370a28	0.04468742
24	0x3d1792f8	0.037005395
25	0x3d30cc4c	0.043163583
26	0xbcd39a00	-0.025830269
27	0x3dcf990a	0.10136612
28	0x3da04b20	0.07826829
29	0x3d714900	0.05890751
30	0x3d0d4ad0	0.034495175
31	0xbdecfc62	-0.11571576
