narrow/modelpars_narrow_i_71.safetensors (safetensors, 86584 bytes, 32 tensors)

bilstm.bias_hh_l0 f4 [64]
0	0xbf49230d	-0.7856911
1	0xbe5a3637	-0.21309744
2	0x3e4f10f1	0.20221306
3	0xbddf66a0	-0.10908246
4	0x3dec41d4	0.11535993
5	0xbf113fa8	-0.56737757
6	0xbd8af84e	-0.067856416
7	0x3e3789d0	0.17923665
8	0x3d6807bb	0.056647997
9	0xbe43aecf	-0.19109653
10	0xbde638b2	-0.112412825
11	0xbeba3897	-0.363713
12	0xbeae37f5	-0.34027067
13	0xbe544816	-0.20730624
14	0x3edd739f	0.43252274
15	0xbc37034e	-0.0111702215
16	0x3e7e6a58	0.24845254
17	0x3cb2d1d7	0.021828575
18	0x3e856396	0.2605254
19	0xbdcd83ab	-0.10034879
20	0xbcc913fd	-0.024545664
21	0x3e415ce0	0.18883085
22	0x3e5e2d8e	0.21697065
23	0x3dfc3e3c	0.12316558
24	0x3ddcbb80	0.1077795
25	0x3d69abd2	0.057048626
26	0x3eb0dc1b	0.34542927
27	0xbd6c4dd8	-0.057691425
28	0xbe4474e8	-0.19185221
29	0x3e1b1b9f	0.15147255
30	0x3ea9c5fa	0.33158857
31	0xbe4615a9	-0.193442
32	0x3c8cf847	0.017208232
33	0xbe458b1a	-0.19291344
34	0xbd121c0c	-0.03567128
35	0xbe9257a2	-0.28582484
36	0xbbab57c7	-0.0052289697
37	0xbddcc9b7	-0.107806616
38	0xbe7293ff	-0.23689269
39	0x3d699d57	0.057034817
40	0x3e20a314	0.1568721
41	0x3e0beef8	0.13665378
42	0xbdcaa217	-0.098941974
43	0xbdfe0397	-0.124030285
44	0x3dae5e6d	0.08514104
45	0x3e2ca169	0.16858448
46	0xbe2f2a6a	-0.17106023
47	0x3db3c95e	0.08778642
48	0xbe394c35	-0.18095477
49	0x3e0a344a	0.13496509
50	0x3e350463	0.17677455
51	0x3d512439	0.051059935
52	0xbe0205ee	-0.12697574
53	0x3e12f1ef	0.14350103
54	0x3e802fb7	0.25036404
55	0x3e00efb9	0.12591447
56	0x3ce13639	0.027491676
57	0xbe9f1582	-0.31071097
58	0xbda08625	-0.07838086
59	0x3db963ec	0.09052262
60	0x3e9cf5f5	0.306564
61	0x3d7f988b	0.062401336
62	0x3e8b1825	0.27166858
63	0x3e7e81d0	0.24854207

bilstm.bias_hh_l0_reverse f4 [64]
0	0xbe023947	-0.12717162
1	0xbdd5e19b	-0.104434215
2	0xbeb63120	-0.35584354
3	0x3e9d02fe	0.30666345
4	0x3eb8249c	0.3596543
5	0x3ee94bf5	0.45565763
6	0xbea5fc3d	-0.32419005
7	0x3e848f43	0.2589055
8	0xbd064c3a	-0.03278754
9	0x3de7d84d	0.11320553
10	0xbc1366c6	-0.008996671
11	0x3ca73c3d	0.020414466
12	0x3e08cb5a	0.13358822
13	0x3e620005	0.2207032
14	0xbe032309	-0.12806334
15	0xbeb4c9cd	-0.35310212
16	0xbdc9d0ec	-0.09854302
17	0x3dd6be0b	0.104854666
18	0xbe595131	-0.21222378
19	0x3e1e9abc	0.15488714
20	0xbb7b0190	-0.0038300492
21	0x3e3c1d89	0.18370642
22	0x3eb194c8	0.34683824
23	0xbc934f6f	-0.017982213
24	0x3dc68365	0.0969303
25	0x3e81bbd8	0.25338626
26	0x3df26f33	0.11837616
27	0x3ea9ac20	0.33139133
28	0x3e4b66a1	0.19863369
29	0x3c02a456	0.007973751
30	0xbe532d3e	-0.20622727
31	0x3e6a7f39	0.22900094
32	0xbe655d6f	-0.22398923
33	0x3e408c04	0.18803412
34	0xbe144410	-0.14479089
35	0x3e21917a	0.15778151
36	0xbdc6c3a8	-0.09705287
37	0x3e0f4112	0.13989666
38	0xbdf38bb2	-0.11891879
39	0x3dd586b2	0.10426082
40	0xbdfa2c34	-0.12215462
41	0xbe9cb3ce	-0.3060593
42	0xbe43205e	-0.19055316
43	0xbe3235f9	-0.17403401
44	0xbe0b8557	-0.13625084
45	0xbdf1d5d0	-0.118083596
46	0x3d2c7693	0.04210527
47	0x3d326203	0.043550503
48	0xbddf98de	-0.10917829
49	0x3e4038b2	0.18771628
50	0x3c49916e	0.01230274
51	0x3eb93542	0.36173445
52	0x3ea7bf24	0.32763016
53	0x3e25ccc1	0.16191389
54	0x3df16a67	0.11787873
55	0xbe914b01	-0.28377536
56	0xbe2bf0bd	-0.16791053
57	0x3e73b03c	0.23797697
58	0x3e850745	0.2598211
59	0x3e55585f	0.20834492
60	0x3e2e172f	0.17001031
61	0x3ded4c0f	0.11586773
62	0xbe9b13fc	-0.30288684
63	0xbe13955f	-0.1441245

bilstm.bias_ih_l0 f4 [64]
0	0xbed1bba3	-0.40963468
1	0xbe2ccfa1	-0.16876079
2	0x3eeae6b2	0.45879132
3	0x3cc994a6	0.024607014
4	0x3e942d3a	0.28940755
5	0xbed97b5e	-0.42476934
6	0x3ea23980	0.31684494
7	0x3e30d802	0.172699
8	0x3eb7e5eb	0.359176
9	0xbee32ce3	-0.44370183
10	0xbea8a74e	-0.32940143
11	0xbf40891e	-0.75209224
12	0xbdc60659	-0.096691795
13	0xbe6754c6	-0.22590932
14	0x3f1caa00	0.611969
15	0x3dc63763	0.09678533
16	0x3d8eb39d	0.06967852
17	0x3ec3539c	0.38149726
18	0xbd542d87	-0.05180123
19	0x3e959c20	0.29220676
20	0xbe3d7cd0	-0.18504643
21	0x3dfbaf55	0.12289301
22	0x3e151810	0.1455996
23	0xbcdc72b5	-0.026910165
24	0x3ead8426	0.33889884
25	0x3c93b281	0.018029453
26	0x3db423cc	0.0879589
27	0xbdd5d8f7	-0.104417734
28	0x3e6b8b2a	0.23002306
29	0xbe60eab5	-0.21964534
30	0x3e84a3b7	0.25906155
31	0xbe28f0b5	-0.16498072
32	0xbda119a9	-0.078662224
33	0xbe26aaf4	-0.16276151
34	0xbd5f410d	-0.054505397
35	0xbe44d6fa	-0.19222632
36	0x3d4f2c8b	0.05057959
37	0x3dd96f34	0.106169134
38	0x3db92903	0.090410255
39	0xbe1a07a3	-0.15041976
40	0xbb6807b4	-0.0035404982
41	0x3e299ebc	0.16564459
42	0x3e9629f1	0.29328874
43	0x3dad9aab	0.08476766
44	0xbe3c9e5a	-0.18419781
45	0x3ca0de14	0.019637145
46	0x3c86c7e9	0.016452746
47	0x3debe1a2	0.115176454
48	0xbe669c9b	-0.22520678
49	0xbe1f22e1	-0.15540649
50	0x3de036ef	0.10947978
51	0xbe18127f	-0.14850806
52	0xbe41fce4	-0.18944126
53	0xbe346849	-0.17617907
54	0xbd9ed04f	-0.077545755
55	0x3d49239d	0.04910623
56	0x3dfaf1dd	0.12253163
57	0xbda866fc	-0.08222768
58	0xbde1e4bf	-0.11029958
59	0x3e2a5fe4	0.16638142
60	0x3ea11c07	0.31466696
61	0xbdabe5a2	-0.08393408
62	0x3e8451c8	0.25843644
63	0x3e96c0f1	0.29444078

bilstm.bias_ih_l0_reverse f4 [64]
0	0x3d8f3fc6	0.06994586
1	0x3dea9305	0.11453823
2	0xbdf4dba9	-0.11955959
3	0x3d409f3d	0.04702686
4	0x3eb2ea2e	0.3494429
5	0x3e8307c6	0.25591868
6	0xbe77f6b7	-0.24215208
7	0x3cea572c	0.02860602
8	0xbe141867	-0.14462434
9	0xbcf19e5f	-0.029494463
10	0xbde52a62	-0.111897245
11	0xbda92c6f	-0.08260428
12	0x3d7176b8	0.05895111
13	0x3db08524	0.086191446
14	0xbdfffc63	-0.12499311
15	0xbdf6801c	-0.12036154
16	0xbab2dc11	-0.0013645907
17	0x3da6c9d1	0.08143962
18	0xbe2162e1	-0.15760376
19	0x3d3e3b3b	0.046443205
20	0xbc58ab25	-0.013224398
21	0xbdba927f	-0.09109973
22	0xbd468a25	-0.04847159
23	0x3ded4593	0.11585536
24	0x3d5bc78a	0.053657092
25	0x3e6d91bd	0.23200126
26	0x3df0fded	0.117671825
27	0x3ea65b66	0.32491606
28	0x3e6e3417	0.23262058
29	0x3d462ff1	0.048385564
30	0x3d53ee49	0.05174092
31	0x3e7c23db	0.24623053
32	0xbe5ec3c1	-0.21754362
33	0x3e905dad	0.2819647
34	0xbd8fef1a	-0.07028027
35	0x3d3e7468	0.046497732
36	0x3e9476f8	0.28997016
37	0x3d327535	0.04356881
38	0x3c5571bd	0.013027606
39	0xbe9b2995	-0.30305162
40	0x3d376db0	0.04478234
41	0xbe38b9fa	-0.18039694
42	0x3e056af0	0.13029075
43	0xbe297a4f	-0.16550563
44	0xbdcd1cde	-0.100152716
45	0xbd635ac7	-0.055506494
46	0x3eb4b6ab	0.35295615
47	0x3ddf01b7	0.10888999
48	0xbe8c988c	-0.27460134
49	0x3e14f597	0.1454681
50	0x3d4cd4fe	0.050007813
51	0x3f0486da	0.5176827
52	0x3eb026cc	0.344046
53	0xbe08ea91	-0.1337073
54	0xbe75f4db	-0.24019186
55	0xbe98e7fb	-0.29864487
56	0x3e742a5b	0.23844282
57	0x3e857d78	0.26072288
58	0xbd8bca84	-0.06825736
59	0x3ef9fc5d	0.4882535
60	0xbc1a157d	-0.009404537
61	0xbe052635	-0.13002856
62	0xbe3514cf	-0.17683719
63	0xbe906695	-0.28203264

bilstm.weight_hh_l0 f4 [64, 16]
0	0xbdfa06d4	-0.122083336
1	0xbe053e1b	-0.13011973
2	0x3e3a7c0f	0.18211387
3	0x3da74f8b	0.081694685
4	0xbdcad2d4	-0.099034935
5	0x3dd2477c	0.10267541
6	0xbeafb773	-0.34319648
7	0x3e912a55	0.2835261
8	0x3dd14da4	0.10219887
9	0x3e894bf0	0.26815748
10	0xbdc6be7e	-0.09704302
11	0x3ce6e708	0.028186336
12	0xbe769624	-0.24080712
13	0xbdba92e3	-0.09110048
14	0xbe248dcc	-0.16069716
15	0x3e0d369c	0.13790363
16	0x3d8dc167	0.06921654
17	0xbecdccad	-0.40195218
18	0xbebf8a74	-0.3741032
19	0xbe031250	-0.12799954
20	0xbc7861ae	-0.015160007
21	0xbe0bc410	-0.1364901
22	0x3f080d58	0.5314536
23	0xbd433e58	-0.047666878
24	0x3ebb0211	0.36525014
25	0x3eca46ee	0.3950724
26	0xbf11aabf	-0.5690116
27	0x3ddbfedc	0.1074197
28	0x3f23a552	0.63924134
29	0x3e5487ca	0.20754924
30	0xbcddb8b5	-0.027065614
31	0xbeb7c42a	-0.3589185
32	0xbe854cbd	-0.2603511
33	0xbd9709da	-0.07374926
34	0x3d8a90c4	0.06765893
35	0xbd24b75c	-0.040213928
36	0xbd92dd1d	-0.0717108
37	0x3e860388	0.2617457
38	0x3d5791ba	0.05262921
39	0x3d1a8504	0.03772451
40	0xbd3b2647	-0.0456908
41	0xbceeac96	-0.02913503
42	0x3e3371d4	0.1752389
43	0x3c4cd9b0	0.012503073
44	0x3e4c0788	0.19924748
45	0x3d08db0f	0.033412036
46	0xbde3fb0d	-0.111318685
47	0x3df9b02a	0.12191804
48	0x3e4db5c6	0.20088872
49	0xbe92adb3	-0.28648147
50	0xbd3d5db2	-0.046231933
51	0xbd44f122	-0.048081525
52	0xbd7ac5c9	-0.06122378
53	0xbdd3627a	-0.10321517
54	0x3e235b17	0.15952717
55	0xbe585587	-0.21126376
56	0xbf730d24	-0.94941926
57	0x3de6d9c2	0.11272003
58	0x3e4a8fee	0.19781467
59	0xbd9aa69b	-0.07551309
60	0x3e23d514	0.15999252
61	0xbf0c3806	-0.54772985
62	0xbe0260c3	-0.12732224
63	0x3cf2d4af	0.029642431
64	0xbc7ba458	-0.015359007
65	0x3f5ad290	0.8547754
66	0xbe730d04	-0.23735434
67	0xbe167fbc	-0.14697164
68	0x3db9364a	0.09043558
69	0xbea7f944	-0.32807362
70	0xbf0020d2	-0.5005008
71	0x3f2ad433	0.6673004
72	0x3da0142b	0.07816347
73	0x3eefc4ee	0.46829933
74	0xbc945e20	-0.018111289
75	0xbe7cacb5	-0.24675258
76	0xbef385ce	-0.47563022
77	0x3dc2bc34	0.09508553
78	0x3ea87d4f	0.32908103
79	0x3f1181e7	0.5683884
80	0xbde6d42e	-0.11270939
81	0xbea9d49e	-0.33170027
82	0x3c6637c4	0.0140513815
83	0x3d6529fd	0.055948246
84	0x3d6c1f64	0.057647124
85	0x3eabf4be	0.3358516
86	0xbd85baf9	-0.06529803
87	0x3ec05c9e	0.3757066
88	0x3e0b3b8d	0.13596936
89	0x3da5c434	0.080940634
90	0xbe74bc41	-0.23899938
91	0xbd90abbe	-0.07064007
92	0x3e94b7a6	0.29046363
93	0xbdc5dbe8	-0.096610844
94	0xbe361931	-0.17783047
95	0xbd879687	-0.06620508
96	0xbe345687	-0.17611133
97	0x3ed54b0a	0.41658813
98	0x3e72bccc	0.23704833
99	0xbe58071a	-0.21096459
100	0x3c7fe54b	0.015618633
101	0x3e938f6f	0.2882037
102	0xbe03bde8	-0.12865412
103	0x3f0186ff	0.5059661
104	0xbdb02c47	-0.08602195
105	0xbe3b85bd	-0.18312736
106	0x3db2c06e	0.08728109
107	0xbad641a1	-0.0016346463
108	0xbeeeb822	-0.46624857
109	0x3e9f1bf8	0.31076026
110	0x3ec8d0e3	0.39221868
111	0x3f3cbea5	0.737284
112	0x3d54cb0a	0.051951446
113	0xbe1de4ce	-0.15419313
114	0x3e956fee	0.29186958
115	0xbdee4268	-0.1163376
116	0xbc45cf71	-0.012073384
117	0xbe52cd2b	-0.20586078
118	0x3e6c64a3	0.23085265
119	0xbcfa1c06	-0.03053094
120	0xbd853000	-0.06503296
121	0xbe2c3fe6	-0.1682125
122	0x3e3b1c50	0.18272519
123	0xbdca1eb2	-0.09869136
124	0xbe29f1f6	-0.16596207
125	0xbe4bd7cd	-0.1990654
126	0x3c8749e6	0.01651473
127	0x3e04922e	0.12946388
128	0xbee4a2bb	-0.44655403
129	0x3e83df90	0.25756502
130	0x3e30c0df	0.17261074
131	0x3e1a83d8	0.15089357
132	0xbf07a474	-0.5298531
133	0x3da94730	0.08265531
134	0xbe862f5c	-0.26208007
135	0x3dbea767	0.09309273
136	0xbebc3274	-0.36757243
137	0x3e2a9bb5	0.1666096
138	0x3ea8f299	0.32997587
139	0xbec58b76	-0.38582963
140	0x3f1592a9	0.5842691
141	0xbe2006cd	-0.15627594
142	0x3f11639d	0.5679262
143	0x3c8e9f83	0.017410045
144	0x3e932760	0.28740978
145	0xbfac3372	-1.34532
146	0xbd98f2da	-0.07468195
147	0x3bacacbf	0.0052696164
148	0x3e361f21	0.17785312
149	0x3e1b6f3c	0.15179151
150	0x3e4882c4	0.19581133
151	0xbe253f91	-0.1613753
152	0xbedcefac	-0.43151605
153	0xbd9a10c0	-0.07522726
154	0x3d6bcac3	0.057566416
155	0xbcdca61d	-0.026934678
156	0xbf156799	-0.583612
157	0x3d172631	0.036901657
158	0xbebc2b3b	-0.36751732
159	0x3d401c81	0.046902183
160	0x3ed659d1	0.418654
161	0xbe5c374b	-0.21505468
162	0xbeab3370	-0.3343768
163	0xbb827f6a	-0.003982474
164	0x3e1c51cb	0.15265577
165	0xbe9bd3d9	-0.30435064
166	0x3ce551e9	0.02799316
167	0xbef16157	-0.47144577
168	0x3d018e26	0.031629704
169	0x3e254509	0.16139616
170	0xbe94c38a	-0.29055434
171	0x3e5e4b30	0.2170837
172	0xbe1f2fb2	-0.15545538
173	0xbe58b64c	-0.2116329
174	0xbebcca04	-0.36872876
175	0xbda9c00a	-0.08288582
176	0xbe35a620	-0.17739153
177	0x3e571985	0.21005829
178	0xbdecbced	-0.11559472
179	0x3e2205fb	0.15822594
180	0x3da982e7	0.08276921
181	0xbd85e7cc	-0.06538352
182	0xbeb896a0	-0.36052418
183	0x3e1d492d	0.15359946
184	0xbe84ab18	-0.25911784
185	0x3b16d776	0.0023016608
186	0x3d1d6cf7	0.038433995
187	0x3e34816f	0.176275
188	0xbd677e3f	-0.056516882
189	0xbf1f420e	-0.62210166
190	0xbe211518	-0.15730703
191	0xbe1c3cc4	-0.15257555
192	0x3e6d6eb1	0.23186757
193	0xbf07df02	-0.5307466
194	0xbe6b9f65	-0.23010023
195	0xbd3d444a	-0.046207704
196	0x3e8e7842	0.27826124
197	0xbe1b0c13	-0.15141325
198	0x3d9d7ee3	0.07690217
199	0xbe039e4c	-0.12853354
200	0xbe925351	-0.2857919
201	0xbe8c3f99	-0.2739227
202	0x3e60d234	0.21955186
203	0x3e7c5dac	0.24645108
204	0x3d9b7e70	0.075924754
205	0xbdf99dba	-0.12188287
206	0xbea822fc	-0.3283919
207	0xbe586fef	-0.2113645
208	0x3eac59cb	0.33662257
209	0xbefb6d7c	-0.49106967
210	0x3e4bac5a	0.19889966
211	0xbca16a96	-0.019704144
212	0x3e8dd1a8	0.27699018
213	0xbe1855d0	-0.14876485
214	0x3ba53cfa	0.0050426694
215	0xbea2d515	-0.31803194
216	0xbf4aac9b	-0.79169625
217	0xbdc394ef	-0.09549891
218	0xbe31eb01	-0.17374803
219	0x3e613bb4	0.21995431
220	0x3eb99e72	0.36253697
221	0xbe34a991	-0.1764281
222	0xbef8cab2	-0.48592144
223	0xbe02a468	-0.12758029
224	0x3db973c6	0.09055285
225	0x3e9e389e	0.3090257
226	0x3e298756	0.16555533
227	0x3ea48a20	0.3213663
228	0x3c80ebbc	0.015737407
229	0x3d11cf79	0.035598252
230	0xbc307097	-0.010769031
231	0x3d88206f	0.06646811
232	0xbe1820d2	-0.1485627
233	0xbe9ae9b4	-0.30256426
234	0xbdf97803	-0.121810935
235	0x3d02024d	0.031740475
236	0xbd44b584	-0.04802467
237	0xbe07765d	-0.13228746
238	0x3dc5bc9a	0.096551135
239	0x3e883a2e	0.26606888
240	0xbd8d6a20	-0.06905007
241	0x3cac27d0	0.021015078
242	0x3db68e9d	0.0891392
243	0x3de7f19c	0.1132538
244	0xbdda936b	-0.10672649
245	0xbdbcb076	-0.09213345
246	0xbe8ba256	-0.2727229
247	0xbdc65067	-0.09683304
248	0xbe61bb7e	-0.22044179
249	0x3dc56a40	0.09639406
250	0x3e987e4a	0.2978385
251	0xbd77454c	-0.06036882
252	0x3e68d84e	0.22738764
253	0xbe1565fc	-0.14589685
254	0xbe891665	-0.26774898
255	0x3e46a8f4	0.19400388

bilstm.weight_hh_l0_reverse f4 [64, 16]
0	0xbea358fc	-0.31903827
1	0xbe031160	-0.12799597
2	0x3e770e45	0.24126537
3	0x3d6ac7d2	0.05731947
4	0xbee84c13	-0.4537054
5	0xbd33b2ce	-0.043871693
6	0xbec5f4c5	-0.38663307
7	0xbddafa79	-0.10692305
8	0xbdc76beb	-0.097373806
9	0xbd9fbff7	-0.07800286
10	0xbeaf5e8d	-0.34251824
11	0x3e4ca8e7	0.19986306
12	0xba2b5084	-0.000653513
13	0xbc221f85	-0.00989521
14	0x3e289ab1	0.1646526
15	0xbd9661cc	-0.07342872
16	0x3e9e48f3	0.3091503
17	0x3e7a96e4	0.24471623
18	0xbe310da7	-0.17290364
19	0x3e8e7a54	0.27827704
20	0x3e5f9067	0.21832429
21	0x3e369254	0.17829257
22	0xbe8ff688	-0.28117776
23	0x3e54500b	0.20733659
24	0xbea3170e	-0.31853527
25	0xbef2e918	-0.4744346
26	0x3f035f05	0.51316863
27	0xbece3f17	-0.4028251
28	0xbe67758a	-0.22603431
29	0xbef2715c	-0.4735211
30	0xbea6dd98	-0.32590938
31	0x3e7fb065	0.24969633
32	0x3e67a7c1	0.22622587
33	0xbe256a05	-0.16153724
34	0xbb9b17eb	-0.004733076
35	0xbe4cd64f	-0.20003627
36	0x3e607f41	0.21923544
37	0x3e4a9323	0.1978269
38	0xbd9a9619	-0.0754816
39	0xbda6403e	-0.08117722
40	0x3ea734e7	0.3265755
41	0x3e464fa8	0.19366324
42	0xbda3e14e	-0.08001958
43	0x3dc491f1	0.095981486
44	0x3e9c1514	0.3048483
45	0x3e3f9ace	0.18711397
46	0x3d834677	0.064099245
47	0xbdb24bbf	-0.08705854
48	0xbcef01dd	-0.029175693
49	0xbe19005e	-0.14941546
50	0x3f026779	0.50939137
51	0xbdfc8dde	-0.123317465
52	0x3db538d1	0.088487275
53	0xbd911010	-0.07083142
54	0x3ed13839	0.40863207
55	0x3ebec3ee	0.37258857
56	0x3e04def0	0.12975669
57	0x3cc55f66	0.024093341
58	0x3e8c3713	0.27385768
59	0xbdffe64e	-0.12495099
60	0xbdd001af	-0.10156571
61	0xbe00ba1f	-0.12571
62	0xbe0af6f2	-0.13570765
63	0xbef48ccd	-0.47763672
64	0x3e701415	0.2344516
65	0x3e492c25	0.19645746
66	0xbe649395	-0.22321923
67	0x3ec23bd3	0.37936267
68	0x3e858882	0.2608071
69	0x3f17f136	0.59352434
70	0xbe343265	-0.17597349
71	0x3e6c9361	0.23103096
72	0xbe8c47d6	-0.27398556
73	0xbf027f6c	-0.5097568
74	0x3ea7c1a2	0.32764918
75	0xbe4de57d	-0.20107074
76	0xbe8c243d	-0.27371398
77	0xbed83ed5	-0.42235437
78	0xbf124a46	-0.5714458
79	0x3d1f7b9b	0.03893624
80	0xbe9bea2c	-0.30452096
81	0xbd7af12c	-0.061265156
82	0xbe4b454a	-0.1985065
83	0x3e1c6af7	0.15275179
84	0x3b53ad11	0.00322992
85	0x3e0e918b	0.13922708
86	0x3dc206e8	0.094739735
87	0x3e92f467	0.2870209
88	0xbe0727cc	-0.13198775
89	0x3c0753e7	0.00825975
90	0xbc827d71	-0.015928956
91	0x3e2a7a68	0.16648257
92	0xbe30e721	-0.17275669
93	0xbcf339d4	-0.02969066
94	0xbd234a51	-0.039865796
95	0xbda36da0	-0.07979894
96	0xbd9b4002	-0.07580568
97	0xbd37c1cf	-0.044862565
98	0xbdf2e26f	-0.11859595
99	0xbec197d1	-0.3781114
100	0xbe82fe45	-0.25584617
101	0xbeeacd66	-0.45859832
102	0xbf544f3b	-0.82933396
103	0xbefa2dd8	-0.488631
104	0x3e5fe083	0.21862988
105	0x3ebb7a72	0.36616856
106	0x3c2018d7	0.009771547
107	0x3e9d59e4	0.30732644
108	0x3ed2f6d1	0.4120393
109	0x3d314355	0.043277103
110	0x3e106339	0.1410035
111	0x3e54089a	0.20706406
112	0x3ed6f0c2	0.4198056
113	0xbc75ed87	-0.015010244
114	0xbf46a6c3	-0.7759821
115	0x3d944858	0.07240361
116	0x3ead2419	0.33816603
117	0xbd4bd5b2	-0.049764343
118	0x3f190e1e	0.59787166
119	0xbe58b8e8	-0.21164286
120	0x3e9215a5	0.28532138
121	0x3db4c65a	0.08826895
122	0x3b02a82e	0.0019936669
123	0xbe362e34	-0.17791063
124	0x3e3cacbc	0.18425268
125	0x3db37586	0.0876265
126	0xbe9dab9f	-0.30795
127	0x3d9ccdff	0.07656478
128	0xbec8622a	-0.39137393
129	0xbe957ebd	-0.29198256
130	0x3ea99b76	0.3312642
131	0xbec90969	-0.39264992
132	0xbe2d66be	-0.16933724
133	0xbdb46b32	-0.088095084
134	0xbf03bedb	-0.514631
135	0xbc514561	-0.012772889
136	0x3e2f5e07	0.17125712
137	0x3e8f733f	0.28017613
138	0xbe1ee4a1	-0.15516903
139	0x3da077a9	0.07835323
140	0xbd4ce1ab	-0.0500199
141	0x3c58a806	0.013223654
142	0xbd873a56	-0.066029236
143	0x3f40d71e	0.7532824
144	0x3e3701f0	0.17871833
145	0x3f2a5132	0.66530144
146	0xbe5759e3	-0.21030383
147	0x3e94a3b1	0.29031137
148	0x3e3cdff0	0.184448
149	0x3f05fd71	0.52339846
150	0xbd2917e6	-0.041282557
151	0x3f54d421	0.83136183
152	0xbd7abd47	-0.061215665
153	0xbf5f386f	-0.87195486
154	0x3e990ee1	0.29894164
155	0xbf271a02	-0.6527406
156	0xbd471b7e	-0.048610203
157	0xbf2884b4	-0.6582749
158	0xbeff7d08	-0.4990008
159	0xbe027d3a	-0.12743083
160	0xbd051254	-0.032488182
161	0xbdd2767c	-0.10276505
162	0xbf06dd25	-0.5268119
163	0x3d96515d	0.073397376
164	0x3af03466	0.0018326163
165	0xbec195a0	-0.37809467
166	0x3e03aaa5	0.12858064
167	0x3e5ff318	0.21870077
168	0x3ecda222	0.4016276
169	0x3df7f27b	0.12106796
170	0x3ea11299	0.314595
171	0x3d4527f1	0.048133794
172	0x3e59aa41	0.21256353
173	0xbd22eecb	-0.039778512
174	0xbe939988	-0.28828073
175	0x3d559750	0.052146256
176	0xbe10c1c0	-0.1413641
177	0x3d04f2e2	0.032458194
178	0xbf1d4dbc	-0.6144674
179	0xbd653896	-0.055962168
180	0xbe7736ff	-0.24142073
181	0xbe6d1ed3	-0.2315629
182	0xbf371286	-0.7151264
183	0xbe48dd66	-0.19615707
184	0xbf3aaaf7	-0.7291712
185	0xbe66b05a	-0.2252821
186	0xbe7180f6	-0.23584351
187	0xbefabc09	-0.48971584
188	0xbe7c3e4d	-0.24633141
189	0xbe04996a	-0.12949148
190	0x3edb5aae	0.4284262
191	0x3f2ba6f0	0.670516
192	0xbbad871c	-0.0052956473
193	0x3e702efe	0.23455426
194	0xbeac618d	-0.33668175
195	0xbe2423a4	-0.16029221
196	0x3e35ef64	0.17767102
197	0xbe981e59	-0.29710653
198	0xbf324e0f	-0.6965036
199	0xbe8346b5	-0.25639883
200	0xbea51c45	-0.3224813
201	0xbdbba9ff	-0.091632836
202	0xbcb65f36	-0.022262197
203	0xbe7727c0	-0.24136257
204	0xbe71c44b	-0.23610036
205	0xbe29968b	-0.16561334
206	0x3eb6fb27	0.3573849
207	0x3f38f08a	0.72242033
208	0xbec7f58b	-0.39054522
209	0xbe1289cf	-0.14310382
210	0x3e0f8339	0.14014901
211	0xbe9676d2	-0.29387528
212	0x3e98f957	0.2987773
213	0xbe7fded0	-0.2498734
214	0x3f112680	0.5669937
215	0x3ecfc3fc	0.40579212
216	0xbe01c706	-0.12673578
217	0xbe7e8738	-0.2485627
218	0x3e71d4f8	0.23616397
219	0xbdc75458	-0.09732884
220	0xbea59655	-0.32341257
221	0xbe5ba880	-0.21450996
222	0xbf0199c1	-0.50625235
223	0xbe86e48f	-0.2634625
224	0x3e3195b5	0.17342265
225	0xbe05aebd	-0.13054939
226	0xbf672180	-0.9028549
227	0xbe32e44a	-0.17469898
228	0xbee7689e	-0.45197004
229	0x3ec2da77	0.380573
230	0x3dcec277	0.10095685
231	0xbf000c69	-0.50018936
232	0x3e64aa7c	0.2233066
233	0x3d15e719	0.036597345
234	0x3c87ed31	0.016592594
235	0x3df51595	0.11967007
236	0x3e132607	0.14369975
237	0x3e498169	0.19678272
238	0x3dca2307	0.09869962
239	0x3d90d617	0.070720844
240	0x3e4009e1	0.18753769
241	0xbdb3a54e	-0.08771764
242	0xbdb0c049	-0.086304255
243	0xbec4fc50	-0.3847375
244	0x3ba3f930	0.0050040707
245	0x3b346b3d	0.002752974
246	0xbf1d04ff	-0.6133575
247	0x3bc1ee20	0.0059182793
248	0x3ea3ee75	0.32017866
249	0x3e103506	0.14082727
250	0xbe7357a1	-0.23763897
251	0x3d492cc0	0.049114943
252	0x3c2abc4e	0.010420872
253	0x3ede695f	0.43439767
254	0x3e1a6a15	0.1507953
255	0x3ea319f0	0.31855726

bilstm.weight_ih_l0 f4 [64, 32]
0	0xbaae43d5	-0.0013295362
1	0x3d536f9d	0.051620115
2	0x3cb9a8b6	0.022663455
3	0xbd51eba1	-0.051250104
4	0x3d9460c0	0.07245016
5	0xbe2c62c5	-0.16834553
6	0xbe32d97a	-0.17465773
7	0xbdc068f2	-0.09395017
8	0xbcd7270e	-0.02626374
9	0xbe48bdd5	-0.19603665
10	0x3db5c012	0.08874525
11	0xbd5e1c1e	-0.054226033
12	0xbec028c5	-0.37531105
13	0xbe8a6d9f	-0.2703676
14	0xbe1a493d	-0.15067
15	0x3eefb40b	0.4681705
16	0x3d171115	0.036881525
17	0xbac6db38	-0.0015171533
18	0xbb968a30	-0.00459411
19	0xbdfc49a4	-0.12318733
20	0xbb8364cf	-0.00400982
21	0xbde24bcd	-0.11049614
22	0xbdb91891	-0.09037889
23	0x3b98dfff	0.0046653743
24	0xbec66d62	-0.38755327
25	0xbe2ea4d6	-0.17055067
26	0xbcd55db3	-0.026045656
27	0x3d98d383	0.07462218
28	0x3e72bce2	0.23704866
29	0x3e67464c	0.2258541
30	0xbe7224e9	-0.23646893
31	0xbeb5d3b6	-0.35513085
32	0xbd420dd7	-0.04737648
33	0xbf2b59ce	-0.66933906
34	0xbec8eef3	-0.39244804
35	0xbe4f148c	-0.20222682
36	0xbe423c29	-0.18968262
37	0x3dd8370e	0.10557376
38	0xbd875459	-0.06607885
39	0xbebe9655	-0.3722407
40	0xbe3a3e4d	-0.18187828
41	0xbe883bec	-0.26608217
42	0xbeb020e3	-0.3440009
43	0x3f1bbb2d	0.6083248
44	0xbeba7f6b	-0.36425337
45	0xbe626e0d	-0.22112294
46	0x3dc4a697	0.09602087
47	0x3de3dfc1	0.11126662
48	0x3c8d38be	0.01723897
49	0xbea8afe4	-0.32946694
50	0x3e8ba2dc	0.2727269
51	0xbd17659f	-0.036962148
52	0xbdbb7171	-0.091524966
53	0xbe33ec2c	-0.17570561
54	0xbe88f5d1	-0.26750043
55	0xbe48fb37	-0.19627081
56	0xbe7d18a5	-0.24716432
57	0x3ec5bfca	0.38622886
58	0xbe68e053	-0.22741823
59	0x3dc60503	0.09668925
60	0x3d8367d1	0.06416286
61	0xbf0478b3	-0.5174667
62	0x3e555d65	0.20836408
63	0xbe9c6778	-0.3054769
64	0x3e8b2e63	0.27183828
65	0x3e3480bf	0.17627238
66	0xbe0906a0	-0.13381433
67	0x3db72296	0.089421436
68	0x3e83ad58	0.25718188
69	0x3bba7d57	0.005691211
70	0xbe05a596	-0.13051447
71	0xbe258010	-0.16162133
72	0x3e429f4c	0.1900608
73	0x3e4838ec	0.19552964
74	0x3e5cde0d	0.2156908
75	0x40061185	2.0948193
76	0xbd83555f	-0.064127676
77	0x3e3ca364	0.18421704
78	0x3e161b00	0.14658737
79	0x3daa357f	0.08310985
80	0xbe445557	-0.1917318
81	0x3ef7485f	0.48297402
82	0x3eee57f3	0.46551475
83	0x3e91fca6	0.28513068
84	0x3ed5e873	0.41778907
85	0x3f5d2fcd	0.86401063
86	0xbe0fffac	-0.14062375
87	0x3e37fb7a	0.17967024
88	0xbd8e11d9	-0.06936998
89	0xbe6a5520	-0.22884035
90	0x3f0241aa	0.50881445
91	0xbd7079ce	-0.058709912
92	0x3e21a559	0.15785731
93	0x3ecf541b	0.40493855
94	0x3dfe0238	0.12402767
95	0xbdd454c1	-0.10367728
96	0x3e0a3109	0.13495268
97	0x3db40738	0.08790439
98	0x3edf8abe	0.4366054
99	0xbd5f19a1	-0.0544678
100	0x3f07f5fc	0.5310972
101	0xbf9b9f89	-1.2158061
102	0x3ca70771	0.02038929
103	0xbe2118d9	-0.15732135
104	0x3da7522c	0.0816997
105	0x3def2ef5	0.11678878
106	0xbf094e3a	-0.5363499
107	0xbfa4469c	-1.2834048
108	0x3d48fabb	0.04906724
109	0x3f05a102	0.52198803
110	0x3e1e3264	0.1544891
111	0x3e06b4d7	0.13154922
112	0x3e627de3	0.22118334
113	0xbe80215a	-0.25025445
114	0x3da00f60	0.078154325
115	0x3e42183e	0.1895456
116	0x3d81da4a	0.063404635
117	0xbeed92ae	-0.4640097
118	0x3d9d8fb2	0.07693423
119	0xbe89592c	-0.26825845
120	0xbe8fb5f5	-0.2806851
121	0x3d1069f7	0.035257306
122	0xbe00296e	-0.12515804
123	0xbd835d48	-0.06414276
124	0xbe7d77ba	-0.24752703
125	0xbe9be11c	-0.30445182
126	0x3d948275	0.07251445
127	0xbe98f034	-0.2987076
128	0x3e7ce709	0.24697508
129	0xbce9fce4	-0.02856297
130	0xbc76798a	-0.015043626
131	0x3cc9b0fc	0.024620526
132	0xbe5f1172	-0.21783999
133	0xbe742d2b	-0.23845355
134	0xbd358159	-0.04431281
135	0x3e8e94cc	0.27847898
136	0xbda07d98	-0.07836455
137	0x3e67cb4d	0.22636147
138	0x3dde89d4	0.108661324
139	0xbf904cd1	-1.1273443
140	0x3d51ef89	0.05125383
141	0xbe9d413f	-0.3071384
142	0x3ec01c57	0.37521622
143	0x3eb13c8d	0.3461651
144	0xbd9a15ed	-0.07523713
145	0x3dd1eb8a	0.10250004
146	0x3e133e00	0.1437912
147	0xbd04dead	-0.032438923
148	0xbd2445a6	-0.040105484
149	0x3e3ec481	0.18629648
150	0xbdff7653	-0.124737404
151	0xbe2a7eec	-0.1664998
152	0xbd8415e0	-0.06449485
153	0xbf167b60	-0.58782005
154	0xbd138cd1	-0.036022965
155	0xbe5f5626	-0.21810207
156	0xbe08c304	-0.13355643
157	0xbe00c00c	-0.1257326
158	0xbe1cd7e7	-0.15316735
159	0x3e269287	0.16266833
160	0x3da2bee1	0.079465635
161	0xbd90329b	-0.07040902
162	0x3ee883de	0.45413107
163	0x3e801b23	0.25020704
164	0x3e8d8be9	0.27645805
165	0x3e349f40	0.17638874
166	0x3d347d04	0.044064537
167	0x3d86345a	0.06552954
168	0x3e2ca3bb	0.16859333
169	0xbe2d15cd	-0.16902848
170	0x3ec80403	0.3906556
171	0xbd3e923b	-0.046526175
172	0xbdf48952	-0.11940254
173	0xbe4bceaa	-0.19903055
174	0x3e2ddabb	0.1697797
175	0x3eafa2ba	0.34303838
176	0x3de44005	0.11145023
177	0x3de879e4	0.11351374
178	0xbd2c9dbc	-0.042142615
179	0x3e071bcf	0.13194202
180	0xbdd5a669	-0.10432131
181	0x3f0af893	0.54285544
182	0x3f0bba4f	0.5458116
183	0xbdede8b0	-0.11616647
184	0xbd9d2e6a	-0.076748684
185	0xbd554895	-0.052071173
186	0xbeb62b23	-0.35579786
187	0xbe8f10bd	-0.27942458
188	0x3e795d39	0.24351968
189	0x3e858f83	0.26086053
190	0xbe980973	-0.2969471
191	0x3e4ea986	0.20181856
192	0xbe734ddb	-0.23760168
193	0xba869fda	-0.0010271028
194	0xbf1b5ec4	-0.60691476
195	0xbc97f03a	-0.018547166
196	0xbe2f33f9	-0.1710967
197	0x3cb5e6c5	0.022204766
198	0x3eaf4274	0.34230387
199	0x3d4923a6	0.049106263
200	0xbe30afc6	-0.17254552
201	0xbdc8a6fa	-0.09797473
202	0x3ed273c1	0.41103938
203	0xbe6052ce	-0.21906587
204	0xbe761f75	-0.24035437
205	0xbdf7f4b5	-0.12107221
206	0xbe4b33fc	-0.19844049
207	0x3cae6a8b	0.021291038
208	0xbdedfc56	-0.11620395
209	0xbe72a3c1	-0.2369528
210	0xbe53f920	-0.20700502
211	0xbe3892bd	-0.18024726
212	0xbf00f044	-0.50366616
213	0x3dbada9a	0.09123726
214	0x3e8d7298	0.2762649
215	0xbd03a3a9	-0.0321385
216	0x3e737a50	0.23777127
217	0xbecde3e2	-0.40212923
218	0xbddb82e2	-0.10718323
219	0xbd112a2d	-0.035440613
220	0xbd457a53	-0.04821236
221	0x3d00b3c0	0.031421423
222	0x3ef397bd	0.47576705
223	0x3eb176ca	0.3466094
224	0x3df0ac27	0.117515855
225	0xbde5259b	-0.11188813
226	0x3e651925	0.22372873
227	0x3e271687	0.16317187
228	0xbd5f4f1e	-0.05451881
229	0x3e314f09	0.17315306
230	0x3f009a80	0.5023575
231	0xbb369624	-0.0027860487
232	0x3ed2a4f6	0.4114148
233	0x3f08d45f	0.5344905
234	0x3dabc1e4	0.08386591
235	0x3fa3e144	1.2803121
236	0x3dc1f5e3	0.09470727
237	0x3e3266eb	0.17422073
238	0x3ddad46c	0.106850475
239	0x3ecc243b	0.39871392
240	0x3c764eab	0.015033404
241	0x3f12d794	0.57360196
242	0xbe3fa110	-0.18713784
243	0x3f214b0f	0.63005155
244	0x3e93d62b	0.28874335
245	0x3d1917a1	0.03737605
246	0x3c90ad33	0.017660713
247	0x3e735349	0.2376224
248	0x3e70c941	0.23514272
249	0xbd43d75a	-0.047812797
250	0x3f09a68c	0.53769755
251	0xbe4bab98	-0.19889677
252	0x3dda9da6	0.106746
253	0x3e6af443	0.22944741
254	0x3e5d3f37	0.21606146
255	0x3d25c4d9	0.04047093

bilstm.weight_ih_l0_reverse f4 [64, 32]
0	0xbd4108e9	-0.047127638
1	0xbd265734	-0.040610507
2	0xbd2bf2b0	-0.04197949
3	0x3cf90144	0.030396111
4	0xbe20ed80	-0.15715599
5	0x3f0092c4	0.50223947
6	0x3e5708a2	0.20999387
7	0x3eadadd9	0.33921698
8	0x3e95f2f5	0.29286924
9	0x3dd8d2e6	0.10587101
10	0xbe909c2e	-0.28244156
11	0x3dfe236a	0.124090984
12	0x3d40ca67	0.047068026
13	0xbd3c73cb	-0.046008866
14	0x3ee46a8c	0.4461254
15	0xbe344dc8	-0.17607796
16	0xbcdf66b9	-0.027270662
17	0xbe44db3f	-0.19224261
18	0x3e824b72	0.25448185
19	0x3bc47b74	0.005996162
20	0x3d90b72d	0.07066188
21	0x3e69fc91	0.22850253
22	0x3e8bb9a4	0.2729007
23	0x3de30cab	0.110864006
24	0xbee7ec34	-0.45297396
25	0x3d28fd57	0.04125723
26	0x3d91b2be	0.071141705
27	0xbf07d227	-0.5305504
28	0xbe46bd32	-0.1940811
29	0x3cefa08a	0.029251356
30	0x3eee50f1	0.46546128
31	0xbedbc532	-0.42923886
32	0x3d23a3a8	0.039950997
33	0x3f108555	0.5645345
34	0x3ea41e06	0.32054156
35	0x3dc39d89	0.09551532
36	0x3edfcc52	0.43710572
37	0xbf0666c9	-0.5250059
38	0x3e0f316e	0.139837
39	0x3cb66dda	0.022269178
40	0x3ef2ac0f	0.47396895
41	0x3d51bbca	0.05120448
42	0x3d3d2fe9	0.04618827
43	0xbf48d549	-0.7845045
44	0x3e6c26a1	0.23061611
45	0x3e6d6e25	0.23186548
46	0x3e7cb419	0.24678077
47	0x3f0b6e3e	0.5446509
48	0x3e265131	0.1624191
49	0x3f493ce1	0.7860852
50	0xbdc11fac	-0.09429869
51	0x3e55f782	0.20895198
52	0xbeaca759	-0.33721426
53	0x3f36939a	0.7131897
54	0xbdea5802	-0.114425674
55	0x3edba035	0.42895666
56	0x3f3a3eac	0.7275188
57	0xbf09fb3d	-0.53898984
58	0xbea2d039	-0.31799486
59	0xbd6af343	-0.0573609
60	0x3e07d760	0.13265753
61	0xbd3c4c9b	-0.045971494
62	0xbdf3a2a4	-0.118962556
63	0xbe70fa81	-0.2353306
64	0xbe33d45f	-0.17561482
65	0xbe91b720	-0.28460026
66	0xbf2bad8d	-0.6706169
67	0xbd9b9e6e	-0.075985774
68	0xbed6cbbb	-0.4195231
69	0x3e715a25	0.23569544
70	0xbe6925bb	-0.227683
71	0xbeab5f24	-0.33471024
72	0xbead75cd	-0.33878937
73	0xbe1e2ae9	-0.15446056
74	0xbe83be92	-0.2573133
75	0x3e71f3e9	0.236282
76	0x3dd1e8ce	0.10249482
77	0x3ddc7643	0.10764744
78	0xbe4afefb	-0.1982383
79	0xbf5798ce	-0.84217536
80	0xbe1f9e76	-0.15587792
81	0xbcea5ccb	-0.0286087
82	0xbde111e7	-0.10989743
83	0x3dcfad0d	0.10140429
84	0x3e34e87c	0.17666811
85	0xbe2adbeb	-0.16685455
86	0xbe3e91a8	-0.18610251
87	0xbec4a62d	-0.38408032
88	0xbf1c2132	-0.6098815
89	0x3e9fec47	0.31234953
90	0x3d916c1f	0.071007006
91	0x3dc7d06c	0.0975655
92	0xbdab63fb	-0.08368679
93	0xbea1b6d8	-0.3158481
94	0xbec2924c	-0.3800224
95	0x3e1749aa	0.14774194
96	0xbe591a09	-0.21201338
97	0xbe5b2efd	-0.21404643
98	0xbd8ceb5c	-0.06880829
99	0x3e6f69fd	0.23380275
100	0x3e7ad98a	0.24497047
101	0x3f7d1537	0.98860496
102	0xbe02d7b9	-0.12777604
103	0x3db2256f	0.08698546
104	0x3e936f8e	0.28796047
105	0xbdf8b1f8	-0.1214332
106	0xbe9fdbe3	-0.31222448
107	0xbf579ef8	-0.8422694
108	0xbde1b587	-0.11020952
109	0x3d6db0a3	0.058029782
110	0x3dd5525d	0.104161
111	0xbd4fafae	-0.05070465
112	0x3ddd91ad	0.10818801
113	0x3e0a7f0a	0.13525024
114	0x3ddea95c	0.108721465
115	0x3c9e6e3e	0.019339677
116	0x3ce88589	0.028383987
117	0xbca392b1	-0.019967409
118	0xbced702a	-0.028984148
119	0xbe097f2e	-0.13427421
120	0xbe249b85	-0.16074951
121	0x3ee53def	0.44773814
122	0x3e302b68	0.17204058
123	0x3e948d6d	0.2901415
124	0x3e7f5763	0.24935679
125	0x3e6d611f	0.2318158
126	0x3f318be5	0.6935409
127	0xbe73afbd	-0.23797508
128	0x3e359e1e	0.17736098
129	0xbdbf4b5b	-0.09340545
130	0x3e4c8acd	0.19974823
131	0x3eb1cb86	0.3472559
132	0xbe5cbc60	-0.21556234
133	0xbec27475	-0.37979475
134	0xbc23efd9	-0.010005915
135	0xbe6c5217	-0.2307819
136	0x3ddf04be	0.108895764
137	0x3f029f00	0.51023865
138	0x3bd76bb0	0.0065741166
139	0x3f827e6b	1.019483
140	0xbcf0ba95	-0.029385844
141	0x3eb289e4	0.34870827
142	0xbd9f54ae	-0.07779823
143	0x3eb60296	0.35548848
144	0x3dfc1e0a	0.12310417
145	0x3e3b9ad7	0.18320785
146	0xbe28ff45	-0.16503628
147	0xbb807ed6	-0.00392137
148	0x3f18dd33	0.59712523
149	0x3f190e4e	0.5978745
150	0x3bf11dd7	0.0073582935
151	0x3ea732bc	0.32655895
152	0x3e8fdd35	0.28098455
153	0xbe0396cd	-0.12850495
154	0x3e5ad4f4	0.21370298
155	0x3eaa65c7	0.33280775
156	0xb900fe85	-0.00012301847
157	0x3ea4ef59	0.32213858
158	0xbe85eb8b	-0.26156268
159	0x3e784838	0.242463
160	0x3e3ef326	0.18647441
161	0xbbee7ca7	-0.0072780433
162	0x3ea69551	0.32535794
163	0xbdc1295b	-0.09431716
164	0x3ec06ddc	0.37583816
165	0xbdb27ecb	-0.0871559
166	0xbe8d211e	-0.2756433
167	0x3e438e86	0.19097337
168	0x3e12b1ad	0.1432559
169	0xbe54556d	-0.20735712
170	0xbe11d26f	-0.1424043
171	0x3e852eb4	0.26012194
172	0xbe602412	-0.2188876
173	0xbe32ce1b	-0.17461435
174	0x3d589986	0.052880786
175	0x3c87a860	0.01655978
176	0xbe218a29	-0.1577536
177	0xbc2d930c	-0.010594141
178	0xbe21fb86	-0.15818605
179	0xbd0fb5e7	-0.035085585
180	0x3e2bdf14	0.16784316
181	0x3f81dc15	1.0145289
182	0xbde461dd	-0.111514784
183	0xbe4d39b4	-0.20041543
184	0x3f0f4a53	0.55972785
185	0x3e981c1e	0.29708952
186	0x3ea2fc06	0.31832904
187	0xbef629dd	-0.48078814
188	0xbe269579	-0.16267957
189	0x3e1653fb	0.14680474
190	0xbc803493	-0.01565007
191	0xbee597d2	-0.44842392
192	0xbd1f58f8	-0.038903207
193	0x3e946334	0.28981936
194	0xbd4a02bd	-0.049319018
195	0xbdfa2221	-0.12213541
196	0x3d326235	0.04355069
197	0xbe502bbe	-0.20329186
198	0xbd76f109	-0.060288463
199	0xbb94a8f3	-0.004536742
200	0xbe58880a	-0.21145645
201	0xbe814599	-0.2524841
202	0x3e4f8043	0.20263772
203	0xbf1758fe	-0.59120166
204	0xbe5db3e9	-0.21650662
205	0xbe4c5d59	-0.19957484
206	0xbe40226b	-0.1876313
207	0xbe3f3593	-0.1867278
208	0x3e645049	0.22296251
209	0xbe0d48ad	-0.13797255
210	0x3e670b25	0.22562845
211	0xbd03fc6e	-0.032223158
212	0xbea28bc3	-0.31747255
213	0xbe82fef5	-0.25585142
214	0xbcbcce07	-0.02304746
215	0xbe625751	-0.22103621
216	0x3da5481a	0.08070393
217	0xbc008786	-0.007844811
218	0xbe3baa9e	-0.18326804
219	0x3e8ee30f	0.27907607
220	0x3d8ba8f8	0.068193376
221	0xbdfbfe66	-0.12304382
222	0x3e12d2a6	0.14338169
223	0x3d0b68aa	0.034035362
224	0x3d6751dd	0.056474555
225	0xbd21ddd6	-0.0395182
226	0xbd5f3702	-0.05449582
227	0x3e7e43ca	0.24830547
228	0x3a76e262	0.0009417889
229	0xbc9c517c	-0.019081824
230	0xbdfb7c32	-0.12279548
231	0x3e2ec35e	0.17066714
232	0xbda7aa90	-0.08186829
233	0xbd4aae4b	-0.049482625
234	0x3e1a46c8	0.15066063
235	0xbe8c5b74	-0.27413523
236	0xbd87c31f	-0.06629013
237	0xbda8bdef	-0.08239352
238	0xbdaed189	-0.085360594
239	0x3ebeb188	0.3724482
240	0xbe2f1f8b	-0.17101876
241	0xbd362e81	-0.044477943
242	0x3e3a5920	0.18198061
243	0x3e6f0cb9	0.23344697
244	0x3d94b995	0.072619595
245	0xbdacc1c6	-0.08435397
246	0xbe4ed92d	-0.20200033
247	0x3d137899	0.036003683
248	0x3e84240d	0.25808755
249	0xbdeea7fd	-0.11653135
250	0x3d3f0c86	0.046642803
251	0x3d2dd484	0.042439
252	0x3e209e23	0.15685324
253	0xbd2cd1bd	-0.04219221
254	0xbe9a2735	-0.30108038
255	0x3e2852cc	0.16437835

parallel_cnn_block.branches.0.0.weight f4 [1, 1, 2]
0	0x3efaddd7	0.48997375
1	0x3f1e7025	0.6188987

parallel_cnn_block.branches.0.2.bias f4 [16]
0	0x3d4823d0	0.04886228
1	0x3f2b4a75	0.6691049
2	0xbf230149	-0.63673836
3	0x3e0555fe	0.13021085
4	0xbbfb9297	-0.007677387
5	0xbe31b5db	-0.17354529
6	0xbeac63c1	-0.33669856
7	0x3dfb321f	0.12265419
8	0xbed17663	-0.40910634
9	0x3ec1b956	0.37836713
10	0x3ee2a1a4	0.44263947
11	0xbf4c561f	-0.7981891
12	0x3cb2cf8a	0.021827478
13	0x3da3629b	0.07977792
14	0x3dc367c4	0.09541276
15	0x3eb8ae50	0.3607049

parallel_cnn_block.branches.0.2.weight f4 [16, 1, 2]
0	0x3eeb6a4a	0.4597953
1	0xbf156c6b	-0.5836856
2	0xbddfb885	-0.10923866
3	0x3efe9af0	0.49727583
4	0x3f1684a7	0.5879616
5	0xbea960a0	-0.33081532
6	0x3e655877	0.22397028
7	0xbe6f5f8c	-0.23376292
8	0xbe01a35b	-0.12659971
9	0x3dd028ba	0.10164018
10	0x3e2b6918	0.16739309
11	0xbdaba8b2	-0.083817855
12	0x3d81c342	0.063360706
13	0xbe0aea9d	-0.1356606
14	0x3efb983a	0.49139577
15	0xbeef81af	-0.46778628
16	0x3c917371	0.017755242
17	0x3e2c0c29	0.16801514
18	0x3d02b836	0.03191396
19	0xbedb576f	-0.42840144
20	0x3ee64dca	0.44981223
21	0xbf1f0bba	-0.6212727
22	0x3d8d0588	0.068858206
23	0x3e0e9276	0.13923058
24	0x3ed7335a	0.42031366
25	0xbf1bfe26	-0.60934675
26	0x3f0eb01d	0.5573748
27	0xbf0d06b1	-0.55088335
28	0xbe1f30f2	-0.15546015
29	0x3e085dc7	0.13317023
30	0xbfafe3ef	-1.3741435
31	0x3ef1f163	0.47254476

parallel_cnn_block.branches.1.0.weight f4 [1, 1, 4]
0	0xbd011a82	-0.03151942
1	0x3f1bdfb7	0.60888237
2	0xbe8ca08e	-0.27466244
3	0x3ca900e8	0.020630315

parallel_cnn_block.branches.1.2.bias f4 [32]
0	0x3d40c063	0.047058474
1	0x3dce90f2	0.1008624
2	0x3ef9b648	0.48771882
3	0x3c36cbcf	0.01115699
4	0xb96d5277	-0.00022632802
5	0xbf0cfcef	-0.55073446
6	0x3e412570	0.18861938
7	0xbde24377	-0.11048024
8	0xbe1ae4ee	-0.15126392
9	0xbeb8a73c	-0.3606509
10	0x3dff7d05	0.124750175
11	0x3ef9c673	0.48784217
12	0x3efe8452	0.49710327
13	0xbdf02ed8	-0.11727685
14	0xbefc0d3f	-0.49228856
15	0xbecbef85	-0.39831176
16	0x3ea121c6	0.3147108
17	0xbc5d63af	-0.013512536
18	0x3e5c0dda	0.21489659
19	0x3dca6cba	0.09884019
20	0xbe2f655f	-0.17128514
21	0xbc594a4a	-0.013262341
22	0xbef26b56	-0.47347516
23	0xbbe91371	-0.0071129133
24	0x3e4dfafc	0.20115274
25	0x3f0a7afd	0.54093915
26	0xbded7b40	-0.11595774
27	0x3ec90935	0.39264837
28	0xbf0f33e9	-0.55938584
29	0xbdf3c649	-0.11903054
30	0x3d42de04	0.04757501
31	0x3c58d51b	0.013234402

parallel_cnn_block.branches.1.2.weight f4 [32, 1, 4]
0	0xbf0efd8a	-0.5585562
1	0x3ea97e74	0.3310429
2	0x3e85276e	0.26006645
3	0x3e7222ad	0.2364604
4	0xbf2ed13c	-0.68288016
5	0xbeed6f27	-0.46373865
6	0x3ec9c308	0.3940661
7	0x3c2b29ae	0.010446949
8	0xbca1c931	-0.019749256
9	0xbef16b2b	-0.47152075
10	0x3e81f337	0.2538087
11	0x3edf99a1	0.43671897
12	0xbecfa85c	-0.40558136
13	0x3dcb5ca9	0.09929783
14	0x3e592232	0.2120445
15	0xbf900d91	-1.125414
16	0xbada0c98	-0.0016635833
17	0xbb886dc6	-0.0041634766
18	0x3f16d823	0.5892355
19	0xbee2fa0c	-0.44331396
20	0xbe557857	-0.20846687
21	0x3efadca7	0.4899647
22	0xbdd3109d	-0.10305903
23	0xbe12b289	-0.14325918
24	0xbed3a205	-0.4133455
25	0x3eff01a6	0.49805945
26	0xbd5f8bdc	-0.05457674
27	0x3e151fa9	0.14562859
28	0x3e587098	0.21136701
29	0x3e5f476a	0.21804586
30	0x3ed06491	0.40701726
31	0xbf45ce76	-0.7726816
32	0xbb31b5d9	-0.0027116446
33	0x3bde3546	0.006781253
34	0x3f3c6cea	0.7360369
35	0xbf219a55	-0.63126117
36	0x3e9282ba	0.2861536
37	0xbe9369ad	-0.28791562
38	0x3e9c2112	0.3049398
39	0x3cbcb85a	0.023037124
40	0x3e4277da	0.18991032
41	0x3f290290	0.66019535
42	0xbf0dbebd	-0.5536917
43	0xbe01d3dc	-0.12678474
44	0xbd644714	-0.055731848
45	0x3eb7e1ae	0.35914367
46	0xbed7d109	-0.4215167
47	0x3e4210fa	0.18951789
48	0x3e45bc03	0.19310002
49	0xbeb9f562	-0.36320025
50	0x3d6da780	0.05802107
51	0x3e739825	0.23788507
52	0xbf0fe2b8	-0.5620532
53	0x3dea3b49	0.11437089
54	0x3f367950	0.7127886
55	0xbe20c44a	-0.15699878
56	0x3e16d390	0.14729142
57	0x3e144e31	0.14482953
58	0xbe50eb54	-0.2040227
59	0x3f1288ac	0.57239795
60	0xbe154432	-0.14576796
61	0xbc9de32e	-0.019273367
62	0xbe2307c2	-0.15920928
63	0xbdff6623	-0.12470653
64	0xbe2615b0	-0.1621921
65	0x3f078bb8	0.5294757
66	0xbf6ab817	-0.9168715
67	0x3f0ac3b4	0.5420487
68	0xbe95800d	-0.29199257
69	0x3e506771	0.2035196
70	0x3eac21a0	0.33619404
71	0x3e179425	0.14802606
72	0x3e74e444	0.23915201
73	0xbf7ca712	-0.9869243
74	0xbd0fe821	-0.035133485
75	0xbf0401b8	-0.5156512
76	0xbd0b15c3	-0.0339563
77	0x3ef5cf03	0.480095
78	0xbec061fd	-0.3757476
79	0xbd262d72	-0.040570684
80	0x3c61ce92	0.01378216
81	0xbf042d6d	-0.51631814
82	0x3e80ca79	0.25154474
83	0x3eaf2375	0.3420674
84	0xbe999b0a	-0.30001098
85	0x3e43e0be	0.19128701
86	0x3f0e8425	0.55670387
87	0xbec9c79e	-0.39410108
88	0x3ebbcea7	0.366811
89	0x3ef41eca	0.4767974
90	0xbf648e43	-0.89279574
91	0xbd0bfe99	-0.03417835
92	0xbf279167	-0.6545624
93	0x3f5b5c55	0.8568776
94	0xbe7813a9	-0.2422625
95	0x3d57a3c3	0.05264641
96	0x3e2bf4e4	0.16792637
97	0x3dc7325f	0.097264044
98	0xbe03b7a1	-0.12863018
99	0xbe45a6f7	-0.19301973
100	0x3aaf1a2c	0.001335924
101	0xbec1d556	-0.37858075
102	0x3e88d044	0.26721394
103	0x3d960ff7	0.07327264
104	0x3c04db6b	0.008108954
105	0x3e70da46	0.23520765
106	0xbf20dabe	-0.62833774
107	0x3f1e05fe	0.61727893
108	0xbec9bf5e	-0.39403814
109	0xbee6652d	-0.44999066
110	0x3e4a81fa	0.19776145
111	0xbddbca86	-0.10731988
112	0xbeb84bbf	-0.3599529
113	0x3f620474	0.88288045
114	0xbebc5158	-0.3678081
115	0x3df07579	0.11741156
116	0xbf0807a9	-0.5313669
117	0x3cada9b9	0.021199094
118	0x3f08c75a	0.53429186
119	0x3db43691	0.0879947
120	0xbf0a94de	-0.54133403
121	0xbd035fb8	-0.032073706
122	0x3eae1f8c	0.34008443
123	0x3e1d146b	0.1533982
124	0x3ecab451	0.39590696
125	0x3aa289f1	0.0012400729
126	0xbb98c0c4	-0.0046616513
127	0x3ea5a08f	0.3234906

parallel_cnn_block.branches.2.0.weight f4 [1, 1, 8]
0	0xbc94fa65	-0.018185804
1	0x3c4d0725	0.01251391
2	0xbe5560ab	-0.20837657
3	0x3f085980	0.53261566
4	0x3e7e5529	0.24837174
5	0xbe39dd00	-0.18150711
6	0x3d201f5c	0.039092407
7	0xbcaab1bc	-0.020836703

parallel_cnn_block.branches.2.2.bias f4 [64]
0	0x3dcd4af9	0.100240655
1	0xbec25dc5	-0.37962165
2	0xbdd1f5d0	-0.10251963
3	0xbf5f6956	-0.87270105
4	0x3ddd92c2	0.108190075
5	0xbe290d3b	-0.16508953
6	0xbdecb456	-0.11557834
7	0xbf1a0fcb	-0.6018035
8	0x3ef423b9	0.47683504
9	0x3ea7712e	0.32703537
10	0x3e231a98	0.15928113
11	0x3c84f207	0.016228689
12	0xb979fe8c	-0.00023841317
13	0xbd0d3675	-0.034475762
14	0x3e8fef66	0.28112334
15	0x3c8728c0	0.016498923
16	0xbf0c7faa	-0.548823
17	0x3d38036e	0.044925146
18	0x3e7ae144	0.24499995
19	0x3d811678	0.06303114
20	0x3dd999a8	0.10625011
21	0x3d6983e4	0.057010546
22	0x3e9c94d0	0.30582285
23	0xbe867e3b	-0.2626818
24	0xbdbbff09	-0.091795035
25	0x3dc9ce54	0.09853807
26	0x3d2f44c4	0.04279019
27	0x3e23cc2c	0.15995854
28	0x3e8d5f4c	0.27611768
29	0x3b07f70a	0.0020746612
30	0xbf290087	-0.6601643
31	0xbeda09d1	-0.42585614
32	0x3e896227	0.26832697
33	0xbe484ae5	-0.1955982
34	0x3ced153a	0.028940786
35	0x3ed489a7	0.4151127
36	0x3e3a9674	0.18221456
37	0x3ecd70b5	0.4012505
38	0xbf73cc75	-0.9523385
39	0x3e94c003	0.29052743
40	0xbde11d5a	-0.109919265
41	0x3e53e307	0.20692073
42	0x3ea77a62	0.32710558
43	0x3d25178f	0.04030567
44	0xbe8c713e	-0.27430147
45	0x3da8bc1e	0.082390055
46	0x3eb84e43	0.3599721
47	0xbe0ad18f	-0.13556503
48	0xbfcf9f98	-1.6220579
49	0xbe59784a	-0.21237293
50	0xbf44184b	-0.7659957
51	0x3e8f00ef	0.279304
52	0x3e24b70c	0.16085452
53	0xbe2e0da5	-0.16997392
54	0xbe74004b	-0.23828237
55	0xbd33dd56	-0.043912254
56	0xbe61134c	-0.21980017
57	0xbe8f99f6	-0.2804715
58	0x3ac77575	0.00152175
59	0x3c6e84a1	0.014557988
60	0x3dbde998	0.0927307
61	0x3ebba145	0.36646476
62	0xbe1d6f55	-0.15374501
63	0x3d3b3adc	0.04571043

parallel_cnn_block.branches.2.2.weight f4 [64, 1, 8]
0	0xbeb6385a	-0.35589868
1	0xbdcc5700	-0.099775314
2	0x3e7bb25f	0.24579762
3	0xbe98f2fa	-0.29872876
4	0x3e989fd6	0.29809445
5	0xbe2ab6dc	-0.16671318
6	0x3e8040dc	0.25049484
7	0x3ded448b	0.11585339
8	0x3d1f74cb	0.03892974
9	0xbd2514e4	-0.040303126
10	0x3e99fd7f	0.30076215
11	0xbecdc0ed	-0.40186253
12	0x3e8c08e4	0.27350533
13	0xbde6f4db	-0.11277171
14	0x3e831b2e	0.25606674
15	0xbe6bd2e3	-0.23029666
16	0xbec966c0	-0.39336205
17	0xbf14f879	-0.5819164
18	0x3eb31cde	0.3498296
19	0x3d243cff	0.040097233
20	0x3ca1152a	0.019663412
21	0x3e1bc307	0.15211116
22	0x3e6d63cf	0.23182605
23	0xbe28aa9a	-0.1647133
24	0x3e98e75c	0.29864013
25	0x3d7c4e28	0.061597973
26	0xbe6519b3	-0.22373085
27	0x3e2a5a03	0.16635899
28	0x3d2290e4	0.03968896
29	0x3e285887	0.1644002
30	0xbd9a8ac4	-0.07545999
31	0xbe92a2f1	-0.2863994
32	0xbf12cafa	-0.5734097
33	0xbeb27080	-0.34851456
34	0xbd83aa22	-0.06428935
35	0x3eb50446	0.35354823
36	0x3edd16c6	0.43181437
37	0x3ec6784c	0.38763654
38	0xbe0723cc	-0.13197249
39	0x3c8dcbeb	0.01730915
40	0x3e263e2c	0.16234654
41	0x3e0b8f77	0.13628946
42	0xbe6b9853	-0.23007326
43	0xbf05f9d3	-0.52334327
44	0xbe1ed0ff	-0.15509413
45	0x3ded714b	0.115938745
46	0xbd14d08d	-0.036331702
47	0xbd625e8a	-0.05526594
48	0xbcad9942	-0.021191243
49	0x3e5e75a5	0.21724565
50	0xbd4bbf2f	-0.049742874
51	0xbea55348	-0.322901
52	0x3e2d0f09	0.16900267
53	0x3da7872a	0.081800774
54	0x3d9aeb90	0.07564461
55	0x3d31e5d4	0.04343207
56	0x3ea2c508	0.31790948
57	0xbd3b233f	-0.04568791
58	0xbefcdb1a	-0.4938591
59	0xbea33916	-0.3187949
60	0x3e561b10	0.20908761
61	0x3e7a105e	0.24420306
62	0x3d84c143	0.06482174
63	0x3e09c3f8	0.13453662
64	0x3e0f72ef	0.14008687
65	0xbead08bd	-0.3379573
66	0x3ece5069	0.40295723
67	0xbe4d385a	-0.20041028
68	0xbdc21577	-0.0947675
69	0x3e53e2c0	0.20691967
70	0xbcc524a2	-0.02406532
71	0xbde7d502	-0.11319925
72	0x3d199580	0.03749609
73	0x3e20af8f	0.1569197
74	0xbea2307f	-0.31677625
75	0xbe842f03	-0.25817117
76	0xbe9b2405	-0.30300918
77	0x3e570664	0.20998532
78	0x3dbcf78c	0.09226903
79	0x3e8369e3	0.25666723
80	0xbee92e28	-0.45543027
81	0xbe590e04	-0.21196753
82	0xbb70744a	-0.0036690407
83	0x3ea9fd5b	0.33201107
84	0xbd651992	-0.05593259
85	0xbe82279d	-0.25420848
86	0x3e8dd747	0.27703306
87	0x3e4a8d13	0.19780378
88	0x3e3fb089	0.18719687
89	0xbe66f157	-0.22553001
90	0x3e33ec1a	0.17570534
91	0xbdd2e03f	-0.10296678
92	0x3d300f03	0.042983066
93	0xbd94a453	-0.07257905
94	0x3d27e79d	0.040992368
95	0x3d633004	0.055465713
96	0x3d1a4b6c	0.037669584
97	0xbf1f8030	-0.62304974
98	0xbeb761ef	-0.35816905
99	0x3efddd81	0.49583057
100	0xbe85bcb1	-0.26120523
101	0x3ea581ea	0.3232568
102	0x3e5bd08a	0.2146627
103	0x3e041072	0.12896898
104	0x3d41e49c	0.04733716
105	0x3ea5a4c7	0.32352278
106	0x3e19ce96	0.15020213
107	0xbe9819ff	-0.29707333
108	0x3ec8dfe1	0.39233306
109	0xbf01adad	-0.50655633
110	0xbed986fb	-0.42485794
111	0x3d00cfce	0.031448178
112	0x3cf23bff	0.029569624
113	0x3e896240	0.2683277
114	0x3e0230bb	0.12713902
115	0xbe7d9cf9	-0.24766912
116	0xbebda79e	-0.37041944
117	0xbdffae0e	-0.1248437
118	0xbd40a4c4	-0.047032133
119	0x3ead64eb	0.33866057
120	0x3eb9fc67	0.3632538
121	0x3cf05596	0.029337686
122	0x3e3f2d6b	0.1866967
123	0x3e10464c	0.14089316
124	0x3e4790e6	0.19488868
125	0xbe010acd	-0.12601776
126	0xbed8c82d	-0.42340222
127	0xbeae5bb0	-0.34054327
128	0xbcdfaf30	-0.027305216
129	0x3e6282eb	0.22120254
130	0x3eb1bf14	0.34716094
131	0x3e0ab074	0.13543874
132	0xbe41f87e	-0.18942448
133	0xbeeaf733	-0.45891723
134	0xbd6a8333	-0.057254028
135	0x3c0b9de8	0.0085215345
136	0x3db303a9	0.087409325
137	0xbca79941	-0.02045882
138	0x3dcaf40e	0.09909831
139	0xbdfb2b9f	-0.122641794
140	0xbcc33805	-0.023830423
141	0x3ed4415f	0.41456124
142	0xbf915f26	-1.1357162
143	0xbf448d9b	-0.7677857
144	0xbec7f6e8	-0.39055562
145	0xbec7423c	-0.3891772
146	0xbf0e7c02	-0.5565797
147	0xbe407f9c	-0.18798679
148	0x3e9b7c1c	0.30368125
149	0x3e7b1adb	0.24521963
150	0x3d8b9e1d	0.06817267
151	0xbebb963a	-0.3663805
152	0xbdca4c99	-0.09877891
153	0xbcd808c3	-0.026371365
154	0x3eec60cc	0.461676
155	0x3d9ee83c	0.07759139
156	0x3ec4ea5b	0.3846005
157	0xbe5c6224	-0.21521813
158	0xbd297a85	-0.04137661
159	0xbec8a091	-0.39185002
160	0xbee7707a	-0.45203
161	0x3b5952e3	0.0033160977
162	0x3e991171	0.2989612
163	0xbde53c7e	-0.111931786
164	0xbe0b531a	-0.1360592
165	0x3ea94272	0.33058506
166	0x3e0b7182	0.13617519
167	0x3b910b08	0.004426364
168	0x3d945567	0.07242852
169	0x3c3e417f	0.011612295
170	0xbea94013	-0.33056697
171	0xbe8bffc7	-0.2734358
172	0x3ebbb0e7	0.36658403
173	0x3ebf1e39	0.37327746
174	0xbe3d5afe	-0.18491742
175	0xbc8705e7	-0.016482307
176	0xbeeeeb93	-0.46664104
177	0xbe46310b	-0.19354646
178	0xbea80069	-0.32812813
179	0x3ed5ca0b	0.4175571
180	0xbe0ed5b7	-0.13948713
181	0x3e27fbe2	0.1640468
182	0xbdc3099b	-0.095233165
183	0x3d74325f	0.05961835
184	0xbd0bfeb7	-0.034178462
185	0x3e4e50d6	0.20148024
186	0xbe0f8c4b	-0.14018361
187	0xbd642d58	-0.055707306
188	0xbd50bf9b	-0.05096398
189	0x3ee313f8	0.44351172
190	0x3e859e8c	0.26097524
191	0xbd31af45	-0.04338004
192	0xbe2591b4	-0.16168863
193	0xbe41b4f2	-0.18916681
194	0xbe5c57f1	-0.21517922
195	0xbdc8e840	-0.09809923
196	0xbe4d1f57	-0.20031486
197	0xbe754d9c	-0.23955387
198	0xbeb0a9e0	-0.34504604
199	0xbe20a579	-0.15688123
200	0x3e15e371	0.14637543
201	0xbdfeac6b	-0.1243523
202	0xbe5395c5	-0.20662601
203	0xbf37be5d	-0.71774846
204	0xbc6fc56e	-0.014634473
205	0x3ecc5128	0.39905667
206	0x3e3afd30	0.18260646
207	0xbe152405	-0.14564522
208	0x3e66eb8f	0.22550796
209	0xbe6093d6	-0.21931395
210	0xbf4728cb	-0.7779662
211	0x3ee46c53	0.44613895
212	0x3ce5ebe9	0.028066592
213	0x3e2c7f25	0.16845377
214	0x3d6fa521	0.05850709
215	0x3d74006d	0.05957072
216	0xbdc502b0	-0.09619653
217	0xbf19405d	-0.59863836
218	0xbf1facab	-0.62372845
219	0x3cc2fe79	0.023802983
220	0x3e1ceedd	0.15325494
221	0x3dfa39d7	0.12218063
222	0xbd9540ea	-0.07287772
223	0x3e0d2e4d	0.13787194
224	0x3c1a1e4f	0.00940664
225	0x3e766940	0.24063587
226	0xbeb8075c	-0.35943115
227	0xbf170a7e	-0.59000385
228	0x3ea2f6b3	0.31828842
229	0xbe740974	-0.23831731
230	0x3e668a58	0.22513711
231	0x3eb9e563	0.3630782
232	0xbe288b92	-0.16459492
233	0x3e6fa75f	0.23403691
234	0xbb9fa9bf	-0.0048725302
235	0x3d8afe88	0.06786829
236	0xbda68c97	-0.08132284
237	0x3e5251e9	0.20539059
238	0x3d7fca63	0.06244887
239	0xbec5b33f	-0.38613316
240	0x3e259f79	0.16174115
241	0xbea04a61	-0.31306747
242	0x3ebde262	0.3708678
243	0xbd5ce2e1	-0.053927306
244	0xbe410224	-0.18848473
245	0x3eae07e2	0.3399039
246	0xbd19179b	-0.037376028
247	0xbe0b78a7	-0.13620244
248	0x3da3b4c7	0.07993465
249	0x3ead987a	0.33905393
250	0xbf0914c3	-0.53547305
251	0x3ef57b90	0.47945833
252	0xbe4511ab	-0.19245021
253	0xbdbf6317	-0.09345072
254	0x3ea946b0	0.33061743
255	0xbd92e1f8	-0.07172006

parallel_cnn_block.branches.3.0.weight f4 [1, 1, 32]
0	0xbd4c8286	-0.049929164
1	0xbd3ba315	-0.045809824
2	0xbbbc918c	-0.005754655
3	0xbd2b7637	-0.041860785
4	0xbd7c717d	-0.06163167
5	0xbcf8d926	-0.030376982
6	0xbcbae0b2	-0.022812221
7	0xbdb9ca8e	-0.09071837
8	0x3c6398b9	0.013891392
9	0x3b919b38	0.0044435523
10	0xbd89c9d2	-0.06727947
11	0xbd75f1ae	-0.060044937
12	0xbd41020c	-0.047121093
13	0xbd9291eb	-0.07156738
14	0x3db95b6f	0.09050643
15	0xbd26578a	-0.040610828
16	0xbd9663dc	-0.073432654
17	0x3a70f6ab	0.000919203
18	0xbc30800a	-0.010772714
19	0xbc3ba4ae	-0.011452837
20	0x3da497f3	0.080367945
21	0x3ddfd5ec	0.10929474
22	0x3ce6238a	0.028093118
23	0x3e23f085	0.1600972
24	0x3e33d323	0.17561011
25	0x3e2ba494	0.16762
26	0xbda61b00	-0.081106186
27	0xbdb9edd1	-0.09078563
28	0xbda3b0b8	-0.07992691
29	0x3dadc8f4	0.084855944
30	0x3c3fd594	0.011708636
31	0xbcc065be	-0.023486014

parallel_cnn_block.branches.3.2.bias f4 [16]
0	0x3e897bf3	0.26852378
1	0xbe2e4a72	-0.17020586
2	0x3c8fed1f	0.017569123
3	0x3d5e3d41	0.054257635
4	0x3e335e47	0.17516433
5	0x3e2f2deb	0.1710736
6	0x3e813bd0	0.25240946
7	0x3cb53f5f	0.022124944
8	0x3efb5a67	0.4909241
9	0xbc3c4d0d	-0.01149298
10	0x3ebec8b7	0.37262508
11	0x3c5bfc77	0.0134268915
12	0x3e56a653	0.20961885
13	0x3ec725da	0.38896066
14	0xbe1819d4	-0.14853603
15	0x3da1fcb4	0.079095274
