narrow/modelpars_narrow_i_81.safetensors (safetensors, 86584 bytes, 32 tensors)

bilstm.bias_hh_l0 f4 [64]
00000000: 1551 32bf 74f5 5ebe 602d 773e dd3a efbd
00000010: be5a 0e3e 29a3 18bf 1171 20bd 6628 4c3e
00000020: b794 1a3d 927f febd 2c43 00be 7512 e4be
00000030: fb93 a6be 7389 54be 42c2 e93e 6331 39be
00000040: 0639 a13e a131 0e3d fdfa 743e 1868 ccbd
00000050: a23d 49bc f52e 3c3e 1d1a 693e fe44 0e3e
00000060: a5b6 ee3d 01a3 da3c 4b1c b53e c50f 84bd
00000070: b539 35be 9995 1b3e bc55 a73e dd0e 3bbe
00000080: 226c 86bc 1b4e 46be b805 19bd 6ab7 94be
00000090: 99eb 1e3c 3e7e f0bd 1183 6bbe 1582 893d
000000a0: 5a77 263e 53f7 0e3e 02d1 c4bd 2f27 bcbd
000000b0: f9f8 bb3d 0b9d 2c3e e3ea 1dbe d654 423d
000000c0: 58cd 45be 08c1 c53d e2b3 473e 3b70 003d
000000d0: 35a5 09be d47f 213e 0cfa 573e a2c2 133e
000000e0: d0e7 b3bc 2f82 b4be 8411 a6bd 476f ea3d
000000f0: 6ec5 973e 0bb3 ad3d 4a35 943e 539e 853e
-0.6965497 -0.2177332 0.24138403 -0.11681149 0.13901803 -0.5962396 -0.03917033 0.19937286
0.03773948 -0.12426676 -0.12525624 -0.44545332 -0.32534775 -0.20755558 0.4565602 -0.18085246
0.31488818 0.0347153 0.2392387 -0.09980792 -0.012282761 0.18377288 0.22763868 0.13893506
0.116559304 0.026689054 0.35373148 -0.0644832 -0.17697795 0.15193786 0.32682598 -0.18267389
-0.016408984 -0.19365732 -0.03735897 -0.29046184 0.009699726 -0.11742829 -0.22999217 0.06714264
0.16256467 0.13961534 -0.096101776 -0.09187161 0.09178347 0.16856782 -0.15421633 0.047444187
-0.19316614 0.096559584 0.19502214 0.03135703 -0.13441928 0.15771419 0.21091479 0.14429715
-0.021961123 -0.35255572 -0.081088096 0.11447006 0.29642814 0.08481415 0.28946906 0.26097354

bilstm.bias_hh_l0_reverse f4 [64]
00000000: 7361 a8bd e45f 7cbd c0ef b4be 3f39 9c3e
00000010: f87b b43e 40b1 083f 54f8 acbe 19dc 8c3e
00000020: 8fc9 1fbd cce1 633d 0e84 c13c 8c58 f23c
00000030: 405d 023e f401 723e db23 e6bd f016 bcbe
00000040: 8021 01be 0aeb df3d 6372 54be cf32 1c3e
00000050: f24c 53bc 3e93 203e d980 b03e c224 c7bc
00000060: bb58 da3d f50f 933e 084f fd3d 4e4e 9a3e
00000070: de4c 483e 6092 e2bb 6f18 56be a186 6a3e
00000080: 8552 57be f19f 5d3e 2d3b 15be 972f 343e
00000090: 8044 cabd 1c41 293e fded e7bd 34ab e63d
000000a0: c2ea f2bd 20bb a8be 9cb7 36be b2a6 6fbe
000000b0: 69a8 0dbe a7bd 0fbe 5294 513d 6731 1c3d
000000c0: db9d 93bd 8b6a 753e fb43 4d3c 644a cc3e
000000d0: 3253 a93e 8bcd 253e 7cb6 dc3d d6d9 9cbe
000000e0: ca2c 71be 9d46 6b3e 71d9 923e 339a 793e
000000f0: fd99 2f3e 828e 0a3e 391e a4be 15de 09be
-0.08221712 -0.061614886 -0.35339165 0.30512425 0.3525083 0.5339546 -0.3378321 0.2751167
-0.03901058 0.05563526 0.023622539 0.029583238 0.12730885 0.23633558 -0.11237308 -0.3673625
-0.12610435 0.10933502 -0.2074676 0.15253757 -0.012896763 0.15681168 0.34473303 -0.02430952
0.10661455 0.28723112 0.1236859 0.30137867 0.19560573 -0.006914422 -0.20907758 0.2290292
-0.21027572 0.21643044 -0.14573355 0.17596279 -0.098763466 0.16528744 -0.113246895 0.11263123
-0.11861183 -0.32955265 -0.17843479 -0.23403433 -0.13833775 -0.1403719 0.05116684 0.03813305
-0.07207843 0.23966424 0.012528415 0.39900506 0.33071285 0.1619169 0.10776994 -0.30634946
-0.23552242 0.22976156 0.2868152 0.24375229 0.17148586 0.13530925 -0.32054308 -0.13463624

bilstm.bias_ih_l0 f4 [64]
00000000: 8d17 a4be de8e 31be d6f4 fe3e 4244 8a3c
00000010: 234a a03e 8b42 e8be 6be9 b03e 9876 453e
00000020: 8937 ae3e 70f5 c0be b23a afbe 2676 55bf
00000030: 7b76 a7bd 2396 67be 3fd1 223f 014b 95bd
00000040: b561 0b3e c6ec c93e 2baf 95bd 10e3 953e
00000050: 29ee 30be 9e53 f13d 9f04 203e 9587 36bc
00000060: fc02 b23e 1204 4abc d424 c53d d8c1 e3bd
00000070: 44c6 7a3e bb70 60be 7933 823e e9e9 1dbe
00000080: d1f2 e5bd f56d 27be b42a 66bd 9796 49be
00000090: 3229 863d a1ba c53d f14a c73d 06ae 0fbe
000000a0: 610b 0d3b 19a7 2c3e 2e9e 973e 0577 ef3d
000000b0: ecd0 35be 40bb a03c 5562 083d b242 993d
000000c0: be1d 73be a776 46be 04cb 023e 793f 2cbe
000000d0: 2d9c 49be 64da 25be 0c9b efbd 8b37 8a3d
000000e0: 42aa 953d 7519 febd 2070 e7bd 8ee5 423e
000000f0: 80eb 9b3e acfd 7bbd ed6e 8d3e 631e 9d3e
-0.32049218 -0.17339656 0.4979617 0.016878251 0.31306562 -0.45363268 0.34553084 0.19283521
0.34026745 -0.37687254 -0.34224468 -0.83383405 -0.08176895 -0.22615866 0.63600534 -0.072896965
0.13611491 0.39438456 -0.07308801 0.29274797 -0.17278351 0.11783527 0.15626763 -0.011140724
0.34767902 -0.012330072 0.09626165 -0.11120957 0.24489695 -0.21918003 0.25429896 -0.15421261
-0.11227954 -0.16350539 -0.05619307 -0.19686352 0.06550826 0.09654737 0.09731091 -0.14031228
0.0021521675 0.16860618 0.2961287 0.11692623 -0.17755479 0.019620538 0.0332969 0.07483424
-0.23741814 -0.193812 0.12772757 -0.16821088 -0.19688483 -0.1619659 -0.11699495 0.06748875
0.07307865 -0.12407199 -0.11300683 0.1903288 0.3045311 -0.061521217 0.27623692 0.30687246

bilstm.bias_ih_l0_reverse f4 [64]
00000000: d750 eb3d 5322 213e 8cd6 efbd c950 3a3d
00000010: 8a41 af3e 721e ab3e 96f7 82be d891 373d
00000020: be77 1abe ef4e b2bd a55c a2bd 5265 96bd
00000030: 31be 573d 4989 d03d 23da dfbd 88da 09be
00000040: edf5 ecbc d0f6 af3d 1384 1cbe 709b 343d
00000050: df9b b6bc 35a7 f1bd 3229 4fbd 3450 e03d
00000060: 0db9 813d f91c 883e c4dd fb3d 94fd 963e
00000070: 541a 6b3e 9e34 093d 8441 483d 432b 7c3e
00000080: d7b8 50be bee7 9e3e 86dd 91bd 7176 843d
00000090: d696 933e b43a 8d3d 4d2f 993c 7ae0 96be
000000a0: 8af0 453d 78c8 50be b4d3 113e 08eb 66be
000000b0: de62 d1bd ab52 9fbd 485a b93e 60e9 d33d
000000c0: 6133 73be 7027 4a3e a2c1 4d3d 8111 0e3f
000000d0: daba b13e c7e9 08be 6a27 80be d076 a4be
000000e0: 4eee 2e3e 9c48 813e cc03 29bd aa0e 063f
000000f0: c5e7 01bc 957b e2bd 4a29 47be e38a 8bbe
0.11490028 0.1573575 -0.117108434 0.0454872 0.3422969 0.33421665 -0.25579518 0.04481682
-0.1508474 -0.08706462 -0.07927827 -0.07343544 0.052671615 0.10182435 -0.10930278 -0.1346227
-0.02892586 0.085919976 -0.15284757 0.04409355 -0.022291122 -0.1179947 -0.050576396 0.109527975
0.06334124 0.26584604 0.12298158 0.2949034 0.22959262 0.033497445 0.048890606 0.24625878
-0.20383011 0.3103618 -0.0712233 0.064679034 0.28826016 0.06895962 0.018699313 -0.29468137
0.0483251 -0.20388973 0.14240915 -0.22550595 -0.102239355 -0.077794395 0.36201692 0.10347247
-0.23750068 0.19741607 0.05023349 0.5549546 0.3471287 -0.13370429 -0.2503007 -0.32121897
0.17083094 0.2525071 -0.041263387 0.52366126 -0.007928793 -0.11058728 -0.19449344 -0.272544

bilstm.weight_hh_l0 f4 [64, 16]
00000000: 736b 64be 6179 25be eb17 8f3e 01e8 ba3d
00000010: c409 28be a9e0 173e 1561 a8be c134 b83e
00000020: f54c 873e 93cb b53e fb57 99bc 0834 603d
00000030: a9d0 7abe b3f4 6abe 74be c7bd 2d30 2c3e
00000040: 066c cd3d ff31 e6be d0f3 bebe 835a 27be
00000050: a586 86bc a347 11be 2f52 0e3f b655 1cbd
00000060: 9032 ca3e 74de e53e 84ef 32bf 709a 0d3e
00000070: 85c1 2d3f fe7e 993e 45d5 8bbc 13ca b4be
00000080: fead 85be fe8a 97bd ada2 8d3d 6f0c 21bd
00000090: 1ff2 94bd 1356 863e 4ebc 543d ddf0 243d
000000a0: a41d 3abd ee37 f2bc 93e6 333e 6ae9 3e3c
000000b0: 4a77 4b3e 43d9 0a3d 3811 debd f8da fe3d
000000c0: f112 633e 01a2 aebe a844 00bd 049e 8abb
000000d0: f77c 2cbd f79b d8bd a4ab 313e 83d5 5ebe
000000e0: 9a68 87bf c461 133e 733f 843e 0149 5fbd
000000f0: a10e 153d 09e1 0cbf 3db1 0ebe ba9b e43c
00000100: 31e6 1bbb 2ebb 583f 7942 82be 748d 36be
00000110: 7db3 113e 0cd8 a3be 680a 01bf 2b33 343f
00000120: 0970 653d 033c 2b3f 4bcc 13bd 9254 8fbe
00000130: d0cf fdbe da1b 173e c72f c03e 3acc 1d3f
00000140: 76ee 03be 153c e3be 2420 b739 b07f f23c
00000150: cf82 c33d e279 b13e 0638 63bd ed2b b73e
00000160: 3430 0e3e 58a0 c13d 4608 95be 381b 09bd
00000170: 4637 953e b5d8 adbc e92d 46be 9d45 7dbd
00000180: 005c 68be ddff d83e 99e7 7a3e 3b2f 4dbe
00000190: a040 983c a8da a43e 8ac1 1dbe dce1 083f
000001a0: 19ce d4bd 81b0 5abe 3e55 d33d e6f3 f6bc
000001b0: 0c28 fdbe 8573 ab3e 2df8 d63e 1381 443f
000001c0: af0f 533d 80bf 1dbe 51e1 963e 8ded eabd
000001d0: 1c30 5ebc 1611 52be 330d 6c3e f171 e9bc
000001e0: 404e 84bd 5058 2dbe 072b 3b3e 9707 ccbd
000001f0: 536a 2abe 37dd 4cbe 65ca a43c e978 073e
00000200: 8e0a f0be c621 723e a6c7 093e 8e05 0b3e
00000210: c345 0cbf d839 9c3d 3769 01be 4d29 f13c
00000220: 9602 a1be 64ef 893e 8d76 963e 6dbf c1be
00000230: 5e04 2d3f e1ac 1ebe 4c02 0a3f 3012 31bd
00000240: 2c2f 383e d46a b8bf b226 33bc 363c cd3d
00000250: 332a e63d bd93 6b3e 6731 623e 2f2a 3bbe
00000260: 85f2 ebbe 3834 97be dc0f 393e ccf2 5dbd
00000270: d108 2ebf f2e7 b3bd 1536 acbe dda0 013d
00000280: f875 db3e e3a6 28be 4628 b0be c29c 47bc
00000290: c799 263e f992 a2be 9c9f 103d 6b8e f4be
000002a0: c681 583d 6ae1 023e 2580 9bbe 6c68 643e
000002b0: d31f 15be 3563 4ebe 6a5c c1be 9fec c3bd
000002c0: cb2f 77be 7d37 753e 5081 f1bd 59be 513e
000002d0: 7e56 1f3d 4acb 09be b326 cebe ed40 393e
000002e0: 3514 3bbe 0dde 073e 61d4 273d ede5 893e
000002f0: dd1b 4bbe eaad 24bf 4de3 25be 4a4a 2abe
00000300: 459a 6b3e e05e 2ebf d914 57be 5823 273c
00000310: 4a23 843e 44e9 23be 525e 5c3d bc6a a5bd
00000320: cf68 a7be a3a9 dcbe 433e 8d3e 67e1 693e
00000330: d043 bb3b a872 27be 1cd5 a6be 7018 50be
00000340: 3c20 b33e 45d8 03bf 1c8f 583e 0be8 6abc
00000350: 0222 8c3e b242 1fbe 03fe 6ebc b37d a3be
00000360: 7096 4bbf 44af 17be ac86 21be 29f5 6b3e
00000370: 8f7b c23e 94fc 5cbe e17f febe a2cb 03be
00000380: b402 b93d f733 9e3e b20f 2d3e c3d3 a53e
00000390: b716 5d3c c37b 143d baa1 32bc 1ceb 8b3d
000003a0: 73f0 17be e9da 9bbe 036f f9bd 5a14 fb3c
000003b0: 37c7 46bd 8fcb 09be 70eb cc3d 9674 893e
000003c0: 5c19 dfbb e1ba e43c aaf7 a9bd b973 c3bd
000003d0: 466c 913d 791a 82be aeed 30be 7535 90be
000003e0: 2c5e 65be 43ef 103e fe62 1c3e 3d66 163e
000003f0: d672 f13e 28d6 5a3d 1578 e9be 59c9 6a3d
-0.22306614 -0.16159584 0.27947935 0.091262825 -0.16409975 0.14831795 -0.32886568 0.35977748
0.264259 0.35506877 -0.01871871 0.05473712 -0.2449366 -0.22944908 -0.09753123 0.16815253
0.100303695 -0.4496002 -0.3729539 -0.16343121 -0.016421625 -0.14187483 0.5559415 -0.038167678
0.394917 0.4489628 -0.6989672 0.13828444 0.6787341 0.299797 -0.017069468 -0.3531042
-0.26109308 -0.073995575 0.069157936 -0.0393185 -0.072727434 0.26237544 0.051937394 0.040268768
-0.045438424 -0.029567685 0.17568426 0.01165233 0.19869724 0.033898603 -0.10843128 0.12444109
0.22175194 -0.34107974 -0.031315476 -0.0042302627 -0.042111363 -0.10576623 0.17350632 -0.21761136
-1.0578797 0.14392763 0.25829658 -0.05451298 0.036390904 -0.55030876 -0.13934799 0.027906287
-0.0023788328 0.84660614 -0.2544134 -0.17827398 0.14228626 -0.32000768 -0.50406504 0.70390576
0.05601505 0.66888446 -0.0360835 -0.2799421 -0.4957261 0.14756718 0.3753645 0.6163975
-0.12883934 -0.44381776 0.00034928427 0.029601902 0.09546434 0.34663302 -0.05547335 0.357757
0.13885576 0.09454411 -0.29107875 -0.033473223 0.29143733 -0.021221498 -0.19353451 -0.061833967
-0.22691345 0.42382708 0.2450241 -0.20037548 0.018585503 0.3219807 -0.1540586 0.53469634
-0.103908725 -0.21356393 0.10318993 -0.030145597 -0.49444616 0.33486572 0.41986218 0.7675945
0.05152863 -0.15405083 0.29468778 -0.114710905 -0.013561275 -0.2051433 0.2305191 -0.028496714
-0.064602375 -0.1692822 0.18278132 -0.09962385 -0.16642122 -0.20006262 0.02011604 0.13229717
-0.46883053 0.23645696 0.13455066 0.13576338 -0.5479395 0.0762822 -0.12637793 0.029438639
-0.31447285 0.26940453 0.29387322 -0.3784136 0.6758479 -0.15495636 0.53909755 -0.043230236
0.17986745 -1.4407601 -0.010934519 0.1002125 0.112385176 0.23005576 0.22089158 -0.1827781
-0.46083465 -0.29532027 0.18072456 -0.054186627 -0.679822 -0.087844744 -0.3363501 0.03164755
0.4286344 -0.16469912 -0.34405726 -0.01218337 0.16269599 -0.31752756 0.035308465 -0.47764906
0.052858137 0.12781301 -0.30371204 0.22305459 -0.14562921 -0.20155032 -0.3776582 -0.09566616
-0.24139325 0.23946948 -0.117922425 0.20482768 0.038900845 -0.13456455 -0.402639 0.18091173
-0.18269427 0.132683 0.040974025 0.26933232 -0.19834848 -0.6432787 -0.1619999 -0.16629902
0.23008068 -0.6811352 -0.21004046 0.010201298 0.25808173 -0.16006953 0.05380089 -0.080769986
-0.3269715 -0.43098173 0.27586564 0.2283989 0.005714871 -0.16352332 -0.32584465 -0.20321822
0.3498553 -0.51501876 0.21148342 -0.01433755 0.27369696 -0.15552786 -0.014586928 -0.31931838
-0.79526424 -0.14812952 -0.1577403 0.2304274 0.37984893 -0.21580726 -0.4970694 -0.12870649
0.09033719 0.3089902 0.16900519 0.32388124 0.013494185 0.03625084 -0.010902816 0.06831953
-0.14837818 -0.30440453 -0.12179377 0.030649353 -0.04852983 -0.13456558 0.10005844 0.2684676
-0.006808443 0.027921142 -0.08299191 -0.09543557 0.0710073 -0.25410822 -0.17278168 -0.28165784
-0.22399205 0.14153771 0.15272138 0.14687438 0.47157925 0.05342689 -0.45599428 0.057320926

bilstm.weight_hh_l0_reverse f4 [64, 16]
00000000: 3b76 b5be f630 acbd 4b1b 0c3e bc38 f93d
00000010: ff32 cebe d3cb adbd 48ac bbbe 15a7 c7bc
00000020: 0480 e1bd 8cb6 f8bd 69da 95be 4e01 173e
00000030: 94fc 68bd 97fe 88bd 1c7c ca3d 9954 f8bd
00000040: c5d3 d13e ccad 9d3e 1e80 34be fc26 bd3e
00000050: fac3 893e 4eaf 5f3e b4c0 92be dac1 993e
00000060: c167 9bbe 6d39 0abf ae2c 143f 7018 d7be
00000070: 5781 75be f67e 06bf 0e92 c8be 5ac8 823e
00000080: 4b3c 663e 4431 21be d20c 82ba a428 44be
00000090: fc68 6f3e 38b3 503e bd7d 9cbd 67c0 a1bd
000000a0: cd26 a93e 86cf 413e 10f8 9cbd 7a7f b93d
000000b0: 5539 993e c296 493e 40f0 973d 9802 b8bd
000000c0: 4be4 8cbd 2949 23be 654e f73e 58a0 fdbd
000000d0: e1eb 103e 09f1 fcbd f8e2 c73e b561 c33e
000000e0: b891 0d3e 3f96 123d a74d 8d3e 30f7 e2bd
000000f0: 4e82 b0bd a541 12be dc95 2cbe 679b 04bf
00000100: 1946 cd3e c3b5 4f3e a01b 8fbe d9fd c23e
00000110: dac8 623e 93b8 213f bf91 77be b732 633e
00000120: 43d6 a1be 7f08 04bf aed5 ab3e d728 6abe
00000130: 9555 99be 49e0 febe 121b 0fbf ba65 fb3d
00000140: 8050 aabe cf06 56bd 6869 71be 575b d03d
00000150: 08d0 1c3d c133 993c 3e41 c2bc ed71 c33e
00000160: 5cb1 5ebe 4db0 453a cdf7 923c a801 b23d
00000170: 24d9 97be 416c b5bd ddea 98bd 35b7 e0bc
00000180: a563 b5bd 1c10 6bbd 3f1c e9bd 68cb c3be
00000190: 7289 85be e289 f2be 53ed 52bf def0 fcbe
000001a0: 42bf 5d3e 0b9f c03e 1b8c c23a a760 a03e
000001b0: f228 d53e 7a8c 493d f2ab 0f3e 732a 4e3e
000001c0: e8bf f03e 9233 9fbb 003b 44bf da0e 6f3d
000001d0: eb81 d13e 355c 84bd 88ed 153f c56b 6abe
000001e0: 509f 8d3e 1f14 9e3d d7af 643b 5871 40be
000001f0: ab9b 343e 913e 973d 1fda 93be 1f0a 0d3e
00000200: 3c82 d2be 5ba9 98be 78bd b43e c7bf cbbe
00000210: 4bf3 40be 133f b5bd b0c5 00bf 4da8 d8bc
00000220: 782f 5b3e d7a0 923e 2e6e 26be 4374 a53d
00000230: ba87 3fbd f100 d73c 4279 41bd dc14 423f
00000240: 77d7 b23e 7acd 693f a09e 8abe 306a da3e
00000250: 5f3e 7f3e e060 373f ede6 b0bd e8cd 883f
00000260: fa33 233b 7e16 8fbf 3a20 dd3e 8ae2 48bf
00000270: 99ff 52bd 3281 5abf b484 10bf 0149 d4bd
00000280: d836 5bbd 8a44 aabd 0db5 ffbe 2e35 9e3d
00000290: 9f36 22bd aab2 c1be 04c6 ed3d 7555 723e
000002a0: c9ec c83e 6488 b53d 6899 b33e 8638 d83c
000002b0: 4b29 443e 7558 3cbc ca8f 9ebe f9ad a43d
000002c0: 8a50 0dbe 3829 f13c 418e 1cbf da55 6dbd
000002d0: ad1a 6dbe 6c08 7dbe 5f11 4dbf 47d4 50be
000002e0: 97a9 47bf 8d9e 63be 0908 74be 4bf5 00bf
000002f0: 64ac 82be 7a85 f7bd fb64 f93e 3ad6 423f
00000300: 5eff 993d 78e1 693e e217 93be 13e7 2dbe
00000310: 7f8a 453e 26c4 b3be 28d3 49bf 121a 89be
00000320: ea83 b3be e70e adbd 6123 fdbc 0864 81be
00000330: 14f5 82be 69ee 1bbe b34f d33e ec69 513f
00000340: b981 c5be ae7c 05be 4812 b13d 27ca a4be
00000350: 5306 853e 6fff 76be fbb5 0f3f 142e db3e
00000360: 6efd 03be 7ce5 84be e272 873e 4226 c8bd
00000370: 398a a6be 8c13 45be d7e6 0fbf 613a 49be
00000380: 5d94 553e 7ce1 dfbd 88a2 6ebf 6cb0 2bbe
00000390: 4162 e7be e219 f23e e396 fd3d 4e30 01bf
000003a0: d230 723e c0a9 853c 34d7 ae3c e89c cc3d
000003b0: ae3b ff3d 5750 4f3e 12a2 9f3d ee8f 713d
000003c0: a31b 273e b17d cfbd a6ac a5bd b356 c8be
000003d0: 8a29 15bc a719 5cbc 26a5 1abf 317e 31ba
000003e0: c99e a43e 778a 1c3e 1df9 7cbe f64d 703d
000003f0: 5f37 9a3c c56e e13e e26d 153e a178 9e3e
-0.35441765 -0.08407776 0.13682286 0.12169024 -0.40273282 -0.08486142 -0.36654878 -0.024371663
-0.11010745 -0.12144193 -0.29268196 0.14746591 -0.056881502 -0.06689184 0.09886953 -0.12125511
0.4098188 0.3079666 -0.17626998 0.36943805 0.2690733 0.21844217 -0.28662646 0.3003071
-0.30352595 -0.53993875 0.57880676 -0.42010832 -0.2397512 -0.52537477 -0.3917393 0.2554348
0.22483937 -0.1574145 -0.0009922034 -0.19156128 0.23379892 0.20380867 -0.0764117 -0.07898026
0.33037415 0.1892682 -0.07664502 0.09057517 0.29926553 0.19686416 0.07418871 -0.0898487
-0.06879481 -0.15945877 0.48301998 -0.12384099 0.1415248 -0.12350661 0.3904035 0.38160482
0.13825119 0.035787817 0.27598307 -0.110823035 -0.08618604 -0.14282854 -0.16854042 -0.51799625
0.40092543 0.2028418 -0.27950764 0.38084295 0.22146931 0.6317226 -0.24176691 0.22187315
-0.3160878 -0.51575464 0.33561462 -0.22867142 -0.29948106 -0.4978049 -0.5590068 0.12275262
-0.33264542 -0.052252587 -0.23575366 0.10173672 0.03828433 0.018701436 -0.02371275 0.38172856
-0.21747345 0.00075412245 0.017940426 0.08691722 -0.29657853 -0.088585384 -0.074666716 -0.02743111
-0.08856896 -0.05738841 -0.11382341 -0.38241124 -0.26081425 -0.4737082 -0.8239338 -0.49402517
0.2165499 0.3762134 0.001484278 0.3132374 0.416328 0.049206235 0.14030436 0.2013338
0.47021413 -0.0048584426 -0.76652527 0.058363773 0.40919432 -0.064628996 0.5856557 -0.22892673
0.27660608 0.077186815 0.0034894848 -0.18793237 0.17637508 0.073849805 -0.2887735 0.13773392
-0.41114986 -0.29816708 0.35300803 -0.39794752 -0.18842809 -0.08849921 -0.5030165 -0.02644744
0.21404827 0.28638336 -0.16252968 0.08078816 -0.0467603 0.026245566 -0.04723478 0.7581308
0.34930012 0.9132916 -0.27074146 0.4265914 0.24926136 0.71632195 -0.086377956 1.0687838
0.0024902807 -1.1178739 0.4318865 -0.7847067 -0.05151329 -0.85353386 -0.5645249 -0.10365487
-0.0535191 -0.08313854 -0.49942818 0.07724987 -0.039602872 -0.37831622 0.11610034 0.23665412
0.39243153 0.08863905 0.35077977 0.02639414 0.19156377 -0.011495699 -0.30969077 0.08040995
-0.13800254 0.0294386 -0.6115456 -0.057943203 -0.23154707 -0.24710244 -0.8010463 -0.20393477
-0.7799315 -0.22228451 -0.2383119 -0.5037429 -0.2552215 -0.120860055 0.48709854 0.76108134
0.075194106 0.22839916 -0.2872916 -0.16982679 0.19291113 -0.35110587 -0.78837824 -0.26777703
-0.3506158 -0.08450108 -0.030900659 -0.2527163 -0.25577605 -0.15227665 0.41271743 0.8180225
-0.38575533 -0.13035843 0.08646065 -0.3218548 0.25981387 -0.24120878 0.56137055 0.42808592
-0.12889645 -0.25956333 0.26454836 -0.09772922 -0.3252733 -0.19245738 -0.5621161 -0.19651176
0.20857377 -0.109316796 -0.93216753 -0.16766518 -0.4519215 0.47285372 0.12382295 -0.5046433
0.23651436 0.016316295 0.021342851 0.09990865 0.12462555 0.20245491 0.07794584 0.058975153
0.16319136 -0.101313956 -0.08089571 -0.39128646 -0.009104142 -0.01343385 -0.60408247 -0.0006770818
0.32152393 0.15287195 -0.24704404 0.0586681 0.018825231 0.44029823 0.14592698 0.30951408

bilstm.weight_ih_l0 f4 [64, 32]
00000000: 99e2 41bd 80a9 e13d 53f3 1b3e 46bb a6bc
00000010: 888f c73d 2f54 1cbe 55fb 49be d68e 42bd
00000020: 7260 b6bd 3ff8 5fbe 509e 3e3d c591 6dbc
00000030: 00c5 a9be d610 5bbe 46cf 10be 6f7f e13e
00000040: 1511 173d 841a a5bc 368f 05bd ca52 61be
00000050: 8608 043e fb2e 22bd 5020 dd3b 3e67 8fbd
00000060: ec3a b7be 7e20 19be d305 fcbc 8231 bb3d
00000070: e2bc 723e 9eaf 3c3e 5fd6 78be ce29 b8be
00000080: 4be1 b2bd d32d 2abf 3e73 d3be 5d1c 55be
00000090: bcc0 33be 8b23 013e fad7 b5bd b7cd e0be
000000a0: 72e3 62be d193 80be 24e1 d6be eb7f 173f
000000b0: 5161 c4be 74b0 5dbe 92f6 cb3d b813 e03d
000000c0: be38 8d3c 38cf aabe 47ca 4b3e 0a12 6fbd
000000d0: e8a7 bbbd c0d9 3cbe 765f 80be 24a4 70be
000000e0: b537 8cbe 38aa 8f3e 78ba 6abe f0a5 403d
000000f0: a92a 833d 27a5 0abf dba5 2e3e 2329 91be
00000100: cc4a a03e 5402 343e fdb7 efbd af3d 043e
00000110: 56d9 823e 350c 823c 6983 f0bd e262 25be
00000120: 2aae 7b3e 8308 753e d2b8 5a3e e72b 0840
00000130: dff6 45bd 803c 4f3e 8836 333e db25 e33d
00000140: 5755 44be d719 013f 6616 f23e daa0 a93e
00000150: 86a1 ec3e 4ea7 5e3f 9102 10be 4527 753e
00000160: 4245 93bd 1954 6abe 2845 0e3f 1599 65bd
00000170: 59a5 213e 2e53 db3e ea07 0a3e be52 d4bd
00000180: e107 3c3e 4981 82bc 6be0 dd3e 0052 5bbd
00000190: c1d4 153f 97c8 97bf cb45 df3b 588e 6fbe
000001a0: b4de b43d 3b04 b83d 2070 06bf e5cd a0bf
000001b0: 053e 1c3d a5a6 0a3f cfe8 e53d 8c3b 0e3e
000001c0: e37d 623e ae2c 8bbe 8daf 253e d562 4c3e
000001d0: 86b0 783d 5551 09bf a880 463e 7eea 81be
000001e0: 683a 8cbe cd04 0cbd fd1c fbbd 284e 723c
000001f0: 1177 7dbe 4731 a0be e9c3 693e e449 8ebe
00000200: 50db 6f3e c6f2 8ebc fdba 273c cf7b c93c
00000210: fe9f 78be f227 8fbe 9ce7 a4bb 4162 8d3e
00000220: d498 afbd 6d22 7c3e a509 943d 7d14 8cbf
00000230: d44d 953d f651 b6be 35dd cc3e f5c1 b23e
00000240: ed15 9abd 363e c43d 5ec1 2e3e 4dd3 1dbd
00000250: e837 11bc b84c 6c3e b5e6 c5bd 5454 26be
00000260: c695 babc 7e9e 28bf 76c4 cbbc 4a95 28be
00000270: 9ac4 08be 0228 11be 5ee1 12bd df02 443e
00000280: c07b 873d 0e87 babc 7410 fc3e 0d7c 803e
00000290: 1168 9d3e 3123 4a3e 1d79 a73d 1c42 2fbd
000002a0: 2dd5 483e 2aba 44be 4b9d f03e 25c0 bdbd
000002b0: 6bd6 28be 3105 6ebe 3a41 293e 9351 a93e
000002c0: 0540 e43d 572d 4b3e 002e b93d 123d fe3d
000002d0: f6a5 eabd b5b2 133f eeac 013f fbca 93bd
000002e0: 5ba9 abbd 7f3f e3bd a0f3 b8be a5d4 50be
000002f0: 1065 793e 90dd 933e 58ba 41be dbc2 4b3e
00000300: 40cc 86be 046a aebc cba2 28bf 6468 5bbd
00000310: 00c6 38be 12fe 873c 6eb5 a13e fcc7 6ebd
00000320: b87d 63be 5b1d d7bd 8b12 b23e 2d70 77be
00000330: 333d 82be 1b47 18be d876 61be 5f98 003c
00000340: 56fc edbd b4d3 6abe aac3 84be de65 5dbe
00000350: b165 fdbe f64c 023e e3a5 f53d 07c7 e7bd
00000360: 1bd1 353e 53de d0be 12ba 07be 9002 c2bd
00000370: a17e 45bd 966a 283c 5af6 c13e 4433 b03e
00000380: 18cc 0b3e 0cde e5bd 49e3 623e 11a8 363e
00000390: a322 75bd d52b 313e 3c4a 013f bca2 36bb
000003a0: 50cd e53e 0ec1 0c3f ddde ad3d 6680 a63f
000003b0: 12f7 e33d e600 423e af36 e53d dadf d23e
000003c0: ab4e 763c 3199 163f b620 42be 21e9 293f
000003d0: 1443 9e3e e5d8 1e3d c3ac 903c f4d7 8a3e
000003e0: b9ae 6c3e 1ad7 43bd d5c8 0d3f 57f2 4bbe
000003f0: a69d da3d 62da 763e 797e 583e d9c4 253d
-0.04733524 0.11018658 0.1522954 -0.02035297 0.09744173 -0.15266488 -0.19724782 -0.0474995
-0.08905114 -0.21872042 0.046537697 -0.014500086 -0.33158112 -0.21393141 -0.14141569 0.44042537
0.036881525 -0.020154245 -0.03260728 -0.22004238 0.12893876 -0.039595585 0.0067482367 -0.07002114
-0.3578714 -0.14953801 -0.030764496 0.09140302 0.23704866 0.18426368 -0.24300526 -0.35969394
-0.087343775 -0.6647617 -0.4129886 -0.20811601 -0.17553991 0.12611215 -0.08879085 -0.43906948
-0.22157076 -0.25112775 -0.41968644 0.5917956 -0.38355497 -0.21649343 0.09959139 0.10941261
0.01723897 -0.3336122 0.19901381 -0.058366813 -0.09162885 -0.1844244 -0.2507283 -0.23500115
-0.2738625 0.28059554 -0.22922695 0.04703325 0.06404621 -0.5415825 0.17055456 -0.28351697
0.31307065 0.17579013 -0.11705015 0.12914155 0.2555644 0.015874961 -0.117438145 -0.16151002
0.24578157 0.23929028 0.21359566 2.1276796 -0.048331138 0.20237923 0.17501271 0.11091205
-0.1917318 0.50430053 0.47282714 0.33130533 0.46216983 0.86974037 -0.14063479 0.23940761
-0.07190944 -0.22883643 0.55574274 -0.056054194 0.15785731 0.428369 0.13479581 -0.10367344
0.1836238 -0.015930789 0.4333528 -0.053545 0.5852776 -1.185809 0.00681374 -0.23394144
0.0883154 0.08985182 -0.5251484 -1.2562834 0.038145084 0.5416053 0.11226045 0.13889903
0.22118334 -0.27182525 0.16180249 0.19959576 0.06071522 -0.5363973 0.19385016 -0.25374216
-0.2738831 -0.034184266 -0.122613885 0.014789142 -0.24752451 -0.31287596 0.2282864 -0.2779075
0.23423505 -0.017449748 0.010237453 0.02459517 -0.24279782 -0.27960163 -0.005032493 0.27614024
-0.085740715 0.24622507 0.07228402 -1.0943753 0.07290235 -0.35609406 0.40012518 0.34913602
-0.07523713 0.09582178 0.17065951 -0.03853159 -0.008863427 0.23076141 -0.096631445 -0.16243106
-0.022776496 -0.6586684 -0.024873953 -0.164632 -0.13356248 -0.14175418 -0.03585946 0.1914172
0.066154 -0.022769477 0.49231303 0.25094643 0.3074346 0.19739987 0.081773974 -0.042787656
0.1961257 -0.19211641 0.46995005 -0.09265164 -0.16488044 -0.23244168 0.16528788 0.3307005
0.11145023 0.19841515 0.09041977 0.12413992 -0.11457436 0.5769456 0.50654495 -0.0721645
-0.08381911 -0.11096095 -0.3612337 -0.20393617 0.24354959 0.28879976 -0.18918741 0.1989855
-0.26327705 -0.021290787 -0.658734 -0.05356635 -0.18044281 0.016600642 0.31583732 -0.05829619
-0.22215927 -0.10503646 0.34779772 -0.24163885 -0.25437316 -0.14870875 -0.22017992 0.007848828
-0.11620395 -0.22932321 -0.2593053 -0.2162089 -0.49491647 0.12724671 0.11994531 -0.11317258
0.17755549 -0.4079462 -0.13254574 -0.09473145 -0.048216466 0.010279318 0.37883264 0.34414113
0.13652074 -0.11223993 0.22157015 0.1783755 -0.059847485 0.17301877 0.505039 -0.0027867993
0.44883204 0.5498208 0.084897734 1.3007934 0.11131109 0.18945655 0.11192071 0.4118641
0.015033404 0.588275 -0.1895779 0.6637135 0.30910552 0.038781065 0.017660504 0.27117884
0.23113526 -0.04781256 0.5538457 -0.19916664 0.106746 0.24106744 0.21141995 0.04047093

bilstm.weight_ih_l0_reverse f4 [64, 32]
00000000: 6aa0 e5bd b314 bcbd 8d40 26bc 3071 13bd
00000010: f225 13be 3239 c93e 3d4d 303e 704d e03e
00000020: a4a6 953e 43f2 813d 7bd0 87be 7d14 083e
00000030: 6d6a 973c bd36 c5bd 7872 c83e cf15 1dbe
00000040: b966 dfbc 7579 51be f8b3 ad3e 5568 acbc
00000050: 9af5 4c3d cfe5 8c3e 2c94 b83e 5ce8 103e
00000060: d5e7 02bf fa6c 1c3d 7590 143e 3634 10bf
00000070: 52b5 46be 3d9a d23c fd73 b13e 25f0 00bf
00000080: 34be af3d 22b8 183f 6b87 e53e b537 843d
00000090: bbe6 0e3f c860 f9be a288 c43d d3d9 b6bd
000000a0: 9778 e63e 4b8c 113e e7ab 863d aeb0 51bf
000000b0: ca65 413e e352 a63e 45e2 863e f31e 163f
000000c0: 3151 263e 79d3 673f 3118 b2bc c359 523e
000000d0: 0578 96be 069f 3e3f 3ca2 38be 9311 ce3e
000000e0: 4ab4 363f 10fa 26bf 1a9e 73be d314 67bc
000000f0: 6cd8 073e 4c79 2dbd fe27 38bd 74fa 00be
00000100: edc6 2cbe 123c c9be 4e31 34bf e69a 85bd
00000110: 8932 f0be b9d3 5b3e a6a0 7cbe a825 ddbe
00000120: be84 b1be d2f5 2cbe dae1 abbe 2222 683e
00000130: 3168 a73d 508f eb3d 9ed6 6ebe 0d42 54bf
00000140: 769e 1fbe 5fa0 eebc d3da 56bd d630 d23d
00000150: 19b5 2d3e b449 05be 7d47 84be cb30 c0be
00000160: a402 0dbf b6a8 d03e 1ecb 9b3d e0a6 cc3d
00000170: bbe9 aebd 572e a8be 3ee5 afbe fcce 813d
00000180: 9815 8dbe bc68 64be 9085 b0bd 625a 4a3e
00000190: 2b8e 693e 4a9d 803f 93c8 0bbe 035f 133e
000001a0: 8f7e 753e 7c94 ebbd 8544 a9be f825 5ebf
000001b0: f352 a8bd 300a bd3d 3f8e dd3d c726 c7bc
000001c0: ad91 dd3d 3829 003e 5dbe 2e3d af23 76bc
000001d0: ee0d 973c a28f 7fbb 6d4a b53d 764a 35be
000001e0: f95b 2fbe b08c ac3e 9102 453e 33ff a13e
000001f0: 2f89 7f3e e678 533e 21b9 373f 6d57 74be
00000200: 4182 7d3e 9c3d a3be b202 533e 1d46 993e
00000210: e024 46be aca1 dcbe b7eb 0cbc 5317 8dbe
00000220: 39e0 15bd 543a a33e ed5d b4be 587d 6b3f
00000230: 7087 6dbd e476 cd3e 8818 b8bc 5fd0 293e
00000240: 0a1e fc3d 7869 3e3b edf6 5c3c 8b15 53be
00000250: 27d1 313f eeff e63e 92a6 56be b8f5 013e
00000260: 3222 cb3e e5b9 95be 1b20 513e dec5 ce3e
00000270: 611c 00b9 078d 013e ea36 25be a842 a43e
00000280: a72c 553e 81dd a7bd 18ca a33e 0eed a9bd
00000290: 60f3 de3e 4224 abbd eb11 98be 10fe d43d
000002a0: 46f7 0f3e 5d24 57be 99db 60be 6e77 813e
000002b0: ae64 5cbe 765e 1cbe 5e33 303d e908 3f3d
000002c0: 298a 21be c046 5d3d 7d73 48be 6b9c f7bc
000002d0: 016c 463e 67bd 903f 7dea d3bd 0e4f 76be
000002e0: 0367 0f3f 8a4f a23e ae8c b63e eede e8be
000002f0: 7995 26be c92b 4a3e 694c f93c 87db e8be
00000300: 1ed3 3fbd 04d7 973e 4a2f 71bd 1560 fbbd
00000310: be3b bd3c f099 49be 6798 8fbd 44cc 3c3b
00000320: 6e56 56be f019 83be aca8 6e3e 1e6a 17bf
00000330: 8b17 62be f493 4dbe dc9a 4fbe 0b7c 3cbe
00000340: 4950 643e b32d 0abe 4d46 5e3e 1365 03bd
00000350: 945a a3be acc8 83be 1ce1 89ba c600 5ebe
00000360: 2d33 9b3d a8ac 233c a967 3dbe d5e2 863e
00000370: a030 8d3d 9493 eabd d307 123e bed0 2f3d
00000380: b4aa 473d 0b9a 18bc 1f0a f7bc 5eeb 803e
00000390: 2ad9 d5bb fd95 7dbd 5b46 f9bd 11ca b83d
000003a0: a154 9cbd 715c 65bd f728 073e 3e85 8bbe
000003b0: cd55 b7bd 59f4 ddbd 615f d5bd dd1c cd3e
000003c0: 8b1f 2fbe a3dc 15bd 184a 2d3e 4169 643e
000003d0: 7311 863d fdb7 18bd 4bb9 8cbe 90e5 513d
000003e0: a088 8f3e 16e3 1abe 0b0e 0b3d 886b 8e3d
000003f0: 8de3 203e 1f3d 26bd 237f b0be 6465 093e
-0.11212237 -0.091836356 -0.010147226 -0.035996616 -0.14369944 0.3930145 0.17216964 0.4380908
0.292287 0.06345036 -0.26526245 0.13289066 0.018483365 -0.09629581 0.39149833 -0.1534035
-0.027270662 -0.20456488 0.33926368 -0.021045843 0.05003891 0.2751908 0.36050546 0.14151138
-0.51135 0.038189866 0.14508231 -0.5632967 -0.19405106 0.025708312 0.34658805 -0.5036643
0.085812 0.59655964 0.44829878 0.06455938 0.55820817 -0.4870665 0.09596373 -0.089282654
0.45013878 0.14213674 0.065757565 -0.81910217 0.18886486 0.32485113 0.26344505 0.58640975
0.1624191 0.90557057 -0.021740051 0.20542054 -0.29388443 0.744614 -0.18030638 0.40247783
0.7136885 -0.65225315 -0.2379078 -0.014104086 0.13266152 -0.042352006 -0.044960015 -0.1259554
-0.16872759 -0.39303643 -0.70387733 -0.06523685 -0.46913555 0.21467485 -0.24670658 -0.43192792
-0.34671587 -0.16890648 -0.3357075 0.2266927 0.0817417 0.11501944 -0.23324057 -0.82913285
-0.15587792 -0.029129205 -0.05245478 0.10263221 0.16963615 -0.13016397 -0.2583579 -0.37537226
-0.55082154 0.40753716 0.07607101 0.099927664 -0.08540674 -0.32847854 -0.34354585 0.06338307
-0.27555537 -0.22305578 -0.08619225 0.19761041 0.22808139 1.0048001 -0.13650732 0.14391713
0.2397406 -0.115029305 -0.3306009 -0.86776686 -0.08218946 0.09230459 0.10818147 -0.024310483
0.10818801 0.12515724 0.042662013 -0.015023156 0.01843926 -0.0038995524 0.08852086 -0.17704186
-0.17124929 0.33701086 0.1923926 0.31640014 0.24954675 0.20651588 0.7176686 -0.23861475
0.24756719 -0.31882942 0.20606497 0.29936305 -0.19350004 -0.43092096 -0.008601121 -0.27556857
-0.03659079 0.31880438 -0.3522791 0.91988134 -0.05799049 0.4012977 -0.022472635 0.16583394
0.12310417 0.0029054563 0.013486606 -0.20613687 0.69459766 0.45117134 -0.20961979 0.1269139
0.39674526 -0.2924339 0.20422404 0.40385336 -0.00012217603 0.12651454 -0.1613423 0.32082105
0.20817815 -0.081965454 0.31990123 -0.08297168 0.43545055 -0.08356525 -0.2970117 0.10400021
0.14059171 -0.21009965 -0.2195877 0.2528643 -0.21522781 -0.15270409 0.043017738 0.046639357
-0.1577536 0.05402255 -0.19575305 -0.030225953 0.19377138 1.1307801 -0.103474595 -0.24053594
0.5601656 0.31701308 0.35654205 -0.45482582 -0.16267957 0.19743265 0.030431943 -0.45479986
-0.046832196 0.2965623 -0.05888299 -0.122741856 0.023099776 -0.19687629 -0.0701149 0.0028808275
-0.20931408 -0.25605726 0.2330653 -0.59146297 -0.22079293 -0.20075971 -0.20273918 -0.18406694
0.22296251 -0.13493995 0.21706505 -0.032078814 -0.31905043 -0.25739038 -0.0010519358 -0.21679983
0.075781204 0.009989895 -0.18496574 0.26344934 0.0689404 -0.114539295 0.14260797 0.04292368
0.04874678 -0.00931407 -0.030156193 0.2517957 -0.006526132 -0.061910618 -0.12171622 0.09022916
-0.07633329 -0.055996362 0.1319922 -0.27250093 -0.08951912 -0.10837621 -0.10418583 0.40061083
-0.17101876 -0.03658737 0.16922796 0.22305776 0.06546297 -0.03728484 -0.27485117 0.05124432
0.28033924 -0.15125689 0.03394894 0.06954104 0.15711804 -0.040585633 -0.34471998 0.13417584

parallel_cnn_block.branches.0.0.weight f4 [1, 1, 2]
00000000: 4675 fb3e f1d5 1b3f
0.4911291 0.60873324

parallel_cnn_block.branches.0.2.bias f4 [16]
00000000: 5aba a13c ede7 263f aa28 27bf a18e 143e
00000010: e80a 34bc 2f48 11be 7fc5 bcbe 3eb6 103e
00000020: 71c7 bebe 8993 c33e 1d4b e03e 103e 4dbf
00000030: 6026 d33c 93a8 cb3d a9f8 073e 1449 b73e
0.01974218 0.6519764 -0.65296423 0.14507534 -0.010988928 -0.14187692 -0.36869428 0.1413202
-0.37261537 0.38198498 0.43807307 -0.80172825 0.025775135 0.09944262 0.1327845 0.35797942

parallel_cnn_block.branches.0.2.weight f4 [16, 1, 2]
00000000: 8892 ee3e 135c 14bf 8ace f0bd 4d81 f93e
00000010: 64fc 123f 89cb adbe 4169 693e ab72 6cbe
00000020: e58a 1ebe 27c8 be3d 3b5c 2e3e 92b7 a9bd
00000030: 03b3 aa3d c007 03be ce07 fe3e 16ec efbe
00000040: 315b a93c 6539 0b3e 4329 143d 2c8b f4be
00000050: 9e5f e23e 2f05 20bf 595c 5d3d aa06 dc3d
00000060: afb2 d93e 3242 1cbf c470 0e3f d859 0fbf
00000070: e013 27be 42fe 093e fdd5 b5bf d269 f13e
0.4659617 -0.57952994 -0.11758144 0.4873146 0.5741637 -0.33944348 0.22794057 -0.23090617
-0.15482672 0.0931552 0.1702737 -0.082869664 0.08334925 -0.12795925 0.4961533 -0.46859807
0.020673366 0.13596113 0.036172163 -0.4776243 0.44213575 -0.6250791 0.054043148 0.107434586
0.42519137 -0.61038506 0.55640817 -0.55996466 -0.16316175 0.13475898 -1.4205929 0.47151047

parallel_cnn_block.branches.1.0.weight f4 [1, 1, 4]
00000000: 3f5e a6bc 3629 183f 18f4 86be a18f 913c
-0.020308612 0.5943788 -0.26358104 0.017768683

parallel_cnn_block.branches.1.2.bias f4 [32]
00000000: ae4f 623d 04dc db3d 9547 f53e 043d cc3c
00000010: e640 b8bb 2f7f 1cbf 44cc 3a3e 6dda b2bd
00000020: 3b68 48be c45b d5be f79b 093e 4b86 f53e
00000030: b108 fa3e e700 f8bd b828 fabe 85ef cbbe
00000040: 920b 9b3e 928b ccbb aef1 603e 1f92 a93d
00000050: 788c 22be f240 3ebc bc70 d1be 0f07 c03b
00000060: 52ce 593e 6051 093f 3286 4dbe 9145 ca3e
00000070: eb0c 0abf fa48 03be 2fe0 523d a2b1 633c
0.05525177 0.10735324 0.47906175 0.024931438 -0.005622971 -0.61131567 0.18241984 -0.08733068
-0.19571011 -0.41671574 0.13438402 0.4795402 0.48834756 -0.12109547 -0.4885919 -0.39831176
0.30282265 -0.006242224 0.21967193 0.082798235 -0.15873897 -0.011612164 -0.40906322 0.0058602164
0.21270111 0.53639793 -0.20070723 0.395062 -0.5392596 -0.12820807 0.05148333 0.013897331

parallel_cnn_block.branches.1.2.weight f4 [32, 1, 4]
00000000: eb8b 0ebf 5f7b aa3e 914d 793e 923c 623e
00000010: b1c8 37bf d22c dfbe 9d7a ca3e 6c69 1d3c
00000020: 4f99 15bc 4a20 f2be aa6c 7d3e efa7 da3e
00000030: 8993 debe 84db ae3d 5562 863e 354c 93bf
00000040: a6c7 5a3b ecb2 e5bb d83e 193f 4b92 e1be
00000050: f002 66be d6b6 f93e 9e1a d7bd 42d8 16be
00000060: 6345 c8be c3a0 023f 9a8b 8bbd 9360 093e
00000070: 8490 443e 183c 443e a1eb ce3e f7ed 47bf
00000080: 70ce 0a3c ccb9 0f3c c0ae 3b3f fa65 23bf
00000090: cf4a 953e 04b2 acbe 9f29 913e ad5e c7bb
000000a0: 2fad 343e 7670 283f 720b 0ebf 8bd0 04be
000000b0: be6e 17bd 4029 c13e 1de8 d2be 5691 3f3e
000000c0: 3b66 3a3e 86b1 b8be 005f 903d 13ba 793e
000000d0: f3fa 09bf f3dd 043e 3017 3e3f 11c0 07be
000000e0: 5b55 0b3e 276c 0d3e 1d2a 56be 5eea 0d3f
000000f0: 3244 15be 2ee3 9dbc c207 23be 2366 ffbd
00000100: 8ec3 21be a511 063f f18a 6cbf 4d7b 093f
00000110: 6cf3 94be 0ecc 3f3e 63a9 9d3e 8be1 f23d
00000120: fe64 863e 3943 83bf 4491 f7bc c077 03bf
00000130: 0bd7 04bd a452 f63e ebdc c7be 2813 23bd
00000140: 2483 a33b 9338 07bf e1ba 733e 282f ac3e
00000150: 2bdb 9abe 0a9a 453e 8871 0c3f 71be d4be
00000160: cdb4 b43e baff f13e 7a73 68bf dfa9 e5bc
00000170: 645e 2ebf ca12 5a3f 1eb2 66be fea8 683d
00000180: 9382 363e 5d1f c73d 65f8 e8bd 9fd7 38be
00000190: 38cf 053c ab81 c4be 74f8 7f3e 623c 603d
000001a0: 04c8 553c e05f 783e 6472 22bf bd27 223f
000001b0: cb3a a2be b6e1 f4be b9ec 503e 64c3 f2bd
000001c0: 87da c1be 8f30 633f e79c babe fc4e 003e
000001d0: 9693 0bbf 25c5 b23c cd95 013f e2f4 8f3d
000001e0: a4e4 0bbf b335 37bd 80a0 ab3e 8098 213e
000001f0: 0b41 c53e 4cdd 003b 275c 86bb 4fb4 9d3e
-0.5568225 0.3329725 0.24345995 0.22093418 -0.71790606 -0.43588883 0.39546672 0.009607654
-0.00913079 -0.4729026 0.24748483 0.42706248 -0.43471935 0.08537963 0.26246896 -1.1507632
0.003338316 -0.0070098545 0.59861517 -0.44056925 -0.22462058 0.48772305 -0.10503124 -0.14730933
-0.39115438 0.5102655 -0.06813736 0.13415746 0.19195753 0.19163549 0.40414146 -0.7809748
0.00847207 0.008772325 0.7331352 -0.6382748 0.29158637 -0.33729565 0.28352067 -0.0060842843
0.1764419 0.657966 -0.55486214 -0.12970178 -0.036970846 0.37726784 -0.41192713 0.18707785
0.1820306 -0.3607294 0.0704937 0.24387388 -0.53898543 0.12975292 0.7425413 -0.13256861
0.1360678 0.13810788 -0.20914502 0.5543574 -0.14576796 -0.019273367 -0.15920928 -0.12470653
-0.15797254 0.52370673 -0.9239951 0.5370377 -0.29091966 0.18730184 0.30793294 0.11859425
0.26248926 -1.025489 -0.030220635 -0.513546 -0.032431643 0.48109925 -0.39035735 -0.03981319
0.0049899984 -0.528207 0.23801757 0.33629727 -0.30245337 0.19297042 0.54860735 -0.41551545
0.3529419 0.47265416 -0.90801203 -0.028035102 -0.6811278 0.8518492 -0.22528884 0.05680179
0.17823248 0.09722779 -0.113755025 -0.18051003 0.008167081 -0.3838018 0.24997121 0.054745086
0.013048176 0.24255323 -0.63455796 0.63341886 -0.3168548 -0.47828454 0.20402803 -0.11853674
-0.37862036 0.8874597 -0.36447832 0.1253013 -0.54522073 0.021822521 0.506192 0.070291296
-0.5464575 -0.044728946 0.3352089 0.1578083 0.38526186 0.0019663153 -0.004100341 0.30801627

parallel_cnn_block.branches.2.0.weight f4 [1, 1, 8]
00000000: ea53 aebc 63bb 293c c501 5abe 76f5 053f
00000010: f759 773e 105d 34be 0e29 183d 46b7 9dbc
-0.021280248 0.010359618 -0.21289738 0.5232767 0.24155413 -0.17613626 0.037148528 -0.01925243

parallel_cnn_block.branches.2.2.bias f4 [64]
00000000: f882 b43d e5ab e4be bfeb d6bd 9427 61bf
00000010: 69e8 013e 9dd3 13be fbb0 dcbd 3dac 1dbf
00000020: 3dbf f13e 8a02 9d3e a52a 123e 5426 56bc
00000030: 6384 51bb 8d49 c0bc 695c 8a3e da36 b83c
00000040: e22e 12bf 7339 823d 490d 813e 261f 483d
00000050: cc9c 883d b6e6 5a3d 3953 a33e 57fb 80be
00000060: 09ff bbbd 15be bf3d 0c32 053d b60a 353e
00000070: 6765 8f3e 38f8 adba b194 19bf 9af4 ddbe
00000080: a85e 7a3e ba06 30be 5e1a 1a3d 66dd d33e
00000090: 19aa 3c3e cad0 c23e b57f 82bf 8909 8c3e
000000a0: 7afd c1bd 2dd0 543e 2e42 9f3e ee7e 533d
000000b0: d73c a8be 02ea d83d cdc0 b43e ac6d 16be
000000c0: 3b72 d6bf 383f 40be 289a 54bf d3ef 833e
000000d0: b5c9 123e f975 12be 5954 81be 7c3b 9bbd
000000e0: a095 4bbe 5cff 8ebe 6a21 6c3c d1fa 2a3c
000000f0: 407f ba3d baf6 bf3e f204 0cbe af84 e23c
0.08814043 -0.44662395 -0.10494184 -0.87951016 0.12686314 -0.14436193 -0.10775944 -0.6159094
0.47216216 0.30666 0.1427408 -0.013070662 -0.0031969778 -0.023472572 0.27023628 0.022487093
-0.5710279 0.06358614 0.25205448 0.04885783 0.06670532 0.05344268 0.3189943 -0.25191757
-0.091795035 0.09362427 0.03251843 0.17679867 0.2800705 -0.0013272827 -0.5999251 -0.4335068
0.24450171 -0.17190066 0.037622802 0.4137985 0.18424262 0.38049918 -1.0195223 0.27351025
-0.09472175 0.20782538 0.3110518 0.05163472 -0.32858917 0.105915084 0.35303345 -0.14690274
-1.675361 -0.18774116 -0.83047724 0.2576891 0.14334758 -0.14302815 -0.25259665 -0.07579705
-0.19881296 -0.279292 0.014412263 0.010435776 0.09106302 0.37492925 -0.13673761 0.02765116

parallel_cnn_block.branches.2.2.weight f4 [64, 1, 8]
00000000: 662f b8be 04da ebbd f4d3 873e 2621 95be
00000010: e6b3 963e 0499 31be fd23 843e 422f 073e
00000020: 611d 3a3d 3bf7 35bd 2d06 a63e 39df d0be
00000030: 6fe5 893e d690 e0bd 7a12 913e 4037 67be
00000040: 30c6 e1be 1b05 20bf 6995 b13e 9aba f23c
00000050: a5f2 083d d97c 333e 7388 7a3e e34a 07be
00000060: cd73 9f3e de51 b33d 5884 5fbe d193 2f3e
00000070: 7413 f93b 6be5 213e f9da 86bd dac7 b4be
00000080: 138c 14bf a871 aebe f9d9 82bd 3058 b03e
00000090: d583 d83e c660 c43e 7984 07be 286d c33c
000000a0: 8725 283e e5d0 013e 35bd 7abe 8751 0fbf
000000b0: 3e9e e6bd 8d8d f43d c9d8 2ebd cec3 96bc
000000c0: ae13 b4bc 8357 573e d5d3 59bd 4d11 afbe
000000d0: 01a6 353e 8edd 7e3d 94d5 4e3d 2d99 443d
000000e0: b919 9d3e 8344 0abd 51b1 03bf 8426 abbe
000000f0: 3607 643e 06f5 763e 79c5 453d 9d18 b83d
00000100: 8fd3 183e 4f40 a4be c2c4 d13e 6af1 4fbe
00000110: 84d0 b8bd f822 5a3e 4eda a9bc 3355 05be
00000120: 9624 1c3c e434 133e f597 a9be c5f6 87be
00000130: dcd7 a2be 1c4a 423e 9f47 ab3d 7793 873e
00000140: 29c5 fbbe 39d3 64be d013 453c fddf b63e
00000150: 23ba 63bd 94f2 98be 811b 6f3e 249a 273e
00000160: 7c18 3b3e 4114 75be 8369 2b3e 09b0 fbbd
00000170: 25f7 02bc 9864 d0bd 9413 ea3c 3c19 613d
00000180: db46 833d 8641 25bf b704 b5be e327 033f
00000190: de51 85be 8cb1 9b3e b5c1 513e c01f 113e
000001a0: ffee f23c 7a45 9b3e 14c1 123e 2626 94be
000001b0: ecb2 c83e 6396 02bf 656e ddbe 4be8 293d
000001c0: a1aa dcbb 4dac 7b3e b6e2 f33d eb21 86be
000001d0: 5444 bebe f324 1abe e804 7bbd 775e a23e
000001e0: 2ac7 b73e 8126 083d 24e5 2e3e 2a64 223e
000001f0: de70 483e e20d 18be 820d dcbe 515b a7be
00000200: 547e b9bc 8b8d 5a3e 7798 b53e d5aa 033e
00000210: 5015 4fbe f444 eabe 0d64 b5bc 907a 4f3d
00000220: b203 b93d bab6 a9bc b57e db3d 2239 dcbd
00000230: c8c2 cebc be95 e63e 649e 9fbf 99fb 3dbf
00000240: 3bc0 cfbe fa78 adbe 97ee 08bf 1eda 4abe
00000250: b34b 9a3e 2456 8a3e 8862 a93d ac00 b7be
00000260: c0d1 f4bd 5e72 2fbd 2abd ea3e 4303 903d
00000270: 5845 bc3e 7ab0 5ebe 73aa 4abd a405 c4be
00000280: 6d07 e1be 06d2 d33c 5375 9e3e 2f4d e6bd
00000290: 52e7 1cbe d267 a53e 6726 0c3e 6438 c53c
000002a0: d7a2 b73d 7ca1 2f3d e30c abbe 47b9 97be
000002b0: d7ac b63e 5f8f bf3e 5e35 4abe fe0d c8ba
000002c0: e049 f3be 84e4 3abe 32c6 a7be 4e01 d93e
000002d0: 1075 22be d219 283e 4528 b0bd 369b 453d
000002e0: 4d8d 5bbd 22c7 3e3e a335 0fbe 6780 4dbd
000002f0: ea6f 24bd f4de e33e 6c64 843e a18b 42bd
00000300: b491 25be f2b4 41be f157 5cbe 40e8 c8bd
00000310: 571f 4dbe 9c4d 75be e0a9 b0be 79a5 20be
00000320: e3c5 093e 613d d8bd b293 8abe ae18 4abf
00000330: d48a 1ebc 819d d53e 3d83 4e3e c687 2abe
00000340: 34f3 553e 3ce0 5abe 2855 47bf 50ac e93e
00000350: 2719 463d 16b6 1d3e e56c 5d3d bfe4 2f3d
00000360: c4ec 29be d64d 2ebf 5895 32bf ec81 063d
00000370: 11d3 163e 62b0 a43d 44cc 2cbd f79f 063e
00000380: 296a 93ba 9a5c 683e be49 b5be 7fd7 19bf
00000390: c1ae 9f3e ff9c 71be 3a52 713e 941e bb3e
000003a0: 69fc 0dbe cba1 7e3e 689e 023c 2707 933d
000003b0: 2a4f 9abd 6a55 583e 7965 4a3d 263f d9be
000003c0: 4c1a 1d3e 0c51 b3be 0bf1 bb3e f04e 5cbd
000003d0: 9c72 4fbe 6c5a b43e 28f0 1abd cd51 07be
000003e0: 082f a23d 177b b03e bd01 0abf d54d f93e
000003f0: 2ff5 52be 3848 9ebd 2d31 a43e 9a41 8bbd
-0.35973662 -0.115161926 0.26528895 -0.29126853 0.29434127 -0.17343527 0.25808707 0.13201621
0.045438174 -0.04442523 0.32426587 -0.40795305 0.26932856 -0.10965125 0.2833441 -0.2257967
-0.44096518 -0.6250779 0.34684303 0.029629994 0.03343453 0.17528094 0.24466114 -0.13212161
0.31143036 0.08755849 -0.21827829 0.17146231 0.007601196 0.15810172 -0.065847345 -0.35308725
-0.58026236 -0.34071088 -0.06389231 0.34442282 0.4228808 0.38355082 -0.13234128 0.02385576
0.16420566 0.12677343 -0.24486239 -0.55983776 -0.11260651 0.11941061 -0.04268721 -0.018403914
-0.02198204 0.21029477 -0.053180534 -0.34192887 0.17739107 0.06222301 0.050496653 0.047997642
0.30683687 -0.033756744 -0.5144244 -0.33427823 0.22268376 0.24116907 0.048284028 0.089890696
0.14924453 -0.32080314 0.40970427 -0.20306936 -0.09024146 0.21302402 -0.020733979 -0.13020782
0.009530207 0.14375645 -0.33123747 -0.26555458 -0.31805313 0.18973583 0.0836327 0.26479694
-0.4917386 -0.223462 0.012028649 0.35717764 -0.055597436 -0.29872572 0.23350336 0.16367394
0.18271059 -0.23933508 0.16739468 -0.122894354 -0.007993494 -0.10175437 0.028573789 0.054955706
0.06409999 -0.64553106 -0.3535516 0.5123274 -0.26039022 0.30408895 0.2048405 0.14172268
0.029654978 0.30326444 0.14331466 -0.28935355 0.39199007 -0.5101072 -0.43248287 0.041481297
-0.0067342077 0.24577446 0.11908476 -0.26197752 -0.37161505 -0.15053158 -0.061283976 0.31712696
0.35894138 0.033239845 0.17079598 0.15858522 0.19574305 -0.14849046 -0.42979056 -0.32686856
-0.022643246 0.21343057 0.35467884 0.12858136 -0.20222974 -0.45755732 -0.022142434 0.050653994
0.09033908 -0.020717014 0.10717527 -0.10753085 -0.025239363 0.4503612 -1.2470212 -0.7421203
-0.40576348 -0.3388136 -0.5348906 -0.19809768 0.3013588 0.27018845 0.082707465 -0.357427
-0.11954069 -0.04283368 0.45847446 0.07031872 0.36771655 -0.21747008 -0.04947896 -0.38285553
-0.43950978 0.025856983 0.30948886 -0.1124519 -0.15322617 0.3230577 0.13686524 0.02407474
0.08966606 0.042878613 -0.3340827 -0.29633543 0.3567874 0.3741407 -0.1974692 -0.0015262959
-0.475173 -0.18251234 -0.327684 0.42383808 -0.15864968 0.164161 -0.08601431 0.048243724
-0.05360155 0.1863065 -0.13985305 -0.050171282 -0.040145792 0.44506037 0.25857866 -0.04749644
-0.16168863 -0.18916681 -0.21517922 -0.09809923 -0.20031486 -0.23955387 -0.34504604 -0.15688123
0.13454394 -0.10558582 -0.27065808 -0.7894391 -0.009676654 0.41721728 0.20167251 -0.16653356
0.20893556 -0.21374601 -0.77864313 0.45639277 0.04836383 0.15401492 0.054058928 0.04294276
-0.16594225 -0.6808752 -0.6975913 0.032838747 0.14728953 0.08041455 -0.04218699 0.13146959
-0.0011246848 0.22691575 -0.35407823 -0.60094446 0.31188014 -0.23595046 0.23566523 0.36546767
-0.13865818 0.24866407 0.007972337 0.071790986 -0.075346306 0.21126333 0.049413178 -0.4243099
0.15342063 -0.3502277 0.3670734 -0.05378622 -0.20258564 0.35225236 -0.037826687 -0.13214798
0.07919127 0.3446891 -0.539089 0.48692194 -0.20601343 -0.077286184 0.32068768 -0.06799622

parallel_cnn_block.branches.3.0.weight f4 [1, 1, 32]
00000000: c19a 47bd 22e1 38bd e3aa abbb c2c6 3dbd
00000010: de09 84bd 3bd9 f0bc bef4 9dbc 4cc7 adbd
00000020: b7c6 723c ae5b 5dbb 8013 84bd ef74 5fbd
00000030: 0cc5 3abd 6cf5 7cbd 138c b33d d372 4abd
00000040: 4d54 92bd 176d 76bc 9fd8 00bc b120 bbbc
00000050: 895f 5a3d 5705 dc3d 425d c53c 87ad 203e
00000060: 3b01 363e 7cb0 313e 5a22 74bd 9727 98bd
00000070: 4bb7 acbd 62b8 963d a307 98bb 06c5 fcbc
-0.04873157 -0.04513658 -0.005238877 -0.04633213 -0.064471945 -0.029400459 -0.019281741 -0.084852785
0.014817885 -0.003377657 -0.06449032 -0.054554876 -0.045598075 -0.06175749 0.087669514 -0.04942591
-0.07144985 -0.0150406575 -0.0078641465 -0.022842737 0.053313766 0.10743206 0.02409232 0.15691195
0.17773907 0.1735248 -0.059603073 -0.07429426 -0.08433398 0.07359387 -0.0046395822 -0.030855667

parallel_cnn_block.branches.3.2.bias f4 [16]
00000000: b4c4 903e bb36 1cbe fa06 e13a f12b 023d
00000010: dddc 7e3e b3d8 2d3e 99f6 6a3e cb60 e93c
00000020: e892 fa3e 3ed0 42bc ae5c cb3e 5b45 ab3c
00000030: 2cd1 5e3e cab2 c43e a2ac cebd 9b2c a73d
0.28275073 -0.15255253 0.0017168217 0.031780187 0.2488894 0.16977195 0.22945632 0.028488537
0.48940206 -0.011890469 0.39719146 0.020907095 0.2175948 0.38417655 -0.10091521 0.08162805
