narrow/modelpars_narrow_i_82.safetensors (safetensors, 86584 bytes, 32 tensors)

bilstm.bias_hh_l0 f4 [64]
000000 0e 89 2b bf 3d 5a 5d be b6 0a 7c 3e 1a af e7 bd
       -0.67006004 -0.21616454 0.24613461 -0.11312695
000010 3d 1f 0b 3e ef b1 19 bf ba 0e 27 bd 92 f2 4e 3e
       0.13586135 -0.6003713 -0.04078553 0.2020972
000020 73 57 1c 3d 47 0e 01 be 59 24 02 be 7b e0 e4 be
       0.038169336 -0.12603103 -0.12709178 -0.44702515
000030 29 58 a8 be 5e 00 57 be 5d 8e ea 3e f3 e7 45 be
       -0.3287976 -0.20996234 0.4581174 -0.19326763
000040 b8 03 9c 3e 1f 22 15 3d 45 3d 77 3e 60 45 cb bd
       0.30471587 0.036409494 0.24144466 -0.099253416
000050 0d fb 9c 3b 46 07 41 3e e8 e2 68 3e 8f b4 10 3e
       0.00479067 0.18850431 0.22742808 0.14131378
000060 a8 6b f3 3d a9 0a a9 3c 90 ba b5 3e 62 32 87 bd
       0.11885768 0.020634966 0.35493898 -0.06601407
000070 fa 1b 37 be 9e fa 1d 3e cd e5 a6 3e c8 0f 3f be
       -0.17881766 0.15427634 0.325972 -0.18658364
000080 d9 ed 9b bc fa 66 46 be eb 9e 05 bd be 21 93 be
       -0.019034313 -0.1937522 -0.03262226 -0.2873668
000090 54 d3 6b 3c 27 a9 f9 bd 89 ba 65 be b1 96 8b 3d
       0.014393646 -0.121904664 -0.22434439 0.068158515
0000a0 5c f5 27 3e 6c 58 0b 3e 7e a9 c8 bd e7 7b b8 bd
       0.16402191 0.13607949 -0.09797953 -0.090080075
0000b0 6d be b4 3d bd 84 2b 3e a1 3c 1b be b7 67 73 3d
       0.08825383 0.16749854 -0.15159847 0.059425082
0000c0 22 33 46 be 32 e7 7a 3d 0d 0f 48 3e 24 6d f0 3c
       -0.19355443 0.06125564 0.19536991 0.029348917
0000d0 be 85 0a be a4 30 21 3e a2 5a 4e 3e 9b f8 16 3e
       -0.13527581 0.15741211 0.20151761 0.14743273
0000e0 1d 6a b3 bc 88 dd b6 be 42 50 a8 bd 73 df c4 3d
       -0.021901185 -0.3571589 -0.08218433 0.09612932
0000f0 39 04 99 3e 20 6c b9 3d 68 8b 97 3e d8 09 87 3e
       0.29886034 0.09053826 0.29598546 0.26374698

bilstm.bias_hh_l0_reverse f4 [64]
000000 1f 83 ad bd 5e 53 8e bd 74 bc b4 be 84 d4 9d 3e
       -0.08472275 -0.06949495 -0.35300028 0.308262
000010 35 b0 b3 3e e6 55 0d 3f 7f b8 ad be cc 06 8b 3e
       0.35095373 0.55209196 -0.33929822 0.27153623
000020 59 bf 18 bd e4 fc 32 3d 31 ca de 3c 34 6a f1 3c
       -0.03729186 0.043698207 0.027196022 0.029469587
000030 69 98 02 3e f7 fb 74 3e 42 e4 dd bd 49 93 bd be
       0.12753452 0.23924242 -0.10834552 -0.37026432
000040 78 d8 03 be d8 15 dd 3d 64 81 54 be db a9 16 3e
       -0.12875545 0.10795182 -0.20752484 0.14713232
000050 00 aa 0b bc 3a 0f 21 3e 05 24 b1 3e 40 3a cb bc
       -0.008524418 0.15728465 0.34597793 -0.02480805
000060 f2 84 e0 3d 2d e6 94 3e 88 12 01 3e da 5e 9a 3e
       0.10962857 0.2908186 0.12604725 0.3015049
000070 d5 c9 45 3e fe 6e ae bb 27 c4 52 be 4e 5f 6a 3e
       0.19315274 -0.00532329 -0.20582639 0.22887918
000080 65 ef 5f be ec f9 62 3e 0a 3d 13 be 05 a1 33 3e
       -0.21868666 0.2216565 -0.14378753 0.17541893
000090 8d 90 c8 bd 3e a4 27 3e fd cd e4 bd d7 d8 ee 3d
       -0.09793196 0.16371247 -0.11172102 0.11662453
0000a0 b7 6c ec bd a6 88 a9 be 56 d4 31 be 7d d3 7a be
       -0.11544173 -0.33112067 -0.17366156 -0.24494739
0000b0 25 7b 11 be 5c 69 1b be ad 2c 41 3d 7c bd 15 3d
       -0.14207132 -0.1517691 0.047161747 0.03655766
0000c0 a3 9e 9c bd 6f 1b 76 3e 5d e5 7d 3c 00 49 cd 3e
       -0.07647445 0.24033903 0.015496579 0.40094757
0000d0 48 ee a7 3e ae c7 22 3e 86 96 d8 3d a1 65 9c be
       0.32798982 0.15896484 0.10575585 -0.30546287
0000e0 f2 c5 6f be 79 05 67 3e db 58 a5 3e b9 60 81 3e
       -0.23415354 0.22560681 0.32294354 0.25269106
0000f0 c4 68 33 3e 4d 7b 06 3e b2 11 a4 be 4f 2d 08 be
       0.17520434 0.13132973 -0.3204475 -0.13298534

bilstm.bias_ih_l0 f4 [64]
000000 8f 87 96 be a7 f3 2f be bd b1 00 3f 46 73 a8 3c
       -0.29400298 -0.1718279 0.5027121 0.02056278
000010 5c ac 9e 3e 2c 60 ea be b6 15 b0 3e c4 40 48 3e
       0.30990875 -0.45776498 0.34391564 0.19555956
000020 de 6f ae 3e b4 dc c1 be 4d 2b b0 be 28 dd 55 bf
       0.34069723 -0.37863696 -0.34408036 -0.8354058
000030 5d 87 ae bd 0e 0d 6a be 47 37 23 3f 24 b8 ae bd
       -0.08521912 -0.22856542 0.6375622 -0.08531216
000040 09 f7 00 3e dc ca ca 3e b0 2a 91 bd ba 2b 96 3e
       0.12594236 0.39607894 -0.0708822 0.29330236
000050 78 72 1f be 43 04 fb 3d 6a cd 1f 3e 9d 8e 0f bc
       -0.1557101 0.12256672 0.15605703 -0.008762029
000060 3c 30 b3 3e 6e 9a 96 bc fa 9d c7 3d 7a e4 e6 bd
       0.34997737 -0.018384185 0.097469285 -0.11274047
000070 fd e3 78 3e b6 0b 5e be 8a c3 81 3e d4 ea 21 be
       0.2430572 -0.21684155 0.25344497 -0.15812236
000080 4c 53 eb bd d4 86 27 be e7 c3 52 bd 42 6b 46 be
       -0.11490497 -0.16360027 -0.05145636 -0.19376853
000090 31 c6 8f 3d b3 8f bc 3d 13 dc d2 3d ad a3 0e be
       0.07020224 0.09207096 0.10295882 -0.13929625
0000a0 3a 8c 6c 3b 32 08 29 3e 09 a8 96 3e 51 22 f3 3d
       0.0036094324 0.16507033 0.29425076 0.1187178
0000b0 33 6e 39 be c5 f8 97 3c 78 1b 13 3d 1e cc b1 3d
       -0.18108444 0.01855124 0.035914868 0.086815104
0000c0 88 83 73 be 59 9d 6a be 2f 26 03 3e e3 4d 2e be
       -0.23780644 -0.22911586 0.12807535 -0.17021899
0000d0 b6 7c 4a be 94 29 26 be f0 6c 01 be 82 a3 90 3d
       -0.19774136 -0.16226798 -0.12639213 0.07062437
0000e0 ae c9 95 3d 6d c3 03 be de ae e9 bd ae 1d 30 3e
       0.07313858 -0.12867518 -0.114103064 0.17198822
0000f0 4b 2a 9d 3e 87 8b 64 bd 0b c5 90 3e e8 89 9e 3e
       0.3069633 -0.055797126 0.28275332 0.3096459

bilstm.bias_ih_l0_reverse f4 [64]
000000 2b 2f e6 3d a2 10 19 3e 8b 09 ef bd c9 2a 47 3d
       0.11239465 0.14947751 -0.11671742 0.048624787
000010 c7 75 ae 3e be 67 b4 3e c1 b7 83 be 78 e7 28 3d
       0.34074232 0.352354 -0.2572613 0.04123637
000020 3b b5 18 be 64 c1 ca bd 1a 0b 9b bd e9 a0 96 bd
       -0.14912884 -0.099001676 -0.07570477 -0.0735491
000030 cd aa 58 3d 56 7d d6 3d 8a 9a d7 bd 3b d3 0c be
       0.052897263 0.10473125 -0.10527523 -0.13752453
000040 d7 56 01 bd 9e 21 ad 3d 14 93 1c be a5 77 1e 3d
       -0.031576958 0.084536776 -0.15290481 0.03868832
000050 6b ca 92 bc 4f af f0 bd d9 0f 4a bd d0 4a df 3d
       -0.017918786 -0.117521875 -0.04933152 0.10902941
000060 43 e5 87 3d 31 f3 89 3e e9 59 00 3e 20 0e 97 3e
       0.06635525 0.26943353 0.12534298 0.29502964
000070 4b 97 68 3e 0b b9 0f 3d a9 92 55 3d f0 03 7c 3e
       0.22713964 0.03508858 0.05214182 0.24610877
000080 b7 55 59 be bf 94 a1 3e 38 e1 8d bd 4f 59 83 3d
       -0.21224104 0.31558797 -0.06927723 0.06413519
000090 d4 03 94 3e e3 00 8a 3d 3b af a5 3c 10 d5 94 be
       0.2890917 0.067384504 0.020225158 -0.29068804
0000a0 9d ec 52 3d 7f 63 52 be fa b6 16 3e d3 17 72 be
       0.051495183 -0.20545767 0.14718238 -0.236419
0000b0 50 08 d9 bd 02 aa b6 bd 4c 4d b7 3e 69 af d0 3d
       -0.105972886 -0.08919145 0.3580116 0.10189707
0000c0 c3 b3 77 be 54 d8 4a 3e fa e9 59 3d d1 90 0e 3f
       -0.24189667 0.19809085 0.053201653 0.5568972
0000d0 f0 55 b0 3e a4 ef 0b be 72 2f 81 be 9b 02 a4 be
       0.34440565 -0.13665634 -0.2523151 -0.32033238
0000e0 26 55 30 3e 0a 50 7e 3e 95 46 a8 bb 77 58 08 3f
       0.17219982 0.2483522 -0.005135367 0.53259987
0000f0 48 f7 89 bb 0e a2 ea bd 4b 10 47 be 85 b2 8a be
       -0.0042103864 -0.11456691 -0.19439809 -0.27089325

bilstm.weight_hh_l0 f4 [64, 16]
000000 98 c9 6e be 50 aa 57 be 5e e0 96 3e 9a c8 c4 3d
       -0.2331909 -0.21061063 0.29468054 0.09608574
000010 73 a4 45 be 6a cb 39 3e 0d 59 b1 be a6 d1 c2 3e
       -0.19301014 0.18144003 -0.34638253 0.38050574
000020 bd e4 92 3e 79 12 a6 3e de 43 cd bb b6 9a 19 3d
       0.28690138 0.3243597 -0.006264194 0.03750106
000030 15 81 80 be f5 80 7f be fa 06 91 bd 37 ae 45 3e
       -0.25098482 -0.24951537 -0.07081409 0.19304739
000040 3f d9 c7 3d 60 99 e7 be f9 dd bd be b8 83 28 be
       0.09758233 -0.45234203 -0.37083414 -0.16456497
000050 e1 17 9c bc 10 f2 0e be b8 26 0e 3f f7 fd 12 bd
       -0.019054355 -0.13959527 0.5552783 -0.03588673
000060 50 02 cd 3e b9 e7 e7 3e 92 fd 34 bf 0e db 0e 3e
       0.40040827 0.45293978 -0.7069942 0.1395075
000070 e3 43 2d 3f 7b f7 98 3e 17 e3 66 bc 26 94 b3 be
       0.6768171 0.29876313 -0.014092228 -0.35073966
000080 c2 b6 85 be 9e 95 97 bd 7a ff 8d 3d 24 70 20 bd
       -0.26115996 -0.07401584 0.06933494 -0.039169446
000090 a5 21 95 bd 65 63 86 3e 3c 82 54 3d 87 89 26 3d
       -0.07281808 0.26247707 0.051882014 0.0406585
0000a0 27 bc 39 bd 14 26 f2 bc 37 e8 33 3e d5 eb 3d 3c
       -0.04534545 -0.029559173 0.17569052 0.011591871
0000b0 75 71 4b 3e f3 24 0b 3d d2 39 dd bd f9 80 ff 3d
       0.19867499 0.033970784 -0.10802044 0.124757715
0000c0 ec 42 5f 3e c0 a2 ab be 2f 78 dd bc 32 88 bc 3b
       0.21802872 -0.33522606 -0.027034847 0.0057535404
0000d0 64 be 33 bd 80 eb d5 bd 4f d7 31 3e b8 ca 5b be
       -0.043882743 -0.10445309 0.1736729 -0.2146405
0000e0 4d f2 87 bf b0 c3 29 3e 1d 2f 89 3e eb 3a 61 bd
       -1.0620819 0.16578555 0.26793757 -0.05498783
0000f0 72 4f a6 3c 89 d4 0d bf 6f d8 0c be c9 c8 fd 3c
       0.020301554 -0.5540243 -0.13754438 0.03097953
000100 b5 ca 10 3c ce 9d 58 3f ad 38 85 be 35 a1 3e be
       0.008837392 0.8461579 -0.26019803 -0.18616183
000110 dd 2b 19 3e 5c fd 9e be 69 48 01 bf f3 06 34 3f
       0.14958139 -0.31052673 -0.50501114 0.70323104
000120 c5 97 31 3d f4 6e 32 3f d6 3f 36 bd 8b ed 8c be
       0.04335763 0.6970055 -0.044494472 -0.2752498
000130 b7 d7 fb be bc 90 23 3e dc 2d bf 3e b1 d0 1e 3f
       -0.49188015 0.1597318 0.37339675 0.6203719
000140 3d c5 02 be 21 74 e7 be 4c d5 ef ba a3 28 d6 3c
       -0.12770553 -0.45205787 -0.001829782 0.026142424
000150 c7 9e cd 3d 40 92 b3 3e 40 9b 5f bd 84 44 b5 3e
       0.1004005 0.35072517 -0.054591417 0.35403836
000160 a6 c8 0e 3e ac 8d cd 3d 7e 6d 97 be ff c7 ea bc
       0.13943729 0.100367874 -0.29575723 -0.028659819
000170 f2 0d 98 3e 4c 80 31 bc 4f 22 49 be 80 44 7d bd
       0.2969814 -0.010833811 -0.19641994 -0.061832905
000180 1a 88 68 be b5 89 da 3e ab 73 77 3e ec 28 51 be
       -0.22708169 0.42683187 0.24165218 -0.20425767
000190 1c e0 bf 3c a3 ce a3 3e 3a 2e 1d be 88 40 08 3f
       0.023422293 0.3199359 -0.15349665 0.53223467
0001a0 f7 3f d9 bd 48 c7 5b be 57 c0 d2 3d d2 18 f1 bc
       -0.106079035 -0.21462739 0.10290592 -0.02943078
0001b0 6c a4 fb be b7 ef ad 3e c7 cc d5 3e 57 d3 43 3f
       -0.4914888 0.3397195 0.41757795 0.76494354
0001c0 93 de 52 3d 1c b7 1d be eb 16 97 3e 23 9d ea bd
       0.051481795 -0.15401882 0.29509673 -0.11455753
0001d0 45 d3 61 bc 63 f2 51 be 80 03 6c 3e ed 8a e7 bc
       -0.013783281 -0.2050262 0.2304821 -0.028264487
0001e0 1c 2d 84 bd ac 7b 2d be 41 2d 3b 3e 19 4f cc bd
       -0.064539164 -0.16941708 0.18278982 -0.09976024
0001f0 96 74 2a be f6 e6 4c be fe b9 a8 3c 56 d8 07 3e
       -0.16646037 -0.2000998 0.0205965 0.1326612
000200 b6 e9 f3 be 5a d2 6a 3e 4c 44 08 3e cc a6 0b 3e
       -0.47639245 0.22931805 0.13307303 0.13637847
000210 22 cf 0c bf ee 6e 9b 3d 30 0f e5 bd 77 9d d6 3c
       -0.5500356 0.075895175 -0.111845374 0.026198132
000220 79 fb 9f be e7 5e 92 3e 8b 54 92 3e 30 b8 c2 be
       -0.31246546 0.2858803 0.28580126 -0.3803115
000230 9e 0f 2d 3f 70 e5 21 be 16 a1 09 3f 80 1e 42 bd
       0.67601955 -0.1581018 0.5376142 -0.04739237
000240 96 32 3d 3e 7f 3f ba bf 20 13 52 bc 93 1a d0 3d
       0.18476328 -1.4550627 -0.012821943 0.10161319
000250 dc 9e d4 3d 7f b2 76 3e d1 e9 63 3e bc 73 41 be
       0.103818625 0.24091528 0.22257163 -0.18891805
000260 7f fb f3 be b2 6b 9f be fa c0 3e 3e 62 09 5a bd
       -0.47652814 -0.31136853 0.18628302 -0.053231604
000270 f7 c5 30 bf 9b a3 b3 bd ef 57 ab be b4 50 01 3d
       -0.6905207 -0.0877144 -0.33465526 0.031571105
000280 dc 22 dd 3e bc e6 22 be 7a b5 b0 be cc c2 71 bc
       0.43190658 -0.1590833 -0.34513456 -0.014755916
000290 e1 dd 27 3e 73 81 a3 be 57 86 12 3d 20 14 f5 be
       0.16393234 -0.319347 0.035772648 -0.47866917
0002a0 5a 35 5e 3d 24 5e 00 3e 01 95 9c be 19 80 65 3e
       0.0542501 0.12535912 -0.3058243 0.22412147
0002b0 d7 34 0b be 1e 88 41 be 07 07 c2 be 53 21 c7 bd
       -0.13594376 -0.18899581 -0.37895986 -0.09723153
0002c0 1f 8f 7d be 04 86 77 3e 89 c4 ec bd ea 96 52 3e
       -0.24761628 0.24172217 -0.115609236 0.20565382
0002d0 f2 1f e6 3c f4 bc 10 be 39 f1 d0 be 52 c1 3e 3e
       0.028091405 -0.1413458 -0.40809038 0.18628433
0002e0 41 60 39 be 87 49 0c 3e 52 c2 12 3d 2f d2 91 3e
       -0.18103124 0.13699923 0.03582985 0.2848067
0002f0 6d 0c 5b be 23 6f 25 bf 0b 58 24 be f5 3b 2e be
       -0.21391459 -0.64622706 -0.1604921 -0.1701506
000300 4d 4e 6f 3e 01 e4 2f bf 9f 4b 5b be bb b8 15 3c
       0.23369713 -0.6870728 -0.21415566 0.009138281
000310 e6 28 87 3e 3e 46 2d be 88 6e 6d 3d e6 1a a7 bd
       0.2639839 -0.16921327 0.05796674 -0.08159427
000320 8e d6 aa be de c8 d9 be 56 69 8e 3e cc f1 6a 3e
       -0.33366817 -0.42536062 0.2781474 0.229438
000330 af b4 c9 3b 5f cc 20 be f6 29 a9 be 08 b4 52 be
       0.0061555724 -0.15702961 -0.33039826 -0.20576489
000340 47 7a b4 3e 7f 25 05 bf 36 83 57 3e 51 15 92 bc
       0.3524954 -0.5201034 0.21046147 -0.01783243
000350 a2 3e 8d 3e 1c 38 21 be f5 e0 6b bc e7 4a a5 be
       0.27586848 -0.1574406 -0.014396896 -0.32283708
000360 d6 ce 4b bf 49 58 1c be 4d dc 23 be 99 fd 70 3e
       -0.7961248 -0.15268053 -0.16002007 0.2353424
000370 4d 35 c6 3e 26 79 5d be de 31 00 bf 93 95 06 be
       0.3871254 -0.21628246 -0.5007609 -0.13142996
000380 ea f9 b8 3d 7c 35 9e 3e e1 74 2d 3e ce ec a5 3e
       0.09032042 0.3090018 0.16939117 0.3240723
000390 ea c6 58 3c 5b e9 14 3d e4 f2 32 bc ff 3b 8c 3d
       0.013231019 0.036355358 -0.010922167 0.06847381
0003a0 0e eb 17 be 28 f1 9b be 05 6d f9 bd ba 05 fa 3c
       -0.1483576 -0.30457425 -0.12178997 0.030520309
0003b0 01 f6 46 bd bc fa 09 be 89 b9 cd 3d 4b 98 89 3e
       -0.04857445 -0.13474554 0.10045154 0.26874003
0003c0 72 9d 8b bb 84 dd 7c 3b b7 e7 c2 bd 69 6e e2 bd
       -0.0042607123 0.0038584182 -0.09516852 -0.11056215
0003d0 2f fe b0 3d 11 38 87 be ee 48 26 be c3 dc 99 be
       0.08642232 -0.26409963 -0.16238758 -0.3005124
0003e0 e9 94 61 be 7d e0 14 3e b8 68 1f 3e cd b2 28 3e
       -0.22029461 0.1453876 0.15567291 0.16474457
0003f0 d7 39 fd 3e 29 80 84 3d b7 0f f3 be 77 05 3b 3d
       0.4945819 0.06469757 -0.47472927 0.04565951

bilstm.weight_hh_l0_reverse f4 [64, 16]
000000 ce fb b5 be 65 ca b5 bd 16 8a 06 3e 09 d2 fb 3d
       -0.35543674 -0.08876494 0.13138613 0.122959204
000010 0e 80 d3 be dd b7 d8 bd 06 72 b7 be 50 36 b3 bc
       -0.41308635 -0.10581944 -0.3582918 -0.021876484
000020 f1 56 d4 bd 69 06 f3 bd 89 fe 96 be bf 2f 1a 3e
       -0.10368145 -0.11866457 -0.2949107 0.15057276
000030 09 99 5d bd 26 4c 8b bd b3 e2 c5 3d f2 b8 01 be
       -0.054101024 -0.068016335 0.0966238 -0.12668207
000040 b9 ec d1 3e 2f f2 9e 3e d0 b0 36 be a0 da be 3e
       0.41000918 0.31044146 -0.17840886 0.37276173
000050 84 6f 8b 3e d8 83 65 3e b2 02 8f be 57 84 9c 3e
       0.27233517 0.22413576 -0.27931744 0.30569717
000060 ae 19 98 be b8 ee 0a bf f7 c6 14 3f 93 8e d5 be
       -0.29707092 -0.54270506 0.58116096 -0.41710338
000070 fb 40 72 be fd e9 06 bf 50 8d cb be 31 da 7d 3e
       -0.236576 -0.5270079 -0.3975625 0.24790265
000080 49 7e 65 3e 51 90 20 be 6a 66 3a bb 1d c9 43 be
       0.22411455 -0.15680052 -0.0028442391 -0.19119687
000090 f3 e2 6f 3e d1 7e 53 3e 78 df 9b bd 96 67 a1 bd
       0.23426418 0.20653845 -0.07610983 -0.078810856
0000a0 8b 39 a9 3e ec 4b 41 3e 14 3c 9c bd c0 7a b8 3d
       0.33051714 0.18876618 -0.076286465 0.09007788
0000b0 49 e9 98 3e 78 84 4b 3e 20 8b 99 3d 13 32 bc bd
       0.29865482 0.19874752 0.07497239 -0.091892384
0000c0 91 e6 9e bd 4e 45 21 be 6d 22 f2 3e c6 29 01 be
       -0.07758821 -0.15749094 0.4729189 -0.12613592
0000d0 f4 01 11 3e 46 db ff bd 22 21 c6 3e ae bb c5 3e
       0.14160901 -0.12492995 0.38697153 0.3861975
0000e0 15 20 0b 3e f0 5a 0a 3d 70 da 8e 3e d9 29 e6 bd
       0.13586457 0.03377813 0.2790103 -0.112384506
0000f0 8b 83 b3 bd 14 49 14 be 69 e6 38 be 60 32 03 bf
       -0.08765324 -0.14481002 -0.18056644 -0.5124874
000100 0e b5 d7 3e 65 63 50 3e 03 6c 7d be 70 3e bf 3e
       0.4213032 0.20350416 -0.24748234 0.37352324
000110 0f 02 71 3e d3 3d 24 3f 37 f6 75 be cd c9 5c 3e
       0.23535942 0.64156836 -0.24019705 0.21561356
000120 cc 9b a0 be 3c 5e 03 bf 20 e4 a6 3e 6a 09 66 be
       -0.31368864 -0.51315665 0.3259592 -0.22464529
000130 e9 18 97 be a7 a1 01 bf 8e 73 0c bf a4 96 e8 3d
       -0.29511192 -0.50637287 -0.5486382 0.113568574
000140 f7 0f a8 be a8 7e 3d bd ae 90 6e be 69 4b c4 3d
       -0.3282468 -0.046263367 -0.23297378 0.09584696
000150 b8 44 f4 3c 72 7b ab 3a 86 99 ee bc 86 1a c5 3e
       0.029817924 0.0013083054 -0.02912594 0.38496798
000160 c5 5f 5e be 89 59 19 bb 05 97 e3 3c 79 6c a9 3d
       -0.2171622 -0.0023399314 0.027781973 0.08272643
000170 d0 1d 9a be 85 45 bc bd 50 b9 a1 bd 88 a1 c2 bc
       -0.3010087 -0.09192947 -0.07896674 -0.023758665
000180 22 e0 b7 bd 6d 1c 70 bd 26 45 eb bd 89 15 c4 be
       -0.08978297 -0.05862086 -0.114877984 -0.3829768
000190 1a 11 86 be 2a 28 f3 be 8a 44 53 bf 1f 35 fd be
       -0.26184922 -0.4749158 -0.8252646 -0.4945459
0001a0 ab f2 5c 3e b8 24 c1 3e 58 5a 1b 3a a3 ac a0 3e
       0.21576945 0.37723327 0.0005926243 0.3138171
0001b0 36 55 d5 3e 27 66 4c 3d d5 58 0f 3e 78 33 4f 3e
       0.41666573 0.049902108 0.1399873 0.20234478
0001c0 35 7a f1 3e 8c dd 10 bc df 43 42 bf 39 6b 4d 3d
       0.4716355 -0.008841883 -0.75884813 0.050151084
0001d0 a8 69 d7 3e 78 89 7c bd 0d 15 17 3f 1c 15 73 be
       0.42072797 -0.061654538 0.59016496 -0.23738521
0001e0 a4 d7 8f 3e 0c bb a6 3d e8 a1 a3 ba 39 17 3c be
       0.28094208 0.08141145 -0.0012484165 -0.18368234
0001f0 c4 6f 39 3e ea 83 a3 3d 84 0a 8f be ed 6e 0a 3e
       0.18109041 0.07984145 -0.2793771 0.13518877
000200 23 db cb be ab f1 97 be ae 4d b6 3e 7f e9 ca be
       -0.39815626 -0.29676566 0.3560614 -0.39631268
000210 2e a4 3d be 69 07 b7 bd 3e c2 01 bf 8e cc d1 bc
       -0.18519661 -0.0893696 -0.50687015 -0.025610235
000220 23 d3 59 3e f9 d6 91 3e 2f f9 24 be 23 2c a0 3d
       0.21271949 0.28484324 -0.16110681 0.078209184
000230 d7 3f 4a bd 5a db c2 3c 96 55 30 bd 35 2b 43 3f
       -0.04937729 0.023786236 -0.04305037 0.76237804
000240 fd 06 be 3e 05 77 72 3f e6 95 8e be c6 d5 de 3e
       0.37114707 0.9471286 -0.27848738 0.4352247
000250 72 cc 7f 3e c8 e7 39 3f 5f 17 bd bd 55 ab 8b 3f
       0.24980333 0.72619295 -0.09232973 1.0911661
000260 ad 4a e3 3b d6 96 92 bf 98 1c ef 3e 7a ac 4c bf
       0.0069363923 -1.1452281 0.46701503 -0.7995068
000270 19 64 50 bd 76 fa 5f bf 3f 1b 16 bf a3 8d cd bd
       -0.05087671 -0.8749155 -0.58635324 -0.10036781
000280 f7 df 6e bd 49 7e a6 bd b4 09 fc be 45 2a 9d 3d
       -0.05831906 -0.08129556 -0.49226153 0.07674078
000290 27 0a 1a bd 34 69 c4 be 4d 22 f4 3d 24 24 75 3e
       -0.03760734 -0.38361514 0.11920605 0.23939568
0002a0 f0 5a c8 3e 19 70 ae 3d 15 da b5 3e 7c c1 c4 3c
       0.3913188 0.08517475 0.35517946 0.024018042
0002b0 dc c1 41 3e 77 bc 1c bc 43 d8 9d be ed 2a a6 3d
       0.18921608 -0.009566418 -0.30829057 0.08113656
0002c0 9d fa 0d be 43 05 e7 3c b5 d1 1b bf 13 ff 76 bd
       -0.13865133 0.028200751 -0.6086686 -0.06030185
0002d0 41 26 6e be a2 de 7f be 9f 80 4e bf 92 d8 52 be
       -0.2325678 -0.24987271 -0.8066501 -0.20590428
0002e0 49 5a 48 bf 3d 3a 62 be 75 47 75 be 12 12 01 bf
       -0.78262764 -0.22092529 -0.2395304 -0.504182
0002f0 08 6a 81 be d8 ec f2 bd 22 b5 fb 3e 44 17 45 3f
       -0.25276208 -0.118615806 0.4916163 0.76988626
000300 52 8a a6 3d b1 4d 6a 3e fb 94 92 be c0 4a 2e be
       0.08131851 0.228812 -0.28629288 -0.17020702
000310 0a d8 46 3e ec 68 b5 be fd fe 4b bf f3 4a 89 be
       0.1941835 -0.35431612 -0.79685956 -0.26814994
000320 1a 56 b7 be 36 6e ad bd 3c 8a fc bc 60 24 84 be
       -0.35807878 -0.08468287 -0.030827634 -0.25809002
000330 e3 b0 85 be 15 67 1b be ea f0 d3 3e 03 21 55 3f
       -0.26111516 -0.15176041 0.4139474 0.83253497
000340 0a a1 c9 be 2b 70 02 be 7c 29 a2 3d dc 34 a7 be
       -0.39380676 -0.12738101 0.07918069 -0.32657516
000350 69 7f 86 3e 48 e7 70 be ec 07 11 3f d4 c1 dd 3e
       0.2626908 -0.23525727 0.5665271 0.43311942
000360 1f d8 05 be 81 17 86 be c0 45 88 3e 59 00 cc bd
       -0.13070725 -0.26189807 0.26615715 -0.09961004
000370 52 91 a7 be 38 58 44 be ac a9 11 bf da c0 4e be
       -0.32728058 -0.19174278 -0.56899524 -0.20190755
000380 fc 80 57 3e 02 8a d6 bd a7 7b 70 bf 52 20 28 be
       0.21045297 -0.10475542 -0.9393868 -0.16418579
000390 22 05 e4 be 54 0e f7 3e bc d6 fe 3d fc e6 00 bf
       -0.44535166 0.4825312 0.12443301 -0.50352454
0003a0 96 f9 71 3e 71 f4 42 3c 1f 50 c1 3c bc cd c3 3d
       0.23630366 0.0118991 0.023597775 0.09560725
0003b0 0a a5 f6 3d bf 4e 4d 3e 33 64 96 3d 3a d0 7b 3d
       0.120431975 0.2004957 0.0734333 0.061477877
0003c0 e6 00 24 3e fa 16 d5 bd c7 c6 a4 bd b5 5d c9 be
       0.16015968 -0.10404773 -0.08045726 -0.39329305
0003d0 ef bc 45 bc 7e af 84 bc b0 8f 1a bf d4 76 32 bb
       -0.012068971 -0.016196962 -0.603755 -0.0027231472
0003e0 df 19 a5 3e bb 37 1f 3e 9d 6a 7f be 25 7f 79 3d
       0.322463 0.15548603 -0.24943013 0.06091227
0003f0 6e 0c ab 3c 0d 84 e2 3e cb 93 16 3e 55 1b 9e 3e
       0.02087995 0.44241372 0.14704816 0.30880228

bilstm.weight_ih_l0 f4 [64, 32]
000000 f8 8f 12 bd 08 56 e4 3d f0 c8 47 3e 24 89 d5 3c
       -0.03578183 0.11149222 0.19510245 0.02606637
000010 4e 13 cc 3d 0a 88 29 be 73 52 4a be 44 8c d2 39
       0.099646196 -0.16555801 -0.19758014 0.00040158827
000020 27 b1 ac bd cc dd 45 be 3c f2 6b 3d 9b 20 30 bc
       -0.08432227 -0.1932289 0.05760406 -0.010749961
000030 23 2f ae be 5d 3c 41 be b2 46 1c be c8 0f e3 3e
       -0.34020337 -0.18870683 -0.15261343 0.44347978
000040 15 11 17 3d fb 5f 88 bc bf 31 d1 bc b0 42 57 be
       0.036881525 -0.01664733 -0.025536416 -0.21021533
000050 9a 17 34 3e 15 e2 c9 3b 00 24 4a 3b bf 26 79 bd
       0.17587128 0.0061609843 0.0030844212 -0.060827967
000060 f3 6c bb be 8d ca d5 bd e4 d9 e9 bc 52 47 da 3d
       -0.3660656 -0.10439024 -0.028546281 0.106581345
000070 e2 bc 72 3e 16 1e 45 3e f1 56 79 be 71 fb 9f be
       0.23704866 0.19249758 -0.24349572 -0.31246522
000080 c2 b5 bd bd 78 04 2a bf b3 18 d2 be ff 2d 53 be
       -0.09263183 -0.6641307 -0.4103447 -0.20623015
000090 1e 70 31 be 0e 2a f3 3d 04 49 c6 bd 00 72 e1 be
       -0.17327926 0.11873256 -0.096818954 -0.44032288
0000a0 96 65 64 be 68 c3 7d be 87 ed da be 66 aa 17 3f
       -0.22304377 -0.24781573 -0.42759344 0.5924438
0000b0 79 e3 c4 be 85 22 5f be 88 89 ca 3d 09 7e de 3d
       -0.38454798 -0.21790512 0.09889513 0.10863883
0000c0 be 38 8d 3c 0c db a9 be 00 9f 38 3e b9 c8 72 bd
       0.01723897 -0.33174932 0.18029404 -0.059273455
0000d0 85 ac b5 bd 4a 45 3e be 52 f8 7c be 35 58 70 be
       -0.08870796 -0.18581119 -0.24704102 -0.23471148
0000e0 37 02 8e be 2a ba 8a 3e e9 97 6c be 84 85 24 3d
       -0.27736065 0.27095157 -0.23104824 0.040166393
0000f0 a9 2a 83 3d 45 1e 0a bf 25 ab 1b 3e 1e 35 91 be
       0.06404621 -0.5395244 0.15202005 -0.28360838
000100 55 cb a2 3e 54 fd 33 3e bb 62 eb bd f9 88 09 3e
       0.31795755 0.17577106 -0.11493441 0.13431157
000110 d3 db 82 3e f3 3c 8c 3c 64 8d eb bd 06 63 25 be
       0.25558338 0.017118907 -0.115015775 -0.16151056
000120 f4 14 82 3e df 47 7a 3e 1d 21 5b 3e 04 70 08 40
       0.2540661 0.24441479 0.2139935 2.131837
000130 1d 53 3b bd 4e a7 51 3e 6a 04 37 3e 94 a0 ed 3d
       -0.04573356 0.20473978 0.17872778 0.116028935
000140 57 55 44 be 65 b9 01 3f 17 92 f2 3e ef f0 ac 3e
       -0.1917318 0.50673515 0.47377083 0.33777568
000150 ef 42 ef 3e 41 f1 5e 3f ba 02 10 be 82 3b 7d 3e
       0.46730754 0.87086874 -0.1406354 0.24729732
000160 75 c4 93 bd 40 54 6a be 4e c3 0f 3f 3c 7d 65 bd
       -0.072152056 -0.22883701 0.56157386 -0.056027636
000170 59 a5 21 3e d1 2c dc 3e 54 6b 0b 3e 61 52 d4 bd
       0.15785731 0.43002942 0.13615161 -0.10367275
000180 56 a8 34 3e a6 77 36 bd 7b 96 dd 3e eb f4 5a bd
       0.1764234 -0.0445477 0.4327887 -0.05345623
000190 81 04 16 3f a4 96 99 bf b0 24 af 3a 46 1f 65 be
       0.5860062 -1.1999097 0.0013362374 -0.22375211
0001a0 87 05 a9 3d 7b 7f ad 3d 02 82 08 bf 73 9e a0 bf
       0.082530074 0.084715806 -0.53323376 -1.2548355
0001b0 af a3 0f 3d 93 c9 0a 3f 9c 14 cc 3d ca 12 16 3e
       0.03506821 0.5421383 0.099648684 0.14655605
0001c0 e3 7d 62 3e e5 2a 8a be 1d 47 fd 3d 77 de 46 3e
       0.22118334 -0.2698585 0.123670794 0.19420801
0001d0 06 fc 90 3d f6 4f 08 bf c4 c4 56 3e 35 19 81 be
       0.0707932 -0.5324701 0.20973498 -0.25214544
0001e0 64 41 92 be c1 46 4d bd b4 7d 02 be 3a 04 2d 3b
       -0.28565514 -0.050116304 -0.12743264 0.0026400224
0001f0 11 77 7d be 57 0f a7 be 3c 4d 66 3e f5 a1 9f be
       -0.24752451 -0.3262889 0.224904 -0.3117825
000200 63 a5 67 3e 8b c9 8b bc 47 76 a7 3b 15 4b d9 3c
       0.22621684 -0.017063877 0.0051105353 0.02652506
000210 23 d3 70 be b5 28 95 be 2c 66 6b bc 4d 5b 8e 3e
       -0.23518042 -0.2913262 -0.014367621 0.27804032
000220 59 6b ba bd e7 54 72 3e 75 96 98 3d 75 45 8d bf
       -0.09102506 0.236652 0.074505724 -1.1036822
000230 26 56 84 3d 6c ab b8 be 13 22 c7 3e 0d 3b b3 3e
       0.06461744 -0.36068285 0.38893184 0.3500599
000240 ed 15 9a bd 9d 53 be 3d 68 18 2d 3e a7 a6 18 bd
       -0.07523713 0.09293292 0.16903841 -0.037268307
000250 ba f8 5b bc d3 0d 6d 3e e2 64 c5 bd 22 eb 23 be
       -0.013426 0.23149805 -0.096383825 -0.16007665
000260 57 e4 cb bc cb 8d 26 bf d0 55 0e bd 6e 93 30 be
       -0.024889154 -0.6506011 -0.034749806 -0.1724374
000270 9a c4 08 be b5 58 17 be 11 7a 33 bd 39 e0 3f 3e
       -0.13356248 -0.14779933 -0.043817583 0.18737878
000280 70 a2 85 3d f9 ff 00 bc a7 ba f9 3e 44 e9 7f 3e
       0.06525123 -0.007873529 0.48775217 0.24991328
000290 c6 a8 9d 3e 79 47 41 3e 43 b1 a5 3d 7b 0f 32 bd
       0.30792826 0.18874921 0.080904506 -0.043471795
0002a0 57 bb 47 3e 3b 46 47 be 92 cd f5 3e 13 9e bf bd
       0.19505058 -0.19460385 0.480084 -0.09356322
0002b0 b9 f5 29 be 58 94 6e be 10 2c 28 3e 50 b2 a7 3e
       -0.16597642 -0.23298776 0.16423059 0.3275323
0002c0 05 40 e4 3d 3c d8 4d 3e a7 ac bb 3d f2 3a fc 3d
       0.11145023 0.20102018 0.0916379 0.123159304
0002d0 07 2e fb bd c1 f6 14 3f 8c 4b ff 3e dc df a3 bd
       -0.122646384 0.58189017 0.49862325 -0.08001682
0002e0 8d 1e ac bd be 13 ec bd 76 8a b9 be a1 52 55 be
       -0.084042646 -0.11527203 -0.3623845 -0.20832302
0002f0 10 65 79 3e 17 95 94 3e 9b 82 42 be ae 5f 4c 3e
       0.24354959 0.29019997 -0.18995135 0.19958374
000300 ac a2 8a be ef 26 98 bc 9e 62 29 bf ad b2 58 bd
       -0.27077234 -0.018573252 -0.661661 -0.052904774
000310 a9 50 3b be b9 07 a9 3c 90 6f ad 3e fb 11 61 bd
       -0.18292488 0.020633565 0.33874178 -0.054948788
000320 9c a5 5d be e6 ea dc bd 25 6b bf 3e fa 36 7e be
       -0.21645206 -0.10786991 0.37386432 -0.2482566
000330 d8 f9 87 be 5b f3 19 be c7 69 5f be 8d 0a 1c 3c
       -0.26557803 -0.15034239 -0.21817695 0.009524
000340 56 fc ed bd 45 f0 6b be 95 7b 8a be 06 70 4f be
       -0.11620395 -0.23040874 -0.2704741 -0.20257577
000350 34 b1 fe be cd 4f 02 3e 50 be f3 3d 59 bb d6 bd
       -0.4974457 0.12725754 0.119015336 -0.104849525
000360 d7 dc 36 3e e9 7b cd be da bd 07 be 86 e6 c1 bd
       0.17857681 -0.40133598 -0.13256016 -0.09467797
000370 a1 7e 45 bd d4 2e 1e 3c 6c 06 c2 3e 9e 72 af 3e
       -0.048216466 0.009654719 0.37895525 0.34267133
000380 50 06 0e 3e db df e5 bd d6 c4 62 3e cc f9 38 3e
       0.13869596 -0.11224338 0.221454 0.1806404
000390 15 44 76 bd 89 4d 31 3e a3 67 01 3f aa a6 36 bb
       -0.06012352 0.17314734 0.5054876 -0.0027870336
0003a0 60 2e e8 3e a1 3f 0d 3f 61 0c ae 3d 3e d2 a6 3f
       0.4534788 0.55175215 0.08498455 1.3032911
0003b0 a5 3d e8 3d d6 f9 43 3e ff e1 e6 3d e1 28 d4 3e
       0.11339883 0.19138274 0.11273574 0.41437438
0003c0 ab 4e 76 3c 15 07 17 3f 71 e7 41 be 58 ed 2a 3f
       0.015033404 0.5899518 -0.18935944 0.6676841
0003d0 4f a5 9f 3e ea 62 22 3d bc ac 90 3c 79 27 8d 3e
       0.31180808 0.039645113 0.017660491 0.27569178
0003e0 71 7f 6c 3e 17 d7 43 bd f7 73 0e 3f a7 de 4b be
       0.2309549 -0.047812548 0.556457 -0.19909154
0003f0 a6 9d da 3d c5 b0 77 3e 9c 6f 58 3e d9 c4 25 3d
       0.106746 0.24188526 0.21136326 0.04047093

bilstm.weight_ih_l0_reverse f4 [64, 32]
000000 52 f6 00 be 5b dc b8 bd aa c2 92 bc 51 cb 52 bd
       -0.12593964 -0.090264045 -0.017915089 -0.05146343
000010 3a 39 0a be 12 4a c4 3e 52 78 34 3e 32 4a d1 3e
       -0.13498393 0.3833776 0.17624024 0.4087692
000020 35 05 96 3e 77 30 52 3d 5e ce 88 be 0d bd 0b 3e
       0.29300848 0.05131575 -0.26719946 0.13646336
000030 af 64 1f 3c 77 c9 ea bd 88 df c5 3e 3c 99 25 be
       0.009728595 -0.114642076 0.38647103 -0.16171736
000040 b9 66 df bc 8c a3 4f be 25 23 b5 3e 1e 2e f3 bc
       -0.027270662 -0.20277232 0.35378376 -0.029685076
000050 17 8a 65 3d 11 a9 8c 3e af 93 b8 3e e1 b8 0a 3e
       0.056039896 0.27472737 0.36050174 0.13547088
000060 e9 da 05 bf 11 ae ba 3b 65 39 0c 3e 2a e8 15 bf
       -0.52287155 0.00569702 0.1369377 -0.5855738
000070 52 b5 46 be a5 76 c6 3c 04 e5 a2 3e 53 79 0a bf
       -0.19405106 0.024226496 0.3181535 -0.54091376
000080 83 19 a1 3d 85 58 1b 3f 1d 3d e7 3e 9c 3d 84 3d
       0.07866194 0.60681945 0.45163813 0.064570636
000090 85 2f 0e 3f 56 c1 02 bf f7 8f c2 3d 82 49 56 bd
       0.5554126 -0.5107626 0.09500115 -0.052316196
0000a0 10 74 e5 3e 18 bd 10 3e b0 1e d4 3d 0d 1b 52 bf
       0.4481511 0.14134634 0.10357416 -0.82072526
0000b0 e7 53 3f 3e 9b e4 9e 3e c3 f6 82 3e 2d 56 17 3f
       0.1868435 0.31033787 0.2557889 0.5911587
0000c0 31 51 26 3e f1 9c 6a 3f 67 82 9a bc fc 34 53 3e
       0.1624191 0.91645724 -0.018861009 0.2062568
0000d0 3c 6f 9a be af 96 40 3f 3f ad f4 bd 5d 31 ce 3e
       -0.3016299 0.75229925 -0.119471066 0.40272036
0000e0 10 85 38 3f f8 c0 1c bf 81 f4 77 be 08 4d 6f bc
       0.7207804 -0.61231947 -0.24214365 -0.014605768
0000f0 6c d8 07 3e 17 50 3e bd 42 03 30 bd 06 9a ea bd
       0.13266152 -0.0464631 -0.042971857 -0.11455159
000100 63 be 2b be cf ae c9 be cb e0 34 bf 6c b4 7f bd
       -0.16771846 -0.3939118 -0.70655507 -0.062427923
000110 99 c4 f1 be d9 4e 5c 3e 0f a0 7c be d4 2d d3 be
       -0.47220305 0.21514453 -0.24670433 -0.41245902
000120 c0 f3 b1 be 0e 00 2f be b5 af ad be fc 43 67 3e
       -0.3475628 -0.17089865 -0.33923116 0.22584528
000130 8d f2 a3 3d e6 7f ed 3d fb 75 71 be a4 2b 55 bf
       0.08005247 0.1159666 -0.23580162 -0.83269715
000140 76 9e 1f be 4c 30 ec bc 18 8f 2e bd 0f 94 d3 3d
       -0.15587792 -0.028831623 -0.042616934 0.10330974
000150 3b e9 2c 3e 21 fc 03 be bc 6f 74 be 88 27 c0 be
       0.16885845 -0.12889148 -0.23870748 -0.3753016
000160 77 9f 0c bf dc 29 de 3e 5a a1 9b 3d 95 d2 d8 3d
       -0.54930824 0.4339131 0.07599135 0.1058704
000170 bb e9 ae bd 53 03 a8 be 10 3e b1 be 0a 9b 54 3d
       -0.08540674 -0.32815036 -0.34617662 0.05190567
000180 cd 67 87 be f6 1c 69 be 0c 4a a7 bd a4 f0 51 3e
       -0.2644638 -0.22764954 -0.0816842 0.20501953
000190 9c 68 5e 3e 50 37 81 3f 0f 93 06 be 46 ca 28 3e
       0.21719593 1.0095005 -0.13142036 0.16483411
0001a0 13 3c 6f 3e 2d f8 e5 bd 8c c4 ac be 23 9f 5d bf
       0.2336276 -0.112289764 -0.33743703 -0.8657095
0001b0 86 6f ae bd b7 f5 b0 3d d3 eb cb 3d cd 26 e3 bc
       -0.08517365 0.086406164 0.09957089 -0.027728463
0001c0 ad 91 dd 3d ca 33 fc 3d 71 96 47 3d b7 54 88 bc
       0.10818801 0.123145655 0.048727456 -0.016641958
0001d0 48 9b b2 3c c7 e8 ff bb ee 4b a9 3d 40 3a 32 be
       0.02180256 -0.0078097316 0.082664356 -0.17405033
0001e0 82 64 31 be 41 c8 a7 3e e7 6b 45 3e c1 c6 aa 3e
       -0.17323497 0.3276997 0.19279443 0.33354762
0001f0 2f 89 7f 3e 9e ca 53 3e 66 67 36 3f 41 52 75 be
       0.24954675 0.20682761 0.71251523 -0.23957159
000200 c2 fb 81 3e b7 82 bd be d2 f2 4f 3e 3c ce 92 3e
       0.25387388 -0.3701379 0.20307472 0.2867297
000210 54 d6 53 be 20 dc d6 be 02 57 85 bc fa c7 53 be
       -0.20687228 -0.41964817 -0.01627684 -0.20681754
000220 dc 14 30 bd 23 90 9d 3e 1a f8 b6 be 87 37 6b 3f
       -0.042988643 0.3077403 -0.3573616 0.91881603
000230 e7 2e 46 bd 78 5c d5 3e 9d 2b 02 bc b4 fc 13 3e
       -0.048384573 0.4167211 -0.0079449685 0.14451867
000240 0a 1e fc 3d 91 76 44 3c 60 28 84 3c 71 a2 5d be
       0.12310417 0.011991159 0.016132534 -0.21643998
000250 78 fb 31 3f 22 f2 e2 3e 89 f7 1f be 4b df fb 3d
       0.69524336 0.44325358 -0.15621771 0.12298449
000260 d8 9f bb 3e fd 25 8c be 46 40 4f 3e 55 f7 c5 3e
       0.3664539 -0.27372733 0.20239362 0.38665262
000270 61 1c 00 b9 29 4f f2 3d 05 11 27 be 2d 72 a8 3e
       -0.00012217603 0.11831505 -0.16315086 0.3289961
000280 8d 8e 77 3e 33 be aa bd 1d 15 a5 3e 5b a6 6e bd
       0.24175473 -0.08337059 0.3224267 -0.058264118
000290 9e 1e e1 3e d7 c4 a9 bd c1 d7 88 be 23 dd c8 3d
       0.43968672 -0.08289497 -0.26727107 0.098078035
0002a0 8a 99 25 3e 64 16 3b be 4f 4b 5e be 97 ee 8e 3e
       0.16171852 -0.1827026 -0.21708415 0.27916405
0002b0 f2 c0 3b be 7b 8e 1a be 2e da 66 3d a3 03 4c 3d
       -0.18335322 -0.15093414 0.056360416 0.049808156
0002c0 29 8a 21 be a4 08 a2 3d 73 9f 43 be 10 07 00 3a
       -0.1577536 0.07911804 -0.19103794 0.0004883865
0002d0 fb 4b 61 3e 83 cd 90 3f 0d ed d2 bd 41 b3 61 be
       0.2200164 1.1312717 -0.1029912 -0.22041036
0002e0 a3 b8 0f 3f a7 9d a0 3e aa 99 b8 3e d5 74 e9 be
       0.5614111 0.3137028 0.36054736 -0.45596948
0002f0 79 95 26 be 83 46 69 3e cf 1b 2b 3d 67 96 e9 be
       -0.16267957 0.22780804 0.041774567 -0.4562256
000300 7b 12 44 bd cf 0b 9a 3e ad 20 73 bd 0c 45 fb bd
       -0.047869187 0.30087134 -0.059357334 -0.12269029
000310 62 94 b0 3c 44 95 48 be 77 15 90 bd 7b 8e ba 3c
       0.02155513 -0.1958819 -0.07035344 0.022773018
000320 cd 1e 56 be 87 36 83 be 3b 88 78 3e 4c 60 17 bf
       -0.20910187 -0.2562754 0.24270718 -0.5913131
000330 c1 1d 62 be 2c 8a 4d be af f6 51 be d1 80 3c be
       -0.22081663 -0.2007224 -0.20504259 -0.18408515
000340 49 50 64 3e d4 1b 0a be 93 e5 5b 3e cf b8 01 bd
       0.22296251 -0.13487178 0.21474294 -0.031670388
000350 c2 6e a3 be b7 21 84 be 19 db 35 3c 14 74 5d be
       -0.3192044 -0.25806972 0.0110996 -0.21626312
000360 5c cc 9b 3d 46 a1 4d 3c 60 ed 3d be fc cb 85 3e
       0.07607338 0.012550658 -0.18547583 0.2613219
000370 a0 30 8d 3d 2f c2 e8 bd 63 64 0f 3e 47 ec 3f 3d
       0.0689404 -0.113651626 0.14003138 0.04685619
000380 ff 44 66 3d fd cc 54 bc 57 f9 ad bc bf 84 84 3e
       0.056218144 -0.012988326 -0.021237059 0.25882527
000390 78 2d d8 bb 51 35 68 bd 4d 43 f2 bd 40 81 8d 3d
       -0.006597217 -0.05669147 -0.11829243 0.06909418
0003a0 9f 0c 9e bd 49 28 64 bd 06 a6 00 3e 04 3f 8b be
       -0.07717251 -0.05570248 0.12563333 -0.27196515
0003b0 7a 22 b8 bd a7 56 c8 bd 73 aa d9 bd 73 c9 cf 3e
       -0.08990951 -0.097821526 -0.10628214 0.4058338
0003c0 8b 1f 2f be f8 3c 05 bd 9b 5b 35 3e 8f c4 65 3e
       -0.17101876 -0.032528847 0.17710726 0.22438262
0003d0 1b e2 89 3d 05 d1 09 bd 65 22 8c be aa 24 53 3d
       0.06732579 -0.033646602 -0.2736999 0.051548637
0003e0 b6 94 93 3e 19 03 08 be 8d 5b ac 3c 8d c4 85 3d
       0.28824395 -0.13282432 0.021039749 0.0653163
0003f0 8d e3 20 3e 7a 6a 1e bd 39 11 b2 be 5d b6 00 3e
       0.15711804 -0.038675763 -0.34778765 0.12569566

parallel_cnn_block.branches.0.0.weight f4 [1, 1, 2]
000000 28 0d ff 3e 92 51 1c 3f
       0.49814725 0.61061966

parallel_cnn_block.branches.0.2.bias f4 [16]
000000 e5 22 09 3c e2 a2 27 3f 42 fa 26 bf b6 25 13 3e
       0.008370136 0.65482914 -0.65225613 0.14369854
000010 6e 2c 01 3a d3 3d 1d be b9 09 b2 be e8 cf 0e 3e
       0.000492758 -0.15355615 -0.34773043 0.13946497
000020 00 90 b9 be fc 38 c1 3e 2f 01 dd 3e 3b fb 4a bf
       -0.36242676 0.37738788 0.43164966 -0.792896
000030 e8 af d3 3c 1e 4f c5 3d 55 c1 09 3e 9b 7b b7 3e
       0.025840715 0.09634231 0.13452657 0.3583649

parallel_cnn_block.branches.0.2.weight f4 [16, 1, 2]
000000 99 b1 ef 3e bf 2c 14 bf ab dd ef bd bf 29 fb 3e
       0.46815184 -0.5788078 -0.11712202 0.49055287
000010 dd 42 13 3f d3 d9 ac be 3b 19 6a 3e 1b 15 71 be
       0.575239 -0.33759937 0.22861187 -0.23543207
000020 02 2c 1c be 14 62 c5 3d 15 31 2d 3e 31 e8 ab bd
       -0.15251163 0.096378475 0.16913255 -0.08393896
000030 05 ed ba 3d b5 84 02 be db 82 fd 3e 81 e1 f1 be
       0.09127239 -0.12745936 0.49513897 -0.47242358
000040 e1 12 cc 3c 0b 2c 10 3e 86 7c ec 3c 29 90 f9 be
       0.024911346 0.14079301 0.028867971 -0.48742798
000050 4f f4 e6 3e c3 85 1d bf 03 7c 61 3d 2d d4 e3 3d
       0.45108268 -0.6153223 0.055049907 0.11124454
000060 4a c1 d9 3e 54 b3 1c bf 94 0c 0f 3f b4 16 0f bf
       0.4253028 -0.61211133 0.5587857 -0.5589402
000070 9a 39 2d be 99 5f 04 3e 41 1d b6 bf 3b f3 f3 3e
       -0.16916505 0.12927093 -1.4227678 0.47646508

parallel_cnn_block.branches.1.0.weight f4 [1, 1, 4]
000000 e7 0f af bc ea 9d 17 3f a5 fc 85 be 43 e6 9a 3c
       -0.021369888 0.5922533 -0.26169315 0.018908625

parallel_cnn_block.branches.1.2.bias f4 [32]
000000 52 93 55 3d cc 22 d9 3d b4 f6 f4 3e d3 e2 a8 3c
       0.05214245 0.1060234 0.4784447 0.02061597
000010 0a 42 e6 bb 5c 5d 1f bf 0d 2f 39 3e 9f f8 ab bd
       -0.0070269154 -0.6225183 0.18084355 -0.0839703
000020 1d 7f 4c be 76 4e d2 be 09 a3 09 3e ef 14 f5 3e
       -0.19970365 -0.41075486 0.13441099 0.47867534
000030 c1 95 f9 3e 8a 3b fd bd af 3c f4 be 85 ef cb be
       0.48747066 -0.12364872 -0.47702548 -0.39831176
000040 f5 f3 99 3e 85 4c d4 bb 5a 21 63 3e e5 2f a9 3d
       0.30068937 -0.0064788484 0.22180691 0.08261088
000050 b7 73 18 be c8 16 ef bb 62 bc d0 be b3 bf b7 3b
       -0.14887892 -0.007296417 -0.40768725 0.005607569
000060 a4 ae 50 3e a2 53 09 3f 1f 59 4f be e9 88 c9 3e
       0.2037912 0.5364324 -0.20248841 0.39362267
000070 37 5a 05 bf 8b 4a fa bd be f0 3e 3d 77 bb 83 3c
       -0.5209078 -0.12221249 0.04661631 0.016080601

parallel_cnn_block.branches.1.2.weight f4 [32, 1, 4]
000000 48 8f 0e bf 6b 36 a9 3e a6 06 78 3e d4 4a 5f 3e
       -0.5568738 0.3304933 0.24221286 0.21805888
000010 7a 51 3a bf 5f e0 de be f0 75 ca 3e c3 b8 2f 3c
       -0.72780573 -0.43530557 0.39543104 0.010725203
000020 2c c8 90 bb 82 f8 f1 be df be 7c 3e 36 40 da 3e
       -0.0044183936 -0.4725991 0.24682187 0.42627114
000030 bd 94 e6 be 3e ad ac 3d 32 6b 87 3e cf f6 94 bf
       -0.45035353 0.08431481 0.2644897 -1.163782
000040 37 90 02 3a 36 35 5e bc 71 b4 19 3f 8f a8 e1 be
       0.0004980596 -0.013562491 0.60040957 -0.44073913
000050 9a 04 67 be 42 e5 f7 3e 6e 84 e0 bd dc 0d 1e be
       -0.22560349 0.48417097 -0.10962759 -0.15434974
000060 39 01 c9 be 84 98 02 3f ac 38 8c bd ab 3a 08 3e
       -0.39258745 0.5101397 -0.06846747 0.1330363
000070 ab 48 51 3e dd ea 42 3e ac 36 ce 3e 14 ce 48 bf
       0.20437877 0.19034906 0.40276086 -0.7843945
000080 55 ee f4 ba d9 cd 1c 3a 8f 10 3b 3f 1f b5 24 bf
       -0.0018686751 0.00059816014 0.7307214 -0.6433887
000090 9b f1 95 3e 8a 36 ab be 5d df 90 3e d2 59 2d bc
       0.29285893 -0.33440048 0.28295413 -0.010580497
0000a0 3b b7 3b 3e 06 9b 27 3f 52 53 0f bf 5c 77 06 be
       0.18331616 0.6547092 -0.5598651 -0.1313147
0000b0 36 6f 1e bd 62 23 c1 3e fa 44 d3 be b4 8e 41 3e
       -0.038680278 0.37722307 -0.41263562 0.18902093
0000c0 d7 94 29 3e 50 14 c0 be 70 bf 8b 3d 95 55 77 3e
       0.16560684 -0.37515497 0.06823623 0.2415374
0000d0 2d bb 0b bf fb 96 f7 3d 41 62 3c 3f e8 c4 09 be
       -0.5458248 0.12089344 0.73587424 -0.1345402
0000e0 5a ca 05 3e 42 f0 09 3e 36 e2 58 be 74 a1 0d 3f
       0.13065472 0.13470557 -0.21180043 0.5532448
0000f0 32 44 15 be 2e e3 9d bc c2 07 23 be 23 66 ff bd
       -0.14576796 -0.019273367 -0.15920928 -0.12470653
000100 a3 e4 1d be 2f 23 04 3f 8b 2d 6f bf cd 49 09 3f
       -0.15419249 0.51616186 -0.9342887 0.53628236
000110 2b dc 8f be 36 f4 3f 3e 06 78 9f 3e ba b6 f8 3d
       -0.28097662 0.18745503 0.31146258 0.12144227
000120 49 06 87 3e f3 2d 83 bf 0e 2f f5 bc bf b6 04 bf
       0.26371983 -1.0248398 -0.029929664 -0.5184135
000130 dc 19 02 bd ad 0c f6 3e d6 ec c7 be 00 b1 21 bd
       -0.031762943 0.48056546 -0.3904788 -0.03947544
000140 94 55 67 3c 46 07 06 bf 3b a3 74 3e e0 2f ac 3e
       0.0141195245 -0.5235485 0.23890392 0.33630276
000150 ec df 99 be b4 1d 46 3e df 41 0d 3f 44 6d d2 be
       -0.3005365 0.19347268 0.55178636 -0.41098988
000160 ec 51 b4 3e 32 b7 f3 3e a3 69 66 bf 10 c0 bc bc
       0.3521875 0.47600704 -0.9000494 -0.023040801
000170 3f e4 2e bf 7b 37 5a 3f 30 a3 6e be 3b ad 3b 3d
       -0.68317026 0.85240906 -0.23304439 0.045819502
000180 50 d0 27 3e 57 e4 a7 3d 4c 89 04 be 55 6b 45 be
       0.16388059 0.08197849 -0.12943 -0.19279225
000190 50 ea 12 3c 8e 8c c6 be d4 1c 7c 3e 72 eb 58 3d
       0.008966997 -0.3877911 0.24620372 0.052958913
0001a0 36 5d 1f 3c f1 4f 74 3e c5 b1 23 bf 07 f3 21 3f
       0.009726813 0.2385862 -0.6394313 0.63261455
0001b0 4e f5 a5 be e5 1c f6 be ac b9 52 3e fb c6 ed bd
       -0.32413715 -0.4806892 0.2057864 -0.11610218
0001c0 63 8e bf be 2a bc 63 3f 5d 22 ba be fe a7 01 3e
       -0.3741332 0.8895899 -0.36354342 0.1266174
0001d0 07 b7 0a bf 88 0c 64 3c ac fb 00 3f 93 5b 90 3d
       -0.5418553 0.013919003 0.5038402 0.070487164
0001e0 8e b1 0a bf cd 81 33 bd b4 49 b0 3e 91 28 25 3e
       -0.54177177 -0.04382496 0.3443123 0.16128756
0001f0 34 41 c2 3e c6 80 a0 bb e2 61 16 bc 6f d2 9b 3e
       0.3794037 -0.0048981635 -0.0091786105 0.30433986

parallel_cnn_block.branches.2.0.weight f4 [1, 1, 8]
000000 6a 7e 90 bc 33 c2 7e 3c 6f 6b 55 be bb cf 05 3f
       -0.017638404 0.01554923 -0.20841764 0.52270097
000010 41 29 73 3e e4 1b 30 be 24 32 21 3d 4a 26 bd bc
       0.23746206 -0.1719814 0.03935446 -0.023089547

parallel_cnn_block.branches.2.2.bias f4 [64]
000000 45 51 b7 3d 8b 62 e9 be d6 e5 b8 bd 74 8d 60 bf
       0.08951048 -0.45582995 -0.09028213 -0.8771584
000010 03 b3 03 3e 6c 51 20 be 68 c0 d2 bd 97 32 22 bf
       0.12861256 -0.1565606 -0.10290605 -0.63358444
000020 b4 c2 f1 3e 2a df 9c 3e 0b 01 14 3e 38 9a 3c bc
       0.4721886 0.3063901 0.14453523 -0.011511378
000030 fa 63 da bb 16 8a 00 bd b4 4f 89 3e 40 38 7d 3c
       -0.00666475 -0.03138169 0.2681862 0.015455306
000040 79 06 16 bf ca ed 86 3d a7 db 80 3e 3c 59 4b 3d
       -0.58603626 0.065883234 0.2516758 0.049645647
000050 b5 37 80 3d 20 24 5c 3d 37 b4 a3 3e 35 8f 81 be
       0.06260625 0.05374539 0.3197343 -0.2530457
000060 09 ff bb bd 78 32 be 3d cb 61 0d 3d 31 f9 39 3e
       -0.091795035 0.0928697 0.03451709 0.18161465
000070 9e 73 8f 3e be 55 74 bb 83 43 1a bf 28 2b e6 be
       0.28017896 -0.0037282552 -0.60259265 -0.449548
000080 8d ec 6d 3e fd 3e 1f be e0 09 0a 3d 58 2b d4 3e
       0.23234768 -0.15551372 0.033700824 0.4143932
000090 52 78 3c 3e 57 34 c1 3e 31 d0 82 bf 7a ec 8b 3e
       0.18405274 0.37735245 -1.0219785 0.27328855
0000a0 73 66 b9 bd 90 98 53 3e 92 7c 9e 3e 22 25 4c 3d
       -0.09052744 0.20663667 0.30954415 0.0498401
0000b0 f2 4f b0 be 5c 59 de 3d 86 8c b4 3e 0d 8f 17 be
       -0.34435993 0.10856888 0.3526346 -0.14800663
0000c0 3a 5d d8 bf 5c a7 3e be 3e 7d 58 bf a3 49 86 3e
       -1.690345 -0.1861853 -0.84566104 0.26228055
0000d0 29 f0 0e 3e 68 6a 06 be 62 e1 80 be 55 05 99 bd
       0.13958801 -0.13126528 -0.25171953 -0.0747172
0000e0 a5 5d 4a be a3 4d 8f be 4f bf 42 3c af 5f ec 3b
       -0.19762285 -0.2798892 0.011886432 0.007213555
0000f0 88 ef b6 3d b7 7d c0 3e eb 03 04 be 58 93 f3 3c
       0.08932406 0.37595913 -0.1289212 0.029733345

parallel_cnn_block.branches.2.2.weight f4 [64, 1, 8]
000000 b2 91 b8 be c6 ea f0 bd 0a 76 8c 3e 89 ef 92 be
       -0.36048657 -0.117635295 0.27433807 -0.28698376
000010 57 e1 91 3e 87 5a 3b be 12 e6 81 3e 52 10 04 3e
       0.28492233 -0.18296252 0.25370842 0.1289685
000020 da e1 24 3d 66 db ea bc 6e 2b aa 3e d6 85 cf be
       0.04025445 -0.02866907 0.3323626 -0.40531796
000030 7f 51 8a 3e c4 61 ee bd 0a 35 8f 3e df 4a 72 be
       0.27015302 -0.11639741 0.27970153 -0.23661374
000040 6f c7 e3 be cf 97 21 bf 3f b4 b0 3e ef cf bd 3c
       -0.44488093 -0.63122267 0.34512517 0.02317044
000050 35 8e d8 3c e0 81 37 3e ed e4 80 3e 7c 64 ff bd
       0.026434997 0.17920637 0.25174657 -0.12470338
000060 c2 3d 92 3e 87 c0 8c 3d c5 b2 6f be 7c ef 2a 3e
       0.28562742 0.06872659 -0.23408039 0.16692919
000070 61 33 97 3b fc 9b 1f 3e 49 d6 85 bd ea a5 b6 be
       0.004614279 0.15586847 -0.06535012 -0.35673457
000080 54 39 15 bf fd ea b0 be c7 90 8e bd a8 43 ae 3e
       -0.582906 -0.34554282 -0.06961208 0.34035993
000090 13 d1 da 3e 0d ca c4 3e 8d 2f 05 be 58 89 c1 3c
       0.42737636 0.38435403 -0.1300642 0.02362506
0000a0 87 71 2b 3e b3 ee dd 3d 32 f4 87 be 55 6c 10 bf
       0.16742526 0.10836544 -0.26553494 -0.564153
0000b0 52 99 e0 bd 61 41 ed 3d f3 1a 39 bd a1 44 a8 bc
       -0.109667435 0.11584736 -0.045191716 -0.020540537
0000c0 1f 92 db bc 92 63 52 3e cf 4f 69 bd a0 27 ad be
       -0.026803074 0.20545796 -0.056960877 -0.33819294
0000d0 6b d9 37 3e fc a6 92 3d a1 14 59 3d b4 ae 3c 3d
       0.17954032 0.07160756 0.05299819 0.046065047
0000e0 c5 11 a2 3e fc a7 d6 bc 56 43 01 bf 78 43 a7 be
       0.31654182 -0.026203148 -0.5049337 -0.32668662
0000f0 55 42 6d 3e f9 4d 81 3e 12 b3 5f 3d 14 c7 c6 3d
       0.23169835 0.252548 0.054614134 0.0970594
000100 aa 2b 19 3e c5 f2 a3 be 77 64 cd 3e d3 38 5f be
       0.14958063 -0.32021156 0.4011571 -0.2179902
000110 b7 d6 c8 bd 98 6a 5c 3e 7b b4 94 bc b1 90 05 be
       -0.098065786 0.21525037 -0.018152466 -0.13043477
000120 70 30 fe 3b 8c 75 1f 3e f9 72 a3 be be 7e 85 be
       0.007757239 0.15572184 -0.31923655 -0.2607326
000130 ff eb 9e be 29 72 49 3e 9f 66 ac 3d df 9a 88 3e
       -0.31039426 0.19672455 0.08418011 0.26680657
000140 9d 04 fa be 83 af 6e be af 7a d2 3b 35 0a b5 3e
       -0.48831645 -0.2330914 0.0064233164 0.3535935
000150 e4 44 70 bd 07 51 9b be 58 13 70 3e 43 ff 23 3e
       -0.05865945 -0.30335256 0.23444879 0.16015343
000160 fb 93 37 3e 55 06 68 be cf 25 47 3e c5 42 d0 bd
       0.17927544 -0.22658665 0.19448017 -0.10168985
000170 9a 30 b0 bb 5b ba ce bd fc 94 db 3c 0e ea 52 3d
       -0.0053768875 -0.10094138 0.02680444 0.051492743
000180 32 36 8c 3d c9 bf 24 bf b7 e9 b0 be ec 2d 04 3f
       0.068462744 -0.6435514 -0.3455331 0.5163257
000190 ec 0d 88 be a2 39 96 3e 01 13 47 3e 24 dc 0d 3e
       -0.26573122 0.29340845 0.19440843 0.13853508
0001a0 b2 a8 ce 3c 37 5d 96 3e 45 b3 19 3e 9d 51 8a be
       0.025226925 0.29367992 0.15009792 -0.2701539
0001b0 10 49 ca 3e 6f c3 01 bf 0b 84 d7 be e7 fa 5d 3d
       0.39508867 -0.50688833 -0.42092928 0.054194357
0001c0 ce 0e 50 bb e7 f8 80 3e a8 d6 00 3e 21 d4 83 be
       -0.0031747106 0.25189897 0.12581885 -0.2574778
0001d0 d9 93 b9 be d5 19 14 be 78 cd 68 bd c0 b7 a6 3e
       -0.3624561 -0.14462979 -0.056836575 0.32562065
0001e0 9c bf b6 3e 27 e9 17 3d cb 97 30 3e 26 68 21 3e
       0.3569306 0.037087586 0.17245404 0.15762386
0001f0 fc 6c 44 3e b2 68 1b be 75 ea dc be 34 a3 aa be
       0.19182199 -0.15176657 -0.43147627 -0.3332764
000200 52 6c a2 bc 4c 17 62 3e 59 d9 b6 3e b3 92 04 3e
       -0.019827042 0.220792 0.35712698 0.12946586
000210 09 da 51 be 87 3e ed be 43 3f 04 bd 13 5a 2c 3d
       -0.2049333 -0.46336767 -0.032286894 0.04207809
000220 3d ee ae 3d 60 b0 fb bc 0e b9 c8 3d 4d e3 d9 bd
       0.08541534 -0.03072375 0.098009214 -0.10639057
000230 8d a3 e7 bc 5b 86 e6 3e bf 83 a0 bf f9 58 3c bf
       -0.02827623 0.4502438 -1.2540206 -0.7357326
000240 34 a1 d1 be a3 76 aa be 70 dd 06 bf b9 83 4c be
       -0.409433 -0.33293638 -0.52681637 -0.19972123
000250 95 0f 99 3e 6c 8b 8a 3e 9f b8 ac 3d f6 a0 b8 be
       0.298947 0.27059495 0.08433651 -0.36060303
000260 ed d5 f4 bd 0f 1d 14 bd 0d e9 e9 3e df bc 7e 3d
       -0.119548656 -0.036160525 0.45685616 0.06219184
000270 90 f7 bd 3e b6 87 53 be 73 83 2d bd e9 80 c3 be
       0.37102938 -0.20657238 -0.042361688 -0.38184288
000280 82 75 de be 19 e3 ea 3c cf 05 9c 3e fd 5c ff bd
       -0.43449026 0.028672742 0.30473182 -0.12468908
000290 71 af 26 be ff 90 a8 3e 5e 67 0d 3e fc 75 c8 3c
       -0.16277863 0.32923123 0.13808963 0.024470322
0002a0 b8 2c ae 3d be 02 4a 3d 99 49 aa be 82 e2 97 be
       0.08504623 0.04931902 -0.33259276 -0.29665
0002b0 60 f9 b6 3e 98 31 c1 3e 5a 7f 49 be 90 2f fd b7
       0.35737133 0.3773315 -0.19677487 -3.0182098e-05
0002c0 96 91 ef be 87 5b 37 be 60 96 a7 be eb 7b db 3e
       -0.4679076 -0.17906009 -0.32731915 0.4286798
0002d0 ef e0 1b be 86 d1 23 3e 1a 84 b0 bd e4 bb 44 3d
       -0.15222524 0.15997896 -0.086189464 0.04803075
0002e0 4a ec 5b bd 98 a4 3e 3e 0b af 0b be 26 d0 39 bd
       -0.05369214 0.18617475 -0.13640992 -0.04536452
0002f0 58 2d 1b bd 97 0a e6 3e 3c 08 83 3e 27 f2 44 bd
       -0.03788504 0.44929954 0.2559222 -0.048082497
000300 b4 91 25 be f2 b4 41 be f1 57 5c be 40 e8 c8 bd
       -0.16168863 -0.18916681 -0.21517922 -0.09809923
000310 57 1f 4d be 9c 4d 75 be e0 a9 b0 be 79 a5 20 be
       -0.20031486 -0.23955387 -0.34504604 -0.15688123
000320 a3 7a e4 3d c2 07 e6 bd c2 22 86 be 9b 6c 47 bf
       0.111562036 -0.112319484 -0.26198393 -0.77900094
000330 56 88 b7 3b e5 e2 de 3e 93 30 57 3e e1 73 26 be
       0.0056009693 0.43532482 0.21014623 -0.16255142
000340 b4 d5 53 3e ed 8f 5b be 2c e4 49 bf 03 54 e5 3e
       0.2068699 -0.21441622 -0.7886379 0.44790658
000350 7a f0 2a 3d 8d 58 19 3e 32 b4 66 3d c9 f6 45 3d
       0.041733243 0.14975186 0.05632419 0.048331056
000360 31 e6 2a be e7 ba 2e bf 3f df 31 bf 39 0a 14 3d
       -0.16689374 -0.6825394 -0.6948127 0.03614256
000370 96 34 18 3e b7 cc 9e 3d 78 71 16 bd a2 60 0a 3e
       0.1486381 0.0775389 -0.036729306 0.13513425
000380 fb f4 5e 3a 87 fe 68 3e 03 11 b7 be fd db 1a bf
       0.0008505133 0.22753344 -0.35755166 -0.60491925
000390 5b 70 9e 3e 00 8c 6d be c9 42 75 3e d9 d6 b9 3e
       0.30945095 -0.23197937 0.23951258 0.36296728
0003a0 af 3b 2a be 66 03 64 3e 30 43 a7 bb ae 09 a1 3d
       -0.1662433 0.22266921 -0.005104445 0.078631744
0003b0 06 25 9b bd d3 38 5b 3e b1 37 5e 3d 90 aa d8 be
       -0.07575421 0.21408395 0.05425233 -0.4231763
0003c0 16 d9 13 3e 0d 5e b3 be 67 ca bf 3e d4 48 4e bd
       0.1443828 -0.35032693 0.37459108 -0.050362423
0003d0 30 a5 50 be 2a e9 b4 3e 48 0f 1c bd 7d ea 03 be
       -0.20375514 0.3533414 -0.03810051 -0.12882419
0003e0 9d 25 a3 3d 1c 5c aa 3e 77 f0 09 bf 0b df fb 3e
       0.079661585 0.332734 -0.53882545 0.49193606
0003f0 f8 5d 58 be 42 7e ab bd c7 81 a2 3e 27 7c 90 bd
       -0.21129596 -0.08373691 0.31739637 -0.0705493
