narrow/modelpars_narrow_i_93.safetensors (safetensors, 86584 bytes, 32 tensors)

bilstm.bias_hh_l0 f4 [64]
0	0xbf095c2b	-0.5365626
1	0xbe643342	-0.22285178
2	0x3e8b7b8d	0.272427
3	0xbdd674c6	-0.104714915
4	0x3e335b66	0.17515334
5	0xbf148013	-0.58007926
6	0xbd0a5e7d	-0.033781517
7	0x3e629b7a	0.22129622
8	0x3d0677bc	0.03282903
9	0xbdfd1a72	-0.1235856
10	0xbe0e1233	-0.1387413
11	0xbf04d858	-0.51892614
12	0xbea41add	-0.32051745
13	0xbe54779f	-0.20748757
14	0x3eeba193	0.4602171
15	0xbe504fb7	-0.20342909
16	0x3ef9984d	0.4874901
17	0x3d371429	0.04469696
18	0x3e915d57	0.28391525
19	0xbdfc055e	-0.12305711
20	0xbbf709c9	-0.0075390083
21	0x3e50271e	0.20327422
22	0x3e820d74	0.2540089
23	0x3e251e6e	0.16124889
24	0x3e03a973	0.12857608
25	0x3d53a91a	0.05167494
26	0x3eb9be44	0.36277974
27	0xbd09d68d	-0.033651877
28	0xbe41551c	-0.18880123
29	0x3e2572e9	0.16157116
30	0x3eace562	0.33768755
31	0xbe47efc4	-0.19525057
32	0x3c4d70e6	0.012539124
33	0xbe4410da	-0.19147053
34	0xbcfdc910	-0.030979663
35	0xbe9f1fcf	-0.31078956
36	0x3cc12f0e	0.023582008
37	0xbde02ca9	-0.10946018
38	0xbe660c9c	-0.22465748
39	0x3d904ca0	0.07045865
40	0x3e299391	0.16560198
41	0x3dc9a2d9	0.09845514
42	0xbdc686c5	-0.09693674
43	0xbdd71568	-0.1050213
44	0x3de0172e	0.10941921
45	0x3e35fe91	0.1777289
46	0xbe0ffd7c	-0.1406154
47	0x3da1e604	0.079052
48	0xbe4f0278	-0.20215786
49	0x3d08e322	0.033419736
50	0x3e7ad067	0.24493562
51	0x3c76abc0	0.015055597
52	0xbe118830	-0.14212108
53	0x3e40ec95	0.18840249
54	0x3e3ff773	0.18746738
55	0x3e3cdb50	0.18443036
56	0xbbfec38f	-0.0077747772
57	0xbecdbd78	-0.40183616
58	0xbde20f3c	-0.11038062
59	0x3e24046c	0.16017312
60	0x3ea87c5b	0.32907376
61	0x3dc9a816	0.09846513
62	0x3e8ed084	0.2789346
63	0x3e8d6c81	0.27621844

bilstm.bias_hh_l0_reverse f4 [64]
0	0xbd943d54	-0.0723826
1	0xbdd8c084	-0.105835944
2	0xbeb436b1	-0.35197976
3	0x3e9ef7e4	0.310485
4	0x3ed96b3f	0.42464635
5	0x3f2e22bb	0.68021744
6	0xbeb4afd6	-0.35290402
7	0x3e934ec1	0.28771022
8	0xbd3ad425	-0.045612473
9	0xbd1a0c0e	-0.037609152
10	0x3d2b0ec1	0.041762117
11	0x3ce5788d	0.028011585
12	0x3dc1233d	0.09430549
13	0x3e876405	0.26443496
14	0xbdcec6fa	-0.100965455
15	0xbec51819	-0.38494948
16	0xbe101d35	-0.14073642
17	0x3dda06b1	0.106458075
18	0xbe4ac08b	-0.19800012
19	0x3e25c186	0.16187105
20	0xbb283898	-0.0025668498
21	0x3e0db278	0.13837612
22	0x3eb33ca2	0.35007197
23	0xbce544e6	-0.027986955
24	0x3e007258	0.12543619
25	0x3e908d9e	0.28233045
26	0x3e0f26ae	0.13979599
27	0x3e8d01c4	0.2754041
28	0x3e237192	0.15961292
29	0xbcccbb84	-0.024991758
30	0xbe5a9638	-0.21346366
31	0x3e6d1b3b	0.23154919
32	0xbe5e1a94	-0.21689826
33	0x3e93bc7a	0.28854734
34	0xbe0de0fb	-0.13855354
35	0x3e48fd6d	0.19627924
36	0xbdcb874e	-0.09937917
37	0x3dbd4ff9	0.09243769
38	0xbdda1466	-0.10648422
39	0x3e0472b2	0.12934378
40	0xbdd38494	-0.10328022
41	0xbeabbbd4	-0.3354174
42	0xbe36bc9e	-0.17845389
43	0xbe9301b1	-0.28712228
44	0xbe1dbc94	-0.15403968
45	0xbe2204d5	-0.15822156
46	0x3d72a440	0.059238672
47	0x3d03d88a	0.03218893
48	0xbd9d8aaa	-0.07692464
49	0x3e8d40dd	0.2758855
50	0x3cadbf1e	0.021209296
51	0x3ed8247f	0.42215344
52	0x3eaae18b	0.333752
53	0x3e2993cf	0.16560291
54	0x3dc6404c	0.096802324
55	0xbeaec435	-0.3413407
56	0xbe783f85	-0.24242981
57	0x3db81904	0.08989146
58	0x3ec0ebcf	0.37679908
59	0x3e840cc0	0.25790977
60	0x3e3ad572	0.18245485
61	0x3e1372bc	0.14399236
62	0xbea919d8	-0.3302753
63	0xbdf9b8d5	-0.12193457

bilstm.bias_ih_l0 f4 [64]
0	0xbe245b6e	-0.16050503
1	0xbe36ccac	-0.17851514
2	0x3f076cae	0.5290021
3	0x3ced5c97	0.028974814
4	0x3eb2ca4e	0.3491997
5	0xbedffcc9	-0.43747547
6	0x3eb3abbe	0.35091966
7	0x3e5be9ac	0.21475857
8	0x3eabb3e1	0.33535674
9	0xbec09c35	-0.37619177
10	0xbeb62276	-0.35573167
11	0xbf68453c	-0.90730643
12	0xbd9d9266	-0.07693939
13	0xbe67844f	-0.22609065
14	0x3f23c0cf	0.6396608
15	0xbdc387b1	-0.095473655
16	0x3e9e1028	0.308717
17	0x3ecf0917	0.40436623
18	0xbce8bf2d	-0.028411472
19	0x3e89fbbd	0.26949874
20	0xbe2c128e	-0.16803953
21	0x3e0ca1f2	0.13733652
22	0x3e3b0596	0.1826385
23	0x3c371043	0.011173311
24	0x3eb82a08	0.35969567
25	0x3c4f5a64	0.012655828
26	0x3dd7acc3	0.105309986
27	0xbda49d59	-0.08037824
28	0x3e6eaad4	0.23307353
29	0xbe56936b	-0.20954673
30	0x3e87c31f	0.26516053
31	0xbe2acad0	-0.1667893
32	0xbdaaa9ca	-0.08333166
33	0xbe2530b4	-0.1613186
34	0xbd4c098c	-0.049813792
35	0xbe5e6730	-0.2171905
36	0x3da2977e	0.07939051
37	0x3dd60c1c	0.104515284
38	0x3dd237db	0.1026456
39	0xbe0c48c1	-0.13699628
40	0x3baa1199	0.005190086
41	0x3e02812f	0.12744592
42	0x3e9730af	0.2952933
43	0x3dd488cf	0.10377657
44	0xbe23c1cf	-0.15991901
45	0x3cebc741	0.028781535
46	0x3d4017e5	0.046897788
47	0x3dd9fe52	0.10644211
48	0xbe7c52de	-0.24640986
49	0xbe838f2b	-0.25695166
50	0x3e35e789	0.17764105
51	0xbe3cf0ca	-0.18451229
52	0xbe517f28	-0.20458663
53	0xbe066da3	-0.1312776
54	0xbe0fd01f	-0.14044236
55	0x3ddc68f9	0.107622094
56	0x3db2b7f4	0.087264925
57	0xbe31830d	-0.17335148
58	0xbe11b6f6	-0.1422995
59	0x3e71b25e	0.23603198
60	0x3eaca26d	0.3371767
61	0xbd441391	-0.047870222
62	0x3e880a28	0.2657025
63	0x3ea4ec91	0.32211736

bilstm.bias_ih_l0_reverse f4 [64]
0	0x3dff7503	0.1247349
1	0x3de7b401	0.1131363
2	0xbdecf299	-0.11569709
3	0x3d504574	0.050847486
4	0x3ed430d1	0.41443494
5	0x3ef60192	0.48048073
6	0xbe8aaf18	-0.2708671
7	0x3d6b2703	0.05741025
8	0xbe213a80	-0.15744972
9	0xbe38a302	-0.18030933
10	0xbd7a6cb4	-0.061138824
11	0xbd999d6b	-0.07500728
12	0x3ca11f64	0.019668289
13	0x3e050ab3	0.12992363
14	0xbdc87d42	-0.09789516
15	0xbe1bdcb3	-0.15220909
16	0xbd3269d7	-0.043557968
17	0x3daa1277	0.08304303
18	0xbe12d23b	-0.14338009
19	0x3d5ad60a	0.05342678
20	0xbc43f921	-0.011961252
21	0xbe0bb45e	-0.13643023
22	0xbd394aef	-0.045237478
23	0x3dd8c82d	0.105850555
24	0x3da844fb	0.08216282
25	0x3e859aa2	0.26094538
26	0x3e0e6e14	0.13909179
27	0x3e89b10a	0.26892883
28	0x3e463f08	0.19359982
29	0x3c7ca486	0.015420085
30	0x3d364a0d	0.044504214
31	0x3e7ebfd4	0.24877864
32	0xbe5780e6	-0.21045265
33	0x3ec3d443	0.3824788
34	0xbd832910	-0.064043164
35	0x3dae11f5	0.08499519
36	0x3e934635	0.287645
37	0xbb7ef06f	-0.0038900634
38	0x3cd09531	0.025461765
39	0xbe8e51f6	-0.27796906
40	0x3d825e5a	0.063656524
41	0xbe56c9b2	-0.20975378
42	0x3e11ceb2	0.14239004
43	0xbe8ea3cb	-0.2785934
44	0xbdf18b57	-0.11794155
45	0xbdc3e107	-0.09564405
46	0x3ebd7c55	0.3700892
47	0x3dc7bcdc	0.09752819
48	0xbe78299f	-0.24234627
49	0x3e6f3ea1	0.23363735
50	0x3d715020	0.058914304
51	0x3f13fe9e	0.5781039
52	0x3eb34933	0.35016784
53	0xbe052383	-0.13001828
54	0xbe85c4e6	-0.26126784
55	0xbeb6612f	-0.3562102
56	0x3e27db90	0.1639235
57	0x3de6ae2e	0.11263691
58	0x3d478ee5	0.04872026
59	0x3f09ae7e	0.5378188
60	0x3b473a3b	0.0030399698
61	0xbdd0b320	-0.101904154
62	0xbe512093	-0.20422582
63	0xbe850a15	-0.25984254

bilstm.weight_hh_l0 f4 [64, 16]
0	0xbea9aae4	-0.33138192
1	0xbe4ff3e2	-0.20307878
2	0x3eb83c63	0.3598357
3	0x3db52d9b	0.08846589
4	0xbe9ca7d1	-0.30596784
5	0x3ea61c64	0.32443535
6	0xbef3ef07	-0.476433
7	0x3ee27ab5	0.44234243
8	0x3ea6ecb2	0.3260246
9	0x3ec97f88	0.3935511
10	0x3d1f3401	0.038867954
11	0xbcd0ea3e	-0.02550232
12	0xbe2c61b0	-0.1683414
13	0xbe914149	-0.2837012
14	0x3d86e43c	0.06586501
15	0x3ea6a8a4	0.32550538
16	0x3dc2cc1f	0.09511589
17	0xbf009927	-0.5023369
18	0xbec20810	-0.37896776
19	0xbe490fba	-0.19634905
20	0xbcd8d777	-0.02646993
21	0xbe142d46	-0.14470395
22	0x3f15d250	0.58524036
23	0xbcdc2c9f	-0.026876746
24	0x3ee57991	0.4481931
25	0x3ef83edc	0.48485458
26	0xbf5792ad	-0.84208184
27	0x3e32393b	0.17404644
28	0x3f1bcb8c	0.6085746
29	0x3eb84836	0.35992593
30	0xbb1d62e3	-0.002401524
31	0xbeb05b6f	-0.34444758
32	0xbe85df42	-0.26146895
33	0xbd97e111	-0.07415975
34	0x3d8ef759	0.069807716
35	0xbd1ea0e4	-0.038727656
36	0xbd9607b9	-0.07325692
37	0x3e86852e	0.26273483
38	0x3d5385b7	0.051641192
39	0x3d2d41e9	0.042299185
40	0xbd38f784	-0.045157924
41	0xbcf2fc0c	-0.029661201
42	0x3e33ea89	0.17569937
43	0x3c3ba8d6	0.011453828
44	0x3e4b9504	0.19881064
45	0x3d0cad87	0.034345176
46	0xbdda8e09	-0.10671622
47	0x3e01161d	0.12606092
48	0x3e821a45	0.25410667
49	0xbeb99db3	-0.36253127
50	0xbc0afecc	-0.0084836
51	0x3d51b0e0	0.05119407
52	0xbce66ead	-0.028128946
53	0xbdede004	-0.11614993
54	0x3e477d1f	0.19481324
55	0xbe634339	-0.22193612
56	0xbf8c6b65	-1.0970274
57	0x3dab85ac	0.08375105
58	0x3ead327a	0.33827573
59	0xbd4587ac	-0.04822509
60	0xbd58abd7	-0.052898254
61	0xbf1d0916	-0.6134199
62	0xbe084712	-0.13308361
63	0x3d067e01	0.03283501
64	0x3c2f2e45	0.010692184
65	0x3f4fbfbe	0.8115195
66	0xbe815854	-0.25262702
67	0xbe44e46c	-0.19227761
68	0x3e36893c	0.17825788
69	0xbe8f7c08	-0.28024316
70	0xbf02e084	-0.51123834
71	0x3f3f9ecb	0.74851674
72	0x3d161b6d	0.03664725
73	0x3f37a86d	0.7174137
74	0xbd399aaf	-0.045313533
75	0xbe9dc1f4	-0.30812037
76	0xbf04d860	-0.5189266
77	0x3e42c33d	0.1901979
78	0x3ed63686	0.41838473
79	0x3f301118	0.68776083
80	0xbe2fce40	-0.17168522
81	0xbf055f7c	-0.5209882
82	0x3d0561dc	0.03256403
83	0x3d089765	0.033347506
84	0x3da08d71	0.07839478
85	0x3ebf6297	0.37379906
86	0xbd9ae9a8	-0.07564098
87	0x3ebca664	0.36845696
88	0x3db1dd65	0.08684806
89	0x3c417238	0.011807017
90	0xbe9aefe8	-0.3026116
91	0xbc9fc5d1	-0.019503506
92	0x3e8b1e9c	0.2717179
93	0x3cfc389b	0.03078871
94	0xbe386fcf	-0.18011402
95	0xbcad63f2	-0.021165822
96	0xbe80f33e	-0.2518558
97	0x3ed38c63	0.41318044
98	0x3e77481d	0.24148603
99	0xbe4d195b	-0.20029204
100	0x3d0019e2	0.031274684
101	0x3ea9dc10	0.33175707
102	0xbe20af78	-0.15691936
103	0x3f0b8a02	0.5450746
104	0xbe023589	-0.12715735
105	0xbe7651e0	-0.2405467
106	0x3dd3d51f	0.10343384
107	0xbd251a1f	-0.040308114
108	0xbf06acb6	-0.52607286
109	0x3ebbbb56	0.36666363
110	0x3ed7aa5d	0.42122164
111	0x3f45b67e	0.77231586
112	0x3d50a4f3	0.050938558
113	0xbe1d9554	-0.15388995
114	0x3e98a1d7	0.29810974
115	0xbde730f8	-0.11288637
116	0xbc7ded96	-0.015498539
117	0xbe51383a	-0.20431605
118	0x3e6badda	0.23015538
119	0xbcd4a33d	-0.025956744
120	0xbd833fef	-0.06408679
121	0xbe2e910e	-0.17047521
122	0x3e3b3c49	0.18284716
123	0xbdcdf03b	-0.10055586
124	0xbe2ae1e6	-0.16687736
125	0xbe4e1f70	-0.2012918
126	0x3cc852a8	0.024453476
127	0x3e0acb3b	0.13554089
128	0xbf062874	-0.52405477
129	0x3dedca28	0.11610824
130	0x3dfb8439	0.12281079
131	0x3e1515de	0.14559123
132	0xbf193ea5	-0.5986121
133	0x3df24029	0.11828644
134	0xbd02d423	-0.03194059
135	0xbc68e2f5	-0.014214267
136	0xbe97c017	-0.2963874
137	0x3ebaf856	0.3651759
138	0x3e88413b	0.26612267
139	0xbec207cc	-0.37896574
140	0x3f414773	0.7549965
141	0xbe01d1a7	-0.12677632
142	0x3f0842e9	0.53227097
143	0xbd9ce7fb	-0.07661434
144	0x3dd97e7f	0.1061983
145	0xbfc39648	-1.5280237
146	0x3c127b8f	0.0089405915
147	0x3e2609a1	0.1621461
148	0x3d84cde4	0.06484583
149	0x3e53000b	0.20605485
150	0x3ea22b04	0.31673443
151	0xbe885cfc	-0.2663344
152	0xbef68ba5	-0.48153415
153	0xbec52de2	-0.38511568
154	0x3e517878	0.20456111
155	0xbdb5822a	-0.088627174
156	0xbf4f0a3d	-0.80875
157	0xbe41e740	-0.18935871
158	0xbea3783e	-0.31927675
159	0xbd2c6aae	-0.042093925
160	0x3ee2b60a	0.4427951
161	0xbdb490f7	-0.08816712
162	0xbeb46def	-0.35240123
163	0xbcd1a6c5	-0.025592217
164	0x3e2afa35	0.16697009
165	0xbea7b86e	-0.32757896
166	0x3d2633c9	0.04057673
167	0xbef6f06e	-0.48230308
168	0x3d85ab9c	0.065268725
169	0x3daaf2c3	0.083470844
170	0xbea71f6f	-0.3264117
171	0x3e686b72	0.22697237
172	0xbe02b63b	-0.12764828
173	0xbe1430af	-0.14471696
174	0xbec5348a	-0.38516647
175	0xbddb547c	-0.107094735
176	0xbe98d18c	-0.29847372
177	0x3ec557ff	0.38543698
178	0xbdf3d17d	-0.11905191
179	0x3e575dc4	0.21031862
180	0xbc5daf51	-0.013530568
181	0xbe5a7901	-0.21335222
182	0xbed82881	-0.42218402
183	0x3e5269aa	0.2054812
184	0xbe264d87	-0.16240512
185	0x3e17054b	0.14748113
186	0x3d985e4d	0.074398614
187	0x3eb7ba7a	0.35884458
188	0xbebef603	-0.37297067
189	0xbf1f9832	-0.62341607
190	0xbe2a175f	-0.16610478
191	0xbe3ad712	-0.18246105
192	0x3e52afa4	0.20574814
193	0xbf3f0c86	-0.74628484
194	0xbe4e0b1a	-0.20121422
195	0x3d5f1b90	0.054469645
196	0x3e7db863	0.24777369
197	0xbe2e8722	-0.17043737
198	0x3d7bf6b0	0.061514556
199	0xbd5a1306	-0.0532408
200	0xbea6f1a7	-0.3260624
201	0xbeef1c1a	-0.46701127
202	0x3e998b5f	0.29989144
203	0x3e5629ab	0.20914333
204	0xbcd18e27	-0.025580479
205	0xbe37a4a5	-0.179339
206	0xbea400dc	-0.32031906
207	0xbe57eb42	-0.21085837
208	0x3ec085ad	0.37601987
209	0xbf0af596	-0.54280984
210	0x3e69062e	0.22756264
211	0xbc11f8cd	-0.008909416
212	0x3e9044d0	0.281775
213	0xbe234a20	-0.15946245
214	0xbd1381f3	-0.0360126
215	0xbea63d4b	-0.32468638
216	0xbf5032aa	-0.8132731
217	0xbe73ef3f	-0.23821734
218	0xbe128025	-0.14306696
219	0x3e7bc93b	0.24588482
220	0x3eccdf9c	0.4001435
221	0xbe9cdbbe	-0.306364
222	0xbf024178	-0.5088115
223	0xbe065eba	-0.13122073
224	0x3db830b2	0.08993663
225	0x3e9e3ad4	0.30904257
226	0x3e318704	0.1733666
227	0x3ea72c5a	0.32651025
228	0x3c2f6876	0.010706058
229	0x3d18c94b	0.037301343
230	0xbc365826	-0.011129415
231	0x3d900ce4	0.07033709
232	0xbe17be05	-0.1481858
233	0xbe9cd0ad	-0.30627957
234	0xbdf95ce2	-0.12175919
235	0x3cf13a78	0.029446825
236	0xbd497292	-0.04918153
237	0xbe0c6dbe	-0.13713738
238	0x3dd6b105	0.104829825
239	0x3e8b147f	0.27164075
240	0xbd9f3564	-0.07773855
241	0xbe07a47e	-0.13246343
242	0xbd8573fe	-0.065162644
243	0xbda213d6	-0.0791394
244	0x3dbcc980	0.092181206
245	0xbe813f85	-0.25243774
246	0xbe2e7b54	-0.17039233
247	0xbe9691b0	-0.29408026
248	0xbe878717	-0.26470253
249	0x3d52d646	0.05147388
250	0x3e5ce374	0.21571141
251	0x3e3b9408	0.18318188
252	0x3f0cf098	0.55054617
253	0x3d2da34a	0.042392053
254	0xbef15b1e	-0.4713983
255	0x3d8a573c	0.0675492

bilstm.weight_hh_l0_reverse f4 [64, 16]
0	0xbeba6e15	-0.3641211
1	0xbda757b7	-0.08171027
2	0x3d41247d	0.04715394
3	0x3e1c5bf6	0.15269455
4	0xbebf5af6	-0.37374085
5	0xbe3156d5	-0.1731828
6	0xbe96c530	-0.29447317
7	0x3ca8217f	0.020523785
8	0xbda0ae44	-0.078457385
9	0xbe03e6d6	-0.12881026
10	0xbe8fad5d	-0.28061953
11	0x3e081294	0.13288337
12	0xbda43f65	-0.08019904
13	0xbdb8a0eb	-0.09015068
14	0x3d911cfc	0.070856065
15	0xbe427f7f	-0.18993948
16	0x3edac6fd	0.4272994
17	0x3eb39d21	0.35080817
18	0xbe37ef9a	-0.17962494
19	0x3ee1b1c2	0.4408093
20	0x3eac933f	0.3370609
21	0x3e9af6da	0.30266458
22	0xbe96d79f	-0.2946138
23	0x3eb97e10	0.3622899
24	0xbe9f4e4f	-0.31114432
25	0xbf182894	-0.5943692
26	0x3f21beab	0.6318156
27	0xbee74580	-0.45170212
28	0xbe8ce819	-0.27520826
29	0xbf121c64	-0.5707457
30	0xbeef0ea7	-0.46690866
31	0x3e8737d8	0.26409793
32	0x3e63e537	0.22255407
33	0xbe1c8dd8	-0.15288484
34	0xbbc21ed2	-0.005924084
35	0xbe3db030	-0.18524241
36	0x3e781eee	0.24230549
37	0x3e61d486	0.22053728
38	0xbd9b7fc2	-0.07592727
39	0xbd9fa407	-0.077949576
40	0x3eaaf36b	0.33388838
41	0x3e3da71d	0.1852078
42	0xbd978973	-0.07399263
43	0x3daaef77	0.083464555
44	0x3e94e6f9	0.29082468
45	0x3e574485	0.21022232
46	0x3daafdc7	0.083491854
47	0xbdc5c204	-0.09656146
48	0xbd906fb1	-0.070525534
49	0xbe24091e	-0.16019103
50	0x3eec45b8	0.4614694
51	0xbe05624a	-0.13025776
52	0x3e11a247	0.1422206
53	0xbe0d93bc	-0.13825887
54	0x3eb54c3e	0.3540973
55	0x3ec1c97e	0.3784904
56	0x3e114713	0.14187269
57	0x3d1a95af	0.037740406
58	0x3e8f9d6d	0.28049794
59	0xbdd7034a	-0.10498674
60	0xbda9c522	-0.08289553
61	0xbe161c50	-0.14659238
62	0xbe52c723	-0.20583777
63	0xbf0433a1	-0.5164128
64	0x3f06c11b	0.52638406
65	0x3e968690	0.29399538
66	0xbe9ecd01	-0.3101578
67	0x3ed8d4fc	0.42349994
68	0x3e310707	0.17287837
69	0x3f35d2bf	0.710247
70	0xbed8d843	-0.42352495
71	0x3e5412f3	0.20710354
72	0xbedd6672	-0.43242222
73	0xbf1662d8	-0.58744574
74	0x3eccf8e6	0.40033644
75	0xbe951576	-0.29117936
76	0xbeb8af8a	-0.36071426
77	0xbef09c03	-0.46994027
78	0xbf14bd43	-0.5810129
79	0x3e792b5f	0.24332951
80	0xbe9ea4a2	-0.3098498
81	0xbda24101	-0.07922555
82	0xbe46ad52	-0.19402054
83	0xbc8fbadd	-0.017545158
84	0xbcf2fe43	-0.029662257
85	0xbe782412	-0.2423251
86	0xbda8e303	-0.08246424
87	0x3ec60c86	0.3868143
88	0xbe490974	-0.19632512
89	0x3db76929	0.089556046
90	0xbaff5f10	-0.0019483287
91	0x3e08487e	0.13308904
92	0xbe9f4e48	-0.3111441
93	0xbdbfd1d9	-0.09366197
94	0xbd36177e	-0.044455998
95	0xbc5f15bc	-0.013616022
96	0xbddc9948	-0.107714236
97	0xbd908894	-0.070573
98	0xbde49b50	-0.11162436
99	0xbec668f2	-0.38751942
100	0xbe85c3bf	-0.26125905
101	0xbefbd48d	-0.491856
102	0xbf530588	-0.82430315
103	0xbf00117c	-0.5002668
104	0x3e56c6d6	0.20974287
105	0x3ec5f7a7	0.38665506
106	0xbbf5ac9a	-0.0074973824
107	0x3ea362a8	0.31911206
108	0x3ed6ff1a	0.41991502
109	0x3d5baf52	0.053633995
110	0x3e0e5573	0.13899784
111	0x3e4b3449	0.19844164
112	0x3f12ac7d	0.57294446
113	0xbb92bd91	-0.0044781645
114	0xbf39efba	-0.7263142
115	0x3d30ff3f	0.04321217
116	0x3eecb8e8	0.46234822
117	0xbddd8aa0	-0.10817456
118	0x3f1608d5	0.58607227
119	0xbe79d4f4	-0.24397641
120	0x3e8a66bf	0.27031514
121	0x3d91709f	0.07101559
122	0x3bc6b1b9	0.0060636667
123	0xbe469deb	-0.19396178
124	0x3e307fea	0.17236295
125	0x3d95edeb	0.0732077
126	0xbe8f1580	-0.2794609
127	0x3e4b36a8	0.19845068
128	0xbeab7f39	-0.334955
129	0xbe9c0f26	-0.30480307
130	0x3eb5bbeb	0.35494933
131	0xbeccd5be	-0.40006822
132	0xbe564c33	-0.20927505
133	0xbdbd1962	-0.09233357
134	0xbef70e9e	-0.4825334
135	0xbd285f54	-0.041106537
136	0x3e7dd353	0.24787645
137	0x3e95a1e7	0.29225084
138	0xbe2e3148	-0.17010987
139	0x3da1b30a	0.07895477
140	0xbd31dfd0	-0.043426335
141	0x3d297a43	0.041376363
142	0xbc895e1f	-0.016768513
143	0x3f40df05	0.753403
144	0x3ec6e5b5	0.38847128
145	0x3f831967	1.0242127
146	0xbeafb14f	-0.34314963
147	0x3f01daca	0.5072447
148	0x3e98d266	0.2984802
149	0x3f4d911e	0.80299556
150	0xbe0ce747	-0.137601
151	0x3f94175b	1.1569628
152	0x3d8f2190	0.069888234
153	0xbf9e2935	-1.2356325
154	0x3ef745d8	0.48295474
155	0xbf5f4529	-0.87214905
156	0xbd3f8fc5	-0.04676797
157	0xbf829c51	-1.0203954
158	0xbf17872b	-0.59190625
159	0xbd9d7163	-0.076876424
160	0xbc85280e	-0.016254451
161	0xbdac740c	-0.08420572
162	0xbecb85d9	-0.39750555
163	0x3d81cf95	0.06338421
164	0xbd70b52f	-0.05876654
165	0xbece805c	-0.40332305
166	0x3e134416	0.14381441
167	0x3e6cf3d8	0.23139894
168	0x3ed10125	0.40821186
169	0x3d94448e	0.07239638
170	0x3ebde391	0.37087682
171	0x3cb3beba	0.021941531
172	0x3e3eb1a4	0.18622452
173	0x3ca749af	0.020420877
174	0xbe921d5c	-0.28538024
175	0x3dfcabb0	0.12337434
176	0xbdef1be6	-0.11675243
177	0x3c95a3ef	0.018266646
178	0xbf189608	-0.5960393
179	0xbd9a77d8	-0.0754239
180	0xbe759b91	-0.23985125
181	0xbe866b3a	-0.26253682
182	0xbf60b609	-0.87777764
183	0xbe5f757e	-0.21822163
184	0xbf4cd8cc	-0.80018306
185	0xbe584750	-0.21120954
186	0xbe7e37d3	-0.24825983
187	0xbf05d62e	-0.5227994
188	0xbe804ee2	-0.25060183
189	0xbdd65a31	-0.104664214
190	0x3f118e0f	0.5685739
191	0x3f5dbff9	0.8662105
192	0x3e26d486	0.16292009
193	0x3e51dee7	0.20495187
194	0xbe85b79b	-0.26116642
195	0xbe4daee9	-0.20086254
196	0x3e4c2845	0.19937237
197	0xbed7e990	-0.42170382
198	0xbf633df7	-0.88766426
199	0xbe947701	-0.28997043
200	0xbee481fe	-0.44630426
201	0xbd78d233	-0.060747337
202	0xbd707987	-0.058709648
203	0xbe958d1d	-0.29209223
204	0xbe94681c	-0.2898568
205	0xbdf9fe0d	-0.122066595
206	0x3ef9c70b	0.4878467
207	0x3f7413cc	0.9534271
208	0xbed883cf	-0.42288062
209	0xbddff4b3	-0.109353445
210	0x3bbc0b2d	0.005738637
211	0xbeaf3af9	-0.3422468
212	0x3e467689	0.19381155
213	0xbe6f9371	-0.23396088
214	0x3f119645	0.5686992
215	0x3ef5139c	0.47866523
216	0xbe12e5de	-0.143455
217	0xbe8fa4b2	-0.2805534
218	0x3e9e3c8b	0.30905566
219	0xbde6461e	-0.112438425
220	0xbeb05b8f	-0.34444854
221	0xbe3717af	-0.17880128
222	0xbf2543dd	-0.64556676
223	0xbe3f5a9b	-0.18686907
224	0x3e7cdb1b	0.24692957
225	0xbdc64a37	-0.09682124
226	0xbf6e6ade	-0.93131816
227	0xbe24e9c3	-0.16104798
228	0xbecd5e81	-0.40111163
229	0x3f0fb917	0.561418
230	0x3e0d4a5a	0.13797894
231	0xbf05288a	-0.5201498
232	0x3e7c633e	0.24647233
233	0x3a0fbebe	0.000548344
234	0x3c56f9d5	0.013121088
235	0x3dac5277	0.084141664
236	0x3de12dd9	0.10995073
237	0x3e6403fb	0.22267143
238	0x3db8b5dd	0.09019063
239	0x3d990dfd	0.07473371
240	0x3e083554	0.13301593
241	0xbdeefa28	-0.11668807
242	0xbda2a411	-0.079414494
243	0xbecc0960	-0.39850903
244	0xbcb74852	-0.022373352
245	0xbd04dfcc	-0.03243999
246	0xbf1b5095	-0.60669833
247	0xbc1aab58	-0.009440266
248	0x3ea1e09f	0.31616685
249	0x3e2b0b9b	0.16703646
250	0xbe8472b3	-0.2586876
251	0x3d8c35ac	0.068461746
252	0x3cdbd9a8	0.026837185
253	0x3ee52474	0.44754374
254	0x3e0f50d2	0.13995674
255	0x3e9e7587	0.3094904

bilstm.weight_ih_l0 f4 [64, 32]
0	0xbd698135	-0.057007987
1	0x3dd69357	0.104773216
2	0x3e148914	0.14505416
3	0x3d682588	0.056676418
4	0x3d8e20aa	0.06939824
5	0xbe1df442	-0.15425208
6	0xbe5b5967	-0.21420823
7	0xbc93990b	-0.018017313
8	0xbd1a9060	-0.037735343
9	0xbe614f1c	-0.22002834
10	0x3e520d85	0.2051297
11	0xbd2fdd93	-0.04293592
12	0xbebf886c	-0.3740877
13	0xbe22a58d	-0.15883465
14	0xbe5be922	-0.21475652
15	0x3ee2581c	0.44207847
16	0x3d171115	0.036881525
17	0x3d38f0ef	0.045151647
18	0xbd2c85fc	-0.042119965
19	0xbe58c474	-0.21168691
20	0x3e2cd98b	0.16879861
21	0x3c262728	0.0101411715
22	0xbb81e8ec	-0.003964534
23	0xbd6d0269	-0.057863627
24	0xbec110a6	-0.37708014
25	0xbe851d41	-0.2599888
26	0x3bf12fcb	0.0073604337
27	0x3d21a295	0.03946169
28	0x3e72bce2	0.23704866
29	0x3e53e340	0.20692158
30	0xbe71c697	-0.23610912
31	0xbee78b10	-0.45223284
32	0xbe06b463	-0.1315475
33	0xbf0fee64	-0.5622313
34	0xbee1eb0d	-0.44124642
35	0xbe51001c	-0.20410198
36	0xbe16acd7	-0.1471437
37	0x3e1eec3b	0.15519802
38	0xbdf4a2a0	-0.11945081
39	0xbec56d78	-0.3856008
40	0xbe6fdfaf	-0.23425172
41	0xbe7fd539	-0.24983682
42	0xbec58636	-0.38578957
43	0x3f14f25c	0.5818231
44	0xbecda8a8	-0.40167737
45	0xbe6d62d3	-0.2318223
46	0x3dccb179	0.09994788
47	0x3dd4bc08	0.103874266
48	0x3c8d38be	0.01723897
49	0xbead6b7f	-0.33871076
50	0x3e1352bf	0.14387034
51	0xbd869d5f	-0.06572985
52	0xbdd51d03	-0.10405924
53	0xbe4ef85f	-0.20211934
54	0xbce75339	-0.028237926
55	0xbe7ee222	-0.2489095
56	0xbe9a9688	-0.3019297
57	0x3e5db03c	0.2164926
58	0xbe706e69	-0.23479618
59	0x3e46096c	0.19339532
60	0x3d832aa9	0.06404621
61	0xbf0dd963	-0.5540983
62	0x3e266040	0.16247654
63	0xbde0aac8	-0.10970074
64	0x3eae99d5	0.3410174
65	0x3e33dcb4	0.1756466
66	0xbdcd6873	-0.10029688
67	0x3e257e76	0.16161522
68	0x3e8164af	0.25272128
69	0x3cb71df8	0.022353157
70	0xbdd16116	-0.10223596
71	0xbe256287	-0.16150866
72	0x3e975c05	0.29562393
73	0x3e8f26e4	0.2795936
74	0x3e587a4a	0.211404
75	0x400a7b0c	2.1637602
76	0xbcfaf8b0	-0.030636162
77	0x3e5de3ff	0.21669005
78	0x3e4b0b16	0.19828448
79	0x3e0a0b1e	0.13480803
80	0xbe445557	-0.1917318
81	0x3f064584	0.5244982
82	0x3ef283b7	0.47366115
83	0x3ebd823d	0.37013426
84	0x3f01e8ae	0.50745666
85	0x3f60db82	0.8783494
86	0xbe101028	-0.14068663
87	0x3e956a39	0.29182604
88	0xbda045b0	-0.07825792
89	0xbe6a52b6	-0.22883114
90	0x3f182cb3	0.59443206
91	0xbd69a83f	-0.057045218
92	0x3e21a559	0.15785731
93	0x3ee06d87	0.43833563
94	0x3e0c87db	0.137237
95	0xbdd47068	-0.10373002
96	0x3e838051	0.25683835
97	0xbdce7764	-0.10081366
98	0x3ef0e0dc	0.47046554
99	0xbd81bcf1	-0.06334866
100	0x3f0acfea	0.542235
101	0xbf9c7a7a	-1.2224877
102	0x3d504d3c	0.050854906
103	0xbe8a54f4	-0.2701794
104	0x3de34a2e	0.11098133
105	0x3dd7a07f	0.10528659
106	0xbf16f860	-0.5897274
107	0xbf9890c8	-1.1919184
108	0x3d86db21	0.06584764
109	0x3f0ad88d	0.5423668
110	0x3db378c9	0.08763272
111	0x3e275a47	0.16343032
112	0x3e627de3	0.22118334
113	0xbe975ef6	-0.29564637
114	0x3e49d14b	0.19708745
115	0x3e501c21	0.2032323
116	0x3db215a6	0.08695535
117	0xbf0ddca6	-0.5541481
118	0x3e9bbed7	0.30419037
119	0xbe6a5224	-0.22882897
120	0xbeab3edb	-0.33446392
121	0xbd294850	-0.04132873
122	0xbdd8e62a	-0.10590775
123	0xbca2b421	-0.019861283
124	0xbe7d7711	-0.24752451
125	0xbeb9e499	-0.3630722
126	0x3e4acbb7	0.19804274
127	0xbe48990c	-0.19589633
128	0x3e7c3c23	0.24632315
129	0xbc92e0d9	-0.017929481
130	0xbd4dafff	-0.05021667
131	0x3d4c0c9f	0.049816724
132	0xbe63a7dc	-0.22232002
133	0xbe97bde8	-0.29637074
134	0xbbc21ded	-0.0059239776
135	0x3e4f3024	0.20233208
136	0xbdad5c90	-0.084649205
137	0x3e6d9b10	0.23203683
138	0x3d479f18	0.048735708
139	0xbf8d6679	-1.1046897
140	0x3d6201a5	0.05517735
141	0xbeac7332	-0.33681637
142	0x3ec80127	0.3906338
143	0x3ea3f083	0.32019433
144	0xbd9a15ed	-0.07523713
145	0x3db8ba57	0.090199165
146	0x3e22dca6	0.15904483
147	0xbc809913	-0.015697991
148	0xbd5d0551	-0.05396015
149	0x3e58323d	0.21112914
150	0xbe043b73	-0.12913303
151	0xbe3db1cf	-0.1852486
152	0xbb96fff6	-0.0046081496
153	0xbf2a324a	-0.66482985
154	0xbd3aacfe	-0.045575134
155	0xbe865e06	-0.2624361
156	0xbe08c49a	-0.13356248
157	0xbe324f9c	-0.17413181
158	0xbc99ca13	-0.018773114
159	0x3e5b0a9a	0.21390763
160	0x3d1842dd	0.03717314
161	0xbd1868d4	-0.037209347
162	0x3ef99b91	0.487515
163	0x3e74f398	0.23921049
164	0x3ea858e3	0.32880315
165	0x3e89301c	0.26794517
166	0x3da02b94	0.07820812
167	0xbc7662a0	-0.0150381625
168	0x3e4f68e8	0.20254862
169	0xbe618fca	-0.22027507
170	0x3eed8699	0.46391752
171	0xbd99e817	-0.07514971
172	0xbe216b6d	-0.15763636
173	0xbe863758	-0.262141
174	0x3e1e7917	0.1547588
175	0x3e9c8fd3	0.3057848
176	0x3de44005	0.11145023
177	0x3e861c62	0.2619353
178	0x3debb129	0.115084
179	0x3dde09e2	0.10841729
180	0xbdf22620	-0.11823678
181	0x3f213788	0.6297536
182	0x3effe8d4	0.4998232
183	0xbdcc44da	-0.0997407
184	0xbddacb91	-0.106833585
185	0xbe574d48	-0.21025574
186	0xbebc3fa1	-0.36767295
187	0xbe5daa42	-0.2164698
188	0x3e796510	0.24354959
189	0x3eaed698	0.34148097
190	0xbe2cdfeb	-0.16882293
191	0x3e3269f4	0.1742323
192	0xbea02d4b	-0.31284556
193	0xbc0a8e7e	-0.008456824
194	0xbf32ac68	-0.6979432
195	0xbd4e84b5	-0.050419528
196	0xbe46426f	-0.1936128
197	0x3d169e00	0.036771774
198	0x3eaac27c	0.33351505
199	0xbcda37aa	-0.02663787
200	0xbe7f4ef7	-0.24932466
201	0xbdb6db94	-0.089286
202	0x3ec39af8	0.3820417
203	0xbe8a5533	-0.27018127
204	0xbe967a77	-0.29390308
205	0xbe0e09bf	-0.13870905
206	0xbe8f9c99	-0.28049162
207	0x3d44fc73	0.048092317
208	0xbdedfc56	-0.11620395
209	0xbe873ad8	-0.26412082
210	0xbe9ee0d3	-0.31030902
211	0xbe458896	-0.19290385
212	0xbf011cbf	-0.5043449
213	0x3e19138d	0.14948864
214	0x3de3d17d	0.11123941
215	0xbddc6f7c	-0.107634515
216	0x3e2e9e4b	0.17052571
217	0xbea5b1bb	-0.3236216
218	0xbe0cf691	-0.13765933
219	0xbd9ace73	-0.07558908
220	0xbd457ea1	-0.048216466
221	0x3c9b0de9	0.018927531
222	0x3ebd919c	0.37025154
223	0x3e875f33	0.2643982
224	0x3e1aeae3	0.15128665
225	0xbde5e2fe	-0.11224936
226	0x3e60a80e	0.21939108
227	0x3e450a02	0.19242099
228	0xbd8c0c40	-0.06838274
229	0x3e2feb59	0.17179622
230	0x3f01a498	0.50641775
231	0xbb362ad7	-0.002779653
232	0x3ef6e470	0.4822116
233	0x3f11812f	0.56837744
234	0x3dace631	0.08442343
235	0x3fa9ebef	1.3275126
236	0x3e058d9a	0.13042298
237	0x3e535673	0.20638447
238	0x3de7db91	0.11321176
239	0x3ede0bfd	0.4336852
240	0x3c764eab	0.015033404
241	0x3f1ae86d	0.60510904
242	0xbe467048	-0.1937877
243	0x3f330531	0.69929796
244	0x3eaebdcb	0.34129176
245	0x3d3f0991	0.046639983
246	0x3c90a71d	0.01765781
247	0x3e9ed88f	0.31024596
248	0x3e67d1b9	0.22638597
249	0xbd43d3cd	-0.04780941
250	0x3f13c567	0.5772309
251	0xbe4d05c6	-0.20021734
252	0x3dda9da6	0.106746
253	0x3e7d86f2	0.24758509
254	0x3e4ba53d	0.19887252
255	0x3d2537db	0.04033647

bilstm.weight_ih_l0_reverse f4 [64, 32]
0	0xbe297bfc	-0.16551203
1	0xbe359318	-0.17731893
2	0x3ccfd02d	0.02536782
3	0xbc2195a6	-0.009862339
4	0xbe01d1ac	-0.1267764
5	0x3ebfcdcb	0.37461695
6	0x3e59d2ca	0.21271816
7	0x3f0027e2	0.50060856
8	0x3e96275e	0.2932691
9	0x3d1a6ce6	0.03770151
10	0xbe785000	-0.24249268
11	0x3e0a5c01	0.13511659
12	0xbc27cc53	-0.010241586
13	0xbe06f1ee	-0.13178226
14	0x3eaf7cc8	0.34274888
15	0xbe09b78b	-0.13448922
16	0xbcdf66b9	-0.027270662
17	0xbe6b16a5	-0.22957857
18	0x3eb49bef	0.35275218
19	0xbcee810e	-0.029114272
20	0x3d49ed0f	0.049298342
21	0x3e98e3f0	0.29861403
22	0x3ef30280	0.47462845
23	0x3e4718de	0.1944308
24	0xbf0fcfaa	-0.56176245
25	0x3dbcbf23	0.09216144
26	0x3e43a040	0.191041
27	0xbf1ad191	-0.6047602
28	0xbe46b552	-0.19405106
29	0x3d1ea187	0.038728263
30	0x3e76ca34	0.24100572
31	0xbef5ebf9	-0.48031595
32	0x3d954349	0.07288224
33	0x3f2942be	0.66117465
34	0x3f0c4864	0.5479796
35	0x3dae3a89	0.085072584
36	0x3f141762	0.5784818
37	0xbf26e73d	-0.6519659
38	0x3ddadd57	0.106867485
39	0xbde288ed	-0.11061273
40	0x3ef1ce2c	0.4722761
41	0x3e85159d	0.25993052
42	0x3ea4bb64	0.32174218
43	0xbf4c8d1c	-0.79902816
44	0x3e6be27d	0.23035617
45	0x3ec632c6	0.38710612
46	0x3e76f5cf	0.24117206
47	0x3f2e735e	0.68144786
48	0x3e265131	0.1624191
49	0x3f8f62b2	1.1201994
50	0x3d5b9a66	0.053614043
51	0x3e9057b9	0.28191927
52	0xbea2477b	-0.3169516
53	0x3f5eda5a	0.8705193
54	0xbe1dce5f	-0.15410756
55	0x3ed7a82f	0.421205
56	0x3f2c42e6	0.6728958
57	0xbf1bfe71	-0.6093512
58	0xbe333f67	-0.17504655
59	0x3ad9a239	0.0016604132
60	0x3e07d86c	0.13266152
61	0xbc8c2392	-0.017106805
62	0x3bb7ef34	0.005613232
63	0xba7a8627	-0.00095567334
64	0xbe1c1a02	-0.15244296
65	0xbede1f5a	-0.43383294
66	0xbf3bf1aa	-0.73415625
67	0xbd7c3a5b	-0.06157909
68	0xbf02f153	-0.5114948
69	0x3e5e7ba4	0.21726853
70	0xbe8d84e4	-0.2764045
71	0xbee4dbe8	-0.44699025
72	0xbeb892be	-0.36049455
73	0xbe3fdf3d	-0.18737502
74	0xbf005a30	-0.50137615
75	0x3e5aa790	0.21352983
76	0x3d6b5889	0.05745748
77	0x3df6bf01	0.1204815
78	0xbe8341e8	-0.2563622
79	0xbf4e79bf	-0.8065452
80	0xbe1f9e76	-0.15587792
81	0xbce845d8	-0.028353617
82	0xbda12b92	-0.078696385
83	0x3dc0a055	0.09405581
84	0x3e262f77	0.16229044
85	0xbdd04483	-0.101693176
86	0xbd0c1558	-0.034200042
87	0xbec52332	-0.38503414
88	0xbee90a94	-0.45515883
89	0x3f20c422	0.62799275
90	0x3da45c1c	0.08025381
91	0x3dfbce01	0.122951515
92	0xbdaee9bb	-0.08540674
93	0xbeb3757b	-0.35050568
94	0xbe8cbd54	-0.27488196
95	0xbdc4e73d	-0.09614418
96	0xbe8818a3	-0.26581296
97	0xbe8212b8	-0.25404906
98	0x3c06f238	0.00823646
99	0x3e5f4cdd	0.21806665
100	0x3e88ca0d	0.26716653
101	0x3f7f1a2a	0.996493
102	0xbdcf33d9	-0.10117311
103	0x3e00ac59	0.12565745
104	0x3e80e10e	0.25171703
105	0xbe3d4d5d	-0.18486543
106	0xbeadca96	-0.33943623
107	0xbf5778d4	-0.84168744
108	0xbc99e48a	-0.018785734
109	0x3d8191ae	0.06326614
110	0x3e17d108	0.14825833
111	0x3c904f4e	0.01761594
112	0x3ddd91ad	0.10818801
113	0x3e0ea5c4	0.13930422
114	0x3c559f34	0.013038445
115	0xbc799b57	-0.01523479
116	0x3cdcfb54	0.026975311
117	0x3d142d38	0.036175936
118	0xbd01d904	-0.031701103
119	0xbe363f18	-0.17797506
120	0xbe4ced15	-0.20012315
121	0x3e3d5cfc	0.18492502
122	0x3e0f90ec	0.14020127
123	0x3ec32780	0.38116074
124	0x3e7f892f	0.24954675
125	0x3e621f76	0.22082314
126	0x3f259e11	0.64694315
127	0xbeb0b001	-0.3450928
128	0x3e372276	0.1788424
129	0xbe87ab9c	-0.26498115
130	0x3cc847e5	0.024448344
131	0x3e7b2d84	0.24529082
132	0xbdf4ebda	-0.119590476
133	0xbec3163e	-0.38102907
134	0xbe0e5e87	-0.13903247
135	0xbe8d951b	-0.2765282
136	0xbdde50f2	-0.10855283
137	0x3e7da232	0.24768904
138	0xbedb9c3f	-0.42892644
139	0x3f6c58bb	0.9232289
140	0xbb4fa00f	-0.0031681096
141	0x3ece76d5	0.40325037
142	0x3d95fd05	0.0732365
143	0x3e1281fb	0.14307396
144	0x3dfc1e0a	0.12310417
145	0x3c845c5e	0.016157325
146	0x3e1ef65c	0.15523666
147	0xbe7d6a43	-0.24747567
148	0x3f2e5864	0.68103623
149	0x3ec03e7d	0.37547675
150	0xbe36d027	-0.17852841
151	0x3da1afb3	0.0789484
152	0x3ec74b8f	0.38924834
153	0xbef55134	-0.47913516
154	0x3dff1e5e	0.12456964
155	0x3ec79070	0.38977385
156	0xb9001c61	-0.00012217603
157	0x3d5abd46	0.05340316
158	0xbd8bdf94	-0.068297535
159	0x3e9c083c	0.30475032
160	0x3e49e28e	0.1971533
161	0xbd99b978	-0.075060785
162	0x3e98a9a6	0.2981693
163	0xbdea11d0	-0.11429179
164	0x3f07064c	0.52743983
165	0xbd1cfd36	-0.03832742
166	0xbead325b	-0.3382748
167	0xbcd0e220	-0.02549845
168	0x3e105fb8	0.14099014
169	0xbe2f31da	-0.1710886
170	0xbe236eeb	-0.1596028
171	0x3e5ec1a1	0.21753551
172	0xbe7a568f	-0.24447082
173	0xbe4575e7	-0.19283257
174	0x3d84bf58	0.064818084
175	0x3d0cd7c3	0.034385454
176	0xbe218a29	-0.1577536
177	0x3daa4d31	0.08315504
178	0xbe5fb047	-0.21844588
179	0xbd93f9f9	-0.07225413
180	0x3e633940	0.22189808
181	0x3f8f2dc4	1.1185842
182	0xbdc2aeff	-0.09506034
183	0xbe7b57c0	-0.24545193
184	0x3f2775f7	0.65414375
185	0x3e92d740	0.28679848
186	0x3ebd31fe	0.36952204
187	0xbed82431	-0.42215112
188	0xbe269579	-0.16267957
189	0x3e57e0d0	0.21081853
190	0x3e8aa358	0.27077746
191	0xbeb09ef8	-0.34496284
192	0xbd629fcf	-0.055328187
193	0x3e85bfc9	0.26122883
194	0xbd926313	-0.07147803
195	0xbe059859	-0.13046397
196	0x3b0bd407	0.0021336095
197	0xbe4dbe7d	-0.20092197
198	0xbdd2c644	-0.102917224
199	0x3da0b0b5	0.07846204
200	0xbe59ac9f	-0.21257256
201	0xbe84ae7b	-0.25914368
202	0x3e516b0e	0.20450994
203	0xbf17432e	-0.59086883
204	0xbe66fd4d	-0.22557564
205	0xbe4f9e00	-0.20275116
206	0xbe684a0a	-0.22684494
207	0xbe38c207	-0.18042766
208	0x3e645049	0.22296251
209	0xbe065d8c	-0.13121623
210	0x3e43aa86	0.19108018
211	0xbd2a77cf	-0.041618165
212	0xbea34a97	-0.31892845
213	0xbe837810	-0.25677538
214	0xbca470e8	-0.02007337
215	0xbe60dbc7	-0.21958838
216	0x3da0d822	0.07853724
217	0xbc799ff4	-0.01523589
218	0xbe3c8287	-0.18409167
219	0x3e813e57	0.25242874
220	0x3d8d30a0	0.0689404
221	0xbddb714f	-0.10714971
222	0x3e0c7619	0.13716926
223	0xbc02e3ac	-0.0079888515
224	0x3ca9d9c5	0.020733723
225	0xbc8dd7cd	-0.017314816
226	0xbd188452	-0.037235565
227	0x3e86d581	0.26334766
228	0xbc2bf9fc	-0.010496613
229	0xbd34c9c0	-0.044137716
230	0xbdd8d3ba	-0.10587259
231	0x3da5295a	0.08064528
232	0xbd9a820e	-0.07544337
233	0xbd752fcd	-0.05986004
234	0x3e07a5b7	0.13246809
235	0xbe841538	-0.2579744
236	0xbda83d6c	-0.0821484
237	0xbdb222a4	-0.086980134
238	0xbdec17e5	-0.11527995
239	0x3ef24046	0.47314662
240	0xbe2f1f8b	-0.17101876
241	0xbd2773fe	-0.040882103
242	0x3e128e20	0.14312029
243	0x3e66252a	0.22475114
244	0x3d3fd661	0.046835307
245	0xbc572bd7	-0.013133011
246	0xbe96eb82	-0.29476553
247	0x3d562b87	0.052287605
248	0x3ec3cf17	0.38243935
249	0xbe058ef4	-0.13042814
250	0x3d531ef9	0.05154321
251	0xbd67ff12	-0.05663974
252	0x3e20e38d	0.15711804
253	0xbcf2abcf	-0.02962294
254	0xbe934795	-0.2876555
255	0x3df4301c	0.11923239

parallel_cnn_block.branches.0.0.weight f4 [1, 1, 2]
0	0x3efa2fd8	0.48864627
1	0x3f1f2de7	0.62179416

parallel_cnn_block.branches.0.2.bias f4 [16]
0	0x3bcadd20	0.006190911
1	0x3f242524	0.6411917
2	0xbf29184a	-0.6605269
3	0x3e1cdcbd	0.1531858
4	0x3b31fbae	0.002715807
5	0xbe22ff5d	-0.15917726
6	0xbebe5247	-0.37172148
7	0x3e102753	0.14077501
8	0xbec4ba8f	-0.38423583
9	0x3ec5f1c5	0.38661018
10	0x3ed7e98a	0.42170364
11	0xbf669703	-0.90074176
12	0x3d0290cf	0.03187638
13	0x3db6b085	0.08920387
14	0x3e04166c	0.12899178
15	0x3eace607	0.33769247

parallel_cnn_block.branches.0.2.weight f4 [16, 1, 2]
0	0x3eeeb1c7	0.46620008
1	0xbf1641d2	-0.58694184
2	0xbdf9628f	-0.12177002
3	0x3ef95fa5	0.48705783
4	0x3f10a12e	0.5649594
5	0xbea7d2a4	-0.32777894
6	0x3e5f6766	0.21816787
7	0xbe77b40b	-0.24189775
8	0xbe34568c	-0.1761114
9	0x3db6c242	0.089237705
10	0x3e17c5d3	0.14821558
11	0xbdc73312	-0.09726538
12	0x3d8f786d	0.07005391
13	0xbe4399fc	-0.19101709
14	0x3f04b344	0.5183604
15	0xbee52a4c	-0.44758832
16	0x3cd21b76	0.02564786
17	0x3dfaddeb	0.12249359
18	0x3d2733a5	0.040820736
19	0xbefad319	-0.4898918
20	0x3ee2fdd7	0.4433429
21	0xbf1f7e62	-0.6230222
22	0x3d5224d2	0.051304646
23	0x3ddf29b4	0.10896626
24	0x3ed8ba1b	0.42329487
25	0xbf2054cc	-0.6262939
26	0x3f107bb0	0.5643873
27	0xbf103cdc	-0.56342864
28	0xbe35dbf1	-0.17759682
29	0x3e078af0	0.13236594
30	0xbfba9d2a	-1.4579213
31	0x3eeb6490	0.4597516

parallel_cnn_block.branches.1.0.weight f4 [1, 1, 4]
0	0xbc8f1248	-0.017464772
1	0x3f185e63	0.5951902
2	0xbe8afbe9	-0.27145317
3	0x3cbdd1ab	0.023171267

parallel_cnn_block.branches.1.2.bias f4 [32]
0	0x3d593469	0.053028498
1	0x3d9c1db6	0.076228544
2	0x3ef3c49c	0.4761094
3	0x3c1d6ca1	0.009608419
4	0x3b85e665	0.004086303
5	0xbf3a1670	-0.72690487
6	0x3e337faf	0.17529176
7	0xbdc0ae80	-0.09408283
8	0xbe532051	-0.20617796
9	0xbef8fc54	-0.4863001
10	0x3e13c04e	0.14428827
11	0x3ef33562	0.47501665
12	0x3efbb12e	0.49158615
13	0xbe117cef	-0.14207815
14	0xbee5b7c6	-0.4486677
15	0xbecbef85	-0.39831176
16	0x3e91280d	0.2835087
17	0xbc7a64dd	-0.015282837
18	0x3e69d7e5	0.22836263
19	0x3d4f934e	0.05067759
20	0xbe2c78f6	-0.16843018
21	0xbb6c16aa	-0.003602425
22	0xbeb19533	-0.34684142
23	0xbc865f77	-0.016402943
24	0x3e5f49fe	0.2180557
25	0x3f094109	0.5361486
26	0xbe62e163	-0.2215629
27	0x3ed17ec8	0.4091704
28	0xbf0eff8c	-0.55858684
29	0xbe0a35a0	-0.13497019
30	0x3d1961bf	0.037446734
31	0x3b20d10c	0.0024538664

parallel_cnn_block.branches.1.2.weight f4 [32, 1, 4]
0	0xbf0dd5fc	-0.5540464
1	0x3ea79d73	0.32737312
2	0x3e541454	0.2071088
3	0x3e5452f8	0.20734775
4	0xbf37d409	-0.71807915
5	0xbee1ea4f	-0.44124076
6	0x3ecbe7bb	0.39825234
7	0x3c46b94f	0.012129142
8	0xbc19aa92	-0.009379046
9	0xbefbdb5e	-0.491908
10	0x3e6a7cf1	0.22899224
11	0x3eceb6bc	0.4037379
12	0xbef2109c	-0.47278297
13	0x3d93de4a	0.07220133
14	0x3e9b2b68	0.30306554
15	0xbfa1ff07	-1.2655953
16	0xbbd3d275	-0.0064642974
17	0xbd43cd35	-0.047803123
18	0x3f16dbb8	0.58929014
19	0xbee4f78d	-0.44720116
20	0xbe650f79	-0.22369184
21	0x3f003b86	0.50090826
22	0xbdcb6d6a	-0.099329785
23	0xbe26f228	-0.16303313
24	0xbecd96aa	-0.4015401
25	0x3f0193d0	0.5061617
26	0xbda8460e	-0.08216487
27	0x3e0366df	0.12832211
28	0x3e3301cb	0.17481153
29	0x3e2d2a47	0.16910659
30	0x3ee02f52	0.43786103
31	0xbf4715ce	-0.77767646
32	0x3ba8224e	0.0051310426
33	0x3a361826	0.00069463474
34	0x3f3b86ad	0.73252374
35	0xbf26ea28	-0.65201044
36	0x3ea0f4f3	0.3143688
37	0xbebd0551	-0.3691812
38	0x3e8dc93a	0.27692586
39	0xbc8fcff2	-0.01755521
40	0x3e3324d1	0.17494513
41	0x3f2abbcc	0.66692805
42	0xbf0c77e4	-0.5487044
43	0xbe08d2cf	-0.13361667
44	0xbd27c44b	-0.040958684
45	0x3ebc48d8	0.36774325
46	0xbedc635f	-0.43044564
47	0x3e33442f	0.17506479
48	0x3e512988	0.20425999
49	0xbeaaace9	-0.33335045
50	0x3d91dda1	0.071223505
51	0x3e78ed8d	0.24309368
52	0xbf07ceb1	-0.5304976
53	0x3dfa391b	0.12217923
54	0x3f3f7593	0.7478878
55	0xbe19ff5f	-0.15038823
56	0x3e0df3c9	0.13862528
57	0x3e0c82dd	0.13721795
58	0xbe5911d5	-0.21198209
59	0x3f0d0d32	0.5509826
60	0xbe154432	-0.14576796
61	0xbc9de32e	-0.019273367
62	0xbe2307c2	-0.15920928
63	0xbdff6623	-0.12470653
64	0xbe2547e7	-0.1614071
65	0x3efc1e42	0.49241835
66	0xbf6f3f35	-0.9345582
67	0x3f0ea9b2	0.55727684
68	0xbe8551aa	-0.26038867
69	0x3e396413	0.18104582
70	0x3e9a1aed	0.30098668
71	0x3e0095d9	0.12557162
72	0x3e92e037	0.28686687
73	0xbf8769bc	-1.0579143
74	0xbc8a5588	-0.016886488
75	0xbf0a4470	-0.5401068
76	0xbce64708	-0.028110042
77	0x3effdbef	0.49972484
78	0xbec550c4	-0.38538182
79	0xbd22ed2b	-0.039776962
80	0x3cbd6f09	0.023124235
81	0xbf094191	-0.5361567
82	0x3e751999	0.23935546
83	0x3eae0b7d	0.3399314
84	0xbe978dcd	-0.29600373
85	0x3e3f3b7c	0.18675035
86	0x3f0d15b2	0.5511123
87	0xbed53974	-0.41645396
88	0x3eac7b8f	0.33688018
89	0x3efbfbb5	0.49215475
90	0xbf677c27	-0.90423816
91	0xbcf33b63	-0.029691404
92	0xbf317008	-0.6931157
93	0x3f5f19f8	0.87149
94	0xbe5568b1	-0.20840718
95	0x3ce1774d	0.027522707
96	0x3e3b7ee0	0.18310118
97	0x3d9180bc	0.07104632
98	0xbe094f48	-0.1340915
99	0xbe40d23e	-0.18830201
100	0x3c794444	0.01521403
101	0xbecc7b14	-0.3993765
102	0x3e70946e	0.23494121
103	0x3d77b925	0.060479302
104	0x3c283cb7	0.010268382
105	0x3e6c69a4	0.23087174
106	0xbf22f72a	-0.6365839
107	0x3f29878d	0.6622246
108	0xbebfce6f	-0.37462184
109	0xbef149e0	-0.47126675
110	0x3e4958a4	0.1966272
111	0xbde74566	-0.112925336
112	0xbec21e84	-0.37913907
113	0x3f6815a8	0.90658045
114	0xbeb6f606	-0.35734576
115	0x3df06121	0.11737276
116	0xbf088978	-0.5333476
117	0xb7c98d70	-2.402693e-05
118	0x3f00bc71	0.5028754
119	0x3da5f1a3	0.08102729
120	0xbef83633	-0.4847885
121	0xbd57009d	-0.05249082
122	0x3ea45119	0.32093123
123	0x3e0c57ae	0.13705322
124	0x3ebff95b	0.3749493
125	0xbc71261c	-0.014718559
126	0xbbd6a687	-0.0065506133
127	0x3e998b5a	0.2998913

parallel_cnn_block.branches.2.0.weight f4 [1, 1, 8]
0	0xbc9c669d	-0.019091899
1	0x3c9d486c	0.019199573
2	0xbe499c45	-0.19688518
3	0x3f02a4c2	0.5103265
4	0x3e646a52	0.22306183
5	0xbe21b54d	-0.15791817
6	0x3d211379	0.03932521
7	0xbcabbad0	-0.020963103

parallel_cnn_block.branches.2.2.bias f4 [64]
0	0x3dde73a2	0.10861899
1	0xbf175f3f	-0.5912971
2	0xbdb88a09	-0.09010703
3	0xbf54fa39	-0.8319431
4	0x3e0c6aeb	0.13712661
5	0xbe2a7378	-0.1664561
6	0xbe079630	-0.13240886
7	0xbf3213ca	-0.69561446
8	0x3ef076a2	0.4696551
9	0x3e9709a1	0.29499534
10	0x3de91457	0.11380833
11	0xbbb6fb44	-0.0055841524
12	0x3c1117a4	0.008855734
13	0xbd143a93	-0.036188673
14	0x3e8099ae	0.25117248
15	0x3d90da51	0.070728905
16	0xbf1d428e	-0.6142968
17	0x3d990c4f	0.07473051
18	0x3e743a89	0.23850454
19	0x3d52950e	0.05141168
20	0x3d5e4994	0.05426939
21	0x3d2bdb95	0.041957457
22	0x3eaeb24d	0.34120408
23	0xbe9f3af4	-0.31099665
24	0xbdbbff09	-0.091795035
25	0x3dbf72fc	0.093481034
26	0x3cf80409	0.030275362
27	0x3e4a5a7a	0.19761077
28	0x3e8c3339	0.2738283
29	0xbc465b5a	-0.012106741
30	0xbf1644f5	-0.5869897
31	0xbef7202b	-0.4826673
32	0x3e44c157	0.19214378
33	0xbdecfee2	-0.115720525
34	0x3d073e1a	0.03301821
35	0x3ed382a5	0.4131061
36	0x3e4a1fea	0.19738737
37	0x3eb42eb0	0.3519187
38	0xbf8af56e	-1.0856149
39	0x3e8eab96	0.27865285
40	0xbd81ead3	-0.06343617
41	0x3e463a15	0.19358094
42	0x3e9808bc	0.29694164
43	0x3db8e0de	0.09027265
44	0xbeb710e9	-0.3575509
45	0x3dcc6c38	0.099815786
46	0x3ea62c89	0.32455853
47	0xbe2daec5	-0.169612
48	0xbfd34565	-1.6505553
49	0xbe48ec0a	-0.19621292
50	0xbf4292c4	-0.76005197
51	0x3e838f8f	0.25695464
52	0x3e04d80e	0.12973043
53	0xbe0024cc	-0.12514037
54	0xbe97f6e3	-0.29680547
55	0xbd8fa7aa	-0.07014401
56	0xbe4f0660	-0.20217276
57	0xbe7c7aa7	-0.24656163
58	0xbc5f174d	-0.013616395
59	0x3bf5a590	0.007496543
60	0x3d9bb684	0.076031715
61	0x3ec14470	0.37747526
62	0xbe100728	-0.1406523
63	0x3ca03f5d	0.019561464

parallel_cnn_block.branches.2.2.weight f4 [64, 1, 8]
0	0xbec3da59	-0.38252524
1	0xbe0f6828	-0.14004576
2	0x3e8ed2d7	0.27895233
3	0xbea0a63f	-0.31376836
4	0x3e89f511	0.26944783
5	0xbe3fb35e	-0.18720767
6	0x3e7ea6c4	0.24868304
7	0x3e010203	0.12598424
8	0x3cf4dcd8	0.029890463
9	0xbcd5e33b	-0.026109328
10	0x3eb68048	0.35644746
11	0xbecc2f68	-0.39879918
12	0x3e92a519	0.28641585
13	0xbdf27733	-0.11839142
14	0x3e8a1a49	0.2697318
15	0xbe89a4b5	-0.26883474
16	0xbf10b4d5	-0.5652593
17	0xbf285fc2	-0.65771115
18	0x3eb61659	0.35563925
19	0x3c437f6c	0.011932235
20	0x3cc76f82	0.024345163
21	0x3e344150	0.1760304
22	0x3e84e310	0.25954485
23	0xbe006883	-0.12539868
24	0x3e976419	0.29568556
25	0x3dc0507c	0.09390351
26	0xbe6eca78	-0.23319423
27	0x3e1b2749	0.15151705
28	0xbbb57c6a	-0.005538513
29	0x3e2ac4cb	0.16676633
30	0xbd957a4a	-0.072987154
31	0xbeba2af7	-0.36360905
32	0xbf132cf2	-0.57490456
33	0xbeb1413e	-0.34620088
34	0xbd7caa43	-0.06168581
35	0x3eaca48f	0.33719298
36	0x3ed1354d	0.40860978
37	0x3ebc896f	0.36823604
38	0xbe0682eb	-0.13135879
39	0x3cafc22f	0.021454899
40	0x3e2dec53	0.16984682
41	0x3e099944	0.13437372
42	0xbe845113	-0.25843105
43	0xbf178d9a	-0.5920044
44	0xbdb52f3d	-0.088469006
45	0x3dda78d1	0.10667575
46	0xbce24ddc	-0.027625017
47	0x3c8e3065	0.01735706
48	0xbccc281c	-0.02492147
49	0x3e473590	0.19454026
50	0xbd23ff2b	-0.04003827
51	0xbea629c4	-0.3245374
52	0x3e351a8a	0.17685905
53	0x3d3ff950	0.046868622
54	0x3d3958fe	0.045250885
55	0xbcdfa3e2	-0.027299825
56	0x3ea4ebdb	0.32211193
57	0xbb61d418	-0.0034458693
58	0xbefc2ffd	-0.49255362
59	0xbeacc7c5	-0.33746162
60	0x3e76eac6	0.24112996
61	0x3e853469	0.26016548
62	0x3da5dd0e	0.080988035
63	0x3deb358c	0.11484823
64	0x3e14a940	0.14517689
65	0xbe985383	-0.29751214
66	0x3ed8e563	0.42362508
67	0xbe5a39b9	-0.21311082
68	0xbe0051e2	-0.12531236
69	0x3e495851	0.19662596
70	0xbb727db0	-0.0037001185
71	0xbdddc829	-0.10829193
72	0xbc1b53ec	-0.009480458
73	0x3e25ee9b	0.16204302
74	0xbea092cc	-0.31361997
75	0xbe80ef3b	-0.25182518
76	0xbea51e5a	-0.3224972
77	0x3e4a520e	0.19757864
78	0x3d967d65	0.07348136
79	0x3e7f0769	0.2490517
80	0xbf00efef	-0.5036611
81	0xbe676cad	-0.2260005
82	0x3cffc3b3	0.031221246
83	0x3eba5d02	0.36399084
84	0xbd6af7b5	-0.057365138
85	0xbea2f554	-0.31827796
86	0x3e6150f0	0.22003531
87	0x3e20a770	0.15688872
88	0x3e21b423	0.15791373
89	0xbe88e6de	-0.26738638
90	0x3e55bd8a	0.20873085
91	0xbdc1a1f1	-0.09454716
92	0xbc718bf9	-0.014742845
93	0xbe1b03e5	-0.15138204
94	0xbc2454fa	-0.010030026
95	0x3d5dbc52	0.054134674
96	0x3ddb822d	0.107181884
97	0xbf2163a7	-0.6304268
98	0xbeb6c789	-0.35699108
99	0x3f05032f	0.5195798
100	0xbe89ba46	-0.26899928
101	0x3e806365	0.25075832
102	0x3e358969	0.17728199
103	0x3e0ac8c2	0.13553146
104	0x3c990f70	0.018684119
105	0x3e925a7f	0.28584668
106	0x3e0bf778	0.1366862
107	0xbe879d6d	-0.26487294
108	0x3ecce378	0.40017295
109	0xbf060073	-0.52344435
110	0xbee1f103	-0.4412919
111	0x3d8c4b4a	0.06850298
112	0xbc74e4be	-0.0149471145
113	0x3e84ec77	0.25961658
114	0x3e2c22ad	0.16810103
115	0xbe51fe37	-0.20507132
116	0xbeb2108c	-0.3477825
117	0xbe1b7fbf	-0.1518545
118	0xbd0fc771	-0.03510231
119	0x3ea139df	0.31489465
120	0x3eb40329	0.3515866
121	0x3cb75cd4	0.022383131
122	0x3e1c47b0	0.15261722
123	0x3e107abf	0.14109324
124	0x3e3de04b	0.18542592
125	0xbe20d151	-0.15704848
126	0xbee748ec	-0.45172822
127	0xbea36ef5	-0.3192059
128	0xbc9e9853	-0.019359743
129	0x3e6a8f78	0.22906291
130	0x3eb9c03f	0.36279485
131	0x3e062ebd	0.13103767
132	0xbe2fcaf0	-0.17167258
133	0xbef32445	-0.4748861
134	0xbcc04baf	-0.023473589
135	0x3c72ef6d	0.014827591
136	0x3dbd887e	0.092545494
137	0x3c061e04	0.008185867
138	0x3e0648c1	0.13113691
139	0xbdc9b023	-0.098480485
140	0xbce96fc6	-0.02849568
141	0x3ef4b123	0.47791395
142	0xbfa287a5	-1.2697645
143	0xbf2d0bbb	-0.67596024
144	0xbed13e4b	-0.40867838
145	0xbea2019b	-0.3164185
146	0xbf019334	-0.5061524
147	0xbe3f25a6	-0.18666705
148	0x3ea020f8	0.31275153
149	0x3e8b7fee	0.2724604
150	0x3d8e9305	0.069616355
151	0xbec5158f	-0.3849301
152	0xbe0a2681	-0.1349125
153	0xbd78adb6	-0.06071254
154	0x3ee17518	0.44034648
155	0x3d89bdb6	0.067256376
156	0x3ebf595a	0.37372857
157	0xbe4cfb8e	-0.20017835
158	0xbd2a8681	-0.04163218
159	0xbec84264	-0.39113152
160	0xbed734bc	-0.4203242
161	0x3d1800c1	0.037110094
162	0x3e9de21c	0.3083657
163	0xbde4133b	-0.111364804
164	0xbe2b4db5	-0.16728862
165	0x3eaacb05	0.33358017
166	0x3e08c689	0.13356985
167	0x3cc5f9b5	0.024166921
168	0x3d990e20	0.07473397
169	0x3d8707b7	0.06593268
170	0xbeb41677	-0.3517339
171	0xbe9989ba	-0.2998789
172	0x3eb9f05c	0.36316192
173	0x3ec338ec	0.38129365
174	0xbe3395c5	-0.17537601
175	0xbc0d240c	-0.008614551
176	0xbef350ca	-0.47522575
177	0xbe333ef2	-0.1750448
178	0xbea5409b	-0.32275853
179	0x3edf6d51	0.4363809
180	0xbe1fdc10	-0.15611291
181	0x3e159bed	0.14610262
182	0xbd86a19c	-0.06573793
183	0x3cffce08	0.031226173
184	0xbd70d97c	-0.05880116
185	0x3e37c651	0.17946745
186	0xbe0f57a6	-0.13998279
187	0xbd47370e	-0.04863649
188	0xbd333a0b	-0.043756526
189	0x3ee5793c	0.44819057
190	0x3e668145	0.2251025
191	0xbda22f72	-0.07919206
192	0xbe2591b4	-0.16168863
193	0xbe41b4f2	-0.18916681
194	0xbe5c57f1	-0.21517922
195	0xbdc8e840	-0.09809923
196	0xbe4d1f57	-0.20031486
197	0xbe754d9c	-0.23955387
198	0xbeb0a9e0	-0.34504604
199	0xbe20a579	-0.15688123
200	0x3dcf9b98	0.10137099
201	0xbde2a43f	-0.11066484
202	0xbe79f4a0	-0.24409723
203	0xbf4f3135	-0.8093446
204	0x3c82542b	0.015909275
205	0x3ee27ceb	0.4423593
206	0x3e74ecb8	0.23918426
207	0xbdf4dcfe	-0.119562134
208	0x3e2f8af2	0.17142847
209	0xbe53bf26	-0.20678386
210	0xbf4b110e	-0.793229
211	0x3ee82447	0.45340177
212	0x3d4f8930	0.05066794
213	0x3e0fe682	0.14052776
214	0x3d4add56	0.04952749
215	0x3cc781bc	0.024353854
216	0xbe828643	-0.2549306
217	0xbf5fd688	-0.87436724
218	0xbf47bf06	-0.78025854
219	0x3c7ddeb9	0.015494996
220	0x3e061b6e	0.13096401
221	0x3cc5cfe6	0.024146985
222	0xbd01f750	-0.031729996
223	0x3ddd6468	0.108101666
224	0x3bd7b3b4	0.0065827016
225	0x3e6a4838	0.22879112
226	0xbeb450ac	-0.35217798
227	0xbf22ab6d	-0.63542825
228	0x3e956f55	0.29186502
229	0xbe6dc407	-0.2321931
230	0x3e80281c	0.250306
231	0x3eb57da8	0.3544743
232	0xbe25a09a	-0.16174546
233	0x3e813347	0.25234434
234	0x3c3efe57	0.011657319
235	0x3d98422a	0.07434495
236	0xbdf64da5	-0.12026528
237	0x3e41b55a	0.18916836
238	0x3d10f4e6	0.035389803
239	0xbef535de	-0.4789266
240	0x3de93a90	0.11388123
241	0xbebf7307	-0.37392446
242	0x3ec5baf3	0.38619193
243	0xbd299e97	-0.04141101
244	0xbe651104	-0.22369772
245	0x3ec58910	0.38581133
246	0x3a1b656d	0.00059278944
247	0xbe1b8526	-0.15187511
248	0x3dc4a247	0.096012644
249	0x3eaa1198	0.33216548
250	0xbf0d77d9	-0.55261
251	0x3ef82bee	0.48471016
252	0xbe5a4741	-0.21316244
253	0xbd86e6ad	-0.06586967
254	0x3ea7ea1c	0.327958
255	0xbd8fa496	-0.07013814

parallel_cnn_block.branches.3.0.weight f4 [1, 1, 32]
0	0xbd84250d	-0.064523794
1	0xbd2d2af5	-0.042277295
2	0x3c15ebd0	0.00915046
3	0xbd1bd3a3	-0.03804363
4	0xbd6953b7	-0.056964602
5	0xbca441a9	-0.02005084
6	0xbbcb2a3e	-0.006200104
7	0xbdb0d77f	-0.086348526
8	0x3c9e7f99	0.019347953
9	0xbc26a81a	-0.0101719145
10	0xbd8478dd	-0.06468365
11	0xbcf112d2	-0.02942792
12	0xbd79707a	-0.06089828
13	0xbd6351fc	-0.05549811
14	0x3da5e0d9	0.08099527
15	0xbd31674e	-0.04331141
16	0xbd8eb89e	-0.06968807
17	0xbc01c350	-0.007920101
18	0xbc206a21	-0.009790928
19	0xbcd98688	-0.026553407
20	0x3d466de2	0.048444636
21	0x3de2574b	0.11051806
22	0x3cba028d	0.022706294
23	0x3e1308c4	0.14358813
24	0x3e386d4a	0.1801044
25	0x3e219644	0.15779978
26	0xbd89504d	-0.06704769
27	0xbdaf5107	-0.085603766
28	0xbdadb17e	-0.084811196
29	0x3d9d2339	0.07672734
30	0xbbc39470	-0.005968623
31	0xbcd5a3c4	-0.026079066

parallel_cnn_block.branches.3.2.bias f4 [16]
0	0x3e9d4a43	0.3072072
1	0xbe3c51d3	-0.18390588
2	0x3c88e093	0.016708648
3	0x3bf7fc06	0.0075678853
4	0x3e8a7a9c	0.2704667
5	0x3e30baf3	0.17258815
6	0x3e65d7a1	0.22445537
7	0x3d3579e9	0.044305716
8	0x3f00282b	0.5006129
9	0xbba1500e	-0.0049228733
10	0x3edd7930	0.4325652
11	0x3c7300d1	0.014831738
12	0x3e6f5a1e	0.2337422
13	0x3eca56d0	0.39519358
14	0xbe054a2b	-0.13016574
15	0x3e008609	0.1255113
