wide/modelpars_wide_i_71.safetensors (safetensors, 86584 bytes, 32 tensors)

bilstm.bias_hh_l0 f4 [64]
0	0xbe7edadc	-0.24888176
1	0x3e1e0c63	0.15434413
2	0x3da359f5	0.07976142
3	0x3e31dc7f	0.17369269
4	0xbeb9972b	-0.36248145
5	0x3aad3f52	0.0013217723
6	0xbe2d9853	-0.16952638
7	0x3cb50464	0.02209682
8	0xbed91bdc	-0.42404068
9	0xbdc0f011	-0.09420789
10	0x3d33aed7	0.043867912
11	0xbe22a3ce	-0.15882799
12	0xbe03c3a1	-0.12867595
13	0x3b91db40	0.0044511855
14	0x3ddb35b7	0.10703605
15	0x3c8f97a4	0.017528363
16	0x3e0386f8	0.12844455
17	0xbdd379f3	-0.10325994
18	0x3e16f4ba	0.14741793
19	0xbbdb2512	-0.0066877687
20	0xbb3c7f9a	-0.002876258
21	0x3e7b9264	0.24567562
22	0x3e0a10c8	0.13482964
23	0x3dbec21b	0.093143664
24	0x3e96c273	0.29445228
25	0x3e71b5f1	0.23604561
26	0x3e1de19f	0.15418099
27	0x3e943b40	0.28951454
28	0xbe22cecb	-0.15899198
29	0xbd84419c	-0.064578265
30	0xbd99f18f	-0.07516777
31	0x3d1e2f1a	0.03861914
32	0x3de8db8e	0.11370002
33	0xbd072527	-0.032994416
34	0x3e684cd9	0.22685565
35	0x3e30271d	0.1720242
36	0x3d6b9ea1	0.057524327
37	0xbd177656	-0.03697809
38	0x3e7f65f4	0.24941236
39	0x3cc40e18	0.023932502
40	0xbe3f7aef	-0.18699239
41	0x3dd6d84d	0.10490475
42	0xbda0f1f8	-0.07858652
43	0x3de25525	0.11051396
44	0xbe2c56da	-0.16830006
45	0x3e3d37c7	0.18478309
46	0x3b518c1f	0.0031974388
47	0xbe29b991	-0.16574694
48	0xbe280d43	-0.16411309
49	0xbde56260	-0.11200404
50	0xbd41ab3b	-0.04728244
51	0x3e1f9d43	0.15587334
52	0x3d98d29b	0.07462045
53	0x3e793fa0	0.24340677
54	0xbe32e2ed	-0.17469378
55	0xbd4451a2	-0.047929414
56	0xbe36620b	-0.17810838
57	0x3e126fbb	0.14300434
58	0x3d3dd7c0	0.046348333
59	0xbe373d14	-0.17894393
60	0x3d398fc1	0.04530311
61	0xbe813cb8	-0.25241637
62	0xbe625465	-0.22102506
63	0x3e1614a7	0.14656316

bilstm.bias_hh_l0_reverse f4 [64]
0	0x3d8a4670	0.06751716
1	0x3e47835a	0.194837
2	0x3e3973f7	0.18110643
3	0xbe0d92eb	-0.13825576
4	0xbe755ee5	-0.2396198
5	0x3e0140d8	0.12622392
6	0xbea05476	-0.3131444
7	0xbe883c60	-0.26608562
8	0xbd701852	-0.058616944
9	0x3bf5c385	0.0075001144
10	0xbe7ae673	-0.24501972
11	0xbd1e6d89	-0.03867868
12	0xbdd9dea1	-0.10638166
13	0x3cee92a8	0.029122666
14	0x3e41094b	0.18851201
15	0xbe1f58a6	-0.1556116
16	0xbe703cc4	-0.2346068
17	0xbd52dab5	-0.051478107
18	0x3cb6705b	0.022270372
19	0x3d8aa33d	0.067694165
20	0xbe707f37	-0.23486029
21	0x3d5bfa19	0.05370531
22	0x3e98ad36	0.2981965
23	0x3dac9154	0.08426157
24	0x3e335a07	0.17514811
25	0x3e3a373c	0.18185133
26	0x3d9cf489	0.07663829
27	0xbccb49f7	-0.024815543
28	0x3e9b71b9	0.303602
29	0x3d45e366	0.048312567
30	0xbd9d5ddd	-0.076839186
31	0xbcf60625	-0.030032227
32	0xbe685128	-0.22687209
33	0xbcb371a3	-0.021904772
34	0x3e9b1640	0.30290413
35	0x3d7ce89b	0.061745267
36	0xbd0f6e8b	-0.03501753
37	0x3e1266d1	0.14297034
38	0xbd2ad97e	-0.041711323
39	0xbe19bf22	-0.15014318
40	0x3e84f871	0.25970796
41	0x3e2c687b	0.16836731
42	0xbe4cc32a	-0.19996324
43	0x3e61e862	0.22061303
44	0xbca1e315	-0.019761601
45	0xbe2a598a	-0.16635719
46	0xbe12ec36	-0.1434792
47	0xbd0f423d	-0.03497528
48	0x3dc38dcb	0.09548529
49	0xbde0fb03	-0.10985377
50	0x3cc98915	0.024601499
51	0xbe030ce4	-0.12797886
52	0x3db286d0	0.0871712
53	0xbe5bb598	-0.21455991
54	0x3e16bcc2	0.14720443
55	0xbe505d52	-0.20348099
56	0xbe4cfce1	-0.2001834
57	0xbe8e4bb1	-0.27792123
58	0x3e43260a	0.1905748
59	0xbe1f7979	-0.15573682
60	0x3e0f5812	0.1399844
61	0x3e5fa387	0.21839724
62	0x3d386a12	0.04502303
63	0xbdd1d715	-0.10246102

bilstm.bias_ih_l0 f4 [64]
0	0xbe80dac4	-0.25166905
1	0xbd6b7ed1	-0.05749399
2	0x3e127f82	0.14306453
3	0x3c96abe0	0.018392503
4	0xbdcaa149	-0.09894044
5	0x3bb8baed	0.0056375177
6	0xbeb82f21	-0.35973457
7	0xbd93a8d8	-0.07209939
8	0x3c8b8f13	0.017035997
9	0xbe871649	-0.2638419
10	0xbe019bbf	-0.12657069
11	0xbdd43981	-0.103625305
12	0xbb4ce97c	-0.0031267097
13	0xbdaf7ff9	-0.08569331
14	0xbe529e31	-0.20568158
15	0xbd29d40f	-0.041462
16	0x3cf62e08	0.030051246
17	0x3dc5b115	0.09652916
18	0x3e48ef5a	0.19622555
19	0x3e8a6fe2	0.27038485
20	0x3ea4c575	0.32181898
21	0x3e28fca2	0.16502622
22	0x3b80433d	0.0039142654
23	0x3e7a6130	0.24451137
24	0xbd283cc1	-0.041073564
25	0x3dcdd7f6	0.10050957
26	0xbe56ba99	-0.20969619
27	0x3e8875da	0.26652414
28	0x3e3d2483	0.1847096
29	0xbe05c466	-0.13063201
30	0x3e72dad1	0.23716284
31	0x3e912480	0.2834816
32	0x3e2a6fe7	0.1664425
33	0x3cfe95d3	0.031077301
34	0x3e482223	0.19544272
35	0xbe6a9867	-0.229097
36	0x3df84121	0.12121797
37	0x3d1070eb	0.035263937
38	0x3e2d902c	0.16949528
39	0x3dc1ab31	0.0945648
40	0x3d607bf1	0.0548057
41	0xbe5dbe95	-0.21654733
42	0xbe66c17d	-0.22534747
43	0xbd8f4a99	-0.0699665
44	0x3e7974e2	0.24360994
45	0xbe2b7b43	-0.1674624
46	0x3d5f8acb	0.054575723
47	0x3e578c03	0.21049504
48	0x3e5cd5bf	0.21565913
49	0xbe88c34c	-0.267115
50	0xbe5cd123	-0.21564154
51	0x3e12f81b	0.14352457
52	0xbe9864bd	-0.29764357
53	0x3e90ab22	0.28255564
54	0xbe5061ff	-0.20349883
55	0x3dcddd7b	0.1005201
56	0x3e92353d	0.28556243
57	0x3e553b3b	0.20823376
58	0xbd94d6cd	-0.072675325
59	0x3d07f4ef	0.03319257
60	0x3de847ae	0.11341797
61	0xbda94ca4	-0.08266571
62	0xbe8ec2b7	-0.2788293
63	0x3dab1971	0.08354462

bilstm.bias_ih_l0_reverse f4 [64]
0	0xbdbdeac4	-0.092732936
1	0x3e20ccbc	0.157031
2	0x3e24207b	0.16028015
3	0xbebfe746	-0.37481135
4	0xbe9133b8	-0.2835977
5	0x3e70ff79	0.23534955
6	0xbb99e13d	-0.00469604
7	0xbe126187	-0.14295016
8	0xbd8ec6a5	-0.06971482
9	0xbd9ecbfb	-0.0775375
10	0xbe25ac11	-0.1617892
11	0xbcf9bf80	-0.030486822
12	0xbe5f1792	-0.21786335
13	0x3e380c35	0.17973407
14	0x3e79ee17	0.2440723
15	0xbefd069a	-0.494191
16	0xbd1aca61	-0.03779066
17	0x3c89efd0	0.016837984
18	0xbe242a86	-0.16031846
19	0xbe816960	-0.25275707
20	0xbe309ded	-0.17247744
21	0x3ea53fcf	0.32275245
22	0xbdc0d8ff	-0.09416389
23	0xbcb4cc5c	-0.022070102
24	0x3e824736	0.25444955
25	0x3dc03fea	0.09387191
26	0xbdbbb435	-0.09165231
27	0x3e33de66	0.17565307
28	0x3e2b8ec3	0.16753678
29	0x3ed51edf	0.41625115
30	0xbe330c42	-0.17485145
31	0xbd4b3d70	-0.04961914
32	0xbe6c4bd4	-0.23075801
33	0x3e1449f8	0.14481342
34	0x3e9897e3	0.2980338
35	0xbd065335	-0.032794196
36	0xbc86343e	-0.016382333
37	0xbd150e1e	-0.036390416
38	0x3e892983	0.26789483
39	0xbde0925d	-0.109654166
40	0xbe118c5f	-0.14213704
41	0x3ce57a9f	0.028012572
42	0xbe85d14d	-0.26136246
43	0x3dcc5dd1	0.099788316
44	0x3d08baf1	0.033381406
45	0x3da273cf	0.07932245
46	0xbc091444	-0.008366648
47	0x3b6ff3e2	0.0036613871
48	0x3eaab219	0.33339003
49	0x3dd33825	0.10313443
50	0xbd44ae6e	-0.04801791
51	0xbe76f5f2	-0.24117258
52	0x3e45835e	0.19288394
53	0x3d602d88	0.054730922
54	0x3ca9f8c8	0.020748511
55	0x3e3e40e8	0.18579447
56	0x3e1082ab	0.14112346
57	0x3e0521aa	0.13001123
58	0xbe43d6b2	-0.19124869
59	0xbeedec69	-0.4646943
60	0xbdfb54b2	-0.12272014
61	0x3d4fc5a8	0.05072561
62	0xbe86f2ae	-0.26357025
63	0xbe2c4082	-0.16821483

bilstm.weight_hh_l0 f4 [64, 16]
0	0x3df4482f	0.119278304
1	0xbd87c510	-0.066293836
2	0xbdaead2b	-0.08529123
3	0xbd894f71	-0.06704605
4	0x3d581783	0.052756798
5	0xbea554e8	-0.3229134
6	0x3fa3e76a	1.2804997
7	0x3db4ea49	0.08833749
8	0x3e8cad5d	0.27476016
9	0xbe05420b	-0.13013475
10	0xbefbbf34	-0.49169314
11	0x3e0e18e1	0.13876678
12	0x3e38a952	0.1803334
13	0xbe7c7da2	-0.246573
14	0xbe2f13c1	-0.1709738
15	0x3f021b7c	0.5082319
16	0xbe6bd0a6	-0.23028812
17	0x3b808120	0.003921643
18	0xbe476b70	-0.19474578
19	0xbe0b18ea	-0.13583723
20	0xbe3021a4	-0.17200333
21	0x3badd60c	0.0053050574
22	0x3f093179	0.53591114
23	0x3e86c699	0.26323393
24	0x3e83dcae	0.25754303
25	0xbe8260c9	-0.25464466
26	0x3eb99f6a	0.36254436
27	0xbd119b9a	-0.035548784
28	0xbd3177b9	-0.043327067
29	0x3d83b514	0.06431022
30	0x3ee33caf	0.44382235
31	0x3ed24535	0.41068426
32	0x3e5ec919	0.217564
33	0xbdcc0762	-0.09962346
34	0xbddbb5c5	-0.10728029
35	0x3c85383e	0.01626217
36	0x3e578889	0.21048178
37	0x3de143cc	0.10999259
38	0x3e4e6f1c	0.20159572
39	0x3ddee31b	0.10883161
40	0xbe673820	-0.22580004
41	0xbdb098d9	-0.086229034
42	0x3d98447b	0.074349366
43	0xbe2c90cc	-0.1685211
44	0xbd535328	-0.051592976
45	0xbe8d6647	-0.27617094
46	0x3d90f2bb	0.07077547
47	0x3e8a151d	0.26969233
48	0x3d99d27a	0.07510848
49	0xbd873496	-0.06601827
50	0x3eab28a9	0.3342946
51	0xbdcbe3c9	-0.09955556
52	0xbebaa2d7	-0.36452362
53	0x3dd9fdab	0.106440865
54	0x3e1504c1	0.14552595
55	0xbd45a5b4	-0.04825373
56	0xbe702285	-0.23450668
57	0xbe142bb2	-0.14469793
58	0xbb8e82b2	-0.004349076
59	0xbe8636a0	-0.2621355
60	0x3e0ad643	0.13558297
61	0xbcc6d42c	-0.024271093
62	0xbdaeaa76	-0.085286066
63	0xbe02c3d2	-0.12770012
64	0xbd0f3ee9	-0.034972105
65	0x3e83610c	0.25659978
66	0xbe5e4270	-0.21705031
67	0x3e86626f	0.26246974
68	0xbe624336	-0.22095951
69	0xbdac19f5	-0.084033884
70	0x3efa730f	0.48915908
71	0xbe0dbf5c	-0.13842529
72	0x3e315614	0.17317992
73	0xbe8ea3e9	-0.2785943
74	0xbe53b7a2	-0.20675519
75	0x3e8d8462	0.27640063
76	0x3ea7c73a	0.32769185
77	0x3e1089f8	0.14115131
78	0xbf37a750	-0.71739674
79	0x3ef76e60	0.48326397
80	0x3eb18025	0.3466808
81	0x3e9098ae	0.28241485
82	0xbe4a7c35	-0.19773944
83	0x3e4f9843	0.20272927
84	0x3e5b742a	0.21431032
85	0x3bb6589a	0.0055647613
86	0x3e29b003	0.1657105
87	0xbe2e18c6	-0.17001638
88	0xbd8d59c7	-0.06901889
89	0xbe627819	-0.22116126
90	0xbe385ae4	-0.18003422
91	0x3e0b3d18	0.13597524
92	0x3e5e97f8	0.21737659
93	0x3e9e70b3	0.30945358
94	0xbf00c59a	-0.50301516
95	0x3e930bfc	0.2872008
96	0x3ea47976	0.32123917
97	0x3f08d50b	0.5345008
98	0xbe9ff7cb	-0.3124374
99	0x3e96787a	0.2938879
100	0x3e07ffcd	0.13281174
101	0x3ed17f14	0.40917265
102	0xbe634aea	-0.22196546
103	0x3e9171e4	0.28407204
104	0x3e9088e2	0.28229433
105	0xbe30a2ac	-0.17249554
106	0xbe4a9521	-0.1978345
107	0x3e97c762	0.29644305
108	0x3fae9a96	1.3640926
109	0x3ee4fcf7	0.44724247
110	0xbeccf8e8	-0.4003365
111	0xbf1c1f14	-0.6098492
112	0xbc8996ca	-0.016795535
113	0x3d242de9	0.040082846
114	0xbb85bb59	-0.0040811715
115	0xbe35fea6	-0.17772922
116	0xbe5eb59f	-0.2174897
117	0x3e3de74d	0.18545265
118	0x3d03730b	0.032092135
119	0x3e08a7b3	0.13345222
120	0x3ccf4f5c	0.025306396
121	0x3e55d6cd	0.20882721
122	0x3c4cffef	0.012512191
123	0x3d3a969e	0.045553796
124	0xbd841be8	-0.06450635
125	0x3e114015	0.14184602
126	0xbdce8031	-0.10083044
127	0x3e77490b	0.24148957
128	0x3d89f6c3	0.06736519
129	0x3f2035d1	0.6258212
130	0xbe8292e0	-0.25502682
131	0xbcdb1a57	-0.026745958
132	0x3e9cb2c5	0.3060514
133	0xbd07c701	-0.03314877
134	0xbe13a927	-0.14419995
135	0x3e93b328	0.28847623
136	0xbd8d2951	-0.06892646
137	0x3e59db56	0.21275076
138	0x3db535e2	0.08848168
139	0x3f0acd88	0.54219866
140	0x3e6a4d79	0.22881116
141	0x3da60fec	0.081085056
142	0x3ded3786	0.11582856
143	0xbe418f5e	-0.18902346
144	0xbcc179ca	-0.023617644
145	0xbe10797a	-0.1410884
146	0xbe907327	-0.28212854
147	0x3e057bc6	0.13035497
148	0x3d60be1a	0.054868795
149	0xbe915c6c	-0.28390825
150	0x3e7673fd	0.24067684
151	0x3e0ff701	0.14059068
152	0xbdcfda0f	-0.10149013
153	0x3e85f61f	0.26164338
154	0x3ea59490	0.32339907
155	0xbeb17342	-0.34658247
156	0xbec1ba63	-0.37837514
157	0xbe9f84ea	-0.31156093
158	0x3ebf3fa3	0.37353238
159	0x3d630b85	0.055430908
160	0xbdd510ca	-0.10403593
161	0x3e173ea7	0.14769994
162	0x3e249ccc	0.16075438
163	0x3e2fc0ea	0.17163435
164	0xbd0be93a	-0.03415797
165	0xbe1b1833	-0.1514595
166	0x3ebfa0cc	0.37427366
167	0xbd4c0692	-0.049810953
168	0xbcdcdaca	-0.026959796
169	0x3d819874	0.06327906
170	0xbec1af0a	-0.37828857
171	0xbe4e96a6	-0.20174655
172	0x3ec6fe66	0.38865966
173	0x3d90e1e6	0.07074337
174	0xbebc8434	-0.36819613
175	0x3eb83bd4	0.35983145
176	0x3e51efdd	0.20501657
177	0x3db253a6	0.08707361
178	0x3e03c520	0.12868166
179	0xbe145208	-0.14484417
180	0x3e896d2a	0.26841098
181	0xbe63071a	-0.22170678
182	0x3efda5a0	0.49540424
183	0x3ea1ae83	0.31578454
184	0xbd09a6c5	-0.03360631
185	0xbe8e8629	-0.2783673
186	0x3ef40600	0.47660828
187	0xbd25d570	-0.040486753
188	0xbf00e0cf	-0.5034303
189	0xbe79b8d3	-0.24386911
190	0x3ea139b8	0.31489348
191	0xbe0bf303	-0.1366692
192	0xbe88b550	-0.2670083
193	0xbef7202d	-0.48266736
194	0xbe4118fa	-0.18857184
195	0x3d472df9	0.048627827
196	0xbe89e80d	-0.26934853
197	0xbdcee3ed	-0.10102067
198	0x3f604d12	0.876176
199	0x3e034cd3	0.12822275
200	0x3ccf4c5e	0.02530497
201	0x3e57fb4d	0.21091957
202	0xbe1a88a8	-0.15091193
203	0xbc6795bd	-0.0141348215
204	0xbf70e5b6	-0.9410051
205	0xbd566edc	-0.052351817
206	0x3f1476c2	0.5799371
207	0x3f4f3271	0.8093634
208	0xbc02183e	-0.00794035
209	0x3e8e40db	0.27783856
210	0xbe7c070a	-0.2461206
211	0xbdd7c3d4	-0.10535398
212	0x3ea35d25	0.31907
213	0xbe087e27	-0.13329373
214	0x3f178eac	0.59202075
215	0x3e90f0c1	0.2830868
216	0x3b9e9831	0.00483992
217	0xbeaaafe1	-0.3333731
218	0x3e678944	0.22610956
219	0x3dea8760	0.11451602
220	0xbed11689	-0.40837505
221	0xbe7ce8a9	-0.24698128
222	0x3ec4e1ce	0.38453525
223	0x3f5cb103	0.862076
224	0xbd75fc6e	-0.06005519
225	0x3ee1de21	0.44114783
226	0xbe85d4c6	-0.26138896
227	0x3e929a71	0.28633454
228	0xbdb5d11f	-0.08877777
229	0x3c75ca0d	0.015001786
230	0x3f1d5327	0.61455005
231	0xbe3f35e8	-0.18672907
232	0x3badfeee	0.005309931
233	0xbebdab0e	-0.37044567
234	0x3e574485	0.21022232
235	0x3d622671	0.05521244
236	0xbf10fc29	-0.56634766
237	0xbce7f5dc	-0.028315477
238	0x3d685670	0.05672306
239	0x3ecbc834	0.3980118
240	0x3ea26c5d	0.317233
241	0x3f0d1958	0.55116796
242	0x3d8a2b52	0.06746544
243	0xbdff53f3	-0.12467184
244	0x3ed47ce5	0.41501537
245	0x3ea117c8	0.31463456
246	0x3e04eb0e	0.12980291
247	0xbe166e12	-0.14690426
248	0x3eae44a0	0.34036732
249	0xbeaf268d	-0.342091
250	0xbd71ee1b	-0.059064966
251	0x3f3932f6	0.72343385
252	0x3f56b6d5	0.8387273
253	0x3f7f7f2f	0.9980344
254	0xbd64754d	-0.05577593
255	0x3e2f74de	0.17134425

bilstm.weight_hh_l0_reverse f4 [64, 16]
0	0x3e82ef4e	0.255732
1	0x3f04dcf2	0.51899636
2	0x3e25788e	0.16159269
3	0x3f04b549	0.5183912
4	0x3ef14576	0.47123307
5	0x3c5563e8	0.013024308
6	0x3e626b9c	0.22111362
7	0x3f2ffa62	0.6874143
8	0xbe4de07e	-0.20105168
9	0x3eb8333d	0.35976592
10	0xbe60dcac	-0.2195918
11	0x3debf381	0.11521054
12	0xbf2ac993	-0.6671383
13	0xbde105a2	-0.109874025
14	0xbe93abcf	-0.28842017
15	0xbdec38e3	-0.11534288
16	0xbe83aacc	-0.25716245
17	0x3dad27a1	0.08454824
18	0xbec83aba	-0.39107305
19	0xbd911e29	-0.07085831
20	0xbf2ed92c	-0.6830013
21	0x3b870657	0.004120629
22	0xbe5cdbbf	-0.21568201
23	0xbf713232	-0.94217217
24	0x3d40b4dd	0.047047485
25	0xbc6a6519	-0.01430633
26	0xbdb00791	-0.08595193
27	0xbe72295c	-0.2364859
28	0x3e8ab43b	0.2709063
29	0xbd47997e	-0.048730366
30	0xbe2699e5	-0.16269644
31	0xbda2c734	-0.07948151
32	0x3d85ad7f	0.065272324
33	0xbda1638b	-0.078803144
34	0x3e0a989d	0.1353478
35	0xbe80b5ad	-0.25138608
36	0x3e0a494a	0.1350452
37	0x3e1185c5	0.14211185
38	0xbd515fd7	-0.05111679
39	0xbde0be48	-0.10973793
40	0x3e776a26	0.24161586
41	0xbe69156d	-0.2276208
42	0xbe0ea4d5	-0.13930066
43	0xbdc5a1f2	-0.09650029
44	0x3dc4d0f7	0.096101694
45	0xb9b73838	-0.00034946366
46	0xbdc79a8f	-0.097462766
47	0xbd0fafad	-0.035079647
48	0x3eb8f3bd	0.36123458
49	0x3f22dba6	0.63616407
50	0xbe57201b	-0.21008341
51	0x3ee2ce52	0.44298035
52	0xbd79003c	-0.06079124
53	0xbe16276e	-0.14663479
54	0xbed05b64	-0.40694726
55	0x3eff57fe	0.4987182
56	0xbe14dc31	-0.14537121
57	0x3eec7d67	0.46189424
58	0x3ef3dff2	0.47631794
59	0xbe9c9cce	-0.30588382
60	0xbea5eb66	-0.32406157
61	0x3ed88a83	0.42293176
62	0x3c7dfc05	0.015501981
63	0x3e77e0fb	0.24206917
64	0xbed50f35	-0.41613165
65	0xbc195936	-0.009359648
66	0xbdb3d9e8	-0.08781797
67	0x3dcbbd58	0.09948224
68	0x3e8d7077	0.27624866
69	0xbd9f42d2	-0.07776417
70	0x3ce7a426	0.028276514
71	0xbf19b2ed	-0.60038644
72	0x3db1fcb0	0.086907744
73	0xbd5c251f	-0.05374634
74	0xbdd1682d	-0.10224948
75	0xbe5f8873	-0.21829395
76	0x3eb22716	0.34795445
77	0xbe4e3369	-0.20136799
78	0x3e564906	0.20926294
79	0x3d365058	0.044510216
80	0x3d68c72c	0.05683057
81	0xbde2ce14	-0.110744625
82	0xbeb0eb84	-0.34554684
83	0xbe6b1652	-0.22957733
84	0xbe7a4aa4	-0.24442536
85	0xbf52b000	-0.82299805
86	0xbde3270f	-0.11091434
87	0xbf98d1d7	-1.1939038
88	0xbe714021	-0.2355962
89	0xbe491800	-0.19638062
90	0x3e9cc306	0.3061754
91	0xbe44e47e	-0.19227788
92	0xbe6e527c	-0.23273653
93	0xbe52c0cd	-0.2058136
94	0xbe8d4813	-0.2759405
95	0xbdfd4f3b	-0.12368628
96	0xbe8e201d	-0.27758875
97	0xbe63e77f	-0.22256278
98	0xbec19286	-0.378071
99	0xbe52fcf0	-0.206043
100	0x3ea17959	0.31537893
101	0x3f0f2679	0.5591808
102	0x3e56ced9	0.20977344
103	0xbd218507	-0.039433505
104	0xbeab335f	-0.3343763
105	0xbda876ec	-0.082258075
106	0x3d5a93fc	0.053363785
107	0x3db4c166	0.0882595
108	0x3d0b8b3a	0.034068324
109	0x3ea6657e	0.32499307
110	0xbee8c783	-0.45464715
111	0x3e6c0fbf	0.23052882
112	0xbe82e130	-0.2556243
113	0xbf061e35	-0.5238984
114	0x3f24af3e	0.643299
115	0x3f177129	0.59157044
116	0x3e5ec891	0.21756198
117	0x3d68f7fe	0.05687713
118	0xbedf2105	-0.4357988
119	0x3ca6c50e	0.020357635
120	0xbdeb7fd9	-0.114989944
121	0x3ee4b818	0.44671702
122	0xbd2ea849	-0.042640958
123	0x3eb63a76	0.35591477
124	0x3e5e0e72	0.21685198
125	0xbe13165d	-0.14364
126	0x3f109e48	0.5649152
127	0xbd9a58e4	-0.07536486
128	0x3d4646f0	0.048407495
129	0x3e7cac2d	0.24675055
130	0xbe3cc7a7	-0.18435536
131	0xbe0c67f3	-0.13711528
132	0xbe0b2118	-0.13586843
133	0xbe1099ad	-0.14121123
134	0x3e5afc4f	0.2138531
135	0x3c2ad2b6	0.010426214
136	0xbdf8ebb8	-0.12154335
137	0xbc8b104e	-0.016975548
138	0x3de913f0	0.11380756
139	0xbdd2e973	-0.10298433
140	0xbc326845	-0.010889118
141	0x3e107c71	0.1410997
142	0x3bc84cf3	0.0061126887
143	0xbcfbcefc	-0.030738346
144	0x3da3fb8c	0.08006963
145	0x3cb06d7a	0.021536577
146	0x3e6cc8e3	0.23123507
147	0xbe2e5651	-0.17025115
148	0xbebae442	-0.36502272
149	0x3db6c24d	0.08923779
150	0xbda3d424	-0.07999447
151	0xbeb8d4b3	-0.36099777
152	0x3ddcdf6b	0.10784801
153	0xbdb41d65	-0.08794669
154	0xbec17859	-0.3778713
155	0x3e133b43	0.14378075
156	0x3e6006e5	0.2187763
157	0xbe8868c9	-0.26642445
158	0xbcc55c7f	-0.024091957
159	0xbec3d35e	-0.38247198
160	0x3d8ee784	0.06977752
161	0x3e34c8df	0.17654751
162	0x3ee82a09	0.4534457
163	0x3e40bb1b	0.18821375
164	0x3f0e1b5b	0.5551049
165	0xbd9f2c7d	-0.07772157
166	0x3e0f5b76	0.13999733
167	0x3e31200f	0.17297386
168	0x3db995e9	0.09061796
169	0x3d6fa048	0.058502465
170	0x3dd96e4b	0.1061674
171	0x3ccd029c	0.025025658
172	0x3d8202a1	0.06348158
173	0x3d3ad835	0.045616347
174	0xbd6f3d53	-0.058408093
175	0xbe90b32f	-0.28261706
176	0x3e1dc5d5	0.15407498
177	0x3e8e5c5f	0.2780485
178	0xbde85a5a	-0.11345358
179	0x3c40287a	0.0117284
180	0x3db6e10c	0.08929643
181	0x3e3f6e7c	0.1869449
182	0x3e997c26	0.2997753
183	0xbe4de48f	-0.2010672
184	0x3e8e08df	0.27741143
185	0xbe8a7c9d	-0.27048197
186	0xbd6eb1e9	-0.058275137
187	0xbe5ed286	-0.21759996
188	0x3e1c4744	0.1526156
189	0xbdd720a8	-0.105042756
190	0x3d8bd89f	0.068284266
191	0xbceb9620	-0.028758109
192	0xbe0c347e	-0.13691899
193	0x3df6262c	0.120189995
194	0xbec6756d	-0.38761464
195	0xbe30e336	-0.17274174
196	0x3e40ee3f	0.18840884
197	0xbdf6c19f	-0.12048649
198	0xbcb46e33	-0.022025203
199	0x3dccdc03	0.100029014
200	0xbe7b2ced	-0.24528857
201	0x3e21276d	0.15737696
202	0x3e92e47a	0.2868994
203	0xbe1f1339	-0.15534677
204	0xbec29669	-0.3800538
205	0x3e283ef5	0.16430266
206	0xbe844f6b	-0.2584184
207	0xbd1b82f1	-0.037966672
208	0x3dd70f0b	0.10500916
209	0xbf066986	-0.52504766
210	0x3f00deb8	0.5033984
211	0xbb0d26cb	-0.0021538015
212	0x3dfe5f2d	0.12420497
213	0xbc370d26	-0.011172568
214	0xbe010ca2	-0.12602475
215	0xbcac15a8	-0.02100642
216	0x3e002f5d	0.12518068
217	0x3e182734	0.14858705
218	0xbe82ff08	-0.25585198
219	0xbd161083	-0.03663684
220	0x3cbea98f	0.023274211
221	0x3ca739f1	0.02041337
222	0xbe405aca	-0.18784633
223	0x3eab69fa	0.3347929
224	0xbe5afafe	-0.21384808
225	0x3e200473	0.15626697
226	0xbe56b05a	-0.2096571
227	0xbdb30e57	-0.087429695
228	0xbd378d79	-0.044812653
229	0xbded8a58	-0.115986526
230	0x3dd512e7	0.10403996
231	0xbdbc3c07	-0.09191137
232	0xbe77dc06	-0.24205026
233	0xbe62a0f3	-0.2213171
234	0x3e4a0cdd	0.1973147
235	0x3d906f20	0.070524454
236	0x3e74791f	0.23874329
237	0x3bd4b2db	0.006491048
238	0x3e84efd9	0.2596424
239	0xbd191bf3	-0.03738017
240	0x3e0aed4c	0.13567084
241	0x3ea11f68	0.31469274
242	0xbec7686a	-0.3894685
243	0x3e54f052	0.207948
244	0x3d2b1cc9	0.0417755
245	0x3e12f088	0.14349568
246	0xbf07fedd	-0.53123266
247	0x3de5c57f	0.1121931
248	0xbe83df4a	-0.25756294
249	0x3eb1245c	0.34598053
250	0x3f04093c	0.5157659
251	0xbeee77ac	-0.46575677
252	0xbf0e4648	-0.5557599
253	0x3ed4140e	0.4142155
254	0xbeccd326	-0.40004843
255	0x3ed6c075	0.41943708

bilstm.weight_ih_l0 f4 [64, 32]
0	0xbc15da90	-0.009146348
1	0x3e4b990f	0.19882606
2	0x3d4b218d	0.049592543
3	0x3e6d6601	0.23183443
4	0x3c19d5dd	0.009389368
5	0x3da749f7	0.081684045
6	0x3b2621a2	0.0025349637
7	0x3e2deda4	0.16985184
8	0x3daef37e	0.08542536
9	0x3b00c4c3	0.001964853
10	0x3e128e89	0.14312185
11	0x3daf9f05	0.085752524
12	0xbe03d926	-0.12875804
13	0x3ea1a19d	0.31568614
14	0xbf2e0489	-0.6797567
15	0xbe98d82a	-0.2985242
16	0x3d35f5c7	0.044423845
17	0x3e189008	0.14898694
18	0xbe05a29e	-0.13050315
19	0x3f0c7a87	0.5487446
20	0x3e7b13a6	0.24519214
21	0x3e721ec8	0.23644555
22	0x3e113c04	0.1418305
23	0xbdd7cb57	-0.10536831
24	0xbe1a2aa9	-0.15055336
25	0xbea4799d	-0.32124034
26	0x3e99bbdb	0.30026135
27	0x3b62c8a0	0.0034604445
28	0x3dc01eb9	0.0938086
29	0xbe1bef7d	-0.15228076
30	0xbed08ef9	-0.4073408
31	0xbd896b47	-0.06709915
32	0xbcb89a74	-0.022534586
33	0x3d6ea15a	0.058259346
34	0xbb25df0f	-0.0025309955
35	0xbee316dc	-0.44353378
36	0xbe4d8e7d	-0.20073886
37	0xbd8c6b5b	-0.06856414
38	0xbe36c0fe	-0.17847058
39	0xbe9e9657	-0.30974075
40	0x3e64bba4	0.22337204
41	0xbe35d923	-0.17758612
42	0x3e48e7f0	0.19619727
43	0x3e7aa5a1	0.24477245
44	0xbda8e9f7	-0.0824775
45	0xbdcd0174	-0.10010043
46	0xbe565050	-0.20929074
47	0xbee42633	-0.44560394
48	0xbe1af970	-0.15134215
49	0xbe670360	-0.22559881
50	0x3da053f2	0.07828511
51	0xbdd89ce9	-0.10576803
52	0xbd64cacd	-0.05585747
53	0x3d6350c1	0.055496935
54	0xbdde5c1b	-0.108574115
55	0xbe9a2cb4	-0.3011223
56	0x3ec9fafc	0.39449298
57	0x3ecc728d	0.39931145
58	0x3e92ecdf	0.28696343
59	0xbe2b6012	-0.16735867
60	0xbec47bef	-0.38375804
61	0x3e3ab7b9	0.18234147
62	0x3df0ca69	0.11757357
63	0xbe22e757	-0.15908562
64	0x3e9693e4	0.29409707
65	0x3e7d5d03	0.24742512
66	0xbe89d01e	-0.26916593
67	0x3c46855b	0.012116755
68	0x3db43f9f	0.08801197
69	0x3f41f8d1	0.7577029
70	0x3d7fdd40	0.06246686
71	0x3e8db719	0.27678755
72	0x3e21f469	0.15815891
73	0x3d352381	0.044223312
74	0x3e31933f	0.17341326
75	0xbe80243e	-0.2502765
76	0x3e01e279	0.12684049
77	0x3d984154	0.07434335
78	0x3dbaf99a	0.09129639
79	0x3e1e2c5f	0.15446614
80	0x3d75c289	0.059999976
81	0x3ebbf6b5	0.3671166
82	0xbe0cbbd9	-0.13743533
83	0x3e65db73	0.22446994
84	0xbaa6d506	-0.0012728281
85	0x3c9d6cec	0.019216977
86	0x3e99cd7b	0.30039582
87	0x3f1459e7	0.5794968
88	0xbe330afe	-0.17484662
89	0x3e2b3128	0.1671797
90	0x3e0d2b77	0.13786112
91	0x3dc84bcf	0.09780084
92	0x3da4d5cd	0.08048592
93	0x3e175330	0.14777827
94	0x3e80ba81	0.2514229
95	0x3e412785	0.18862732
96	0x3e3e981b	0.18612711
97	0xbd33ac56	-0.043865524
98	0x3e0ed30f	0.139477
99	0xbe92d88c	-0.28680837
100	0xbe63d633	-0.2224968
101	0xbd359b8a	-0.044337787
102	0x3d815b26	0.06316213
103	0xbdee34cb	-0.11631163
104	0xbe12db6f	-0.1434152
105	0x3df25cf4	0.11834136
106	0xbeb05dfb	-0.344467
107	0xbdf85470	-0.1212548
108	0xbc86f6ac	-0.016475044
109	0xbe1ab5a6	-0.15108356
110	0x3e753cf7	0.23949037
111	0x3b13225f	0.0022450907
112	0x3c46f1f2	0.012142645
113	0xbe77f190	-0.24213243
114	0xbe8759fd	-0.26435843
115	0xbe781aa0	-0.24228907
116	0xbdab4c30	-0.08364141
117	0x3d4131c7	0.047166612
118	0x3e05276e	0.13003322
119	0x3d4d9078	0.050186604
120	0xbdbe8983	-0.09303572
121	0x3e9f8721	0.31157783
122	0x3ed1a2ff	0.4094467
123	0xbc3c2c00	-0.0114851
124	0x3c9b2ee6	0.018943261
125	0x3ea000b5	0.3125054
126	0xbe2fbc63	-0.17161708
127	0xbd0772be	-0.03306841
128	0x3e1426a4	0.14467865
129	0xbe6ed5a5	-0.23323686
130	0xbe6d2655	-0.23159154
131	0x3eb9d305	0.36293808
132	0xbe092f7a	-0.13397017
133	0xbe40d851	-0.18832518
134	0xbe920444	-0.2851888
135	0x3e0d031a	0.13770714
136	0x3d960875	0.07325832
137	0x3d55e40c	0.052219436
138	0xbd1b17ca	-0.037864484
139	0xbf04beab	-0.51853436
140	0x3c2c1a9e	0.010504393
141	0xbe83874d	-0.25689164
142	0xbecaf8c3	-0.39642915
143	0xbf651e1f	-0.89499086
144	0x3e69f412	0.22847012
145	0x3ec87121	0.3914881
146	0xbea6622f	-0.32496783
147	0x3e399b99	0.18125762
148	0xbd9a2013	-0.07525649
149	0xbec38878	-0.38190055
150	0x3d695707	0.05696776
151	0xbe75863d	-0.23976989
152	0xbe6ae1c3	-0.22937684
153	0xbe74a01c	-0.23889202
154	0x3f068bd2	0.525571
155	0xbe3d8934	-0.1850937
156	0x3dec8ecd	0.115506746
157	0xbe785930	-0.24252772
158	0xbf1017ef	-0.5628652
159	0xbe4826b5	-0.19546016
160	0x3e62555d	0.22102876
161	0x3cee21da	0.029068876
162	0x3dd6a93a	0.10481496
163	0x3f4cb6e6	0.7996658
164	0xbe0e5c0a	-0.13902298
165	0xbe3e1558	-0.1856283
166	0xbe0c95d2	-0.13729027
167	0x3e0cb1f8	0.13739765
168	0xbd9190ca	-0.071076944
169	0x3dde4894	0.10853687
170	0x3e86ba4a	0.26314002
171	0xbcc10423	-0.023561543
172	0x3ef585ea	0.4795373
173	0x3e546305	0.20740898
174	0xbdecbd45	-0.11559538
175	0x3e9d99d6	0.3078143
176	0x3da4d4d6	0.08048408
177	0xbdd25290	-0.10269654
178	0xbe44ebe0	-0.19230604
179	0x3efdf650	0.49601984
180	0xbded1432	-0.115761176
181	0x3efbf6d7	0.4921176
182	0x3caede9c	0.021346383
183	0x3e006a60	0.12540579
184	0xbd2bcbb8	-0.04194233
185	0xbd908b8a	-0.07057865
186	0x3f02fd8a	0.5116812
187	0xbe21313a	-0.15741435
188	0x3e83ee3a	0.2576769
189	0x3e98430e	0.2973866
190	0xbe8a5182	-0.2701531
191	0x3e7bd50b	0.24592988
192	0x3e894dbf	0.26817128
193	0x3ddf0af7	0.10890763
194	0xbe6a8779	-0.22903241
195	0xbe876cff	-0.26450345
196	0xbebc920a	-0.3683017
197	0x3d368319	0.04455862
198	0xbd87b75f	-0.06626772
199	0xbded4dd3	-0.115871094
200	0x3e2567cc	0.16152877
201	0xbe5d0599	-0.21584167
202	0xbe5ef08c	-0.21771449
203	0xbe6bdbc2	-0.2303305
204	0xbf2426aa	-0.64121497
205	0x3e3ef85f	0.18649434
206	0x3dabf993	0.08397212
207	0x3e90981f	0.2824106
208	0x3e35644b	0.1771404
209	0x3db9191a	0.09037991
210	0x3d8105ac	0.0629991
211	0x3e35a1c8	0.17737496
212	0xbcbccf57	-0.023048086
213	0xbea60c05	-0.32431045
214	0x3dd1ca0e	0.10243617
215	0x3d0ed3a3	0.0348698
216	0xbe176571	-0.1478479
217	0x3ed416c7	0.41423628
218	0x3ecf4848	0.40484834
219	0xbd93daaa	-0.07219441
220	0x3c172ac9	0.009226509
221	0xbd1b70c2	-0.03794933
222	0xbe6c37b6	-0.23068127
223	0x3ee021a3	0.43775663
224	0x3e90795c	0.2821759
225	0x3e0f5274	0.13996297
226	0xbddc15e8	-0.10746366
227	0xbdf75292	-0.12076296
228	0x3e0b2c70	0.1359117
229	0x3d87623d	0.06610534
230	0x3e292409	0.16517653
231	0xbda354dc	-0.0797517
232	0x3d26d4ef	0.040730413
233	0x3d63abf9	0.055583928
234	0xbc4d09f9	-0.012514585
235	0xbdc07f3a	-0.093992665
236	0x3e6f3333	0.23359375
237	0x3e60c959	0.21951808
238	0x3ddb6b3c	0.10713813
239	0x3e278a57	0.16361366
240	0xbd6efeaf	-0.058348354
241	0x3de284cf	0.110604875
242	0xbe404383	-0.18775754
243	0x3e1ea6b8	0.15493286
244	0x3da53ff5	0.080688395
245	0x3d87df28	0.066343606
246	0xbd35e2a7	-0.044405606
247	0xbd89528c	-0.06705198
248	0xbe34dd7c	-0.17662615
249	0xbdc6dd60	-0.09710193
250	0x3e1cc223	0.15308432
251	0x3e209881	0.15683176
252	0x3e613ff9	0.2199706
253	0x3e346dae	0.17619964
254	0x3e2ca336	0.16859135
255	0x3dc33a10	0.09532559

bilstm.weight_ih_l0_reverse f4 [64, 32]
0	0x3da837d1	0.08213771
1	0xbd50e5a7	-0.051000264
2	0xbb97b11f	-0.004629269
3	0xbd962c07	-0.07332616
4	0x3d0478c9	0.032341752
5	0x3ec64624	0.38725388
6	0x3e5ba315	0.2144893
7	0x3e0f0bfa	0.13969412
8	0x3ef4a9a9	0.4778569
9	0xbd98a9d4	-0.07454267
10	0x3d45a4c4	0.048252836
11	0xbe658a36	-0.22416005
12	0x3f051723	0.5198843
13	0xbec0388e	-0.37543148
14	0x3e8e395b	0.27778134
15	0x3e7ccfd0	0.24688649
16	0xbcb45dd0	-0.02201739
17	0x3dd9399d	0.10606692
18	0x3dc10dfb	0.09426495
19	0xbd74f0a1	-0.059799794
20	0x3e19acf1	0.15007378
21	0x3e11da0c	0.14243335
22	0x3e00ed66	0.1259056
23	0xbdbb2e84	-0.091397315
24	0x3d8c2f9b	0.068450175
25	0x3dbfd7ec	0.09367356
26	0x3fb36350	1.4014683
27	0xbdc12a14	-0.09431854
28	0x3da4f2d9	0.08054132
29	0xbe185d4e	-0.14879343
30	0xbf018b7c	-0.5060346
31	0x3f17b8eb	0.5926654
32	0xbec8b2d5	-0.39198938
33	0x3e26843c	0.16261381
34	0xbe8921d4	-0.2678362
35	0x3e5327b7	0.20620619
36	0xbe3f71b3	-0.18695717
37	0xbf18a529	-0.59627014
38	0x3d63283a	0.055458285
39	0xbe9c5439	-0.30533007
40	0x3c0cf99e	0.008604435
41	0xbeae2bfd	-0.34017935
42	0xbcd8bb9d	-0.026456648
43	0xbeaf719c	-0.34266365
44	0xbe928ddf	-0.28623864
45	0x3e45befd	0.19311137
46	0xbd8bd692	-0.068280354
47	0x3d9e7a85	0.077382125
48	0xbd752be2	-0.059856303
49	0x3e493907	0.1965066
50	0x3d547cb7	0.05187675
51	0x3e4ae873	0.19815235
52	0x3e07fb27	0.13279401
53	0xbe79287e	-0.24331853
54	0x3cdcd05f	0.026954828
55	0xbeb4b5db	-0.35294995
56	0x3d6318ef	0.0554437
57	0xbec6cc52	-0.3882776
58	0xbecd8e35	-0.40147558
59	0xbef5e413	-0.4802557
60	0xbe1f08ed	-0.15530749
61	0x3c3aa21c	0.011391189
62	0xbe2c30b4	-0.16815454
63	0xbdccced0	-0.10000384
64	0x3e240816	0.1601871
65	0x3d0772a8	0.03306833
66	0x3e7b4ba8	0.2454058
67	0x3e0a0aef	0.13480733
68	0xbe754e46	-0.2395564
69	0xbda1f3a1	-0.07907797
70	0x3da0a2be	0.078435406
71	0xbd8ae363	-0.06781652
72	0xbcc398eb	-0.023876628
73	0xbe8f7687	-0.28020117
74	0xbe91fad3	-0.28511676
75	0xbd49d303	-0.049273502
76	0x3e6b7455	0.22993596
77	0x3e0575d5	0.1303323
78	0xbcd72a87	-0.026265396
79	0x3ea14091	0.31494573
80	0x3d2430b4	0.04008551
81	0x3e8074cc	0.2508911
82	0x3e5e4d1c	0.21709102
83	0x3e3e1979	0.18564405
84	0x3e66dca3	0.22545104
85	0x3e913b14	0.28365386
86	0x3d61c664	0.05512084
87	0x3c40e12f	0.011772438
88	0x3ddaa56f	0.10676085
89	0x3e51f58d	0.20503826
90	0x3df1f4cc	0.118142694
91	0x3dba1d3a	0.09087606
92	0xbd966a23	-0.07344463
93	0xbb2d92d8	-0.002648523
94	0x3d1908e6	0.037362
95	0x3e251b9a	0.1612381
96	0xbd204c85	-0.039135475
97	0xbda76516	-0.081735775
98	0xbe28e629	-0.16494049
99	0xbe1a1044	-0.15045267
100	0xbecc70fd	-0.39929953
101	0x3d91cbc0	0.0711894
102	0x3d639f13	0.055571627
103	0xbeaf53f5	-0.34243742
104	0x3e1c0ab2	0.15238455
105	0x3e3e4826	0.1858221
106	0xbd0240aa	-0.03179995
107	0xbea764fb	-0.3269423
108	0x3de7b94d	0.1131464
109	0xbdfdf700	-0.12400627
110	0xbcbf671e	-0.0233646
111	0x3d8c3421	0.0684588
112	0x3ebc5a48	0.3678763
113	0x3d9c7139	0.07638783
114	0xbd40c773	-0.04706521
115	0x3eb31ce6	0.34982985
116	0x3d3dbbb2	0.04632158
117	0xbe8a49d4	-0.2700945
118	0x3e279935	0.16367038
119	0x3e8723ef	0.26394603
120	0x3e041bb3	0.12901191
121	0x3ea83634	0.32853854
122	0xbf553ce6	-0.8329605
123	0x3ebbf2bf	0.36708638
124	0xbdced9a9	-0.10100109
125	0x3d48181e	0.048851125
126	0xbdaa2238	-0.08307308
127	0xbe2cfb31	-0.16892697
128	0x3e1372fe	0.14399335
129	0x3dc11fb7	0.09429877
130	0xbeb629a1	-0.35578635
131	0x3da1cf05	0.07900814
132	0xbcb87235	-0.022515396
133	0xbf2600fa	-0.6484524
134	0xbe4c7705	-0.19967277
135	0x3cd2505c	0.025673084
136	0xbea71653	-0.3263422
137	0xbdbd312d	-0.09237895
138	0x3d302440	0.04300332
139	0xbd6b0011	-0.05737311
140	0xbe7926b7	-0.24331175
141	0x3ebaedb3	0.36509475
142	0x3f2f893c	0.6856878
143	0xbeeb066e	-0.45903343
144	0xbe3a1875	-0.18173392
145	0xbee05876	-0.4381749
146	0xbee43b1f	-0.44576356
147	0xbea62ca1	-0.32455924
148	0x3dd51ea8	0.10406238
149	0x3dc827d2	0.0977322
150	0xbea1406c	-0.31494462
151	0x3e56d380	0.20979118
152	0x3f269262	0.6506711
153	0xbd5c1839	-0.053734038
154	0x3d151480	0.036396503
155	0x3e21d7eb	0.15805022
156	0xbe2dc698	-0.16970289
157	0x3e2cefd6	0.16888365
158	0xbdd2b8b6	-0.10289137
159	0xbf2d26a7	-0.67637104
160	0xbe725b25	-0.23667581
161	0xbe0e497d	-0.13895221
162	0x3bc36478	0.0059629045
163	0xbe93a362	-0.2883559
164	0xbdd855fb	-0.105632745
165	0x3d9d9751	0.07694877
166	0xbe1b2557	-0.15150963
167	0xbefaa398	-0.48952937
168	0x3ef11470	0.47085905
169	0xbe2e1edf	-0.17003964
170	0xbe8768c4	-0.26447117
171	0x3cc1ccf0	0.023657292
172	0xbe924393	-0.2856718
173	0xbc435c73	-0.011923897
174	0xbe8870b1	-0.26648477
175	0xbee7ea2e	-0.45295852
176	0xbd098518	-0.033574194
177	0x3d98f3b5	0.074683584
178	0xbdad3bcb	-0.0845867
179	0x3eb9b34d	0.36269608
180	0xbe0bb4d4	-0.13643199
181	0x3d087048	0.033310205
182	0x3e6c47b6	0.2307423
183	0xbe62cc71	-0.221483
184	0x3dd36fcc	0.10324058
185	0xbe05922d	-0.13044043
186	0x3e90fbbd	0.2831706
187	0x3d1146da	0.03546796
188	0x3e257f06	0.16161737
189	0xbd55cc87	-0.052197006
190	0x3d9e8716	0.07740609
191	0xbeca9b0f	-0.39571425
192	0xbe4fd064	-0.20294338
193	0xbdc8207e	-0.097718224
194	0xbdcd53fc	-0.100257844
195	0x3dcaad75	0.098963656
196	0x3e39b64d	0.18135948
197	0x3e33154d	0.17488594
198	0x3e3e72a8	0.18598425
199	0xbea1885b	-0.31549343
200	0x3c88042b	0.01660355
201	0x3c1a19dc	0.009405579
202	0x3fac7feb	1.3476537
203	0x3e24477c	0.16042894
204	0x3e603e0e	0.21898672
205	0x3c0efb84	0.008726958
206	0x3e8c819e	0.2744264
207	0x3e8c352d	0.2738432
208	0x3e173cbc	0.14769262
209	0x3de6789a	0.11253472
210	0xbc53dcf8	-0.012931101
211	0xbd179c1b	-0.03701411
212	0x3d4d08dc	0.050057277
213	0xbe25d2cf	-0.16193698
214	0xbe89d656	-0.26921338
215	0xbb6d84e8	-0.0036242548
216	0xbd3320d3	-0.043732475
217	0x3e263756	0.16232046
218	0x3fa6cfc5	1.3032156
219	0x3d8a7ec9	0.067624636
220	0xbd5c2219	-0.053743456
221	0xbe14b464	-0.14521939
222	0x3ca79d1b	0.020460656
223	0xbdb33530	-0.08750379
224	0xbf04b49d	-0.51838094
225	0xbcff6364	-0.031175323
226	0xbcaa02ba	-0.020753253
227	0xbe1c6340	-0.15272236
228	0x3cd141df	0.025544105
229	0x3de8a6bc	0.11359927
230	0xbe1367c9	-0.1439506
231	0xbea004bd	-0.31253615
232	0x3dd35cc7	0.1032043
233	0xbd7d2e30	-0.061811626
234	0x3ee7227a	0.4514349
235	0x3d08f711	0.033438746
236	0x3e6bc20b	0.2302324
237	0xbd6c6bee	-0.057720117
238	0xbda0cf54	-0.07852045
239	0xbd16c625	-0.03681006
240	0xbd965b72	-0.073416606
241	0xbe7fb75f	-0.24972294
242	0xbe6a3df1	-0.22875191
243	0x3e28ffc7	0.16503821
244	0xbd8b465b	-0.068005286
245	0xbe21e561	-0.15810157
246	0xbde6fd74	-0.11278811
247	0xbeb380f8	-0.35059333
248	0x3dd1b499	0.102395244
249	0xbc99c0c0	-0.018768668
250	0x3e50d19d	0.20392461
251	0x3e22cab3	0.15897636
252	0xbed35d5e	-0.4128217
253	0xbe9655da	-0.29362375
254	0x3dec1985	0.11528305
255	0x3ebcc01b	0.36865315

parallel_cnn_block.branches.0.0.weight f4 [1, 1, 2]
0	0x3eb3e429	0.3513501
1	0x3f41f941	0.75770956

parallel_cnn_block.branches.0.2.bias f4 [16]
0	0x3cd897de	0.026439603
1	0x3ea4a3c4	0.32156193
2	0x3f62feb8	0.8866992
3	0x3f0df34a	0.55449355
4	0xbf0bf789	-0.54674584
5	0xbba481f7	-0.005020376
6	0xbc0da034	-0.008644152
7	0xbeb3b455	-0.3509852
8	0xbe2240f1	-0.15845086
9	0x3ebfd336	0.3746583
10	0x3e2cf3a2	0.16889814
11	0x3ee46e7c	0.44615543
12	0xbc0b2d9d	-0.008494762
13	0x3eddac80	0.4329567
14	0x3e53bb61	0.20676948
15	0x3eea420f	0.45753524

parallel_cnn_block.branches.0.2.weight f4 [16, 1, 2]
0	0xbf076f80	-0.5290451
1	0x3f07e3a0	0.53081703
2	0xbe3b40a6	-0.1828638
3	0x3e9ec864	0.3101226
4	0xbe195d02	-0.14976886
5	0xbf6bb7b4	-0.92077184
6	0xbf721ac8	-0.94572115
7	0xbfa5ada0	-1.2943611
8	0xbdc373ce	-0.09543572
9	0xbe53c68a	-0.20681205
10	0x3f0c54fa	0.54817164
11	0x3e466ee1	0.19378234
12	0xbebb649a	-0.3660019
13	0x3ec9e0ff	0.3942947
14	0xbeee81f6	-0.46583527
15	0xbf0a09db	-0.5392129
16	0xbe9bcc0e	-0.3042912
17	0x3ec2c3d1	0.3804002
18	0xbd341ed3	-0.04397471
19	0xba94572c	-0.0011317483
20	0xbf0328b7	-0.51234
21	0x3f00fd43	0.50386447
22	0xbeae7704	-0.34075177
23	0x3ea0fdee	0.31443733
24	0x3eda9566	0.42692107
25	0x3ee4fc13	0.44723567
26	0x3ed76f2b	0.42077002
27	0xbe06265e	-0.13100573
28	0xbee6d50a	-0.4508441
29	0x3ec9a671	0.39384797
30	0xbddddc7c	-0.1083307
31	0x3d8037e9	0.06260664

parallel_cnn_block.branches.1.0.weight f4 [1, 1, 4]
0	0x3ec0b368	0.37636876
1	0xbc6251a6	-0.013813412
2	0xbe256785	-0.16152771
3	0xbd9499d9	-0.072559066

parallel_cnn_block.branches.1.2.bias f4 [32]
0	0xbe7c32b7	-0.24628721
1	0x3e174d0b	0.14775483
2	0x3d587199	0.05284271
3	0x3dc14462	0.09436871
4	0xbee39dcd	-0.4445633
5	0xbe887ca4	-0.26657593
6	0x3edc19f3	0.42988548
7	0x3dac7ab3	0.084218405
8	0x3d93085c	0.07179329
9	0x3d3f399c	0.0466858
10	0x3e3a60fb	0.18201058
11	0x3e0fe188	0.14050877
12	0x3e038583	0.128439
13	0xbf3e3717	-0.7430281
14	0x3e984c8c	0.297459
15	0xbec93768	-0.39300084
16	0xbee91e9a	-0.4553116
17	0xbe616f29	-0.2201506
18	0xbdc4f8bf	-0.09617757
19	0xbe67b7bf	-0.22628687
20	0xbf2f6dd7	-0.6852698
21	0x3dbf796c	0.09349331
22	0xbe89d495	-0.2692
23	0x3e81dc3d	0.2536334
24	0xbe8b1b01	-0.2716904
25	0x3ead82e8	0.33888936
26	0xbe9db884	-0.30804837
27	0x3e64a3a9	0.22328056
28	0xbeb61798	-0.35564876
29	0xbebafe85	-0.36522308
30	0x3da8b1c4	0.08237031
31	0xbe715274	-0.2356661

parallel_cnn_block.branches.1.2.weight f4 [32, 1, 4]
0	0xbe0ff19d	-0.14057012
1	0x3f0e8aed	0.55680734
2	0xbf006700	-0.50157166
3	0xbf4f335f	-0.8093776
4	0xbf696cc4	-0.9118159
5	0xbf70088d	-0.9376305
6	0x3e2b9890	0.16757417
7	0x3f51d39a	0.81963503
8	0xbb547e8f	-0.0032424068
9	0x3e69f638	0.22847831
10	0xbf53002a	-0.82422125
11	0x3f01f6b7	0.5076708
12	0xbf496c7b	-0.78681153
13	0xbf80f345	-1.007424
14	0x3e88ef92	0.26745278
15	0x3f30ac8c	0.69013286
16	0x3eca4c8a	0.3951152
17	0x3df058b0	0.11735666
18	0x3e97e3cb	0.2966598
19	0x3f60a8db	0.87757653
20	0x3f00d731	0.50328356
21	0xbfb065be	-1.3781049
22	0x3f04822d	0.5176113
23	0xbe8fe1c0	-0.2810192
24	0xbf7e9686	-0.9944843
25	0xbd227786	-0.039664768
26	0xbee94e25	-0.45567432
27	0x3e8f2390	0.2795682
28	0x3d00a714	0.031409338
29	0x3ebbf7e0	0.3671255
30	0xbb3db59f	-0.0028947366
31	0xbf45bac3	-0.772381
32	0xbed75e46	-0.42064112
33	0x3d40779e	0.046989076
34	0x3f43ae88	0.7643819
35	0xbf1a3ca6	-0.6024879
36	0x3eed7276	0.4637639
37	0x3f2de14b	0.67921895
38	0x3e02bdd2	0.12767723
39	0x3ec1a6c4	0.37822545
40	0x3d1b232d	0.037875343
41	0x3e06eab6	0.13175473
42	0xbf821797	-1.0163449
43	0x3e67d994	0.22641593
44	0xbf81a426	-1.0128219
45	0xbe6214ee	-0.22078297
46	0x3c8dc142	0.017304067
47	0x3f285117	0.65748733
48	0x3de00951	0.10939277
49	0x3e7cd03f	0.24688815
50	0xbf20bfec	-0.6279285
51	0xbf47b285	-0.78006774
52	0xbc1ba69a	-0.00950017
53	0x3c73c064	0.0148774125
54	0x3f294ee2	0.6613599
55	0x3e660df0	0.22466254
56	0xbeeaf4c3	-0.45889863
57	0xbf187ecf	-0.59568495
58	0xbd720ad1	-0.059092347
59	0x3eb93758	0.36175036
60	0x3ead397b	0.33832917
61	0xbed97614	-0.424729
62	0xbea13dc2	-0.3149243
63	0x3ec165df	0.37773034
64	0xbf85db73	-1.0457596
65	0x3f06b1af	0.52614874
66	0xbc865217	-0.016396565
67	0xbe1711d3	-0.14752893
68	0x3da2454e	0.07923375
69	0xbcbc33b9	-0.022973882
70	0xbe4eec8b	-0.20207421
71	0x3f2f36a3	0.68442744
72	0xbd31aad6	-0.043375812
73	0x3f58d3ed	0.84698373
74	0x3f498ec6	0.7873348
75	0xbec8ba04	-0.3920442
76	0x3f216070	0.63037777
77	0xbddf4914	-0.109026104
78	0x3ef32007	0.47485372
79	0x3ee36462	0.44412524
80	0x3ce2e291	0.027695926
81	0xbd583069	-0.052780543
82	0x3f67db09	0.90568596
83	0x3ddadf28	0.10687095
84	0xbee47a9c	-0.44624794
85	0x3e73def1	0.23815514
86	0xbf0a9da5	-0.54146796
87	0x3ebdbb64	0.3705703
88	0x3f25c3e6	0.6475204
89	0x3f3bbeb4	0.73337865
90	0x3f5496dd	0.830427
91	0x3f40fcc2	0.7538568
92	0xbf80263e	-1.001167
93	0xbd8d4504	-0.06897929
94	0x3e208c51	0.15678526
95	0x3e6b006c	0.2294938
96	0x3e33a425	0.17543085
97	0x3ee7d236	0.45277566
98	0xbedbb626	-0.42912406
99	0x3efcf10d	0.49402657
100	0xbf63af9e	-0.88939846
101	0xbced4899	-0.028965281
102	0xbec4d036	-0.38440102
103	0x3ec1a773	0.37823066
104	0x3f2b5b96	0.66936624
105	0x3dd382ca	0.103276804
106	0x3ea5454a	0.32279426
107	0x3ef26fd7	0.47350952
108	0xbf16b93c	-0.58876395
109	0xbf7ddff5	-0.99169856
110	0x3e42d866	0.19027862
111	0x3f0625cb	0.5240142
112	0x3ef7db40	0.48409462
113	0x3cda70b3	0.026665067
114	0x3f345e70	0.704566
115	0x3f2c9bb3	0.6742508
116	0x3df6dae2	0.12053467
117	0x3f4d3b60	0.80168724
118	0x3f758105	0.95899993
119	0xbd9ea629	-0.07746536
120	0xbba466e4	-0.0050171483
121	0x3e709ee0	0.23498106
122	0xbf5cc07c	-0.8623121
123	0xbf2058c0	-0.6263542
124	0x3f0cefb8	0.5505328
125	0x3a67282e	0.0008817938
126	0xbe1f3f03	-0.15551381
127	0x3f20d721	0.6282826

parallel_cnn_block.branches.2.0.weight f4 [1, 1, 8]
0	0x3d94ac6c	0.07259449
1	0x3e867fbe	0.26269335
2	0xbde49900	-0.11161995
3	0x3eda0fae	0.42590088
4	0xbe935769	-0.28777626
5	0xbef444ae	-0.47708648
6	0xbe37bd68	-0.17943347
7	0x3ea1e365	0.316188

parallel_cnn_block.branches.2.2.bias f4 [64]
0	0x3d8dc922	0.06923129
1	0xbf524044	-0.8212931
2	0xbe5829ee	-0.21109745
3	0xbcf0d854	-0.029400028
4	0xbc5ededd	-0.013602939
5	0x3ea217ee	0.31658882
6	0xbed13f87	-0.4086878
7	0xbf547bb6	-0.8300127
8	0x3e73fdc1	0.23827268
9	0x3ea9f883	0.33197412
10	0x3e8582cb	0.2607635
11	0x3e3402d0	0.17579198
12	0xbf8d4227	-1.1035813
13	0x3eb083dc	0.344756
14	0x3e14e70e	0.14541265
15	0xbf928bce	-1.1448915
16	0x3e5363df	0.20643567
17	0xbacace1c	-0.0015472802
18	0xbc5a5383	-0.013325575
19	0xbeab6314	-0.33474028
20	0xbf8f3998	-1.1189451
21	0xbd916dfb	-0.07101055
22	0xbeac12ea	-0.3360818
23	0x3e594b54	0.21220142
24	0x3cf3b8ca	0.0297512
25	0xbf56bc17	-0.8388075
26	0xbf026f7d	-0.5095137
27	0x3e5925fe	0.21205899
28	0x3e67a206	0.22620401
29	0xbf9098d8	-1.1296644
30	0x3b32f4b8	0.0027306508
31	0x3e2f5af8	0.17124546
32	0x3cd3d1e3	0.025856918
33	0xbe9dc615	-0.30815187
34	0xbf18dc90	-0.5971155
35	0x3c5f1267	0.013615227
36	0x3e69829a	0.22803727
37	0xbd77a37c	-0.060458645
38	0xbe40a74c	-0.18813819
39	0x3e8ddc0e	0.2770695
40	0x3d93eb83	0.07222655
41	0xbf1571d2	-0.583768
42	0x3e3a0170	0.18164611
43	0x3e906b43	0.28206834
44	0x3e7917f9	0.24325551
45	0x3e7add08	0.24498379
46	0x3ec2dfd3	0.3806139
47	0xbd5da205	-0.054109592
48	0xbf2b1215	-0.66824466
49	0xbd7640ce	-0.060120396
50	0x3d301a37	0.04299375
51	0xbd0aae3b	-0.033857565
52	0xba11071a	-0.0005532369
53	0x3b8cee0f	0.0043008397
54	0xba6d79b6	-0.0009058969
55	0xbf4e86b3	-0.80674285
56	0x3e0b3b51	0.13596846
57	0xbbab9191	-0.0052358587
58	0xbf3ba4d3	-0.73298377
59	0xbf13a2de	-0.5767039
60	0x3b3b063f	0.0028537659
61	0x3cd01e0d	0.025404954
62	0xbf003cc1	-0.50092703
63	0xbade3094	-0.0016951733

parallel_cnn_block.branches.2.2.weight f4 [64, 1, 8]
0	0xbe730cd8	-0.23735368
1	0xbe2f2595	-0.1710418
2	0x3ea4147a	0.32046872
3	0x3ed62504	0.41825116
4	0xbdaa3dad	-0.08312545
5	0xbdeda8d5	-0.11604468
6	0x3e945789	0.28973034
7	0xbf169bab	-0.5883128
8	0x3db5550c	0.08854112
9	0xbe01625b	-0.12635176
10	0x3e0a3bea	0.13499418
11	0x3e3c4576	0.18385872
12	0x3cea772c	0.028621279
13	0x3d91a78a	0.07112034
14	0xbbcfeffa	-0.006345746
15	0x3ee41f77	0.44555256
16	0xbe36eb65	-0.17863233
17	0x3ebe8932	0.37214047
18	0xbf0a9061	-0.54126555
19	0xbdc6288e	-0.09675704
20	0x3f23b2ec	0.6394489
21	0x3e2c8a0c	0.16849536
22	0xbf29df3a	-0.6635624
23	0x3e803e09	0.2504733
24	0x3f20ed99	0.62862545
25	0xbd2d1021	-0.04225171
26	0xbe53473e	-0.20632645
27	0x3d82a76f	0.06379592
28	0x3ed066a6	0.40703315
29	0xbe963141	-0.29334453
30	0x3e5b7ecf	0.21435092
31	0xbd183902	-0.037163742
32	0xbdd7d100	-0.105379105
33	0x3e677f1d	0.22607084
34	0xbccfe27d	-0.025376553
35	0x3e0175cd	0.12642594
36	0x3f07ced7	0.5304999
37	0x3eb4955f	0.3527021
38	0x3e087d54	0.13329059
39	0xbe4bb9d2	-0.19895104
40	0x3e4748c2	0.19461349
41	0xbe2705d9	-0.16310824
42	0x3da6faf9	0.08153338
43	0xbeae4a5d	-0.3404111
44	0x3d4db07e	0.050217144
45	0xbe78369c	-0.24239582
46	0xbe7d8b89	-0.2476026
47	0x3e8733a5	0.2640659
48	0x3f283aeb	0.657149
49	0x3dc6dc31	0.09709967
50	0x3c6db7f1	0.014509187
51	0x3dcf11ef	0.101108424
52	0xba9296b5	-0.001118383
53	0xbe3b46bb	-0.182887
54	0x3e9d3f78	0.30712485
55	0x3d750e10	0.059827864
56	0xbeb9ea46	-0.3631155
57	0xbeaf6bcd	-0.34261933
58	0x3c8eb732	0.017421339
59	0x3cdfd8ae	0.027325
60	0xbf15b1d3	-0.58474463
61	0x3eaf76be	0.3427028
62	0x3e8102c0	0.2519741
63	0x3d52962c	0.051412746
64	0xbec8f1e0	-0.39247036
65	0x3eb4edc4	0.3533765
66	0x3ea464c7	0.32108137
67	0x3ef3b4a4	0.47598755
68	0xbe1a6dac	-0.15080899
69	0x3e45c55d	0.1931357
70	0xbe02f79b	-0.12789766
71	0xbe800598	-0.25004268
72	0x3ef5e14d	0.48023453
73	0xbea2885a	-0.31744653
74	0xbec75b64	-0.38936913
75	0xbeb5d35d	-0.3551282
76	0x3ee2eeb3	0.44322738
77	0xbe96228b	-0.2932323
78	0x3d0ce168	0.03439465
79	0xbeaa28bd	-0.33234206
80	0xbe734c7f	-0.2375965
81	0xbd8c549f	-0.06852078
82	0x3e8905e7	0.26762316
83	0x3f0f16aa	0.5589396
84	0xbe069b90	-0.1314528
85	0xbd8b95a1	-0.06815649
86	0xbe2ba0db	-0.1676058
87	0xbe4f12ac	-0.20221967
88	0xbd804ed8	-0.06265038
89	0xbb83a698	-0.0040176623
90	0x3eb5d079	0.35510615
91	0x3e1ae01e	0.15124556
92	0x3cecbed8	0.028899595
93	0x3cd0537a	0.02543043
94	0xbeadd0ae	-0.33948272
95	0xbeebfc37	-0.46090862
96	0x3c74257f	0.014901518
97	0x3e8fe08c	0.28101003
98	0x3d5c9885	0.05385639
99	0xbd546c1f	-0.051860925
100	0xbd1364f0	-0.035984933
101	0x3d96f98d	0.07371817
102	0xbd8f5454	-0.06998506
103	0x3e8c6c27	0.27426264
104	0xbedb708c	-0.42859304
105	0xbe38e1f6	-0.18054947
106	0xbd783aba	-0.06060288
107	0xbe004dbd	-0.12529655
108	0xbe3a1c27	-0.18174802
109	0xbed2b77d	-0.41155615
110	0xbde2715b	-0.11056777
111	0x3eb2016b	0.34766707
112	0xbe9195be	-0.28434557
113	0xbdbc47c0	-0.09193373
114	0xbe8e07c7	-0.2774031
115	0xbeba0ebb	-0.36339363
116	0xbec7e3e8	-0.39041066
117	0x3ee68859	0.450259
118	0xbdd1017e	-0.10205363
119	0x3e755ba2	0.23960736
120	0xbe9d961c	-0.30778587
121	0xbe2bf93c	-0.16794294
122	0x3ce9487b	0.028476944
123	0xbe591b29	-0.21201767
124	0xbe5d32c2	-0.21601394
125	0x3d7e4243	0.06207491
126	0x3d97302e	0.073822364
127	0x3e3a23a6	0.18177661
128	0x3d8a05f0	0.06739414
129	0xbe0ea626	-0.13930568
130	0xbe14b3bd	-0.1452169
131	0x3e57ed66	0.21086654
132	0x3dcaa07d	0.09893892
133	0xbdfa8bc5	-0.1223369
134	0x3d85f0d0	0.06540072
135	0x3e59f8b7	0.21286283
136	0x3e94fad9	0.29097632
137	0xbe0bcc11	-0.13652064
138	0xbeb0f974	-0.34565318
139	0x3ed1e915	0.4099814
140	0x3ec45680	0.38347244
141	0x3ed68d25	0.4190456
142	0x3ed66bc8	0.41879106
143	0xbe818054	-0.2529322
144	0xbd77011c	-0.060303792
145	0x3e929f12	0.28636986
146	0xbe93ffe4	-0.28906167
147	0xbd16ed5e	-0.036847465
148	0x3e9248b3	0.2857109
149	0x3e35eac3	0.17765336
150	0x3e72e074	0.23718435
151	0xbe28cbc8	-0.16483986
152	0xbd6df33a	-0.058093287
153	0xbdb1c00a	-0.08679207
154	0xbe84527c	-0.2584418
155	0xbeb2a008	-0.3488772
156	0xbe86dac9	-0.26338795
157	0x3be6748d	0.007032937
158	0xbe5846bd	-0.21120735
159	0xbcb0a49b	-0.021562865
160	0xbe7ae0b8	-0.24499786
161	0xbf037136	-0.5134462
162	0x3db79863	0.08964612
163	0xbdd5d2b2	-0.104405776
164	0xbe56b6a7	-0.20968114
165	0x3d29144d	0.041279126
166	0x3e3692ff	0.17829512
167	0x3e520898	0.20511091
168	0x3e87226d	0.26393452
169	0xbd802934	-0.06257859
170	0x3e779bbb	0.241805
171	0x3f1c85c0	0.61141586
172	0x3eb93edc	0.3618077
173	0xbea9fc15	-0.33200136
174	0x3e1dab96	0.15397486
175	0x3ec41a56	0.38301343
176	0x3eca0780	0.39458847
177	0xbf2d81d8	-0.6777625
178	0xbe2e337b	-0.17011826
179	0x3cecf06b	0.028923234
180	0xbec3b1ff	-0.38221738
181	0xb92a14bd	-0.00016220189
182	0x3ecdb72a	0.40178806
183	0xbe19c451	-0.15016295
184	0x3da300eb	0.079591595
185	0x3e1c04e4	0.1523624
186	0xbe187afb	-0.14890663
187	0x3e58f1dd	0.21186014
188	0x3e80f10b	0.251839
189	0xbdb9daba	-0.09074922
190	0xbe06df50	-0.13171124
191	0xbd9ca7a1	-0.0764916
192	0x3e19f657	0.15035377
193	0x3ebaa434	0.36453402
194	0xbf1e2ef1	-0.61790377
195	0xbfef5a24	-1.8699384
196	0xbd3aa5c1	-0.04556823
197	0x3eb1b2ac	0.34706628
198	0x3ec6897e	0.38776773
199	0x3e969d6b	0.29416975
200	0xbf644402	-0.8916627
201	0xbd2bb499	-0.04192028
202	0xbe496238	-0.19666374
203	0x3e095018	0.1340946
204	0x3ebccee9	0.3687661
205	0x3e257f0a	0.16161743
206	0x3eb1bc32	0.34713894
207	0x3ecf38cd	0.40473023
208	0xbb8789a7	-0.0041362825
209	0x3e00fbbb	0.12596028
210	0xbe3e14b4	-0.18562585
211	0x3e4c8ca7	0.1997553
212	0xbf2a0433	-0.6641266
213	0x3de85a57	0.11345356
214	0x3eb2f0c7	0.34949324
215	0x3e83c9b2	0.2573982
216	0x3e46b509	0.19404997
217	0xbd4480ab	-0.04797427
218	0x3e87e94c	0.2654518
219	0x3e143142	0.14471915
220	0xbd0d3370	-0.034472883
221	0xbd117ca7	-0.03551927
222	0xbe9a555b	-0.30143246
223	0xbec25b5b	-0.37960324
224	0xbedfd14e	-0.43714374
225	0xbe096526	-0.13417491
226	0x3ec6eff9	0.3885496
227	0x3e15cc70	0.14628768
228	0xbdd666d7	-0.10468834
229	0x3e8ca54a	0.27469856
230	0xbdd06677	-0.101757936
231	0xbe0da34d	-0.13831826
232	0xbdb2e2e0	-0.08734679
233	0xbea4fac7	-0.32222578
234	0x3e9329f6	0.2874295
235	0xbeb24b11	-0.34822896
236	0xbeb14f6e	-0.34630913
237	0x3df8a1f8	0.12140268
238	0xbcee8da5	-0.029120276
239	0x3e487c30	0.19578624
240	0xbfb6a2a5	-1.4268385
241	0x3e8d7364	0.276271
242	0x3d060d66	0.03272762
243	0x3f52df3b	0.8237187
244	0xbcbff6f0	-0.023433179
245	0x3ea97a59	0.33101156
246	0xbf4985a4	-0.78719544
247	0x3e9dac19	0.30795363
248	0x3f0832c2	0.5320245
249	0xbd735e75	-0.059416253
250	0x3cd6f875	0.02624152
251	0xbeb3e353	-0.35134372
252	0x3e38dd06	0.18053064
253	0xbec2b86f	-0.38031337
254	0x3e823d67	0.2543747
255	0xbf160a9b	-0.5860993

parallel_cnn_block.branches.3.0.weight f4 [1, 1, 32]
0	0x3d12e5f3	0.035863828
1	0xbd770cbe	-0.060314886
2	0xbcd7cc08	-0.026342407
3	0xbb63a7a2	-0.0034737368
4	0xbcd275e0	-0.025690973
5	0xbcc2f32b	-0.023797592
6	0x3ceb3cd9	0.028715538
7	0xbd455222	-0.04817403
8	0x3dec8f26	0.11550741
9	0x3df60bc9	0.120139666
10	0x3e4157b9	0.1888112
11	0x3dd90967	0.105974965
12	0x3e09f1eb	0.1347119
13	0x3d60a611	0.054845873
14	0x3b4f0a4d	0.0031591833
15	0x3ddd4b9e	0.108054385
16	0x3c3f9e25	0.011695419
17	0x3e852f8d	0.2601284
18	0x3eb16b20	0.34652042
19	0x3e16632c	0.14686269
20	0x3ea00de5	0.312606
21	0x3d8d2357	0.06891506
22	0x3d5b7247	0.05357578
23	0xbda8498a	-0.082171515
24	0x3d67db96	0.056605898
25	0x3caec3ce	0.021333601
26	0xbd9ab467	-0.0755394
27	0x3d11c647	0.035589483
28	0xbcb22fc6	-0.021751296
29	0xbd64278c	-0.055701777
30	0x3c309c83	0.010779503
31	0xbbb4bb76	-0.005515511

parallel_cnn_block.branches.3.2.bias f4 [16]
0	0x3f20f010	0.62866306
1	0x3efbc226	0.4917156
2	0x3d27c91f	0.04096329
3	0x3e2dbf9f	0.16967629
4	0x3f104018	0.563478
5	0x3ec96dc9	0.39341572
6	0x3cd925ba	0.026507247
7	0x3e7a6c6d	0.24455424
8	0x3e4da7f4	0.200836
9	0x3d7c6196	0.061616503
10	0x3c207dc0	0.009795606
11	0x3de0b0f9	0.10971255
12	0x3ee56b1a	0.44808275
13	0x3e8ef5d9	0.27921942
14	0xbc60554e	-0.013692213
15	0xba80aaff	-0.0009816586
