wide/modelpars_wide_i_41.safetensors (safetensors, 86584 bytes, 32 tensors)

bilstm.bias_hh_l0 f4 [64]
0	0xbe182a47	-0.14859878
1	0x3e33d68b	0.1756231
2	0x3e31dac6	0.17368612
3	0x3e019cf0	0.12657523
4	0xbe6c18e0	-0.23056364
5	0xbd870fca	-0.065948084
6	0xbdb09225	-0.08621625
7	0x3e024c31	0.12724377
8	0xbe4af790	-0.19821
9	0xbd9dc22a	-0.077030495
10	0x3d0bd3ee	0.03413766
11	0xbddd7bdd	-0.10814641
12	0xbd975daa	-0.07390912
13	0x3da4a946	0.08040099
14	0x3e666dbc	0.22502798
15	0x3d13fb60	0.0361284
16	0x3e0adcaa	0.13560739
17	0xbe07cb49	-0.13261141
18	0x3df2525a	0.118321136
19	0xbd5e0dd6	-0.054212414
20	0xbde9b027	-0.114105515
21	0x3e784e56	0.24248633
22	0xbc61ec2e	-0.01378922
23	0x3d42ffa1	0.047607068
24	0x3e8bdbe0	0.2731619
25	0x3ea247bb	0.3169535
26	0x3e546b3d	0.20744033
27	0x3e830ee4	0.25597298
28	0xbe14d146	-0.14532956
29	0xbd6c5795	-0.057700712
30	0xbd013ef1	-0.031554166
31	0xbd4266ba	-0.04746125
32	0x3d430828	0.0476152
33	0x3cb16917	0.021656556
34	0x3e6052c2	0.2190657
35	0x3e2f6abc	0.1713056
36	0x3d92ac1a	0.07161732
37	0xbd83e1ca	-0.0643955
38	0x3e73d283	0.23810773
39	0x3d6006f1	0.05469412
40	0xbe5b1887	-0.21396075
41	0x3dc66438	0.09687084
42	0xbd6cdfe0	-0.05783069
43	0x3d474a21	0.04865468
44	0xbe6a761c	-0.22896618
45	0x3dd90f99	0.10598678
46	0x3deb1e45	0.11480383
47	0xbe3df8ed	-0.18551989
48	0xbe46c129	-0.19409622
49	0xbc4634e3	-0.01209757
50	0x3c50b8f8	0.0127394125
51	0x3e74cf88	0.23907292
52	0x3e4f5a85	0.20249374
53	0x3e0b17dd	0.13583322
54	0xbdcafd58	-0.09911603
55	0x3c8c6d65	0.017142007
56	0xbe375e90	-0.17907166
57	0x3e7c1bc3	0.24619965
58	0xbd9fc714	-0.07801643
59	0xbde49871	-0.111618884
60	0x3dddfaea	0.10838874
61	0xbe24ff22	-0.1611295
62	0xbdbae8fe	-0.09126471
63	0x3e7e28d1	0.24820258

bilstm.bias_hh_l0_reverse f4 [64]
0	0x3da84e47	0.08218055
1	0x3e48e746	0.19619474
2	0x3e5657c5	0.20931919
3	0xbdbf0c53	-0.093285225
4	0xbdf86773	-0.121291064
5	0x3dde2006	0.10845952
6	0xbdc63e01	-0.09679795
7	0xbe0ec898	-0.13943708
8	0xbda96ea1	-0.08273054
9	0xbd5719d0	-0.05251485
10	0xbe3d762c	-0.1850211
11	0xbcff512e	-0.03116664
12	0x3dd15b99	0.10222549
13	0x3db7bc90	0.08971512
14	0x3e1c577d	0.15267749
15	0xbd89a30d	-0.067205526
16	0xbe75b6a8	-0.23995459
17	0xbd67f115	-0.056626398
18	0x394ea648	0.00019707636
19	0x3da34f18	0.0797407
20	0xbe57034e	-0.20997354
21	0xbc83672f	-0.016040413
22	0x3e85aae5	0.26106945
23	0x3dfab6d5	0.12241904
24	0x3e367555	0.17818196
25	0x3db636b7	0.08897155
26	0x3dc96320	0.0983336
27	0x3de8933e	0.11356209
28	0x3e5c97c4	0.21542269
29	0xbdb896cd	-0.09013138
30	0x3bbf2e56	0.005834381
31	0xbbea69c1	-0.00715372
32	0xbe552d26	-0.20818004
33	0x3d88f140	0.0668664
34	0x3e7fd1ea	0.2498242
35	0xbd5f087a	-0.054451443
36	0xbd85ac7e	-0.06527041
37	0x3e128758	0.14309442
38	0xbdf625d7	-0.12018936
39	0xbe2358be	-0.15951821
40	0x3e817040	0.25280952
41	0x3e1edda9	0.15514244
42	0xbe503355	-0.20332082
43	0x3e5a251d	0.2130322
44	0xbc4cd05d	-0.01250085
45	0xbe1ff50b	-0.1562082
46	0xbe2e67d9	-0.17031802
47	0x3b691c3c	0.0035569808
48	0x3d19156b	0.03737394
49	0xbe754d37	-0.23955236
50	0x3d4599e7	0.048242476
51	0xbc84084b	-0.016117236
52	0x3de121c2	0.10992767
53	0xbe5a219e	-0.21301886
54	0x3e52a2a1	0.2056985
55	0xbe311559	-0.172933
56	0xbded5df0	-0.11590183
57	0xbe611f13	-0.2198451
58	0x3e331f36	0.17492375
59	0xbbf2d394	-0.007410476
60	0x3de179f2	0.11009587
61	0x3e74c6a6	0.23903903
62	0x3b432019	0.002977377
63	0xbc97f442	-0.018549088

bilstm.bias_ih_l0 f4 [64]
0	0xbe1b0501	-0.15138628
1	0xbd145605	-0.036214847
2	0x3e72ad5c	0.23698944
3	0xbceb4f8c	-0.028724454
4	0x3d071264	0.032976523
5	0xbd7c7228	-0.061632305
6	0xbe8d87c3	-0.2764264
7	0x3d075c54	0.033047035
8	0x3e78b1e9	0.24286617
9	0xbe7c95bc	-0.24666494
10	0xbe0b9251	-0.13630034
11	0xbd58db42	-0.052943476
12	0x3d5384a9	0.051640186
13	0xbc1fa3a0	-0.009743601
14	0xbdb396ce	-0.08768998
15	0xbcbb48df	-0.022861896
16	0x3d186e47	0.037214544
17	0x3d899465	0.06717757
18	0x3e2b23cf	0.16712879
19	0x3e643579	0.22286023
20	0x3e57a4c4	0.21058947
21	0x3e25b87c	0.16183656
22	0xbe142d42	-0.1447039
23	0x3e4bc012	0.19897488
24	0xbd7f724d	-0.062364865
25	0x3e39c546	0.1814166
26	0xbe2030f9	-0.15643682
27	0x3e6e92a3	0.23298125
28	0x3e4b2208	0.198372
29	0xbdfd72be	-0.12375401
30	0x3e8fc1c2	0.28077513
31	0x3e4a23a4	0.19740158
32	0x3dcd8846	0.10035758
33	0x3daf9242	0.08572818
34	0x3e40280c	0.18765277
35	0xbe6b54d4	-0.22981578
36	0x3e0a8eeb	0.13531081
37	0x3c008f78	0.007846706
38	0x3e21fcf1	0.15819146
39	0x3e00559e	0.1253266
40	0x3ce40ca0	0.027838051
41	0xbe65f8a7	-0.22458135
42	0xbe518080	-0.20459175
43	0xbe06fd52	-0.13182572
44	0x3e3b558e	0.18294355
45	0xbe7c2b40	-0.24625874
46	0x3e2a2b7e	0.16618153
47	0x3e434ca7	0.1907221
48	0x3e3e21dd	0.18567605
49	0xbe2b3875	-0.16720755
50	0xbe1f5aaf	-0.15561937
51	0x3e682a60	0.22672415
52	0xbe2dd84f	-0.16977046
53	0x3e332e87	0.17498218
54	0xbe02fdb0	-0.12792087
55	0x3e2990ec	0.1655919
56	0x3e91b714	0.2845999
57	0x3e9f73b9	0.31142977
58	0xbe49c4c5	-0.19703968
59	0x3dcddc04	0.1005173
60	0x3e34bd66	0.17650375
61	0x3c0d3fcb	0.008621166
62	0xbe18a5b1	-0.14906956
63	0x3e3da0a6	0.18518314

bilstm.bias_ih_l0_reverse f4 [64]
0	0xbd9fe30f	-0.0780698
1	0x3e2230a8	0.15838873
2	0x3e41044b	0.18849294
3	0xbea8e0b2	-0.3298393
4	0xbe293c56	-0.16526923
5	0x3e5ecec0	0.21758556
6	0x3e58bb03	0.2116509
7	0xbc858bd8	-0.016302034
8	0xbdc0290d	-0.0938283
9	0xbe0cda94	-0.13755256
10	0xbdd077a7	-0.10179072
11	0xbcbc35f0	-0.022974938
12	0xbc17a753	-0.009256202
13	0x3e761819	0.2403263
14	0x3e553c49	0.20823778
15	0xbecfc33a	-0.40578634
16	0xbd30b20c	-0.04313855
17	0x3c3f8616	0.011689683
18	0xbe3ac51a	-0.18239251
19	0xbe767c8e	-0.24070951
20	0xbe172204	-0.1475907
21	0x3e818a2a	0.25300723
22	0xbe067133	-0.1312912
23	0x3c83ca20	0.016087592
24	0x3e83d4d8	0.25748324
25	0x3a8202b6	0.0009919021
26	0xbd8f45a4	-0.06995705
27	0x3ea0c869	0.314029
28	0x3da285f4	0.07935706
29	0x3e8e3cc6	0.2778074
30	0xbdbcc7dc	-0.09217808
31	0xbcdb0f0c	-0.026740573
32	0xbe5927d2	-0.21206596
33	0x3e6f30ad	0.23358412
34	0x3e7ad52b	0.2449538
35	0xbe18911d	-0.14899106
36	0xbd3f04b4	-0.046635345
37	0xbd148b66	-0.036265753
38	0x3e41f695	0.1894172
39	0xbdf3c56c	-0.119028896
40	0xbe189caa	-0.14903513
41	0x3c724a1f	0.01478818
42	0xbe878973	-0.26472053
43	0x3dbcd734	0.09220734
44	0x3d267866	0.040642165
45	0x3db73d36	0.08947222
46	0xbd1033cb	-0.035205644
47	0x3d2cd337	0.042193618
48	0x3e8cf164	0.27527916
49	0xbcd99cf5	-0.0265641
50	0xbcc7b245	-0.024376998
51	0xbe046a01	-0.12931062
52	0x3e5cd0d1	0.21564032
53	0x3d667d72	0.056271978
54	0x3da249e3	0.07924249
55	0x3e5d88e1	0.21634246
56	0x3e66d09a	0.22540513
57	0x3e409a19	0.18808784
58	0xbe53dd86	-0.20689973
59	0xbea1fb60	-0.31637096
60	0xbe1c4561	-0.15260841
61	0x3d9228ab	0.07136663
62	0xbe9c79de	-0.30561727
63	0xbdaca6c8	-0.084302485

bilstm.weight_hh_l0 f4 [64, 16]
0	0xbd3ece71	-0.046583597
1	0xbd59c894	-0.0531698
2	0x3c4c28b9	0.012460881
3	0xbdd7b96a	-0.10533412
4	0x3df0aabb	0.11751314
5	0xbe7b62fa	-0.24549475
6	0x3e18c613	0.1491931
7	0x3d96e130	0.0736717
8	0x3e1f44d5	0.15553601
9	0x3db0e2e1	0.08637024
10	0xbea3246d	-0.31863728
11	0x3e20508d	0.15655728
12	0x3dd4ae5b	0.10384818
13	0xbdcdb865	-0.10044936
14	0xbe0e6a14	-0.13907653
15	0xbcfe58ea	-0.031048257
16	0xbe234839	-0.1594552
17	0x3c9cae00	0.019125938
18	0xbe3cb374	-0.18427831
19	0xbe1c4247	-0.15259658
20	0xbe5d0c52	-0.21586731
21	0xb9295ea8	-0.00016152358
22	0x3ebbda3f	0.36689946
23	0x3e7dc011	0.24780299
24	0x3e791193	0.2432311
25	0xbe4329c3	-0.190589
26	0x3e8aa589	0.27079418
27	0x3bb69de4	0.0055730212
28	0x3d7768e3	0.060402762
29	0x3db64bef	0.08901202
30	0x3eec0b7a	0.46102506
31	0x3e9a3639	0.30119494
32	0x3e6957ea	0.22787443
33	0xbdba59b4	-0.09099141
34	0xbe1a84a5	-0.15089662
35	0x3d916494	0.07099262
36	0x3e5a786b	0.21334998
37	0x3dcedd3f	0.10100793
38	0x3e4dd760	0.2010169
39	0x3e27d9d6	0.16391692
40	0xbe2ea964	-0.17056805
41	0xbdb512d6	-0.08841483
42	0x3da3c52d	0.07996593
43	0xbde88435	-0.113533415
44	0xbcd9fc46	-0.026609551
45	0xbe820fbb	-0.25402626
46	0x3d772358	0.06033644
47	0x3e897c47	0.2685263
48	0xbbbadcf6	-0.00570261
49	0xbd4c003b	-0.049804907
50	0x3e8a8be3	0.2705985
51	0xbd573bb6	-0.05254718
52	0xbe656fd5	-0.22405942
53	0x3d9d090c	0.07667741
54	0x3d8822b3	0.06647243
55	0xbb3b9d87	-0.002862783
56	0xbe2d4979	-0.16922559
57	0xbe2ac55d	-0.1667685
58	0x3e4059e5	0.18784292
59	0xbe73811d	-0.23779722
60	0x3e6795e1	0.22615768
61	0x3ba92b16	0.005162607
62	0xbd946770	-0.07246292
63	0xbe20cd4b	-0.15703313
64	0xbd829729	-0.06376488
65	0xbcf256d2	-0.029582415
66	0xbe019d72	-0.12657717
67	0x3e3b85a9	0.18312706
68	0xbdfdbd64	-0.12389639
69	0x3c919eb7	0.017775876
70	0x3da0c05a	0.07849188
71	0xbe030786	-0.12795839
72	0x3db22d46	0.087000415
73	0xbe6e5958	-0.2327627
74	0xbc9292df	-0.0178923
75	0x3db1bfda	0.08679171
76	0xbd35939a	-0.044330217
77	0xbe0477e8	-0.12936366
78	0xbe84bfcb	-0.25927576
79	0x3e26432a	0.16236559
80	0x3ea62b2c	0.32454813
81	0x3dfbaa3e	0.122883305
82	0xbe4790ec	-0.19488877
83	0x3e4e23a0	0.20130777
84	0x3e6ec4f7	0.23317324
85	0xbd0abddf	-0.03387248
86	0x3dba36f1	0.090925105
87	0xbe31ccf9	-0.17363347
88	0xbd9f6327	-0.07782584
89	0xbe23382a	-0.15939394
90	0xbe69dfbe	-0.22839257
91	0x3e072a14	0.13199645
92	0x3d7f7a7d	0.062372673
93	0x3e47d26d	0.19513865
94	0xbeab64d5	-0.33475366
95	0x3e965d3c	0.29368007
96	0x3e844851	0.25836423
97	0x3e770c26	0.24125728
98	0xbe5932af	-0.2121074
99	0x3e72b0b2	0.23700216
100	0xbca5791a	-0.020199347
101	0x3f013f1a	0.5048691
102	0xbc24f429	-0.010067978
103	0x3e4a87a0	0.197783
104	0x3e123022	0.14276174
105	0xbe890582	-0.26762015
106	0xbe83bd1a	-0.2573021
107	0x3e28bd90	0.16478562
108	0x3f91c35d	1.1387745
109	0x3ea7b871	0.32757905
110	0xbe950417	-0.29104683
111	0x3cedbe75	0.029021481
112	0x3b2eeffd	0.0026693337
113	0x3d13d991	0.03609616
114	0x3ccde3c7	0.025133027
115	0xbe3845c3	-0.17995362
116	0xbe5a8f5d	-0.21343751
117	0x3e1d9716	0.15389666
118	0x3d405832	0.04695911
119	0x3dc02b1d	0.09383223
120	0xb9bb56bf	-0.0003573205
121	0x3e4f9487	0.20271502
122	0x3d2ce6e2	0.042212375
123	0x3d77532d	0.060382057
124	0xbd093c68	-0.033504874
125	0x3e13569f	0.14388512
126	0xbdcfaa12	-0.1013986
127	0x3e82737d	0.25478736
128	0x3dc72fa7	0.09725886
129	0xbcaa8ec8	-0.020820037
130	0xbcee5cb8	-0.029096946
131	0xbe6e4813	-0.23269682
132	0x3d920efc	0.07131764
133	0x3d83e5ca	0.06440313
134	0xbe0ef4f5	-0.13960631
135	0x3d06f8e5	0.032952208
136	0xbdac9f0b	-0.084287725
137	0x3e217883	0.15768628
138	0xbe5f74cf	-0.21821903
139	0x3e4865c1	0.19570066
140	0xbdc907b1	-0.0981592
141	0xbe72fc4e	-0.23729059
142	0x3dc63364	0.09677771
143	0x3e896478	0.26834464
144	0x3d9ec5ee	0.07752596
145	0xbdde44e0	-0.108529806
146	0xbe7f017f	-0.24902914
147	0x3dd12f06	0.10214047
148	0x3e0ff768	0.14059222
149	0xbe8f39dd	-0.27973834
150	0x3e1d0656	0.15334448
151	0x3e2759fa	0.16342917
152	0xbe0b076d	-0.13577051
153	0x3e95c7b8	0.29253936
154	0x3e9e12c8	0.30873704
155	0xbe4d0428	-0.20021117
156	0xbe8d0929	-0.2754605
157	0xbe0901a1	-0.13379528
158	0x3eaa0d31	0.3321319
159	0xbda9a89d	-0.082841136
160	0xbe03dbec	-0.12876862
161	0x3e21533a	0.15754405
162	0x3e0b3819	0.13595618
163	0x3e6ae956	0.22940573
164	0xbce9cb9f	-0.028539477
165	0xbe00e15a	-0.12585965
166	0x3e576efd	0.21038432
167	0x3d8a194c	0.06743106
168	0xbc8884b1	-0.016664835
169	0x3e2ec7cf	0.17068408
170	0xbd2a9e3d	-0.041654814
171	0xbe873c76	-0.26413316
172	0x3ea0389f	0.31293198
173	0x3d148878	0.03626296
174	0xbe5753e5	-0.21028097
175	0x3d77ff3f	0.060546156
176	0x3e3ef9ce	0.1864998
177	0x3d7de15c	0.061982498
178	0x3e2a68c7	0.16641532
179	0xbe2c6dd2	-0.16838768
180	0x3e484ef5	0.1956137
181	0xbe7c16a3	-0.2461801
182	0x3ed6d4da	0.41959268
183	0x3e7ed8de	0.24887416
184	0xbd64321b	-0.055711847
185	0x3b8c8e3c	0.0042894166
186	0x3ea3e599	0.32011107
187	0x3d6abece	0.05731087
188	0xbe8e934d	-0.27846757
189	0xbe16c7aa	-0.14724603
190	0xbdb805ce	-0.08985482
191	0xbe6d24e1	-0.231586
192	0xbe0f5fb3	-0.1400135
193	0xbf029aae	-0.5101727
194	0xbe070013	-0.13183622
195	0xbce78a51	-0.028264197
196	0xbe8eb54a	-0.27872688
197	0xbe080c76	-0.13286003
198	0x3f1a031a	0.6016098
199	0x3daacafb	0.08339497
200	0x3d5c16eb	0.053732794
201	0x3e76719d	0.24066778
202	0xbe89d6a4	-0.2692157
203	0x3d7ecc11	0.06220633
204	0xbf64840e	-0.89264
205	0xbd978855	-0.0739905
206	0x3e9f95cc	0.31168973
207	0x3ee3ffc3	0.44531068
208	0xbd1c4118	-0.038148016
209	0x3dbfaeec	0.093595356
210	0xbe45d1c6	-0.19318303
211	0xbe1fffb2	-0.15624884
212	0x3dffd829	0.12492401
213	0xbe22a7c2	-0.15884307
214	0x3e9c5d83	0.30540094
215	0x3e479747	0.19491301
216	0x3b5fd195	0.003415202
217	0xbadced21	-0.0016855338
218	0x3dc96a0d	0.09834681
219	0x3e0ad84b	0.13559072
220	0xbeb98cc3	-0.36240205
221	0xbe5f1da6	-0.21788654
222	0x3d3b4190	0.045716822
223	0x3e9a31f1	0.30116227
224	0xbdc2a40c	-0.09503946
225	0x3e3141f3	0.17310314
226	0xbe0e3524	-0.13887459
227	0x3e140b67	0.14457475
228	0xbe3c0398	-0.18360746
229	0x3db75643	0.08952
230	0x3e918651	0.28422788
231	0xbe67761e	-0.22603652
232	0xbdc69b57	-0.096975975
233	0xbe0bcc5f	-0.1365218
234	0x3e1bee14	0.15227538
235	0xbbbcefcb	-0.0057658902
236	0xbee0fb5b	-0.4394177
237	0xbd34447b	-0.04401062
238	0x3d3781e4	0.044801608
239	0x3f01e40c	0.50738597
240	0x3e5de63e	0.21669862
241	0x3eb4223b	0.35182366
242	0x3dbf48f8	0.093400896
243	0xbdd1f7f8	-0.102523744
244	0x3e8fddcf	0.28098914
245	0x3ed11005	0.40832534
246	0x3e93fbae	0.28902954
247	0xbe273dc3	-0.16332154
248	0x3e8fca31	0.28083947
249	0xbea26364	-0.31716454
250	0xbd2b9680	-0.041891575
251	0x3eadf329	0.3397458
252	0x3f079234	0.52957463
253	0x3f487d6d	0.78316385
254	0xbe4b77ac	-0.1986987
255	0x3e73d491	0.23811556

bilstm.weight_hh_l0_reverse f4 [64, 16]
0	0x3df1c49b	0.11805078
1	0x3e9de14e	0.30835956
2	0xbdfa6a2c	-0.12227282
3	0x3ecff6b9	0.40617922
4	0xbb874996	-0.004128645
5	0x3bdf380b	0.0068121008
6	0x3e4fa4cc	0.20277709
7	0x3d6aa962	0.057290442
8	0xbe33d5e6	-0.17562065
9	0x3e1b0559	0.15138759
10	0xbe8052f0	-0.25063276
11	0xbdd06684	-0.10175803
12	0xbd50cf70	-0.050979078
13	0xbe5be864	-0.21475369
14	0xbe40034e	-0.1875126
15	0xbca93cf8	-0.020658955
16	0xbdc6134d	-0.0967165
17	0x3d12aca6	0.03580918
18	0xbeb7de14	-0.3591162
19	0xbd1b9f70	-0.03799385
20	0xbefdf2f4	-0.4959942
21	0x3bad0723	0.005280392
22	0xbe2fa089	-0.17151083
23	0xbef049a7	-0.46931192
24	0x3d82d681	0.063885696
25	0x3caf4710	0.02139619
26	0xbdce6890	-0.100785375
27	0xbe83913f	-0.2569675
28	0xbdde3de4	-0.108516484
29	0xbe084d91	-0.13310839
30	0xbe10feb4	-0.14159662
31	0x3d2f4a4e	0.04279547
32	0x3e509469	0.20369114
33	0xbdc34feb	-0.095367275
34	0x3e338738	0.1753205
35	0xbe4427c2	-0.19155791
36	0x3e7e4158	0.24829614
37	0x3e2f2ec1	0.17107679
38	0xbcedc7f0	-0.029026002
39	0xbd36a50f	-0.044591006
40	0x3e8a36a2	0.26994807
41	0xbe3cb90a	-0.18429962
42	0xbe25dda8	-0.16197836
43	0xbdac6668	-0.0841797
44	0xbe007820	-0.12545824
45	0xbcfdb30d	-0.030969167
46	0xbdd177d2	-0.10227932
47	0xbd51d517	-0.05122861
48	0x3eb7b9f9	0.35884073
49	0x3ec3fadc	0.38277328
50	0xbd66f0e6	-0.056382082
51	0x3ebba1e3	0.36646947
52	0xbd72d269	-0.059282694
53	0xbe2ce174	-0.16882879
54	0xbebf6a39	-0.3738573
55	0x3ef4755f	0.47745797
56	0xbdb59884	-0.08866981
57	0x3eacd8af	0.33759066
58	0x3ecb2d26	0.39682883
59	0xbe7481ca	-0.23877636
60	0x3dd1bb57	0.1024081
61	0x3eb15960	0.346385
62	0x3d8adc60	0.067803144
63	0x3d9afb7a	0.075674966
64	0xbeb34d5d	-0.3501996
65	0x3d9d9726	0.07694845
66	0x3e9506c4	0.29106724
67	0x3e3f2e91	0.18670107
68	0x3e9d3f12	0.3071218
69	0xbe0d4f46	-0.13799772
70	0x3dab0f3a	0.083525136
71	0xbf235022	-0.6379415
72	0x3e541173	0.20709781
73	0xbce8bb02	-0.028409485
74	0xbe5c30a8	-0.21502936
75	0xba4f776b	-0.0007914218
76	0x3e406e33	0.18792038
77	0xbe943714	-0.2894827
78	0x3ea37d5d	0.31931582
79	0xbe02ea76	-0.12784752
80	0x3eccf8c4	0.40033543
81	0x3d93606e	0.07196127
82	0x3e954962	0.2915755
83	0xbd456dac	-0.048200294
84	0xbc823edd	-0.015899116
85	0xbece052d	-0.40238324
86	0xbc7455b5	-0.014913012
87	0xbf16cc1d	-0.589052
88	0xbe60f128	-0.21966994
89	0xbe3d2bfb	-0.18473808
90	0x3e831daf	0.25608584
91	0x3d7def2f	0.06199568
92	0x3d2e6e03	0.042585384
93	0xbe49e635	-0.19716723
94	0xbe997013	-0.29968318
95	0xbe604930	-0.21902919
96	0x3dd6d2cb	0.10489424
97	0x3e5d83d9	0.21632327
98	0xbbd66911	-0.0065432866
99	0x3e7d1399	0.24714507
100	0x3db5bf75	0.08874408
101	0x3e4704ce	0.19435427
102	0x3e88c4e0	0.26712704
103	0x3cca82e7	0.024720622
104	0xbe33ebc6	-0.17570409
105	0x3d5b4b11	0.053538386
106	0xbded371c	-0.11582777
107	0x3d7fee75	0.06248327
108	0x3e34505d	0.17608781
109	0x3e2c5d8c	0.1683256
110	0xbe6cccc4	-0.23124987
111	0xbdb63903	-0.08897593
112	0xbe661f57	-0.22472893
113	0xbe1f69aa	-0.15567651
114	0x3e82df6a	0.25561076
115	0x3ec41078	0.38293815
116	0x3dd3e28a	0.10345943
117	0x3da84f60	0.082182646
118	0xbe7e06f9	-0.24807347
119	0xbe26143a	-0.16218653
120	0x3c7736d3	0.015088755
121	0x3e17043e	0.14747712
122	0xbe3b975f	-0.18319462
123	0x3e8e201f	0.2775888
124	0xbca4b0c6	-0.020103823
125	0xbe8fa177	-0.28052875
126	0x3f2fac64	0.6862242
127	0x3d01b909	0.031670604
128	0x3d55f32d	0.052233864
129	0x3e7cdfff	0.24694823
130	0xbe3ce997	-0.18448482
131	0xbe0d28ab	-0.13785045
132	0xbe0b06dd	-0.13576837
133	0xbe13c131	-0.14429165
134	0x3e6064ce	0.21913454
135	0x3c320fdd	0.01086804
136	0xbdd23eb3	-0.10265865
137	0xbccc26e5	-0.02492089
138	0x3dea0bbe	0.11428021
139	0xbdbbd32f	-0.091711394
140	0xbc39353b	-0.011304195
141	0x3e0e5279	0.13898648
142	0x3d131305	0.03590681
143	0xbcfa71b6	-0.0305718
144	0x3e2de570	0.16982055
145	0xbd475745	-0.04866721
146	0x3e6273d5	0.22114499
147	0xbe15525b	-0.14582197
148	0xbe075069	-0.13214268
149	0x3d711047	0.058853414
150	0xbe54fe5e	-0.20800158
151	0xbe2add72	-0.16686037
152	0xbc15ddf0	-0.009147152
153	0xbe2b9ff9	-0.16760243
154	0xbe464040	-0.19360447
155	0x3ddf484f	0.10902464
156	0x3db66368	0.08905679
157	0xbe08d53f	-0.13362597
158	0xbdf7b7f8	-0.12095636
159	0xbe802105	-0.25025192
160	0x3df6e0ff	0.12054633
161	0xbddfe94e	-0.10933171
162	0x3e75802a	0.23974672
163	0xbd1e71d3	-0.03868277
164	0x3e3d130f	0.18464302
165	0x3d1f6f25	0.038924355
166	0x3e317b0e	0.17332098
167	0xbe3de757	-0.1854528
168	0x3d2471b2	0.04014749
169	0x3d652cf3	0.05595107
170	0xbcd41e32	-0.025893304
171	0xbe20bee2	-0.15697816
172	0x3dfc65b4	0.12324086
173	0xbe4168aa	-0.18887582
174	0xbdb9254e	-0.090403184
175	0xbd98fbc9	-0.07469899
176	0x3d90bfa3	0.07067802
177	0x3e927e22	0.28611857
178	0xbdd524d0	-0.10407412
179	0x3c0f6257	0.008751473
180	0x3d8af12d	0.06784282
181	0x3dddc247	0.10828071
182	0x3e93cfab	0.28869376
183	0xbe857b1e	-0.26070493
184	0x3e819a07	0.25312826
185	0xbe8963cf	-0.2683396
186	0xbd0240b1	-0.031799976
187	0xbe368d1a	-0.17827263
188	0x3e2532ff	0.16132735
189	0xbd8eefe6	-0.06979351
190	0x3d2f5071	0.042801324
191	0xbbda7efe	-0.0066679707
192	0xbe1c66a2	-0.15273526
193	0x3e549f73	0.2076395
194	0xbe2aec9d	-0.16691823
195	0xbe2733ac	-0.16328305
196	0xbc597b92	-0.01327409
197	0xbe655350	-0.22395062
198	0x3e881e84	0.26585782
199	0xbdee9442	-0.11649372
200	0xbd3ae3ee	-0.045627527
201	0x3da07934	0.07835618
202	0x3d05249d	0.03250562
203	0xbb10a94c	-0.0022073565
204	0x3d76667f	0.06015634
205	0xbd0d9156	-0.03456243
206	0xbd727dfb	-0.059202176
207	0x3d3290f3	0.043595266
208	0x3d010c89	0.031506095
209	0xbed82899	-0.42218474
210	0x3c79b490	0.015240803
211	0x3de29200	0.110630035
212	0xbdca66e6	-0.098829076
213	0xbc5d47a9	-0.013505855
214	0xbdc28ac7	-0.09499126
215	0x3d0e8d73	0.034802865
216	0x3def8a3e	0.116962895
217	0x3cae6998	0.021290585
218	0xbe954f34	-0.2916199
219	0xbda03424	-0.07822445
220	0xbde6534c	-0.11246356
221	0x3d800035	0.062500395
222	0xbe33837f	-0.1753063
223	0x3ed58157	0.4170024
224	0xbe5b5867	-0.21420442
225	0x3e1f2fa2	0.15545514
226	0xbe5746dc	-0.21023124
227	0xbdb65b4f	-0.089041345
228	0xbd38119e	-0.044938676
229	0xbdeac1e8	-0.11462766
230	0x3dc97fc9	0.09838826
231	0xbdbbdc1d	-0.09172843
232	0xbe7ca1a6	-0.24671039
233	0xbe60ca81	-0.21952249
234	0x3e507ff7	0.20361315
235	0x3d9161d3	0.070987366
236	0x3e7418c6	0.23837575
237	0x3c5fb916	0.013654968
238	0x3e834db4	0.2564522
239	0xbd15febe	-0.036619894
240	0x3e11c274	0.14234334
241	0x3d0ba9c8	0.034097463
242	0x3e031f75	0.12804969
243	0x3da20761	0.07911564
244	0x3d618dca	0.05506686
245	0x3d9e1836	0.077194616
246	0xbedc8281	-0.43068317
247	0x3db26f6e	0.0871266
248	0xbe025479	-0.12727536
249	0x3deba85c	0.115067214
250	0x3eb79461	0.35855392
251	0xbec424e7	-0.38309404
252	0xbe8d0992	-0.27546364
253	0x3e8d40ec	0.27588594
254	0xbe941071	-0.28918794
255	0x3ead001b	0.33789143

bilstm.weight_ih_l0 f4 [64, 32]
0	0x3de4e56d	0.11176572
1	0x3e4b990f	0.19882606
2	0x3db4a673	0.0882081
3	0x3c925932	0.017864797
4	0x3d5c7c99	0.053829763
5	0x3d32b137	0.043626036
6	0xbd2690ed	-0.040665556
7	0x3dff80a1	0.12475706
8	0x3ea9c1e8	0.3315575
9	0xbde90189	-0.11377246
10	0xbdb11928	-0.08647376
11	0xbc3c0c1f	-0.011477499
12	0xbdb2143a	-0.08695264
13	0x3e820de1	0.25401214
14	0xbdcb597e	-0.09929179
15	0x3dff7af6	0.12474625
16	0x3d96e5c5	0.07368044
17	0xbd9910f7	-0.07473939
18	0xbdc3197e	-0.095263466
19	0x3e63382d	0.22189398
20	0x3e7b1491	0.24519564
21	0x3c04048c	0.008057725
22	0x3e8e12bc	0.27748668
23	0x3d44dbd9	0.048061226
24	0xbd6f586c	-0.058433935
25	0x3d8a3ed4	0.06750265
26	0x3e5828a4	0.21109253
27	0x3e2efc1a	0.17088357
28	0xbd89be63	-0.067257665
29	0x3dfb4016	0.12268083
30	0xbe8fad9b	-0.28062138
31	0x3c1d3309	0.009594687
32	0x3d2f51fe	0.042802803
33	0x3d6ea040	0.058258295
34	0x3a7fe79e	0.00097619917
35	0xbe90794b	-0.2821754
36	0xbdcd4b40	-0.100241184
37	0xbdae2460	-0.08503032
38	0xbe10fd00	-0.14159012
39	0xbe67fcc1	-0.22655012
40	0x3e4f9d19	0.20274772
41	0xbe65ad10	-0.224293
42	0x3e2a6f8b	0.16644113
43	0x3e9cd66d	0.30632344
44	0xbd55e646	-0.05222156
45	0xbdd3b214	-0.103367
46	0xbdb9e08f	-0.09076034
47	0xbe9a0126	-0.30079
48	0xbe2a0167	-0.16602097
49	0xbe1f2a03	-0.1554337
50	0x3defc067	0.1170662
51	0xbdceeae3	-0.10103395
52	0xbd6fc274	-0.058535054
53	0x3dd41913	0.10356345
54	0xbdb47819	-0.08811969
55	0xbe3c0a6b	-0.18363349
56	0x3e19dbcd	0.15025254
57	0x3eb421a6	0.35181922
58	0x3e5186fd	0.2046165
59	0xbe5e103c	-0.2168588
60	0xbeba625f	-0.36403176
61	0x3d888d7f	0.06667613
62	0x3e6f1802	0.23349002
63	0xbd87e75e	-0.06635927
64	0x3de65350	0.11246359
65	0x3e7d5d03	0.24742512
66	0xbe2a1c8a	-0.1661245
67	0xbe2d8e25	-0.16948755
68	0x3e789ae3	0.24277835
69	0x3eb2490c	0.34821355
70	0x3deca6cc	0.115552515
71	0x3db23385	0.08701233
72	0x3e0a9a99	0.13535537
73	0x3e3b0715	0.1826442
74	0x3e5ca5f8	0.21547687
75	0xbe41161a	-0.18856087
76	0xbe0a878f	-0.13528274
77	0x3d9bb19c	0.07602236
78	0x3dae76db	0.08518764
79	0x3e0cca91	0.13749148
80	0xbb0b16e9	-0.0021223372
81	0x3e932f14	0.28746855
82	0xbdc1c787	-0.09461885
83	0x3e7ab145	0.24481685
84	0xbaa6d506	-0.0012728281
85	0x3db2261e	0.086986765
86	0x3e860d12	0.26181847
87	0x3e3794c7	0.17927848
88	0xbe351774	-0.17684728
89	0x3e21e5f7	0.15810381
90	0x3d52f2cc	0.05150108
91	0x3e0a7cdf	0.13524197
92	0x3979cb4c	0.00023822224
93	0xbd7d91f9	-0.06190679
94	0x3e988237	0.29786846
95	0x3e5ae6fd	0.21377178
96	0x3e26f634	0.16304857
97	0xbd33ac56	-0.043865524
98	0x3e1f864f	0.15578578
99	0xbe829a03	-0.25508127
100	0xbd8cf540	-0.06882715
101	0x3d5e1cf4	0.05422683
102	0x3e28c293	0.16480474
103	0x3c67116b	0.014103274
104	0xbe3136d0	-0.17306066
105	0x3e6571c7	0.22406684
106	0xbe3d6e9f	-0.1849923
107	0x3dbd2097	0.09234732
108	0x3da67484	0.08127692
109	0xbe4dfcdb	-0.20115988
110	0x3e6046dd	0.21902032
111	0x3e26ca95	0.16288216
112	0x3d64313e	0.055711024
113	0xbe3ce1ed	-0.18445559
114	0xbe65d0c5	-0.2244292
115	0xbdf8d3af	-0.121497504
116	0xbdab4df9	-0.083644815
117	0x3e6eb281	0.23310281
118	0x3d51c0e8	0.05120936
119	0x3d151064	0.036392584
120	0xbe189df3	-0.14904003
121	0x3e655b95	0.22398217
122	0x3e924681	0.28569415
123	0xbe26e202	-0.16297153
124	0x3dcf3f79	0.10119528
125	0x3e54f95f	0.20798253
126	0xbd3d395e	-0.046197288
127	0x3d166a5d	0.03672253
128	0x3d4c00bb	0.049805384
129	0xbe6ed5a5	-0.23323686
130	0xbd7888f6	-0.06067749
131	0x3ed9eec9	0.4256499
132	0x3d612fa0	0.05497706
133	0xbe824bf6	-0.2544858
134	0xbdfb2287	-0.12262445
135	0x3e3f2575	0.18666632
136	0x3d98ba64	0.07457426
137	0x3e40088d	0.18753262
138	0x3e06b714	0.13155776
139	0x3e0b5e9a	0.13610306
140	0x3e391384	0.18073851
141	0xbd757d16	-0.059933744
142	0xbcc3c690	-0.023898393
143	0xbe1107c8	-0.14163125
144	0x3e6a64f0	0.22890067
145	0x3eaff29b	0.3436478
146	0xbe41073e	-0.18850419
147	0x3e302b82	0.17204097
148	0xbd9a2007	-0.0752564
149	0xbe2a1d0c	-0.16612643
150	0xbda6e0bc	-0.081483334
151	0xbe477917	-0.19479786
152	0xbcbcd112	-0.023048911
153	0x3d9ca50c	0.07648668
154	0x3f58c184	0.8467028
155	0xbe3b6fbb	-0.1830434
156	0x3e6c4676	0.23073754
157	0xbe184785	-0.14871033
158	0xbdcf9348	-0.101355135
159	0x3df387bf	0.11891126
160	0x3e85b09a	0.261113
161	0x3cee21da	0.029068876
162	0x3c6e8b34	0.014559556
163	0x3f3e86be	0.7442435
164	0xbe75e68f	-0.24013732
165	0xbe8e9f60	-0.27855968
166	0xbe76526b	-0.24054877
167	0x3d25d5a7	0.040486958
168	0x3ac558fe	0.0015056429
169	0x3ccc016b	0.02490302
170	0x3e972061	0.2951689
171	0x3d4ec6e8	0.05048266
172	0x3e85763f	0.26066777
173	0x3e3770f5	0.17914183
174	0x3c0f7a96	0.008757254
175	0x3e7ac953	0.24490862
176	0x3db82997	0.08992308
177	0xbdf9f1db	-0.122043334
178	0xbe73c99d	-0.23807378
179	0x3ed6d3cd	0.41958466
180	0xbded1432	-0.115761176
181	0x3ebcf9e3	0.36909398
182	0x3d27e8bb	0.040993433
183	0x3cf52cf7	0.029928667
184	0xbc4485e4	-0.011994813
185	0x3d313e95	0.043272574
186	0x3f0740da	0.5283333
187	0xbe6a5402	-0.22883609
188	0x3e89bdc0	0.2690258
189	0x3e617a3b	0.22019283
190	0xbe94c266	-0.29054564
191	0x3e25336c	0.16132897
192	0x3e962606	0.29325885
193	0x3ddf0af7	0.10890763
194	0xbe9c7731	-0.30559686
195	0xbe57c0b1	-0.210696
196	0xbe95a4ff	-0.29227445
197	0x3d1eeee5	0.038802046
198	0xbddcd540	-0.10782862
199	0xbd323e03	-0.04351617
200	0x3e242d90	0.16033006
201	0xbe4a9848	-0.19784653
202	0xbea5b7c1	-0.32366756
203	0xbe0e5542	-0.13899711
204	0xbedb99f2	-0.42890888
205	0x3e367d21	0.1782117
206	0x3db6faab	0.0893453
207	0x3c53874b	0.012910674
208	0x3e2d465c	0.16921371
209	0x3d446599	0.047948454
210	0x3d3d4450	0.046207726
211	0x3e5df672	0.21676043
212	0x3b555f65	0.003255808
213	0xbeb1b101	-0.34705356
214	0x3de86785	0.1134787
215	0xb76d39e0	-1.4139776e-05
216	0xbe4f1252	-0.20221832
217	0x3ec65db9	0.3874338
218	0x3f13ec54	0.57782483
219	0xbe33fd21	-0.1757703
220	0x3d03f51b	0.032216173
221	0xbda469a1	-0.080279596
222	0xbe1f6e9d	-0.1556954
223	0x3ec1c18f	0.37842986
224	0x3e3e734e	0.18598673
225	0x3e0f5274	0.13996297
226	0xbc872af3	-0.016499972
227	0xbd80d518	-0.062906444
228	0x3e6fe2cb	0.23426358
229	0x3dd560ff	0.10418891
230	0x3e8875fa	0.2665251
231	0x3b894d3e	0.004190116
232	0x3d1f969d	0.038961995
233	0x3e19a137	0.15002905
234	0xbd9b5ccf	-0.07586061
235	0xbdf41236	-0.11917536
236	0x3e8c7717	0.27434608
237	0x3e67c9b5	0.22635539
238	0x3e07f6ae	0.13277695
239	0x3d3a707f	0.04551744
240	0xbd2896f4	-0.041159585
241	0x3da34df3	0.07973852
242	0xbe0e526f	-0.13898633
243	0x3e255403	0.16145329
244	0x3da53ff5	0.080688395
245	0x3e14ed52	0.14543656
246	0xbc905076	-0.017616492
247	0x3c01094f	0.0078757545
248	0xbe1f67fd	-0.15567012
249	0xbd5b83f6	-0.053592645
250	0x3e151888	0.14560139
251	0x3e431d7f	0.1905422
252	0x3db8b9e4	0.09019831
253	0x3e306f13	0.17229871
254	0x3e6fa46f	0.2340257
255	0x3da8cba9	0.0824197

bilstm.weight_ih_l0_reverse f4 [64, 32]
0	0x3e04fdcc	0.12987441
1	0xbd50e5a7	-0.051000264
2	0x3cb1654e	0.021654751
3	0x3d101f00	0.035185814
4	0x3e757fb7	0.239745
5	0x3eaff4a3	0.3436633
6	0x3e6b73a2	0.22993329
7	0x3e738b91	0.23783709
8	0x3e9820e8	0.29712605
9	0xbcf5cf49	-0.030006068
10	0xbe437afb	-0.19089882
11	0xbe194035	-0.149659
12	0x3e88b54a	0.26700813
13	0xbe3d41b4	-0.18482095
14	0x3e5cbf6a	0.21557394
15	0x3de95681	0.113934524
16	0xbe33da66	-0.17563781
17	0x3da072e0	0.07834411
18	0x3deac3ca	0.11463125
19	0x3d5e04f1	0.05420393
20	0x3e19b09e	0.1500878
21	0x3e6fc9f8	0.23416889
22	0x3d645fdb	0.055755477
23	0x3d5376c8	0.05162695
24	0xbe016cd6	-0.12639174
25	0x3d483f1a	0.048888303
26	0x3f6d5a4e	0.9271592
27	0xbe36442d	-0.17799444
28	0x3e238c1b	0.15971415
29	0xbe3e29ee	-0.18570682
30	0xbe88132f	-0.26577136
31	0x3d96efab	0.07369932
32	0xbedf46f9	-0.43608835
33	0x3e26842e	0.1626136
34	0xbe48a988	-0.19595921
35	0x3e88de48	0.26732087
36	0xbc3ee87f	-0.011652111
37	0xbe91791e	-0.28412718
38	0x3e1d3879	0.15353574
39	0xbe9f225f	-0.3108091
40	0x3d436180	0.047700405
41	0xbe6ebd3c	-0.23314375
42	0xbe21ea06	-0.15811929
43	0xbe74d6dd	-0.23910089
44	0xbec59e7a	-0.3859747
45	0x3d9e65eb	0.07734283
46	0xbd091a52	-0.033472367
47	0x3e9193c6	0.28433055
48	0x3c64c10c	0.013962042
49	0x3e7d9f2c	0.2476775
50	0x3dde3323	0.10849597
51	0x3e4dc8be	0.20096108
52	0x3e227d43	0.15868096
53	0xbe3f2956	-0.18668112
54	0x3d4ed23d	0.050493468
55	0xbe5c2e61	-0.21502067
56	0xbd646542	-0.05576063
57	0xbea74d89	-0.32676342
58	0xbf119886	-0.5687336
59	0xbee3aaaf	-0.4446616
60	0xbe172044	-0.14758402
61	0xbd0c5272	-0.034258313
62	0xbdc4257c	-0.09577462
63	0xbe04c266	-0.12964782
64	0x3e3d7ce9	0.1850468
65	0x3d0772a8	0.03306833
66	0x3e87d47e	0.26529306
67	0xbc4b6626	-0.012414491
68	0xbddfa617	-0.10920351
69	0xbdeb9e92	-0.11504854
70	0x3dcb80fe	0.09936713
71	0xbc6de9eb	-0.014521102
72	0xbb3677cd	-0.0027842403
73	0xbd88664c	-0.066601366
74	0xbe667ae4	-0.22507817
75	0xbe184357	-0.14869438
76	0x3e755d9f	0.23961495
77	0x3dbd1b62	0.092337385
78	0xbe57ba3e	-0.2106714
79	0x3e526c20	0.20549059
80	0x3c97fa7c	0.018552057
81	0x3e581144	0.21100336
82	0x3e6bc70a	0.23025146
83	0x3e77410b	0.24145906
84	0x3e66dcac	0.22545117
85	0x3e7e217a	0.24817458
86	0x3e29397e	0.16525838
87	0x3def1bf1	0.11675251
88	0x3d372dcc	0.04472141
89	0x3e68fd13	0.2275279
90	0x3dd8f72c	0.10594019
91	0x3e276439	0.16346826
92	0x3b6495c1	0.00348793
93	0x3db914c6	0.09037165
94	0x3e253d46	0.16136655
95	0x3e4f2632	0.20229414
96	0xbc8cb84d	-0.017177725
97	0xbda79e29	-0.081844635
98	0xbe83c381	-0.25735095
99	0xbe0ba08a	-0.1363546
100	0xbec5707f	-0.3856239
101	0x3d72c81d	0.059272874
102	0x3d872ba4	0.06600121
103	0xbe8f4dd2	-0.2798906
104	0x3db6840e	0.08911906
105	0x3dddde8c	0.10833463
106	0xbdf36530	-0.11884534
107	0xbe3dbe05	-0.18529518
108	0x3d135976	0.03597399
109	0xbe36e99a	-0.1786255
110	0xbe39f7ca	-0.1816093
111	0x3d3e3bb4	0.046443656
112	0x3ea04eea	0.31310207
113	0x3d9e729f	0.07736706
114	0xbdc49810	-0.09599316
115	0x3e7ed6e4	0.24886662
116	0x3d6fd378	0.05855128
117	0xbea0dd79	-0.3141897
118	0x3e56c1dc	0.20972389
119	0x3ec74a61	0.38923934
120	0xbea1626f	-0.3152041
121	0x3e99f21f	0.30067536
122	0xbf19dac4	-0.60099435
123	0x3ea4f54b	0.32218394
124	0xbe0080ef	-0.12549184
125	0x3d0dbf92	0.034606524
126	0xbe3542b0	-0.1770122
127	0xbe8c8001	-0.2744141
128	0x3e27ebe8	0.16398585
129	0x3dc11f98	0.09429854
130	0xbe98bfb0	-0.29833746
131	0x3dba0088	0.090821326
132	0x3cbd015e	0.023071941
133	0xbeffa19e	-0.49927992
134	0xbda7b281	-0.08188344
135	0x3d84f3f7	0.06491845
136	0xbe8a8119	-0.2705162
137	0xbdbed9b9	-0.09318871
138	0x3cc03edb	0.023467472
139	0x3e092525	0.13393076
140	0x3d2ca4a0	0.042149186
141	0x3e77ec33	0.24211197
142	0x3f03febd	0.51560575
143	0xbde0b307	-0.10971647
144	0xbdc792c2	-0.09744789
145	0xbea0911d	-0.31360713
146	0xbeb2de02	-0.34935004
147	0xbe875c62	-0.2643767
148	0x3dd519dc	0.10405323
149	0x3e4c8617	0.19973026
150	0xbe7399d4	-0.2378915
151	0x3e5ed762	0.2176185
152	0x3e80fc52	0.25192505
153	0x3dbfc415	0.093635716
154	0x3dcd944b	0.1003805
155	0x3e351d3d	0.17686935
156	0xbdeb3f6b	-0.114867054
157	0x3e136893	0.1439536
158	0xbd90850a	-0.07056625
159	0xbec391ae	-0.38197082
160	0xbe70545d	-0.23469682
161	0xbe0e4969	-0.13895191
162	0xbcf951e2	-0.030434553
163	0xbe8ea215	-0.27858034
164	0xbd792f88	-0.060836345
165	0xbd1fed11	-0.039044444
166	0xbdaac114	-0.08337608
167	0xbea92ac2	-0.33040434
168	0x3ed5f1da	0.4178608
169	0xbdcf52c0	-0.10123205
170	0xbe9e583b	-0.3092669
171	0xbcc3c6c9	-0.0238985
172	0xbe9bfb58	-0.30465198
173	0x3e7283d2	0.23683098
174	0xbd50d690	-0.050985873
175	0xbd73fd89	-0.05956796
176	0xbd8152b5	-0.06314603
177	0x3d12d9bf	0.03585219
178	0xbdfdc4ec	-0.123910755
179	0x3e948724	0.29009354
180	0xbe0b8f56	-0.13628897
181	0xbc0e50ad	-0.008686227
182	0x3e2e8a6d	0.17044993
183	0xbd2033c4	-0.039111868
184	0x3e41001f	0.18847702
185	0xbe1da086	-0.15393266
186	0x3e32dd40	0.17467213
187	0xbd7d258f	-0.061803397
188	0x3dd6b134	0.104830176
189	0x3dd0b1eb	0.10190185
190	0x3d820128	0.06347877
191	0xbeaf5afb	-0.342491
192	0xbd51b80e	-0.05120092
193	0xbdc8207e	-0.097718224
194	0xbe403522	-0.18770269
195	0x3e81ee93	0.2537733
196	0x3df7d3ae	0.121009216
197	0x3ea1ed94	0.3162657
198	0x3e84c72a	0.259332
199	0xbd7da56e	-0.061925344
200	0x3db1097d	0.08644388
201	0xbd81e667	-0.06342774
202	0x3edcd4fb	0.4313124
203	0x3e8621e3	0.2619773
204	0x3e9668e3	0.29376897
205	0x3e3ce75f	0.18447636
206	0xbdcedcdb	-0.101007186
207	0xbe53f7a8	-0.20699942
208	0x3e200144	0.15625483
209	0x3e6bbaba	0.2302045
210	0x3db0915d	0.08621476
211	0xbc9d3873	-0.019191956
212	0x3d4d0542	0.050053842
213	0xbddec917	-0.108781986
214	0xbdf1c27c	-0.11804673
215	0x3e8df471	0.27725556
216	0xbd5750cf	-0.0525673
217	0x3dcbd384	0.09952453
218	0x3f31be87	0.69431347
219	0x3d6c1f22	0.057646878
220	0x371e0465	9.418557e-06
221	0xbdae4812	-0.0850984
222	0x3dda2aac	0.1065267
223	0xbdaecb04	-0.08534816
224	0xbed6e424	-0.41970932
225	0xbcff7616	-0.031184237
226	0xbca8da69	-0.020611959
227	0xbe11ae2b	-0.14226596
228	0xbd107419	-0.03526697
229	0x3de4a535	0.11164323
230	0xbdf0a6fd	-0.117506005
231	0xbe93a8aa	-0.28839618
232	0x3dd06187	0.10174852
233	0xbd8cc39d	-0.06873248
234	0x3ee54182	0.4477654
235	0x3d969e65	0.0735443
236	0x3e8f1487	0.2794535
237	0xbcbcadd2	-0.023032103
238	0x3dcb16a7	0.0991643
239	0xbc97b3db	-0.018518379
240	0xbd57869e	-0.052618615
241	0xbe5b4445	-0.21412762
242	0xbe3f5320	-0.18684053
243	0x3dfe3f02	0.124143615
244	0xbd9d1a17	-0.07670992
245	0xbdcf23cb	-0.10114249
246	0xbd50f35d	-0.05101334
247	0xbebe4057	-0.37158462
248	0xbdeb18f3	-0.11479368
249	0x3dc8edb6	0.09810965
250	0x3e82b8ef	0.25531718
251	0x3df39a2b	0.118946396
252	0xbeafae50	-0.34312677
253	0xbe2a665c	-0.1664061
254	0x3e2f1b55	0.1710027
255	0x3e966f44	0.29381764

parallel_cnn_block.branches.0.0.weight f4 [1, 1, 2]
0	0x3ebacfb4	0.3648659
1	0x3f3cf08a	0.73804533

parallel_cnn_block.branches.0.2.bias f4 [16]
0	0x3dd5f4f2	0.1044711
1	0x3ee0cc7f	0.43906018
2	0x3f3a8362	0.72856724
3	0x3ed16ece	0.4090485
4	0xbf0bf789	-0.54674584
5	0xba309dc5	-0.00067373767
6	0x3c752d5d	0.014964429
7	0xbeb3b455	-0.3509852
8	0xbdd23b6f	-0.10265242
9	0x3eef762d	0.46769848
10	0x3e743dd6	0.23851714
11	0x3f039a58	0.51407385
12	0xba526545	-0.00080259546
13	0x3ef9f3dc	0.48818862
14	0x3e9283df	0.28616235
15	0x3f0b3aa8	0.5438638

parallel_cnn_block.branches.0.2.weight f4 [16, 1, 2]
0	0xbf0244e3	-0.5088636
1	0x3efabc37	0.48971722
2	0xbdee8671	-0.116467364
3	0x3ebe3f7e	0.37157816
4	0xbeb70295	-0.35744157
5	0xbf8e2841	-1.1106035
6	0xbf6eb96d	-0.9325169
7	0xbfaeff12	-1.3671591
8	0xbdc373ce	-0.09543572
9	0xbe53c68a	-0.20681205
10	0x3f12abbb	0.5729329
11	0x3e65a160	0.22424841
12	0xbe9c4978	-0.30524802
13	0x3ed0f598	0.40812373
14	0xbeee81f6	-0.46583527
15	0xbf0a09db	-0.5392129
16	0xbe95e054	-0.2927271
17	0x3eb823a6	0.35964698
18	0xbd59d1ad	-0.053178478
19	0x3c51ab76	0.012797227
20	0xbef68b98	-0.48153377
21	0x3ef45ed3	0.47728595
22	0xbe9fd201	-0.31214908
23	0x3eb73aa4	0.35786927
24	0x3eef5efe	0.4675216
25	0x3ef95ec2	0.48705107
26	0x3eeb3719	0.45940474
27	0xbda38507	-0.07984357
28	0xbed0f79b	-0.40813908
29	0x3ece4a3b	0.40291008
30	0xbde94ef5	-0.11392013
31	0x3d84895b	0.06471511

parallel_cnn_block.branches.1.0.weight f4 [1, 1, 4]
0	0x3eafeeee	0.34361976
1	0xbbf2163d	-0.007387905
2	0xbe1f22c1	-0.15540601
3	0xbd99b316	-0.07504861

parallel_cnn_block.branches.1.2.bias f4 [32]
0	0xbe99cdb9	-0.30039766
1	0x3e1f56c1	0.15560438
2	0x3d543f4c	0.051818177
3	0x3e0c3381	0.13691522
4	0xbf0e8f2f	-0.5568723
5	0xbe4da2c6	-0.20081624
6	0x3eea6666	0.4578125
7	0x3dbb1b8b	0.09136113
8	0x3d5076ae	0.05089443
9	0x3ddb3073	0.107026
10	0x3e56b860	0.20968771
11	0x3e3d5408	0.18489087
12	0x3e3ab904	0.1823464
13	0xbf2f4856	-0.6846975
14	0x3ead60bf	0.33862874
15	0xbee3b472	-0.44473606
16	0xbea25b50	-0.3171029
17	0xbe729fb2	-0.23693731
18	0x3a4052c1	0.000733655
19	0xbdb6654c	-0.089060396
20	0xbf1efa8f	-0.6210107
21	0x3dcc7221	0.09982706
22	0xbd967a99	-0.073476024
23	0x3e9f74b1	0.31143716
24	0xbe6a0e02	-0.22856906
25	0x3eafc9de	0.343337
26	0xbe4c2d57	-0.19939171
27	0x3e9ed9ae	0.3102545
28	0xbe425584	-0.18977934
29	0xbe910da6	-0.28330725
30	0x3d483978	0.04888293
31	0xbe0fa056	-0.14026007

parallel_cnn_block.branches.1.2.weight f4 [32, 1, 4]
0	0xbd820489	-0.06348521
1	0x3edf5684	0.43620694
2	0xbec31171	-0.38099244
3	0xbf04dd70	-0.51900387
4	0xbed2f1e6	-0.4120018
5	0xbf17abd0	-0.5924654
6	0x3c933600	0.017970085
7	0x3f0f655b	0.5601403
8	0x3dd196a5	0.10233811
9	0x3ec190fa	0.3780592
10	0xbf1abe92	-0.6044704
11	0x3eba9923	0.3644496
12	0xbeb70ff2	-0.35754353
13	0xbf21ca58	-0.6319938
14	0x3e1035cf	0.14083026
15	0x3ee751c0	0.45179558
16	0x3e587356	0.21137747
17	0x3dde729f	0.10861706
18	0x3e28bd21	0.16478397
19	0x3f38e997	0.7223143
20	0x3eba1437	0.36343548
21	0xbf782b09	-0.96940666
22	0x3eabf5e4	0.33586037
23	0xbeca4336	-0.39504403
24	0xbf1bbd5b	-0.6083581
25	0xbd2e429d	-0.042543996
26	0xbf04d470	-0.51886654
27	0x3db02097	0.08599966
28	0xbcd03b46	-0.025418889
29	0x3e9a2b89	0.3011134
30	0x3cc3e5a2	0.023913208
31	0xbf0a543a	-0.5403477
32	0xbecc8388	-0.399441
33	0x3e082cfb	0.13298409
34	0x3f23124d	0.636998
35	0xbefe8764	-0.4971267
36	0x3ecf7a6a	0.40523082
37	0x3efdbbb5	0.49557272
38	0x3df35353	0.11881127
39	0x3ebb56f3	0.36589774
40	0xbb1a75c6	-0.0023568734
41	0x3e0e8c90	0.13920808
42	0xbf3caaf4	-0.73698354
43	0x3dd8fc49	0.105949946
44	0xbf05b306	-0.52226293
45	0xbadea046	-0.0016985021
46	0x3d836f33	0.06417694
47	0x3ee19217	0.4405677
48	0x3e0356b5	0.12826045
49	0x3ea7f981	0.32807544
50	0xbece4178	-0.40284324
51	0xbf0d1080	-0.551033
52	0x3d129878	0.035789937
53	0x3dae59ff	0.08513259
54	0x3ef6bbc4	0.4819013
55	0x3e6fa969	0.23404469
56	0xbe354038	-0.17700279
57	0xbef9b1e9	-0.48768547
58	0xbe8279b9	-0.25483492
59	0x3da2881b	0.07936116
60	0x3db93a8f	0.09044372
61	0xbebd7cc3	-0.37009248
62	0xbef97b89	-0.48727062
63	0x3d2d781c	0.042350873
64	0xbf2f29fe	-0.6842345
65	0x3ec75304	0.38930523
66	0xbd26ed1e	-0.040753476
67	0xbe3643e1	-0.17799331
68	0x3dc2b5df	0.095073454
69	0x3d86696a	0.06563075
70	0xbe18d51b	-0.14925043
71	0x3f07e38f	0.530816
72	0xbd830066	-0.0639656
73	0x3f1add2e	0.60493743
74	0x3f0b07bf	0.54308695
75	0xbec922d7	-0.39284393
76	0x3f095e48	0.53659487
77	0xbe953ccc	-0.29147947
78	0x3e503a9f	0.20334862
79	0x3eb30517	0.3496482
80	0x3d01f96b	0.031732004
81	0xbce1acd5	-0.027548233
82	0x3f45901a	0.77173007
83	0x3dfecb2c	0.12441096
84	0xbea04d25	-0.31308857
85	0x3e0e5f9c	0.1390366
86	0xbeda1885	-0.42596832
87	0x3e8425a7	0.25809976
88	0x3f0d416d	0.55177957
89	0x3ed67e13	0.41893062
90	0x3f125384	0.57158685
91	0x3f23ccba	0.6398426
92	0xbeff2c75	-0.49838606
93	0x3d0f39a2	0.034967072
94	0x3e812246	0.2522146
95	0x3e77c525	0.24196298
96	0x3e24d2c3	0.16096024
97	0x3ee22a5a	0.44172937
98	0xbebac3ab	-0.36477408
99	0x3ed5fe4e	0.41795582
100	0xbf078285	-0.5293353
101	0xbda0eb78	-0.07857412
102	0xbed97e61	-0.42479232
103	0x3e3ee20e	0.1864092
104	0x3ee4d384	0.44692624
105	0x3d953dd8	0.072871864
106	0x3dac67e6	0.084182546
107	0x3ed1bf79	0.40966395
108	0xbe124ec7	-0.14287864
109	0xbf1bcb12	-0.60856736
110	0x3d898de9	0.0671652
111	0x3eab4e37	0.3345811
112	0x3ec9e3a0	0.39431477
113	0x3d18d1bc	0.037309393
114	0x3f03bff0	0.5146475
115	0x3f2dc4a7	0.6787819
116	0x3dd0c0b0	0.10193002
117	0x3f16736c	0.5876987
118	0x3f2fd516	0.6868452
119	0xbdaf062c	-0.08546099
120	0x3e052c01	0.13005067
121	0x3e421f09	0.18957151
122	0xbf207333	-0.6267578
123	0xbf09a2f9	-0.537643
124	0x3ee83bd1	0.45358136
125	0xbc70fe1e	-0.014709024
126	0xbdfa43ed	-0.12219987
127	0x3f082861	0.53186613

parallel_cnn_block.branches.2.0.weight f4 [1, 1, 8]
0	0x3ce29c66	0.027662467
1	0x3e702638	0.2345208
2	0xbdbf8161	-0.09350849
3	0x3ecfdacb	0.40596613
4	0xbe6902c5	-0.22754963
5	0xbeebc418	-0.46048045
6	0xbe390e87	-0.18071948
7	0x3e89c0ff	0.26905057

parallel_cnn_block.branches.2.2.bias f4 [64]
0	0x3e04ae7e	0.12957188
1	0xbf3f363d	-0.74692136
2	0xbe60b26d	-0.21943064
3	0xba8c1130	-0.0010686275
4	0x3b6e2f56	0.0036344132
5	0x3eba2083	0.3635293
6	0xbeeaf48f	-0.45889708
7	0xbf494729	-0.78624207
8	0x3e7a088f	0.24417327
9	0x3ea3f4da	0.32022744
10	0x3ea086dc	0.3135289
11	0x3e23c05d	0.1599135
12	0xbf84287e	-1.0324857
13	0x3e9bb2ae	0.3040976
14	0x3e418892	0.18899754
15	0xbf6c38cd	-0.9227417
16	0x3e6bfdbd	0.23046012
17	0xb9531e12	-0.0002013373
18	0x3d996ea6	0.07491808
19	0xbeab6314	-0.33474028
20	0xbf83ec96	-1.0306575
21	0xbd702987	-0.058633354
22	0xbe8fee3d	-0.2811145
23	0x3e635c43	0.22203164
24	0x3c8b42e3	0.016999668
25	0xbf2eea0c	-0.6832588
26	0xbee2bca7	-0.44284555
27	0x3e2b1d31	0.16710354
28	0x3e8e2640	0.27763557
29	0xbf805f74	-1.002913
30	0x3840bcc0	4.5952154e-05
31	0x3e2528fb	0.16128914
32	0x3c59e286	0.013298636
33	0xbe7b9559	-0.2456869
34	0xbf233e8c	-0.63767314
35	0x3c0dfc76	0.008666148
36	0x3e85a18b	0.2609981
37	0xbd4381af	-0.047731098
38	0xbe404777	-0.18777262
39	0x3e986723	0.29766187
40	0x3e094f04	0.13409048
41	0xbf259763	-0.6468412
42	0x3e5af162	0.21381143
43	0x3ea6520e	0.32484478
44	0x3e8841cd	0.26612702
45	0x3e9c7252	0.3055597
46	0x3ec1c7a3	0.37847623
47	0x3c4383b7	0.011933259
48	0xbf0acdd9	-0.5422035
49	0xbd83dc62	-0.06438519
50	0x3e048fa0	0.12945414
51	0xbca5a399	-0.020219611
52	0xba330270	-0.00068286713
53	0x3c8782db	0.016541889
54	0x3adefdc4	0.0017012884
55	0xbf5d39c9	-0.864163
56	0x3e5c3f7e	0.21508595
57	0x3db01df9	0.08599467
58	0xbf3cb203	-0.73709124
59	0xbef8c14a	-0.48584968
60	0x3c51154a	0.012761423
61	0x3c26d240	0.010181963
62	0xbecf532e	-0.4049315
63	0xbb9bb7fc	-0.0047521573

parallel_cnn_block.branches.2.2.weight f4 [64, 1, 8]
0	0xba90a100	-0.001103431
1	0x3be45c3c	0.006969003
2	0x3e94307b	0.28943238
3	0x3e49aa11	0.19693781
4	0xbbf4728f	-0.0074599455
5	0xbe20eb42	-0.15714744
6	0x3eaa59af	0.33271548
7	0xbe8dc67b	-0.2769049
8	0x3dde9310	0.10867894
9	0xbdb9896d	-0.09059415
10	0x3d39b45f	0.04533803
11	0x3d4b1eee	0.049590044
12	0xbd835b75	-0.064139284
13	0x3c888f1b	0.0166698
14	0xbc12f58c	-0.008969676
15	0x3ee2ef21	0.44323066
16	0xbe4cb601	-0.19991304
17	0x3eb25aaf	0.3483481
18	0xbef24b63	-0.4732314
19	0xbcd936eb	-0.026515445
20	0x3f132649	0.57480294
21	0x3dbceb3b	0.09224554
22	0xbef6ba15	-0.48188844
23	0x3e412ec5	0.18865497
24	0x3f111f5f	0.56688493
25	0x3d2605f0	0.040533006
26	0x3ced0713	0.028934037
27	0x3e230a44	0.15921885
28	0x3e80e5a2	0.25175196
29	0xbddf1b33	-0.1089386
30	0x3e8520ac	0.2600149
31	0xbdf033f7	-0.117286615
32	0xbbc103f8	-0.0058903657
33	0x3e847f0a	0.25878173
34	0xbcde6d23	-0.02715165
35	0x3dee790c	0.116441816
36	0x3f074183	0.5283434
37	0x3ed9f234	0.425676
38	0x3e1ae4eb	0.15126388
39	0xbe822807	-0.25421163
40	0x3e0d7e6b	0.13817756
41	0xbdc7c298	-0.09753913
42	0x3e331cfc	0.17491525
43	0xbe2b2a57	-0.1671537
44	0x3df47604	0.11936572
45	0xbe9ec3ad	-0.31008664
46	0xbe2c049a	-0.1679863
47	0x3e73e7e1	0.23818924
48	0x3f0b5ef9	0.5444179
49	0x3ce8a8e7	0.028400851
50	0x3c977c2d	0.018491829
51	0x3d74772c	0.059683964
52	0x3daf5b41	0.08562327
53	0xbe4836f3	-0.19552211
54	0x3e7314a6	0.23738346
55	0x3e0e0e58	0.13872659
56	0xbe03ecf0	-0.12883353
57	0xbe9e5649	-0.30925205
58	0x3db967ff	0.09053039
59	0x3be12455	0.006870786
60	0xbedcd100	-0.43128204
61	0x3e6b5116	0.2298015
62	0x3e99ea6c	0.30061662
63	0x3cf3c531	0.029757114
64	0xbe93d446	-0.2887289
65	0x3ec8a913	0.39191493
66	0x3e8e9180	0.27845383
67	0x3edff604	0.43742383
68	0xbe4f2d25	-0.20232065
69	0x3e3df726	0.18551311
70	0xbe24ff92	-0.16113117
71	0xbe3a463c	-0.18190855
72	0x3e91c4f4	0.28470576
73	0xbeaba9ed	-0.3352808
74	0xbe8cceba	-0.2750147
75	0xbedc897e	-0.43073648
76	0x3ec1c44f	0.37845084
77	0xbe48dc5a	-0.19615307
78	0x3da614fb	0.081094705
79	0xbed4c375	-0.41555372
80	0xbd73a3b0	-0.059482276
81	0x3e00c1f8	0.12573993
82	0x3e8e0a04	0.27742016
83	0x3ed3e1fb	0.41383347
84	0xbe0799ee	-0.13242313
85	0xbe2a2df5	-0.16619094
86	0xbc9cc579	-0.019137131
87	0xbbfda082	-0.0077400813
88	0x3cc0878f	0.02350214
89	0x3e0390e3	0.12848239
90	0x3ebd2ec4	0.36949742
91	0x3e10a902	0.14126971
92	0xbd43d877	-0.04781386
93	0xba1b129d	-0.00059155544
94	0xbe9edd88	-0.3102839
95	0xbe78d123	-0.2429853
96	0x3d18abe5	0.037273306
97	0x3e50906f	0.20367597
98	0x3c430f85	0.011905556
99	0xbdc22698	-0.094800174
100	0x3d0c3c13	0.03423698
101	0x3ca03ea3	0.019561118
102	0xbdac2a4b	-0.08406504
103	0x3e9caf70	0.30602598
104	0xbe80bb60	-0.25142956
105	0xbe63c6b9	-0.22243775
106	0x3a41f2bd	0.00073985365
107	0xbe404cd6	-0.1877931
108	0xbe85c2a8	-0.26125073
109	0xbe76cc6b	-0.24101417
110	0xbdf93c43	-0.12169697
111	0x3ea4fc07	0.32223532
112	0xbe97c52d	-0.2964262
113	0xbb9d7088	-0.0048046745
114	0xbd233d2a	-0.039853252
115	0xbe347555	-0.17622884
116	0xbe97a3d4	-0.29617178
117	0x3ec91a3b	0.39277825
118	0xbd949cbc	-0.07256457
119	0x3e41d9e9	0.18930782
120	0xbd57c141	-0.052674536
121	0xbe0142a6	-0.1262308
122	0x3da8d2ba	0.08243318
123	0xbe8485c5	-0.25883308
124	0xbdfe9f04	-0.124326736
125	0x3d4a9d55	0.04946645
126	0xbc944a22	-0.018101756
127	0x3e3a01d2	0.18164757
128	0x3d9d7f27	0.07690268
129	0xbe428d89	-0.18999304
130	0xbe547ab2	-0.2074993
131	0x3e5530f7	0.2081946
132	0x3e13d0ec	0.14435166
133	0xbddbd162	-0.10733296
134	0x3d4fa180	0.050691128
135	0x3e8b6b91	0.27230504
136	0x3e99379b	0.29925236
137	0xbe317581	-0.1732998
138	0xbe81fde8	-0.25389028
139	0x3eb0ae75	0.345081
140	0x3ef8da11	0.4860387
141	0x3eec9fbf	0.46215627
142	0x3eb834a6	0.35977668
143	0xbe7b34fc	-0.2453193
144	0xbd8f010f	-0.06982624
145	0x3e87b7b2	0.26507336
146	0xbe5a436f	-0.21314786
147	0xbd017439	-0.03160498
148	0x3e80e240	0.25172615
149	0x3e555a97	0.20835339
150	0x3e1a621d	0.1507649
151	0xbe995f94	-0.29955733
152	0xbd6df33a	-0.058093287
153	0xbdb1c00a	-0.08679207
154	0xbe84527c	-0.2584418
155	0xbeb2a008	-0.3488772
156	0xbe86dac9	-0.26338795
157	0x3be6748d	0.007032937
158	0xbe5846bd	-0.21120735
159	0xbcb0a49b	-0.021562865
160	0x3cf9b43c	0.03048145
161	0xbea84dd8	-0.3287189
162	0x3dce5ddb	0.10076495
163	0xbe2061b9	-0.15662278
164	0xbd08b9bc	-0.033380255
165	0x3c56726d	0.013088805
166	0x3cee4a04	0.029088028
167	0x3e333fc6	0.17504796
168	0x3e9368d2	0.2879091
169	0x3e248850	0.16067624
170	0x3e923882	0.28558737
171	0x3f01c904	0.5069735
172	0x3e7d7cd5	0.24754651
173	0xbeaa403a	-0.33252126
174	0x3e0b6ba5	0.13615282
175	0x3ec53c95	0.38522783
176	0x3e76adbc	0.24089712
177	0xbeecd49e	-0.46255964
178	0xbe3f9a32	-0.18711165
179	0x3ddbe4e4	0.10737017
180	0xbe805e90	-0.25072145
181	0xbd220d06	-0.0395632
182	0x3eb47d61	0.35251907
183	0xbe164915	-0.14676316
184	0x3e1b6410	0.1517489
185	0x3e4eebec	0.20207185
186	0xbe5dafa3	-0.21649031
187	0x3e7fbf15	0.24975236
188	0x3e87480e	0.2642216
189	0xbe14a364	-0.14515454
190	0xbe3315e1	-0.17488815
191	0xbbeae2d3	-0.007168153
192	0xbd6424dd	-0.055699218
193	0x3eafd950	0.34345484
194	0xbe980a53	-0.29695377
195	0xbfaea3f6	-1.3643787
196	0xbda36af7	-0.07979386
197	0x3e8729e0	0.26399136
198	0x3ebc78cd	0.36810914
199	0x3e8ce4fd	0.27518454
200	0xbf00ee81	-0.5036393
201	0x3b7e5af0	0.0038811527
202	0xbdefdf2b	-0.11712488
203	0x3dde33f2	0.108497515
204	0x3ebde90c	0.37091863
205	0x3e675f37	0.22594915
206	0x3e8f8ed9	0.28038672
207	0x3e872416	0.2639472
208	0x3c9a3bc7	0.018827332
209	0xbd4914de	-0.049092166
210	0xbe012863	-0.12613063
211	0x3d4df67c	0.050283894
212	0xbf04b837	-0.5184359
213	0x3df337c3	0.1187587
214	0x3e686824	0.22695976
215	0x3e56b51b	0.20967524
216	0x3dfaae44	0.1224027
217	0x3c4824a2	0.012215765
218	0x3e98d9fe	0.29853815
219	0x3e4d91ae	0.20075104
220	0xbe1eccbf	-0.15507792
221	0xbd96d137	-0.07364123
222	0xbe930ff1	-0.287231
223	0xbe709e7d	-0.23497958
224	0xbea0cc17	-0.31405708
225	0x3d7cf1b2	0.061753936
226	0x3eb37634	0.3505112
227	0x3dbe12e6	0.09280948
228	0xbd71dd76	-0.059049092
229	0x3ea74d07	0.32675955
230	0xbe0ee282	-0.13953593
231	0xbdd0db53	-0.10198083
232	0xbd5026c4	-0.05081822
233	0xbe7c482e	-0.2463691
234	0x3e6f3b45	0.23362453
235	0xbebca86a	-0.3684724
236	0xbe3cc742	-0.18435386
237	0x3e059327	0.13044415
238	0xbda146ae	-0.07874809
239	0x3e580b3d	0.21098037
240	0xbf3221c3	-0.69582766
241	0x3e0c9875	0.13730033
242	0x3e34e2d4	0.17664653
243	0x3efd6c37	0.49496624
244	0xbdbc3c1d	-0.09191153
245	0x3ea09d0e	0.31369823
246	0xbf2331dc	-0.63747954
247	0x3eb8fc11	0.3612981
248	0x3ec25e70	0.37962675
249	0x3c8bc0b5	0.017059663
250	0xbc26a883	-0.010172012
251	0xbe63000f	-0.22167991
252	0x3dfbb998	0.122912586
253	0xbeb60392	-0.355496
254	0x3e0f1bf5	0.13975509
255	0xbf0d2c5f	-0.5514583

parallel_cnn_block.branches.3.0.weight f4 [1, 1, 32]
0	0xba6736c3	-0.0008820111
1	0xbd3fa9bd	-0.046792734
2	0xbccaf616	-0.024775546
3	0xbd0f84b4	-0.035038665
4	0xbd2f6e92	-0.042830057
5	0x399c5b70	0.00029822765
6	0x3e05f25e	0.13080737
7	0x3d89916c	0.0671719
8	0x3e110170	0.14160705
9	0x3dd0f22b	0.1020244
10	0x3e466679	0.19375028
11	0x3dcbbae4	0.09947756
12	0x3e31a8e5	0.17349584
13	0x3dc9370a	0.09824951
14	0x3d93eb6f	0.0722264
15	0x3e16fcd0	0.14744878
16	0x3db23143	0.08700802
17	0x3e60fb3d	0.2197084
18	0x3e786a0a	0.242592
19	0x3e0f5967	0.13998948
20	0x3e8781f1	0.26466325
21	0x3df7901f	0.12088036
22	0x3e01c8ed	0.12674303
23	0x3d154e05	0.03645136
24	0x3dec2e85	0.115323104
25	0xbaaa721a	-0.0013003976
26	0xbd8c7ee4	-0.0686014
27	0x3d314fdb	0.043289047
28	0xbc917912	-0.017757926
29	0xbd5e5dab	-0.054288547
30	0xbbf74d35	-0.0075470456
31	0xbbb54a8c	-0.0055325683

parallel_cnn_block.branches.3.2.bias f4 [16]
0	0x3ed35384	0.41274655
1	0x3e61cae5	0.22050054
2	0x3e1569e6	0.14591178
3	0x3e1f803b	0.1557626
4	0x3eb114ba	0.34586126
5	0x3dda214a	0.10650881
6	0xbc8af86d	-0.016964162
7	0x3e6ace17	0.2293018
8	0x3dc5e1da	0.096622184
9	0x3da86e8d	0.08224211
10	0xbd3a1b45	-0.045436163
11	0xbd311be1	-0.043239478
12	0x3e947073	0.28992042
13	0x3e59bd5b	0.2126364
14	0x3e148ec1	0.14507581
15	0xbe604fc4	-0.21905428
