wide/modelpars_wide_i_42.safetensors (safetensors, 86584 bytes, 32 tensors)

bilstm.bias_hh_l0 f4 [64]
-0.1643104 0.1711848 0.17388526 0.12637518 -0.24454877 -0.056947522 -0.087669335 0.12749034
-0.203812 -0.08185274 0.04796544 -0.1188037 -0.08236307 0.06508558 0.23080206 0.03587507
0.13868314 -0.13166277 0.11844499 -0.054226708 -0.11494142 0.24138848 -0.0062184134 0.04759442
0.27159742 0.3141886 0.23973337 0.25907043 -0.14735682 -0.064133495 -0.033844236 -0.04439926
0.048010703 0.027641231 0.2190772 0.17128295 0.07174394 -0.06083036 0.23582953 0.05467484
-0.21394798 0.10872555 -0.048478305 0.05116801 -0.22892302 0.10578016 0.11594355 -0.18959258
-0.18561411 -0.02388267 0.015487056 0.23500714 0.19885363 0.14002375 -0.09665129 0.007889735
-0.17300685 0.23784408 -0.063853845 -0.114190936 0.09975029 -0.16051233 -0.090868846 0.24786733
00000000: fc40 28be 114b 2f3e fa0e 323e 7f68 013e
00000010: fe6a 7abe ce41 69bd fb8b b3bd d48c 023e
00000020: 18b4 50be 69a2 a7bd 6977 443d 5b4f f3bd
00000030: f8ad a8bd 974b 853d 6057 6c3e bdf1 123d
00000040: f402 0e3e 9bd2 06be 4993 f23d d31c 5ebd
00000050: 6866 ebbd 8b2e 773e d5c3 cbbb 5ef2 423d
00000060: d10e 8b3e 54dd a03e aa7c 753e e1a4 843e
00000070: b5e4 16be 6c58 83bd 41a0 0abd 00dc 35bd
00000080: dfa6 443d dd6f e23c c655 603e cc64 2f3e
00000090: 7dee 923d 4129 79bd 4c7d 713e baf2 5f3d
000000a0: 2e15 5bbe 80ab de3d 3091 46bd 8c95 513d
000000b0: cc6a 6abe 45a3 d83d d073 ed3d 8f24 42be
000000c0: a011 3ebe 97a5 c3bc 6cbd 7d3c b6a5 703e
000000d0: 49a0 4b3e 6362 0f3e 1df1 c5bd f243 013c
000000e0: b528 31be 668d 733e cec5 82bd f0dc e9bd
000000f0: e149 cc3d 585d 24be 7219 babd efd0 7d3e

bilstm.bias_hh_l0_reverse f4 [64]
0.08183143 0.19971912 0.20919034 -0.09221666 -0.12797698 0.118986174 -0.09410788 -0.14242083
-0.08228667 -0.05272199 -0.18876225 -0.031188957 0.102010556 0.089494936 0.1530341 -0.071473755
-0.2427044 -0.05512079 -0.0013170866 0.070351355 -0.20993248 -0.040558998 0.26288244 0.12169041
0.17817983 0.08998256 0.098568186 0.10998011 0.21543613 -0.08996538 0.005986271 -0.0061362465
-0.20439245 0.065173455 0.24944946 -0.048574157 -0.06294391 0.14254996 -0.120226204 -0.14909582
0.25284743 0.15518376 -0.20343105 0.21303315 -0.012357016 -0.15622683 -0.17012566 0.0034724388
0.033076562 -0.24193919 0.040485345 -0.021215556 0.10911552 -0.2205733 0.19062524 -0.16981092
-0.11431193 -0.22350994 0.17880347 -0.024433693 0.10854518 0.24265543 0.0103192665 -0.01646108
00000000: 3d97 a73d 2b83 4c3e fe35 563e 17dc bcbd
00000010: 660c 03be 06af f33d a2bb c0bd c4d6 11be
00000020: ea85 a8bd 03f3 57bd e44a 41be fc7f ffbc
00000030: e9ea d03d 1f49 b73d f9b4 1c3e d560 92bd
00000040: 8187 78be 56c6 61bd 18a2 acba 5f14 903d
00000050: 8af8 56be 3121 26bd 8798 863e d238 f93d
00000060: c674 363e c748 b83d 1ede c93d 403d e13d
00000070: 4a9b 5c3e c53f b8bd 7b28 c43b 9112 c9bb
00000080: 414c 51be a979 853d ae6f 7f3e b2f5 46bd
00000090: bde8 80bd 9ef8 113e 2839 f6bd 93ac 18be
000000a0: 3875 813e 7ee8 1e3e 3b50 50be 5d25 5a3e
000000b0: 1575 4abc edf9 1fbe 6c35 2ebe db91 633b
000000c0: 4a7b 073d e8be 77be f6d3 253d 3fcc adbc
000000d0: f577 df3d f8dd 61be 4333 433e eae2 2dbe
000000e0: 601c eabd cadf 64be 4218 373e 2b29 c8bc
000000f0: ef4c de3d aa7a 783e 2412 293c 63d9 86bc

bilstm.bias_ih_l0 f4 [64]
-0.1670979 -0.04065313 0.23718858 -0.028924543 0.018991435 -0.052631736 -0.27787933 0.033293534
0.23726416 -0.25148726 -0.122472614 -0.0636008 0.04318628 -0.025058948 -0.08191588 -0.02311522
0.040290363 0.0681261 0.16725259 0.22284591 0.20975369 0.16073872 -0.13713323 0.19896218
-0.063929036 0.17865153 -0.12414378 0.23607926 0.19634475 -0.13018677 0.27848527 0.2004636
0.10075307 0.09171284 0.18766427 -0.22983843 0.13543743 0.011411879 0.15591326 0.12530734
0.027850782 -0.21272661 -0.19523935 -0.1293123 0.1829867 -0.24646533 0.16732123 0.1866494
0.19415817 -0.1789927 -0.15287176 0.22265837 -0.17341058 0.17917271 -0.12545615 0.1563396
0.29066467 0.3030743 -0.18287708 0.09794525 0.16786541 0.009238363 -0.14867358 0.18484789
00000000: b61b 2bbe e583 26bd 90e1 723e 2af3 ecbc
00000010: ed93 9b3c 6094 57bd 3346 8ebe cd5e 083d
00000020: 60f5 723e f0c2 80be ecd2 fabd 2341 82bd
00000030: 19e4 303d 6c48 cdbc 83c3 a7bd 215c bdbc
00000040: 8207 253d b285 8b3d 4344 2b3e b831 643e
00000050: acc9 563e b198 243e a76c 0cbe bebc 4b3e
00000060: 3aed 82bd 6df0 363e 183f febd c3be 713e
00000070: 990e 493e ae4f 05be 9f95 8e3e 5446 4d3e
00000080: a057 ce3d f1d3 bb3d 102b 403e c45a 6bbe
00000090: 1cb0 0a3e e4f8 3a3c baa7 1f3e 9150 003e
000000a0: 5327 e43c 01d5 59be d3ec 47be 726a 04be
000000b0: de60 3b3e 6861 7cbe 4256 2b3e 0521 3f3e
000000c0: 66d1 463e dd49 37be 6a8a 1cbe 8e00 643e
000000d0: 8b92 31be 0d79 373e 9477 00be 7d17 203e
000000e0: 00d2 943e 8e2c 9b3e 2144 3bbe 8597 c83d
000000f0: e9e4 2b3e 815c 173c e33d 18be c448 3d3e

bilstm.bias_ih_l0_reverse f4 [64]
-0.07841892 0.16191311 0.18836409 -0.32877076 -0.17195514 0.22811224 0.21434098 -0.019285781
-0.09338443 -0.1377598 -0.105531864 -0.022997256 -0.00947113 0.24010596 0.2085944 -0.41005465
-0.04588846 0.013195275 -0.18390669 -0.25009888 -0.14754963 0.22848877 -0.12947793 0.015358946
0.2574815 0.0020029114 -0.06972246 0.31044713 0.079370424 0.2779734 -0.09202622 -0.025723098
-0.20827837 0.23189135 0.24457915 -0.14311369 -0.04430886 -0.03681045 0.18938044 -0.10860652
-0.14899723 0.014829442 -0.26483074 0.09220838 0.040786028 0.089453526 -0.035013255 0.042109087
0.2709818 -0.028951054 -0.03213416 -0.13440897 0.21482803 0.048717692 0.06416925 0.21946454
0.2269951 0.184423 -0.20302 -0.33339405 -0.154159 0.0749831 -0.29827532 -0.08221448
00000000: 199a a0bd 8dcc 253e 84e2 403e a454 a8be
00000010: 0215 30be 4196 693e 347c 5b3e 37fd 9dbc
00000020: 5640 bfbd e810 0dbe 1721 d8bd be64 bcbc
00000030: cc2c 1bbc 56de 753e c599 553e aff2 d1be
00000040: 8af5 3bbd ff30 583c 0952 3cbe f60c 80be
00000050: 4017 17be f6f8 693e dd95 04be 17a4 7b3c
00000060: 9dd4 833e 4743 033b a6ca 8ebd edf2 9e3e
00000070: f68c a23d 8852 8e3e 3e78 bcbd 3fb9 d2bc
00000080: ed46 55be ed74 6d3e f572 7a3e 658c 12be
00000090: 357d 35bd 8ec6 16bd f2ec 413e 186d debd
000000a0: bb92 18be 30f7 723c e597 87be bfd7 bc3d
000000b0: 400f 273d 6933 b73d 0f6a 0fbd 947a 2c3d
000000c0: 20be 8a3e c32a edbc 1c9f 03bd 81a2 09be
000000d0: e1fb 5b3e 348c 473d 2b6b 833d 50bb 603e
000000e0: 6771 683e 62d9 3c3e 7ae4 4fbe a0b2 aabe
000000f0: dbdb 1dbe bd90 993d 8bb7 98be 1160 a8bd

bilstm.weight_hh_l0 f4 [64, 16]
-0.04396848 -0.05598217 0.0047404035 -0.0976584 0.11821547 -0.24481605 0.1652063 0.08144948
0.1651359 0.08825624 -0.31969035 0.16410053 0.1076081 -0.0936998 -0.14406656 -0.029003285
-0.16168867 0.03374792 -0.18725136 -0.14884943 -0.21398637 -0.0011118948 0.4123138 0.25076163
0.24829365 -0.20880361 0.28771025 0.0019265929 0.049251866 0.08432431 0.47865364 0.32034
0.2276783 -0.09104929 -0.15079425 0.07082943 0.21313131 0.100952394 0.2010185 0.1637675
-0.17069772 -0.08838308 0.07992012 -0.1136673 -0.026731333 -0.25415245 0.060373463 0.2685297
-0.0055665993 -0.049746815 0.27050853 -0.052423585 -0.22407976 0.07664928 0.06647084 -0.0027799525
-0.16911481 -0.16682789 0.18797305 -0.23777312 0.22623897 0.0052915826 -0.07247276 -0.157033
-0.059795585 -0.020890743 -0.1358775 0.19252002 -0.12838103 0.0116403485 0.08452985 -0.11983788
0.09835006 -0.24490568 -0.02575775 0.101372026 -0.01984064 -0.11357463 -0.26777554 0.16320422
0.32416233 0.12693205 -0.18692671 0.19352752 0.22729339 -0.03389155 0.10681357 -0.18189554
-0.08450283 -0.16215213 -0.2372529 0.124999546 0.07993656 0.20445071 -0.3499638 0.31310612
0.25553945 0.25240937 -0.21384919 0.23860979 -0.017544627 0.51298124 -0.009448853 0.19956984
0.14417058 -0.26005176 -0.25668564 0.17199141 1.1533587 0.33492696 -0.28746605 0.017439554
0.0026271087 0.03609807 0.025152806 -0.17998467 -0.2135028 0.15385517 0.04696281 0.09380644
-0.0003812546 0.2027188 0.042124547 0.060383756 -0.03348847 0.14386964 -0.1013967 0.25479096
0.09598827 0.005304649 -0.034902733 -0.22651355 0.077162914 0.06931742 -0.15025863 0.039365843
-0.078272454 0.14809188 -0.20365703 0.20235147 -0.09811704 -0.22806413 0.102450565 0.2656518
0.076195605 -0.11788531 -0.25405228 0.10648968 0.14112023 -0.28563508 0.15485895 0.16792053
-0.13410887 0.29415706 0.32008305 -0.20149943 -0.29186425 -0.14672373 0.33661637 -0.081489205
-0.15546025 0.1520624 0.1587448 0.20426053 -0.053502545 -0.1481047 0.24130149 0.042651
-0.041019436 0.1933027 -0.024707105 -0.2885798 0.28958994 0.011324597 -0.185522 0.07408098
0.19708344 0.0730962 0.15625049 -0.15806201 0.20422454 -0.24286734 0.420014 0.25879374
-0.045875728 -0.01623954 0.3375394 0.05688334 -0.28913888 -0.14568155 -0.08782879 -0.24695599
-0.1390267 -0.5017528 -0.14068572 -0.019582978 -0.26978496 -0.124272704 0.6055118 0.092737675
0.061920557 0.2354765 -0.25273642 0.069901146 -0.89143986 -0.06361274 0.31365463 0.4357532
-0.027752796 0.116522074 -0.20802726 -0.14109431 0.14000696 -0.1446664 0.3182503 0.20997824
0.018801358 -0.020429254 0.11722762 0.147886 -0.3536043 -0.20626755 0.04003388 0.30890787
-0.09859596 0.18177076 -0.13274755 0.13921885 -0.18923242 0.08356821 0.30091417 -0.23184736
-0.101666905 -0.14751002 0.14279668 -0.011489085 -0.4517992 -0.04979342 0.04680765 0.5047443
0.21751496 0.35411245 0.092823245 -0.10202033 0.2826717 0.41543925 0.27731478 -0.16272789
0.2813733 -0.31785083 -0.045943666 0.3561381 0.55377614 0.8029514 -0.19533072 0.23568353
00000000: 4b18 34bd 8f4d 65bd 6355 9b3b 2101 c8bd
00000010: f41a f23d 0fb1 7abe d72b 293e fcce a63d
00000020: 6319 293e b0bf b43d 74ae a3be f809 283e
00000030: a361 dc3d aee5 bfbd 2f86 13be 4c98 edbc
00000040: b791 25be 423b 0a3d d2be 3fbe fc6b 18be
00000050: 3e1f 5bbe 00bd 91ba cb1a d33e d463 803e
00000060: b140 7e3e 9dd0 55be c24e 933e bb85 fc3a
00000070: 53bc 493d 39b2 ac3d 1712 f53e 9b03 a43e
00000080: 8024 693e 0d78 babd cf69 1abe 050f 913d
00000090: 183f 5a3e 21c0 ce3d cbd7 4d3e abb2 273e
000000a0: 62cb 2ebe 3002 b5bd 29ad a33d 67ca e8bd
000000b0: abfb dabc 4520 82be 2a4a 773d ba7c 893e
000000c0: 0568 b6bb 51c3 4bbd 1880 8a3e 1dba 56bd
000000d0: 2a75 65be 4cfa 9c3d dd21 883d dd2f 36bb
000000e0: 6f2c 2dbe eed4 2abe 027c 403e cc7a 73be
000000f0: 30ab 673e 0365 ad3b 996c 94bd 42cd 20be
00000100: 37ec 74bd 1023 abbc 7923 0bbe f823 453e
00000110: 5176 03be 29b7 3e3c fc1d ad3d 906d f5bd
00000120: c26b c93d 8ec8 7abe eb01 d3bc 239c cf3d
00000130: d688 a2bc d199 e8bd e019 89be 021f 273e
00000140: 9bf8 a53e 7afa 013e b769 3fbe 142c 463e
00000150: 99bf 683e ded1 0abd 13c1 da3d d342 3abe
00000160: d20f adbd 350b 26be 6df2 72be c3ff ff3d
00000170: c7b5 a33d 875b 513e 752e b3be 724f a03e
00000180: 11d6 823e cd3b 813e 48fb 5abe 2056 743e
00000190: c0b9 8fbc bd52 033f 5dcf 1abc 095c 4c3e
000001a0: 74a1 133e 8125 85be 4d6c 83be 841e 303e
000001b0: 42a1 933f 8c7b ab3e c02e 93be 65dd 8e3c
000001c0: 922b 2c3b 92db 133d 420d ce3c e74d 38be
000001d0: 7aa0 5abe 368c 1d3e 135c 403d 971d c03d
000001e0: 20e3 c7b9 8495 4f3e ca8a 2c3d f554 773d
000001f0: 352b 09bd 9052 133e 13a9 cfbd f673 823e
00000200: 8095 c43d 9fd2 ad3b 2bf6 0ebd 2bf3 67be
00000210: 9707 9e3d 4bf6 8d3d 66dd 19be 143e 213d
00000220: 4f4d a0bd 66a5 173e 788b 50be 3935 4f3e
00000230: 96f1 c8bd a589 69be 9ad1 d13d 8303 883e
00000240: 710c 9c3d da6d f1bd 2413 82be 4317 da3d
00000250: d281 103e c33e 92be 5893 1e3e 5cf3 2b3e
00000260: d653 09be c19b 963e ede1 a33e de55 4ebe
00000270: 3b6f 95be bf3e 16be fb58 ac3e d0e3 a6bd
00000280: f930 1fbe 3fb6 1b3e ff8d 223e ac29 513e
00000290: 7c25 5bbd c2a8 17be bd17 773e d1b2 2e3d
000002a0: ff03 28bd 25f1 453e 8e66 cabc bbc0 93be
000002b0: 2245 943e cd8a 393c 7bf9 3dbe c5b7 973d
000002c0: 3ed0 493e 76b3 953d 2100 203e 02db 21be
000002d0: 3d20 513e 37b2 78be 130c d73e 9d80 843e
000002e0: 30e8 3bbd c908 85bc f7d1 ac3e 81fe 683d
000002f0: 030a 94be 8b2d 15be 95df b3bd 08e2 7cbe
00000300: 045d 0ebe df72 00bf eb0f 10be 7b6c a0bc
00000310: 4121 8abe b082 febd d202 1b3f 40ed bd3d
00000320: 69a0 7d3d c020 713e ab66 81be 5528 8f3d
00000330: 6735 64bf 6547 82bd 5797 a03e 0b1b df3e
00000340: d559 e3bc 20a3 ee3d 1905 55be 077b 10be
00000350: fc5d 0f3e 6e23 14be b4f1 a23e 8904 573e
00000360: 4e05 9a3c 405b a7bc 0915 f03d 6d6f 173e
00000370: 9f0b b5be cd37 53be 91fa 233d 2c29 9e3e
00000380: aeec c9bd 1d22 3a3e f9ee 07be 638f 0e3e
00000390: 25c6 41be cf25 ab3d 6c11 9a3e 6569 6dbe
000003a0: bd36 d0bd de0c 17be 4b39 123e b73c 3cbc
000003b0: 3a52 e7be 2ff4 4bbd 61b9 3f3d ec36 013f
000003c0: 3ebc 5e3e 3a4e b53e 1d1a be3d 09f0 d0bd
000003d0: 58ba 903e 74b4 d43e 34fc 8d3e 24a2 26be
000003e0: 2910 903e 58bd a2be 6d2f 3cbd bc57 b63e
000003f0: 46c4 0d3f 398e 4d3f c704 48be 0657 713e

bilstm.weight_hh_l0_reverse f4 [64, 16]
0.1241876 0.30929348 -0.10319414 0.41104406 0.009409338 0.004168542 0.20535214 0.079432376
-0.17649114 0.1616336 -0.24987015 -0.09728348 -0.05632438 -0.20890802 -0.19637696 -0.0243103
-0.0990544 0.03923011 -0.36027378 -0.03308625 -0.5134699 0.005012397 -0.17377709 -0.46097466
0.06445698 0.017879508 -0.09950987 -0.26099366 -0.10666252 -0.124095574 -0.14222026 0.03951045
0.20343846 -0.095406555 0.17531365 -0.19151706 0.24783774 0.17091583 -0.029247535 -0.04486227
0.26979575 -0.18405612 -0.16185835 -0.08425024 -0.12561098 -0.030808857 -0.10228621 -0.05121896
0.3654665 0.39217785 -0.059635688 0.35925663 -0.06136149 -0.16058768 -0.37287647 0.46817917
-0.0888729 0.3420195 0.39861616 -0.24597447 0.10072581 0.34581003 0.06840227 0.079671696
-0.34940377 0.07314026 0.28929082 0.18410532 0.29997298 -0.13573731 0.07750796 -0.64485186
0.2000385 -0.02279994 -0.20847248 -0.008768777 0.18246071 -0.28295982 0.3125127 -0.12426012
0.3770681 0.0720254 0.25957003 -0.05780268 -0.026576882 -0.40962598 -0.006562578 -0.6274334
-0.2117636 -0.19432288 0.25009564 0.06341324 0.051098894 -0.20590523 -0.29026368 -0.22842772
0.11064755 0.21993276 -0.0062447316 0.25165713 0.09481981 0.18835951 0.27043143 0.021898307
-0.16895661 0.047428127 -0.12422922 0.06412929 0.18295941 0.16114438 -0.22891839 -0.10245077
-0.21222523 -0.16027142 0.27192786 0.39525923 0.10791517 0.07056535 -0.2532014 -0.1545895
0.011661532 0.15892279 -0.17821532 0.27862692 -0.02368908 -0.27630165 0.6826972 0.02297918
0.05215109 0.24694312 -0.18447973 -0.13785028 -0.13580766 -0.14427085 0.2191579 0.010866588
-0.10263054 -0.024944445 0.11420002 -0.09171477 -0.011276608 0.13891812 0.036104694 -0.030539101
0.16949657 -0.048694618 0.22114937 -0.14645098 -0.13297199 0.05896344 -0.20812744 -0.16720027
-0.009322558 -0.16747418 -0.19374877 0.1087402 0.0888712 -0.1335905 -0.121742226 -0.2497135
0.11915704 -0.109720774 0.25933903 -0.039780736 0.19720021 0.03883123 0.17726964 -0.18580002
0.044587974 0.05375322 -0.028888976 -0.15086955 0.1272899 -0.19801623 -0.087643474 -0.07898605
0.0706312 0.2861134 -0.104074135 0.008753673 0.06781865 0.10829917 0.28870156 -0.2607121
0.25312787 -0.26833737 -0.031793866 -0.17826828 0.16132072 -0.06978338 0.04279079 -0.0066613625
-0.15274909 0.20763773 -0.16691469 -0.16326194 -0.013278883 -0.22394168 0.26585913 -0.116494484
-0.04562683 0.07835894 0.03249173 -0.0022046454 0.060154155 -0.034575477 -0.059214193 0.04360917
0.025793925 -0.43612093 0.029988773 0.10242699 -0.088329256 -0.009668464 -0.0909883 0.03607269
0.11673059 0.021694463 -0.28584886 -0.07412281 -0.10845466 0.06556101 -0.17586786 0.4205931
-0.21422048 0.15545478 -0.21023007 -0.08903087 -0.04494256 -0.11463207 0.09845108 -0.09172843
-0.24663201 -0.21959627 0.20354408 0.0710172 0.23844837 0.013566287 0.25652003 -0.036623545
0.13287413 0.038394768 0.1302397 0.097737454 0.037962493 0.08296725 -0.43878108 0.100208804
-0.13907145 0.12802614 0.37121004 -0.39219674 -0.2867365 0.2879746 -0.30107167 0.35465115
00000000: 1256 fe3d b75b 9e3e 7357 d3bd 5e74 d23e
00000010: a029 1a3c 4498 883b d547 523e 71ad a23d
00000020: 18ba 34be 4783 253e f6dd 7fbe 903c c7bd
00000030: 65b4 66bd fceb 55be 0b17 49be 6526 c7bc
00000040: 09dd cabd c0af 203d ce75 b8be 7385 07bd
00000050: c372 03bf 093f a43b 9ff2 31be df04 ecbe
00000060: 0502 843d 0c78 923c d5cb cbbd f6a0 85be
00000070: e171 dabd d225 febd 30a2 11be b6d5 213d
00000080: 2c52 503e 8364 c3bd 6c85 333e 0c1d 44be
00000090: 2dc9 7d3e 8f04 2f3e 8798 efbc 80c1 37bd
000000a0: ab22 8a3e 3579 3cbe 32be 25be 648b acbd
000000b0: 2aa0 00be db62 fcbc 6f7b d1bd f9ca 51bd
000000c0: 6d1e bb3e 89cb c83e 8d44 74bd 7cf0 b73e
000000d0: 3056 7bbd 1971 24be aae9 bebe 2eb5 ef3e
000000e0: ff02 b6bd 2e1d af3e 6b17 cc3e bbe0 7bbe
000000f0: 5549 ce3d 030e b13e 7d16 8c3d ea2a a33d
00000100: 0de5 b2be 90ca 953d ed1d 943e 1b86 3c3e
00000110: 0f96 993e b9fe 0abe 7ebc 9e3d 0315 25bf
00000120: e4d6 4c3e f1c6 babc cf79 55be ebaa 0fbc
00000130: fbd6 3a3e 1ce0 90be aa01 a03e 177c febd
00000140: 120f c13e 0e82 933d 5de6 843e 81c2 6cbd
00000150: c3b7 d9bc 7fba d1be e50a d7bb 7a9f 20bf
00000160: 8fd8 58be 94fc 46be 890c 803e cdde 813d
00000170: 134d 513d d2d8 52be 719d 94be f5e8 69be
00000180: 2f9b e23d 0e36 613e 9ba0 ccbb 34d9 803e
00000190: e330 c23d 51e1 403e fd75 8a3e 1464 b33c
000001a0: f602 2dbe ff43 423d e46b febd 3856 833d
000001b0: b659 3b3e 0803 253e 9569 6abe b6d1 d1bd
000001c0: 9251 59be 311e 24be 213a 8b3e 6b5f ca3e
000001d0: a102 dd3d 9184 903d 9da3 81be b64c 1ebe
000001e0: 0310 3f3c a8bc 223e 147e 36be 30a8 8e3e
000001f0: 9a0f c2bc 6977 8dbe 3ec5 2e3f d53e bc3c
00000200: 629c 553d a8de 7c3e 41e8 3cbe a028 0dbe
00000210: 2a11 0bbe bdbb 13be ee6a 603e c609 323c
00000220: f62f d2bd 4b58 ccbc b3e1 e93d f4d4 bbbd
00000230: 86c1 38bc 8d40 0e3e 84e2 133d 232d fabc
00000240: 8290 2d3e 0274 47bd fb74 623e 3ff7 15be
00000250: cf29 08be a683 713d 5c1f 55be 8c36 2bbe
00000260: a4bd 18bc 5a7e 2bbe 1466 46be 2fb3 de3d
00000270: 1b02 b63d f3cb 08be fd53 f9bd e5b4 7fbe
00000280: 9b08 f43d 49b5 e0bd 16c8 843e 20f1 22bd
00000290: daee 493e 7f0d 1f3d 2c86 353e 5c42 3ebe
000002a0: e1a1 363d 562c 5c3d 93a8 ecbc 8c7d 1abe
000002b0: 4958 023e c4c4 4abe 6c7e b3bd 70c3 a1bd
000002c0: 17a7 903d 757d 923e d224 d5bd 916b 0f3c
000002d0: 81e4 8a3d f5cb dd3d b1d0 933e 0e7c 85be
000002e0: fa99 813e 8463 89be 493a 02bd f68b 36be
000002f0: 4231 253e 97ea 8ebd 6545 2f3d 8f47 dabb
00000300: 426a 1cbe fc9e 543e afeb 2abe 232e 27be
00000310: ac8f 59bc f850 65be b01e 883e a994 eebd
00000320: 33e3 3abd a77a a03d 0c16 053d d07b 10bb
00000330: 3464 763d 049f 0dbd 958a 72bd 879f 323d
00000340: c84d d33c 3e4b dfbe 04ab f53c 3ec5 d13d
00000350: f8e5 b4bd 7a68 1ebc 1358 babd f5c0 133d
00000360: 7310 ef3d 96b8 b13c c85a 92be b3cd 97bd
00000370: 7a1d debd da44 863d b416 34be fb57 d73e
00000380: 9d5c 5bbe 8a2f 1f3e 8d46 57be d155 b6bd
00000390: b115 38bd 38c4 eabd b8a0 c93d 1ddc bbbd
000003a0: 1a8d 7cbe d8dd 60be dc6d 503e 7771 913d
000003b0: cf2b 743e 2245 5e3c 9856 833e 9202 16bd
000003c0: 2810 083e d543 1d3d 8e5d 053e 932a c83d
000003d0: 8f7e 1b3d bcea a93d eaa7 e0be 463a cd3d
000003e0: bf68 0ebe 4919 033e 3e0f be3e 03ce c8be
000003f0: 20cf 92be 6871 933e 1126 9abe d694 b53e

bilstm.weight_ih_l0 f4 [64, 32]
0.11243635 0.19882606 0.07895778 0.018229216 0.033577558 0.036827225 -0.051889025 0.11705988
0.32475322 -0.120141625 -0.09688742 -0.028582532 -0.10387277 0.2540365 -0.09929179 0.1223192
0.07499293 -0.08049097 -0.10627644 0.22901346 0.24519564 -0.0052239834 0.2690622 0.035393544
-0.057764605 0.06861478 0.20451951 0.15603586 -0.07040543 0.11413798 -0.30791125 0.0022559583
0.03779296 0.058258295 0.0014300367 -0.292725 -0.11432966 -0.0846325 -0.14226092 -0.22101331
0.214343 -0.22123654 0.18208094 0.3081063 -0.036151666 -0.113124594 -0.09075448 -0.3238919
-0.16404901 -0.16123493 0.11914181 -0.09420221 -0.05853549 0.106720746 -0.08537001 -0.19308816
0.15033117 0.35936835 0.2064244 -0.22113556 -0.35898277 0.068928815 0.22231609 -0.06623515
0.11540206 0.24742512 -0.16551071 -0.1678114 0.24477717 0.35741124 0.11820875 0.08917439
0.13550057 0.18271375 0.21934582 -0.18663202 -0.13083273 0.07602236 0.08518764 0.1374606
-0.0019455204 0.29426867 -0.09330379 0.24492322 -0.0012728281 0.08775852 0.2626753 0.18112494
-0.17684728 0.15813635 0.054273114 0.13548024 0.005274292 -0.061225124 0.30018446 0.21446262
0.1637955 -0.043865524 0.1558822 -0.25503123 -0.06896516 0.057486463 0.16506994 0.021413231
-0.17277613 0.22414151 -0.17310998 0.09612745 0.08173286 -0.20116003 0.21902032 0.16291703
0.05712611 -0.18427669 -0.22419457 -0.12140439 -0.083644815 0.23369418 0.051407892 0.036551602
-0.14904003 0.22418049 0.29272577 -0.16331992 0.101510845 0.20872651 -0.0463474 0.036876004
0.07340872 -0.23323686 -0.0628295 0.43793246 0.04853965 -0.2563481 -0.12391388 0.20372199
0.079015076 0.18683422 0.1435739 0.116704024 0.17793012 -0.05993368 -0.023898393 -0.16066878
0.23759757 0.3523636 -0.18777533 0.1777895 -0.0752564 -0.16542275 -0.081332326 -0.20282531
-0.023040475 0.07406912 0.839552 -0.1861014 0.24626234 -0.15128653 -0.12452014 0.12208611
0.25594452 0.029068876 0.017049279 0.75307685 -0.23358941 -0.2796256 -0.23676105 0.05064661
-0.0036298893 0.029728733 0.28784198 0.05040832 0.26021197 0.17915021 0.008757371 0.25143117
0.085784264 -0.121271014 -0.23823382 0.4231292 -0.115761176 0.37813747 0.040593006 0.045926176
-0.011994746 0.04511754 0.53240883 -0.2301211 0.27130052 0.22182834 -0.28997055 0.17386334
0.29636607 0.10890763 -0.30644393 -0.21065617 -0.30383956 0.038290348 -0.10885812 -0.04519767
0.16177002 -0.19849789 -0.31181332 -0.14359044 -0.43307397 0.17821191 0.0893453 0.027788088
0.1696881 0.04961266 0.047387578 0.21652281 0.0032556297 -0.35235867 0.114856325 0.008136953
-0.2022163 0.3951699 0.57653934 -0.16909568 0.03208674 -0.07140495 -0.15412165 0.37754253
0.19005904 0.13996297 -0.015643476 -0.061358947 0.23562819 0.108301796 0.26910496 0.00622427
0.039190054 0.15055285 -0.072943315 -0.11785371 0.27702528 0.22635539 0.13277695 0.04554234
-0.040840264 0.08497221 -0.13741678 0.16160442 0.080688395 0.14647667 -0.016779672 0.009776109
-0.15567012 -0.053434435 0.1473882 0.19119519 0.09491814 0.17308493 0.23533891 0.08260382
00000000: 0745 e63d 0f99 4b3e 9eb4 a13d 7055 953c
00000010: 9f88 093d 25d8 163d 9689 54bd 17bd ef3d
00000020: 0e46 a63e d00c f6bd e96c c6bd ea25 eabc
00000030: 3fbb d4bd 1211 823e 7e59 cbbd 7d82 fa3d
00000040: e595 993d 73d8 a4bd 76a7 d9bd 8182 6a3e
00000050: 9114 7b3e f32d abbb 85c2 893e d2f8 103d
00000060: 949a 6cbd e885 8c3d 906d 513e ddc7 1f3e
00000070: b930 90bd 2cc1 e93d 8ba6 9dbe b3d8 133b
00000080: cacc 1a3d 40a0 6e3d 1270 bb3a 0de0 95be
00000090: ab25 eabd ce53 adbd d9ac 11be 5051 62be
000000a0: bb7c 5b3e d58b 62be 6d73 3a3e 1cc0 9d3e
000000b0: c513 14bd dead e7bd 7cdd b9bd 29d5 a5be
000000c0: 77fc 27be c51a 25be 9f00 f43d 17ed c0bd
000000d0: e9c2 6fbd 6890 da3d 79d6 aebd e7b8 45be
000000e0: 6af0 193e 21ff b73e eb60 533e 5c71 62be
000000f0: 97cc b7be 8d2a 8d3d d4a6 633e 4ba6 87bd
00000100: ea57 ec3d 035d 7d3e a47b 29be c0d6 2bbe
00000110: dea6 7a3e 9bfe b63e 6e17 f23d 10a1 b63d
00000120: a9c0 0a3e 5019 3b3e 319c 603e 771c 3fbe
00000130: 04f9 05be 9cb1 9b3d db76 ae3d 79c2 0c3e
00000140: d500 ffba 62aa 963e 0f16 bfbd 27cd 7a3e
00000150: 06d5 a6ba bdba b33d 607d 863e d178 393e
00000160: 7417 35be 7fee 213e 7c4d 5e3d 55bb 0a3e
00000170: f8d3 ac3b 32c7 7abd c7b1 993e 179c 5b3e
00000180: 02ba 273e 56ac 33bd 959f 1f3e 7493 82be
00000190: 9b3d 8dbd ed76 6b3d 1808 293e cd6a af3c
000001a0: 3aec 30be 5a85 653e be43 31be 78de c43d
000001b0: 8f63 a73d e5fc 4dbe dd46 603e b9d3 263e
000001c0: 11fd 693d 07b3 3cbe 4393 65be dda2 f8bd
000001d0: f94d abbd 874d 6f3e 1591 523d 22b7 153d
000001e0: f39d 18be 928f 653e 27e0 953e 563d 27be
000001f0: ebe4 cf3d 67bc 553e c5d6 3dbd 4b0b 173d
00000200: 5057 963d a5d5 6ebe c1ac 80bd af38 e03e
00000210: 83d1 463d 0f40 83be 8fc6 fdbd 7f9c 503e
00000220: a8d2 a13d 7851 3f3e 0905 133e 8502 ef3d
00000230: 5033 363e 057d 75bd 90c6 c3bc 5b86 24be
00000240: c74c 733e 0069 b43e 2d48 40be 730e 363e
00000250: 0720 9abd 9564 29be 9091 a6bd 70b1 4fbe
00000260: 61bf bcbc 8db1 973d e1ec 563f 5e91 3ebe
00000270: 322c 7c3e dbea 1abe 6a04 ffbd 4808 fa3d
00000280: 290b 833e da21 ee3c eeaa 8b3c a5c9 403f
00000290: 1032 6fbe 162b 8fbe 7d71 72be d272 4f3d
000002a0: 70e3 6dbb ac89 f33c 0660 933e f478 4e3d
000002b0: 813a 853e 2773 373e 147b 0f3c 96bb 803e
000002c0: a9af af3d f05c f8bd 91f3 73be 64a4 d83e
000002d0: 3214 edbd 3c9b c13e da44 263d 161d 3c3d
000002e0: 9c85 44bc 2bcd 383d f24b 083f dea4 6bbe
000002f0: e7e7 8a3e f826 633e 0577 94be 3b09 323e
00000300: 4bbd 973e f70a df3d 38e6 9cbe 40b6 57be
00000310: dc90 9bbe 57d6 1c3d 02f1 debd 3121 39bd
00000320: 0aa7 253e 0843 4bbe ffa5 9fbe 5f09 13be
00000330: dfbb ddbe 2f7d 363e abfa b63d d8a3 e33c
00000340: b8c2 2d3e a536 4b3d 7a19 423d 28b8 5d3e
00000350: 675c 553b 5b68 b4be cb39 eb3d db50 053c
00000360: ca11 4fbe b653 ca3e 1598 133f 6b27 2dbe
00000370: 636d 033d c23c 92bd 11d2 1dbe 414d c13e
00000380: d69e 423e 7452 0f3e bf26 80bc 8553 7bbd
00000390: 8448 713e 55cd dd3d 20c8 893e f6f4 cb3b
000003a0: c085 203d 872a 1a3e 4e63 95bd 495d f1bd
000003b0: 42d6 8d3e b5c9 673e aef6 073e 9b8a 3a3d
000003c0: 1f48 27bd e905 ae3d fcb6 0cbe a17b 253e
000003d0: f53f a53d fbfd 153e 8675 89bc f92b 203c
000003e0: fd67 1fbe 11de 5abd efec 163e acc8 433e
000003f0: 7164 c23d 2d3d 313e affc 703e 312c a93d

bilstm.weight_ih_l0_reverse f4 [64, 32]
0.1324583 -0.051000264 0.026230894 0.034401756 0.233739 0.35561955 0.23552679 0.23302054
0.3092196 -0.026717864 -0.19260648 -0.14975053 0.26513928 -0.18482095 0.21557394 0.14083365
-0.16985904 0.07497689 0.11847506 0.051220722 0.1500878 0.23173131 0.06251355 0.047805205
-0.12639159 0.064320385 0.94094527 -0.16702087 0.14797825 -0.18119363 -0.27434433 0.07485093
-0.42936787 0.1626136 -0.20279871 0.26710722 -0.037502207 -0.29351795 0.14545695 -0.3060688
0.038981877 -0.23807235 -0.16261582 -0.2456338 -0.38797832 0.077361085 -0.033472367 0.28761193
0.0006191157 0.24640279 0.102213316 0.20244902 0.15868096 -0.19347933 0.046216607 -0.21322149
-0.055756204 -0.3199126 -0.5629396 -0.44304565 -0.14522797 -0.024391297 -0.11316602 -0.14271589
0.18430448 0.03306833 0.26445797 -0.0120125525 -0.109917454 -0.11621495 0.097989656 -0.015725741
-0.0038245793 -0.067478895 -0.22709084 -0.14866814 0.23911564 0.092337385 -0.2106714 0.20573239
0.018141257 0.21047378 0.22913735 0.24142583 0.22545117 0.2476242 0.16421925 0.11564463
0.04472141 0.22672847 0.10557419 0.16215432 0.0019382037 0.089240186 0.16136612 0.20217031
-0.022534886 -0.081844635 -0.26097992 -0.13736644 -0.39585394 0.054309737 0.058660246 -0.28602216
0.07828978 0.10926053 -0.13544606 -0.20396937 0.040560417 -0.17863278 -0.1816093 0.030202314
0.3072651 0.066273004 -0.10259874 0.24569346 0.058527444 -0.3172856 0.19932298 0.39441916
-0.31556004 0.29586157 -0.6051634 0.32354078 -0.13615154 0.04395084 -0.17080046 -0.27421573
0.161846 0.09429854 -0.30240175 0.08644105 0.018525459 -0.50288624 -0.08824022 0.06267701
-0.27869344 -0.095167056 0.026994942 0.12577114 0.027541103 0.24276176 0.51560575 -0.14228855
-0.10291872 -0.32162645 -0.35545924 -0.27337363 0.10405323 0.19683643 -0.24173754 0.21929939
0.25193208 0.08485781 0.09598405 0.17446859 -0.1188272 0.1467899 -0.076519 -0.40190998
-0.23596738 -0.13895191 -0.018807182 -0.28074202 -0.04666175 -0.03162064 -0.07252883 -0.32920685
0.43156585 -0.09121441 -0.29573098 -0.036728393 -0.29539776 0.23683658 -0.050985873 -0.06186321
-0.04703023 0.048080783 -0.11045695 0.3039928 -0.13628897 0.006851316 0.18432927 -0.050131615
0.18705781 -0.16071098 0.1662727 -0.048346847 0.12019405 0.094317324 0.0672374 -0.36124152
-0.026974047 -0.097718224 -0.17706278 0.267353 0.1280442 0.3217944 0.2731624 -0.04556027
0.10045427 -0.05791799 0.4285102 0.26275387 0.29737782 0.1844769 -0.101007186 -0.20392846
0.16420013 0.25277615 0.10059971 -0.018579507 0.050053842 -0.099370375 -0.10658619 0.28498003
-0.052567326 0.101282716 0.6966534 0.06926008 0.02353967 -0.079330504 0.11525917 -0.084740564
-0.41704914 -0.031184237 -0.02493414 -0.15107666 -0.035535306 0.11392051 -0.12272984 -0.28874192
0.10348645 -0.07210173 0.44251043 0.055325612 0.27201384 -0.031020736 0.0991643 -0.045978162
-0.05229984 -0.21571437 -0.1895706 0.12081419 -0.076695025 -0.10934183 -0.048584342 -0.36149633
-0.11768106 0.09196757 0.22894485 0.12428281 -0.34540632 -0.16045603 0.15784498 0.28582045
00000000: 26a3 073e a7e5 50bd 2ce2 d63c dbe8 0c3d
00000010: 4759 6f3e c413 b63e ef2d 713e f09c 6e3e
00000020: 0852 9e3e 6cdf dabc a23a 45be 3458 19be
00000030: 56c0 873e b441 3dbe 6abf 5c3e b236 103e
00000040: 87ef 2dbe 7c8d 993d 0da3 f23d d2cc 513d
00000050: 9eb0 193e f94a 6d3e 1b07 803d 64cf 433d
00000060: cc6c 01be 68ba 833d cae1 703f 8507 2bbe
00000070: 9c87 173e d38a 39be dc76 8cbe 724b 993d
00000080: 1bd6 dbbe 2e84 263e 77aa 4fbe 47c2 883e
00000090: ea9b 19bd fc47 96be abf2 143e 0db5 9cbe
000000a0: 76ab 1f3d 3dc9 73be c384 26be 6d87 7bbe
000000b0: 18a5 c6be 7d6f 9e3d 521a 09bd df41 933e
000000c0: 274c 223a 0351 7c3e 3755 d13d cc4e 4f3e
000000d0: 437d 223e 721f 46be a04d 3d3d bc56 5abe
000000e0: 9e60 64bd 96cb a3be cf1c 10bf e1d6 e2be
000000f0: a4b6 14be 42d0 c7bc 96c3 e7bd 1d24 12be
00000100: 50ba 3c3e a872 073d 0967 873e 4cd0 44bc
00000110: 671c e1bd 1b02 eebd cdae c83d 45d3 80bc
00000120: cba5 7abb 6032 8abd 808a 68be 763c 18be
00000130: bbda 743e 621b bd3d 3eba 57be 83ab 523e
00000140: f99c 943c 7086 573e fba2 6a3e 5538 773e
00000150: acdc 663e 3391 7d3e 1729 283e 17d7 ec3d
00000160: cc2d 373d 822b 683e 4837 d83d c80b 263e
00000170: 530b fe3a 8fc3 b63d 293d 253e bc05 4f3e
00000180: 159b b8bc 299e a7bd 299f 85be caa9 0cbe
00000190: 5ead cabe e373 5e3d ba45 703d 7f71 92be
000001a0: 6456 a03d fcc3 df3d 5fb2 0abe 59dd 50be
000001b0: ae22 263d 83eb 36be caf7 39be d86a f73c
000001c0: da51 9d3e 24ba 873d 4a1f d2bd 1197 7b3e
000001d0: 79ba 6f3d 4273 a2be 531b 4c3e 4ff1 c93e
000001e0: 1691 a1be 2b7b 973e fdeb 1abf 23a7 a53e
000001f0: 4f6b 0bbe cc05 343d 51e6 2ebe 0166 8cbe
00000200: f5ba 253e 981f c13d 67d4 9abe 0108 b13d
00000210: b4c2 973c 27bd 00bf 4ab7 b4bd ce5c 803d
00000220: e8b0 8ebe f2e6 c2bd 7f24 dd3c 26ca 003e
00000230: e19d e13c 8a96 783e bdfe 033f 17b4 11be
00000240: 0dc7 d2bd 39ac a4be c1fe b5be a1f7 8bbe
00000250: dc19 d53d 7d8f 493e 0c8a 77be 0590 603e
00000260: 3efd 803e eec9 ad3d 4993 c43d e5a7 323e
00000270: ad5b f3bd 1750 163e feb5 9cbd 25c7 cdbe
00000280: 6fa1 71be 6949 0ebe 8511 9abc 6bbd 8fbe
00000290: 6420 3fbd a584 01bd ff89 94bd cd8d a8be
000002a0: 33f6 dc3e 9fce babd 0d6a 97be 8370 16bd
000002b0: 603e 97be 4a85 723e 90d6 50bd 4764 7dbd
000002c0: c5a2 40bd 5bf0 443d 4137 e2bd f2a4 9b3e
000002d0: 568f 0bbe 0181 e03b d0c0 3c3e cf56 4dbd
000002e0: 158c 3f3e 6b91 24be 6443 2a3e 5807 46bd
000002f0: 4c28 f63d 7129 c13d c3b3 893d a6f4 b8be
00000300: adf8 dcbc 7e20 c8bd f24f 35be 7ee2 883e
00000310: 051e 033e 3cc2 a43e f1db 8b3e 689d 3abd
00000320: f8ba cd3d 6a3b 6dbd b065 db3e ad87 863e
00000330: e841 983e 83e7 3c3e dbdc cebd 9fd2 50be
00000340: 1424 283e e06b 813e 3907 ce3d 0d34 98bc
00000350: 4205 4d3d b282 cbbd dc49 dabd e7e8 913e
00000360: d650 57bd 506d cf3d e157 323f 3bd8 8d3d
00000370: 44d6 c03c 0878 a2bd 000d ec3d 768c adbd
00000380: 7787 d5be 1676 ffbc ae42 ccbc d7b3 1abe
00000390: 788d 11bd 284f e93d c859 fbbd fbd5 93be
000003a0: b4f0 d33d 12aa 93bd ba90 e23e 1c9d 623d
000003b0: 6645 8b3e 331f febc a716 cb3d 9953 3cbd
000003c0: 5b38 56bd 3ae4 5cbe cc1e 42be 6e6d f73d
000003d0: 4812 9dbd 9cee dfbd 6000 47bd 0c16 b9be
000003e0: c502 f1bd 7e59 bc3d 8570 6a3e fc87 fe3d
000003f0: 19d9 b0be 964e 24be 1da2 213e 0f57 923e

parallel_cnn_block.branches.0.0.weight f4 [1, 1, 2]
0.36616552 0.74621475
00000000: 0c7a bb3e ee07 3f3f

parallel_cnn_block.branches.0.2.bias f4 [16]
0.10230283 0.43374562 0.7284744 0.4170938 -0.54674584 -0.0011787605 0.006034067 -0.3509852
-0.10844691 0.46747416 0.23071434 0.5120429 -0.0008023954 0.48686844 0.28153625 0.5443502
00000000: 2584 d13d e813 de3e 4c7d 3a3f 528d d53e
00000010: 89f7 0bbf a480 9aba 6cb9 c53b 55b4 b3be
00000020: 6a19 debd c658 ef3e 6140 6c3e 3e15 033f
00000030: d857 52ba d246 f93e 8525 903e 895a 0b3f

parallel_cnn_block.branches.0.2.weight f4 [16, 1, 2]
-0.50511605 0.49587598 -0.11474755 0.37403318 -0.36141497 -1.1168586 -0.9385196 -1.3730712
-0.09543572 -0.20681205 0.5747489 0.22598767 -0.30563745 0.40957838 -0.46583527 -0.5392129
-0.29577473 0.3579952 -0.05103919 0.014121318 -0.48472703 0.47611353 -0.31203595 0.35870963
0.4687952 0.48909244 0.4658088 -0.07289551 -0.40935218 0.40287286 -0.11348723 0.06436868
00000000: 494f 01bf 75e3 fd3e c300 ebbd 4781 bf3e
00000010: 620b b9be 39f5 8ebf d242 70bf ccc0 afbf
00000020: ce73 c3bd 8ac6 53be be22 133f 5069 673e
00000030: 837c 9cbe 42b4 d13e f681 eebe db09 0abf
00000040: c96f 97be 264b b73e 780e 51bd 1a5d 673c
00000050: 242e f8be 27c5 f33e 2dc3 9fbe caa8 b73e
00000060: ed05 f03e 536a fa3e 7e7e ee3e 3e4a 95bd
00000070: 9c96 d1be 5a45 ce3e fe6b e8bd bad3 833d

parallel_cnn_block.branches.1.0.weight f4 [1, 1, 4]
0.34462526 -0.009202979 -0.15591818 -0.07355396
00000000: b972 b03e 17c8 16bc 04a9 1fbe 75a3 96bd

parallel_cnn_block.branches.1.2.bias f4 [32]
-0.30003548 0.15418565 0.050748393 0.13505617 -0.54505724 -0.20295686 0.4593923 0.08767194
0.050342433 0.103628114 0.20604675 0.18057093 0.1786407 -0.67873466 0.33901727 -0.4654973
-0.3206304 -0.23748378 -0.0018928952 -0.08734679 -0.622332 0.09749173 -0.07419117 0.31052944
-0.22740057 0.34429505 -0.21021761 0.30701023 -0.20629436 -0.29857758 0.052578904 -0.14789627
00000000: 409e 99be d8e2 1d3e 8cdd 4f3d 2a4c 0a3e
00000010: df88 0bbf ecd3 4fbe 7835 eb3e 598d b33d
00000020: de33 4e3d fa3a d43d ebfd 523e 96e7 383e
00000030: 96ed 363e 8ec1 2dbf ac93 ad3e a955 eebe
00000040: ab29 a4be f32e 73be 061b f8ba e0e2 b2bd
00000050: 2651 1fbf bea9 c73d 8af1 97bd b7fd 9e3e
00000060: b2db 68be 7147 b03e 4943 57be 7230 9d3e
00000070: d43e 53be 29df 98be fa5c 573d 1f72 17be

parallel_cnn_block.branches.1.2.weight f4 [32, 1, 4]
-0.053443972 0.44792604 -0.36703894 -0.49850407 -0.42646843 -0.6013483 0.022921659 0.5645476
0.1009072 0.3863338 -0.6049222 0.37698343 -0.36544338 -0.6283455 0.14583448 0.46031225
0.22209392 0.114915915 0.17565383 0.71761054 0.37073648 -0.9731416 0.3367021 -0.3853605
-0.6266462 -0.05344154 -0.5296382 0.097931445 -0.014106256 0.31852347 0.033338964 -0.5439705
-0.4220965 0.12437924 0.6347436 -0.51006407 0.41932228 0.5161639 0.12612857 0.37239113
-0.0061517707 0.13232575 -0.75857717 0.114456266 -0.54289025 -0.016470402 0.055051766 0.4371809
0.12316464 0.32352635 -0.41564667 -0.5607292 0.021218117 0.07637329 0.49621075 0.22835393
-0.1908006 -0.49928933 -0.27045748 0.081319466 0.057394426 -0.3653559 -0.48916265 0.03468462
-0.6833215 0.39418644 -0.027742391 -0.16916883 0.09763789 0.05924246 -0.15300271 0.5264276
-0.06269541 0.62786955 0.5580205 -0.39319023 0.539436 -0.29083887 0.22454354 0.3600178
0.022150911 -0.032420717 0.7819326 0.11305146 -0.3246047 0.13647741 -0.44866812 0.25936228
0.5627007 0.44004878 0.5964509 0.64952904 -0.5229695 0.011977714 0.23279265 0.23138869
0.16859758 0.4568578 -0.36156556 0.4219261 -0.5421694 -0.08064971 -0.4378862 0.17614649
0.45283955 0.075176254 0.094845906 0.40577808 -0.16619241 -0.62874377 0.052643526 0.33627775
0.39321938 0.028594013 0.51640147 0.66732895 0.09464239 0.59448504 0.69263124 -0.08789603
0.12234556 0.19837566 -0.63053006 -0.5430587 0.45195085 -0.020129556 -0.12101593 0.53037393
00000000: 11e8 5abd 9056 e53e 87ec bbbe ed3b ffbe
00000010: 125a dabe f6f1 19bf 34c6 bb3c 3186 103f
00000020: 6fa8 ce3d 8bcd c53e 2edc 1abf f903 c13e
00000030: 651b bbbe 40db 20bf a255 153e 0cae eb3e
00000040: 976c 633e 0959 eb3d 99de 333e 53b5 373f
00000050: 2cd1 bd3e cf1f 79bf 3864 ac3e f94d c5be
00000060: e36b 20bf 84e5 5abd 5e96 07bf 4890 c83d
00000070: ed1d 67bc 8215 a33e 708e 083d a741 0bbf
00000080: 081d d8be 8bba fe3d 8e7e 223f 8f93 02bf
00000090: 69b1 d63e 5123 043f d927 013e 0daa be3e
000000a0: cb94 c9bb 6780 073e 1d32 42bf 0c68 ea3d
000000b0: dbfa 0abf f0ec 86bc f67d 613d 2dd6 df3e
000000c0: be3d fc3d 3fa5 a53e a4cf d4be f38b 0fbf
000000d0: 9ed1 ad3c 9969 9c3d 560f fe3e 9dd5 693e
000000e0: 3c61 43be daa2 ffbe 6779 8abe d28a a63d
000000f0: 6b16 6b3d ee0f bbbe 8773 fabe 7611 0e3d
00000100: 28ee 2ebf ced2 c93e 0344 e3bc 983a 2dbe
00000110: 60f6 c73d 39a8 723d beac 1cbe f6c3 063f
00000120: 7366 80bd 0fbc 203f 6eda 0e3f 3b50 c9be
00000130: 7a18 0a3f d5e8 94be beee 653e 4154 b83e
00000140: d475 b53c 96cb 04bd bc2c 483f 8687 e73d
00000150: 9632 a6be bcc0 0b3e d4b7 e5be 22cb 843e
00000160: 270d 103f 134e e13e 02b1 183f 8947 263f
00000170: 54e1 05bf 2c3e 443c 3261 6e3e 28f1 6c3e
00000180: d8a4 2c3e 44e9 e93e 1f1f b9be b306 d83e
00000190: 9dcb 0abf ad2b a5bd 9f32 e0be bf5f 343e
000001a0: 96da e73e 02f6 993d 923e c23d 25c2 cf3e
000001b0: 582e 2abe 5af5 20bf bda0 573d 992c ac3e
000001c0: 0d54 c93e fe3d ea3c e332 043f 12d6 2a3f
000001d0: dfd3 c13d 2c30 183f 4850 313f d502 b4bd
000001e0: 4f90 fa3d fd22 4b3e 6b6a 21bf e505 0bbf
000001f0: 1a66 e73e bde6 a4bc 33d7 f7bd 96c6 073f

parallel_cnn_block.branches.2.0.weight f4 [1, 1, 8]
0.031832457 0.23574512 -0.09179276 0.40953586 -0.22658762 -0.45890862 -0.17836018 0.2718259
00000000: c062 023d 2b67 713e d8fd bbbd afae d13e
00000010: 9606 68be 12f6 eabe 0da4 36be c42c 8b3e

parallel_cnn_block.branches.2.2.bias f4 [64]
0.124934934 -0.74970424 -0.22050166 5.3173426e-05 0.0011344526 0.36149192 -0.45189422 -0.783794
0.24213302 0.32003477 0.30585158 0.16021776 -1.030257 0.30448166 0.18854082 -0.9357403
0.2274869 -0.007189698 0.07220569 -0.33474028 -1.0308732 -0.055016495 -0.2803899 0.22043964
0.01617935 -0.6955102 -0.43827233 0.16830125 0.27656284 -1.0077544 -0.003588479 0.16179988
0.012128903 -0.24489407 -0.6370676 0.004287371 0.25680012 -0.051400945 -0.18777262 0.29174834
0.13132755 -0.6471465 0.21211396 0.32173797 0.26305932 0.30030593 0.37867388 0.006124927
-0.5432373 -0.0666207 0.12292378 -0.024942353 -0.0035013584 0.014067568 0.0027164514 -0.8553425
0.21279807 0.08015297 -0.734083 -0.49062407 0.0051033585 0.009568292 -0.4066348 -0.0061170454
00000000: e3dd ff3d 9eec 3fbf 30cb 61be 8806 5f38
00000010: eab1 943a 7815 b93e ae5e e7be b9a6 48bf
00000020: b8f1 773e 99db a33e 9498 9c3e 2010 243e
00000030: 76df 83bf 05e5 9b3e d810 413e ad8c 6fbf
00000040: 53f2 683e 8f97 ebbb 94e0 933d 1463 abbe
00000050: a7f3 83bf fa58 61bd 448f 8fbe eeba 613e
00000060: 8e8a 843c f50c 32bf 3b65 e0be 2a57 2c3e
00000070: a599 8d3e 19fe 80bf b02c 6bbb deae 253e
00000080: 4eb8 463c 83c5 7abe dd16 23bf 137d 8c3b
00000090: 4e7b 833e cc89 52bd 7747 40be 0a60 953e
000000a0: bb7a 063e 65ab 25bf 6734 593e d7ba a43e
000000b0: b6af 863e b3c1 993e 8be1 c13e 9db3 c83b
000000c0: 9a11 0bbf 6f70 88bd 76bf fb3d e853 ccbc
000000d0: 0c77 65bb a87b 663c 7e06 323b baf7 5abf
000000e0: bde7 593e 3e27 a43d ddec 3bbf 1433 fbbe
000000f0: 133a a73b 53c4 1c3c 7032 d0be 7f71 c8bb

parallel_cnn_block.branches.2.2.weight f4 [64, 1, 8]
-0.008885006 0.0031902078 0.2858759 0.2010302 0.0010569809 -0.15555121 0.34017 -0.2765348
0.09119714 -0.102383226 0.03608803 0.047376342 -0.061023865 0.021304192 -0.0055887904 0.44358584
-0.19001797 0.34551102 -0.46232748 -0.02139497 0.58107674 0.089164205 -0.49519473 0.18743402
0.5727657 0.030722685 0.02457712 0.15715618 0.2566441 -0.11151952 0.2557637 -0.11605965
-0.002293901 0.2515745 -0.025792355 0.11693482 0.5200439 0.419245 0.13171138 -0.26388276
0.1356851 -0.10597139 0.16771099 -0.17485017 0.12458778 -0.31900352 -0.16731298 0.2328764
0.5526751 0.0304227 0.02232694 0.06333561 0.08480208 -0.18710992 0.23582132 0.14793277
-0.11422133 -0.27825302 0.11768525 0.029076329 -0.44215113 0.22562014 0.30563277 0.039845772
-0.2817654 0.4146048 0.30274743 0.4489919 -0.20330027 0.18699215 -0.12925914 -0.16257486
0.30040473 -0.3170951 -0.2753744 -0.4447919 0.38826996 -0.19730043 0.09059505 -0.40773845
-0.06687247 0.12615867 0.2937436 0.42772892 -0.13637885 -0.15886842 -0.012492415 -0.026505526
0.011530965 0.12351489 0.36106026 0.14267696 -0.05367253 -0.009403935 -0.30738685 -0.24295557
0.0307088 0.19937724 0.005591351 -0.10254567 0.041814845 0.013607313 -0.07403145 0.3079061
-0.264105 -0.2317175 -0.006880103 -0.19389051 -0.2605253 -0.24516088 -0.12090795 0.3215617
-0.3057005 -0.0077018184 -0.04380001 -0.18668938 -0.3055071 0.39682502 -0.07330807 0.19053516
-0.07022794 -0.13861515 0.088804916 -0.26369578 -0.15214983 0.033378784 -0.028615333 0.17638995
0.0642867 -0.19005278 -0.20143875 0.1953968 0.13945165 -0.11443598 0.053522132 0.27861077
0.30150783 -0.17467393 -0.2590199 0.34210336 0.46855247 0.45330495 0.33543345 -0.24945
-0.056019235 0.26518226 -0.21397425 -0.025628708 0.2505335 0.20532133 0.14144754 -0.29694915
-0.058093287 -0.08679207 -0.2584418 -0.3488772 -0.26338795 0.007032937 -0.21120735 -0.021562865
0.015349312 -0.34489304 0.08812494 -0.15673861 -0.032659806 0.018856475 0.026619034 0.17322823
0.27559185 0.14511983 0.2871716 0.50852937 0.25761017 -0.32573754 0.14259848 0.39089352
0.24344335 -0.46710628 -0.1880709 0.117055774 -0.26141277 -0.030908467 0.35475168 -0.14478637
0.15476872 0.20641357 -0.19911836 0.24787135 0.27093932 -0.14021404 -0.15900655 -0.00678394
-0.06402961 0.34490687 -0.30424118 -1.3925102 -0.081317745 0.2757441 0.36415341 0.27597472
-0.50511616 -0.0047567943 -0.1236409 0.10930726 0.37008405 0.22719504 0.28737485 0.2637873
0.02774889 -0.023060095 -0.109902635 0.05806296 -0.53276914 0.108324364 0.24937011 0.21962273
0.113716 0.0134877665 0.29110968 0.20077321 -0.15579396 -0.0768965 -0.27985722 -0.23657355
-0.31652912 0.06765108 0.35050806 0.093880825 -0.06129443 0.3270077 -0.13238308 -0.101077855
-0.051249642 -0.23953927 0.24393164 -0.361379 -0.20189029 0.11218289 -0.082783304 0.22281525
-0.70785916 0.15456653 0.19024946 0.50043476 -0.09311913 0.31238034 -0.62199235 0.3740777
0.3828476 0.008867701 -0.023500597 -0.23404203 0.13205455 -0.3629478 0.15938225 -0.54483974
00000000: 6b92 11bc ce12 513b 535e 923e dcda 4d3e
00000010: 658a 8a3a d148 1fbe c32a ae3e f895 8dbe
00000020: 91c5 ba3d 4cae d1bd 0bd1 133d b20d 423d
00000030: 29f4 79bd 2186 ae3c 2c22 b7bb af1d e33e
00000040: 1294 42be d2e6 b03e 30b6 ecbe 8144 afbc
00000050: 72c1 143f b99b b63d 2a8a fdbe b4ee 3f3e
00000060: c6a0 123f 24ae fb3c f555 c93c 8ded 203e
00000070: db66 833e 5964 e4bd 76f3 823e afb0 edbd
00000080: 4655 16bb 5fce 803e 7d4a d3bc 867b ef3d
00000090: 9921 053f 48a7 d63e 59df 063e a41b 87be
000000a0: 09f1 0a3e 8707 d9bd 6ebc 2b3e ec0b 33be
000000b0: e127 ff3d 6e54 a3be 1854 2bbe 2777 6e3e
000000c0: 1e7c 0d3f 0739 f93c fde6 b63c 1ab6 813d
000000d0: b7ac ad3d be99 3fbe 257b 713e b07b 173e
000000e0: dfec e9bd 2e77 8ebe f704 f13d 7b31 ee3c
000000f0: a261 e2be f708 673e e67b 9c3e 5235 233d
00000100: 8e43 90be 1547 d43e b601 9b3e 44e2 e53e
00000110: f22d 50be df7a 3f3e 825c 04be 067a 26be
00000120: a6ce 993e 4a5a a2be e0fd 8cbe c4bb e3be
00000130: 52cb c63e 2009 4abe e689 b93d 18c3 d0be
00000140: 6ff4 88bd bd2f 013e 9065 963e 49ff da3e
00000150: e6a6 0bbe 67ae 22be fcac 4cbc 1e22 d9bc
00000160: 5fec 3c3c 60f5 fc3d e4dc b83e e919 123e
00000170: bad7 5bbd f612 1abc cf61 9dbe 58c9 78be
00000180: 0591 fb3c 8c29 4c3e a737 b73b 7703 d2bd
00000190: 0b46 2b3d 35f1 5e3c cd9d 97bd dea5 9d3e
000001a0: c538 87be 5a47 6dbe 7d72 e1bb 3c8b 46be
000001b0: 9263 85be 740b 7bbe 969e f7bd bca3 a43e
000001c0: c784 9cbe 895f fcbb a467 33bd 802b 3fbe
000001d0: 6d6b 9cbe a62c cb3e 8b22 96bd a61b 433e
000001e0: abd3 8fbd 21f1 0dbe 5adf b53d 2203 87be
000001f0: 2acd 1bbe 31b8 083d b46a eabc 919f 343e
00000200: bfa8 833d 329d 42be f645 4ebe 1916 483e
00000210: 6acc 0e3e 695d eabd 063a 5b3d 12a6 8e3e
00000220: 3c5f 9a3e b9dd 32be 429e 84be 2c28 af3e
00000230: 1ce6 ef3e 9617 e83e efbd ab3e d26f 7fbe
00000240: 6d74 65bd f8c5 873e 111c 5bbe 4cf3 d1bc
00000250: ed45 803e c13f 523e a0d7 103e b809 98be
00000260: 3af3 6dbd 0ac0 b1bd 7c52 84be 08a0 b2be
00000270: c9da 86be 8d74 e63b bd46 58be 9ba4 b0bc
00000280: ae7b 7b3c d295 b0be d97a b43d 1680 20be
00000290: 4ac6 05bd e578 9a3c 2910 da3c be62 313e
000002a0: 601a 8d3e 4b9a 143e 2808 933e fb2e 023f
000002b0: 7be5 833e 12c7 a6be 5605 123e 3223 c83e
000002c0: 3749 793e 8e28 efbe a895 40be f0ba ef3d
000002d0: e5d7 85be c133 fdbc 03a2 b53e e142 14be
000002e0: b17b 1e3e 145e 533e afe5 4bbe fdd1 7d3e
000002f0: 8fb8 8a3e 4594 0fbe 9dd2 22be d04b debb
00000300: f521 83bd a297 b03e 80c5 9bbe c63d b2bf
00000310: eb89 a6bd 552e 8d3e 5172 ba3e 8f4c 8d3e
00000320: 4b4f 01bf e2de 9bbb 7137 fdbd 7cdc df3d
00000330: a87b bd3e d1a5 683e cc22 933e 210f 873e
00000340: a451 e33c 86e8 bcbc a214 e1bd 6dd3 6d3d
00000350: 8f63 08bf 2ad9 dd3d e15a 7f3e c8e4 603e
00000360: efe3 e83d cbfb 5c3c 540c 953e 7e97 4d3e
00000370: 7488 1fbe ea7b 9dbd 7249 8fbe 5640 72be
00000380: 1b10 a2be a68c 8a3d cb75 b33e 9744 c03d
00000390: de0f 7bbd 8e6d a73e 6e8f 07be e801 cfbd
000003a0: 25eb 51bd c849 75be 37c9 793e ab06 b9be
000003b0: 54bc 4ebe 25c0 e53d 4b8a a9bd ae29 643e
000003c0: 4236 35bf b046 1e3e c1d0 423e 7e1c 003f
000003d0: 3eb5 bebd 51f0 9f3e e43a 1fbf 1d87 bf3e
000003e0: 9a04 c43e d549 113c 5384 c0bc b7a8 6fbe
000003f0: 4f39 073e 4bd4 b9be 1a35 233e 9e7a 0bbf

parallel_cnn_block.branches.3.0.weight f4 [1, 1, 32]
0.0033195687 -0.041142438 -0.020732418 -0.029543173 -0.039938804 0.0011371656 0.12674603 0.059207827
0.13649161 0.09751666 0.18928492 0.09539818 0.16517423 0.0872171 0.0583306 0.13937101
0.08448888 0.22198692 0.24834871 0.13916157 0.2706062 0.120306395 0.124708876 0.02999866
0.1122074 -0.0040438706 -0.0726087 0.040086742 -0.020995975 -0.056338467 -0.0079745045 -0.0052207173
00000000: 1f8d 593b f984 28bd 08d7 a9bc 8604 f2bc
00000010: df96 23bd f20c 953a b6c9 013e e883 723d
00000020: 75c4 0b3e d1b6 c73d e8d3 413e 1f60 c33d
00000030: 6f23 293e e19e b23d 11ec 6e3d 46b7 0e3e
00000040: 8208 ad3d 8a50 633e 204f 7e3e 5f80 0e3e
00000050: e58c 8a3e 3363 f63d 5e67 ff3d c0bf f53c
00000060: fecc e53d 7282 84bb dfb3 94bd ff31 243d
00000070: c0ff abbc 2ac3 66bd 7fa7 02bc 8d12 abbb

parallel_cnn_block.branches.3.2.bias f4 [16]
0.43341628 0.2235189 0.13876309 0.15418929 0.36145306 0.114170276 -0.011409146 0.22947744
0.099365905 0.07703871 -0.021936255 -0.049702488 0.300755 0.21919402 0.13263504 -0.20017914
00000000: bde8 dd3e 23e2 643e e917 0e3e cce3 1d3e
00000010: 6010 b93e 1bd2 e93d 6ded 3abc 22fc 6a3e
00000020: 5a80 cb3d 79c6 9d3d a9b3 b3bc d694 4bbd
00000030: 8ffc 993e 6674 603e 7bd1 073e c3fb 4cbe
