wide/modelpars_wide_i_30.safetensors (safetensors, 86584 bytes, 32 tensors)

bilstm.bias_hh_l0 f4 [64]
00000000: 2690 e0bd 7dca 803e ef8c 303e 69fd fc3d
00000010: e0a1 1fbe 9dc6 80bd 62e6 42bd bfa5 003e
00000020: c41c 32be a3e0 1dbd 9213 133d 39e5 90bc
00000030: dcb5 75bd 5183 313e c9b0 693e e117 903c
00000040: 9ae8 2b3e 7aea 0ebe 1263 f03d 1c28 7ebd
00000050: d869 00be bf73 6f3e 92db 69bd 3e21 433d
00000060: 9ed2 8d3e 5fb8 893e 1e21 7a3e 53b5 6a3e
00000070: 6c1f 1cbe 86a8 15bd c52f 40bd 1e9d 31bd
00000080: 0404 403d eeaf 973d fb47 603e cecb 313e
00000090: 993e 923d d01d 88bd f88a 863e 9d2e 603d
000000a0: f105 5bbe 910d e63d 9608 b7bd ca6d 423d
000000b0: b9ed 64be a02b d63d 8310 e83d eb3d 37be
000000c0: bd66 21be ceab ab3c e40c 803c d882 6e3e
000000d0: 0b9f 463e 5d8f fe3d aca6 f7bd 24e2 453c
000000e0: 1c91 25be 030e 643e 1663 69bd c0c8 07be
000000f0: 6086 d73d 7e61 34be 22a1 c2bd e0bb 753e
-0.10964994 0.25154486 0.17241262 0.12353022 -0.15589094 -0.062878825 -0.04758299 0.12563227
-0.17393786 -0.03854431 0.035907336 -0.017687427 -0.059987888 0.1733525 0.22821344 0.017589511
0.16787949 -0.13956633 0.11737646 -0.06204997 -0.12540376 0.23383997 -0.057094164 0.047639124
0.2769975 0.26898476 0.24426696 0.22920732 -0.15246361 -0.03653767 -0.046920557 -0.04336273
0.04687883 0.07406603 0.21902458 0.17362902 0.07140846 -0.06646311 0.262779 0.054731954
-0.21388985 0.11233056 -0.089371845 0.047467984 -0.22356309 0.104575396 0.11331274 -0.17894714
-0.15761848 0.020955946 0.015631147 0.232921 0.19396608 0.12429688 -0.12092337 0.012077842
-0.16168636 0.2227097 -0.05697926 -0.13260174 0.10523677 -0.17615315 -0.0950339 0.2399745

bilstm.bias_hh_l0_reverse f4 [64]
00000000: c52f a13d c97e 1a3e c353 553e e0f4 013a
00000010: 2c43 83bd 6618 913d a43d c3bd 80cf c3bd
00000020: 46b8 adbd e73d 57bd b7e8 cdbd 9de2 0abd
00000030: c533 d13d eafe eb3d 2656 1a3e e045 043d
00000040: 8c3a 7ebe 6555 a5bd 00da 8dbc f3b8 753d
00000050: e26f 48be f4ad dbbd 7bbc 8a3e dd18 133e
00000060: 242a 363e 920c b83d 8fd0 c63d 977d 643d
00000070: 758b 5c3e 679e ddbd 81af 7f3b f5de 5e3c
00000080: b88a 40be 6210 cf3c d5f5 6e3e e71a a0bd
00000090: 17aa 9fbd 2b4c 193e e4f4 f5bd 4966 32be
000000a0: 5a59 813e 63d7 1e3e f362 4fbe bee5 593e
000000b0: e7c4 52bc 55c3 1fbe 119d 2fbe abb1 753b
000000c0: 2c01 553c 757a 7fbe 0908 d23d 24ce 16bb
000000d0: af3a 2e3e a654 e8bd 2a81 8c3e 81c6 1fbe
000000e0: 2f00 f3bd 2fa8 33be e0f8 3a3e 367a bf3d
000000f0: 6564 273e 875e 743e b964 0ebc e3c8 053d
0.078704394 0.15087427 0.20832734 0.00049574487 -0.064092964 0.07084732 -0.095332414 -0.09561062
-0.08482413 -0.05254927 -0.100541525 -0.03390752 0.102149524 0.115232304 0.15071926 0.0322932
-0.24827021 -0.08072928 -0.017315865 0.059990834 -0.1957393 -0.10726538 0.27096924 0.14364953
0.17789513 0.089867726 0.09707748 0.055783834 0.21537574 -0.108212285 0.003901452 0.013602962
-0.18802917 0.025276367 0.23335965 -0.07817631 -0.07796114 0.14970462 -0.120096 -0.17421831
0.25263482 0.15511851 -0.2025259 0.21279046 -0.012864328 -0.15601857 -0.1714976 0.0037489932
0.013000768 -0.24949057 0.10255439 -0.0023011053 0.17014574 -0.113442704 0.27442294 -0.15603067
-0.118652694 -0.17544626 0.18259001 0.09349482 0.16346891 0.23864184 -0.008691006 0.032662284

bilstm.bias_ih_l0 f4 [64]
00000000: 9945 e6bd dea3 223d 855f 713e 9c20 02bd
00000010: 1877 dc3d b8df 6fbd d47f 73be f9c1 003d
00000020: 47c6 883e ce2c 55be 5dc2 09be dca9 193d
00000030: 2045 863d e668 aa3d 8c10 adbd ca93 29bd
00000040: 484f 8e3d a2ab 763d 2e2c 2a3e e22e 5c3e
00000050: f412 4c3e e6dd 1c3e 6385 40be 7fc8 4b3e
00000060: bfbc 6fbd 92a6 083e 4ff6 f4bd 332a 533e
00000070: e2d3 433e 311b d2bd 9de3 873e 1956 4e3e
00000080: 2906 cc3d f173 0d3e 451d 403e c2f3 68be
00000090: 1458 0a3e ab5e bd3b 8a40 3b3e f75e 003e
000000a0: 16a2 e43c e023 56be d2cc 71be 6f34 08be
000000b0: f1dd 403e 4e9d 7dbe 87a4 283e a907 4a3e
000000c0: 497c 633e 9c5f 09be 9a64 1cbe b0dd 613e
000000d0: c993 36be 515e 273e 5e52 19be 7061 243e
000000e0: b59d 9a3e e76c 933e 1c3a 34be e4e2 a23d
000000f0: f382 313e fcc7 d1bb c581 1cbe b533 353e
-0.112437434 0.039707057 0.23571594 -0.03176938 0.10764903 -0.058562964 -0.23779231 0.031434987
0.26713774 -0.20817873 -0.1345305 0.037515506 0.06556153 0.08320789 -0.08450422 -0.04140071
0.069487154 0.060222276 0.16618416 0.2150226 0.19929105 0.15319023 -0.18800883 0.19900702
-0.05852961 0.13344792 -0.11961042 0.20621566 0.19123796 -0.102590926 0.26540843 0.20150031
0.099621125 0.1381376 0.18761165 -0.22749236 0.13510162 0.0057791076 0.18286338 0.12536226
0.02790932 -0.20912123 -0.23613289 -0.13301252 0.18834664 -0.24767038 0.16469012 0.19729485
0.2221538 -0.13415378 -0.15272751 0.22057223 -0.17829813 0.16344573 -0.14972827 0.16052794
0.30198446 0.28794023 -0.17600292 0.07953432 0.1733511 -0.006402014 -0.15283878 0.17695506

bilstm.bias_ih_l0_reverse f4 [64]
00000000: 9101 a7bd 2590 e73d 4900 403e 32b9 71be
00000010: 4754 ddbd df4a 383e 473b 5a3e bd7a e13c
00000020: b272 c4bd 89e3 0cbe 47cf 8dbc 02aa d2bc
00000030: 29e6 18bc ab1c 883e f23a 533e b8d1 9cbe
00000040: cbc1 52bd af61 4bbc f9b3 4cbe f35a 85be
00000050: 988e 08be 37aa 253e 4e9c f8bd 3fdb 183d
00000060: c0af 833e 847b f73a 35d8 91bd 4c33 833e
00000070: 206e a23d f5fa 843e 57bd c0bd b214 c4bb
00000080: 6485 44be 369a 443e 11f9 693e 76dc 30be
00000090: f7ff 72bd 15f0 f2bc 2b0f 423e 3cf0 08be
000000a0: 42ca 18be 67ed 713c 2521 87be 6758 bc3d
000000b0: 38fb 243d 7da0 b73d ca08 15bd 969c 2d3d
000000c0: c776 803e bf83 15bd 7d39 f53c 3688 ecbd
000000d0: 5f3d 8d3e 9396 1f3e 9684 173e b9d7 6e3e
000000e0: 4fff 633e fd10 6e3e dc03 4cbe 02a3 5cbe
000000f0: ca3b cbbd 2458 913d 2b73 a2be 668a 07bd
-0.08154596 0.1130679 0.18750109 -0.23605803 -0.1080709 0.17997311 0.21311675 0.027524346
-0.09592189 -0.13758673 -0.017310752 -0.025715832 -0.009332218 0.26584372 0.20627955 -0.30628753
-0.051454347 -0.012413426 -0.19990529 -0.2604595 -0.13335645 0.16178213 -0.12139188 0.037318464
0.25720024 0.0018881415 -0.07121316 0.25625074 0.07931161 0.25972715 -0.09411114 -0.0059839124
-0.1919151 0.19199452 0.22848918 -0.17271599 -0.05932614 -0.029655496 0.18951099 -0.13372892
-0.14920905 0.014766074 -0.26392475 0.09196549 0.040278643 0.089661576 -0.036385335 0.04238566
0.2509062 -0.036502596 0.02993464 -0.11549418 0.27585885 0.15584783 0.14796671 0.23324479
0.22265361 0.23248668 -0.19923347 -0.21546558 -0.09923513 0.070968896 -0.3172849 -0.03309097

bilstm.weight_hh_l0 f4 [64, 16]
00000000: 64ac 0dbd fa6f babc 42eb 883b 5d7f c9bd
00000010: aa60 293e 1f16 36be ea59 7a3b 1c47 b83d
00000020: 062e 1f3e 33f4 333d cc1d 94be 2bef 2e3e
00000030: e199 2c3e 55c8 b7bd ef0e 0fbe 04ef 49bd
00000040: 3930 68be 89ee ccbd fc40 ebbd 84ca 63be
00000050: 0a90 84be 6935 5e3c 5f93 00be dc91 383e
00000060: 13a9 433e b217 3fbe 1ecd 383e 3fe5 dcbc
00000070: 3f37 013e 4b4d 153e 97a3 873e 69bc f4bd
00000080: 7911 6c3e 6fe5 b8bd 3c46 1bbe 9bff 933d
00000090: c508 5c3e 356b cf3d 2cd2 4d3e 53e7 283e
000000a0: 4ab3 2dbe f251 b5bd 8601 a53d eb2f e6bd
000000b0: 27a0 d7bc 8b9a 81be 57c8 753d 7178 893e
000000c0: d07e 533b 0eaa 5fbd c42f 873e 083f 56bd
000000d0: b582 5abe fa59 ac3d eed4 6e3d de13 7c3b
000000e0: 1aee 25be 1557 37be a1e9 483e 2b17 68be
000000f0: 7c7c 843e 52d8 1f3c 9153 97bd 9d82 21be
00000100: 680a 02be 155f e1bd ad28 60bd 2a72 dc3d
00000110: 9bc6 0ebe 0421 c03d 6f61 5b3d 1da6 33be
00000120: 8753 1c3c 27ac 6abe 4b9a 76bd 005c 5cbb
00000130: 8d1d 6bbd bafa 86be ea52 29be 9d9d 253e
00000140: dd6b 9f3e f3b4 983d 5997 41be fd84 463e
00000150: 59f3 533e 88d8 3abc 92f7 803d 2a9b 2fbe
00000160: 3ef5 adbd 452f e6bd 6f33 5ebe 0851 f63d
00000170: 4ef0 09be 2a45 783d 62df b4bd 2c5e 973e
00000180: ab68 6b3e 3faf 2b3e a1e9 30be d603 4a3e
00000190: ad18 87bd 8301 b73e b82b 4bbd 689f 213e
000001a0: 4613 c33d e6aa 76be 15ec 85be 2092 9e3d
000001b0: 3382 5e3f f7b5 143e 90e0 3abe 1508 51bb
000001c0: 4d03 533b 8d2b 143d 267c cc3c c0ff 37be
000001d0: 141e 5abe b5d7 1d3e 2f46 403d 999b c03d
000001e0: 6c32 0ab9 e588 4f3e db4c 2f3d b540 783d
000001f0: bfdb 09bd d85f 133e a8a1 cfbd b870 823e
00000200: ee38 973d c594 e1bd 6bd0 8b3b 16a1 8abe
00000210: bd8a 0e3d 967c 943d a97e 25be 5a22 87bb
00000220: a4c9 f2bd ee57 463e 69b5 8ebe 7dbe 3b3e
00000230: d0a0 36bc 586b 85be e0fd a13d 2775 833e
00000240: d838 1f3d d50f 1abe f46c 50be d71d 6b3d
00000250: b45f e43d b040 86be 7b95 173d 0194 ed3d
00000260: 9b3c 28be bdf3 873e 1135 5a3e 3f42 78be
00000270: 2e1e 10be a264 a3bd d35b 403e 82d0 2bbe
00000280: 6533 00be 43a8 263e 0fa3 0d3e ee13 6a3e
00000290: c45a 08bd 1eca 08be 8025 593e 6287 823d
000002a0: f9fd 9fbc e2cb 383e 6610 24bd c476 88be
000002b0: acd9 9f3e 4353 063d 1d92 51be 2842 823d
000002c0: c578 9a3d 1fe3 9cbd 3f6d 873e 2b6d 8bbe
000002d0: 9a97 cf3d 50b5 1fbe 67b1 943e e892 183e
000002e0: 09a7 1cbe 1cfb 2b3e edde 1d3e 8b08 d83c
000002f0: 67a7 e73d 55f0 a6bc 80d4 9abd 41b1 1ebe
00000300: 6af8 0ebe 84f7 09bf df70 f0bd bc6c 2bbd
00000310: 5dda 94be fda9 0fbe 34c6 c93e ea58 883d
00000320: eeb7 313d 634a 753e e374 a3be a929 413d
00000330: 2216 59bf ab97 d3bd f1b2 453e 8735 9b3e
00000340: 88dd f2bd 2ff7 3ebd 67f9 d7bd 2154 7cbe
00000350: d053 3c3d 3e10 30be 77c8 aebc cdb1 e03d
00000360: 61fe b1bd fcb0 da3d 9cbc db3c 07ef 973d
00000370: ecf2 bcbe 0365 65be 22c1 b2bc aa08 163c
00000380: b98a c1bd 94b5 173e e3ba 0bbe 8d3a 0d3e
00000390: 52ad 3abe d015 d03d bc4a 343e e96c 6bbe
000003a0: 5cbb e0bd 4d27 7b3b f2b5 113e d047 40bc
000003b0: ea76 8dbe fc0d bcbc 43e7 96bb 26f1 df3e
000003c0: 4221 6b3e 7f1e bf3e 57fc 9e3d 88ba b4bd
000003d0: d0a8 943e 3f28 883e 421e c03e 2bb4 17be
000003e0: 16fe 8c3e 1c96 99be c0a4 633b 4d62 813e
000003f0: 62ba 8e3e 98a2 ca3e eab9 6bbe 2742 ad3d
-0.034588233 -0.022758473 0.0041784355 -0.09838746 0.1654078 -0.17781876 0.0038200566 0.08997938
0.155449 0.04393406 -0.28928983 0.17083423 0.16855575 -0.08973757 -0.1397054 -0.04930021
-0.22674645 -0.100064345 -0.11487004 -0.22245222 -0.25891143 0.013562539 -0.12556218 0.18024391
0.19107465 -0.18661383 0.18046996 -0.026964782 0.12618731 0.14580266 0.26491997 -0.11949999
0.2305354 -0.09028136 -0.15163511 0.07226487 0.2148772 0.1012787 0.20099705 0.16494493
-0.16962925 -0.088535205 0.08056931 -0.112396084 -0.026321484 -0.2531322 0.060005512 0.26849702
0.003227163 -0.054605536 0.2640363 -0.052306205 -0.21338923 0.08415599 0.058308534 0.003846399
-0.1620411 -0.17904313 0.19620372 -0.22665088 0.25876224 0.009756165 -0.07388986 -0.15772481
-0.12699282 -0.110044636 -0.05472629 0.107639626 -0.1394295 0.09381297 0.053559717 -0.17543836
0.009541399 -0.22917233 -0.06020574 -0.0033624172 -0.05740123 -0.26363164 -0.16535535 0.16173406
0.3113698 0.07456388 -0.18905391 0.19386669 0.20698299 -0.011404164 0.0629722 -0.17149034
-0.08494042 -0.11239485 -0.21699308 0.12027174 -0.13470575 0.060612835 -0.088316694 0.29564035
0.22989146 0.1676607 -0.17276622 0.19728026 -0.065965034 0.3574334 -0.04960224 0.15783465
0.095251605 -0.2408863 -0.2615668 0.07742715 0.8691742 0.14522539 -0.18249726 -0.0031895686
0.0032198012 0.036174346 0.024961542 -0.17968655 -0.21300536 0.15414317 0.046941932 0.09404678
-0.00013179489 0.20267065 0.042797904 0.060608584 -0.03365683 0.1439203 -0.10138255 0.25476623
0.07383905 -0.11014704 0.0042667887 -0.27076024 0.03480028 0.072503254 -0.16161598 -0.004123968
-0.11854866 0.1936948 -0.2787278 0.18334384 -0.011146739 -0.2605846 0.07909751 0.25675318
0.03887257 -0.15045102 -0.20354062 0.057401504 0.111510664 -0.26221228 0.03700779 0.11600495
-0.16429369 0.26553145 0.21309306 -0.24244021 -0.14074013 -0.079781786 0.18785028 -0.16778758
-0.12519605 0.16275124 0.13831733 0.22859165 -0.033289686 -0.13358352 0.21205711 0.063734785
-0.019530283 0.18046525 -0.0400547 -0.2665311 0.31220758 0.03279425 -0.20465894 0.063602746
0.07542566 -0.076605074 0.26450536 -0.27231726 0.101363376 -0.15596509 0.29041597 0.1489979
-0.15298094 0.1679501 0.1541707 0.026371261 0.11311226 -0.020378271 -0.075600624 -0.15497304
-0.1396195 -0.53893304 -0.117402785 -0.041851744 -0.29072848 -0.14029689 0.3940903 0.06657584
0.0433883 0.23954158 -0.31925115 0.04715887 -0.84799397 -0.10331663 0.19306542 0.30314276
-0.1185866 -0.04662245 -0.105456166 -0.24641468 0.045978367 -0.17193696 -0.021335823 0.10971413
-0.08691097 0.10678288 0.026823334 0.07418638 -0.36904085 -0.22401814 -0.021820609 0.009157339
-0.09450287 0.1481536 -0.1364551 0.13791867 -0.18230179 0.101604104 0.17606634 -0.22990765
-0.10973236 0.0038322986 0.14229563 -0.011735871 -0.27629787 -0.022955887 -0.0046052053 0.4373867
0.22961906 0.37327954 0.07762974 -0.088246405 0.29035044 0.26593205 0.37523085 -0.14814822
0.27537602 -0.29997337 0.003473565 0.2527031 0.27876574 0.39577174 -0.2302014 0.08459883

bilstm.weight_hh_l0_reverse f4 [64, 16]
00000000: a1b0 bd3d 16e7 883e c770 23be a1df b13e
00000010: a2e1 cbbd d2bc bb3c 3a18 453e 7a71 c0b8
00000020: dfc3 3bbe d12d 163e a850 78be 3583 e7bd
00000030: 0734 6ebd ada1 66be 48d4 4abe b20c dcba
00000040: 6cc3 b9bd 5a72 6a3d cc3a aabe ca08 0fbe
00000050: 0beb bfbd a859 753d d897 40be 6b11 bdbe
00000060: 10e2 263d fa2c c63d 0728 51bd 7d56 6cbe
00000070: 89e7 0abe 72be d6bd e4c8 2fbe 8da6 953d
00000080: 5b67 533e b550 bdbd 6999 353e f806 44be
00000090: f899 813e 9fb9 2d3e 9c11 06bd b7b8 1fbd
000000a0: 08c4 883e 743a 36be dce7 20be 7a3a afbd
000000b0: f8a7 05be 420d d3bc ae9a ebbd 73d3 5abd
000000c0: 3f35 b33e 8fa9 863e 95ba 1abe 36e8 8d3e
000000d0: 4dd8 87bd 2996 75be 07d6 8bbe ff35 c43e
000000e0: eefb b0ba 383e 543e 0509 8d3e 9a4c 1ebe
000000f0: 44c1 543e 9e14 723e 9cec 363e 3594 6cbc
00000100: 65a5 8dbe c907 3a3e e686 c13e 4077 903e
00000110: 86f8 aa3e b0c2 51be 7b58 103e b897 19bf
00000120: bd98 833e bb47 0cbd dc0a 86be 64b0 713d
00000130: 58c0 7b3e a0cf aebe 4146 b63e c16e 46be
00000140: 9838 953e 9486 383c 7155 533e 0d97 2bbe
00000150: 6e4d 763d 4d12 30be 121f 23bd 0974 2bbe
00000160: 9639 83be 4ca7 3dbe 262f 8b3e e468 a13d
00000170: 2e61 3f3c 6f8a 37be aba6 adbe 0b5f f6bd
00000180: b25c d63d b0d0 5f3e 4220 d5bb b482 813e
00000190: 15cf aa3d d3a7 403e 4de9 893e 1b53 b43c
000001a0: c0be 30be 0466 553d 1b08 f4bd 0daa 823d
000001b0: 477c 373e ec60 293e 1bdf 52be 9d20 bebd
000001c0: 3c92 96be ecfc 0ebe 5366 aa3d 2484 ad3e
000001d0: 4d11 a13c 3720 bb3d fec1 50be fbed 67be
000001e0: b9ac 7b3d 47c8 643d e9d1 7ebe ad09 993e
000001f0: 4ab4 fa3c c23f acbe 5f4c 3f3f 3bae e93c
00000200: 48f0 573d 19e3 7c3e c1f0 3cbe 3552 0dbe
00000210: cf9f 0abe 32a2 13be 7505 603e 9667 323c
00000220: 000f d3bd 0abc c8bc c34e eb3d f872 bcbd
00000230: d15e 41bc d4da 0e3e 5189 fe3c 90d2 fabc
00000240: d92f 2e3e 4bd3 46bd d776 623e 1a0e 14be
00000250: 49cb 06be 7ebc 6e3d 4a8f 54be 57bc 2abe
00000260: 774f 0cbc bd14 2cbe cf56 46be d548 e03d
00000270: 4ca9 b73d e623 09be 603a f0bd 6ac2 80be
00000280: 1d1c e13d cd5b b8bd ba72 413d 3cf5 b9bd
00000290: 80d8 ec3c 74c0 4a3d a766 043e 43f0 3bbe
000002a0: 60f0 04bc fba9 b93d 550a be3d 0057 3abe
000002b0: ca28 9d3d ee4a 1cbb ebab 05be 6132 0fbd
000002c0: e12f 763d 4ee7 8b3e 0673 d5bd c91f e4bc
000002d0: dcac 953d 66a8 093e 6087 8e3e cb98 81be
000002e0: 1250 773e 6ac1 87be 9d8d b3bc 576c 3dbe
000002f0: 6c1b 153e ccf3 6cbd 2091 393c 6f48 ed3c
00000300: 2e50 1cbe 1aa7 543e e6ee 2abe e442 27be
00000310: 10b9 58bc aa5b 65be b91e 883e 2c94 eebd
00000320: d7d7 3abd 5b74 a03d 7380 053d 42b9 0fbb
00000330: 736a 763d 003f 0dbd 37b7 72bd 5d07 323d
00000340: a209 b03d fdf8 b9be d3dc 8fbd a69b 2d3e
00000350: 0a13 1fbe 6244 a0bd f49e 90bd f9c0 2d3d
00000360: aa86 153e 2065 bfbc 237f a5be d56c 93bd
00000370: 29f6 abbd 43bc 823d 7461 0cbe e714 b83e
00000380: ce40 5bbe ca30 1f3e f347 57be bb8b b6bd
00000390: 37f2 37bd ab9d eabd b9a5 c83d 09dc bbbd
000003a0: c529 7dbe 902e 60be f2f7 503e 9cd6 903d
000003b0: 667b 733e 9a7d 6a3c c50c 833e accb 15bd
000003c0: 6e24 a43d 28ec 32bd 2b4d f5ba f0ee 96bd
000003d0: af0f 093e e725 743d caed 92be c39c 043e
000003e0: 6950 9c3c 8791 4ebd 5ad9 403e 6fa5 81be
000003f0: 1f61 00be 7899 de3d 5522 05be 7be0 7c3e
0.09262205 0.26738805 -0.1596099 0.34740928 -0.099551454 0.022917185 0.19247523 -9.17641e-05
-0.18336438 0.14665915 -0.24249518 -0.11304323 -0.058155086 -0.22522612 -0.19807541 -0.0016788451
-0.09070477 0.05723796 -0.33247983 -0.13968197 -0.09371003 0.059899956 -0.18807924 -0.3692735
0.040742934 0.09676547 -0.051063564 -0.23079868 -0.13564886 -0.10485543 -0.17166477 0.07307158
0.20644896 -0.09243909 0.17734303 -0.19143283 0.2531278 0.1696534 -0.032731637 -0.038994517
0.2671206 -0.17795736 -0.15713447 -0.085560754 -0.13052356 -0.025763158 -0.11504112 -0.05342431
0.3500156 0.26301238 -0.15110238 0.27716225 -0.06633053 -0.23983063 -0.27311727 0.38322446
-0.0013502815 0.2072686 0.27545944 -0.15458909 0.2077685 0.23640677 0.17863697 -0.014439632
-0.2766525 0.18167032 0.37798232 0.2821598 0.33392733 -0.20484424 0.14096253 -0.5999713
0.25702468 -0.034248095 -0.2618016 0.05900611 0.24585092 -0.3414278 0.35600474 -0.19378187
0.2914474 0.011262555 0.20638062 -0.1675684 0.060132436 -0.17194481 -0.039824553 -0.16743483
-0.25629872 -0.1852085 0.2718441 0.078813344 0.011680884 -0.17923902 -0.3391622 -0.12029847
0.10466899 0.21856952 -0.0065040896 0.2529503 0.08340279 0.1881402 0.26935807 0.022012284
-0.17260265 0.052099243 -0.119156085 0.06380091 0.17918502 0.16540879 -0.2059292 -0.09283564
-0.29408443 -0.1396367 0.08320298 0.33889878 0.01966157 0.09137004 -0.20386502 -0.22649376
0.061444018 0.05585506 -0.24884762 0.29890195 0.030603547 -0.33642393 0.7472591 0.028525462
0.052719384 0.24696006 -0.18451215 -0.1380089 -0.13537525 -0.14417341 0.21877082 0.010888955
-0.103055954 -0.024503727 0.11489632 -0.09201616 -0.011802391 0.13950664 0.031071337 -0.030617982
0.1701044 -0.04854135 0.22115646 -0.14458504 -0.13163485 0.05828523 -0.20757785 -0.16673408
-0.008563868 -0.16804786 -0.19369052 0.109513916 0.08967838 -0.133926 -0.11729884 -0.25148326
0.1099169 -0.090018846 0.047228552 -0.09079978 0.028911829 0.049499944 0.12929784 -0.18353371
-0.0081139505 0.09065624 0.092793144 -0.1819725 0.076737955 -0.0023848373 -0.13053863 -0.034960154
0.060104255 0.2732491 -0.104223296 -0.027847188 0.07308361 0.13443145 0.27837658 -0.25311884
0.24151638 -0.2651475 -0.021918112 -0.1849836 0.14561242 -0.05784969 0.011326104 0.028965203
-0.15264961 0.20766869 -0.16692695 -0.1633411 -0.013227716 -0.22398248 0.2658594 -0.11649355
-0.045615997 0.07834693 0.0325932 -0.002193049 0.06016011 -0.03448391 -0.05925676 0.043464053
0.08595587 -0.36322775 -0.07024541 0.16953906 -0.15534607 -0.07825543 -0.07061568 0.04242036
0.14602152 -0.02336365 -0.3232356 -0.071984924 -0.08396561 0.06383564 -0.1370905 0.35953447
-0.2141144 0.15545955 -0.2102354 -0.0891337 -0.04490873 -0.11455854 0.09797234 -0.09172828
-0.24722965 -0.21892762 0.20407084 0.070721835 0.23777542 0.014312172 0.2559568 -0.03657119
0.08014761 -0.043682247 -0.0018715014 -0.073697925 0.13384889 0.05960646 -0.28697044 0.12950425
0.019081311 -0.050431754 0.18832913 -0.25321528 -0.12537049 0.108691156 -0.13001378 0.24695008

bilstm.weight_ih_l0 f4 [64, 32]
00000000: e63f e43c f89a 4b3e 8074 243e 3534 d6bd
00000010: 70a0 613e 643c 553d 2dc7 823c d651 f33d
00000020: d29e 8e3e 3adf 91bd 9be1 f0bd e92a bc3d
00000030: 0c25 c6bd 4362 7d3e fa39 62bd c64d 013e
00000040: f33d a33b 46a6 f8bd 197b 79bd 4edb 173e
00000050: 9114 7b3e a2f7 3d3d c5dc 943e f9e4 2e3e
00000060: ab63 92bd ad9f ad3d 2cab 883e c071 363e
00000070: a4ff b6bd fac5 1a3e a1c6 debd 1c26 ccbc
00000080: d34f 5a3e a02f 743d a6a4 a83d 91b5 32be
00000090: 95e6 763d 009a f23d 7e26 1fbd 1f42 09be
000000a0: 254c 8f3e c592 ebbd e6bc 4c3e 799f fd3d
000000b0: db99 7ebc 24ee d1bd f505 4dbe c8ac 34be
000000c0: cc0d 4ebd b164 df3c 02b6 6d3e 001f 123e
000000d0: 74c2 6fbd e8d4 2f3e 0fd2 eb3c 4c1c 00bd
000000e0: 9486 2a3e a15b 883e 8e65 413e af22 dabc
000000f0: d54a 52be 6ea1 5a3e 6f54 8b3e 373b 12be
00000100: 3a0b c23d 035d 7d3e a8fe 31be 21d7 36be
00000110: df90 633e dd69 893e 477f bb3d 4249 973d
00000120: 9225 0a3e 8bb0 373e 4097 353e 444c 4cbe
00000130: 2e0f 31be 42b1 9b3d 7376 ae3d 89cd 0c3e
00000140: c91d 3abb 6403 683e f438 d4bd d46f 7a3e
00000150: 06d5 a6ba 7ded a43d bd1c 833e 89d4 2c3e
00000160: c117 35be 6cc1 203e 7f00 663c 26c3 0a3e
00000170: 0914 1cbd 2963 87bd 8bbc 8f3e 5d60 553e
00000180: cfa6 423e 56ac 33bd f504 443e 8b2f 63be
00000190: 2ba0 15bd c4ff 793d 7ed8 533e 49df cf3b
000001a0: 46ed 0fbe bb02 843e a711 74be e4ae b93d
000001b0: d6ed f33d 8600 4ebe dcb0 5f3e aeb4 263e
000001c0: 15d3 a73d 6290 14be 96ce 40be e618 b5bd
000001d0: f94d abbd 2da8 873e d2c7 b03d 2e58 1f3d
000001e0: ce9d 18be 3f2e 4f3e 9c14 8a3e 4467 17be
000001f0: 6b72 063e 5869 523e d0f1 23bc 28e8 913d
00000200: c4ff 39be 272b 6fbe eb2e 81bd 2154 643e
00000210: 20f2 c43d c31a 74be 8358 05be 618d 653d
00000220: 3d4a 993d e268 2f3e 30a8 5f3b 3041 2c3e
00000230: 6fb1 d73d af82 78bd b7d6 42bd 871d 16be
00000240: 22f6 1b3e 7450 743e 94fd 54be bd27 9fbc
00000250: 0720 9abd 0612 6abe 1d7b 71bd 13c7 c5bd
00000260: 092c cfbc 79b0 353e 849f 4e3f f396 39be
00000270: 07c2 883d 08b0 36be dd97 673d 597f a6bb
00000280: 4ec4 7d3e 1b1d ee3c 1162 833c cd8b 0a3f
00000290: eea5 78be 822b 89be d0e0 7abe 6bb8 94bd
000002a0: 115b 643d 116a 803c ea5b 613e e801 143e
000002b0: e1ef bb3d f74c 393e 0db2 9ebd afba 503e
000002c0: b72d 023e 0c5a 1dbe dc7f 68be 4d19 a93e
000002d0: 3214 edbd c435 9e3e 6c85 973d ae4b 12bc
000002e0: 745c 8abc 5098 163e 5deb ec3e 24cd 53be
000002f0: 2645 593e a550 1c3e b6be 7fbe 1b0b 8f3d
00000300: 9884 963e 2efb db3d ccc9 9cbe 05ca 28be
00000310: de06 98be 81e7 853c 8035 e2bd adc0 fabc
00000320: 6e30 2b3e c737 3fbe 6772 92be 5a69 14be
00000330: ae9a 70be c634 553e 106f e33d b65b 87be
00000340: d2a9 363e 3fca c33c 56cd f73c f823 683e
00000350: 655f 553b 6c58 a2be a465 e13d 2c9c e4bd
00000360: 5d8f 50be f972 9b3e 832e 203f 7ac9 51be
00000370: 5ebe b73c 10ad 05be 4914 80be 30f7 c03e
00000380: 4cd6 1e3e 7452 0f3e a064 d4bc af6c 94bd
00000390: 7a49 633e 97c7 6f3d 23dc 7a3e 0f6d 31bc
000003a0: df51 1c3d e6dc 133e a15e 13be 78df 02be
000003b0: bddf 6c3e ed9d 673e 7bf4 073e 024e 3a3d
000003c0: d31c 32bd 9e5a 953c bd4f 1bbe 0f67 233e
000003d0: f53f a53d 312b 0d3e def2 d0bc 0775 90bb
000003e0: f667 1fbe fa35 6bbd 0d8f 023e 34bd 3f3e
000003f0: cf34 363d 378a 283e e814 683e b214 8e3d
0.0278625 0.19883335 0.16060066 -0.104591765 0.22033858 0.052059546 0.015964115 0.11880843
0.27855545 -0.07122655 -0.11761781 0.09187872 -0.09675035 0.24744515 -0.055231072 0.12627324
0.00498175 -0.12141089 -0.06090841 0.14829752 0.24519564 0.04637874 0.29074684 0.17079534
-0.071479164 0.08477721 0.26693094 0.1781683 -0.08935478 0.15114585 -0.10877729 -0.024920516
0.21319513 0.05961573 0.08234529 -0.17452075 0.060278494 0.118457794 -0.03885507 -0.1340413
0.2798778 -0.115026034 0.19993934 0.123839326 -0.015539612 -0.102505 -0.20021804 -0.17644036
-0.050306126 0.027269693 0.23213962 0.14269638 -0.058535054 0.17171061 0.028786687 -0.031276986
0.166529 0.26632407 0.18886396 -0.026627867 -0.20536359 0.21350643 0.27212855 -0.14280401
0.094747975 0.24742512 -0.173823 -0.17855503 0.22223233 0.2683858 0.091551356 0.0738702
0.13490894 0.1793844 0.17733479 -0.19950968 -0.17290947 0.076021686 0.08518686 0.1375028
-0.00283991 0.22657543 -0.103624254 0.24456722 -0.0012728281 0.0805311 0.25607863 0.1687795
-0.17684843 0.15698785 0.014038204 0.13551006 -0.038105045 -0.0661071 0.28073534 0.20837541
0.19008945 -0.043865524 0.19142516 -0.22186105 -0.0365297 0.061034933 0.20688054 0.0063437563
-0.14055356 0.25783333 -0.23834859 0.09066561 0.11910598 -0.20117387 0.2184481 0.16279861
0.081945576 -0.14508203 -0.18828806 -0.088426396 -0.083644815 0.26495495 0.08631863 0.038902454
-0.14903948 0.20232485 0.2696885 -0.14785486 0.13129584 0.20547998 -0.010006383 0.071243584
-0.18163973 -0.23356305 -0.06307777 0.22297718 0.09616494 -0.23838334 -0.13022046 0.056043033
0.07484863 0.17129853 0.0034127347 0.16821742 0.1053189 -0.060671505 -0.04756805 -0.14659701
0.15230611 0.23858815 -0.20799857 -0.019428128 -0.0752564 -0.22858438 -0.0589553 -0.09657111
-0.025289552 0.177431 0.8071215 -0.18123989 0.06677633 -0.17840588 0.056541312 -0.005081099
0.24781916 0.029066613 0.016037973 0.5411957 -0.24282047 -0.26791006 -0.24499822 -0.072617374
0.05575091 0.015675576 0.22007719 0.14453852 0.09176613 0.18095766 -0.07748804 0.20383714
0.12712751 -0.15366381 -0.22705024 0.33027115 -0.115761176 0.30900395 0.07398495 -0.008929176
-0.016889788 0.1470654 0.46273318 -0.20683724 0.21217784 0.15265138 -0.24975094 0.0698454
0.29398036 0.10741268 -0.3062271 -0.16483314 -0.2969274 0.016345741 -0.110453606 -0.030609453
0.16717693 -0.18673621 -0.28602907 -0.14493313 -0.23496506 0.20820913 0.11105168 -0.26437157
0.17838219 0.02390015 0.030249279 0.22669971 0.003255808 -0.31708086 0.110057145 -0.111626
-0.20367189 0.30361155 0.6257097 -0.20487013 0.022429641 -0.130543 -0.25015476 0.3768859
0.15511435 0.13996297 -0.025926888 -0.07247292 0.22195998 0.058539953 0.24498038 -0.010829224
0.038164016 0.14439735 -0.14391567 -0.12780559 0.23132224 0.22618838 0.13276856 0.04548455
-0.04348452 0.018231686 -0.15167136 0.15957282 0.080688395 0.13786007 -0.025506433 -0.004408482
-0.15567002 -0.057424523 0.12749882 0.18724519 0.044483956 0.16458975 0.22664225 0.06937541

bilstm.weight_ih_l0_reverse f4 [64, 32]
00000000: 17ef cd3d edee 50bd 350f 7abc 4feb 223d
00000010: a669 663e 6749 953e 5243 403e 1bb5 5f3e
00000020: 1925 723e 3a30 46bd 14cf 2fbe 4c8e 1bbe
00000030: 10fd ed3d 4c1f 3dbe 7f09 533e bfd8 b53d
00000040: 7476 4fbe 40ed bc3d ad44 b33d cb4b 883d
00000050: 9eb0 193e 028f 5e3e 2ed7 b43c 60c8 583d
00000060: 436d 01be adfb 0cbd 2057 563f 5976 57be
00000070: 98a8 583e adcc 4abe 3a84 86be 1d18 833d
00000080: cc5e 02bf f661 263e 4245 23be cfc9 833e
00000090: d99c c93d beb2 85be d981 1e3e 2e72 cabe
000000a0: 7157 7e3d 4ab6 45be 6c16 b0be 7420 7fbe
000000b0: af3b 95be d121 973d 7cfb f2bc 05ec 113e
000000c0: 05ad 883d 2467 703e a095 0a3e 9582 773e
000000d0: 437d 223e 658f 41be 252a 993d e9ca 33be
000000e0: 915f 5fbd 1a49 34be 906b 3bbf 0f17 b3be
000000f0: 04fe 22be c34d 843c 9ef0 a8bc 703f e6bd
00000100: 873f 373e a872 073d 0c49 863e 4125 abbc
00000110: 4b05 d4bd 9858 d8bd 75c8 c73d c1dd b1bc
00000120: a995 433b aefb 8cbd 013e 84be 4260 1cbe
00000130: add8 6b3e 681b bd3d e78d 57be 050b 523e
00000140: 303b 8a3c 76ad 463e c558 633e d77e 713e
00000150: acdc 663e 4044 783e ee71 293e ba98 e53d
00000160: df2d 373d 94a3 683e d25b e23d f20f 273e
00000170: 993f e7bc e380 ac3d 0225 233e dcee 4c3e
00000180: 36c4 693c 5959 96bd 6a40 98be f5c7 efbd
00000190: 1c0e bebe 3671 8a3d b2ac 923d 9ea4 34be
000001a0: 01b9 4b3d 55ed 103d 64e4 3cbd 9328 463d
000001b0: ef73 523d 5fb7 58be 6b7e 19be 9f3c e83d
000001c0: 46ff 623e 10c7 df3d 7c4c eebd 0f17 3c3e
000001d0: 78d3 6f3d f291 b0be 4051 4f3e f38d c03e
000001e0: f8d4 9ebe f880 9a3e 39ca 00bf 93a9 583e
000001f0: fbaa eebd 11b5 383d 035d 80bd a331 72be
00000200: 0711 1a3e bf93 cd3d 6733 86be 7abb d03d
00000210: cbff 553d d323 d4be 5526 0ebd f0ee 1e3d
00000220: b316 35be 1cb3 9fbd 21d6 873c 256f 353e
00000230: a199 3d3e ec14 843e d94e ff3e a35e 28bc
00000240: 8d15 60bd 6dd4 8abe 68cb 95be 1c39 6abe
00000250: dc19 d53d 2dda 573e b4ed 37be 728e 353e
00000260: cbf6 803e 7728 8b3d 2a3a 523e eb03 673e
00000270: 6e47 08be aa8e ca3d a319 c43b 2bf0 1abe
00000280: eb45 49be 8ae2 13be 982f a23b 6389 e1bd
00000290: 0885 2a3d 4e5c a83c 4df6 e33c d5d4 53be
000002a0: 189a a43e b45d 99bd ba70 dcbe 4034 e03d
000002b0: 67b6 94be a340 543e cfb2 79bd aca7 c2bc
000002c0: ad1f cfbd 13a5 de3d f376 babd 170b 7f3e
000002d0: 568f 0bbe c527 e73d e7cb 1f3e 06c6 683d
000002e0: c3aa 323e c787 08be be7f 283e 3039 2fbe
000002f0: 724f e63d fcfa e23d 7998 4f3e 5785 9ebe
00000300: 8ad3 24bd 7e20 c8bd 6b2b 38be 0586 863e
00000310: 8dd9 083e dc03 ae3e 8ff0 8c3e 7e4d 65bd
00000320: b2b7 b83d 1595 6ebd 1774 c73e 8e08 873e
00000330: e66a b53e 57e7 3c3e fddc cebd 2136 50be
00000340: 2b51 213e a49a 8b3e fc30 c43d 3d8c 81bc
00000350: 4205 4d3d 366d d2bd 0f45 e6bd 7b7c 903e
00000360: cf50 57bd f51d cb3d 15d6 2e3f dc85 833d
00000370: 49a1 1f3d 1d69 abbd e0a9 ee3d 4482 a7bd
00000380: 03a6 c7be 1835 073d 99ea 94ba 6ec9 f3bd
00000390: a578 573b 194b d73d e262 abbd b9fe 74be
000003a0: 51d7 b23d cdd1 7fbd b6e7 ca3e efe7 ca3d
000003b0: 9ccd 883e 250b ebbb 9c6f e53d e4e0 a3bb
000003c0: 7f83 acbc ec4b 46be 88b2 29be 021f 133e
000003d0: 171a 9dbd 07fd 7cbd 0225 6ebd 7aab cbbe
000003e0: 9f52 28bc bc95 ac3d 7919 923e 69a2 053d
000003f0: dcf3 94be d933 49be 0d36 423e 0b77 583e
0.100553684 -0.051009107 -0.015262415 0.03977519 0.22501239 0.29157564 0.1877568 0.2184643
0.23646964 -0.048385836 -0.17168838 -0.15191 0.116205335 -0.1846897 0.20609091 0.08879232
-0.2026003 0.09224939 0.08753333 0.06655081 0.1500878 0.2173424 0.022075262 0.052925467
-0.12639336 -0.034419704 0.8372669 -0.2104124 0.21158063 -0.1980464 -0.26272756 0.064010836
-0.509259 0.16248307 -0.15944389 0.25739905 0.098443694 -0.26112932 0.1547922 -0.39540237
0.06209511 -0.19307819 -0.34392107 -0.24914724 -0.29147097 0.07379497 -0.029660933 0.1425019
0.06673626 0.23476845 0.1353364 0.24170907 0.15868096 -0.18902357 0.074787416 -0.17557873
-0.0545345 -0.17606011 -0.73211 -0.3497853 -0.15917212 0.01615036 -0.020622548 -0.112425685
0.17895328 0.03306833 0.26227605 -0.020891787 -0.10352572 -0.10563773 0.09755031 -0.021712186
0.0029843843 -0.068839416 -0.25828555 -0.15271094 0.23031874 0.09233743 -0.21050225 0.20512016
0.016873926 0.19402108 0.22201832 0.23583542 0.22545117 0.24244785 0.16547367 0.11210771
0.04472148 0.2271865 0.110526696 0.16314676 -0.028228568 0.08423021 0.15932086 0.20012993
0.014267972 -0.073412605 -0.29736644 -0.11708061 -0.3712014 0.067598745 0.07161845 -0.17640921
0.04973698 0.035382587 -0.046116248 0.04837854 0.051380094 -0.211637 -0.14989631 0.113396876
0.22167692 0.1092664 -0.11635682 0.18368171 0.05855128 -0.34486347 0.20245838 0.376083
-0.31021857 0.3017652 -0.5030857 0.21158437 -0.11653706 0.045094553 -0.062677406 -0.23651747
0.15045558 0.10037946 -0.26211092 0.10192008 0.052245896 -0.41433582 -0.034704525 0.038802087
-0.1768444 -0.07797834 0.016581597 0.1771818 0.18515636 0.25797212 0.49864843 -0.010276469
-0.054708052 -0.27115193 -0.2925675 -0.22873348 0.10405323 0.21079321 -0.1796177 0.1773012
0.25188288 0.067948274 0.2053 0.22560088 -0.13308498 0.09890492 0.0059845014 -0.1513068
-0.19655578 -0.14441887 0.0049495213 -0.110125326 0.041630775 0.020551827 0.027827406 -0.20686658
0.32148814 -0.074885756 -0.43054754 0.10947466 -0.29045412 0.20727782 -0.06096154 -0.023761593
-0.101134636 0.10871329 -0.09104719 0.24906574 -0.13628897 0.11286882 0.15605126 0.056829475
0.17447953 -0.13333045 0.1645498 -0.17111659 0.11245622 0.11083028 0.20273007 -0.30961105
-0.040240802 -0.097718224 -0.17985313 0.26274124 0.13364239 0.3398732 0.27527282 -0.055982105
0.09019412 -0.058247644 0.38955757 0.26373714 0.3543312 0.18447624 -0.10100744 -0.20333149
0.1575362 0.2726642 0.095796555 -0.015813941 0.050053842 -0.102747366 -0.11243641 0.2821997
-0.0525673 0.09917823 0.68295413 0.06422016 0.038972173 -0.08369658 0.11653495 -0.08179143
-0.38993844 0.03300962 -0.001136142 -0.11903654 0.0032878306 0.105123706 -0.0836847 -0.23925294
0.087324746 -0.06245594 0.39629906 0.09907519 0.26719368 -0.0071729594 0.112029284 -0.0050011743
-0.021058796 -0.193649 -0.1657201 0.14367297 -0.07670992 -0.061764743 -0.058140762 -0.39779264
-0.010273605 0.08426997 0.2853506 0.03262559 -0.290923 -0.19648685 0.18965931 0.21139161

parallel_cnn_block.branches.0.0.weight f4 [1, 1, 2]
00000000: 8dcb bd3e 058e 323f
0.3706936 0.69747955

parallel_cnn_block.branches.0.2.bias f4 [16]
00000000: 9d4d fe3d 1955 003f f74d 2e3f 4530 b83e
00000010: 89f7 0bbf c48a b53c 473d 733d 55b4 b3be
00000020: a117 9ebd 1544 f23e e78b 853e 3e76 0a3f
00000030: 4121 3d3c 8c70 053f de65 a53e afb6 0c3f
0.12417147 0.5012985 0.68087715 0.35974327 -0.54674584 0.022160895 0.05938461 -0.3509852
-0.077193506 0.47317567 0.260833 0.54086673 0.011543573 0.5212486 0.3230428 0.54966253

parallel_cnn_block.branches.0.2.weight f4 [16, 1, 2]
00000000: 87ba ffbe d6c0 eb3e 0454 a5bd 01b1 c43e
00000010: 799a e3be 5ab1 92bf 1908 62bf 787f a3bf
00000020: ce73 c3bd 8ac6 53be 6c97 143f f705 603e
00000030: 295d 94be 9b15 cc3e f681 eebe db09 0abf
00000040: 9151 96be 124d af3e 0c34 81bd 13d2 063c
00000050: 2785 efbe 0e39 ef3e 0811 8dbe 6094 c73e
00000060: 7ceb f43e 11da f73e 16cd f33e 2f22 a2bd
00000070: 58ab c9be aef0 cf3e de76 f3bd ca34 843d
-0.49946997 0.4604556 -0.08072665 0.38416293 -0.4445379 -1.1460373 -0.88293606 -1.2773275
-0.09543572 -0.20681205 0.5804355 0.21877275 -0.28977326 0.39860234 -0.46583527 -0.5392129
-0.29359105 0.34238487 -0.06308755 0.0082287965 -0.46781275 0.46723217 -0.27552056 0.3898039
0.4783591 0.4840856 0.47617406 -0.07916676 -0.39388537 0.40613312 -0.118879065 0.06455381

parallel_cnn_block.branches.1.0.weight f4 [1, 1, 4]
00000000: 14a3 a63e 270a 2cbc 31d7 17be 73b6 b2bd
0.32546294 -0.010500467 -0.14828183 -0.08726206

parallel_cnn_block.branches.1.2.bias f4 [32]
00000000: 9b94 abbe a04a 0a3e 7c8e 6e3d b3d4 143e
00000010: c301 28bf afcf 1dbe 538e f13e 2f2b d83d
00000020: 2aa1 653d 1364 123e 1f79 723e 32a1 523e
00000030: 02aa 403e c5e8 2abf 9c96 ab3e 751b e4be
00000040: 8e0d 9dbe 4d12 85be 41e8 593c d2cb 39be
00000050: 80c4 1bbf 1fe8 a13d b276 dcbd e689 a93e
00000060: d71e 5dbe 6155 a73e c199 59be d751 ae3e
00000070: 93f6 e5bd badb a0be 8570 5a3d 29d0 dbbd
-0.33511814 0.1350503 0.058241352 0.14534263 -0.6562769 -0.15411256 0.47178897 0.105551116
0.0560619 0.14295988 0.23679017 0.20569304 0.18814853 -0.6676143 0.33513343 -0.44552198
-0.30674404 -0.25990525 0.013300003 -0.18144158 -0.6084671 0.07905602 -0.10764827 0.3311302
-0.21593796 0.32682326 -0.21250059 0.34046814 -0.11228671 -0.31417638 0.053329963 -0.10733063

parallel_cnn_block.branches.1.2.weight f4 [32, 1, 4]
00000000: c79c 31be c168 ac3e fd6f edbe 77c3 04bf
00000010: cbda a7be 22cf 31bf 42de 5ebd 26c5 de3e
00000020: 7282 293e b880 eb3e b898 01bf 0211 9e3e
00000030: fb90 8ebe bcbf 2cbf 7243 cc3d a90f b13e
00000040: 6339 143e 22df 9c3d 28fd 003e 46d0 293f
00000050: b518 d13e 7cc6 57bf 5fbc a13e 5421 b8be
00000060: 61c8 93be c209 ff3d 43dc b6be 64e8 333d
00000070: 4c47 62bb 3f49 9b3e 524b 883d df82 e9be
00000080: f63f afbe fbf6 573e 101a 1e3f 46dc f1be
00000090: 6b17 ac3e b1e3 b73e b7d4 823d 3034 b23e
000000a0: 5b0c 1d3e 3378 993e ec0d 10bf 0035 70bb
000000b0: 6bb7 97be 14a5 373d 013a 893d 6eb9 d03e
000000c0: 55fc 473e 0708 ad3e d6fa c2be c5e2 f4be
000000d0: 7f0f 903d 9d46 d13d 90d5 d03e d3a7 723e
000000e0: 97ac efbc a61d ddbe 3a00 febd 3465 533d
000000f0: 37c0 c63c 1284 b8be 46cc dcbe 81ff 833d
00000100: b356 2bbf da6b ad3e 22d9 a9bd c31f 1cbe
00000110: c9ce d03d cbe9 763d a436 27be ac8b f33e
00000120: fac2 c8bd 0a17 033f ad4d f33e c502 bfbe
00000130: 8807 013f 1a2d 91be 2227 ef3d 098a 7d3e
00000140: 2675 853c 6d78 11bc 9673 313f f18f f73d
00000150: 9569 8bbe 76b3 433e 70b8 a8be 3f0f 2b3e
00000160: 9502 d23e 8344 a23e fbcd c13e c5c4 023f
00000170: 0775 86be b53d 733d 0bde 983e 60a6 8b3e
00000180: dc6d 163e e36e c33e d855 a2be e5bb c73e
00000190: bce5 acbe 3d37 0fbe 7c07 d9be abeb d43d
000001a0: 8ef7 c03e cbff 143e f47b 4f3c 4883 b33e
000001b0: 78fa a93d d36b debe db11 8a3e 0c9f a93e
000001c0: 1201 af3e a979 c33d 3d84 e43e d3d9 253f
000001d0: 1232 73bc 3bca f63e ac42 173f b2f0 12be
000001e0: a4c4 343e c488 803e a16d 04bf 147e eebe
000001f0: 6240 cf3e 18a1 d93c d4b6 20be 7314 f63e
-0.17344962 0.3367367 -0.46374503 -0.51860756 -0.32784113 -0.69456685 -0.05441118 0.43509787
0.16553667 0.45996642 -0.50623655 0.3087235 -0.27844986 -0.67480063 0.09973802 0.3458226
0.14475016 0.07659747 0.12596571 0.66333425 0.40839162 -0.8428724 0.31589028 -0.35962927
-0.28863814 0.12453033 -0.3571492 0.043922797 -0.003452736 0.3032932 0.06654991 -0.4560766
-0.34228486 0.2109031 0.6175852 -0.47238368 0.33611616 0.35915902 0.063882284 0.3480544
0.15336744 0.29974517 -0.56271243 -0.0036652684 -0.29632124 0.044835165 0.067005165 0.40766472
0.19529851 0.33795187 -0.38081998 -0.4782926 0.07034206 0.102185465 0.40787935 0.23696832
-0.029257102 -0.43186682 -0.12402387 0.051610187 0.024261577 -0.36038262 -0.43124598 0.06445218
-0.6692917 0.33871347 -0.08293368 -0.15246491 0.10195691 0.060281556 -0.16329437 0.475675
-0.09802814 0.5120703 0.475202 -0.373068 0.50402117 -0.28354722 0.11677386 0.24759687
0.016291212 -0.008878809 0.69316995 0.120880015 -0.2722899 0.19111428 -0.32953215 0.16705035
0.41017595 0.31692895 0.37852463 0.51081496 -0.2626116 0.05938502 0.29856905 0.27275372
0.14690346 0.38170537 -0.3170612 0.3901054 -0.33769023 -0.13985915 -0.42388523 0.103965126
0.3768887 0.14550702 0.01266383 0.35061097 0.08299726 -0.43441638 0.26966748 0.33129156
0.34180504 0.09544689 0.4463214 0.647855 -0.014843481 0.48201165 0.5908611 -0.1434963
0.17653137 0.25104344 -0.5172978 -0.46580565 0.40478808 0.026566073 -0.15694743 0.48062477

parallel_cnn_block.branches.2.0.weight f4 [1, 1, 8]
00000000: 3318 873c 292c 753e 5bae b6bd a06c c43e
00000010: 75a9 57be 19b1 e5be e018 3fbe e297 833e
0.016491031 0.23942627 -0.089199744 0.38364124 -0.21060736 -0.44861677 -0.18661833 0.25701815

parallel_cnn_block.branches.2.2.bias f4 [64]
00000000: 404f 173e 8918 3bbf 2a75 12be 6f73 753c
00000010: 34ea 943b b752 bf3e 8a97 eebe 47c8 4cbf
00000020: 307c 843e 8a06 a63e 07df ae3e 1555 193e
00000030: a0b2 71bf f506 953e 4ad2 3c3e 1aef 56bf
00000040: 7654 7a3e 6866 1dbc af54 bc3d 1463 abbe
00000050: 128e 6fbf 2972 83bc 3543 7fbe 0fde 763e
00000060: 2946 c0ba 2005 24bf d80d f8be dfda 183e
00000070: d7ac 943e 333d 73bf 71fa 8cba b9f3 113e
00000080: 5967 7d3c 6b3b 95be 8035 21bf d4a1 603b
00000090: 984d 8a3e 8231 12bd 5d3d 40be 6a1b a03e
000000a0: be99 1e3e 2d3e 0dbf 9bd5 563e cfe8 ab3e
000000b0: 9748 913e 8a8b a13e 3f29 c43e f555 8d3d
000000c0: 7092 0fbf ebcd 25bd a508 ef3d d39f 55bc
000000d0: 8a80 f539 dcc6 4f3d c09d ae3a f199 5dbf
000000e0: fb2a 653e 8dbd d83d f6aa 3bbf fab0 f1be
000000f0: a46f 5a3d 7a44 a73b 9001 b7be dae8 6a3a
0.14776325 -0.7308431 -0.14302507 0.014981135 0.0045445208 0.37367794 -0.4659999 -0.799931
0.25875998 0.32426864 0.3415453 0.14973862 -0.94413185 0.2910687 0.18439594 -0.8395859
0.24446282 -0.009606935 0.091958396 -0.33474028 -0.9357616 -0.016045647 -0.24927981 0.24108146
-0.0014669347 -0.6407032 -0.48448062 0.14927243 0.29038116 -0.9501526 -0.001075579 0.14253129
0.0154665345 -0.29146895 -0.6297226 0.0034276145 0.27012324 -0.035691746 -0.18773408 0.31270915
0.15488335 -0.55173 0.20979922 0.33576056 0.28375694 0.31551772 0.38312718 0.06901161
-0.5608282 -0.04047958 0.11671571 -0.013038593 0.0004682581 0.050726756 0.001332216 -0.8656302
0.22379677 0.10583029 -0.7330774 -0.47205335 0.053329125 0.0051045986 -0.3574338 0.0008961089

parallel_cnn_block.branches.2.2.weight f4 [64, 1, 8]
00000000: b074 f23c 5c3e 8abb 562b b23e 1a69 4f3e
00000010: 17c5 2b3c 8017 e1bd 0fe7 b03e 681c 6abe
00000020: 50ec 8b3d 9873 0cbe 5c03 b6bd d6b8 c43d
00000030: 3ffc b93b 3fe1 0c3d 77f3 043c 91e5 de3e
00000040: 05f9 48be ec82 ce3e b8e2 d7be 6d26 d0bd
00000050: db27 f53e 7cb6 983d fc69 cdbe 6019 813e
00000060: 2f73 003f 621c 7b3d b00f da3d 15fe 1f3e
00000070: 37bd 4e3e 472b 30bd bf79 6a3e 6233 1bbe
00000080: fe43 b0bc 7ca1 973e f08e 5c3c 845e bc3d
00000090: 925f fb3e 5cc8 d63e 3228 fc3d dadc 90be
000000a0: ba47 603e 9142 b9bc 0547 593e 0d46 19be
000000b0: ec36 df3d cb27 9fbe 6c8b 04be c779 7e3e
000000c0: fe19 043f f378 e23d 439f ac3d 6bdc 233d
000000d0: cb15 313d c6ad 4cbe 815a 7f3e 44e1 4d3e
000000e0: 95ed 9bbd 047f 57be 9eb4 f83d db47 ba3d
000000f0: 941f bdbe 794b 503e eaf2 a03e 322d 823c
00000100: 351b 2fbe 6b81 b93e c434 a13e fab6 db3e
00000110: 3655 bebd 788d 603e ad8f 0cbe 1de7 12be
00000120: dfe0 ac3e 1e5a 87be 079b debd 96d5 91be
00000130: e1be 963e a308 e0bd 2008 2c3c 3424 d4be
00000140: 7bc3 823d ef33 283e 6338 c53e 2cb7 df3e
00000150: e494 67bd bd45 18be 7fba 2d3b 67ab 993d
00000160: cfc8 0d3d 809c 9e3d cd4b ad3e a74d e83d
00000170: dea7 30bd ef01 71bd be7f b6be 8393 3ebe
00000180: 8777 24bc a6d6 093e 901e 03be 565e bcbd
00000190: 1449 a53d e6d4 0d3d 43d8 903c 96c5 b73e
000001a0: 1a1e 9fbd efb3 06be 6a5f a5bb af3b 07be
000001b0: 2816 90be 4965 31be 849d 1abe d220 8a3e
000001c0: b881 62be 4458 743d 914f a6bc ed58 12be
000001d0: 9048 9abe e5b7 cd3e cab3 40bd 6eb7 053e
000001e0: 0adb b93c 2621 c1bd b893 05be 59c8 89be
000001f0: b889 e8bd 969a 733d 7555 493d 3c5b 893e
00000200: 592e 273e 8d11 1dbe 2835 0cbe e187 823e
00000210: 516f 0b3e b435 d2bd 8d97 903d dec2 7e3e
00000220: 4adb 613e bf6f 1fbe bb30 32be 466e a03e
00000230: 0a3b ef3e 98c1 ed3e 01b4 ac3e 3422 a0be
00000240: ddc2 2fbd 9de0 b03e 97c0 02be 9a07 99bd
00000250: 52b7 723e 0936 493e 2755 c73d 6870 c3be
00000260: 3af3 6dbd 0ac0 b1bd 7c52 84be 08a0 b2be
00000270: c9da 86be 8d74 e63b bd46 58be 9ba4 b0bc
00000280: 656e 083e d2ac b0be 7517 d73d a1df edbd
00000290: 76a1 1e3d cd66 883d d80c b53d ce0d 7f3e
000002a0: 5c3a 983e 4df3 5d3e d6fa a13e 9ff1 f13e
000002b0: df46 5b3e 0374 87be 8212 e53d c954 d33e
000002c0: b2dd 203e 5780 b1be e453 3dbe 7e3e 2e3e
000002d0: 2f49 6abe 35f3 8dbd 1289 af3e 257b 15be
000002e0: a2c1 773e a73f 713e 50a9 06be 58f9 9e3e
000002f0: 2d43 903e e384 c1bd 07ca 43be 7216 463d
00000300: 1937 49bd 6384 be3e a1e1 91be 6f84 8dbf
00000310: 180f c5bd 0a15 653e 392c a93e 5eab 083e
00000320: 7f0e a8be a6d3 5e3c 806e 0bbe 9f6c 123e
00000330: ce2d a73e 8c22 6d3e a719 6c3e 8f6c 573e
00000340: e473 05bc 79fe b0bd 8654 d2bd 1a95 ea3d
00000350: 9318 bfbe cc64 bd3d 3254 553e fc93 363e
00000360: 5b9e 093e 1263 2fbd a5ea 8b3e 539c 413e
00000370: a483 31be 98bd 9bbd 5c75 a6be 0690 52be
00000380: 3afc 86be 46fd b63d 16ae be3e 1db7 943d
00000390: cbaf c7bc 9cfc a93e 7268 3abe ffb2 b2bd
000003a0: 9ef9 8c3d 6b87 34be c26a 4f3d 532b b0be
000003b0: 38fc 03be f4c8 173e b412 993a df79 923e
000003c0: 5e05 f2be 9933 063e 4d58 523e 08c6 c73e
000003d0: f920 d3bd 55e0 953e 0246 01bf caf4 9e3e
000003e0: 6892 9a3e 6d28 88bb d341 6e3d d24c 11be
000003f0: 1c9b ca3d aa82 c3be f078 da3d 5812 fdbe
0.029596657 -0.0042188596 0.34798688 0.20254937 0.010484002 -0.109908104 0.34551284 -0.22862399
0.068321824 -0.1371597 -0.088873595 0.09605567 0.005675822 0.0343945 0.008114687 0.4353452
-0.19626243 0.4033426 -0.4216516 -0.10163579 0.4788197 0.07456681 -0.40119922 0.25214672
0.50175756 0.061306365 0.106475234 0.15624268 0.20189367 -0.043010022 0.22898005 -0.1515632
-0.021516796 0.2961539 0.013461813 0.09197715 0.49096352 0.41949737 0.12312354 -0.28293496
0.21902362 -0.02261475 0.21218498 -0.14968129 0.108991474 -0.31085047 -0.1294381 0.24851142
0.5160216 0.110582255 0.08428814 0.04000513 0.043233674 -0.19988164 0.24936868 0.20105463
-0.076136746 -0.21044546 0.12143825 0.090957366 -0.36938155 0.2034129 0.3143533 0.015890691
-0.17100222 0.3623155 0.3148557 0.42913038 -0.092935964 0.21928966 -0.13726683 -0.14345975
0.33765313 -0.2643594 -0.10869413 -0.28483266 0.29442504 -0.10939147 0.010499984 -0.4143387
0.06384941 0.16426061 0.38519582 0.43694437 -0.056538478 -0.14870353 0.0026508865 0.075033955
0.034615334 0.07744694 0.33846894 0.11342936 -0.04312884 -0.058839735 -0.35644335 -0.18610959
-0.010038263 0.13460788 -0.12804627 -0.09197681 0.08070579 0.034626864 0.017681247 0.35892934
-0.07769413 -0.13154577 -0.0050467746 -0.13206361 -0.28141904 -0.17323793 -0.1509915 0.26978165
-0.22119796 0.05965449 -0.020301612 -0.14291735 -0.30133486 0.40179363 -0.04704646 0.13058254
0.022687454 -0.09430151 -0.13044631 -0.26910666 -0.11354393 0.059473597 0.049153764 0.2682742
0.16326274 -0.15338726 -0.13692153 0.25494292 0.13616683 -0.10264149 0.07060156 0.24879023
0.22056308 -0.15569972 -0.17401402 0.31334132 0.4672473 0.46436763 0.33731082 -0.31276095
-0.042910445 0.34546366 -0.1276878 -0.07472153 0.23702744 0.19649519 0.097330384 -0.38171697
-0.058093287 -0.08679207 -0.2584418 -0.3488772 -0.26338795 0.007032937 -0.21120735 -0.021562865
0.13323362 -0.3450685 0.10502521 -0.116149195 0.0387282 0.06660233 0.088403404 0.2490761
0.29732025 0.21674843 0.31636685 0.47254655 0.21413754 -0.26455697 0.11185171 0.41275623
0.1570957 -0.34668228 -0.18489033 0.17016026 -0.2287948 -0.06931154 0.34284264 -0.14597757
0.24194959 0.23559438 -0.13150525 0.3104961 0.2817625 -0.09449174 -0.19120036 0.04836125
-0.04912481 0.37210378 -0.28492454 -1.105604 -0.096220195 0.22371307 0.33041552 0.13346621
-0.3282356 0.013600266 -0.13616371 0.14299248 0.32652134 0.2315771 0.2305666 0.21037506
-0.008145306 -0.08642287 -0.10270028 0.1145422 -0.37323436 0.09247741 0.20832899 0.17829889
0.13439314 -0.04281909 0.27327457 0.18907289 -0.17335373 -0.076045215 -0.32511413 -0.20562753
-0.2636431 0.08935027 0.37242192 0.072614886 -0.024375817 0.33200538 -0.18203905 -0.08725547
0.06883548 -0.17629783 0.05063892 -0.34408054 -0.12889183 0.14822751 0.0011678548 0.28608605
-0.4726972 0.1310562 0.20541497 0.39018273 -0.103090234 0.29272714 -0.5049745 0.31046134
0.30189824 -0.0041552098 0.058168244 -0.14189461 0.09892866 -0.38185626 0.10667598 -0.49428058

parallel_cnn_block.branches.3.0.weight f4 [1, 1, 32]
00000000: 6e81 80bc 933d 69bd 4231 033b bfb8 a0bc
00000010: c576 36bc 2d7c 583d 45e9 2a3e 23f5 c73d
00000020: fdfb 243e dd2e dd3d 6a77 543e f15e ab3d
00000030: 5227 343e 87cf 8c3d 7a7a 963d 739c 043e
00000040: dfb7 853d a710 463e 57b9 323e 01dc e03d
00000050: f137 663e 5a99 f33d 5f6b 0e3e b617 583d
00000060: c306 1d3e 17d4 3c3d ad6f 62ba 1e7e 6a3d
00000070: 3e4f 3abd 8f41 79bd badd 75bc f953 60bb
-0.015686717 -0.056943487 0.0020018374 -0.019619344 -0.011136715 0.0528528 0.16690548 0.09763553
0.16111751 0.10799954 0.20748678 0.08367718 0.17593125 0.0687552 0.07347579 0.12950306
0.06529211 0.1934229 0.17453514 0.109794624 0.22482277 0.11894484 0.13908146 0.052756988
0.1533461 0.046100702 -0.0008637857 0.05724918 -0.045485727 -0.060853537 -0.015006477 -0.003422974

parallel_cnn_block.branches.3.2.bias f4 [16]
00000000: cd86 9f3e 23e6 3b3e 8a9c 1d3e b3f1 003e
00000010: 8432 003e d396 5a3d 6043 33bc 2dc6 453e
00000020: a4be 753d 9c6a f73d bf37 57bd dbca d1bc
00000030: e010 8d3e e564 a13d 1d1b 4a3e eb65 61be
0.31157532 0.18349509 0.15391746 0.12592201 0.1251927 0.053366493 -0.010941356 0.1931388
0.059996262 0.12080881 -0.052543398 -0.025609424 0.27551937 0.07880572 0.19736905 -0.22011535
