wide/modelpars_wide_i_15.safetensors (safetensors, 86584 bytes, 32 tensors)

bilstm.bias_hh_l0 f4 [64]
-0.10972418 0.25297615 0.1719902 0.123488195 -0.14474702 -0.018248146 0.07259392 0.12510577
-0.17877646 -0.03763229 0.03966903 -0.017664403 0.01773782 0.1703087 0.2189173 0.08825424
0.1682245 -0.14332058 0.117286846 -0.06281321 -0.123804525 0.23354289 -0.04619488 0.047638126
0.27660823 0.25267032 0.16722733 0.22833054 -0.19915946 -0.075837776 -0.05406453 0.027296383
0.04689694 0.073407695 0.21902551 0.17362875 0.07141107 -0.066719905 0.26277393 0.05473279
-0.21388963 0.11234759 -0.07237953 0.04747014 -0.2212003 0.10458824 0.11326276 -0.1787271
-0.16153896 0.007830491 0.016437305 0.23170976 0.19007038 0.12878026 -0.13471363 0.008665756
-0.16331041 0.2210708 -0.04166858 -0.13220729 0.0485927 -0.18003796 -0.09606403 0.2323103
00000000: 12b7 e0bd 1786 813e 331e 303e 61e7 fc3d
00000010: 9038 14be 237d 95bc 1fac 943d ba1b 003e
00000020: 2d11 37be 5124 1abd fe7b 223d f0b4 90bc
00000030: e84e 913c 6765 2e3e db2b 603e a4be b43d
00000040: 0b43 2c3e a1c2 12be 1634 f03d 36a4 80bd
00000050: 3a8d fdbd de25 6f3e d836 3dbd 3220 433d
00000060: 989f 8d3e 015e 813e a43d 2b3e 7bcf 693e
00000070: 75f0 4bbe d650 9bbd c572 5dbd aa9c df3c
00000080: 0117 403d c656 963d 3948 603e bccb 313e
00000090: f83f 923d 72a4 88bd 4e8a 863e 7d2f 603d
000000a0: e205 5bbe 7e16 e63d b83b 94bd 0d70 423d
000000b0: 5582 62be 5c32 d63d 4ef6 e73d 3d04 37be
000000c0: 786a 25be 764b 003c 87a7 863c 5345 6d3e
000000d0: cfa1 423e f9de 033e 5ff2 09be d1fa 0d3c
000000e0: d83a 27be 6260 623e acac 2abd 5961 07be
000000f0: 2409 473d df5b 38be 38bd c4bd c0e2 6d3e

bilstm.bias_hh_l0_reverse f4 [64]
0.06965789 0.24656728 0.20689233 0.07639931 -0.037645936 0.12839337 -0.096492 -0.038786132
-0.08543673 -0.053841125 -0.089122295 -0.033975 0.09957582 0.11278033 0.14863162 0.16566569
-0.27837336 -0.12131665 -0.055001155 0.11270986 -0.1692816 -0.14329378 0.27018002 0.121741906
0.17725265 0.0874601 0.09702627 0.055180933 0.2153611 -0.10796186 0.0010385888 -0.017193876
-0.16203876 0.020857276 0.2287393 -0.0788103 -0.088704266 0.14914924 -0.12010649 -0.17413342
0.2525862 0.15511851 -0.20158088 0.21277675 -0.013492739 -0.15585838 -0.17178866 0.0035276082
-0.087596655 -0.25256768 0.12895423 0.011838013 0.11529343 -0.0971781 0.27534735 -0.15898816
-0.10607679 -0.16557357 0.19866739 0.13266475 0.16465282 0.250285 -0.026747352 0.03315148
00000000: cca8 8e3d 227c 7c3e 95db 533e 3e77 9c3d
00000010: a032 1abd 8d79 033e 999d c5bd 35de 1ebd
00000020: 74f9 aebd 8388 5cbd c085 b6bd 5f29 0bbd
00000030: 68ee cb3d 60f9 e63d e332 183e 44a4 293e
00000040: f486 8ebe dd74 f8bd e448 61bd 6dd4 e63d
00000050: 2858 2dbe 9bbb 12be 0955 8a3e d253 f93d
00000060: b881 353e 481e b33d b6b5 c63d 6705 623d
00000070: 9f87 5c3e 1c1b ddbd 4221 883a 2cda 8cbc
00000080: 7ded 25be e1dc aa3c a33a 6a3e 4b67 a1bd
00000090: 95aa b5bd 94ba 183e 64fa f5bd 0850 32be
000000a0: fa52 813e 63d7 1e3e 386b 4ebe 26e2 593e
000000b0: a610 5dbc 5799 1fbe 5ee9 2fbe 722f 673b
000000c0: e065 b3bd 8d50 81be 940c 043e 3af4 413c
000000d0: f61e ec3d 5005 c7bd 54fa 8c3e cbcd 22be
000000e0: ca3e d9bd 1e8c 29be 776f 4b3e 45d9 073e
000000f0: c09a 283e 5b25 803e 431d dbbc d9c9 073d

bilstm.bias_ih_l0 f4 [64]
-0.11251167 0.04113731 0.23529352 -0.0318114 0.11879312 -0.013932226 -0.11761551 0.030908452
0.26229918 -0.20726675 -0.13076891 0.037538566 0.14328727 0.08016417 -0.09380068 0.02926414
0.069830805 0.056468077 0.16609411 0.21425948 0.2008914 0.15289314 -0.17710896 0.19900721
-0.058918417 0.11713251 -0.19665012 0.20533888 0.14454211 -0.14189124 0.25826505 0.27215895
0.099636614 0.13747947 0.18761258 -0.22749263 0.1351039 0.005521957 0.18285891 0.12536226
0.02791001 -0.2091049 -0.21914037 -0.13301179 0.19070943 -0.24765801 0.16464058 0.19751488
0.21823332 -0.14727941 -0.1519211 0.21936099 -0.18219383 0.16792919 -0.16351841 0.15711558
0.30036005 0.2863016 -0.1606919 0.07992849 0.11670763 -0.010287029 -0.15386891 0.16929086
00000000: 856c e6bd 997f 283d c9f0 703e ac4c 02bd
00000010: cf49 f33d fe43 64bc 67e0 f0bd b933 fd3c
00000020: 144c 863e bc3d 54be 49e8 05be 0ac2 193d
00000030: e6b9 123e 1d2d a43d 921a c0bd 5abb ef3c
00000040: 7403 8f3d 124b 673d 9314 2a3e d666 5b3e
00000050: 7ab6 4d3e 0590 1c3e 0d5c 35be 8cc8 4b3e
00000060: 7054 71bd 2be3 ef3d a65e 49be 5b44 523e
00000070: d902 143e f04b 11be 513b 843e 6b58 8b3e
00000080: 480e cc3d 6bc7 0c3e 831d 403e d4f3 68be
00000090: ad58 0a3e 88f1 b43b 5e3f 3b3e f75e 003e
000000a0: 89a3 e43c 981f 56be 5566 60be 3e34 08be
000000b0: 5549 433e 109a 7dbe 8a97 283e 5741 4a3e
000000c0: 8e78 5f3e 6ad0 16be 3491 1bbe 2ba0 603e
000000d0: 0591 3abe a1f5 2b3e 5f71 27be e8e2 203e
000000e0: cbc8 993e 2096 923e 6b8c 24be 8cb1 a33d
000000f0: 6904 ef3d ed8a 28bc d08f 1dbe 955a 2d3e

bilstm.bias_ih_l0_reverse f4 [64]
-0.09059246 0.20876081 0.18606608 -0.16015449 -0.08162387 0.23751923 0.211957 0.08434878
-0.09653449 -0.13887896 -0.0058917706 -0.025783494 -0.011905793 0.26339215 0.20419191 -0.1729148
-0.08155856 -0.05300062 -0.23759009 -0.20774086 -0.10689897 0.125754 -0.122181505 0.015411251
0.2565657 -0.00051960687 -0.07126437 0.25564766 0.07928842 0.25997788 -0.09697376 -0.03678076
-0.16592468 0.187575 0.22386883 -0.17335063 -0.07006959 -0.030211018 0.18950315 -0.13364403
-0.14926003 0.014770917 -0.26298013 0.09195152 0.03965007 0.08982309 -0.036675047 0.042164255
0.15030897 -0.039579418 0.05633461 -0.10135507 0.2210066 0.17211281 0.14889137 0.2302873
0.2352296 0.24235937 -0.18315609 -0.17629533 -0.09805134 0.082611226 -0.33534107 -0.032601774
00000000: 8a88 b9bd 65c5 553e 1b88 3e3e 8aff 23be
00000010: 6a2a a7bd 3e38 733e 410b 593e 0ebf ac3d
00000020: e0b3 c5bd 4936 0ebe c10f c1bb e837 d3bc
00000030: 8410 43bc 56db 863e af17 513e 9410 31be
00000040: 2d08 a7bd 2e17 59bd d14a 73be 05ba 54be
00000050: d9ed dabd a8c5 003e 4c3a fabd 797f 7c3c
00000060: 945c 833e 3a36 08ba 0ef3 91bd 40e4 823e
00000070: f861 a23d d21b 853e 2e9a c6bd 6ca7 16bd
00000080: 29e8 29be a913 403e df3d 653e d482 31be
00000090: a580 8fbd 197d f7bc 1d0d 423e fbd9 08be
000000a0: 9fd7 18be b701 723c 55a5 86be 1451 bc3d
000000b0: 1d68 223d 2bf5 b73d 9338 16bd 6db4 2c3d
000000c0: 98ea 193e 071e 22bd 1fbf 663d 3f93 cfbd
000000d0: 8e4f 623e 573e 303e fb76 183e 6fd0 6b3e
000000e0: 07e0 703e 0e2d 783e 458d 3bbe c386 34be
000000f0: 24cf c8bd 1330 a93d d3b1 abbe 7089 05bd

bilstm.weight_hh_l0 f4 [64, 16]
-0.03432731 -0.021188056 0.0040171864 -0.09817053 0.16551518 -0.1776942 0.0038393843 0.09014309
0.1556746 0.043284874 -0.28921628 0.17111887 0.16810459 -0.089682445 -0.13964556 -0.049330458
-0.22751552 -0.10139486 -0.11420669 -0.22316088 -0.2594769 0.013034982 -0.1256733 0.1796077
0.19022919 -0.18586984 0.18007694 -0.027954021 0.122234784 0.14514925 0.2652664 -0.11956737
0.23146743 -0.089680076 -0.15180272 0.07257054 0.21544543 0.10139628 0.20099166 0.16519059
-0.16940957 -0.08892462 0.080640525 -0.11209384 -0.026195306 -0.25292978 0.05992992 0.26848188
0.0032342514 -0.054573763 0.26403734 -0.052301537 -0.21339154 0.0841536 0.05830542 0.003849835
-0.16203956 -0.1790589 0.19620827 -0.2266467 0.25876993 0.009757075 -0.0738851 -0.1577264
-0.15053116 -0.17041308 -0.040853105 0.08997381 -0.14908445 0.096499234 0.05495183 -0.18727177
-0.008605944 -0.18542121 -0.084524505 -0.028024573 -0.076899625 -0.27964357 -0.16466175 0.16153201
0.19614239 -0.020360397 -0.12135247 0.09988648 0.10507475 0.052974697 -0.053735197 -0.24541014
-0.15435082 -0.02985767 -0.21730317 0.03787303 -0.10119959 -0.025263883 -0.063011914 0.24986787
0.04681699 -0.10166366 -0.02496052 0.034256138 -0.2327055 0.137084 -0.090694346 0.015718052
-0.07844568 -0.025711324 -0.24182 -0.114438 0.15270711 -0.1392048 0.22001979 -0.18110068
0.0034690525 0.036459696 0.024900058 -0.17958342 -0.2128891 0.15418875 0.046940867 0.09411971
-4.9627302e-05 0.20248027 0.042866435 0.0607184 -0.033676974 0.14395913 -0.10138893 0.25476116
0.090383075 -0.0820875 -0.004537433 -0.2593618 0.04857907 0.091813356 -0.17240171 0.006110958
-0.10681251 0.16736104 -0.2575566 0.20075934 0.06062561 -0.2378622 0.07550429 0.2527759
0.040718954 -0.14573666 -0.20494002 0.05900201 0.11309808 -0.2605223 0.036555756 0.11735544
-0.16255441 0.26354071 0.21480352 -0.24030529 -0.12160854 -0.07857039 0.18706995 -0.16782889
-0.17322555 0.122916095 0.1493372 0.20805591 -0.0713408 -0.14718504 0.24224989 0.04753392
-0.03452797 0.20814356 -0.039819203 -0.28762937 0.13488515 0.009304167 -0.18010575 0.079691775
0.07515019 -0.07726749 0.2646593 -0.27250674 0.10116571 -0.15520982 0.29031 0.14880963
-0.1530698 0.16844468 0.15349373 0.026128348 0.13578005 -0.018784204 -0.075864844 -0.1547263
-0.21786296 -0.61773795 -0.039515268 -0.12025004 -0.36902532 -0.2132949 0.29743913 -0.014430096
-0.03353771 0.31898788 -0.4665296 -0.032209624 -0.8712494 -0.16679054 0.21568426 0.2977378
-0.11904689 -0.058335345 -0.10897518 -0.24364363 0.04980027 -0.106219046 -0.12090653 0.11112395
-0.08407223 0.11478399 0.015152051 0.072895296 -0.10230265 -0.12328025 -0.09912439 -0.057677034
-0.10276692 0.12707819 -0.13784733 0.13590176 -0.18553811 0.11022347 -0.18648927 -0.2281439
-0.11731389 0.01923483 0.036812123 -0.023729414 -0.031702247 -0.008889624 -0.0700772 0.24127306
0.077079296 0.19267227 0.17370905 -0.20277698 0.15410706 0.097306795 0.22541536 -0.2440268
0.1557369 -0.14751334 -0.16020434 0.13193582 0.12146818 0.19688833 -0.16634336 -0.15795107
00000000: cb9a 0cbd 9392 adbc 9aa2 833b a10d c9bd
00000010: d07c 293e 78f5 35be 2e9e 7b3b f19c b83d
00000020: 2a69 1f3e 7b4b 313d 2814 94be c939 2f3e
00000030: 9c23 2c3e 6eab b7bd 3fff 0ebe bc0e 4abd
00000040: d4f9 68be 1ca8 cfbd 32e5 e9bd 4984 64be
00000050: 28da 84be ad90 553c 80b0 00be 15eb 373e
00000060: 71cb 423e aa54 3ebe 1766 383e d5ff e4bc
00000070: 3b56 fa3d 01a2 143e ffd0 873e bddf f4bd
00000080: cc05 6d3e 30aa b7bd 2c72 1bbe dd9f 943d
00000090: ba9d 5c3e daa8 cf3d c2d0 4d3e b927 293e
000000a0: b479 2dbe 1c1e b6bd dc26 a53d 7591 e5bd
000000b0: 8a97 d6bc 0380 81be 1379 753d 7576 893e
000000c0: bcf5 533b bd88 5fbd e72f 873e 233a 56bd
000000d0: 5083 5abe b958 ac3d aad1 6e3d 834d 7c3b
000000e0: b3ed 25be 375b 37be d2ea 483e 1316 68be
000000f0: 7e7d 843e 24dc 1f3c 1251 97bd 0883 21be
00000100: d724 1abe c480 2ebe 9655 27bd 3044 b83d
00000110: 98a9 18be 64a1 c53d 2c15 613d 2cc4 3fbe
00000120: f2ff 0cbc 0fdf 3dbe 2f1b adbd ca93 e5bc
00000130: 8d7d 9dbd 712d 8fbe 179d 28be a668 253e
00000140: 8dd9 483e d9ca a6bc a587 f8bd 4891 cc3d
00000150: 6e31 d73d fffb 583d 7019 5cbd cc4c 7bbe
00000160: 240e 1ebe 1398 f4bc b984 5ebe c020 1b3d
00000170: bb41 cfbd 34f6 cebc 640c 81bd 5ddd 7f3e
00000180: 2cc3 3f3d 0935 d0bd 017a ccbc 2a50 0c3d
00000190: 5a4a 6ebe c05f 0c3e f5bd b9bd 25c3 803c
000001a0: 21a8 a0bd 8ea0 d2bc a99f 77be 785e eabd
000001b0: 415f 1c3e b48b 0ebe de4c 613e 7572 39be
000001c0: 0b59 633b c356 153d 35fb cb3c b7e4 37be
000001d0: 9aff 59be a8e3 1d3e 1145 403d d6c1 c03d
000001e0: e926 50b8 fd56 4f3e b794 2f3d dbb3 783d
000001f0: def0 09bd 066a 133e 00a5 cfbd 0e70 823e
00000200: c31a b93d 7e1d a8bd bfae 94bb 12cb 84be
00000210: d9fa 463d a408 bc3d 138a 30be 6e3e c83b
00000220: 84c0 dabd b160 2b3e 75de 83be db93 4d3e
00000230: 8f52 783d 2692 73be fea1 9a3d d86b 813e
00000240: ebc8 263d fe3b 15be ccdb 51be 17ac 713d
00000250: f79f e73d 2e63 85be 7dbb 153d 0d58 f03d
00000260: aa74 26be cfee 863e 74f5 5b3e 9712 76be
00000270: e60d f9bd 83e9 a0bd 448f 3f3e 56db 2bbe
00000280: 0a62 31be 6fbb fb3d daeb 183e 9c0c 553e
00000290: 201b 92bd adb7 16be 5b10 783e edb2 423d
000002a0: 336d 0dbd 9623 553e 7619 23bd 2844 93be
000002b0: 551f 0a3e 8170 183c a46d 38be 7135 a33d
000002c0: 58e8 993d 6b3e 9ebd 6c81 873e 0186 8bbe
000002d0: f82f cf3d 53ef 1ebe 83a3 943e 8d61 183e
000002e0: 54be 1cbe c37c 2c3e 762d 1d3e 1e0b d63c
000002f0: ed09 0b3e 55e1 99bc 075f 9bbd 9270 1ebe
00000300: 7817 5fbe 1324 1ebf c3da 21bd a745 f6bd
00000310: e3f0 bcbe fa69 5abe f149 983e 366c 6cbc
00000320: d65e 09bd 6152 a33e f8dc eebe 3dee 03bd
00000330: 330a 5fbf 24cb 2abe 56dc 5c3e 1771 983e
00000340: dbce f3bd 0bf1 6ebd 612e dfbd b77d 79be
00000350: 5efb 4b3d 5f89 d9bd d89d f7bd f494 e33d
00000360: 102e acbd de13 eb3d 4f40 783c 214a 953d
00000370: 0d84 d1bd 5b7a fcbd ba01 cbbd c13e 6cbd
00000380: 7777 d2bd c920 023e da27 0dbe d529 0b3e
00000390: b4fd 3dbe d8bc e13d 0bf7 3ebe 8e9e 69be
000003a0: 4442 f0bd 5d92 9d3c 4fc8 163d 3064 c2bc
000003b0: 37da 01bd c9a5 11bc a384 8fbd 4910 773e
000003c0: c0db 9d3d e14b 453e c9e0 313e c5a4 4fbe
000003d0: 3ece 1d3e c948 c73d 49d3 663e 29e2 79be
000003e0: 7e79 1f3e bd0d 17be 9b0c 24be 2f1a 073e
000003f0: 4fc4 f83d 189d 493e ea55 2abe edbd 21be

bilstm.weight_hh_l0_reverse f4 [64, 16]
0.08216679 0.20917201 -0.20088285 0.27237862 -0.15875098 0.07838013 0.17374569 -0.0065136324
-0.20793346 0.16945688 -0.21354803 -0.13738349 -0.08462632 -0.19569911 -0.19625233 0.056271907
-0.0309584 0.25991526 -0.23598644 0.011692288 0.04172832 0.0025925476 -0.1387108 -0.19113667
0.09451421 0.048135817 -0.08592927 -0.17654474 -0.08439311 -0.119840525 -0.11735841 0.009742046
0.20332572 -0.09658048 0.17445031 -0.20226005 0.25032118 0.17738043 -0.038645443 -0.035085503
0.26007256 -0.1712623 -0.14995003 -0.091507465 -0.13735673 -0.01909889 -0.12501578 -0.044441387
-0.18860596 0.0888833 -0.20856197 0.30371773 -0.16386738 -0.24650933 -0.21418685 0.19099252
0.03360238 0.14704531 0.11336607 -0.11070404 0.2638498 0.0747505 0.20983799 0.025645701
-0.2322104 0.21766868 0.2667657 0.31476775 0.37679616 -0.2481886 0.18136421 -0.5668745
0.29304415 -0.07103965 -0.30078238 0.10014286 0.28658408 -0.3894978 0.4440293 -0.26396284
0.2184833 -0.0056851315 0.1904956 -0.19779667 -0.02096745 -0.21055399 0.017658282 -0.1776674
-0.20788583 -0.2510485 0.19595797 0.10979619 0.077554956 -0.24791865 -0.1779036 -0.1560879
0.10470123 0.21852808 -0.0066397125 0.2524832 0.083485164 0.18845548 0.2692544 0.022049367
-0.17272598 0.05222227 -0.119001634 0.063689955 0.17903596 0.16553767 -0.20708981 -0.09262228
-0.28313604 -0.07201307 0.13797279 0.38296312 0.13821812 0.026729638 -0.13540642 -0.22257192
0.12429153 -0.012307215 -0.32300854 0.38080782 0.099089384 -0.4125199 0.79514176 -0.019714868
0.052857198 0.24692364 -0.18453921 -0.13827793 -0.13525552 -0.14376032 0.21860668 0.010900174
-0.10323571 -0.02430463 0.11512832 -0.0922093 -0.012033466 0.13967794 0.028149767 -0.03048855
0.1701898 -0.048584893 0.22109768 -0.14498433 -0.13144436 0.0586755 -0.2077203 -0.16668613
-0.008727372 -0.16787587 -0.19348909 0.109362364 0.08946955 -0.13377833 -0.11916987 -0.25127783
0.19056542 0.12661026 -0.047426615 -0.061846837 0.031249633 0.031589422 0.1516933 -0.17153233
0.021109726 0.067226894 0.1761103 -0.15744595 0.10086714 0.060607295 -0.005491789 -0.077998154
0.059459858 0.27322307 -0.10426492 -0.029784117 0.07429188 0.13681298 0.27750427 -0.25183588
0.24065158 -0.26413128 -0.021077434 -0.18565713 0.1440995 -0.056897298 0.007814731 0.033671528
-0.15250988 0.20757426 -0.16708629 -0.16393821 -0.013117111 -0.22336105 0.26562163 -0.11647497
-0.04588729 0.07863193 0.032919493 -0.0024607002 0.05982922 -0.034259535 -0.06254616 0.04376474
0.22027488 -0.17442238 -0.14024678 0.33048865 -0.15166211 -0.18068992 -0.010971323 0.04418807
0.22518963 -0.090238914 -0.27697456 -0.006309153 -0.00973641 0.08102895 0.07620227 0.20853516
-0.21407983 0.15540846 -0.21025208 -0.089310296 -0.044884212 -0.1140535 0.097622186 -0.09170628
-0.2477916 -0.2182348 0.20438501 0.07041983 0.23710886 0.014866683 0.2554956 -0.03615476
-0.09020558 -0.21184228 -0.012360264 -0.034948085 -0.01931437 -0.07503037 -0.14283562 -0.115273
0.1506598 -0.20068327 -0.04442017 -0.11894467 0.026587082 -0.101043254 0.113898806 0.18994932
00000000: 1047 a83d 3031 563e 3cb4 4dbe 3675 8b3e
00000010: 9e8f 22be c385 a03d 64ea 313e 4f70 d5bb
00000020: 82ec 54be 1b86 2d3e 56ac 5abe 42ae 0cbe
00000030: 9050 adbd 5965 48be 5ff6 48be 5f7d 663d
00000040: 789c fdbc 9d13 853e 6ea6 71be 0391 3f3c
00000050: 51eb 2a3d bbe7 293b 340a 0ebe 55b9 43be
00000060: ab90 c13d 102a 453d affb afbd 25c8 34be
00000070: 4bd6 acbd f36e f5bd 9b59 f0bd 1a9d 1f3c
00000080: 9e34 503e fdcb c5bd 1aa3 323e 421d 4fbe
00000090: 192a 803e 37a3 353e af4a 1ebd d1b5 0fbd
000000a0: 3b28 853e 625f 2fbe 808c 19be 4468 bbbd
000000b0: 3ea7 0cbe 4675 9cbc 2304 00be 2c08 36bd
000000c0: ec21 41be 7308 b63d 4591 55be e480 9b3e
000000d0: dacc 27be f16c 7cbe cc53 5bbe 8b93 433e
000000e0: a6a2 093d 0c93 163e 782c e83d cdb8 e2bd
000000f0: 5217 873e ca16 993d c5df 563e ef16 d23c
00000100: 90c8 6dbe 8ae4 5e3e 8495 883e 3d29 a13e
00000110: 6deb c03e 2725 7ebe 8ab7 393e b01e 11bf
00000120: e209 963e 3c7d 91bd 2600 9abe b317 cd3d
00000130: 26bb 923e 416c c7be cf57 e33e 2326 87be
00000140: 16ba 5f3e 574a babb 4711 433e 368b 4abe
00000150: eec3 abbc 779b 57be 1aa8 903c 71ee 35be
00000160: 06e0 54be 6e89 80be 35a9 483e d3dc e03d
00000170: 22d5 9e3d 63de 7dbe 5c2c 36be 82d5 1fbe
00000180: 996d d63d d3c5 5f3e f291 d9bb 7a45 813e
00000190: 45fa aa3d 79fa 403e b6db 893e e0a0 b43c
000001a0: 14df 30be 05e7 553d 21b7 f3bd e16f 823d
000001b0: 3455 373e b582 293e 5a0f 54be c0b0 bdbd
000001c0: 35f7 90be 977b 93bd bd48 0d3e be13 c43e
000001d0: 0d89 0d3e 1df8 da3c fba7 0abe e5e9 63be
000001e0: 8f8c fe3d 33a4 49bc 6061 a5be 3ef9 c23e
000001f0: 60ef ca3d cf35 d3be 698e 4b3f 1381 a1bc
00000200: ca80 583d 8dd9 7c3e d9f7 3cbe bb98 0dbe
00000210: 6c80 0abe e835 13be 6eda 5f3e a596 323c
00000220: 3e6d d3bd 811a c7bc 66c8 eb3d 3bd8 bcbd
00000230: 0428 45bc bc07 0f3e 579a e63c 20c3 f9bc
00000240: 3c46 2e3e f400 47bd 6e67 623e c676 14be
00000250: 5a99 06be b955 703d a1b4 54be c5af 2abe
00000260: 40fd 0ebc a7e7 2bbe 0122 46be 60f9 df3d
00000270: d03b b73d 30fd 08be 550f f4bd 7da7 80be
00000280: 9523 433e 1fa6 013e 6942 42bd 1c53 7dbd
00000290: 3bff ff3c e963 013d 7d55 1b3e 2ca6 2fbe
000002a0: 4eee ac3c 41ae 893d 4256 343e 8339 21be
000002b0: 6e93 ce3d 5b3f 783d 77f4 b3bb 7fbd 9fbd
000002c0: 2e8c 733d e5e3 8b3e d988 d5bd d2fd f3bc
000002d0: 5726 983d b418 0c3e 0a15 8e3e a2f0 80be
000002e0: 5e6d 763e 373c 87be 95aa acbc e71c 3ebe
000002f0: d28e 133e 240d 69bd 5c09 003c 28eb 093d
00000300: 8d2b 1cbe 598e 543e ab18 2bbe 6bdf 27be
00000310: 27e9 56bc c2b8 64be 8fff 873e 6e8a eebd
00000320: 50f4 3bbd c709 a13d 97d6 063d b343 21bb
00000330: 7c0f 753d ba53 0cbd 3318 80bd a842 333d
00000340: bd8f 613e c89b 32be da9c 0fbe cf35 a93e
00000350: 504d 1bbe c706 39be 10c1 33bc 8dfe 343d
00000360: 1c98 663e 2ecf b8bd 9ccf 8dbe 03bd cebb
00000370: 7785 1fbc 82f2 a53d f00f 9c3d 3e8a 553e
00000380: be37 5bbe 6523 1f3e 524c 57be 51e8 b6bd
00000390: 82d8 37bd e294 e9bd 24ee c73d 81d0 bbbd
000003a0: 15bd 7dbe f278 5fbe 4e4a 513e 4638 903d
000003b0: aacc 723e 6393 733c 52d0 823e 0317 14bd
000003c0: b4bd b8bd 2fed 58be b482 4abc b925 0fbd
000003d0: 2b39 9ebc 86a9 99bd 8043 12be 4014 ecbd
000003e0: 9046 1a3e ea7f 4dbe edf1 35bd 4399 f3bd
000003f0: 27cd d93c c4ef cebd c743 e93d 1382 423e

bilstm.weight_ih_l0 f4 [64, 32]
0.02260437 0.19883335 0.1625997 -0.10683542 0.22509494 0.057197716 0.020252712 0.11500688
0.2787715 -0.07011309 -0.23868825 0.08963769 -0.13145706 0.24744515 -0.05548914 0.12505274
0.0043944567 -0.12376594 -0.06075891 0.14811797 0.24519564 0.048003305 0.29067713 0.16676252
-0.071479164 0.08446254 0.18321507 0.17942931 -0.0973538 0.14764623 -0.1065782 -0.07739757
0.21507788 0.059615795 0.08662532 -0.17181745 0.06519157 0.12476601 -0.033223014 -0.13033563
0.28064185 -0.11217365 0.20015426 0.12643948 0.0007817611 -0.102505 -0.2000282 -0.17645106
-0.049325027 0.03236324 0.23564918 0.14363031 -0.058535054 0.17536609 0.030863542 -0.028531987
0.166529 0.26667586 0.2097115 -0.02620133 -0.1957826 0.21450613 0.2770244 -0.14162582
0.08730059 0.24742512 -0.17760347 -0.1811402 0.21614215 0.21904908 0.082642525 0.06969496
0.13463373 0.1771387 0.114419505 -0.20304886 -0.2137007 0.076021686 0.08517038 0.13748449
-0.0038752265 0.19617628 -0.10715186 0.24350588 -0.0012728281 0.07761743 0.25385815 0.1663587
-0.17684843 0.15685621 -0.10581269 0.13500822 -0.059725482 -0.06809561 0.27594638 0.20774134
0.18981281 -0.043865524 0.19124132 -0.22200821 -0.036842685 0.06015025 0.20652565 0.0060513625
-0.14057234 0.25773153 -0.24263914 0.09047954 0.11481534 -0.20117387 0.21845011 0.1627952
0.081883445 -0.14563838 -0.18849583 -0.088442504 -0.083644815 0.2648132 0.086190656 0.038682234
-0.14903948 0.20231248 0.26095864 -0.14792196 0.13049737 0.20532912 -0.010217699 0.07109714
-0.20322564 -0.23356466 0.0037414925 0.17443681 0.20133266 -0.10800698 -0.050958265 0.024547338
0.090129845 0.23213 -0.12271694 0.14710602 0.018460853 -0.060671505 -0.04991473 -0.14869721
0.1821323 0.2822641 -0.14860816 -0.020940958 -0.0752564 -0.18663514 0.00013713978 -0.093771614
-0.025289552 0.18187645 0.4910129 -0.098886915 0.08072885 -0.19273256 0.1288858 -0.08200108
-0.028864639 0.029059954 0.06451888 0.13796708 -0.08812473 -0.09835367 -0.18239462 -0.08016578
0.10240577 0.037652243 -0.12735967 0.09799476 -0.115004174 0.18095766 -0.12215667 0.20852672
0.18813078 -0.050626915 -0.16879347 0.1986153 -0.115761176 0.2901532 0.15657003 0.1652451
-0.016889788 0.09603121 0.019710597 -0.033144854 0.2700345 0.11945586 -0.083087355 -0.021072868
0.18112941 0.10689874 -0.21894276 -0.14043584 -0.07946273 0.14062062 0.026644193 -0.03582326
0.051742483 -0.13958256 -0.12691922 0.027484968 -0.092221335 0.20820913 0.13322888 -0.22800782
0.17975728 0.05542184 0.08954105 0.20256779 -0.007849253 -0.17606297 0.11450903 -0.066680215
-0.20367189 0.04398278 0.5964915 -0.11271462 0.067004256 -0.18111183 -0.006526877 0.24190071
0.14550535 0.13996297 -0.02970028 -0.075015485 0.21759504 0.013890175 0.2376612 -0.015766205
0.037862662 0.14226076 -0.21800934 -0.13101289 0.19181335 0.22618838 0.13262175 0.045406494
-0.044765525 -0.013105145 -0.15562154 0.15862639 0.080688395 0.13525887 -0.028226344 -0.007918832
-0.15567002 -0.057704188 0.008610148 0.18632098 0.026573183 0.16159236 0.22318262 0.06713624
00000000: cd2c b93c f89a 4b3e 8980 263e 87cc dabd
00000010: 4a7f 663e 2748 6a3d 04e9 a53c ba88 eb3d
00000020: 23bb 8e3e 7497 8fbd b16a 74be f793 b73d
00000030: ae9c 06be 4362 7d3e 9548 63bd d30d 003e
00000040: 60ff 8f3b ff78 fdbd 56de 78bd 3dac 173e
00000050: 9114 7b3e 1d9f 443d a2d3 943e cbc3 2a3e
00000060: ab63 92bd b2fa ac3d bb9c 3b3e 51bc 373e
00000070: 6e61 c7bd 9330 173e ac45 dabd 9e82 9ebd
00000080: 603d 5c3e b12f 743d 9e68 b13d eaf0 2fbe
00000090: 2883 853d 5285 ff3d db14 08bd b476 05be
000000a0: 4ab0 8f3e 4cbb e5bd 3df5 4c3e 5a79 013e
000000b0: 19ef 4c3a 24ee d1bd 31d4 4cbe 96af 34be
000000c0: 0a09 4abd 518f 043d 054e 713e d313 133e
000000d0: 74c2 6fbd 2b93 333e 8ad5 fc3c eabb e9bc
000000e0: 9486 2a3e bd89 883e 9dbe 563e 2ca4 d6bc
000000f0: 3c7b 48be 7fa7 5b3e 24d6 8d3e 5c06 11be
00000100: a7ca b23d 035d 7d3e afdd 35be d17c 39be
00000110: 5e54 5d3e 674e 603e 7c40 a93d 3bbc 8e3d
00000120: 6ddd 093e d963 353e c654 ea3d 0aec 4fbe
00000130: 5bd4 5abe 42b1 9b3d cf6d ae3d bcc8 0c3e
00000140: 83f7 7dbb 6fe2 483e 6f72 dbbd 9b59 793e
00000150: 06d5 a6ba e3f5 9e3d b2f9 813e ef59 2a3e
00000160: c117 35be ea9e 203e 53b4 d8bd 983f 0a3e
00000170: b5a2 74bd b675 8bbd d848 8d3e 25ba 543e
00000180: 4a5e 423e 56ac 33bd c4d4 433e 1f56 63be
00000190: 5be8 16bd 1c60 763d 767b 533e 824a c63b
000001a0: 32f2 0fbe 63f5 833e 6576 78be 564d b93d
000001b0: 4e24 eb3d 8600 4ebe 63b1 5f3e c9b3 263e
000001c0: 82b2 a73d 3a22 15be 0d05 41be 5821 b5bd
000001d0: f94d abbd 9995 873e ba84 b03d 4371 1e3d
000001e0: ce9d 18be 012b 4f3e 5f9c 853e db78 17be
000001f0: 1aa1 053e cc41 523e 2368 27bc 619b 913d
00000200: 621a 50be 932b 6fbe d433 753b 909f 323e
00000210: 262a 4e3e c332 ddbd 9db9 50bd 8017 c93c
00000220: ff95 b83d 7db3 6d3e 0553 fbbd f6a2 163e
00000230: 373b 973c af82 78bd 6373 4cbd 1544 18be
00000240: e480 3a3e ec84 903e bd2c 18be 5f8c abbc
00000250: 0720 9abd 481d 3fbe 2ecd 0f39 550b c0bd
00000260: 092c cfbc d23d 3a3e 0b66 fb3e 3985 cabd
00000270: 2b55 a53d af5b 45be a4fa 033e 2ff0 a7bd
00000280: 8975 ecbc 240f ee3c 7922 843d 3e47 0d3e
00000290: bd7a b4bd a66d c9bd a8c5 3abe f52d a4bd
000002a0: 1eba d13d 3d39 1a3d 936a 02be 7ab1 c83d
000002b0: 4f87 ebbd f74c 393e 472d fabd 0788 553e
000002c0: 5ba5 403e 2b5e 4fbd 32d8 2cbe cf61 4b3e
000002d0: 3214 edbd f68e 943e e553 203e 0336 293e
000002e0: 745c 8abc 03ac c43d 1e78 a13c e6c2 07bd
000002f0: f641 8a3e 46a5 f43d b429 aabd 02a1 acbc
00000300: fd79 393e baed da3d 8832 60be 6ace 0fbe
00000310: 5bbd a2bd dafe 0f3e ec44 da3c 69bb 12bd
00000320: edef 533d bbee 0ebe 1df7 01be 2828 e13c
00000330: 8ade bcbd c634 553e 276d 083e e27a 69be
00000340: 4b12 383e 0302 633d 4c61 b73d ee6d 4f3e
00000350: 279a 00bc da49 34be b683 ea3d a38f 88bd
00000360: 5d8f 50be 4a27 343d abb3 183f ecd6 e6bd
00000370: 8739 893d 6175 39be 6adf d5bb d2b4 773e
00000380: 5bff 143e 7452 0f3e 004e f3bc b8a1 99bd
00000390: 3cd1 5e3e 9e93 633c 755d 733e 2128 81bc
000003a0: e115 1b3d ceac 113e d73d 5fbe 3e28 06be
000003b0: b86a 443e ed9d 673e ffcd 073e 29fc 393d
000003c0: 0e5c 37bd f6b6 56bc 415b 1fbe f56e 223e
000003d0: f53f a53d 4d81 0a3e ef3a e7bc fdbd 01bc
000003e0: f667 1fbe 3a5b 6cbd 9411 0d3c edca 3e3e
000003f0: 01b0 d93c 7878 253e fc89 643e ba7e 893d

bilstm.weight_ih_l0_reverse f4 [64, 32]
0.038180493 -0.051043365 -0.06249063 0.009109907 0.13937163 0.20769987 0.12568006 0.17058636
0.21212634 -0.09025272 -0.11106188 -0.16357075 0.11430186 -0.18460155 0.20435643 0.08904141
-0.24014354 0.023633793 0.03667227 0.050537396 0.1500878 0.1829754 -0.017815303 0.015229323
-0.12639336 -0.051359963 0.65661263 -0.26656762 0.13962138 -0.23119211 -0.28262094 0.07020579
-0.23962943 0.16249628 -0.121794574 0.24756505 0.2333973 -0.20946676 0.2202281 -0.21083009
0.07806173 -0.16911396 -0.08917755 -0.10799163 0.04435092 0.07379497 -0.031496514 0.13534968
0.11801819 0.2194613 0.17502427 0.20693412 0.15868096 -0.17112325 0.11812605 0.041128907
-0.0545345 0.025226029 -0.68081427 -0.1538096 -0.13596253 0.1649987 -0.07509724 -0.104206175
0.15863079 0.03306833 0.2511944 -0.02447964 -0.109161615 -0.12580174 0.08792777 -0.036491968
-0.007218788 -0.07843293 -0.25782233 -0.15058562 0.22788839 0.09233743 -0.21049951 0.20513844
0.005775283 0.17591037 0.2054009 0.2302758 0.22545117 0.2394641 0.1515723 0.09862201
0.04472148 0.22065027 0.1582772 0.14862657 -0.06966871 0.07078654 0.16302745 0.20025328
0.17293024 -0.07009637 -0.24973907 -0.06869086 -0.25500774 0.13882113 0.19685405 -0.06954301
-0.08018402 0.040044986 -0.15208009 0.21267647 0.20341545 -0.211637 -0.03666731 0.089650564
0.18433449 0.12220783 -0.081664525 0.15324746 0.059836026 -0.28379893 0.20604038 0.28345346
-0.31021857 0.2217075 -0.02553308 -0.05890931 -0.12671375 -0.115011275 0.0008185976 -0.26645696
0.10321218 0.100099176 -0.24267313 0.116722636 0.076624 -0.2895186 -0.008535945 0.0019814558
-0.20194718 -0.06764253 0.089258716 0.21573675 0.07329181 0.25797212 0.1794635 -0.09118864
-0.045271605 -0.25038654 -0.23765114 -0.21529028 0.10405323 0.22326532 -0.16218375 0.05333376
0.25188288 -0.34575105 0.24288028 0.12750173 -0.15289064 0.03637106 0.057550818 -0.121805005
-0.14285058 -0.14414452 0.027625406 -0.13041875 0.011910445 -0.01491422 0.031059727 -0.19426787
0.2876133 -0.03693051 -0.14975792 0.10782186 0.0467535 0.20727782 -0.055539574 -0.021418313
-0.059108626 0.12660973 -0.04357305 0.26934364 -0.13628897 0.13667385 0.19792777 0.14697868
0.17451009 -0.01181225 0.22180103 -0.038223613 0.20783979 0.24659465 0.16924667 -0.14596109
-0.04809969 -0.097718224 -0.1874552 0.25846863 0.12501381 0.29392493 0.26338756 -0.061928302
0.08844467 -0.06386504 0.0060553537 0.26111665 0.26247284 0.18447624 -0.10101702 -0.20333149
0.15433002 0.24422373 0.08907663 -0.018927313 0.050053842 -0.10807789 -0.11688591 0.27794942
-0.0525673 0.09879607 0.43409064 0.060508292 -0.00042205164 -0.08795534 0.110491954 -0.08199699
-0.28841293 0.048239995 0.02580741 -0.07461849 0.051213007 0.08381452 -0.060557015 -0.15630977
0.08168629 -0.045849133 0.37212324 0.14377922 0.1748724 -0.0070269164 -0.073198974 -0.013550956
-0.007521066 -0.1814505 -0.16147342 0.16238871 -0.076742455 -0.018587433 -0.059955377 -0.23439102
-0.010361739 -0.12420154 0.2586324 0.051967345 -0.25732306 -0.11093041 0.22893591 0.23201504
00000000: 2663 1c3d d912 51bd 2df6 7fbd b841 153c
00000010: 70b7 0e3e 46af 543e 46b2 003e 31ae 2e3e
00000020: a637 593e 6bd6 b8bd 6974 e3bd 177f 27be
00000030: 1817 ea3d 3008 3dbe d042 513e 585b b63d
00000040: 30e8 75be a89b c13c aa35 163d 4d00 4f3d
00000050: 9eb0 193e e75d 3b3e 66f1 91bc 6984 793c
00000060: 436d 01be d35e 52bd c417 283f 8d7b 88be
00000070: e8f8 0e3e a0bd 6cbe b1b3 90be 0ec8 8f3d
00000080: 6b61 75be 6d65 263e 6f6f f9bd b181 7d3e
00000090: b4ff 6e3e 747e 56be 7a83 613e d8e3 57be
000000a0: d4de 9f3d 362c 2dbe b8a2 b6bd b72a ddbd
000000b0: 4fa9 353d d121 973d 7d02 01bd 1b99 0a3e
000000c0: 85b3 f13d 77ba 603e 9039 333e 8ae6 533e
000000d0: 437d 223e ef3a 2fbe 12ec f13d c976 283d
000000e0: 915f 5fbd d1a6 ce3c d849 2ebf 4480 1dbe
000000f0: c339 0bbe 6bf5 283e 95cc 99bd 0c6a d5bd
00000100: 1c70 223e a872 073d 8d9c 803e 8789 c8bc
00000110: 2090 dfbd 2cd2 00be 7a13 b43d 9a78 15bd
00000120: 958b ecbb 72a1 a0bd 4a01 84be 1e33 1abe
00000130: 935b 693e 681b bd3d 2f8d 57be d00f 523e
00000140: 963e bd3b d921 343e 9d54 523e 6bcd 6b3e
00000150: acdc 663e 1436 753e c535 1b3e 56fa c93d
00000160: df2d 373d 25f2 613e 6b13 223e 9031 183e
00000170: 78ae 8ebd 89f8 903d abf0 263e 320f 4d3e
00000180: a014 313e b08e 8fbd 99bb 7fbe cbad 8cbd
00000190: 6090 82be 2027 0e3e 1c94 493e 916c 8ebd
000001a0: 8537 a4bd 3606 243d e2ba 1bbe dcc7 593e
000001b0: 244c 503e 5fb7 58be 7630 16bd b79a b73d
000001c0: 2ec2 3c3e 1948 fa3d bb3f a7bd e7ec 1c3e
000001d0: 9f16 753d 184e 91be 40fc 523e d020 913e
000001e0: f8d4 9ebe 4a07 633e c02a d1bc e34a 71bd
000001f0: 40c1 01be 088b ebbd 2897 563a 0c6d 88be
00000200: e860 d33d cc00 cd3d 4e7f 78be 470c ef3d
00000210: 0bed 9c3d c83b 94be 59da 0bbc 50db 013b
00000220: 3ecb 4ebe 2b88 8abd 46cd b63d 18ea 5c3e
00000230: 041a 963d ec14 843e 48c5 373e 1cc1 babd
00000240: b86e 39bd aa32 80be d25a 73be 0e75 5cbe
00000250: dc19 d53d aa9f 643e 7f13 26be 8074 5a3d
00000260: cbf6 803e 4806 b1be 9cb5 783e d08f 023e
00000270: 5d8f 1cbe d2f9 143d 68ba 6b3d e774 f9bd
00000280: 6c47 12be 9f9a 13be ad4e e23c 7e8c 05be
00000290: 0724 433c c65a 74bc f870 fe3c 28ee 46be
000002a0: 0d42 933e 7244 17bd 245a 19be b5d1 dc3d
000002b0: 9980 3f3d a340 543e 777d 63bd 7575 afbc
000002c0: e31b 72bd fba5 013e a879 32bd 69e7 893e
000002d0: 568f 0bbe 3bf4 0b3e 94ad 4a3e 9481 163e
000002e0: c6b2 323e 2b88 41bc cf1f 633e 5d90 1cbd
000002f0: f4d3 543e 4f83 7c3e 004f 2d3e d376 15be
00000300: 2e04 45bd 7e20 c8bd 42f4 3fbe 0056 843e
00000310: 9f03 003e 547d 963e bcda 863e 88a8 7dbd
00000320: 7b22 b53d adcb 82bd fd6b c63b 15b1 853e
00000330: d762 863e 57e7 3c3e 03e2 cebd 2136 50be
00000340: b008 1e3e c915 7a3e cf6d b63d 740d 9bbc
00000350: 4205 4d3d f157 ddbd e161 efbd 634f 8e3e
00000360: cf50 57bd 9855 ca3d 2141 de3e 8bd7 773d
00000370: d046 ddb9 ee21 b4bd 9b49 e23d 0aee a7bd
00000380: dcaa 93be 4d97 453d 106a d33c 94d1 98bd
00000390: bbc4 513d f2a6 ab3d a20a 78bd ab0f 20be
000003a0: 244b a73d 4dcc 3bbd f086 be3e dc3a 133e
000003b0: c011 333e 0c42 e6bb 58e9 95bd d404 5ebc
000003c0: 4673 f6bb 29ce 39be 4a59 25be 3a49 263e
000003d0: 262b 9dbd ac44 98bc c593 75bd 3304 70be
000003e0: 49c4 29bc 615d febd 776b 843e b6db 543d
000003f0: d9bf 83be 7c2f e3bd 2d6e 6a3e 5a95 6d3e

parallel_cnn_block.branches.0.0.weight f4 [1, 1, 2]
0.33027235 0.6889861
00000000: 7519 a93e 6561 303f

parallel_cnn_block.branches.0.2.bias f4 [16]
0.19900188 0.5395018 0.65779096 0.45184436 -0.54674584 0.057587318 0.065651156 -0.3509852
-0.081760384 0.4513508 0.19725578 0.5658246 0.046637956 0.55356187 0.32008946 0.52322197
00000000: 26c7 4b3e ca1c 0a3f fd64 283f 2558 e73e
00000010: 89f7 0bbf aee0 6b3d 1d74 863d 55b4 b3be
00000020: fd71 a7bd 7417 e73e 6bfd 493e e2d9 103f
00000030: 7107 3f3d 3bb6 0d3f c4e2 a33e e0f1 053f

parallel_cnn_block.branches.0.2.weight f4 [16, 1, 2]
-0.54192144 0.37851077 -0.075047 0.39254373 -0.5517686 -1.1507641 -0.7817888 -0.98397607
-0.09543572 -0.20681205 0.57372415 0.20904343 -0.21336046 0.48421627 -0.46583527 -0.5392129
-0.2774044 0.34717932 -0.062317576 -0.0009246973 -0.39256543 0.5301058 -0.22536094 0.43921033
0.46787733 0.47573957 0.49175122 -0.066800825 -0.30307618 0.5024498 -0.12513989 0.05596804
00000000: 5dbb 0abf 2acc c13e 3eb2 99bd 7efb c83e
00000010: b540 0dbf 3d4c 93bf 5023 48bf dbe5 7bbf
00000020: ce73 c3bd 8ac6 53be 96df 123f 7b0f 563e
00000030: 2a7b 5abe 32eb f73e f681 eebe db09 0abf
00000040: f307 8ebe 7dc1 b13e b740 7fbd 6367 72ba
00000050: 56fe c8be 04b5 073f 05c5 66be 2de0 e03e
00000060: 9e8d ef3e 2394 f33e d1c6 fb3e dfce 88bd
00000070: cd2c 9bbe 8da0 003f ac24 00be be3e 653d

parallel_cnn_block.branches.1.0.weight f4 [1, 1, 4]
0.3211172 -0.005529702 -0.08767209 -0.15674362
00000000: 7969 a43e 8132 b5bb 6d8d b3bd 6681 20be

parallel_cnn_block.branches.1.2.bias f4 [32]
-0.30366355 0.1324083 0.03221702 0.16031574 -0.5777136 -0.16738091 0.4982267 0.09584939
0.019722104 0.17143482 0.25648496 0.22714016 0.224697 -0.47168046 0.36719137 -0.3825781
-0.34206742 -0.26588625 -0.009033596 -0.119438045 -0.48285833 0.084965095 -0.16117308 0.34109482
-0.24142028 0.36068693 -0.17552187 0.3681475 -0.06702374 -0.3170941 0.026824437 -0.14256759
00000000: ca79 9bbe 0b96 073e fef5 033d cf29 243e
00000010: 0ae5 13bf e765 2bbe 9217 ff3e af4c c43d
00000020: 4090 a13c 9c8c 2f3e ff51 833e 6e97 683e
00000030: f816 663e 1a80 f1be 8200 bc3e 47e1 c3be
00000040: 7623 afbe 3e22 88be a601 14bc ef9b f4bd
00000050: 3539 f7be 2e02 ae3d 8e0a 25be fba3 ae3e
00000060: e136 77be f5ab b83e 01bc 33be d47d bc3e
00000070: be43 89bd 285a a2be ecbe db3c 3dfd 11be

parallel_cnn_block.branches.1.2.weight f4 [32, 1, 4]
-0.2549748 0.30281156 -0.36467716 -0.517173 -0.21756913 -0.41273037 -0.10390151 0.53578144
0.14557986 0.45325938 -0.37626997 0.2238328 -0.23926145 -0.37536523 0.031298973 0.33058837
0.124947675 0.088849135 0.16982123 0.67196816 0.50005114 -0.5993173 0.2571964 -0.34707782
-0.12661517 0.15568404 -0.24056341 0.26671326 0.10281758 0.30375582 0.13881412 -0.35037845
-0.5623486 0.11411773 0.583633 -0.46860886 0.29702422 0.31233522 0.05742576 0.3290118
0.26055974 0.3519194 -0.44904214 -0.18680443 -0.30057696 0.044973195 0.03862184 0.48875144
0.27854407 0.3549599 -0.34027657 -0.45649052 0.05453556 0.15755127 0.4095373 0.30364546
0.11038866 -0.10828557 0.025274947 0.19038695 -0.14062512 -0.39806712 -0.41093838 0.0033924845
-0.5507183 0.3122531 -0.121555775 -0.112268634 0.017208107 -0.19040512 -0.14723875 0.44111592
-0.1518624 0.43899512 0.42699945 -0.4494161 0.47444984 -0.31720534 0.18842085 0.21717
0.05990327 -0.0430369 0.6508411 0.108972736 -0.14304632 0.19828773 -0.19218412 0.30334288
0.37816617 0.30710602 0.37645587 0.42709827 -0.21109197 0.11398011 0.30696827 0.39479026
0.017432043 0.36728063 -0.14530234 0.35391933 -0.22601447 0.017972074 -0.33286032 0.29709765
0.3696991 0.21118908 0.07459619 0.34620595 0.20642322 -0.22354025 0.4524895 0.48628962
0.3268587 0.07090143 0.48165572 0.617649 -0.097941115 0.45863572 0.5317334 -0.18732418
0.16970941 0.24072361 -0.50243855 -0.4179943 0.3910807 -0.034074377 -0.09485311 0.44889724
00000000: 0f8c 82be 1e0a 9b3e f7b6 babe 7365 04bf
00000010: 71ca 5ebe 6551 d3be 51ca d4bd f928 093f
00000020: e312 153e 9d11 e83e 75a6 c0be 6d34 653e
00000030: f400 75be df2f c0be 5a33 003d e142 a93e
00000040: 91e4 ff3d 89f6 b53d 9ee5 2d3e 1b06 2c3f
00000050: 5a03 003f dc6c 19bf 3faf 833e 2fb4 b1be
00000060: 68a7 01be a36b 1f3e 4156 76be a48e 883e
00000070: 0692 d23d e285 9b3e 4a25 0e3e ce64 b3be
00000080: 14f6 0fbf 8eb6 e93d f968 153f 80ed efbe
00000090: 8f13 983e 67ea 9f3e 4637 6b3d 3c74 a83e
000000a0: 1668 853e c82e b43e dae8 e5be a949 3fbe
000000b0: 39e5 99be d035 383d ef31 1e3d a13d fa3e
000000c0: 549d 8e3e 4ebd b53e bb38 aebe 20b9 e9be
000000d0: ae60 5f3d 1f55 213e dfae d13e 6b77 9b3e
000000e0: 7313 e23d d3c4 ddbd 680d cf3c ccf4 423e
000000f0: 0800 10be 74cf cbbe 8466 d2be 7254 5e3b
00000100: e0fb 0cbf a3df 9f3e 3cf2 f8bd 19ed e5bd
00000110: 04f8 8c3c 8ff9 42be c1c5 16be f2d9 e13e
00000120: d181 1bbe f8c3 e03e ac9f da3e de19 e6be
00000130: 17eb f23e bd68 a2be 65f1 403e d061 5e3e
00000140: 225d 753d 7647 30bd 869d 263f 192d df3d
00000150: bc7a 12be f00b 4b3e eacb 44be c24f 9b3e
00000160: ff9e c13e 003d 9d3e d3be c03e a0ac da3e
00000170: 7e28 58be 676e e93d f22a 9d3e f321 ca3e
00000180: a5cd 8e3c 350c bc3e 23ca 14be ea34 b53e
00000190: 5670 67be 2c3a 933c ab6c aabe 2f1d 983e
000001a0: 3349 bd3e f341 583e e3c5 983d e841 b13e
000001b0: 9c60 533e bce7 64be b4ac e73e f4fa f83e
000001c0: 065a a73e c534 913d 949b f63e 3f1e 1e3f
000001d0: 5a95 c8bd 4dd2 ea3e ae1f 083f e9d1 3fbe
000001e0: 4ec8 2d3e 4080 763e d09f 00bf 5903 d6be
000001f0: bb3b c83e 9391 0bbd 5942 c2bd dcd5 e53e

parallel_cnn_block.branches.2.0.weight f4 [1, 1, 8]
0.0080528 0.26780507 -0.042877894 0.37302226 -0.15951371 -0.4266237 -0.21133244 0.17990103
00000000: e4ef 033c bf1d 893e bba0 2fbd c6fc be3e
00000010: 9057 23be 6c6e dabe 8867 58be fa37 383e

parallel_cnn_block.branches.2.2.bias f4 [64]
0.16320102 -0.6889952 -0.22913104 0.069656834 0.09622433 0.38133132 -0.50499624 -0.8311702
0.2865194 0.34047362 0.35805732 0.13649002 -0.80933166 0.26039734 0.21939157 -0.73283035
0.23900452 0.012465655 0.12928356 -0.32631448 -0.7874605 0.0037123843 -0.2275215 0.24877064
0.022937112 -0.63288486 -0.4541385 0.11645323 0.32141334 -0.87278503 0.07925563 0.13905205
-0.08657718 -0.31932074 -0.5697687 0.0035020376 0.2946379 -0.0073918616 -0.18763942 0.3535885
0.1749386 -0.4200531 0.18778819 0.30876473 0.3197796 0.31480822 0.3879992 0.13517375
-0.49952814 0.015482248 0.10967754 0.013951113 -0.0078952415 0.08328142 0.060079824 -0.76893276
0.28037083 0.11936698 -0.7553647 -0.3505053 0.07838302 -0.0026142846 -0.33076242 0.0038858338
00000000: 2b1e 273e fd61 30bf 54a1 6abe 3ea8 8e3d
00000010: 4311 c53d dc3d c33e 6f47 01bf 92c7 54bf
00000020: acb2 923e 8f52 ae3e 4a53 b73e 0ac4 0b3e
00000030: 5c30 4fbf cd52 853e 2fa8 603e c59a 3bbf
00000040: 9abd 743e bf3c 4c3c e962 043e b112 a7be
00000050: 0397 49bf 794b 733b 65fb 68be bbbd 7e3e
00000060: 9ce6 bb3c be04 22bf d784 e8be 087f ee3d
00000070: 4a90 a43e d76e 5fbf c750 a23d a963 0e3e
00000080: 604f b1bd 027e a3be 5ddc 11bf 7182 653b
00000090: c7da 963e 6e37 f2bb 8c24 40be 8d09 b53e
000000a0: 1b23 333e 3311 d7be 8c4b 403e 6916 9e3e
000000b0: 27ba a33e 8b2e a13e d5a7 c63e fd6a 0a3e
000000c0: 27c2 ffbe 41a9 7d3c 9e9e e03d 3693 643c
000000d0: 0b5b 01bc 738f aa3d 4316 763d c7d8 44bf
000000e0: c48c 8f3e ad76 f43d 955f 41bf 6e75 b3be
000000f0: 4787 a03d 6b54 2bbb b159 a9be 79a9 7e3b

parallel_cnn_block.branches.2.2.weight f4 [64, 1, 8]
-0.00399176 -0.19985113 0.29009953 0.23439646 -0.07208974 -0.0100346925 0.3485296 -0.23710342
0.06252759 -0.09325658 -0.12415908 0.16407713 0.07142158 0.007248343 -0.09493793 0.38391382
-0.23203653 0.37228185 -0.23521984 -0.14395222 0.3469004 0.001459742 -0.34805766 0.2620158
0.37984613 -0.061412416 0.11927719 0.10673902 0.09223367 -0.04953021 0.17523675 -0.20975478
-0.03575984 0.11499619 -0.03326699 0.08248616 0.34875008 0.29875037 0.18070517 -0.23661223
0.20091335 -0.034520715 0.19307105 -0.17887041 0.084325515 -0.2798275 -0.11674117 0.23044094
0.47309318 0.11866618 0.091114536 0.054138944 0.051773217 -0.24815506 0.2118816 0.26023823
-0.09581235 -0.10955627 0.14935817 0.1964241 -0.25125843 0.21994111 0.2725988 -0.14357044
-0.11914084 0.19917685 0.19741835 0.32072318 -0.2269422 0.21783474 -0.15944497 -0.18038549
0.2978964 -0.26422074 0.040728897 -0.27050078 0.14332981 -0.04235098 0.041168857 -0.3180016
0.10087865 0.037110656 0.3622596 0.3267996 -0.17440385 -0.12757401 -0.021010937 0.11195529
-0.06035156 0.033559576 0.27058005 0.05834101 -0.123289384 -0.081062846 -0.4687256 -0.04223938
-0.07493615 0.14553751 -0.16326584 -0.013412226 0.11849598 0.044337124 -0.073127806 0.34934306
-0.036073953 -0.032952957 -0.0038927535 -0.095042996 -0.36051142 -0.10275317 -0.2015068 0.21092588
-0.10942709 0.11275391 -0.07205252 -0.013811023 -0.23633075 0.42565885 -0.0015529597 0.13490692
0.14093088 -0.004020588 -0.14223826 -0.16658959 -0.043102954 0.044281572 0.044676453 0.3061516
0.20995183 -0.17468047 -0.104088865 0.26714173 0.10140367 -0.087955184 0.1460534 0.26454952
0.25622246 -0.22604293 -0.110809386 0.31759402 0.41421002 0.3981538 0.4172238 -0.28443593
-0.14319272 0.32278955 -0.23879243 -0.1542654 0.07878903 0.18019208 0.1344827 -0.17981887
-0.053019695 -0.081111304 -0.2578083 -0.34844282 -0.26061913 0.014342405 -0.21120708 -0.021828918
0.2858941 -0.3787799 0.18557566 -0.085012674 0.11298162 -0.01895665 0.09960996 0.14634988
0.2425815 -0.030027919 0.26534384 0.4083691 0.1928924 -0.2572584 0.14950661 0.41507936
0.1296061 -0.14626023 0.03303417 0.20218544 -0.15956566 -0.12941392 0.3205118 -0.106325716
0.18532853 0.15717916 -0.16029495 0.23127829 0.15072437 -0.064539894 -0.1990431 0.10773717
-0.10453976 0.35589966 -0.19725457 -0.5126135 -0.011845281 0.20460667 0.3103801 0.027642574
-0.1564885 -0.012964395 -0.023045538 0.21910053 0.2322715 0.14492664 0.17132379 0.14762312
0.00010677782 -0.043337084 -0.034926012 0.16592284 -0.304903 0.041331306 0.26065037 0.2027435
0.029389346 -0.10867245 0.25364488 0.14713976 -0.38645378 -0.139206 -0.519244 -0.22080627
-0.20764711 0.113284394 0.3573081 0.050669793 -0.014505591 0.35181755 -0.13966183 -0.050366364
0.13847664 -0.09545881 0.0077006663 -0.28538877 -0.069338776 0.20804502 -0.05783989 0.23054895
-0.25176823 -0.0150599005 0.2764188 0.37215874 -0.06456369 0.3039455 -0.27556428 0.35026443
0.06078756 -0.042917673 0.1049439 -0.11738344 -0.0858828 -0.44232562 0.12315197 -0.33449998
00000000: 4fcd 82bb c6a5 4cbe ed87 943e a005 703e
00000010: c9a3 93bd 8d68 24bc 7972 b23e 3dcb 72be
00000020: 770e 803d 4efd bebd 1e47 febd d603 283e
00000030: 7a45 923d 8283 ed3b d16e c2bd 5a90 c43e
00000040: fc9a 6dbe ba9b be3e 78dd 70be 3668 13be
00000050: ee9c b13e d054 bf3a 9d34 b2be ef26 863e
00000060: 317b c23e 968b 7bbd 9947 f43d fd99 da3d
00000070: 02e5 bc3d 31e0 4abd 4371 333e f5c9 56be
00000080: e978 12bd 1f83 eb3d f842 08bd 81ee a83d
00000090: 5f8f b23e cff5 983e c70a 393e 7a4a 72be
000000a0: 3bbc 4d3e 9865 0dbd 6bb4 453e ce29 37be
000000b0: dbb2 ac3d 8d45 8fbe ff15 efbd b6f8 6b3e
000000c0: 4539 f23e 4107 f33d 429a ba3d ccc0 5d3d
000000d0: 2710 543d 5c1c 7ebe 7df7 583e f23d 853e
000000e0: 4439 c4bd 0a5f e0bd 59f1 183e 6623 493e
000000f0: f2a4 80be 3e38 613e 1292 8b3e 2104 13be
00000100: 1d00 f4bd 04f5 4b3e 0928 4a3e d435 a43e
00000110: 8963 68be 1210 5f3e 8b45 23be f9b6 38be
00000120: e085 983e f147 87be 58d3 263d 147f 8abe
00000130: 0dc5 123e 3978 2dbd ada0 283d 1bd1 a2be
00000140: 7799 ce3d 5801 183d 177a b93e 4752 a73e
00000150: ec96 32be c3a2 02be 211f acbc d148 e53d
00000160: 3333 77bd c475 093d 7889 8a3e fcf6 6e3d
00000170: 257f fcbd 4704 a6bd cdfc efbe 3303 2dbd
00000180: 2078 99bd c907 153e 292f 27be f4be 5bbc
00000190: 05ae f23d d89a 353d 08c4 95bd 18dd b23e
000001a0: 48c2 13bd aef9 06bd 911d 7fbb e7a5 c2bd
000001b0: f494 b8be 4170 d2bd cc57 4ebe f4fc 573e
000001c0: 4f1b e0bd 86eb e63d 4690 93bd a147 62bc
000001d0: b000 72be f5ef d93e ae8c cbba 0a25 0a3e
000001e0: 2f50 103e 23bf 83bb e8a6 11be 7696 2abe
000001f0: b98c 30bd 9860 353d a8fe 363d e7bf 9c3e
00000200: 9dfd 563e 70df 32be 8b2c d5bd cdc6 883e
00000210: baac cf3d d921 b4bd 068f 153e 0973 873e
00000220: 972f 833e cc77 67be 08f0 e2bd af9b a23e
00000230: 5613 d43e d1da cb3e 5c9e d53e 96a1 91be
00000240: 1da1 12be ac44 a53e 0186 74be c0f7 1dbe
00000250: 255c a13d 4684 383e d5b5 093e 7022 38be
00000260: 2e2b 59bd af1d a6bd 73ff 83be 1967 b2be
00000270: df6f 85be 68fc 6a3c ab46 58be 8fd2 b2bc
00000280: b660 923e 70ef c1be 8c07 3e3e 201b aebd
00000290: e862 e73d fa4a 9bbc 4f00 cc3d bedc 153e
000002a0: 4967 783e 1cfd f5bc 26db 873e c115 d13e
000002b0: 9685 453e 5fb7 83be 4318 193e 4885 d43e
000002c0: 76b7 043e 3ec5 15be d64e 073d b309 4f3e
000002d0: 2e65 23be 1585 04be 1f1a a43e 4cc1 d9bd
000002e0: c3c6 3d3e 93f3 203e 5c24 24be 37d4 6c3e
000002f0: 7d57 1a3e 7e2d 84bd f4d1 4bbe 4ea5 dc3d
00000300: f118 d6bd 7b38 b63e 1afd 49be a33a 03bf
00000310: b612 42bc 6984 513e 24ea 9e3e ae72 e23c
00000320: 853e 20be 9d68 54bc ffc9 bcbc e45b 603e
00000330: 95d8 6d3e a667 143e 816f 2f3e 842a 173e
00000340: e8ed df38 3a82 31bd 940e 0fbd ade7 293e
00000350: 3f1c 9cbe 044b 293d f773 853e fe9b 4f3e
00000360: edc1 f03c a98f debd bedd 813e ceab 163e
00000370: 45dd c5be 058c 0ebe 2ded 04bf 0a1b 62be
00000380: 72a1 54be a601 e83d 16f1 b63e 218b 4f3d
00000390: dca8 6dbc 6e21 b43e 8303 0fbe f64c 4ebd
000003a0: d2cc 0d3e e97f c3bd df55 fc3b 7a1e 92be
000003b0: 7d01 8ebd c109 553e 85e9 6cbd 0615 6c3e
000003c0: c4e7 80be cdbd 76bc c486 8d3e 978b be3e
000003d0: f839 84bd bf9e 9b3e c316 8dbe dc55 b33e
000003e0: 60fc 783d 71ca 2fbd d4ec d63d bb66 f0bd
000003f0: 52e3 afbd 8178 e2be 1a37 fc3d 9543 abbe

parallel_cnn_block.branches.3.0.weight f4 [1, 1, 32]
-0.015518439 -0.06440907 0.033074405 -0.059155244 -0.009728256 0.1102902 0.17441843 0.09985144
0.1777284 0.09205289 0.18509619 0.05416642 0.18224093 0.027795875 0.09327824 0.1387671
0.016603958 0.1906949 0.09706652 0.13562705 0.17164397 0.14779209 0.15627474 -0.006429895
0.118774794 0.03814179 0.07848371 0.12617384 -0.058803674 -0.07144749 0.026411671 -0.011509945
00000000: 0d41 7ebc e7e8 83bd 0779 073d c54c 72bd
00000010: 4363 1fbc d4df e13d bf9a 323e e97e cc3d
00000020: 6ffe 353e 3a86 bc3d db89 3d3e 9cdd 5d3d
00000030: 5e9d 3a3e 2db4 e33c a908 bf3d f618 0e3e
00000040: 0605 883c 8645 433e d0ca c63d d1e1 0a3e
00000050: 70c3 2f3e cf56 173e 7c06 203e deb1 d2bb
00000060: 3340 f33d 913a 1c3d 11bc a03d b733 013e
00000070: 1fdc 70bd 1053 92bd 4a5d d83c 3594 3cbc

parallel_cnn_block.branches.3.2.bias f4 [16]
0.13634937 0.22138357 0.17037548 0.11922448 -0.17832664 0.06745369 -0.026119675 0.20037407
0.0978759 0.13978171 0.020726634 0.017804276 0.23457229 0.11079772 0.21555966 -0.088186555
00000000: 2b9f 0b3e 60b2 623e e976 2e3e f72b f43d
00000010: 429b 36be 2925 8a3d eef8 d5bc dc2e 4d3e
00000020: 2973 c83d f022 0f3e e7ca a93c 46da 913c
00000030: b833 703e eae9 e23d acbb 5c3e 279b b4bd
