wide/modelpars_wide_i_5.safetensors (safetensors, 86584 bytes, 32 tensors)

bilstm.bias_hh_l0 f4 [64]
0	0xbde0c23e	-0.10974549
1	0x3e802562	0.2502852
2	0x3e300cf1	0.17192437
3	0x3dfcdb83	0.12346556
4	0xbe142d40	-0.14470387
5	0xbc960b49	-0.018315928
6	0x3d992f20	0.074796915
7	0x3e000ae1	0.1250415
8	0xbe37dfc1	-0.17956449
9	0xbd1a46a5	-0.037665028
10	0x3d2337a5	0.03984799
11	0xbc90d993	-0.017681872
12	0xbdd9da28	-0.10637313
13	0x3e2e6c3e	0.17033479
14	0x3e62ae6b	0.22136848
15	0x3dbe764f	0.09299909
16	0x3e2c4603	0.16823582
17	0xbe1bdf36	-0.15221867
18	0x3df0362f	0.11729085
19	0xbd82a6fc	-0.06379506
20	0xbdfd8a4d	-0.123798944
21	0x3e6f25df	0.2335429
22	0xbd41b437	-0.047291007
23	0x3d432032	0.047638126
24	0x3e8c7eae	0.274404
25	0x3e7a53f7	0.24446093
26	0x3e3ee482	0.18641856
27	0x3e69d1d2	0.22833946
28	0xbe81695c	-0.25275695
29	0xbd9ac3de	-0.0755689
30	0xbd59abc6	-0.05314233
31	0x3cdfc3d3	0.027315056
32	0x3d40186f	0.0468983
33	0x3d9665e4	0.07343653
34	0x3e604839	0.21902551
35	0x3e31cbbc	0.17362875
36	0x3d923ff8	0.07141107
37	0xbd88a472	-0.066719905
38	0x3e868a4e	0.26277393
39	0x3d602f7d	0.05473279
40	0xbe5b05e2	-0.21388963
41	0x3de616a1	0.11234785
42	0xbd950f95	-0.07278363
43	0x3d427000	0.047470093
44	0xbe5eea36	-0.21769032
45	0x3dd6325c	0.10458824
46	0x3de7f602	0.11326219
47	0xbe37043d	-0.1787271
48	0xbe258ced	-0.1616704
49	0x3baf0afc	0.0053418856
50	0x3c860066	0.016357612
51	0x3e6d2108	0.23157132
52	0x3e4231bf	0.18964289
53	0x3e053532	0.13008574
54	0xbe09dec7	-0.13463889
55	0x3bffb3fc	0.007803438
56	0xbe275bfe	-0.16343686
57	0x3e61d037	0.22052084
58	0xbd29ddac	-0.04147117
59	0xbe07571a	-0.1321682
60	0x3d227f80	0.039672375
61	0xbe384241	-0.17994024
62	0xbdc5f549	-0.09665925
63	0x3e6d2698	0.23159254

bilstm.bias_hh_l0_reverse f4 [64]
0	0x3d8a26a6	0.06745653
1	0x3e80c65f	0.25151345
2	0x3e53c275	0.20679648
3	0x3da52cf3	0.08065214
4	0xbda745fa	-0.08167644
5	0x3e02945d	0.12751909
6	0xbdc65222	-0.09683634
7	0xbd95f3b8	-0.07321876
8	0xbdaf17d5	-0.085494675
9	0xbd5cc551	-0.053899113
10	0xbdb6f5e5	-0.089336194
11	0xbd0b0800	-0.033943176
12	0x3dcb9f75	0.099425234
13	0x3dec93d1	0.11551631
14	0x3e176397	0.14784084
15	0x3e29b5a8	0.16573203
16	0xbe8e94df	-0.27847955
17	0xbdfd21d1	-0.123599656
18	0xbd5343f7	-0.05157849
19	0x3de2d7b2	0.11076297
20	0xbdccfe86	-0.10009484
21	0xbe155085	-0.14581497
22	0x3e89f12d	0.26941815
23	0x3dd3e108	0.10345656
24	0x3e331414	0.17488128
25	0x3db31f51	0.087462075
26	0x3dc6b5b6	0.09702627
27	0x3d620780	0.055182934
28	0x3e5c879f	0.2153611
29	0xbddd78a8	-0.10814029
30	0x3ab88a01	0.0014079214
31	0xbc8ce5c7	-0.01719941
32	0xbe2732d4	-0.16327983
33	0x3cb86044	0.02250684
34	0x3e6be0c3	0.23034959
35	0xbda16641	-0.078808315
36	0xbdc54524	-0.09632328
37	0x3e1733d1	0.1476586
38	0xbdf5fa64	-0.12010649
39	0xbe3251c7	-0.17414008
40	0x3e814da0	0.25254536
41	0x3e1ed763	0.15511851
42	0xbe4df504	-0.20112997
43	0x3e59e226	0.21277675
44	0xbc5d273d	-0.013498125
45	0xbe1f995a	-0.15585843
46	0xbe36df66	-0.17858657
47	0x3b6725ac	0.0035270257
48	0xbdbb785d	-0.09153817
49	0xbe141012	-0.14459255
50	0x3e172b3b	0.14762585
51	0x3c743073	0.014904129
52	0x3dd3cd08	0.10341841
53	0xbdc64fb0	-0.09683168
54	0x3e8ce736	0.2752015
55	0xbe27a303	-0.16370778
56	0xbdda6390	-0.10663521
57	0xbe299462	-0.1656051
58	0x3e4b5bfe	0.19859311
59	0x3e085b96	0.13316187
60	0x3e28a5e5	0.16469534
61	0x3e80236f	0.25027034
62	0x3d1cee67	0.038313296
63	0x3d08d0fc	0.033402428

bilstm.bias_ih_l0 f4 [64]
0	0xbde677b1	-0.11253298
1	0x3d1d7c7b	0.038448792
2	0x3e70df87	0.23522769
3	0xbd026017	-0.03182992
4	0x3df360e3	0.11883714
5	0xbc656058	-0.014000021
6	0xbdec5d66	-0.11541252
7	0x3cfcb07e	0.030845877
8	0x3e85e4ed	0.2615122
9	0xbe544697	-0.20730053
10	0xbe05b95c	-0.1305899
11	0x3d19aff5	0.03752132
12	0x3c9d17b5	0.019176343
13	0x3da439d1	0.0801884
14	0xbdbb15bd	-0.091350056
15	0x3d0b4cf0	0.03400892
16	0x3d8f099c	0.06984255
17	0x3d42d5ab	0.04756705
18	0x3e2a15a3	0.16609816
19	0x3e5a6575	0.21327765
20	0x3e4db7e2	0.20089677
21	0x3e1c9006	0.15289316
22	0xbe367b4b	-0.1782047
23	0x3e4bc88c	0.19900721
24	0xbd7a6095	-0.061127264
25	0x3ddf1334	0.108923346
26	0xbe35b7c8	-0.17745888
27	0x3e5246b2	0.2053478
28	0x3dba4114	0.09094444
29	0xbe110563	-0.14162211
30	0x3e84b45e	0.2591886
31	0x3e8b5a88	0.27217507
32	0x3dcc0e5b	0.099636756
33	0x3e0cce8e	0.1375067
34	0x3e401d83	0.18761258
35	0xbe68f3d4	-0.22749263
36	0x3e0a58ad	0.1351039
37	0x3bb4fdea	0.005523433
38	0x3e3b3f5e	0.18285891
39	0x3e005ef7	0.12536226
40	0x3ce4a389	0.02791001
41	0xbe561f81	-0.20910455
42	0xbe60d03e	-0.21954438
43	0xbe08343e	-0.13301179
44	0x3e46e174	0.19421941
45	0xbe7d9a10	-0.24765801
46	0x3e289772	0.16464022
47	0x3e4a4157	0.19751488
48	0x3e5f5619	0.21810187
49	0xbe195cdc	-0.1497683
50	0xbe1ba61c	-0.15200084
51	0x3e607be0	0.21922255
52	0xbe3b0115	-0.18262132
53	0x3e2d4bda	0.16923466
54	0xbe275dc7	-0.16344367
55	0x3e2000e4	0.1562534
56	0x3e99b834	0.30023348
57	0x3e924e02	0.2857514
58	0xbe2458a5	-0.1604944
59	0x3da3c5f5	0.07996742
60	0x3ddcbf96	0.107787296
61	0xbc26f11c	-0.010189321
62	0xbe1e2bde	-0.15446422
63	0x3e2c9e6d	0.1685731

bilstm.bias_ih_l0_reverse f4 [64]
0	0xbdbe0ab0	-0.09279382
1	0x3e5ad602	0.213707
2	0x3e3e6efb	0.18597023
3	0xbe1fa4a4	-0.15590149
4	0xbe00ab8d	-0.12565441
5	0x3e72530e	0.23664495
6	0x3e58b017	0.21160923
7	0x3d4c74d0	0.04991609
8	0xbdc5d241	-0.096592434
9	0xbe0e456f	-0.13893674
10	0xbbc812dd	-0.0061057643
11	0xbcd2f59a	-0.025751878
12	0xbc4587fd	-0.012056348
13	0x3e884201	0.26612857
14	0x3e504863	0.20340113
15	0xbe30ff30	-0.17284846
16	0xbda740af	-0.08166634
17	0xbd6270f9	-0.05528352
18	0xbe6fc9d2	-0.23416832
19	0xbe56b862	-0.20968774
20	0xbd1a7788	-0.03771165
21	0x3dfc612c	0.123232216
22	0xbdfbcb07	-0.12294584
23	0xbb3c5c0d	-0.002874139
24	0x3e8225cc	0.25419462
25	0xba088609	-0.0005207961
26	0xbd91f30e	-0.07126437
27	0x3e82e458	0.25564837
28	0x3da261f8	0.07928842
29	0x3e850471	0.2597995
30	0xbdc5d887	-0.0966044
31	0xbd16ad3a	-0.036786295
32	0xbe2b2d80	-0.16716576
33	0x3e41c426	0.18922481
34	0x3e66e3ff	0.22547911
35	0xbe31825e	-0.17334887
36	0xbd9f1b34	-0.077688605
37	0xbd01d8ee	-0.03170102
38	0x3e420d1d	0.18950315
39	0xbe08dbba	-0.13365069
40	0xbe18e0e7	-0.14929543
41	0x3c720337	0.014771274
42	0xbe866a42	-0.26252943
43	0x3dbc5114	0.09195152
44	0x3d2262a5	0.039644856
45	0x3db7f537	0.08982318
46	0xbd3210bb	-0.043472987
47	0x3d2cb438	0.042164057
48	0x3e15e173	0.14636783
49	0x3d8c12f8	0.068395555
50	0x3d999c9e	0.075005755
51	0xbdc94bac	-0.098288864
52	0x3e5626a0	0.20913172
53	0x3e30991b	0.17245905
54	0x3e18506d	0.1487443
55	0x3e66fb37	0.22556768
56	0x3e704dbc	0.23467153
57	0x3e7824ca	0.24232784
58	0xbe3ba0be	-0.18323037
59	0xbe340472	-0.17579821
60	0xbdc8b8c7	-0.098008685
61	0x3da9286f	0.08259665
62	0xbe8a6230	-0.27028036
63	0xbd04824d	-0.032350827

bilstm.weight_hh_l0 f4 [64, 16]
0	0xbd0ca725	-0.03433909
1	0xbcae4208	-0.02127172
2	0x3b83d7a9	0.0040235114
3	0xbdc91324	-0.09818104
4	0x3e2979ae	0.16550323
5	0xbe35f821	-0.17770435
6	0x3b7bca0b	0.0038419988
7	0x3db898e5	0.09013537
8	0x3e1f664f	0.15566371
9	0x3d3168e5	0.043312926
10	0xbe9414e6	-0.28922194
11	0x3e2f35c9	0.17110361
12	0x3e2c1f73	0.16808872
13	0xbdb7b1bc	-0.08969447
14	0xbe0efca2	-0.1396356
15	0xbd4a0f21	-0.049330834
16	0xbe649423	-0.22322135
17	0xbdc1e9a7	-0.09468394
18	0xbdf10f17	-0.11770456
19	0xbe60c349	-0.21949495
20	0xbe831104	-0.2559892
21	0x3c912baa	0.017721016
22	0xbe06625c	-0.13123459
23	0x3e3b7d14	0.18309432
24	0x3e476c84	0.19474989
25	0xbe429e89	-0.19005789
26	0x3e3c8237	0.18409048
27	0xbcb98b94	-0.022649564
28	0x3e36f426	0.17866573
29	0x3e1913e0	0.14948988
30	0x3e858405	0.26077285
31	0xbdfed745	-0.12443403
32	0x3e6d11e1	0.23151352
33	0xbdb79ad5	-0.08965079
34	0xbe1b7273	-0.15180378
35	0x3d94a497	0.072579555
36	0x3e5ca415	0.21546967
37	0x3dcfaa9d	0.10139964
38	0x3e4dcea1	0.20098354
39	0x3e292925	0.16519602
40	0xbe2d78b6	-0.16940579
41	0xbdb6286d	-0.08894429
42	0x3da531d8	0.080661476
43	0xbde58cc1	-0.11208487
44	0xbcd6354b	-0.026148459
45	0xbe81801b	-0.2529305
46	0x3d756cfd	0.059918392
47	0x3e897676	0.2684819
48	0x3b54edb6	0.003249032
49	0xbd5f1e2f	-0.054472145
50	0x3e872f0b	0.26403078
51	0xbd563225	-0.052293915
52	0xbe5a80ab	-0.21338145
53	0x3dac5c45	0.084160365
54	0x3d6ec15f	0.05828988
55	0x3b7cc3cf	0.003856886
56	0xbe25eb71	-0.16203095
57	0xbe376325	-0.17908914
58	0x3e48ef66	0.19622573
59	0xbe68131c	-0.2266354
60	0x3e848c2c	0.25888193
61	0x3c200814	0.009767551
62	0xbd9754bf	-0.07389211
63	0xbe218569	-0.15773548
64	0xbe1a5b2e	-0.15073845
65	0xbe2fa19c	-0.17151493
66	0xbd26e028	-0.040741116
67	0x3db7f726	0.08982687
68	0xbe18d25c	-0.14923996
69	0x3dc55854	0.09635988
70	0x3d61628d	0.055025626
71	0xbe3fe169	-0.18738331
72	0xbc0f67e8	-0.0087528005
73	0xbe3d4cec	-0.18486375
74	0xbdad7adc	-0.08470699
75	0xbce773ff	-0.028253553
76	0xbd9ddebf	-0.07708501
77	0xbe8f4601	-0.27983096
78	0xbe287828	-0.16452086
79	0x3e2568f7	0.16153322
80	0x3e48d120	0.19611025
81	0xbca6f044	-0.02037824
82	0xbdf883b4	-0.121344954
83	0x3dcc8876	0.09986965
84	0x3dd72037	0.10504191
85	0x3d58f256	0.052965485
86	0xbd5c22cc	-0.053744122
87	0xbe7b504f	-0.24542354
88	0xbe1e10b0	-0.15436053
89	0xbcf47bfd	-0.029844278
90	0xbe5e8402	-0.21730044
91	0x3d1b13dc	0.037860736
92	0xbdcf1a15	-0.10112397
93	0xbccf101a	-0.025276233
94	0xbd810a32	-0.06300773
95	0x3e7fd9f6	0.24985489
96	0x3d332322	0.043734677
97	0xbde68994	-0.1125671
98	0xbcbdbecd	-0.02316227
99	0x3d031ed1	0.03201181
100	0xbe70ab93	-0.2350295
101	0x3e09e79e	0.13467261
102	0xbdb86bd4	-0.090049416
103	0x3c628fe2	0.01382825
104	0xbda5b544	-0.08091214
105	0xbcaaeb4f	-0.020864157
106	0xbe7e2850	-0.24820065
107	0xbdf18561	-0.11793018
108	0x3e1d69db	0.15372412
109	0xbe11579a	-0.14193574
110	0x3e637546	0.22212705
111	0xbe39fcb6	-0.18162808
112	0x3b63d38a	0.0034763538
113	0x3d156169	0.03646985
114	0x3ccbf7cd	0.024898434
115	0xbe37e5e0	-0.17958784
116	0xbe5a00a4	-0.21289307
117	0x3e1de2c9	0.15418543
118	0x3d403d9d	0.04693376
119	0x3dc0c0e5	0.09411792
120	0xb846a52c	-4.7360707e-05
121	0x3e4f5783	0.20248227
122	0x3d2f9aef	0.042872366
123	0x3d78b76d	0.060721803
124	0xbd09d031	-0.033645812
125	0x3e1368ca	0.14395443
126	0xbdcfa45e	-0.101387724
127	0x3e827010	0.25476122
128	0x3dc20abb	0.09474703
129	0xbd9c3429	-0.07627136
130	0xbbdeaf93	-0.0067958324
131	0xbe835cc5	-0.25656715
132	0x3d558c71	0.05213589
133	0x3dc364d9	0.095407195
134	0xbe346b31	-0.17619015
135	0x3c103e18	0.008803867
136	0xbdd4ddbc	-0.10393855
137	0x3e246975	0.16055854
138	0xbe84c288	-0.25929666
139	0x3e5251d0	0.20539021
140	0x3d8ce94d	0.06880436
141	0xbe6fd792	-0.23422077
142	0x3d935dac	0.07195601
143	0x3e7fdfd6	0.2498773
144	0x3d26d1d4	0.04072745
145	0xbe153903	-0.1457253
146	0xbe51dccc	-0.20494384
147	0x3d71b2b9	0.059008334
148	0x3de7a34d	0.11310444
149	0xbe8562b0	-0.26051855
150	0x3d159668	0.03652039
151	0x3df05ad8	0.11736077
152	0xbe26736b	-0.16254966
153	0x3e86ee2c	0.26353586
154	0x3e5bfdbd	0.21483512
155	0xbe7610cb	-0.24029844
156	0xbdf89206	-0.12137227
157	0xbda0e641	-0.078564174
158	0x3e3f8d0f	0.18706153
159	0xbe2be5aa	-0.16786829
160	0xbe330a6e	-0.17484447
161	0x3df8ed05	0.12154583
162	0x3e195a13	0.14975767
163	0x3e54485d	0.2073073
164	0xbd94c220	-0.07263589
165	0xbe173514	-0.14766341
166	0x3e78d2ed	0.24299212
167	0x3d402283	0.046907913
168	0xbd0fb7d6	-0.03508743
169	0x3e562519	0.20912589
170	0xbd269cbd	-0.04067682
171	0xbe93a91a	-0.28839952
172	0x3e03582b	0.12826602
173	0x3c0d300b	0.008617411
174	0xbe37b5e9	-0.17940487
175	0x3da44b62	0.08022191
176	0x3d99e656	0.07514636
177	0xbd9e41b9	-0.07727379
178	0x3e878185	0.26466003
179	0xbe8b862e	-0.27250808
180	0x3dcf2e82	0.101162925
181	0xbe1ef00b	-0.15521257
182	0x3e94a394	0.2903105
183	0x3e186112	0.1488078
184	0xbe1cbf00	-0.15307236
185	0x3e2c7e8e	0.16845152
186	0x3e1d2c6c	0.15348977
187	0x3cd606ae	0.026126232
188	0x3e0b0a5e	0.13578174
189	0xbc99e526	-0.018786024
190	0xbd9b5da3	-0.07586219
191	0xbe1e7075	-0.15472586
192	0x3daea0b9	0.08526749
193	0xbe05ebfa	-0.13078299
194	0xbe62a6a4	-0.22133881
195	0x3dcf43d4	0.10120359
196	0xbde924c5	-0.11383966
197	0xbaab185c	-0.0013053524
198	0x3d1735b2	0.036916442
199	0x3e3de42a	0.18544069
200	0x3e4c65f9	0.19960774
201	0xbdbbd0dd	-0.09170697
202	0xbe251d0b	-0.1612436
203	0x3e7af8dd	0.24508996
204	0xbd453332	-0.048144527
205	0x3d9a2cdf	0.0752809
206	0xbbac461f	-0.0052573825
207	0x3d4493fc	0.04799269
208	0xbdf41e1c	-0.119198054
209	0xbd703b0a	-0.058650054
210	0xbddf0011	-0.108886845
211	0xbe799a9d	-0.24375387
212	0x3d4b7935	0.04967614
213	0xbdd9d127	-0.10635596
214	0xbdf75a8a	-0.12077816
215	0x3de36252	0.111027375
216	0xbdac7e2e	-0.08422504
217	0x3deb9f8f	0.11505043
218	0x3c73fb1a	0.01489141
219	0x3d94ec51	0.07271636
220	0xbdd3778d	-0.10325537
221	0xbdfcc52f	-0.12342297
222	0xbdcabaac	-0.09898886
223	0xbd6bda6b	-0.057581346
224	0xbddce6b6	-0.10786192
225	0x3deeb0fe	0.11654852
226	0xbe09baa3	-0.13450103
227	0x3e07022d	0.13184424
228	0xbe4245e8	-0.1897198
229	0x3dd6ee42	0.10494663
230	0xbe3a7cdc	-0.18211693
231	0xbe6d54eb	-0.23176925
232	0xbdfbcb3c	-0.12294623
233	0x3cdc8854	0.026920475
234	0x3cc7db4f	0.024396567
235	0xbcf4e61e	-0.029894885
236	0x3d57e30a	0.052706756
237	0xbc617a22	-0.013762029
238	0xbd8805b7	-0.06641715
239	0x3e78d46c	0.24299783
240	0x3d3c7081	0.04600573
241	0x3e0de40b	0.13856523
242	0x3e3a1be6	0.18174705
243	0xbe5ce19d	-0.2157044
244	0x3e08071d	0.13283964
245	0x3db4bc93	0.0882503
246	0x3e71d2dc	0.23615593
247	0xbe82383a	-0.25433522
248	0x3e145f01	0.14489366
249	0xbdf3b7a6	-0.119002625
250	0xbe33d183	-0.17560391
251	0x3decfd63	0.11571767
252	0x3d84a8ee	0.06477533
253	0x3e3bda73	0.1834505
254	0xbe1dc36e	-0.15406582
255	0xbe212d2c	-0.15739888

bilstm.weight_hh_l0_reverse f4 [64, 16]
0	0x3da8b92a	0.08238442
1	0x3e46578a	0.19369331
2	0xbe5bd970	-0.21469665
3	0x3e7b0bc8	0.24516213
4	0xbe24378d	-0.16036816
5	0x3db4a327	0.08820181
6	0x3e2cd9bc	0.16879934
7	0xbbb55960	-0.005534336
8	0xbe5bab1a	-0.21451989
9	0x3e33aafa	0.17545691
10	0xbe533013	-0.20623808
11	0xbe13743a	-0.14399806
12	0xbdbc0b8b	-0.09181889
13	0xbe3fa0cf	-0.18713687
14	0xbe3d6c56	-0.18498358
15	0x3da04aa8	0.078267395
16	0xbd056d0f	-0.03257471
17	0x3e844df0	0.25840712
18	0xbe719b3a	-0.2359437
19	0x3c552f79	0.013011807
20	0x3c1640a2	0.009170683
21	0x3b6ce621	0.003614791
22	0xbe0d7afa	-0.13816443
23	0xbe4696be	-0.19393441
24	0x3dc2e6b7	0.095166616
25	0x3d42874d	0.047492314
26	0xbdb1928a	-0.08670528
27	0xbe341c29	-0.17588867
28	0xbdab736b	-0.083716236
29	0xbdf7235f	-0.120672934
30	0xbddf2f0c	-0.10897645
31	0x3c0d7443	0.008633676
32	0x3e502267	0.20325623
33	0xbdc6897b	-0.09694191
34	0x3e327548	0.17427552
35	0xbe506e6a	-0.2035462
36	0x3e8112bd	0.2520961
37	0x3e36ce82	0.17852214
38	0xbd21a3e2	-0.03946293
39	0xbd0b0577	-0.03394076
40	0x3e84a20e	0.25904888
41	0xbe2e6663	-0.17031245
42	0xbe188abb	-0.14896671
43	0xbdbd3a0e	-0.09239589
44	0xbe0da209	-0.13831343
45	0xbc948e06	-0.018134128
46	0xbe020e00	-0.12700653
47	0xbd305ce1	-0.043057326
48	0xbe5b0527	-0.21388684
49	0x3caae523	0.020861214
50	0xbe434f70	-0.19073272
51	0x3e99ae60	0.3001585
52	0xbe37f331	-0.17963864
53	0xbe64d310	-0.22346139
54	0xbe596738	-0.21230781
55	0x3e25011e	0.16113707
56	0x3d0943fc	0.0335121
57	0x3e1452bd	0.14484687
58	0x3de1a503	0.110178016
59	0xbdde2d14	-0.10848442
60	0x3e884ed1	0.26622632
61	0x3d7aadeb	0.061201017
62	0x3e835a03	0.2565461
63	0x3c9bf262	0.019036476
64	0xbe32b951	-0.17453505
65	0x3e89706f	0.26843593
66	0x3e8d57b1	0.27605966
67	0x3eb658f8	0.35614753
68	0x3c856fcb	0.016288659
69	0xbe893e4c	-0.2680534
70	0x3e58d114	0.21173507
71	0xbefde184	-0.49586117
72	0x3e9e22b4	0.3088585
73	0xbdcb667e	-0.09931658
74	0xbea5f8f1	-0.3241649
75	0x3df7f5b5	0.12107412
76	0x3ea0453a	0.31302816
77	0xbed1e6d0	-0.40996408
78	0x3e94fdb2	0.29099804
79	0xbe8f7703	-0.28020486
80	0x3e5fd55d	0.21858735
81	0xbbc61f55	-0.0060462155
82	0x3e362f4d	0.17791481
83	0xbe4dd4fa	-0.20100775
84	0x3bfc3913	0.0076972335
85	0xbe592b01	-0.21207811
86	0x3c863837	0.016384227
87	0xbe32e8a3	-0.17471556
88	0xbe568940	-0.20950794
89	0xbe7f94ca	-0.24959102
90	0x3e4aa093	0.19787817
91	0x3ddd9279	0.10818953
92	0x3d9b992e	0.07597576
93	0xbe7c4955	-0.24637349
94	0xbe566265	-0.20935972
95	0xbe1cac3d	-0.15300079
96	0x3dd6687d	0.10469148
97	0x3e5ef621	0.21773578
98	0xbc1c2250	-0.009529665
99	0x3e812b8e	0.25228542
100	0x3daf2ef7	0.0855388
101	0x3e42ba89	0.1901647
102	0x3e89aa1e	0.26887602
103	0x3cb58e15	0.022162477
104	0xbe316d26	-0.17326793
105	0x3d588996	0.052865587
106	0xbdf1f280	-0.11813831
107	0x3d8125d8	0.06306046
108	0x3e368771	0.17825104
109	0x3e2a3e0f	0.16625236
110	0xbe5bc9da	-0.21463719
111	0xbdba15d7	-0.09086197
112	0xbe6ff367	-0.23432694
113	0xbddf4b0e	-0.109029874
114	0x3d53d2be	0.05171465
115	0x3e802de7	0.2503502
116	0x3e2c121a	0.1680378
117	0x3deb7da6	0.11498575
118	0xbe5478ae	-0.2074916
119	0xbd1382a9	-0.03601328
120	0xbb9a8756	-0.0047158403
121	0x3d835d1f	0.06414246
122	0xbe662051	-0.22473265
123	0x3e93745a	0.28799707
124	0x3cbac00b	0.022796651
125	0xbe998925	-0.29987445
126	0x3e4420c8	0.1915313
127	0x3deb6aa1	0.11494947
128	0x3d588107	0.052857425
129	0x3e7cda5a	0.2469267
130	0xbe3cf226	-0.18451747
131	0xbe0d9239	-0.13825311
132	0xbe0aa4aa	-0.13539377
133	0xbe133940	-0.14377308
134	0x3e5fdbdc	0.21861213
135	0x3c327af7	0.010893575
136	0xbdd36a69	-0.103230305
137	0xbcc7241a	-0.024309207
138	0x3debc43f	0.1151204
139	0xbdbcd4db	-0.092202865
140	0xbc4510d9	-0.012027943
141	0x3e0f061b	0.13967173
142	0x3ce77505	0.028254041
143	0xbcf9dd12	-0.030500922
144	0x3e2e463c	0.1701898
145	0xbd4701d0	-0.048585713
146	0x3e626704	0.2210961
147	0xbe14770a	-0.14498535
148	0xbe069953	-0.13144426
149	0x3d7057a3	0.058677327
150	0xbe54b4a1	-0.2077203
151	0xbe2aafc5	-0.16668613
152	0xbc0f05e0	-0.008729428
153	0xbe2be7a7	-0.16787587
154	0xbe462201	-0.19348909
155	0x3ddff95e	0.10936235
156	0x3db73bb7	0.089469366
157	0xbe08fd30	-0.13377833
158	0xbdf41a2c	-0.119190544
159	0xbe80a77d	-0.25127783
160	0x3e4323e9	0.19056667
161	0x3e01e104	0.12683493
162	0xbd404864	-0.046944037
163	0xbd7d5f0f	-0.061858233
164	0x3d007515	0.031361658
165	0x3d005989	0.031335387
166	0x3e1b6e06	0.1517869
167	0xbe2fab54	-0.171552
168	0x3cade963	0.021229452
169	0x3d8974a3	0.067117
170	0x3e3435ed	0.17598696
171	0xbe211898	-0.15732038
172	0x3dced24a	0.10098703
173	0x3d781680	0.060568333
174	0xbb4ee294	-0.0031568157
175	0xbda04c0a	-0.07827003
176	0x3d738c2e	0.059459858
177	0x3e8be3e5	0.27322307
178	0xbdd588d9	-0.10426492
179	0xbcf3faf3	-0.029782748
180	0x3d9824c9	0.07428891
181	0x3e0c18b1	0.13681294
182	0x3e8e150a	0.27750427
183	0xbe80f0a2	-0.25183588
184	0x3e766d5e	0.24065158
185	0xbe873c37	-0.26413128
186	0xbcacac2d	-0.021078194
187	0xbe3e1ce7	-0.18565713
188	0x3e138ed2	0.1440995
189	0xbd690dbe	-0.05689787
190	0x3c001843	0.007818284
191	0x3d09e850	0.033668816
192	0xbe1c2b9a	-0.15251008
193	0x3e548e42	0.20757392
194	0xbe2b20af	-0.16711687
195	0xbe27e7fd	-0.1639709
196	0xbc564bee	-0.0130796265
197	0xbe64b852	-0.22335938
198	0x3e87ffea	0.26562434
199	0xbdee8a0c	-0.11647424
200	0xbd3bfa02	-0.045892723
201	0x3da10c24	0.07863644
202	0x3d06dd82	0.03292609
203	0xbb2196df	-0.0024656577
204	0x3d75094c	0.05982332
205	0xbd0c4cf2	-0.03425307
206	0xbd8034ab	-0.062600456
207	0x3d334fb1	0.04377717
208	0x3e5ec446	0.2175456
209	0xbe42e886	-0.19034013
210	0xbe07f088	-0.13275349
211	0x3e8c5164	0.27405846
212	0xbe1bec24	-0.15226799
213	0xbe401ebc	-0.18761724
214	0xbc19000c	-0.00933839
215	0x3d2b4b72	0.041819997
216	0x3e68465c	0.2268309
217	0xbdbcdd12	-0.09221853
218	0xbe8ef466	-0.27920836
219	0xbb8bb763	-0.0042638048
220	0xbbf03755	-0.007330815
221	0x3da19dae	0.07891403
222	0x3e34da60	0.17661428
223	0x3e4ff6f7	0.20309053
224	0xbe5b3760	-0.21407843
225	0x3e1f1e95	0.1553901
226	0xbe575f2b	-0.21032397
227	0xbdb719fc	-0.08940503
228	0xbd3749c1	-0.04474807
229	0xbde958c9	-0.113938875
230	0x3dc7b053	0.09750428
231	0xbdbbaee1	-0.09164215
232	0xbe7df49a	-0.2480034
233	0xbe5f37aa	-0.21798578
234	0x3e516d4d	0.20451851
235	0x3d8fff4d	0.07031117
236	0x3e728ddb	0.23686926
237	0x3c77f6ed	0.015134555
238	0x3e82c9d3	0.25544605
239	0xbd13095b	-0.035897594
240	0xbdb8bef1	-0.09020794
241	0xbe58ef20	-0.21184969
242	0xbc4adc7f	-0.012381672
243	0xbd0f288c	-0.034950778
244	0xbc9e55ba	-0.019327987
245	0xbd99a73d	-0.07502601
246	0xbe1243ca	-0.14283672
247	0xbdec15a2	-0.11527564
248	0x3e1a462e	0.15065834
249	0xbe4d7f8b	-0.20068185
250	0xbd35f0d9	-0.044419143
251	0xbdf399fd	-0.11894605
252	0x3cd9c85b	0.026584795
253	0xbdcef010	-0.10104382
254	0x3de926d5	0.1138436
255	0x3e4282c0	0.1899519

bilstm.weight_ih_l0 f4 [64, 32]
0	0x3cb6d72d	0.0223194
1	0x3e4b9af8	0.19883335
2	0x3e268d07	0.16264735
3	0xbddaeb5a	-0.10689421
4	0x3e667d46	0.22508726
5	0x3d6a2e7f	0.05717325
6	0x3ca64f09	0.020301359
7	0x3deb4a2e	0.11488758
8	0x3e8eb940	0.2787571
9	0xbd8f8013	-0.0700685
10	0xbe7085fb	-0.2348861
11	0x3db76e31	0.08956564
12	0xbe06a72e	-0.13149711
13	0x3e7d5fdf	0.24743603
14	0xbd634895	-0.05548914
15	0x3e000dd3	0.12505274
16	0x3b8f3a7c	0.0043709856
17	0xbdfd5a37	-0.12370723
18	0xbd790433	-0.06079502
19	0x3e17b4f5	0.14815123
20	0x3e7b1491	0.24519564
21	0x3d44d02f	0.0480501
22	0x3e94d470	0.29068327
23	0x3e2a9fc3	0.16662507
24	0xbd9258d7	-0.07145851
25	0x3dacf77e	0.08445643
26	0x3de069a3	0.109576486
27	0x3e379c15	0.17930634
28	0xbdc7b2b9	-0.097508855
29	0x3e1718e0	0.14755583
30	0xbdda6bab	-0.10665067
31	0xbd9b9596	-0.07596891
32	0x3e5548b3	0.20828514
33	0x3d742fb1	0.059615795
34	0x3d8c7743	0.06858685
35	0xbe3ca5d1	-0.18422629
36	0x3d36528e	0.044512324
37	0x3dd50e22	0.10403086
38	0xbd5ba2b4	-0.053621963
39	0xbe09eccc	-0.13469237
40	0x3e8e8d5b	0.2784222
41	0xbe034265	-0.12818296
42	0x3e2b8a38	0.16751945
43	0x3dff9dd7	0.124812774
44	0x3a452071	0.0007519788
45	0xbdd1b66e	-0.10239874
46	0xbe4cd431	-0.2000282
47	0xbe34af96	-0.17645106
48	0xbd767ebf	-0.06017947
49	0x3c692d3e	0.014231978
50	0x3e685c90	0.2269156
51	0x3e09f363	0.13471751
52	0xbd6fc274	-0.058535054
53	0x3e1eadb8	0.15495956
54	0x3cba6d57	0.022757215
55	0xbcfa9458	-0.030588314
56	0x3e29f0de	0.1659579
57	0x3e888138	0.26661086
58	0x3d347f8e	0.044066958
59	0xbceb196a	-0.028698642
60	0xbe6e26dc	-0.23257011
61	0x3e563272	0.20917681
62	0x3e8ccbe2	0.274993
63	0xbe118052	-0.14209107
64	0x3dae5e34	0.085140616
65	0x3e7d5d03	0.24742512
66	0xbe365e76	-0.17809471
67	0xbe3a1f7d	-0.18176074
68	0x3e5c3296	0.21503672
69	0x3e587b7d	0.21140857
70	0x3da6db0e	0.0814725
71	0x3d8dd25b	0.06924888
72	0x3e09a7b5	0.13442881
73	0x3e352625	0.17690332
74	0x3de9778c	0.11399755
75	0xbe5064fe	-0.20351025
76	0xbe5ad852	-0.21371582
77	0x3d9bb00b	0.07601937
78	0x3dae6dcf	0.08517038
79	0x3e0cc8bc	0.13748449
80	0xbb873297	-0.004125904
81	0x3e4476d2	0.19185951
82	0xbddc4033	-0.107544325
83	0x3e78fdfc	0.24315637
84	0xbaa6d506	-0.0012728281
85	0x3d9e07df	0.07716345
86	0x3e81daeb	0.25362334
87	0x3e2a0f2e	0.16607353
88	0xbe351b28	-0.1768614
89	0x3e209d48	0.15684998
90	0xbe59bf90	-0.21264482
91	0x3e09e7a5	0.13467272
92	0xbd7cfd81	-0.061765198
93	0xbd8bf380	-0.06833553
94	0x3e8cf759	0.2753246
95	0x3e54add6	0.20769438
96	0x3e422cc7	0.18962394
97	0xbd33ac56	-0.043865524
98	0x3e43b4e2	0.1911197
99	0xbe637bbf	-0.22215174
100	0xbd17d604	-0.037069336
101	0x3d7482f2	0.05969519
102	0x3e53455a	0.20631924
103	0x3bc373bf	0.0059647257
104	0xbe100295	-0.14063485
105	0x3e83f013	0.257691
106	0xbe786825	-0.24258478
107	0x3db9236d	0.0903996
108	0x3deb236d	0.11481366
109	0xbe4e00a2	-0.20117429
110	0x3e5fb163	0.21845011
111	0x3e26b3c9	0.1627952
112	0x3da795f3	0.081828974
113	0xbe158ad4	-0.1460374
114	0xbe411cdb	-0.18858664
115	0xbdb5493b	-0.08851858
116	0xbdab4df9	-0.083644815
117	0x3e878685	0.26469818
118	0x3db0611f	0.086122744
119	0x3d1e379a	0.038627245
120	0xbe189dc5	-0.14903934
121	0x3e4f2a58	0.20230997
122	0x3e52aa5f	0.20572804
123	0xbe178926	-0.14798412
124	0x3e05502f	0.13018869
125	0x3e5235e2	0.20528367
126	0xbc29aeb9	-0.0103565985
127	0x3d91af8e	0.071135625
128	0xbe509f0b	-0.2037317
129	0xbe6f2b93	-0.23356466
130	0x3bb75c7f	0.005595743
131	0x3e348f41	0.17632772
132	0x3e516be4	0.20451313
133	0xbdd62f34	-0.10458222
134	0xbd43f6f0	-0.04784292
135	0x3cc85cbc	0.024458282
136	0x3db98f56	0.09060542
137	0x3e6f0598	0.23341978
138	0xbdedc162	-0.116091505
139	0x3e172e10	0.14763665
140	0x3c96e630	0.018420309
141	0xbd788c46	-0.06068065
142	0xbd4c7363	-0.04991473
143	0xbe184415	-0.14869721
144	0x3e3af762	0.18258432
145	0x3e924836	0.28570718
146	0xbe17708a	-0.14789024
147	0xbca10841	-0.019657256
148	0xbd9a2007	-0.0752564
149	0xbe3c9420	-0.1841588
150	0x3a43485f	0.0007449444
151	0xbdc11cf3	-0.0942935
152	0xbccebd00	-0.025236607
153	0x3e3a3885	0.18185623
154	0x3e937722	0.2880183
155	0xbdcb4771	-0.09925736
156	0x3da6f743	0.0815263
157	0xbe4584ad	-0.19288893
158	0x3e053887	0.13009845
159	0xbda424bb	-0.08014818
160	0xbd10de12	-0.035368033
161	0x3cee0f24	0.029059954
162	0x3d830e2d	0.06399188
163	0x3e0c589e	0.1370568
164	0xbdb7cc89	-0.08974559
165	0xbdde2e7e	-0.108487114
166	0xbe3c942b	-0.18415897
167	0xbda6025a	-0.08105917
168	0x3dd0f6b8	0.10203308
169	0x3d199c4d	0.037502576
170	0xbe016b88	-0.12638676
171	0x3dc6a4b6	0.09699385
172	0xbdeb92b1	-0.115025885
173	0x3e394c1c	0.1809544
174	0xbdfa2d47	-0.12215667
175	0x3e558807	0.20852672
176	0x3e405a05	0.1878434
177	0xbd75e715	-0.06003483
178	0xbe2d609c	-0.16931385
179	0x3e4aeaa5	0.19816072
180	0xbded1432	-0.115761176
181	0x3e9453e0	0.28970242
182	0x3e2003e2	0.15626481
183	0x3e28b164	0.16473919
184	0xbc8a223b	-0.016862025
185	0x3dc490c3	0.095979236
186	0xbd5c29d7	-0.05375084
187	0xbd0aad0f	-0.033856448
188	0x3e88a15a	0.266856
189	0x3df3c191	0.11902154
190	0xbdad2f41	-0.084562786
191	0xbcab9326	-0.02094419
192	0x3e431521	0.19051029
193	0x3ddaedba	0.10689874
194	0xbe480418	-0.19532812
195	0xbde643e7	-0.1124342
196	0xbd1d7e66	-0.03845062
197	0x3e33bc97	0.1755241
198	0x3d7cd1f0	0.06172365
199	0xbcf0301e	-0.029319819
200	0x3d749d76	0.05972048
201	0xbdfd855c	-0.12378952
202	0xbe2d832c	-0.1694457
203	0x3d0a4d09	0.033764873
204	0xbdbde33a	-0.09271856
205	0x3e54f2a2	0.20795682
206	0x3e086d27	0.13322888
207	0xbe697ae2	-0.22800782
208	0x3e41aadf	0.18912838
209	0x3dbc3a93	0.0919086
210	0x3dd1f055	0.10250918
211	0x3e5f79bd	0.21823783
212	0xbc009a27	-0.007849253
213	0xbe16d7f5	-0.14730819
214	0x3dff34f9	0.124612756
215	0xbd8562da	-0.06512995
216	0xbe4eaac2	-0.20182326
217	0x3d38027f	0.044924255
218	0x3f1705d8	0.5899329
219	0xbddb1134	-0.106966406
220	0x3ddd0244	0.10791448
221	0xbe34975d	-0.17635866
222	0x3bea7c05	0.0071558976
223	0x3e75d379	0.24006452
224	0x3e12ebeb	0.14347808
225	0x3e0f5274	0.13996297
226	0xbcf71960	-0.030163467
227	0xbd9abd9c	-0.07555696
228	0x3e5df504	0.21675497
229	0x3be5fb97	0.0070185172
230	0x3e72649d	0.23671193
231	0xbc84b15e	-0.016197857
232	0x3d1a37c2	0.03765083
233	0x3e117bbf	0.14207362
234	0xbe5dd07e	-0.21661565
235	0xbe06906b	-0.13141029
236	0x3e446258	0.1917814
237	0x3e679934	0.22617036
238	0x3e07cdff	0.13262175
239	0x3d39fc29	0.045406494
240	0xbd385488	-0.04500249
241	0xbc905e5a	-0.017623115
242	0xbe1fc19e	-0.15601203
243	0x3e2219a0	0.15830088
244	0x3da53ff5	0.080688395
245	0x3e0a18c6	0.13486013
246	0xbce9477e	-0.028476473
247	0xbc06c784	-0.008226279
248	0xbe1f69d4	-0.15567714
249	0xbd6c7604	-0.057729736
250	0xbe0411e1	-0.12897445
251	0x3e3e73f7	0.18598925
252	0x3ccf1718	0.025279567
253	0x3e253594	0.1613372
254	0x3e63fbe7	0.22264062
255	0x3d8a0aa9	0.067403145

bilstm.weight_ih_l0_reverse f4 [64, 32]
0	0x3c53d8c5	0.0129301
1	0xbd5112d9	-0.051043365
2	0xbd903656	-0.07041614
3	0xbc0e50ad	-0.008686227
4	0x3dd44841	0.10365344
5	0x3e2d0af1	0.16898705
6	0x3de9a88e	0.114091024
7	0x3e216cee	0.1576421
8	0x3e502660	0.20327139
9	0xbdc02827	-0.093826585
10	0xbdb7d3f7	-0.08975976
11	0xbe2b736a	-0.16743246
12	0x3deb048a	0.11475475
13	0xbe3d1993	-0.18466787
14	0x3e5142d0	0.20435643
15	0x3db65b58	0.08904141
16	0xbe7d7f22	-0.24755529
17	0xbc09bee6	-0.00840733
18	0x3cd95709	0.02653076
19	0x3d3af7e6	0.04564657
20	0x3e19b09e	0.1500878
21	0x3e36fe87	0.17870532
22	0xbcd0e67e	-0.025500532
23	0x3bc9e0e2	0.0061608413
24	0xbe01d357	-0.12678276
25	0xbd6c3d98	-0.057675928
26	0xbe5b6be9	-0.21427883
27	0xbe906152	-0.2819925
28	0x3ce9eeb9	0.028556215
29	0xbe75476e	-0.2395303
30	0xbe92c810	-0.2866826
31	0x3d96870a	0.073499754
32	0xbe60b4c6	-0.2194396
33	0x3e26656d	0.16249628
34	0xbded98f5	-0.1160144
35	0x3e844f4f	0.25841758
36	0x3e7a4ab7	0.24442564
37	0xbe4c2030	-0.19934154
38	0x3e6c704c	0.23089713
39	0xbe4bb4df	-0.19893216
40	0x3dac6e6f	0.08419501
41	0xbe2e0f45	-0.16998012
42	0xbd880fe4	-0.06643656
43	0xbdc06865	-0.09394912
44	0x3d3ad500	0.04561329
45	0x3d97f188	0.07419115
46	0xbd01027d	-0.031496514
47	0x3e0a991b	0.13534968
48	0x3e03d143	0.12872796
49	0x3e642894	0.22281104
50	0x3e3dd81b	0.18539469
51	0x3e58c79a	0.21169892
52	0x3e227d43	0.15868096
53	0xbe285609	-0.1643907
54	0x3dfb40bb	0.12268206
55	0x3d5b98af	0.053612407
56	0xbd54045b	-0.051761966
57	0x3cced6b9	0.025248872
58	0xbde5cd5e	-0.11220811
59	0xbe100260	-0.14063406
60	0xbe0a250f	-0.13490699
61	0x3e354b73	0.17704563
62	0xbd8df07e	-0.06930636
63	0xbdc041d5	-0.093875565
64	0x3e20aedb	0.15691702
65	0x3d0772a8	0.03306833
66	0x3e80586e	0.25067466
67	0xbcc96551	-0.024584444
68	0xbde0cb10	-0.10976231
69	0xbe02ca81	-0.12772562
70	0x3db3a7e2	0.087722555
71	0xbd18f772	-0.037345357
72	0xbc07bc04	-0.0082845725
73	0xbda164c7	-0.0788055
74	0xbe841378	-0.25796103
75	0xbe19c931	-0.15018155
76	0x3e6963bf	0.22791956
77	0x3dbd2289	0.09235103
78	0xbe578d2f	-0.21049951
79	0x3e520fd0	0.20513844
80	0x3b9ecbd9	0.004846078
81	0x3e32ca2e	0.17459938
82	0x3e513e66	0.2043396
83	0x3e6b87db	0.23001043
84	0x3e66dcac	0.22545117
85	0x3e755001	0.239563
86	0x3e1a2938	0.15054786
87	0x3dc78781	0.09742642
88	0x3d3755e6	0.044759654
89	0x3e61785a	0.22018567
90	0x3e70bf62	0.23510507
91	0x3e16fff8	0.14746082
92	0xbd94a8d2	-0.072587624
93	0x3d8e6516	0.06952874
94	0x3e278f68	0.16363299
95	0x3e4d103a	0.20025721
96	0x3e001cb3	0.12510948
97	0xbd8f8eb0	-0.07009637
98	0xbe5d9237	-0.21637808
99	0xbc644a8b	-0.013933788
100	0xbe5771fd	-0.21039577
101	0x3dc84ccb	0.09780272
102	0x3e77faa7	0.2421671
103	0xbdba6c2b	-0.09102663
104	0xbdfdc49c	-0.12391016
105	0x3db231ac	0.087008804
106	0x3cb0cbbd	0.021581525
107	0x3e87ebac	0.2654699
108	0x3e4c8a1a	0.19974557
109	0xbe5296b8	-0.20565307
110	0xbd163076	-0.03666731
111	0x3db79ab7	0.089650564
112	0x3e36b9ca	0.1784431
113	0x3df62645	0.12019018
114	0xbdc6290c	-0.09675798
115	0x3e300921	0.17190982
116	0x3d752163	0.059846293
117	0xbe556f88	-0.20843327
118	0x3e2c743e	0.16841218
119	0x3e84795b	0.25873837
120	0xbe7e03c7	-0.24806128
121	0x3e513c07	0.20433055
122	0x3e633001	0.22186281
123	0xbdcf70ce	-0.10128938
124	0xbde53808	-0.11192328
125	0xbe06745e	-0.13130328
126	0x3dde8235	0.10864679
127	0xbdb7b5b2	-0.089702025
128	0x3dff4b8c	0.12465581
129	0x3dcd00cc	0.100099176
130	0xbe7574fe	-0.2397041
131	0x3e0fcbce	0.14042589
132	0x3dc7195e	0.09721635
133	0xbe89da91	-0.26924565
134	0x3b373716	0.0027956418
135	0x3c87d725	0.016582081
136	0xbe558bbd	-0.20854087
137	0xbd997db1	-0.07494677
138	0x3de273c0	0.11057234
139	0x3e63a1c2	0.22229674
140	0x3d8a8b41	0.06764842
141	0x3e144c34	0.14482194
142	0x3e37c548	0.1794635
143	0xbdbac11c	-0.09118864
144	0xbd2cbb79	-0.042170975
145	0xbe7090cf	-0.2349274
146	0xbe635d59	-0.22203578
147	0xbe59cc63	-0.21269374
148	0x3dd519dc	0.10405323
149	0x3e64a002	0.22326663
150	0xbe0c29e1	-0.1368785
151	0x3d718aa6	0.058970116
152	0x3e6b8730	0.23000789
153	0xbeb208cf	-0.34772345
154	0x3e71e736	0.23623356
155	0x3e080ca8	0.13286078
156	0xbdbf4dc2	-0.09341003
157	0x3d84f32d	0.064916946
158	0x3d8f947b	0.07010742
159	0xbdadefe3	-0.084930204
160	0xbe1884ad	-0.14894362
161	0xbe139a9f	-0.14414452
162	0x3cbf7d29	0.02337511
163	0xbe0bcc67	-0.13652192
164	0x3badd5c0	0.005305022
165	0xbcc40ce6	-0.023931932
166	0x3cc42633	0.023943996
167	0xbe4ad45c	-0.19807571
168	0x3e928537	0.2861726
169	0xbd1f0b43	-0.0388291
170	0xbe0ade42	-0.13561347
171	0x3dd69aef	0.1047877
172	0x3d3e54d5	0.04646762
173	0x3e50ead8	0.20402086
174	0xbd637d77	-0.055539574
175	0xbcaf7575	-0.021418313
176	0xbd7a5758	-0.061118454
177	0x3df4cd63	0.11953237
178	0xbd404849	-0.046943936
179	0x3e8848a4	0.2661792
180	0xbe0b8f56	-0.13628897
181	0x3e0772c1	0.13227369
182	0x3e48f328	0.19624007
183	0x3e146e60	0.1449523
184	0x3e30acc2	0.17253402
185	0xbc40c63f	-0.011766016
186	0x3d667ce0	0.056271434
187	0xbd247970	-0.040154874
188	0x3e4d8739	0.20071115
189	0x3e7af7c0	0.24508572
190	0x3e29db44	0.1658755
191	0xbe13cb08	-0.14432919
192	0xbd522f11	-0.051314417
193	0xbdc8207e	-0.097718224
194	0xbe4b4418	-0.19850194
195	0x3e804305	0.25051132
196	0x3dd793c1	0.10526229
197	0x3e8ec3f3	0.27883872
198	0x3e7ad719	0.24496116
199	0xbd808926	-0.06276159
200	0x3db46282	0.088078514
201	0xbd987754	-0.07444635
202	0xbc8f4690	-0.017489702
203	0x3e854705	0.26030746
204	0x3e865d80	0.2624321
205	0x3e3c8196	0.18408808
206	0xbdcee203	-0.10101702
207	0xbe503621	-0.20333149
208	0x3e182000	0.14855957
209	0x3e5f81f3	0.21826915
210	0x3db1fc1f	0.086906664
211	0xbcc7e837	-0.02440272
212	0x3d4d0542	0.050053842
213	0xbdfb3cb7	-0.1226744
214	0xbdf67e91	-0.120358594
215	0x3e8e13c2	0.2774945
216	0xbd575dbf	-0.052579638
217	0x3dca4034	0.09875527
218	0x3e737696	0.23775706
219	0x3d71bb81	0.05901671
220	0xbd186c4f	-0.037212666
221	0xbdbb34a4	-0.091409
222	0x3ddddf48	0.10833603
223	0xbdad8ad8	-0.08473748
224	0xbe7334ed	-0.23750658
225	0x3d45974d	0.048239995
226	0x3d7d19e7	0.06179228
227	0xbbe098c2	-0.0068541477
228	0x3ddb0f30	0.10696256
229	0x3e00086e	0.12503216
230	0x3bed6aa9	0.007245381
231	0xbe0538a8	-0.13009894
232	0x3d55ac64	0.052166358
233	0xbc940f0f	-0.018073587
234	0x3d5366fa	0.051611878
235	0x3e1cbca1	0.15306331
236	0x3e3e2d3d	0.18571945
237	0xbce3d690	-0.027812272
238	0xbd95e958	-0.073198974
239	0xbc5e04d4	-0.013550956
240	0xbcde37e7	-0.027126266
241	0xbe16bd83	-0.1472073
242	0xbe0ef1ad	-0.1395938
243	0x3e462fa7	0.19354115
244	0xbd9d219e	-0.076724276
245	0x3cf78c03	0.03021813
246	0xbd7a8b85	-0.061168212
247	0xbe1ab8b2	-0.15109518
248	0x3c89cad9	0.016820358
249	0xbe40da4b	-0.18833272
250	0x3dad43f5	0.084602274
251	0x3d84f7c0	0.06492567
252	0xbe73d4b9	-0.23811616
253	0xbde415f2	-0.11136998
254	0x3e81a366	0.25319976
255	0x3dfd0764	0.12354925

parallel_cnn_block.branches.0.0.weight f4 [1, 1, 2]
0	0x3e9cf9e8	0.30659413
1	0x3f3c1f75	0.734855

parallel_cnn_block.branches.0.2.bias f4 [16]
0	0x3e9df822	0.30853373
1	0x3f13f527	0.5779595
2	0x3f1e02b2	0.6172286
3	0x3eef3a97	0.46724388
4	0xbf0bf789	-0.54674584
5	0x3d6a5d8f	0.05721813
6	0x3daac462	0.08338238
7	0xbeb3b455	-0.3509852
8	0x3d3bf653	0.04588921
9	0x3ef1e698	0.47246242
10	0x3e6727c4	0.22573763
11	0x3f144539	0.57918125
12	0x3d88047e	0.06641482
13	0x3f10f02e	0.56616485
14	0x3eabd93d	0.33564177
15	0x3f05905e	0.5217341

parallel_cnn_block.branches.0.2.weight f4 [16, 1, 2]
0	0xbf0aa854	-0.541631
1	0x3e93dc78	0.28879142
2	0xba0f7984	-0.00054731243
3	0x3eedece8	0.46469808
4	0xbed7e8be	-0.42169756
5	0xbf25043d	-0.6445959
6	0xbee370d9	-0.44422033
7	0xbec55cbe	-0.3854732
8	0xbdc373ce	-0.09543572
9	0xbe53c68a	-0.20681205
10	0x3f2751fb	0.6535947
11	0x3e91b0c8	0.28455186
12	0xbe20e45d	-0.15712114
13	0x3f0809b5	0.5313981
14	0xbeee81f6	-0.46583527
15	0xbf0a09db	-0.5392129
16	0xbe96d5ef	-0.29460093
17	0x3e8c6b48	0.274256
18	0x3d1c1373	0.038104486
19	0x3daed206	0.085361525
20	0xbecbfe22	-0.39842325
21	0x3efa04bc	0.48831737
22	0xbe0a0757	-0.13479362
23	0x3f051d8f	0.5199823
24	0x3f0ac0e3	0.5420057
25	0x3f0b81dd	0.5449503
26	0x3f131ead	0.5746868
27	0x3c38ff4b	0.011291335
28	0xbe7170f8	-0.2357825
29	0x3f0d6a7f	0.55240625
30	0xbda45595	-0.08024136
31	0x3d9373a4	0.07199791

parallel_cnn_block.branches.1.0.weight f4 [1, 1, 4]
0	0x3e55570f	0.20833991
1	0xbe0b82c2	-0.13624099
2	0xbdcf4238	-0.10120052
3	0xbec9c57e	-0.39408487

parallel_cnn_block.branches.1.2.bias f4 [32]
0	0xbe5381ed	-0.20655032
1	0x3e107a53	0.14109163
2	0x3d072f4c	0.03300409
3	0x3e385a47	0.18003188
4	0xbe53651e	-0.20644042
5	0xbe3fc84e	-0.18728754
6	0x3f03614b	0.5132033
7	0x3dd5b5f0	0.104350924
8	0xbdfdfe99	-0.12402076
9	0x3e496b82	0.19669917
10	0x3e88bbcc	0.26705778
11	0x3e720ec5	0.23638447
12	0x3e8035e8	0.25041127
13	0xbe1eefd9	-0.15521182
14	0x3ec6a41c	0.3879708
15	0xbec3e032	-0.38256985
16	0xbead4e32	-0.3384872
17	0xbb9677d3	-0.004591921
18	0xbde523d9	-0.11188478
19	0xbb61f22d	-0.0034476623
20	0xbe8b4fb8	-0.27209258
21	0x3de39ec3	0.11114266
22	0xbd09c055	-0.033630688
23	0x3eb49366	0.35268706
24	0xbdd58c19	-0.10427112
25	0x3ec81824	0.39080918
26	0xba8c5402	-0.0010706189
27	0x3ec85246	0.3912527
28	0xbe03a032	-0.12854078
29	0xbe91a003	-0.28442392
30	0xbdf2eb64	-0.118613034
31	0xbd08bc89	-0.033382926

parallel_cnn_block.branches.1.2.weight f4 [32, 1, 4]
0	0xbdd059f8	-0.1017341
1	0x3e3f68f1	0.18692376
2	0xbe879775	-0.2648274
3	0xbef53bc1	-0.4789715
4	0xbe46c94e	-0.19412729
5	0xbea7742f	-0.3270583
6	0xbe3f2188	-0.18665135
7	0x3f00d653	0.5032703
8	0x3e06ea18	0.13175237
9	0x3ede7fba	0.43456823
10	0xbe744e16	-0.23857912
11	0x3e7da57c	0.24770159
12	0xbe31183b	-0.172944
13	0xbea19b15	-0.3156363
14	0xbda74070	-0.08166587
15	0x3e8662ad	0.2624716
16	0xbeeb9d00	-0.4601822
17	0xbe52c7c1	-0.20584013
18	0xbd8f1cd8	-0.069879234
19	0x3f11a6c0	0.56895065
20	0x3f075621	0.528658
21	0xbef2e45f	-0.47439858
22	0x3db0d123	0.0863364
23	0xbeb92621	-0.36161903
24	0xbd377743	-0.04479147
25	0x3e5f43c8	0.218032
26	0xbe9c988b	-0.3058513
27	0x3e2975b6	0.1654881
28	0x3df65cc3	0.12029412
29	0x3e9ee22d	0.31031933
30	0x3e38008d	0.1796896
31	0xbea8f1ef	-0.3299708
32	0xbef3a68b	-0.47588
33	0xbdd381ee	-0.103275165
34	0x3e9ac480	0.30228043
35	0xbec7fede	-0.39061636
36	0x3ecc5201	0.39906314
37	0x3edd9c89	0.4328349
38	0x3e10d50d	0.14143772
39	0x3eb37421	0.35049537
40	0x3ec8e9c7	0.39240858
41	0x3efd2fcc	0.4945053
42	0xbeb4a167	-0.3527939
43	0xbdc8059d	-0.09766696
44	0xbea68cc8	-0.32529283
45	0x3e24fcba	0.16112033
46	0x3dc74487	0.097298674
47	0x3f0237b1	0.5086623
48	0x3ebb6af2	0.3660503
49	0x3ef80bd4	0.48446524
50	0xbe90f6fc	-0.28313434
51	0xbee0050b	-0.43753847
52	0xbddc2545	-0.10749296
53	0x3dbbbb6b	0.091666065
54	0x3ed40b46	0.4141485
55	0x3e872c53	0.26401004
56	0x3e6dca5b	0.23221724
57	0x3d6aca19	0.05732164
58	0x3d490e2f	0.049085792
59	0x3ddc3c51	0.10753692
60	0xbe100008	-0.14062512
61	0xbecbcf74	-0.39806712
62	0xbed26684	-0.41093838
63	0x3c0d5a5d	0.008627501
64	0xbeb8b8f5	-0.3607861
65	0x3dc6cd7a	0.0970716
66	0xbe122519	-0.14271964
67	0xbe400d28	-0.18755019
68	0xbea32349	-0.31862858
69	0xbe3cf866	-0.18454131
70	0xbeaede15	-0.3415381
71	0x3e7003d8	0.23438966
72	0xbe43365e	-0.19063708
73	0x3eb36c75	0.35043684
74	0x3e7c9d21	0.24669315
75	0xbe93a3df	-0.2883596
76	0x3ee11ab3	0.43965682
77	0xbec64a1d	-0.3872842
78	0x3e88b58f	0.26701018
79	0x3e85e89d	0.26154032
80	0xbda5e2d7	-0.08099907
81	0xbe9b5fbd	-0.3034648
82	0x3ef8d875	0.48602644
83	0x3c6a9496	0.014317652
84	0xbde0a690	-0.10969269
85	0x3ea4d382	0.32192618
86	0xbe6217aa	-0.2207934
87	0x3e565730	0.20931697
88	0x3ea62e31	0.32457116
89	0x3e80a24d	0.25123826
90	0x3ecec28d	0.40382805
91	0x3ed8784b	0.42279276
92	0xbe295a89	-0.16538443
93	0x3e5d3e1e	0.21605727
94	0x3ea36dd1	0.3191972
95	0x3ea66c58	0.32504535
96	0xbe8f6414	-0.2800604
97	0x3e7ed6a7	0.24886571
98	0xbe273fc7	-0.16332923
99	0x3e3cf7db	0.18453924
100	0xbe4cc506	-0.19997033
101	0x3e4c9441	0.1997843
102	0xbed0b5c3	-0.40763673
103	0x3e755cde	0.23961207
104	0x3eaa0094	0.33203566
105	0x3e3a31ec	0.18183106
106	0x3dd76785	0.10517792
107	0x3eac1eac	0.3361715
108	0x3e9623a8	0.2932408
109	0xbd95a582	-0.07306959
110	0x3ef6f745	0.48235527
111	0x3edf5ae9	0.43624046
112	0xbe081e10	-0.13292718
113	0xbecbdedd	-0.3981847
114	0x3d9dc0b3	0.0770277
115	0x3f00c275	0.5029672
116	0xbe57d51c	-0.21077389
117	0x3ed04872	0.4068027
118	0x3ed1e225	0.40992847
119	0xbdd2ac5e	-0.10286783
120	0x3ae7f9ae	0.0017698312
121	0x3c1f66e8	0.009729125
122	0xbeda0f61	-0.42589858
123	0xbe977f20	-0.29589176
124	0x3eb41f6d	0.35180226
125	0xbdbc025b	-0.09180137
126	0x3cdc874c	0.026919983
127	0x3edc2b86	0.43001956

parallel_cnn_block.branches.2.0.weight f4 [1, 1, 8]
0	0xbcc63e9f	-0.024199782
1	0x3ea9ef33	0.33190307
2	0xbbb33b06	-0.0054696826
3	0x3e9ebdc1	0.31004146
4	0xbe49a93c	-0.19693464
5	0xbecfa764	-0.40557396
6	0xbe9f0235	-0.3105637
7	0x3d1e901a	0.038711645

parallel_cnn_block.branches.2.2.bias f4 [64]
0	0x3e349f00	0.17638779
1	0xbeb49fa7	-0.35278055
2	0xbe46b710	-0.1940577
3	0x3d95d04e	0.073151216
4	0x3dbd2ca6	0.09237032
5	0x3ec745b2	0.3892036
6	0xbe93acd1	-0.28842786
7	0xbef23671	-0.4730716
8	0x3e95fd18	0.29294658
9	0x3eb323e4	0.3498832
10	0x3ebba035	0.36645666
11	0x3e015f91	0.12634112
12	0xbed06801	-0.4070435
13	0x3e874d80	0.26426315
14	0x3e704a0b	0.23465745
15	0xbea79915	-0.3273398
16	0x3e73ef7e	0.23821828
17	0x3cfe3b6a	0.03103419
18	0x3e1c95fd	0.15291591
19	0xbea55259	-0.3228939
20	0xbec8199f	-0.39082047
21	0xbe1ae692	-0.15127018
22	0xbdd12134	-0.10211411
23	0x3e7ae6d3	0.24502115
24	0x3d9122eb	0.07086738
25	0xbeb83e3b	-0.35984978
26	0xbe6bba5a	-0.23020306
27	0x3d300a8b	0.042978805
28	0x3ea980d9	0.33106115
29	0xbede8c0c	-0.43466222
30	0x3dcf33d9	0.10117311
31	0x3e18091e	0.14847228
32	0xbd57aa57	-0.052652683
33	0xbdd99c56	-0.10625522
34	0xbeae9cbe	-0.3410396
35	0x3d4cea79	0.050028298
36	0x3e9a7e9b	0.30174717
37	0xbddafa12	-0.106922284
38	0xbe403230	-0.18769145
39	0x3ebb198f	0.36542937
40	0x3e3ac49c	0.18239063
41	0xbe4f34ae	-0.2023494
42	0x3e41ede8	0.1893841
43	0x3e9d91f4	0.30775416
44	0x3eab8705	0.3350145
45	0x3ea47bbb	0.3212565
46	0x3eca299e	0.39484876
47	0x3e10a12b	0.1412398
48	0xbea4af0e	-0.32164806
49	0xbe10ee79	-0.1415347
50	0x3def79eb	0.11693176
51	0x3d0bf8d4	0.034172848
52	0x3d0bba4a	0.034113206
53	0x3db3acc3	0.08773186
54	0x3d95f8fb	0.0732288
55	0xbed913f9	-0.4239805
56	0x3e958b6f	0.29207942
57	0x3e01eb65	0.12687452
58	0xbeec1499	-0.46109465
59	0xbdbe1a19	-0.092823215
60	0x3dbb5d44	0.091486484
61	0xbdc703dc	-0.09717533
62	0xbe46bf65	-0.19408949
63	0x3c1783c4	0.009247724

parallel_cnn_block.branches.2.2.weight f4 [64, 1, 8]
0	0x3c308558	0.010773979
1	0xbe4b7346	-0.19868192
2	0x3e8c6b9c	0.2742585
3	0x3e84e900	0.25959015
4	0xbda43633	-0.0801815
5	0x3d39aa43	0.04532839
6	0x3ec183fb	0.37796006
7	0xbe909abb	-0.2824305
8	0x3ca954f7	0.020670397
9	0x3af64b5f	0.0018790773
10	0xbe1033c7	-0.14082251
11	0x3e4bac02	0.19889835
12	0x3e408af9	0.18803014
13	0x3e3f72b0	0.18696094
14	0x3cd4b99a	0.025967408
15	0x3ed02294	0.4065138
16	0xbe7f3af4	-0.24924833
17	0x3ea93f46	0.33056086
18	0xbe9caeca	-0.30602103
19	0xbe25d941	-0.16196157
20	0x3e951e9a	0.2912491
21	0x3dff2c84	0.124596626
22	0xbdfde770	-0.12397659
23	0x3e7c4de4	0.24639088
24	0x3ea93770	0.33050108
25	0xbe07d989	-0.13266577
26	0x3e284076	0.1643084
27	0x3c5ffaf1	0.013670669
28	0x3d89d967	0.06730919
29	0x3c516e6e	0.012782676
30	0x3e22bf40	0.15893269
31	0xbe0eba2f	-0.13938211
32	0xbd4ad2e1	-0.049517516
33	0x3de661c7	0.11249118
34	0xbb1b2d12	-0.0023677987
35	0x3d96a6a7	0.07356005
36	0x3eb95a67	0.36201784
37	0x3e9fdad4	0.3122164
38	0x3e407966	0.1879631
39	0xbe5f612d	-0.21814413
40	0x3e8c32cc	0.27382505
41	0x3d1e6442	0.038669832
42	0x3e7feef5	0.24993499
43	0xbd2bb2da	-0.041918613
44	0x3e538192	0.20654896
45	0xbe61cf51	-0.22051741
46	0xbcd4d2fb	-0.02597951
47	0x3e8148e6	0.2525093
48	0x3e99d97e	0.30048746
49	0xbcfd24b3	-0.030901289
50	0xbd878c2e	-0.06618534
51	0xbe11b3b9	-0.14228715
52	0x3e39ec19	0.1815647
53	0xbc6805c3	-0.01416153
54	0x3edc4300	0.43019867
55	0x3ed9b0b6	0.42517632
56	0xbd89874c	-0.06715259
57	0xbdb4bd72	-0.08825196
58	0x3d9c64df	0.07636427
59	0x3e70089c	0.23440784
60	0xbdd02137	-0.10162585
61	0x3ec5c618	0.38627696
62	0x3e91f1b9	0.28504732
63	0xbdf7218a	-0.12066944
64	0xbd77ba14	-0.060480192
65	0x3e6eb9b1	0.23313023
66	0x3e6870b3	0.22699241
67	0x3eb76d12	0.35825402
68	0xbe46b0ad	-0.19403334
69	0x3e87693e	0.2644748
70	0xbdf98a60	-0.12184596
71	0xbe50193b	-0.20322125
72	0x3eb394b8	0.350744
73	0xbe6fad5f	-0.2340598
74	0x3e1845ec	0.14870423
75	0xbe777b8e	-0.24168226
76	0x3e432ecb	0.19060819
77	0x3d5d6073	0.05404706
78	0x3e1d1220	0.15338945
79	0xbe729607	-0.23690043
80	0x3dca4593	0.098765515
81	0xbc1f97e3	-0.009740802
82	0x3eb02161	0.34400466
83	0x3e9fbf04	0.3120042
84	0xbe2aec3e	-0.16691682
85	0xbdf51482	-0.11966802
86	0xbc05339d	-0.008129981
87	0x3d915e8d	0.07098112
88	0xbe3e7ff8	-0.18603504
89	0x3c9e45a0	0.01932031
90	0x3e7ee51d	0.24892087
91	0x3e495dd5	0.196647
92	0x3b5478fe	0.003242075
93	0x3d2748a8	0.040840775
94	0xbe6c33bf	-0.23066615
95	0x3dd33626	0.10313062
96	0xbd48df46	-0.049041055
97	0x3e14f19d	0.14545293
98	0xbe7fc5e5	-0.24977835
99	0xbcc5b003	-0.02413178
100	0x3e98c51a	0.29837877
101	0x3e8b902a	0.27258426
102	0x3e0ac0ff	0.13550185
103	0x3ee31a81	0.44356158
104	0xbe60cc40	-0.21952915
105	0xbdf14e09	-0.11782462
106	0xbe14c5fd	-0.14528652
107	0xbc805184	-0.01566387
108	0xbe9b50c0	-0.30335045
109	0xbbca9544	-0.0061823446
110	0xbe1e20dc	-0.15442222
111	0x3e653f30	0.22387385
112	0xbe197bf7	-0.14988695
113	0x3d76d191	0.06025845
114	0xbe2446ca	-0.16042629
115	0xba27a213	-0.00063946954
116	0xbe4a9363	-0.19782786
117	0x3ecc4482	0.39896017
118	0x3d90804a	0.07055719
119	0x3dd1d48d	0.10245619
120	0x3e3f262d	0.18666907
121	0x3cc39eaa	0.023879368
122	0xbddf7406	-0.109108016
123	0xbe11e108	-0.14245999
124	0x3e38ce46	0.18047437
125	0x3e92d37c	0.28676975
126	0x3e9622b6	0.29323357
127	0x3ee11644	0.439623
128	0x3e6d2e59	0.23162211
129	0xbe27263e	-0.16323182
130	0xbd87ea6f	-0.066365115
131	0x3e82649e	0.2546739
132	0x3dec7b24	0.11546925
133	0xbd139866	-0.03603401
134	0x3e1d9043	0.15387063
135	0x3e7bfc85	0.24608047
136	0x3e93e144	0.28882802
137	0xbe8c8ab8	-0.27449584
138	0x3aa6bdb0	0.0012721326
139	0x3e4b9a52	0.19883087
140	0x3eaf611a	0.3425377
141	0x3ebc1f9f	0.36742875
142	0x3eca8c13	0.39559993
143	0xbe595843	-0.21225075
144	0xbdbf3fc4	-0.09338334
145	0x3ebc1051	0.36731198
146	0xbe807a7f	-0.25093457
147	0xbdaf4fd9	-0.085601516
148	0x3c5f7581	0.013638855
149	0x3ddf1fe1	0.10894752
150	0x3dc84708	0.09779173
151	0xbe8e34c8	-0.27774644
152	0xbd57fdf9	-0.05273244
153	0xbda6115c	-0.0810878
154	0xbe83ff73	-0.2578083
155	0xbeb26719	-0.34844282
156	0xbe856e37	-0.2606065
157	0x3cf61b66	0.030042361
158	0xbe5846ab	-0.21120708
159	0xbcb2bac3	-0.02181757
160	0x3eb11a99	0.34590605
161	0xbebd4447	-0.36966154
162	0x3e4c94aa	0.19978586
163	0xbdfae7b4	-0.12251225
164	0x3eb8cf22	0.3609553
165	0x3e7a13a5	0.24421556
166	0x3eaee63e	0.34160036
167	0x3e868c3d	0.26278868
168	0x3e2fd03e	0.17169282
169	0xbda068bc	-0.078324765
170	0x3e64033d	0.2226686
171	0x3e9c5fd6	0.30541867
172	0x3e64b841	0.22335912
173	0xbccc8d46	-0.024969708
174	0x3e8c2b82	0.27376944
175	0x3ee2b2ca	0.4427703
176	0x3a5b1384	0.0008357095
177	0xbdf2429e	-0.118291125
178	0xbd8c5747	-0.06852584
179	0x3de4158a	0.11136921
180	0xbb8e295c	-0.0043384265
181	0x3d23aae2	0.03995789
182	0x3ea637c7	0.3246443
183	0xbc90e03d	-0.01768505
184	0x3e50950b	0.20369355
185	0x3e27bee9	0.1638142
186	0xbe00939d	-0.1255631
187	0x3e547050	0.20745969
188	0x3dbd2bc3	0.092368625
189	0xbdda7549	-0.106669016
190	0xbe9ae12e	-0.30249923
191	0x3d43d22a	0.04780785
192	0xbe484920	-0.19559145
193	0x3e9dd1e8	0.30824208
194	0xbe953074	-0.2913853
195	0xbe8cc988	-0.27497506
196	0xbdc9f1b7	-0.098605566
197	0x3d997644	0.074932605
198	0x3e6f29f5	0.23355849
199	0xbe8f5185	-0.27991882
200	0xbdc4f512	-0.09617056
201	0x3d3e7721	0.04650033
202	0x3c95892f	0.01825389
203	0x3e767d03	0.24071126
204	0x3ed5319c	0.4163941
205	0x3ebff848	0.3749411
206	0x3ebb58d6	0.36591214
207	0x3e77dabe	0.24204537
208	0xbc8b68ce	-0.017017748
209	0xbba9406c	-0.0051651504
210	0xbdd5d51b	-0.10441037
211	0x3e2656b9	0.1624402
212	0xbd65a528	-0.05606571
213	0x3e8567db	0.26055798
214	0x3ee2c3d9	0.44290045
215	0x3ea29638	0.31755233
216	0xbe1ab525	-0.15108164
217	0xbce8e026	-0.028427195
218	0x3e34aff4	0.17645246
219	0x3eb49afa	0.35274488
220	0xbe884a4b	-0.2661918
221	0x3da8d015	0.082428135
222	0xbe6bed6f	-0.23039792
223	0xbdaecf4a	-0.08535631
224	0xbe61b7fc	-0.2204284
225	0x3e0ff054	0.14056522
226	0x3eac1d0e	0.33615917
227	0x3e11e1f7	0.14246355
228	0x3d359589	0.04433206
229	0x3eba050c	0.36331975
230	0xbdce7468	-0.100807965
231	0xbe0cb141	-0.13739492
232	0x3e13c92a	0.14432207
233	0xbe1cf9a9	-0.15329613
234	0xbda4b4c8	-0.08042294
235	0xbe7c05ec	-0.24611634
236	0x3e07964f	0.13240932
237	0x3ed43380	0.4144554
238	0x3da6ebf5	0.08150474
239	0x3e860bd3	0.26180896
240	0xbe63a832	-0.2223213
241	0xbdd7dba2	-0.105399385
242	0x3e78bcb6	0.24290738
243	0x3ea1063f	0.31450078
244	0x3b19278f	0.0023369526
245	0x3ebe44f4	0.37161982
246	0xbe2f99c0	-0.17148495
247	0x3e98c1fa	0.29835492
248	0x3d07d108	0.033158332
249	0x3d37cbf7	0.04487225
250	0x3e233da2	0.1594148
251	0xbcc2fb22	-0.02380139
252	0xbc672dae	-0.014110012
253	0xbe8a2437	-0.26980755
254	0x3ea49d9f	0.32151505
255	0xbe7eee6d	-0.2489564

parallel_cnn_block.branches.3.0.weight f4 [1, 1, 32]
0	0x3de041f9	0.10950083
1	0x3d4775e8	0.04869643
2	0x3df5681d	0.11982749
3	0xbcbea105	-0.02327014
4	0x3bc642a1	0.0060504233
5	0x3e0ddb49	0.13853182
6	0x3e006c97	0.12541424
7	0x3d4100bb	0.047119837
8	0x3e3bd3b5	0.18342479
9	0x3d6d49d0	0.05793172
10	0x3e2a8d12	0.16655377
11	0x3d5171ae	0.051133804
12	0x3e52aab3	0.20572929
13	0x3bb86b5d	0.005628033
14	0x3dcfb62b	0.10142168
15	0x3e10469e	0.14089438
16	0xbd73647d	-0.059422005
17	0x3e28af24	0.16473061
18	0xbc1fd9f4	-0.009756554
19	0x3df902cb	0.12158736
20	0x3dbdf52a	0.09275277
21	0x3e23eba6	0.16007861
22	0x3e13e76b	0.14443748
23	0xbde50cd2	-0.11184086
24	0x3cc79881	0.024364712
25	0xbd1bc033	-0.038025092
26	0x3d836600	0.06415939
27	0x3e00e1a4	0.12586075
28	0xbc4ff316	-0.012692234
29	0x3cd7fff4	0.026367165
30	0x3e2532cf	0.16132663
31	0x3dd513bc	0.10404155

parallel_cnn_block.branches.3.2.bias f4 [16]
0	0x3d8e062e	0.069347724
1	0x3e51f8a8	0.20505011
2	0x3e3547a7	0.17703114
3	0x3d244963	0.04010905
4	0xbe1be751	-0.15224959
5	0x3d486d29	0.04893223
6	0x3c7d4639	0.015458637
7	0x3e1b0345	0.15137966
8	0x3dce8f30	0.100859046
9	0x3e1bcf66	0.15215835
10	0xbc12a2ab	-0.008949916
11	0xbcdb110a	-0.026741523
12	0x3e447e27	0.19188748
13	0x3df45e8b	0.11932095
14	0x3e675b90	0.22593522
15	0xbe054a5a	-0.13016644
