wide/modelpars_wide_i_33.safetensors (safetensors, 86584 bytes, 32 tensors)

bilstm.bias_hh_l0 f4 [64]
-0.110541575 0.24784186 0.17264813 0.12353845 -0.15241128 -0.06310204 -0.05369161 0.12594078
-0.17415862 -0.06624338 0.0358901 -0.027309602 -0.065859616 0.1444093 0.241427 0.021544075
0.1690694 -0.13720956 0.117407866 -0.061991252 -0.11794339 0.23416092 -0.053280998 0.047638036
0.2797497 0.2939988 0.24112542 0.24183156 -0.15042211 -0.042679694 -0.03409512 -0.05246436
0.046880167 0.07050447 0.21902257 0.17362987 0.07141351 -0.06606406 0.26211512 0.054729942
-0.21388975 0.11199666 -0.09028877 0.04725206 -0.2247224 0.10461542 0.11322379 -0.17891577
-0.15842436 -0.0039000525 0.015577264 0.23400341 0.19715904 0.12752154 -0.11653753 0.014674621
-0.16180786 0.22883987 -0.07220524 -0.13125211 0.111010104 -0.17276528 -0.09185088 0.24286704
00000000: 9f63 e2bd 42ca 7d3e acca 303e ba01 fd3d
00000010: b411 1cbe a43b 81bd bceb 5bbd 9ff6 003e
00000020: a356 32be 9caa 87bd 7f01 133d 63b8 dfbc
00000030: 68e1 86bd 08e0 133e a438 773e 337d b03c
00000040: 8720 2d3e aa80 0cbe 8973 f03d 8aea 7dbd
00000050: 4e8c f1bd e1c7 6f3e 2d3d 5abd 1a20 433d
00000060: 5a3b 8f3e 0387 963e 95e9 763e b1a2 773e
00000070: 4108 1abe e7d0 2ebd 53a7 0bbd dee4 56bd
00000080: 6b05 403d a664 903d 7447 603e 07cc 313e
00000090: 3f41 923d 984c 87bd f433 863e 812c 603d
000000a0: ea05 5bbe 815e e53d 52e9 b8bd 608b 413d
000000b0: a11d 66be 9c40 d63d e0e1 e73d b235 37be
000000c0: ff39 22be 0698 7fbb c837 7f3c 979e 6f3e
000000d0: 0fe4 493e 0295 023e 3bab eebd d26d 703c
000000e0: f6b0 25be 0055 6a3e 57e0 93bd f466 06be
000000f0: 4459 e33d 62e9 30be 501c bcbd 23b2 783e

bilstm.bias_hh_l0_reverse f4 [64]
0.07971269 0.15488353 0.20896353 -0.037353918 -0.081269994 0.0238604 -0.095272034 -0.111945905
-0.08448145 -0.052289177 -0.12439216 -0.033306833 0.10238452 0.11835932 0.15109494 -0.007310815
-0.24070966 -0.07500887 -0.014027599 0.09246908 -0.207364 -0.08384508 0.2708664 0.1445634
0.17790416 0.0900514 0.09711308 0.06224211 0.21538486 -0.10565118 0.0044150418 0.003526925
-0.19963565 0.027080119 0.23816058 -0.077143915 -0.07230136 0.14948162 -0.120088436 -0.17396611
0.2526493 0.15511851 -0.20252801 0.21285038 -0.012730908 -0.15604971 -0.17138988 0.0037764139
0.017275767 -0.24291427 0.09451869 -0.013911085 0.15413073 -0.1151083 0.2711889 -0.16202107
-0.1155649 -0.19278888 0.18319432 0.06962011 0.1612328 0.2404399 -0.007879552 0.02812286
00000000: 6840 a33d ca99 1e3e 89fa 553e 6c00 19bd
00000010: e270 a6bd e376 c33c fc1d c3bd e543 e5bd
00000020: 9c04 adbd 2d2d 56bd 51c1 febd bf6c 08bd
00000030: faae d13d 5f66 f23d a2b8 1a3e 908f efbb
00000040: 987c 76be 409e 99bd 04d4 65bc 6e60 bd3d
00000050: 3a57 54be f8b6 abbd 00af 8a3e 6e08 143e
00000060: 822c 363e de6c b83d 39e3 c63d 95f1 7e3d
00000070: d98d 5c3e a55f d8bd 0eac 903b fc23 673b
00000080: 4a6d 4cbe 20d7 dd3c 5ee0 733e a1fd 9dbd
00000090: bc12 94bd b611 193e edf0 f5bd 2c24 32be
000000a0: 405b 813e 63d7 1e3e 8163 4fbe 73f5 593e
000000b0: 4c95 50bc 7fcb 1fbe d480 2fbe b67d 773b
000000c0: e985 8d3c 85be 78be 0493 c13d 52eb 63bc
000000d0: 72d4 1d3e e6bd ebbd 46d9 8a3e dae8 25be
000000e0: 4aad ecbd 736a 45be 4b97 3b3e fd94 8e3d
000000f0: 361a 253e e135 763e 3d19 01bc e961 e63c

bilstm.bias_ih_l0 f4 [64]
-0.11332907 0.036003795 0.23595145 -0.03176122 0.11112859 -0.05878617 -0.24390107 0.031743675
0.2669178 -0.23587787 -0.13454762 0.027893346 0.059689794 0.054264612 -0.071290806 -0.037446145
0.07067711 0.062579066 0.16621552 0.21508116 0.20675153 0.15351117 -0.18419562 0.19900578
-0.05577677 0.158462 -0.1227519 0.2188399 0.19327946 -0.108733 0.27823383 0.19239897
0.09962254 0.134576 0.18760964 -0.22749151 0.13510709 0.0061781574 0.18219969 0.12536235
0.027909214 -0.20945513 -0.23704994 -0.13322863 0.18718733 -0.24763045 0.1646014 0.19732621
0.22134791 -0.1590098 -0.15278131 0.22165464 -0.17510517 0.16667049 -0.14534238 0.1631245
0.30186352 0.29407024 -0.19122878 0.08088397 0.17912443 -0.0030144916 -0.14965567 0.1798476
00000000: 1219 e8bd b778 133d 429d 713e 0e18 02bd
00000010: 6397 e33d c4c9 70bd 34c1 79be a805 023d
00000020: 73a9 883e f889 71be dac6 09be 9680 e43c
00000030: 497d 743d 9244 5e3d ea00 92bd 2161 19bd
00000040: 29bf 903d 7429 803d 6734 2a3e 3c3e 5c3e
00000050: acb6 533e 0832 1d3e c79d 3cbe 2cc8 4b3e
00000060: 2f76 64bd dd43 223e 5965 fbbd 9117 603e
00000070: 0deb 453e 68af debd aa74 8e3e 3c04 453e
00000080: e706 cc3d 4ace 093e be1c 403e 89f3 68be
00000090: 8359 0a3e 2472 ca3b 8e92 3a3e fd5e 003e
000000a0: dda1 e43c 687b 56be 38bd 72be 166d 08be
000000b0: 09ae 3f3e d692 7dbe 458d 283e e20f 4a3e
000000c0: 07a9 623e 77d3 22be b472 1cbe 6ff9 623e
000000d0: c54e 33be abab 2a3e a2d4 14be 1c0a 273e
000000e0: db8d 9a3e 6090 963e 7ad1 43be 7fa6 a53d
000000f0: 656c 373e c78e 45bb 563f 19be f829 383e

bilstm.bias_ih_l0_reverse f4 [64]
-0.08053766 0.117077455 0.18813728 -0.27390778 -0.12524794 0.1329863 0.21317698 0.011188986
-0.09557921 -0.13732664 -0.041161444 -0.025115142 -0.0090972185 0.2689708 0.20665523 -0.34589133
-0.043894008 -0.0066930046 -0.19661728 -0.22798127 -0.14498115 0.18520246 -0.12149448 0.038232334
0.25720492 0.0020718453 -0.071177565 0.26270902 0.07931986 0.26228788 -0.09359747 -0.016059926
-0.20352158 0.19379811 0.2332901 -0.17168364 -0.053666323 -0.029878518 0.1895178 -0.13347672
-0.14919506 0.014764587 -0.26392722 0.09202552 0.04041209 0.08963052 -0.036277678 0.04241305
0.2551811 -0.029926302 0.021899013 -0.12710431 0.25984347 0.15418209 0.14473312 0.22725439
0.22574174 0.21514405 -0.19862916 -0.23934034 -0.10147124 0.07276717 -0.31647405 -0.03763041
00000000: eef0 a4bd 4ec6 ef3d 0fa7 403e a43d 8cbe
00000010: ff40 00be 902d 083e 114b 5a3e 0252 373c
00000020: 08bf c3bd 5b9f 0cbe e798 28bd 45be cdbc
00000030: 800c 15bc 8ab6 893e 6e9d 533e ab18 b1be
00000040: 34ca 33bd fe50 dbbb 0a56 49be ec73 69be
00000050: f075 14be b7a5 3d3e 19d2 f8bd 8299 1c3d
00000060: 5db0 833e ccc7 073b 8bc5 91bd cc81 863e
00000070: 7372 a23d 994a 863e 08b0 bfbd 1b90 83bc
00000080: f667 50be 0373 463e 9ae3 6e3e d6cd 2fbe
00000090: 38d1 5bbd cbc3 f4bc f410 423e 1fae 08be
000000a0: 97c6 18be 2be7 713c 7821 87be e077 bc3d
000000b0: 2687 253d 3590 b73d e797 14bd 4eb9 2d3d
000000c0: 19a7 823e 0128 f5bc 8f65 b33c a227 02be
000000d0: 340a 853e e9e1 1d3e eb34 143e 60b5 683e
000000e0: d828 673e b94e 5c3e 7165 4bbe a215 75be
000000f0: 27d0 cfbd f406 953d e308 a2be 5822 1abd

bilstm.weight_hh_l0 f4 [64, 16]
-0.03441826 -0.021828108 0.004087834 -0.0982658 0.165365 -0.17805305 0.003913654 0.090043366
0.15560159 0.04426767 -0.28942585 0.17104605 0.16861045 -0.08944421 -0.1398332 -0.04930336
-0.22552238 -0.09821445 -0.11595591 -0.22129408 -0.2580948 0.014441685 -0.12558042 0.18133822
0.1924667 -0.18670735 0.18160328 -0.025418548 0.12703364 0.14666173 0.2646556 -0.11955235
0.22998929 -0.09064424 -0.15152931 0.072074525 0.21453433 0.10120383 0.20099732 0.16479002
-0.16976832 -0.08847841 0.080450594 -0.11258318 -0.026425608 -0.25325358 0.060045734 0.26850176
0.003213757 -0.05468856 0.26404262 -0.052314974 -0.21338932 0.08415806 0.058307867 0.0038408567
-0.16205035 -0.1790351 0.19619362 -0.2266631 0.25879765 0.009748933 -0.073890515 -0.15772481
-0.13657196 -0.12281342 -0.048302647 0.09981164 -0.14913134 0.06767886 0.06659408 -0.18346469
0.0035029396 -0.20004272 -0.07570741 -0.012527177 -0.094730124 -0.2659857 -0.16479248 0.16173573
0.31267944 0.075033195 -0.19045466 0.19553494 0.21258274 -0.05946776 0.058394127 -0.17362584
-0.08443501 -0.09994432 -0.21241373 0.12153533 -0.12311502 0.104396045 -0.13073766 0.29450938
0.23614821 0.17599177 -0.17873341 0.20342864 -0.059395455 0.39630118 -0.019869773 0.1635731
0.10391001 -0.24938203 -0.26747873 0.08696514 0.96745247 0.22946477 -0.23039213 0.054318223
0.0030602375 0.03597735 0.025002118 -0.17975283 -0.21308942 0.15410045 0.0469434 0.09399918
-0.00018580568 0.20269419 0.04267548 0.060540177 -0.033625487 0.14390771 -0.10137939 0.2547664
0.07447686 -0.109467015 0.003890433 -0.27022514 0.035172977 0.06356558 -0.15714164 -0.0034925542
-0.11809436 0.19714083 -0.27243662 0.1830297 -0.07288152 -0.26800108 0.08109993 0.25883603
0.0762338 -0.09557742 -0.2382999 0.09299861 0.14791855 -0.2282443 0.036090665 0.15116888
-0.13358879 0.25410563 0.26800385 -0.20012186 -0.1221834 -0.051886097 0.23252144 -0.15113308
-0.12557505 0.1624027 0.13844517 0.2283835 -0.033392124 -0.13352175 0.21261117 0.0635522
-0.019746186 0.18065678 -0.0415862 -0.26677257 0.3123433 0.032739203 -0.20438941 0.06415841
0.10081504 -0.036736235 0.2485129 -0.25275737 0.1226938 -0.18002062 0.28682283 0.16712277
-0.13440834 0.12910536 0.19869113 0.0417731 -0.070013046 -0.058418535 -0.071075305 -0.16467294
-0.13403915 -0.5318531 -0.123170994 -0.036189225 -0.28519106 -0.13627928 0.4379091 0.072821006
0.048677012 0.24306649 -0.30551115 0.053988375 -0.86433816 -0.10771162 0.21712993 0.3241684
-0.08752535 -0.014525084 -0.13488415 -0.21595684 0.07271328 -0.17250109 0.06588276 0.13917151
-0.05456503 0.08361426 0.06179076 0.104251124 -0.40526226 -0.23774888 0.01631368 0.04373754
-0.10799479 0.13552622 -0.122455716 0.12478897 -0.19641034 0.08233703 0.23451015 -0.24282655
-0.119781114 -0.010317538 0.13420227 -0.025756229 -0.3474457 -0.05736214 0.027556507 0.49154723
0.226796 0.37245774 0.080888204 -0.09108045 0.2874327 0.31717697 0.3710001 -0.1515637
0.2787952 -0.3101614 -0.007434767 0.25462073 0.37623656 0.546118 -0.20847517 0.18333733
00000000: 29fa 0cbd dcd0 b2bc 3df3 853b 943f c9bd
00000010: 7155 293e 8a53 36be 1c3e 803b a868 b83d
00000020: 0656 1f3e 0452 353d a02f 94be b226 2f3e
00000030: 38a8 2c3e 872e b7bd 6f30 0fbe 52f2 49bd
00000040: 57ef 66be a824 c9bd 4b7a edbd ea9a 62be
00000050: 0025 84be d19c 6c3c 2798 00be bab0 393e
00000060: fe15 453e 3630 3fbe 36f6 393e 8f3a d0bc
00000070: 1b15 023e 7e2e 163e f080 873e ddd7 f4bd
00000080: 5082 6b3e b0a3 b9bd 802a 1bbe cf9b 933d
00000090: e3ae 5b3e f443 cf3d 3ed2 4d3e b7be 283e
000000a0: bfd7 2dbe 2b34 b5bd 48c3 a43d 0392 e6bd
000000b0: 847a d8bc 74aa 81be 84f2 753d 1079 893e
000000c0: e59d 523b 1d01 60bd 9830 873e 3a48 56bd
000000d0: bb82 5abe 105b ac3d 3bd4 6e3d e2b6 7b3b
000000e0: 87f0 25be fa54 37be fbe6 483e 5f1a 68be
000000f0: 2081 843e fdb9 1f3c e953 97bd 9d82 21be
00000100: 85d9 0bbe 9a85 fbbd ffd8 45bd 0c6a cc3d
00000110: e3b5 18be 379b 8a3d 7a62 883d 2bde 3bbe
00000120: 9391 653b 00d8 4cbe 7d0c 9bbd ca3e 4dbc
00000130: de01 c2bd 472f 88be 5cbf 28be 0d9e 253e
00000140: 8517 a03e 01ab 993d 8c06 43be 503a 483e
00000150: 4aaf 593e 7794 73bd ae2e 6f3d f9ca 31be
00000160: 43ec acbd 9caf ccbd fc82 59be 84e7 f83d
00000170: ba23 fcbd 98cd d53d 18e0 05be efc9 963e
00000180: d6d0 713e 3037 343e e405 37be 994f 503e
00000190: a648 73bd fde7 ca3e efc5 a2bc b57f 273e
000001a0: c5ce d43d 015e 7fbe f9f2 88be c81a b23d
000001b0: f7aa 773f d0f8 6a3e eaeb 6bbe c97c 5e3d
000001c0: 448e 483b fc5c 133d 3ed1 cc3c 2011 38be
000001d0: 1d34 5abe 82cc 1d3e b947 403d a482 c03d
000001e0: d5d4 42b9 118f 4f3e 7ccc 2e3d faf8 773d
000001f0: e1ba 09bd 8b5c 133e ff9f cfbd be70 823e
00000200: 5387 983d 3e30 e0bd a3f6 7e3b f35a 8abe
00000210: 8a11 103d ac2e 823d bde9 20be 56e3 64bb
00000220: 75db f1bd 49df 493e d07c 8bbe 236c 3b3e
00000230: e842 95bd 7037 89be b817 a63d 2886 843e
00000240: 7720 9c3d 18be c3bd e404 74be 0e76 be3d
00000250: f677 173e e0b8 69be ced3 133d 04cc 1a3e
00000260: 80cb 08be 221a 823e cd37 893e bfec 4cbe
00000270: 4a3b fabd 8486 54bd 1a1a 6e3e a1c2 1abe
00000280: bf96 00be e54c 263e 92c4 0d3e 5ddd 693e
00000290: 2ec6 08bd edb9 08be beb6 593e a827 823d
000002a0: c1c2 a1bc 17fe 383e 4b56 2abd 6a96 88be
000002b0: 76eb 9f3e 8b19 063d 754b 51be 7c65 833d
000002c0: 1e78 ce3d bc78 16bd 2a7a 7e3e 6a69 81be
000002d0: e346 fb3d 5357 38be 71da 923e 3b22 2b3e
000002e0: 57a2 09be 3234 043e b075 4b3e 451a 2b3d
000002f0: 0063 8fbd 4648 6fbd ee8f 91bd 06a0 28be
00000300: 8f41 09be 8627 08bf 1341 fcbd 273b 14bd
00000310: 9004 92be cc8c 0bbe 9f35 e03e 2e23 953d
00000320: 8c61 473d 6ce6 783e f56b 9cbe ea22 5d3d
00000330: 4445 5dbf e997 dcbd 4f57 5e3e 67f9 a53e
00000340: 7e40 b3bd 9efa 6dbc 121f 0abe ca23 5dbe
00000350: b3ea 943d 20a4 30be 8aed 863d fa82 0e3e
00000360: 957f 5fbd f43d ab3d 4f18 7d3d 9d81 d53d
00000370: 897e cfbe 7174 73be 44a4 853c 2226 333d
00000380: 5f2c ddbd 63c7 0a3e 10ca fabd 5c91 ff3d
00000390: cb1f 49be 51a0 a83d 6e23 703e 86a7 78be
000003a0: cd4f f5bd e40a 29bc 526c 093e bafe d2bc
000003b0: 67e4 b1be 90f4 6abd 2fbe e13c 14ac fb3e
000003c0: 363d 683e c8b2 be3e b7a8 a53d 6388 babd
000003d0: 612a 933e 0565 a23e baf3 bd3e 8433 1bbe
000003e0: 3fbe 8e3e 7acd 9ebe 599f f3bb a65d 823e
000003f0: 14a2 c03e 64ce 0b3f 847a 55be c8bc 3b3e

bilstm.weight_hh_l0_reverse f4 [64, 16]
0.09278117 0.25863686 -0.1898339 0.3625681 -0.091350906 0.021040455 0.19326657 0.0018603841
-0.18171883 0.14208311 -0.24306439 -0.114340805 -0.05740518 -0.22599591 -0.17259875 -0.0025511007
-0.093031116 0.03455641 -0.34165064 -0.11985227 -0.1919888 0.045926664 -0.17827773 -0.42491516
0.04924451 0.07725931 -0.075217426 -0.22632386 -0.12569375 -0.13675368 -0.1584669 0.060844928
0.20652413 -0.09182474 0.17706063 -0.18933734 0.253339 0.16885848 -0.030707909 -0.040927812
0.26923347 -0.18013483 -0.15947098 -0.08399974 -0.1282351 -0.028060723 -0.11043953 -0.05414469
0.36547208 0.30743298 -0.112885006 0.29134855 -0.102381244 -0.21986042 -0.31321862 0.42801958
-0.036542736 0.25755998 0.32503864 -0.19504409 0.16735533 0.28093693 0.13550189 0.0089483075
-0.31895176 0.12515059 0.3405246 0.25060153 0.3422245 -0.17015801 0.12128165 -0.6206043
0.24033038 -0.027986705 -0.2467339 0.04193439 0.22626539 -0.3244837 0.34939376 -0.16210668
0.3962336 0.03303917 0.3016845 -0.12010082 0.104747914 -0.21439703 -0.07554305 -0.21946225
-0.2926507 -0.13809809 0.31361207 0.04856333 -0.024809472 -0.1325314 -0.37251082 -0.16102666
0.10466243 0.21855146 -0.006502834 0.25292152 0.08346252 0.18819144 0.2693404 0.0220356
-0.17262433 0.052115772 -0.11913912 0.06378206 0.17915937 0.1654195 -0.20615776 -0.09279172
-0.26388437 -0.1290179 0.12899597 0.34365004 0.04314754 0.096495 -0.22104453 -0.20551804
0.044096787 0.07940143 -0.22676302 0.28510484 0.013230993 -0.31627017 0.7241343 0.029896514
0.052625313 0.24695691 -0.18450946 -0.13796437 -0.13546562 -0.14426927 0.21885161 0.0108867325
-0.102971636 -0.024598647 0.11476882 -0.09192856 -0.01168971 0.13940305 0.032358736 -0.030618405
0.17008467 -0.048548907 0.22115728 -0.14457498 -0.13166437 0.058276918 -0.20756426 -0.16674124
-0.008552872 -0.16806392 -0.19372226 0.10952426 0.08969769 -0.13395272 -0.11715701 -0.2514646
0.09819979 -0.12475571 0.062648535 -0.08258777 0.037055317 0.05505824 0.14285088 -0.18366718
0.0058330153 0.077017054 0.049419787 -0.17295821 0.09095175 -0.022420572 -0.11377825 -0.045626152
0.063424386 0.27694207 -0.10417922 -0.017184647 0.072075166 0.12717599 0.28093457 -0.25474095
0.2444221 -0.26685435 -0.024263276 -0.18292719 0.14992575 -0.060741376 0.019615455 0.017812008
-0.15267055 0.20766902 -0.1669252 -0.16330971 -0.013243222 -0.22401918 0.26588812 -0.11649355
-0.04558509 0.07831263 0.032547392 -0.0021611217 0.060201216 -0.034515943 -0.05890961 0.043457568
0.06585912 -0.37766415 -0.047041163 0.15229574 -0.15151657 -0.067570105 -0.07691853 0.043281812
0.1382758 -0.014287708 -0.32452402 -0.07738773 -0.09049623 0.041945945 -0.149322 0.3814339
-0.21412797 0.1554594 -0.2102354 -0.089113854 -0.044915024 -0.11460863 0.09805197 -0.09172828
-0.2471246 -0.21906091 0.20398663 0.070789315 0.23790795 0.014185642 0.2560577 -0.036585923
0.12474915 0.0062154336 0.059767332 -0.019933308 0.105940185 0.08848322 -0.34672323 0.13614756
-0.039169464 0.01229365 0.26135743 -0.2993807 -0.18595758 0.1791323 -0.19521749 0.27153242
00000000: 0e04 be3d 0d6c 843e d163 42be 87a2 b93e
00000010: 2f16 bbbd 085d ac3c ace7 453e 22d8 f33a
00000020: 8014 3abe 3c7e 113e dfe5 78be 832b eabd
00000030: b221 6bbd 796b 67be babd 30be 5e30 27bb
00000040: 1987 bebd 068b 0d3d d5ec aebe 1b75 f5bd
00000050: b698 44be 991d 3c3d 708e 36be 7b8e d9be
00000060: 9cb4 493d 213a 9e3d 980b 9abd 71c1 67be
00000070: ddb5 00be 2809 0cbe 2645 22be 8838 793d
00000080: 107b 533e 9c0e bcbd 624f 353e a6e1 41be
00000090: a6b5 813e 3de9 2c3e 278f fbbc eca3 27bd
000000a0: f8d8 893e 4475 38be 5c4c 23be 0e08 acbd
000000b0: 1050 03be 9adf e5bc 1f2e e2bd d3c6 5dbd
000000c0: 281f bb3e db67 9d3e 4130 e7bd a32b 953e
000000d0: 42ad d1bd 1723 61be 315e a0be 6225 db3e
000000e0: d6ad 15bd e7de 833e 776b a63e a3b9 47be
000000f0: 325f 2b3e f7d6 8f3e 02c1 0a3e ec9b 123c
00000100: a54d a3be 7a27 003e 3e59 ae3e d84e 803e
00000110: 0d38 af3e e73d 2ebe 8462 f83d ecdf 1ebf
00000120: 2b19 763e 6044 e5bc d0a7 7cbe 65c3 2b3d
00000130: 1db2 673e ba22 a6be bde3 b23e 4bff 25be
00000140: 21df ca3e 1554 073d 6476 9a3e 6bf7 f5bd
00000150: 1386 d63d e58a 5bbe 51b6 9abd b6ba 60be
00000160: 50d6 95be 9669 0dbe c391 a03e 58ea 463d
00000170: 3c3d cbbc 50b6 07be bdb9 bebe 2ce4 24be
00000180: 4259 d63d f4cb 5f3e ba15 d5bb ee7e 813e
00000190: 66ee aa3d 42b5 403e fce6 893e 0184 b43c
000001a0: 6fc4 30be 5977 553d 36ff f3bd 2ba0 823d
000001b0: 8e75 373e bb63 293e 051b 53be 9609 bebd
000001c0: da1b 87be 451d 04be 8517 043e e6f2 af3e
000001d0: 7abb 303d 2c9f c53d 7f59 62be 5273 52be
000001e0: d59e 343d 389d a23d 9134 68be 43f9 913e
000001f0: cfc6 583c 2aee a1be de60 393f 89e9 f43c
00000200: a48d 573d 46e2 7c3e 0cf0 3cbe 8846 0dbe
00000210: 80b7 0abe 53bb 13be a31a 603e 445e 323c
00000220: cbe2 d2bd 1a83 c9bc ea0b eb3d 0a45 bcbd
00000230: 3386 3fbc acbf 0e3e 988a 043d 73d3 fabc
00000240: ad2a 2e3e 38db 46bd 0e77 623e 770b 14be
00000250: 06d3 06be c7b3 6e3d ba8b 54be 37be 2abe
00000260: 5821 0cbc f318 2cbe 215f 46be 414e e03d
00000270: 6cb3 b73d e72a 09be 04f0 efbd f8bf 80be
00000280: f91c c93d ec7f ffbd e04d 803d c723 a9bd
00000290: 51c7 173d c084 613d 8047 123e 4013 3cbe
000002a0: e122 bf3b 1ebb 9d3d 676c 4a3d f51b 31be
000002b0: e944 ba3d 59ab b7bc 9204 e9bd 7de2 3abd
000002c0: a5e4 813d 5acb 8d3e ea5b d5bd d1c6 8cbc
000002d0: 259c 933d 6c3a 023e a8d6 8f3e 686d 82be
000002e0: c949 7a3e 22a1 88be c7c3 c6bc 4451 3bbe
000002f0: 2386 193e f3cb 78bd 97b0 a03c 7dea 913c
00000300: ab55 1cbe 30a7 543e 71ee 2abe a93a 27be
00000310: 19fa 58bc 4965 65be 7d22 883e 2c94 eebd
00000320: 6eb7 3abd 5f62 a03d 6a50 053d 9ba1 0dbb
00000330: 8d95 763d 9760 0dbd 344b 71bd 9000 323d
00000340: 25e1 863d 325d c1be 3cae 40bd 6af3 1b3e
00000350: 2927 1bbe 3262 8abd 7687 9dbd 4548 313d
00000360: 2c98 0d3e fe16 6abc 0328 a6be 757d 9ebd
00000370: 1656 b9bd 83cf 2b3d dee7 18be 4e4b c33e
00000380: 5d44 5bbe c030 1f3e f347 57be 5381 b6bd
00000390: d1f8 37bd eeb7 eabd 79cf c83d 09dc bbbd
000003a0: 3b0e 7dbe 8151 60be dfe1 503e fdf9 903d
000003b0: 249e 733e e56a 683c ff19 833e 1fdb 15bd
000003c0: 7b7c ff3d d6aa cb3b 97ce 743d 2d4b a3bc
000003d0: 2bf7 d83d b136 b53d b585 b1be 446a 0b3e
000003e0: 2970 20bd 4e6b 493c a4d0 853e 6d48 99be
000003f0: aa6b 3ebe 756e 373e 18e7 47be 4c06 8b3e

bilstm.weight_ih_l0 f4 [64, 32]
0.03004814 0.19883335 0.15251152 -0.1044017 0.20214535 0.02704119 -0.00056229625 0.11894678
0.27908054 -0.07604861 -0.09613604 0.09034381 -0.11597973 0.25401413 -0.055272315 0.12627324
0.0063165845 -0.13056739 -0.06690718 0.15003458 0.24519564 0.04031498 0.287309 0.17004725
-0.071479164 0.0857366 0.25912008 0.17494403 -0.08819689 0.15187699 -0.12025088 0.011821877
0.20722927 0.05961573 0.07360202 -0.184048 0.048703615 0.105562665 -0.05329782 -0.14645398
0.2792156 -0.121113636 0.1505824 0.11608376 -0.057222556 -0.10254647 -0.20025058 -0.17644036
-0.051677633 0.014059502 0.22278012 0.1417153 -0.058535054 0.16304637 0.02392953 -0.042538803
0.166529 0.26481932 0.16961141 -0.02775366 -0.23348224 0.20862696 0.26271272 -0.14601186
0.098499544 0.24742512 -0.1719516 -0.17686376 0.22578143 0.28791207 0.09665839 0.07639514
0.13494511 0.18038107 0.1936218 -0.19707242 -0.15785965 0.07602236 0.08518764 0.1375028
-0.0025808748 0.2432921 -0.101620406 0.24483606 -0.0012728281 0.08207361 0.25726095 0.17040047
-0.17684843 0.15720008 0.027073424 0.13531896 -0.026872883 -0.065143414 0.28364173 0.20893833
0.19016144 -0.043865524 0.19146693 -0.22180697 -0.036460098 0.0612395 0.20697016 0.0064053633
-0.1405566 0.25784954 -0.23777992 0.0907558 0.12018276 -0.20115988 0.21844818 0.16279861
0.08196213 -0.14492714 -0.18822788 -0.08843298 -0.083644815 0.26498735 0.08635771 0.03895725
-0.14903948 0.20234282 0.27060866 -0.14786327 0.13147889 0.20551622 -0.009963566 0.071362734
-0.1235438 -0.23356305 -0.04152592 0.27615023 0.10190801 -0.20364553 -0.10201724 0.10303089
0.10512084 0.18903668 0.036130726 0.18418232 0.15841542 -0.059933744 -0.043321054 -0.14659701
0.171551 0.28149104 -0.18572368 0.02640847 -0.0752564 -0.19862325 -0.043956757 -0.097670764
-0.025289552 0.18719698 0.8404383 -0.1783709 0.10531582 -0.17045926 0.062484045 -0.002436324
0.27900487 0.029066613 0.026003204 0.58973426 -0.25009665 -0.2567057 -0.23678727 -0.054407213
0.06855574 0.032538373 0.30363867 0.14626846 0.15679756 0.17914183 -0.071560904 0.20383714
0.14211863 -0.1311461 -0.21195371 0.37210527 -0.115761176 0.323036 0.08478456 -0.025213446
-0.016889788 0.11805158 0.5073368 -0.18901467 0.2532476 0.19334781 -0.29055724 0.08489311
0.28998727 0.10741268 -0.30172363 -0.18735667 -0.27730486 0.025426494 -0.11066038 -0.024110809
0.16231439 -0.18746817 -0.3263639 -0.13059974 -0.30285573 0.17821124 0.10774367 -0.26437157
0.17472082 0.033335954 0.039402932 0.22882542 0.003255808 -0.32283503 0.11315022 -0.060081612
-0.20366985 0.32911873 0.5854895 -0.19670756 0.03632557 -0.11206455 -0.19804312 0.37192807
0.1612083 0.13996297 -0.023687417 -0.07078044 0.22456308 0.07458661 0.24975899 -0.007918384
0.038274366 0.14567716 -0.12438078 -0.1257823 0.24763028 0.22635539 0.13277583 0.04548455
-0.042964436 0.036496278 -0.14894086 0.16000454 0.080688395 0.13943252 -0.023602054 -0.0021428247
-0.15567002 -0.05684707 0.13229819 0.18757017 0.055837598 0.16624849 0.22833964 0.072354406
00000000: 8427 f63c f89a 4b3e fb2b 1c3e 8fd0 d5bd
00000010: 31ff 4e3e 7c85 dd3c 1067 13ba 5f9a f33d
00000020: a5e3 8e3e 60bf 9bbd f9e2 c4bd 2d06 b93d
00000030: c886 edbd 240e 823e 3965 62bd c64d 013e
00000040: 5afb ce3b 75b3 05be a206 89bd aaa2 193e
00000050: 9114 7b3e 5221 253d 2a1a 933e de20 2e3e
00000060: ab63 92bd ac96 af3d 63ab 843e 8724 333e
00000070: 92a0 b4bd a485 1b3e 1846 f6bd 8cb0 413c
00000080: e933 543e a02f 743d a8bc 963d 1477 3cbe
00000090: 717d 473d 3d31 d83d d14e 5abd 08f8 15be
000000a0: 59f5 8e3e 6d0a f8bd 4632 1a3e 53bd ed3d
000000b0: 3362 6abd e203 d2bd 7d0e 4dbe c8ac 34be
000000c0: edab 53bd d359 663c 7920 643e d11d 113e
000000d0: 74c2 6fbd a1f5 263e dd07 c43c 2b3d 2ebd
000000e0: 9486 2a3e 6696 873e 9dae 2d3e a55b e3bc
000000f0: f815 6fbe 4ea2 553e 4882 863e 2284 15be
00000100: 21ba c93d 035d 7d3e 1514 30be c61b 35be
00000110: 3f33 673e 3669 933e d5f4 c53d 0e75 9c3d
00000120: 0d2f 0a3e d1b5 383e cb44 463e 5acd 49be
00000130: f6a5 21be 9cb1 9b3d db76 ae3d 89cd 0c3e
00000140: e523 29bb 9021 793e 5c1e d0bd 4eb6 7a3e
00000150: 06d5 a6ba 3516 a83d b5b7 833e 767d 2e3e
00000160: c117 35be 0ff9 203e 16c9 dd3c 0e91 0a3e
00000170: 8524 dcbc e969 85bd 7d39 913e eef3 553e
00000180: aeb9 423e 56ac 33bd e80f 443e 5e21 63be
00000190: 2f57 15bd 45d6 7a3d fcef 533e 15e4 d13b
000001a0: 12ee 0fbe db04 843e 947c 73be 2dde b93d
000001b0: 6122 f63d dbfc 4dbe e1b0 5f3e aeb4 263e
000001c0: c3db a73d c867 14be cfbe 40be 5a1c b5bd
000001d0: f94d abbd 6cac 873e 50dc b03d a391 1f3d
000001e0: ce9d 18be f532 4f3e 388d 8a3e 7869 17be
000001f0: 67a2 063e d872 523e 3a3e 23bc a026 923d
00000200: 8804 fdbd 272b 6fbe 1517 2abd 9063 8d3e
00000210: 26b5 d03d 7488 50be 6aee d0bd dc01 d33d
00000220: 9849 d73d d592 413e d0fd 133d 4a9a 3c3e
00000230: a737 223e 167d 75bd 6b71 31bd 871d 16be
00000240: 11ab 2f3e 981f 903e 592e 3ebe 9356 d83c
00000250: 0720 9abd e563 4bbe 000c 34bd 9c07 c8bd
00000260: 092c cfbc 91b0 3f3e f726 573f dca6 36be
00000270: d2af d73d df8c 2ebe 45ef 7f3d bcaa 1fbb
00000280: bad9 8e3e 1b1d ee3c ac04 d53c d3f8 163f
00000290: ab0c 80be ee6e 83be 5d78 72be 19da 5ebd
000002a0: f466 8c3d f546 053d 8776 9b3e 66c7 153e
000002b0: 8a8f 203e f570 373e 868e 92bd afba 503e
000002c0: 8c87 113e 2a4b 06be 650a 59be 9584 be3e
000002d0: 3214 edbd f964 a53e 87a3 ad3d 6e8c cebc
000002e0: 745c 8abc 07c5 f13d d3e0 013f 108d 41be
000002f0: aba9 813e f8fc 453e ebc3 94be 70dc ad3d
00000300: 3679 943e 2efb db3d 857b 9abe 6dda 3fbe
00000310: e7fa 8dbe 394b d03c e9a1 e2bd 0884 c5bc
00000320: be35 263e a8f7 3fbe 2b19 a7be f0bb 05be
00000330: e80f 9bbe 027d 363e b7a8 dc3d b65b 87be
00000340: 04ea 323e 488b 083d f864 213d 3651 6a3e
00000350: 655f 553b a24a a5be 4dbb e73d 2318 76bd
00000360: d48e 50be 4082 a83e a4e2 153f b56d 49be
00000370: 1fca 143d 1982 e5bd d1cb 4abe 5b6d be3e
00000380: ca13 253e 7452 0f3e 1d0c c2bc 56f5 90bd
00000390: ddf3 653e ddc0 983d d2c0 7f3e 1cbc 01bc
000003a0: 95c5 1c3d 652c 153e 5abb febd 13cd 00be
000003b0: cb92 7d3e b5c9 673e 63f6 073e 024e 3a3d
000003c0: 7afb 2fbd 1f7d 153d f483 18be 3bd8 233e
000003d0: f53f a53d 66c7 0e3e 1859 c1bc a26e 0cbb
000003e0: f667 1fbe 79d8 68bd 2d79 073e 6512 403e
000003f0: f7b5 643d 0b3d 2a3e ded1 693e 8c2e 943d

bilstm.weight_ih_l0_reverse f4 [64, 32]
0.12175005 -0.051009107 -0.017264789 0.057140682 0.23238109 0.29890803 0.19337076 0.23446977
0.238971 -0.05781236 -0.18249623 -0.14255875 0.07027792 -0.18482095 0.21544011 0.08879232
-0.19426051 0.09321937 0.090017416 0.06366122 0.1500878 0.22174047 0.02114813 0.056947883
-0.12639336 -0.030077158 0.8639207 -0.2155412 0.20117423 -0.19860235 -0.26952338 0.064796634
-0.4990265 0.16248307 -0.16731071 0.2612922 0.07907001 -0.26903176 0.151396 -0.38787496
0.06306701 -0.20437232 -0.28513423 -0.23303047 -0.31638196 0.07734542 -0.029201685 0.1425019
0.057471275 0.2367211 0.13057724 0.23939131 0.15868096 -0.18910114 0.068339944 -0.18956879
-0.0545345 -0.26264992 -0.6677286 -0.37627557 -0.1600751 -0.018030513 -0.007283707 -0.12640929
0.18419921 0.03306833 0.26580504 -0.01878686 -0.10286758 -0.10351928 0.10106728 -0.017279768
0.003959877 -0.066151336 -0.24721348 -0.1516958 0.23303047 0.092337385 -0.21039794 0.20512016
0.019159691 0.19947976 0.22746168 0.23795494 0.22545117 0.24469928 0.16824584 0.11696788
0.04472148 0.23007627 0.109290235 0.16713129 -0.01544453 0.08886417 0.15990672 0.19998987
-0.010131018 -0.073412605 -0.2894237 -0.12886861 -0.3881095 0.0429862 0.05877116 -0.20697883
0.068316095 0.056264933 -0.051918294 0.007267796 0.06774128 -0.1786255 -0.13182019 0.113396876
0.2490881 0.094693124 -0.11229026 0.20469454 0.05855128 -0.34468374 0.20572211 0.39932135
-0.31021857 0.3233951 -0.553908 0.25851768 -0.10902321 0.06385162 -0.115575165 -0.24498396
0.14722031 0.10037946 -0.27180257 0.1024309 0.04011789 -0.45389804 -0.04715119 0.04373273
-0.20457825 -0.08337958 0.017147994 0.16575232 0.17331287 0.24187888 0.51216614 -0.010276469
-0.06747428 -0.27763125 -0.31322983 -0.22809765 0.10405323 0.20722269 -0.1989687 0.18174
0.25188288 0.08516466 0.16833843 0.20447922 -0.123153076 0.10895695 -0.020533254 -0.20396896
-0.22856659 -0.14441887 0.017531043 -0.11744415 0.045278467 0.029087624 0.032150332 -0.26656264
0.35551837 -0.06893467 -0.4246228 0.078660436 -0.29771495 0.23683088 -0.057475574 -0.023761593
-0.08851998 0.11061866 -0.08705737 0.27256078 -0.13628897 0.115212865 0.16503696 -0.067462474
0.17434771 -0.18926309 0.2102246 -0.17360625 0.09965555 0.0017705106 0.24415867 -0.3168252
-0.039784856 -0.097718224 -0.17958009 0.26293465 0.13417985 0.34144574 0.27587187 -0.055600088
0.09014023 -0.058056418 0.4081044 0.2641029 0.36096752 0.18447636 -0.10100744 -0.20333149
0.15760759 0.27354434 0.09610877 -0.015803572 0.050053842 -0.10250795 -0.112281315 0.28247562
-0.0525673 0.09929502 0.6867685 0.06429869 0.040443864 -0.083491005 0.11680991 -0.081687964
-0.3925811 0.03300962 -0.00904105 -0.13215773 -0.024152819 0.09899664 -0.09895168 -0.2567786
0.088700965 -0.06887725 0.41014704 0.084500626 0.25180334 -0.023286663 0.10182327 -0.0050011743
-0.027477082 -0.20754373 -0.17591815 0.13812672 -0.07670992 -0.07897018 -0.06299891 -0.39755335
-0.007997916 0.12523825 0.26888093 0.06227542 -0.31123328 -0.18367775 0.17470044 0.23341842
00000000: 1758 f93d edee 50bd e36e 8dbc 590c 6a3d
00000010: 4ff5 6d3e 790a 993e fc02 463e d818 703e
00000020: d0b4 743e a7cc 6cbd 4be0 3abe ecfa 11be
00000030: dfed 8f3d b441 3dbe 559c 5c3e bfd8 b53d
00000040: 3aec 46be cce9 be3d 0d5b b83d d060 823d
00000050: 9eb0 193e ef0f 633e d83e ad3c 2f42 693d
00000060: 436d 01be 5f64 f6bc e829 5d3f d5b6 5cbe
00000070: 9e00 4e3e 6a5e 4bbe f8fe 89be 19b4 843d
00000080: 6780 ffbe f661 263e 8053 2bbe 17c8 853e
00000090: 75ef a13d 88be 89be 8e07 1b3e 8c97 c6be
000000a0: 4729 813d fa46 51be 1dfd 91be 8a9f 6ebe
000000b0: d1fc a1be 4767 9e3d 5f38 efbc 05ec 113e
000000c0: 0067 6b3d 0467 723e 0ab6 053e ff22 753e
000000d0: 437d 223e bba3 41be d0f5 8b3d 521e 42be
000000e0: 915f 5fbd 0d7a 86be 43f0 2abf 31a7 c0be
000000f0: baea 23be bab4 93bc 2aac eebb 7071 01be
00000100: b89e 3c3e a872 073d 9917 883e e7e6 99bc
00000110: 3dac d2bd eb01 d4bd 5dfc ce3d 4d8e 8dbc
00000120: dbc1 813b 5a7a 87bd 8825 7dbe 2556 1bbe
00000130: 8a9f 6e3e 621b bd3d 8f72 57be 050b 523e
00000140: c9f4 9c3c 6c44 4c3e b7eb 683e 76aa 733e
00000150: acdc 663e 7392 7a3e a348 2c3e db8c ef3d
00000160: df2d 373d 1d99 6b3e 8fd3 df3d 7724 2b3e
00000170: 0e0b 7dbc 6bfe b53d 96be 233e 25ca 4c3e
00000180: 92fc 25bc 5959 96bd 582f 94be 22f6 03be
00000190: 4ab6 c6be 4c12 303d 07ba 703d 42f2 53be
000001a0: 4fe9 8b3d 0f76 663d 47a8 54bd b126 ee3b
000001b0: f1bb 8a3d 9ae9 36be dffb 06be 9f3c e83d
000001c0: f310 7f3e 78ee c13d 70f8 e5bd 729b 513e
000001d0: 78d3 6f3d 637a b0be d1a8 523e d973 cc3e
000001e0: f8d4 9ebe 0b94 a53e eacc 0dbf 6e5c 843e
000001f0: 9047 dfbd a3c4 823d acb2 ecbd 13dd 7abe
00000200: ecc0 163e bf93 cd3d b529 8bbe 4bc7 d13d
00000210: a852 243d 5365 e8be 9b21 41bd 1721 333d
00000220: f67c 51be eac2 aabd f379 8c3c faba 293e
00000230: ee78 313e 19af 773e 521d 033f a35e 28bc
00000240: f52f 8abd af25 8ebe a95f a0be 6e92 69be
00000250: dc19 d53d 2f32 543e 73be 4bbe 0d1a 3a3e
00000260: cbf6 803e cf6a ae3d e960 2c3e 0063 513e
00000270: ae37 fcbd d224 df3d 5b35 a8bc 3ddd 50be
00000280: 5c0d 6abe 8ae2 13be 439d 8f3c 8f86 f0bd
00000290: ea75 393d 2b49 ee3c 11b0 033d e67a 88be
000002a0: 8106 b63e 9f2d 8dbd 2968 d9be b918 a13d
000002b0: 186e 98be cb83 723e 826b 6bbd aca7 c2bc
000002c0: f749 b5bd 098c e23d 224b b2bd 168d 8b3e
000002d0: 568f 0bbe b9f4 eb3d 73ff 283e c429 8abd
000002e0: 3588 323e 2fce 41be 1e45 573e d6c5 31be
000002f0: 3618 cc3d 7a10 e83a bb04 7a3e ea36 a2be
00000300: 72f5 22bd 7e20 c8bd d8e3 37be 5f9f 863e
00000310: 7166 093e fad1 ae3e 143f 8d3e ebbc 63bd
00000320: 719b b83d 91cc 6dbd 0ff3 d03e 7f38 873e
00000330: bcd0 b83e 5fe7 3c3e fddc cebd 2136 50be
00000340: e263 213e 010e 8c3e add4 c43d 7e76 81bc
00000350: 4205 4d3d b0ef d1bd bff3 e5bd a5a0 903e
00000360: cf50 57bd 305b cb3d 0fd0 2f3f 08af 833d
00000370: 77a8 253d 55fd aabd 093a ef3d 054c a7bd
00000380: 6400 c9be 1835 073d ea20 14bc 5b54 07be
00000390: 22dc c5bc c0be ca3d 2ea7 cabd 7c78 83be
000003a0: daa8 b53d 840f 8dbd cbfe d13e aa0e ad3d
000003b0: 5eec 803e acc3 bebc b888 d03d e4e0 a3bb
000003c0: 9e17 e1bc 5886 54be e323 34be 1771 0d3e
000003d0: 171a 9dbd 1ebb a1bd 9305 81bd 1d8c cbbe
000003e0: b109 03bc 753e 003e c3aa 893e 8314 7f3d
000003f0: f859 9fbe 0516 3cbe ace4 323e 3d05 6f3e

parallel_cnn_block.branches.0.0.weight f4 [1, 1, 2]
0.37599885 0.708956
00000000: ec82 c03e 247e 353f

parallel_cnn_block.branches.0.2.bias f4 [16]
0.11157486 0.491383 0.6945008 0.37514126 -0.54674584 0.017195217 0.06976122 -0.3509852
-0.08419597 0.48346213 0.2687041 0.5393283 0.0064063026 0.51624686 0.3327107 0.55733806
00000000: 5c81 e43d 8d96 fb3e ceca 313f 8412 c03e
00000010: 89f7 0bbf fcdc 8c3c f8de 8e3d 55b4 b3be
00000020: f06e acbd 5988 f73e 9593 893e 6b11 0a3f
00000030: f6eb d13b c128 043f 0f59 aa3e b5ad 0e3f

parallel_cnn_block.branches.0.2.weight f4 [16, 1, 2]
-0.5072827 0.46385506 -0.09226041 0.38051188 -0.42700306 -1.1414311 -0.89247453 -1.307661
-0.09543572 -0.20681205 0.5786748 0.22023092 -0.29173657 0.40352538 -0.46583527 -0.5392129
-0.29531264 0.34595314 -0.05760015 0.013040812 -0.46757862 0.4751469 -0.2918474 0.374978
0.47804052 0.48723885 0.47528818 -0.07593433 -0.39866793 0.40432024 -0.113146745 0.06973568
00000000: 47dd 01bf 697e ed3e 07f3 bcbd 74d2 c23e
00000010: 25a0 dabe 6a1a 92bf 3679 64bf 7061 a7bf
00000020: ce73 c3bd 8ac6 53be 0824 143f 3784 613e
00000030: 7f5e 95be e19a ce3e f681 eebe db09 0abf
00000040: 3833 97be c520 b13e 23ee 6bbd 21a9 553c
00000050: 7766 efbe 7446 f33e 066d 95be 1efd bf3e
00000060: bac1 f43e 5f77 f93e f958 f33e 7583 9bbd
00000070: 341e ccbe 1003 cf3e 7bb9 e7bd 95d1 8e3d

parallel_cnn_block.branches.1.0.weight f4 [1, 1, 4]
0.3302563 -0.008336937 -0.14992014 -0.07851218
00000000: 5b17 a93e a697 08bc aa84 19be feca a0bd

parallel_cnn_block.branches.1.2.bias f4 [32]
-0.31627625 0.1455219 0.060644623 0.1454648 -0.63792413 -0.16658722 0.472516 0.10905157
0.06001821 0.14243688 0.23590472 0.20481853 0.19494702 -0.6770959 0.3421403 -0.4605956
-0.29355797 -0.2587189 0.017151223 -0.16607721 -0.6092018 0.09430993 -0.092980996 0.33154157
-0.22787996 0.33686373 -0.20838468 0.33944294 -0.12883914 -0.30718854 0.05510108 -0.11373324
00000000: f6ee a1be b103 153e 7f66 783d b9f4 143e
00000010: ff4e 23bf d795 2abe 9eed f13e 6e56 df3d
00000020: a8d5 753d f9da 113e 0291 713e f3bb 513e
00000030: 31a0 473e 2856 2dbf 032d af3e 30d3 ebbe
00000040: 3b4d 96be ce76 84be b980 8c3c 2510 2abe
00000050: a6f4 1bbf 9125 c13d d26c bebd d1bf a93e
00000060: 5d59 69be 6779 ac3e cb62 55be 77cb ad3e
00000070: 68ee 03be d147 9dbe acb1 613d f9ec e8bd

parallel_cnn_block.branches.1.2.weight f4 [32, 1, 4]
-0.12620038 0.3748919 -0.43009216 -0.5216785 -0.34521422 -0.67276335 -0.06414211 0.4548899
0.14656483 0.43195087 -0.5329319 0.31429273 -0.2933925 -0.6705981 0.09683587 0.36958122
0.14339918 0.06643072 0.12569495 0.67007756 0.37123966 -0.9084068 0.31293747 -0.3630045
-0.37410718 0.069040455 -0.42570263 0.017662361 0.0051567 0.32239458 0.061779745 -0.47681177
-0.33509538 0.19142185 0.61976016 -0.4833331 0.3564702 0.37923855 0.06794004 0.3449884
0.12301471 0.2523946 -0.63531226 0.010020312 -0.36032063 0.010360047 0.03228379 0.394829
0.19253875 0.33380565 -0.40652138 -0.5300863 0.071179345 0.07737147 0.42018747 0.22986601
-0.047481515 -0.49327582 -0.20220883 0.021639405 0.033622608 -0.360865 -0.44827366 0.041500907
-0.67006016 0.3647871 -0.062954456 -0.16092785 0.084403 0.036796186 -0.17321509 0.48227304
-0.10251648 0.5366918 0.50846094 -0.3662493 0.5004782 -0.31192917 0.098309465 0.27984387
0.01164666 -0.020231782 0.70693576 0.124795854 -0.3146864 0.15034199 -0.37919316 0.15637285
0.43186608 0.3124215 0.40823367 0.54627126 -0.32262862 0.035663996 0.26234356 0.24314886
0.13437155 0.40115654 -0.339723 0.38919392 -0.41987294 -0.18308854 -0.44878143 0.09493401
0.381554 0.1131541 0.004079898 0.36209986 0.039906982 -0.51800084 0.16750002 0.31071985
0.34419227 0.07630634 0.45615184 0.6479252 0.01025497 0.51650435 0.61116415 -0.13001134
0.1677023 0.24732298 -0.5418731 -0.49323034 0.4043569 0.0022114557 -0.16290464 0.49399766
00000000: ac3a 01be d5f1 bf3e 0a35 dcbe b98c 05bf
00000010: ebbf b0be 383a 2cbf f05c 83bd 54e7 e83e
00000020: 1715 163e aa28 dd3e 3a6e 08bf faea a03e
00000030: 8b37 96be 51ac 2bbf e251 c63d c039 bd3e
00000040: 3cd7 123e d40c 883d 2db6 003e 348a 2b3f
00000050: 2013 be3e 598d 68bf 5739 a03e badb b9be
00000060: fa8a bfbe 1565 8d3d b2f5 d9be a8b0 903c
00000070: 89f9 a83b e710 a53e c20c 7d3d ac20 f4be
00000080: 9f91 abbe 1704 443e 9aa8 1e3f 7077 f7be
00000090: 4383 b63e 8e2b c23e 2624 8b3d 52a2 b03e
000000a0: 23ef fb3d dd39 813e d3a3 22bf 3c2c 243c
000000b0: f27b b8be 30bd 293c 023c 043d 0727 ca3e
000000c0: e128 453e 93e8 aa3e 9223 d0be bcb3 07bf
000000d0: 7ac6 913d ef74 9e3d d022 d73e ff61 6b3e
000000e0: fa7b 42bd a68e fcbe d50f 4fbe 1f45 b13c
000000f0: dcb7 093d 4cc3 b8be 2084 e5be dbfc 293d
00000100: 1089 2bbf 60c5 ba3e 44ee 80bd 45ca 24be
00000110: 7bdb ac3d 99b7 163d 4c5f 31be 7eec f63e
00000120: 29f4 d1bd a264 093f 7f2a 023f 0785 bbbe
00000130: 571f 003f 2eb5 9fbe 7956 c93d b247 8f3e
00000140: a2d1 3e3c 1fbd a5bc bef9 343f f894 ff3d
00000150: 931e a1be 40f3 193e 9b25 c2be 3420 203e
00000160: 8d1d dd3e b6f5 9f3e 0104 d13e 6fd8 0b3f
00000170: 942f a5be 6914 123d e551 863e 04fc 783e
00000180: b298 093e 6464 cd3e 2cf0 adbe 6d44 c73e
00000190: 96f9 d6be 907b 3bbe aec6 e5be c36c c23d
000001a0: 0c5b c33e 56bd e73d aab0 853b 2765 b93e
000001b0: 8175 233d b49b 04bf 2085 2b3e ac16 9f3e
000001c0: f839 b03e 8046 9c3d bc8c e93e 6dde 253f
000001d0: 7604 283c a139 043f 4175 1c3f b121 05be
000001e0: 27ba 2b3e 3c42 7d3e 32b8 0abf b088 fcbe
000001f0: de07 cf3e 12ee 103b 79d0 26be 43ed fc3e

parallel_cnn_block.branches.2.0.weight f4 [1, 1, 8]
0.018206108 0.23585376 -0.09171559 0.39135376 -0.21408257 -0.4513922 -0.18408504 0.2610032
00000000: fa24 953c a683 713e 62d5 bbbd 855f c83e
00000010: 7638 5bbe e11c e7be ca80 3cbe 36a2 853e

parallel_cnn_block.branches.2.2.bias f4 [64]
0.14851545 -0.7370958 -0.18331401 0.012648407 0.00074934785 0.37455812 -0.45127398 -0.791575
0.25109047 0.3277457 0.34071636 0.15517959 -0.9870351 0.29823723 0.18685436 -0.8743693
0.2470448 -0.004026912 0.096728146 -0.33474028 -0.972541 -0.03815094 -0.2516802 0.23901287
-0.0006984817 -0.6576131 -0.4602755 0.15420851 0.28772163 -0.970127 0.00038682506 0.15845767
0.013638465 -0.28277823 -0.6345955 0.0019602329 0.2690227 -0.044014115 -0.18773496 0.311405
0.15311772 -0.5944327 0.2152276 0.34509757 0.2815582 0.3225294 0.38813093 0.054542966
-0.5559499 -0.04371332 0.122522175 -0.009011803 -0.0017624124 0.038807083 6.60033e-05 -0.8847896
0.21997209 0.100852795 -0.7344425 -0.48812783 0.047885492 0.004080544 -0.36560836 -0.002246277
00000000: 6f14 183e 4fb2 3cbf abb6 3bbe 443b 4f3c
00000010: e26f 443a 15c6 bf3e 620d e7be a9a4 4abf
00000020: ee8e 803e 49ce a73e 6072 ae3e 66e7 1e3e
00000030: 55ae 7cbf 8db2 983e c056 3f3e abd6 5fbf
00000040: 50f9 7c3e 30f4 83bb 6819 c63d 1463 abbe
00000050: 72f8 78bf 2944 1cbd 3adc 80be cabf 743e
00000060: 501a 37ba 5559 28bf 3ba9 ebbe d6e8 1d3e
00000070: 4050 933e 3e5a 78bf c8ce ca39 ba42 223e
00000080: de73 5f3c 4fc8 90be da74 22bf 4077 003b
00000090: 58bd 893e 2548 34bd 983d 40be 7a70 9f3e
000000a0: e4ca 1c3e be2c 18bf a064 5c3e a1b0 b03e
000000b0: 6528 903e 9322 a53e 19b9 c63e 7268 5f3d
000000c0: bc52 0ebf bd0c 33bd e8ec fa3d 3ea6 13bc
000000d0: bf00 e7ba 2df4 1e3d 406b 8a38 9281 62bf
000000e0: 5d40 613e e98b ce3d 6c04 3cbf e4eb f9be
000000f0: 9423 443d 16b6 853b 0531 bbbe 4636 13bb

parallel_cnn_block.branches.2.2.weight f4 [64, 1, 8]
0.023556456 0.0033301376 0.34476253 0.21400476 0.029309593 -0.112173356 0.35598272 -0.23855355
0.0893174 -0.14904118 -0.0126414215 0.07999026 -0.008314921 0.018905448 -0.0004138758 0.44005156
-0.18428946 0.4073047 -0.44470575 -0.09347981 0.51248854 0.0994409 -0.3951225 0.20582552
0.504677 0.037739232 0.069668986 0.15858544 0.22854666 -0.061372355 0.24653986 -0.14616676
-0.01035765 0.2812071 0.0043316153 0.1029516 0.50714463 0.42366236 0.1444673 -0.3080609
0.17530546 -0.05716406 0.20455135 -0.15594502 0.10613951 -0.31732482 -0.14000599 0.24083424
0.5257615 0.06864396 0.05413235 0.06868694 0.070002794 -0.2112273 0.2390708 0.18464331
-0.08897093 -0.2784959 0.10904256 0.06576018 -0.38287118 0.20286874 0.2978722 0.030765146
-0.2154331 0.37959823 0.32454935 0.45441493 -0.09792625 0.22707728 -0.13971323 -0.1775662
0.31500638 -0.3017253 -0.1375553 -0.3203505 0.3256117 -0.13894433 0.027289942 -0.43399012
0.04058805 0.16520457 0.35601696 0.44949794 -0.054414377 -0.1529389 0.019426327 0.052780837
0.031097764 0.09662189 0.35196024 0.11812872 -0.033387113 -0.038409926 -0.33612207 -0.20805976
-0.006189481 0.13188931 -0.083658844 -0.109727904 0.08893852 0.03054845 -0.012334851 0.3222034
-0.12989655 -0.16357374 0.0033739915 -0.148243 -0.26735222 -0.1884032 -0.14830609 0.27914825
-0.23839757 0.056228913 -0.012249752 -0.14577009 -0.2897606 0.40718126 -0.05592403 0.13429415
-0.013491776 -0.11044027 -0.07880807 -0.29060268 -0.14652863 0.034373228 0.004033586 0.23446447
0.14123066 -0.14263612 -0.14888383 0.25041285 0.14049713 -0.101902075 0.07187802 0.25860444
0.21773538 -0.18546385 -0.20564163 0.3152291 0.47492746 0.46141133 0.3440556 -0.34429005
-0.04491072 0.32553464 -0.15467058 -0.06061801 0.24474528 0.20282201 0.12020494 -0.38491648
-0.058093287 -0.08679207 -0.2584418 -0.3488772 -0.26338795 0.007032937 -0.21120735 -0.021562865
0.10762995 -0.4012549 0.115342505 -0.12354836 0.023383595 0.032560147 0.05065023 0.21635635
0.2856126 0.20167875 0.2933309 0.48857984 0.23610581 -0.28259856 0.124508694 0.40552837
0.20890339 -0.35685468 -0.21407138 0.1517136 -0.24353085 -0.06879773 0.34387574 -0.14155693
0.20855081 0.22033013 -0.16364026 0.3078585 0.2771749 -0.11201609 -0.17836267 0.03146556
-0.083319984 0.36796334 -0.26207808 -1.1869723 -0.07322555 0.23854116 0.35347325 0.18189262
-0.36931425 0.03628873 -0.1292166 0.14348766 0.3526187 0.24587147 0.23050225 0.21349384
0.020822272 -0.06861211 -0.12727344 0.076124415 -0.3740503 0.10763825 0.19308212 0.2072272
0.12701908 -0.037336115 0.28624937 0.17789847 -0.16612539 -0.08378204 -0.324735 -0.21712646
-0.2834166 0.08689441 0.37232795 0.079597965 -0.026622048 0.338732 -0.17134976 -0.10728652
0.028373856 -0.21685953 0.11137215 -0.32815495 -0.15198047 0.13394003 -0.046394788 0.26232144
-0.5475084 0.15037476 0.17197588 0.4108074 -0.083953194 0.3282025 -0.5301572 0.30287176
0.30847797 -0.010507764 0.031522103 -0.17025848 0.098054186 -0.36932048 0.09995083 -0.52481866
00000000: 78f9 c03c 703e 5a3b b784 b03e 1024 5b3e
00000010: ac1a f03c 25bb e5bd 5e43 b63e 6247 74be
00000020: 0aec b63d 409e 18be f71d 4fbc efd1 a33d
00000030: 4e3b 08bc 99df 9a3c 78fd d8b9 704e e13e
00000040: 60b6 3cbe 3e8a d03e 79b0 e3be 5872 bfbd
00000050: 7332 033f aca7 cb3d 7f4d cabe edc3 523e
00000060: 8332 013f 7494 1a3d 9dae 8e3d 3964 223e
00000070: 2308 6a3e 9461 7bbd f274 7c3e bdac 15be
00000080: 22b3 29bc 61fa 8f3e 39f0 8d3b 4ad8 d23d
00000090: 3bd4 013f 46ea d83e 3cef 133e 29ba 9dbe
000000a0: 4683 333e dd24 6abd e975 513e 0db0 1fbe
000000b0: ac5f d93d 6678 a2be bb5d 0fbe 409d 763e
000000c0: 4e98 063f 3495 8c3d e2b9 5d3d bdab 8c3d
000000d0: a05d 8f3d f84b 58be face 743e 2313 3d3e
000000e0: 6436 b6bd 0497 8ebe b551 df3d 46ad 863d
000000f0: b107 c4be d3bc 4f3e b482 983e 3007 fc3c
00000100: 7f9a 5cbe b35a c23e 552b a63e 13a9 e83e
00000110: 8f8d c8bd f286 683e fc10 0fbe ead3 35be
00000120: 8448 a13e bd7b 9abe 4cdb 0cbe fb04 a4be
00000130: 94b6 a63e 6c47 0ebe 288f df3c f433 debe
00000140: a83f 263d 632b 293e db47 b63e 9824 e63e
00000150: 9ce1 5ebd 049c 1cbe f623 9f3c b830 583d
00000160: bdc0 fe3c b3e1 c53d 2234 b43e 78ed f13d
00000170: edc0 08bd ba53 1dbd 3118 acbe 9e0d 55be
00000180: 21d1 cabb fe0d 073e 5455 abbd 06b9 e0bd
00000190: 6625 b63d be40 fa3c 1d18 4abc d8f7 a43e
000001a0: 9a03 05be e07f 27be 2f1e 5d3b 03cd 17be
000001b0: 64e2 88be c5ec 40be 8ddd 17be 85ec 8e3e
000001c0: 7e1e 74be 4a50 663d 2fb3 48bc c144 15be
000001d0: 805b 94be 107a d03e 9810 65bd 6884 093e
000001e0: 9c0c 5dbc 822e e2bd 2066 a1bd e0c9 94be
000001f0: 9a0b 16be f1ca 0c3d 2c2c 843b 7417 703e
00000200: c59e 103e 340f 12be 0175 18be 1d36 803e
00000210: 7bde 0f3e 09b2 d0bd c934 933d cd67 843e
00000220: 06f6 5e3e 3cea 3dbe b893 52be b565 a13e
00000230: b129 f33e 1b3e ec3e 0e28 b03e c946 b0be
00000240: 4ef4 37bd 7aac a63e f761 1ebe 974a 78bd
00000250: 829e 7a3e 93b0 4f3e 022e f63d c613 c5be
00000260: 3af3 6dbd 0ac0 b1bd 7c52 84be 08a0 b2be
00000270: c9da 86be 8d74 e63b bd46 58be 9ba4 b0bc
00000280: 176d dc3d 4871 cdbe b138 ec3d ec06 fdbd
00000290: f48e bf3c ca5d 053d 9e76 4f3d 858c 5d3e
000002a0: d13b 923e e084 4e3e 782f 963e 2327 fa3e
000002b0: b9c5 713e c2b0 90be 6afe fe3d 6aa1 cf3e
000002c0: c5ea 553e a8b5 b6be 8735 5bbe cf5a 1b3e
000002d0: 2760 79be d3e5 8cbd 7b10 b03e 4df4 10be
000002e0: 588e 553e 399e 613e 5091 27be a19f 9d3e
000002f0: dee9 8d3e b168 e5bd b4a4 36be 08e2 003d
00000300: aba3 aabd b165 bc3e 192f 86be b5ee 97bf
00000310: 47f7 95bd 2244 743e 72fa b43e 0f42 3a3e
00000320: c216 bdbe 7ea3 143d 5b51 04be 6eee 123e
00000330: 708a b43e bbc5 7b3e c808 6c3e 219e 5a3e
00000340: 7893 aa3c 8284 8cbd f853 02be 1ee7 9b3d
00000350: 8583 bfbe 7171 dc3d 52b7 453e 5e33 543e
00000360: 4a11 023e c1ed 18bd 478f 923e 042b 363e
00000370: c61c 2abe eb95 abbd aa43 a6be 6656 5ebe
00000380: fb1b 91be b2f5 b13d c5a1 be3e 4204 a33d
00000390: 7b16 dabc 486e ad3e 5076 2fbe 09b9 dbbd
000003a0: 4a70 e83c 6d10 5ebe 1517 e43d ed03 a8be
000003b0: c5a0 1bbe 9327 093e 7608 3ebd ff4e 863e
000003c0: 8329 0cbf d7fb 193e 721a 303e 5955 d23e
000003d0: a7ef abbd 280a a83e 62b8 07bf 0212 9b3e
000003e0: d3f0 9d3e c228 2cbc 521d 013d 3d58 2ebe
000003f0: a2d0 c83d 9317 bdbe 05b3 cc3d 845a 06bf

parallel_cnn_block.branches.3.0.weight f4 [1, 1, 32]
-0.012459366 -0.049972016 -0.0011207184 -0.0151266875 -0.015908893 0.034014154 0.15529469 0.0921726
0.15908484 0.1103679 0.20251307 0.084834285 0.16969578 0.07426888 0.08401682 0.13330711
0.06433477 0.19774494 0.19367048 0.12110411 0.23668201 0.12178183 0.13716035 0.055930384
0.14417207 0.028547155 -0.03051714 0.04627421 -0.04005403 -0.053350635 -0.0094345 -0.009797776
00000000: 5e22 4cbc 75af 4cbd 12e5 92ba edd5 77bc
00000010: 5e53 82bc 6d52 0b3d 9205 1f3e fdc4 bc3d
00000020: 23e7 223e 9108 e23d 965f 4f3e 99bd ad3d
00000030: bbc4 2d3e 481a 983d 0311 ac3d a981 083e
00000040: f3c1 833d a67d 4a3e 8e51 463e 6e05 f83d
00000050: c55c 723e c168 f93d c373 0c3e 4217 653d
00000060: d8a1 133e b9db e93c 15ff f9bc 078a 3d3d
00000070: b20f 24bd 3286 5abd 2993 1abc da86 20bc

parallel_cnn_block.branches.3.2.bias f4 [16]
0.3293623 0.18930571 0.14868245 0.1327117 0.20498629 0.061946936 -0.016807662 0.20291471
0.05669076 0.11138477 -0.07892271 -0.029188909 0.27296245 0.11390462 0.19141965 -0.24691854
00000000: 2da2 a83e 5bd9 413e 3640 183e 93e5 073e
00000010: ede7 513e 12bc 7d3d 39b0 89bc e0c8 4f3e
00000020: 9234 683d b31d e43d 3ba2 a1bd 941d efbc
00000030: bcc1 8b3e d346 e93d 8303 443e 37d8 7cbe
