wide/modelpars_wide_i_95.safetensors (safetensors, 86584 bytes, 32 tensors)

bilstm.bias_hh_l0 f4 [64]
00000000: 0653 76be f4c5 d73d 0f88 af3d 1f6e a13e
00000010: 05f3 c6be 955b e2bc 6bb2 2abe dd96 0abe
00000020: d011 f1be 91a4 11be dbb7 4abc 39ee 3bbe
00000030: c001 51be 9f30 4dbd 302c 5e3d f709 193d
00000040: 1404 e83d 39c7 d8bd 3a7a 153e 6cd3 de3d
00000050: e265 e53d a55e a83e 9697 5f3e c94f 053e
00000060: 0dbb 963e c0e7 6c3e abb1 293e 1161 9e3e
00000070: 0c38 0bbe c705 7dbd 763b 83bd ce34 903d
00000080: 4e2a f93d a7b0 7ebd 1289 6f3e e7f9 3f3d
00000090: 0288 833d 783c 82bc 11b3 7e3e dfc7 9bbd
000000a0: 24b8 57be 56b3 a43d f947 c7bd 84e1 363e
000000b0: 4b8f 30be 017a 7f3e 6d9d fdbc efe2 31be
000000c0: 9f14 3abe 3ded a7bd 4c09 cdbb 1f43 043e
000000d0: 4a09 c6bd 3214 633e 2a11 8dbe 1ae5 bcbc
000000e0: 443b 59be 8a57 c53d 4424 bf3d 820c 52be
000000f0: a99b 223b abb6 8dbe 458f 83be 68ac f63d
-0.24055108 0.105358034 0.08570873 0.31529328 -0.38857284 -0.02763156 -0.16669624 -0.13534112
-0.47083902 -0.14222933 -0.012372936 -0.18352593 -0.20410824 -0.050095197 0.05424136 0.03736302
0.11328903 -0.10584874 0.14597407 0.10880169 0.11201073 0.32884708 0.21835169 0.13018717
0.29439583 0.2313528 0.16571681 0.3093343 -0.13595599 -0.061773088 -0.06407826 0.07041322
0.12166272 -0.062180188 0.23392132 0.046869185 0.06422426 -0.015897974 0.24872996 -0.07606482
-0.21066338 0.08042018 -0.097305246 0.17859465 -0.17242162 0.24948885 -0.030958856 -0.17371725
-0.18171929 -0.081995465 -0.006257212 0.1291623 -0.096697405 0.22175673 -0.27552158 -0.023058463
-0.21214014 0.096358374 0.09333089 -0.20512584 0.002481202 -0.27678427 -0.25695243 0.12044603

bilstm.bias_hh_l0_reverse f4 [64]
00000000: 6673 d63d eb33 4b3e 90e0 e93d bc8a 34be
00000010: 3c32 89be 1a03 b13d e09e b0be 06be cbbe
00000020: 27c6 82bd 9d32 51be 5656 8fbe cc14 48be
00000030: 2957 19be ed9b 393d 914a 7c3e e00c 3fbe
00000040: 2b31 3abe 9a31 50bb 74a2 bc3d 00fa bd3d
00000050: c855 79be 220c 6f3d 0e6e a43e 21f2 f53d
00000060: 03ea 163e 83d9 a03e 11ad 293e f041 cd3b
00000070: da74 b33e ee2d 073d 814b debd ae03 debb
00000080: 1f96 82be 6dc9 45bd c44d ba3e 5860 293d
00000090: d9cc dabc c53a 593e 4913 6b3d 006c d2bd
000000a0: eb85 8d3e e1c7 b03d 9345 cfbd 2f1e a83d
000000b0: 8620 80bc abaa 17be 2d96 e8bd 84a9 053e
000000c0: 54da 0c3e 563c 3cbd 2f4f 413d e4ba 20be
000000d0: d64c b13d 626d 7abe f40f 723e 285a 84be
000000e0: 1085 81be 9bc7 8dbe 1564 0b3e 60d4 15be
000000f0: 9c92 ba3d e28a 673e a94e 0e3d d0a4 81bd
0.10471229 0.19844024 0.11419785 -0.17631048 -0.26796138 0.0864317 -0.34496212 -0.39793414
-0.06385451 -0.20429464 -0.27995557 -0.19539183 -0.14974655 0.045314718 0.2463782 -0.18657255
-0.18182819 -0.0031767846 0.09210673 0.09276199 -0.24349129 0.05836118 0.32115215 0.12009073
0.14737706 0.31415948 0.16569926 0.006263964 0.35050088 0.033002786 -0.10854245 -0.006775341
-0.25505158 -0.048287798 0.36387455 0.041351646 -0.026709007 0.21213825 0.05739144 -0.102745056
0.27641234 0.08631874 -0.10120692 0.08208882 -0.015640508 -0.14811198 -0.11356769 0.13052946
0.1375516 -0.04595598 0.047194656 -0.15696293 0.086572334 -0.24455789 0.23638898 -0.25850034
-0.2529683 -0.2769135 0.13612397 -0.14631796 0.09109995 0.22611573 0.034742985 -0.063302636

bilstm.bias_ih_l0 f4 [64]
00000000: ac2d 79be 7412 dabd a196 183e 4bd5 233e
00000010: 7408 00be 0301 bfbc 25bc b6be ad0b 6bbe
00000020: 76cf f3bc 80ac 9fbe 0733 3bbe 2f67 03be
00000030: 9be3 a0bd 289b 0fbe fb56 84be d42b b1bc
00000040: e90b 743c cf63 c03d da74 473e 7391 c53e
00000050: d497 df3e 4627 7e3e 0612 b33d fb27 903e
00000060: 4c77 28bd 833b c43d 8fea 4abe ab9b 923e
00000070: 42bb 543e 07e5 02be f135 7e3e d36b a13e
00000080: 2c97 323e 6ff1 f73a 5c5e 4f3e 7760 b5be
00000090: f5fc 023e d4c8 663d 37dd 2c3e 8b02 b2bb
000000a0: 5d0e ff3c e8d0 76be 3fec 79be 4e2c f7ba
000000b0: 773c 753e 0272 d2bd a146 a73c a562 4f3e
000000c0: 63ce 4a3e 08cc 72be 93ce 32be e53b ef3d
000000d0: d01b f0be 6695 853e b4d0 9bbe 8f66 003e
000000e0: 92c8 803e 3f77 253e 277a d2bc 3db8 e53b
000000f0: 6b94 903d 1634 dbbd c227 a1be 7039 6b3d
-0.24333829 -0.10648051 0.1490121 0.15999334 -0.12503225 -0.023315912 -0.35690418 -0.22953673
-0.029762011 -0.31186295 -0.18281184 -0.1283233 -0.07855912 -0.14024031 -0.2584761 -0.021627344
0.014895418 0.09394037 0.19478169 0.3858753 0.43670523 0.24819669 0.08743672 0.28155503
-0.041129395 0.095816635 -0.1981604 0.2863439 0.20774558 -0.1278268 0.24825265 0.31527576
0.1744048 0.0018916557 0.20250839 -0.3542516 0.12791808 0.05634387 0.16881262 -0.005432432
0.031134779 -0.24103129 -0.24406527 -0.0018857808 0.23948847 -0.102756515 0.02041942 0.20252474
0.19805293 -0.23710644 -0.17461614 0.11681346 -0.4689622 0.26090544 -0.30432665 0.12539123
0.25153023 0.1615877 -0.025693012 0.0070104883 0.070595585 -0.10703294 -0.31475645 0.057427824

bilstm.bias_ih_l0_reverse f4 [64]
00000000: 937b 63bd 4d7d 243e aa39 bf3d 1163 d3be
00000010: 9eb6 9fbe 5340 483e 9c90 15bd 93b2 8cbe
00000020: ae80 99bd 4423 94be 2d72 49be 5eb1 3fbe
00000030: b9bf 85be b6a0 483e 9297 9a3e 3a70 06bf
00000040: f18c 753c df67 853d c64e b9bd 6a27 69be
00000050: 7e74 39be 13a2 a73e dbd5 91bd a36d 613c
00000060: 671e 683e dc9b 673e 2ecf 29bb c0b1 533e
00000070: c094 5b3e 1f48 cd3e 0e83 53be bef5 d7bc
00000080: 7993 84be db8b f23d 68cf b73e 70db 59bd
00000090: 0d48 04bc 6641 063d 30e7 bb3e 4800 7fbd
000000a0: e671 00be 4c54 5dbd 5a82 26be a8a9 1ebd
000000b0: 2c9c 193d 99d1 c73d 5c7e b03c e839 2d3e
000000c0: de3b c03e 760a 2b3e 8747 d0bc ef51 8abe
000000d0: 6be6 443e a99b ca3c 6524 e13d cfe9 053e
000000e0: bdea b43d 7c29 063e 9a98 7bbe d519 e9be
000000f0: 0bb9 2fbe 9e62 6f3d 0c36 8cbe 6e27 04be
-0.05553777 0.16063423 0.093371704 -0.4128652 -0.31194013 0.19555788 -0.036514863 -0.2747999
-0.07495247 -0.28933156 -0.19672461 -0.18720004 -0.26122835 0.19592556 0.30193764 -0.52514994
0.014987216 0.065139525 -0.09048228 -0.22768942 -0.18110844 0.3274084 -0.07120868 0.01375905
0.22667848 0.2261805 -0.0025910842 0.20673275 0.21443462 0.40094087 -0.20655462 -0.026362296
-0.25893763 0.118430816 0.35900426 -0.053187788 -0.008073819 0.032777213 0.3669982 -0.062256128
-0.12543449 -0.05403547 -0.16260663 -0.038736016 0.037502453 0.097567745 0.021544628 0.1691662
0.37545675 0.1670321 -0.025424732 -0.27015635 0.19228522 0.024732428 0.1099327 0.13077472
0.08833835 0.13101763 -0.24569932 -0.4552752 -0.17160432 0.058443658 -0.27384984 -0.12905666

bilstm.weight_hh_l0 f4 [64, 16]
00000000: 312f 393e a68d 6b3c 0aa7 0ebe f1c4 f1bc
00000010: 1be0 b03c ffdc 84be b58a a33f 2168 373e
00000020: 70b4 943e 2d61 18be 872f 08bf dd2a 183e
00000030: 679d 0b3e 125e 8cbe b0fe 20be 09c7 c23e
00000040: eb75 72be 8787 b8bd 750e 58be 7c36 2bbe
00000050: 8fdc 8bbd 02b9 443d fa14 f43e 6c61 a73e
00000060: a6e2 9a3e 1f28 83be e056 0f3f d0ff 0a3c
00000070: 63ab 25be 830d 083d 7548 eb3e 4281 ad3e
00000080: a914 833e 2f06 82ba 1591 113e 1c34 04be
00000090: d8b7 4e3e f90f 9bbb 53b6 ab3e c716 353d
000000a0: 21c2 85be a4e3 debd 2952 323d 4e1e 03be
000000b0: 72bf 453e ef38 80be abf4 413d 5e68 bc3e
000000c0: a9f1 8e3e 594f 3abe 0975 023f 4e35 82bd
000000d0: 6655 babe 537e a63d d068 0a3d c707 e7bd
000000e0: c9fb adbe 3636 aebd e6ca 5dbe 6df2 adbe
000000f0: 58be 973d 8430 15be 868c 41be a496 02be
00000100: b17d 8ebd 7eff a53e 0c33 60be 81cb 933e
00000110: 58bf 76bd 9e7c 7ebd f34b d43e 8a1f 22be
00000120: 9778 0b3e b611 c5be 0c49 f4bd ca22 c13e
00000130: 5035 b23e 89ed 333e 1225 11bf e81a 1e3f
00000140: 3bdd cf3e 0ce1 b73e fdc2 8cbe 2289 943e
00000150: 272f 073e e017 4ebd eb3e 993e b0b7 e9bd
00000160: 425b fbbc 748e 0dbe ec75 8abe c8ab ef3d
00000170: e325 933e db75 1f3e a0bd 11bf 40bc 003f
00000180: 29d3 d73e 339c 133f 69ae a5be beb2 663e
00000190: 9a02 ed3d bbdb cd3e 7dc6 84be 4276 883e
000001a0: 471b b93e 1468 c33b d9ce 15be f8eb 133e
000001b0: c7cd b53f 3c34 f33e 8b80 08bf 6e71 83bf
000001c0: 56f8 833d b73d 853e 5a6c 77bd 12c3 b1bd
000001d0: debb 7fbd edc1 243e fe99 a7bd 3523 413e
000001e0: 393d bb3d c205 2b3e 2d1c f9bb c3b2 27bd
000001f0: caa2 11be cc6f 853d 3f46 1cbe 2093 1b3e
00000200: b6c8 88ba 86b9 223f c141 b5be fa6b 88bd
00000210: ba1b 1a3e 17a8 a13c a213 35bd 76c2 a93e
00000220: be25 f3bd eb6e c73e 214a 363e 2852 313f
00000230: a73b ee3e 2b65 4e3e 297c 03bd 5355 cfbe
00000240: a85c 57bc 5341 a9bb 49ae aabe a920 073e
00000250: 3da8 113d e037 7cbe 5814 4e3e aa32 0c3e
00000260: 2542 36bd 8c2f 423e 3319 973e 10f5 87be
00000270: c516 b0be 552d 78be 0978 a93e 36df a3bc
00000280: c8b2 52bc 36e7 403e 0cae 013e 5d7e c43b
00000290: 9e93 5c3e 1ecf 8abd ffd8 273f f893 b03d
000002a0: 03dd a33c e9c1 a2bd 1393 02bf 96ee 84bd
000002b0: 514a f13e 21d4 893d e8dd 10bf 58ce 1d3f
000002c0: 81b2 313e f9be c53d 8867 a23d 68ea 05be
000002d0: 6961 c53e f781 4dbe ebce f33e 24a0 b83e
000002e0: fdcc 903c a819 c6be f66a 0c3f 3e53 53bd
000002f0: f622 01bf 2a84 84be 41ad d73e f0fe 8bbd
00000300: 821f 8bbe 0a91 f9be 3d18 8dbe 8a70 253e
00000310: c94b 5ebe d627 98bd 3523 7e3f 8dae 103e
00000320: 99c7 913d 170e 2c3e f692 fcbd 75c8 dc3d
00000330: ce89 6cbf a560 333d 139b 3d3f e602 933f
00000340: 0fd7 a43b 70bc b83e 51d6 97be 13a8 72bd
00000350: a916 f03e b928 c6bd 7010 2e3f 54b6 c83e
00000360: d48a 4d3c 24ad e4be d5c3 c63e ea73 063e
00000370: aa32 e4be 3338 6bbe 0ba7 f33e fc3c 873f
00000380: 01cc 75bd 9dd0 223f 5e27 b0be 7a1b c43e
00000390: 787b 8abd 9c6e 603d c0e2 493f 646e 4ebe
000003a0: 16bc 443d c2b6 13bf d507 523e 504a 953d
000003b0: a571 0ebf af7a 81bd b10b 273e d829 e33e
000003c0: bf4e f33e c711 0d3f 778c bf3d 4957 39be
000003d0: 168d ec3e 2856 9b3e 18f6 853d 5c9a 4fbe
000003e0: 2d09 c53e de37 cfbe e9f6 0dbe 818b 513f
000003f0: 6063 8e3f ccdf 873f 8a61 22be e11e f03d
0.18084408 0.014377033 -0.13930908 -0.029512854 0.021591237 -0.25949857 1.2776705 0.17910816
0.29043913 -0.1488082 -0.5319752 0.14860101 0.13634263 -0.2741552 -0.15722156 0.38042477
-0.23677795 -0.09010225 -0.21099265 -0.16720003 -0.068291776 0.048028 0.47672254 0.32691514
0.30251044 -0.25616547 0.55991936 0.008483842 -0.1617866 0.03321601 0.45953718 0.33887678
0.256017 -0.0009920056 0.142155 -0.12910503 0.20187318 -0.0047321287 0.3353754 0.044211175
-0.2612467 -0.10883263 0.043535385 -0.12804529 0.19311312 -0.25043437 0.047352474 0.36798376
0.27918747 -0.18194331 0.5095983 -0.06357823 -0.3639328 0.08129563 0.033791363 -0.1128078
-0.3398116 -0.08506434 -0.21659431 -0.3397402 0.07409352 -0.14569288 -0.18901262 -0.12752777
-0.069575675 0.32421488 -0.21894473 0.288662 -0.060241073 -0.062130563 0.41464195 -0.15832344
0.1362022 -0.38490075 -0.11927995 0.37721854 0.348063 0.17571081 -0.5669719 0.61759806
0.40598473 0.35913885 -0.27492514 0.29010874 0.13201581 -0.050315738 0.29930815 -0.11411989
-0.030683164 -0.13823873 -0.27043092 0.117026865 0.28739843 0.15572302 -0.5692997 0.50287247
0.4215329 0.57660216 -0.32359627 0.22529122 0.11572762 0.40206704 -0.25932685 0.26652724
0.36153623 0.005963335 -0.14629687 0.14445484 1.4203423 0.4750079 -0.5332114 -1.0268991
0.06443851 0.26023647 -0.060406066 -0.08679785 -0.062435023 0.16089602 -0.081836686 0.18861087
0.09142537 0.16701415 -0.007602236 -0.040941965 -0.14222255 0.06515464 -0.15261172 0.15192842
-0.0010435793 0.63564336 -0.3540173 -0.0666122 0.1504964 0.019733472 -0.044208176 0.33156174
-0.11872433 0.3895181 0.17801715 0.69265985 0.46529886 0.2015578 -0.03210083 -0.40494785
-0.01314465 -0.005165258 -0.33336094 0.13196053 0.035560835 -0.2463069 0.20124948 0.13691202
-0.044496674 0.1896345 0.29511413 -0.26554155 -0.34392372 -0.24236043 0.33099392 -0.020003896
-0.012860008 0.188382 0.1266405 0.005996509 0.21540686 -0.06777786 0.65565485 0.08621973
0.020002848 -0.07947142 -0.5100567 -0.06490819 0.4712701 0.067299135 -0.565886 0.6164298
0.1735325 0.09655566 0.07929903 -0.130777 0.3855088 -0.20069109 0.47618803 0.36059678
0.017675871 -0.3869145 0.5485071 -0.051593058 -0.5044397 -0.25882083 0.4212437 -0.06835735
-0.27172476 -0.4874347 -0.27557555 0.16156211 -0.21708597 -0.07429473 0.9927247 0.14129086
0.07118148 0.1680225 -0.12332718 0.10780422 -0.92397773 0.04379334 0.7406475 1.148526
0.00503052 0.36081266 -0.29655698 -0.05924232 0.46892288 -0.09675736 0.6799383 0.39201605
0.012545306 -0.44663346 0.38821283 0.13130155 -0.44569904 -0.22970657 0.4758838 1.0565486
-0.060009006 0.6359957 -0.34405035 0.38302213 -0.06761831 0.054792985 0.7886162 -0.20159298
0.048030935 -0.5770074 0.205108 0.072895646 -0.5564216 -0.06322228 0.16313054 0.44367862
0.47521016 0.5510525 0.093529634 -0.18099703 0.4620139 0.3033917 0.06541079 -0.20273727
0.38483563 -0.4047231 -0.1386372 0.8185349 1.1124077 1.0615172 -0.1585752 0.1172464

bilstm.weight_hh_l0_reverse f4 [64, 16]
00000000: 1b4e 933e 4bf7 183f b880 a73e dfe8 033f
00000010: c9a4 043f e656 9fbc cea2 6d3e 09fe 5e3f
00000020: 7f20 31be 2c37 d23e e8f9 72be c016 843e
00000030: cbfc 73bf f876 04be 08ce 80be 7987 a8bd
00000040: e04b 8dbe 3255 45bc b0ac 5bbe 8d9a 37be
00000050: f6a1 e2be 469b f73b 523e 40be 8932 54bf
00000060: ca62 223d 0af3 bebd dd53 20be 7e0d b83c
00000070: 6782 473e faae 05bc 9d92 33be 30da 0dbe
00000080: 2d00 26be 0d4e 43be 7977 4b3e cfa2 16bf
00000090: ab89 c53d 3b12 963e edc8 a8bd 54b3 4abd
000000a0: b69b 3e3e 6d4f 12bf 061c a8bd daa0 29be
000000b0: e7c2 f5bb 54cc 813d 9f93 67be ad38 413e
000000c0: 5719 d23e 3f85 5f3f 1076 71be 2006 fa3e
000000d0: 64b7 8ebd 7e44 6fbe d203 f7be b7e8 203f
000000e0: 60a6 47be dcc9 0c3f 68fd 0e3f 137d f2be
000000f0: f4ad 16bf ffec f93e 38d3 8cbc cd91 a13e
00000100: 2be3 d4be 365e ab3d 7927 b0bd 9d29 b63d
00000110: 79a1 a53e adf4 4ebd db13 fc3d c3e3 11bf
00000120: 9a7e 833d 87d5 83bd 770e 09be 7985 87be
00000130: 0f6c e13e 4972 37be 50c3 3f3e bdf7 123e
00000140: 7370 27bd 21b4 2abe 55e6 39bf 6d07 88be
00000150: 25b6 dcbd 1f60 6dbf 21d1 1fbe f837 a3bf
00000160: 0537 8dbe 8370 83be 8800 b83e 6c89 f8be
00000170: b36e 1fbe c525 47be 0673 93be 62f2 03be
00000180: 5a5d fdbe bfe3 fbbe b0c6 0abf 5190 ffbe
00000190: be38 7f3e 0a49 273f 468f 933e 8868 cdbe
000001a0: 757b acbe f2f1 70be 32ee bb3d 85a6 ac3d
000001b0: fd17 0e3e 83e2 a33e 4153 ffbe da5d d33e
000001c0: 6473 93be e35c 4cbf 9e5e bd3e 3cb8 3e3f
000001d0: c5a1 4f3e 8cda 8d3d 0a65 28bf dd8a 0d3e
000001e0: 7cb2 75be 392d 103f eedc bf3d b19d f63e
000001f0: 9143 b73e 1ff9 5fbc 5ca6 e03e b321 75be
00000200: 5478 4f3d 25c9 7f3e b8b8 3cbe 06dc 0bbe
00000210: 9b2b 0bbe 4c2a 16be 4620 543e 05f0 fb3b
00000220: 77b6 1fbe 17f5 6abc d74d db3d 8b2b eebd
00000230: afb4 57bb 2097 1b3e f24c fcbc 61a3 14bd
00000240: 9e40 4abe 778e cf3d 071a 5d3a 3b3f dcbe
00000250: e8b3 26bf 2b48 e63e 35b2 22be 3ce0 0abf
00000260: 4ca0 d8bc 69a6 4abe e451 81be 38cb 9f3d
00000270: eedb 8d3e eba1 c2bd 3f94 f9bd 81e1 75be
00000280: c04d 163e bb20 443e 86d5 423f 376c cf3e
00000290: 03b4 383f e80d 8b3d 1521 4d3d 4af4 763f
000002a0: 9526 1d3d 3151 633e 7caa e83b b4e2 183e
000002b0: 0b53 13bf 60d9 bb3d 9fb2 dbbd b2d7 08bf
000002c0: d255 ebbb 9e00 3ebd 8d5d 213e edd7 3fbd
000002d0: 5662 023e 5d3e dd3e a3ad 4b3e 0449 19be
000002e0: 0096 5a3e bd2f cdbe 3c07 6f38 38ec e8be
000002f0: ea90 b63e 9378 18be 2f08 8e3c 6fe8 6f3d
00000300: e635 7abe dca0 1c3c 2860 b0be e59c 673c
00000310: ac9d ba3e 222f bcbd fb3f 02be 0214 a03d
00000320: 35c4 97be 9499 4b3e 9c4f bc3e 97ff 08be
00000330: 03d9 e7be 5f7a 623e 7b32 89be eb24 01be
00000340: a1e1 0a3e a5a3 f5be c384 fc3e 3582 26be
00000350: 259b 5d3e 5a95 b53d ec07 1abe daf2 dabd
00000360: efbb 1b3e 4700 293e 69c7 83be 6269 0cbd
00000370: a1c1 ca3d 5976 8bbd 28d2 02be c43b cd3e
00000380: 010b 58be c93e 223e 461e 55be 8afa a7bd
00000390: e877 39bd 2245 02be b12c 083e 6bfb bebd
000003a0: ef6a 4ebe a711 6dbe f3a6 3d3e 40ca 9b3d
000003b0: 6d6a 733e 09f7 e3bc 5703 963e f12e 24bd
000003c0: 9d66 ca3c 26b3 9e3e 2b48 54be f775 943e
000003d0: 46bb 29bd a95c 383e 79fb 12bf 0502 7c3e
000003e0: 8732 92be 55b8 d33e 0e97 113f 92f4 ccbe
000003f0: 3f4c 47bf 7b44 f03e eb45 d3be c395 863e
0.28770527 0.5975234 0.32715392 0.5152721 0.5181394 -0.019450616 0.23206636 0.87106377
-0.17297553 0.41057718 -0.23728144 0.25798607 -0.95307606 -0.12936008 -0.2515719 -0.08228964
-0.2759695 -0.012044238 -0.21452594 -0.1793005 -0.4426419 0.007556352 -0.18773773 -0.8288961
0.039644994 -0.093237 -0.15656991 0.022467371 0.19483338 -0.008159393 -0.17536397 -0.13852763
-0.16211005 -0.19072743 0.19869794 -0.58842176 0.09645399 0.29310784 -0.082414486 -0.049487427
0.18614087 -0.57152444 -0.0820847 -0.16565266 -0.007500041 0.063378006 -0.22614907 0.18869276
0.41034958 0.8731269 -0.23580194 0.48832798 -0.06968573 -0.23365971 -0.48245102 0.62855095
-0.19497061 0.5499551 0.5585542 -0.4736105 -0.5885918 0.48813626 -0.01719056 0.3155655
-0.41579565 0.08367579 -0.08601279 0.08894656 0.32349756 -0.05052631 0.12308475 -0.5698816
0.06420632 -0.064372115 -0.13384424 -0.2646902 0.44027755 -0.1791469 0.1872685 0.14352317
-0.040878724 -0.16670276 -0.72617084 -0.26568165 -0.10776929 -0.92724794 -0.1560712 -1.2751455
-0.2758104 -0.25671777 0.35937905 -0.48542345 -0.15569572 -0.19448002 -0.28798693 -0.1288543
-0.49485284 -0.49197194 -0.54209423 -0.49914792 0.24923989 0.65345824 0.28820246 -0.40118814
-0.3368794 -0.23529795 0.091762915 0.084301986 0.13876338 0.32008752 -0.49868205 0.4128254
-0.28798974 -0.79829234 0.3698625 0.7449987 0.20276554 0.0692645 -0.65779173 0.13822503
-0.23993868 0.56319004 0.09368311 0.48167184 0.35793737 -0.013670235 0.43876922 -0.23938636
0.050651863 0.24979074 -0.1842984 -0.13658151 -0.13590853 -0.14664572 0.20715436 0.0076885247
-0.15596949 -0.014340661 0.10708206 -0.11629399 -0.0032914092 0.15194368 -0.03079841 -0.036288623
-0.19751212 0.10134595 0.00084343593 -0.4301699 -0.65118265 0.44976935 -0.15888293 -0.54248405
-0.026443623 -0.19790043 -0.2525779 0.07802433 0.27706856 -0.0950354 -0.12186479 -0.24011804
0.14678097 0.1915311 0.7610706 0.4051225 0.72149676 0.06789762 0.050080378 0.96466506
0.038366873 0.22198941 0.0071004014 0.1493023 -0.5754859 0.0917232 -0.10727429 -0.53454125
-0.0071818614 -0.046387307 0.15758343 -0.046836782 0.12732825 0.43211642 0.19890456 -0.1496926
0.21346283 -0.40075484 5.6988778e-05 -0.4549272 0.35657436 -0.14889745 0.017337887 0.058571275
-0.24434623 0.009559836 -0.3444836 0.014136528 0.3644842 -0.09188677 -0.12719719 0.07816316
-0.29641882 0.19882804 0.36779487 -0.1337875 -0.45282754 0.22116993 -0.26796326 -0.1261174
0.13562633 -0.47976413 0.4932004 -0.16260608 0.21641214 0.08866377 -0.15042084 -0.106908515
0.1520841 0.16504012 -0.25738075 -0.03428019 0.09900213 -0.068096824 -0.12775481 0.4008466
-0.21097948 0.15844263 -0.2081233 -0.082020834 -0.045280367 -0.12721685 0.13298298 -0.09325298
-0.2015798 -0.23151265 0.18520717 0.076069355 0.23771067 -0.027827756 0.29299423 -0.04008383
0.024707133 0.30996054 -0.20730655 0.2899625 -0.041438363 0.18004097 -0.57414967 0.24610145
-0.28554174 0.41351572 0.56871116 -0.40030342 -0.7785072 0.46927246 -0.4126428 0.26286134

bilstm.weight_ih_l0 f4 [64, 32]
00000000: a50b 9abd 0f99 4b3e c953 2a3d 7fcf 953e
00000010: 1a44 17bc a861 553e b481 50bc 8713 773e
00000020: 84f3 24bd 0399 83bd 08cf 063e 08d0 413e
00000030: ac0d 1b3c c49c 873e 17ac 71bf 818e 29bf
00000040: a5e6 cebd 9033 fdbc 1d2a 1abe 1243 dd3e
00000050: a613 7b3e 6e17 383e 6467 123e b698 ca3c
00000060: c340 9ebe 5d3b c7be 8577 d63e 5edd db3c
00000070: a391 00be 4395 19be 63bd 99be 8102 99bc
00000080: cfd6 f2bd 9ca4 6e3d 7cf4 ec3c 9ea1 c0be
00000090: 991b 45be 71e3 06be 8229 44be cd62 d8be
000000a0: 26b7 403e c7b2 e8bd 37f7 363e ff62 893e
000000b0: bf44 00be 6739 36be 61a8 77be 1ea6 d1be
000000c0: 5199 4abe e76d a5be 8563 883d 8609 2abe
000000d0: 6862 67bd 1372 ed3d deab 20be 2a9e c2be
000000e0: 2fa2 ca3e c61c d33e f66e 8f3e 1102 33be
000000f0: 54fb eabe d699 0c3e f06a cf3d 80dc 50be
00000100: b809 463e 035d 7d3e e514 9dbe bc16 b03c
00000110: 557b 14bd 96d5 563f 3772 893b d1ba 5e3e
00000120: 86eb ce3e b378 823e cb98 50be 6ea4 96be
00000130: 76f8 cd3d 24ef 993c 0b94 fa3d 1255 273e
00000140: 15a5 cdbc a0e3 8e3c 6505 55be 1295 4cbe
00000150: 06d5 a6ba 7f8d f2be 426f 5f3e c798 783f
00000160: f844 3dbe 16e6 d03d 9f21 983e 3ae0 d93d
00000170: 7512 0ebd 2a7a 1d3e 6ddf 733e 0c57 10be
00000180: eef7 8f3e 5cac 33bd e429 1c3e bf07 05be
00000190: 4972 3ebe 166f 06be 3f55 a33d 43bc c7bd
000001a0: e71f 51be f502 d03d 1985 23bf 472d 03be
000001b0: bfbd abbc 8f57 83bd fa15 143e 7e86 e13d
000001c0: 6d1e 9ebd 10c1 4ebe 8de3 8cbe f7ad b6be
000001d0: 904c abbd 7abf bdbd fc55 973e a226 183e
000001e0: 34ef 86bd a9ac c73c 626b ff3e 3c49 253e
000001f0: e3e8 073c 7c06 8f3e e0bc 2fbe 4b50 adbd
00000200: 27f2 a03d 8ed5 6ebe 3223 8abe ecc8 7a3e
00000210: 5bcd 16be 92fc 43be 941d a2be 2588 ed3d
00000220: ebad 35bd 42ba 31be fc14 d43d 3827 f7be
00000230: 71a5 9fbd 1de9 e4be 7b39 30bf 9c0f 68bf
00000240: a859 023e d91a 643e 297b cfbe 9695 7f3d
00000250: 8a97 99bd 76b1 c3be 56ab 3e3d 2e58 53be
00000260: f467 9fbd 151e 69be b29f 333f f620 8bbe
00000270: d656 a8bc fb7b 41be 78b4 14bf f37d 2d3c
00000280: 7e78 e23e da21 ee3c f220 b4bb 2fea 713f
00000290: c236 2dbe 32b5 59be a4e3 62be 5bc6 f23d
000002a0: fa15 52be e306 883d 894d aa3e e390 7b3d
000002b0: 7456 293f b2a6 913e ee7f b9be 3982 573d
000002c0: f989 b23d 76a1 0e3e b473 6ebe a31b 173f
000002d0: 3214 edbd c2d5 fd3e 74c3 593d 17cb e83d
000002e0: 9699 98be d7d7 41be 58b4 0a3f 1a6c 04be
000002f0: 33dd 3f3e 647e 593e bf4b 73be 4435 763e
00000300: f806 533e b70a df3d ac04 4dbe 8fcc 82be
00000310: 6adb bbbe e65d 433c dfac bdbd 60b5 21be
00000320: f204 e43d b609 61be 235c 95be 4182 2cbe
00000330: b74d 2fbf de3d 1d3e eceb 9f3b e211 8c3e
00000340: 9ff6 1e3e d027 853d fcb4 133d 61cb 4d3e
00000350: a67e c3bc 3b9c 5abe 1e28 973d 19bc e3bd
00000360: c176 06be 84f5 a83e 0288 8b3e 2e57 4fbc
00000370: 938b 7f3c 26dd fabc b411 a6be d454 b73e
00000380: 2aff 973e 6d52 0f3e fa9f 56be f514 cabe
00000390: 9912 1d3e 368f e93d dad7 da3d acd8 54be
000003a0: b711 33bd 82f5 41be 7b2e 003d 0571 493c
000003b0: 127b 3d3e 497a 8f3e 1ce3 bdbb 187d 363e
000003c0: 7a0e 39be 67ca bebb 10f7 4bbe f4e8 a93d
000003d0: f53f a53d c39d 97bd ad60 06be 74f6 88be
000003e0: 6a55 72be 79c3 a0be 0370 343e 8107 b33c
000003f0: 3460 703e 4a81 1cbd cbae 143e 3945 943e
-0.07521752 0.19882606 0.04158381 0.2925987 -0.009232545 0.20838034 -0.012726236 0.24128543
-0.040271297 -0.06425669 0.13164914 0.18927014 0.009463709 0.2648679 -0.94403213 -0.6623307
-0.10102586 -0.030908376 -0.15055127 0.43215233 0.24519214 0.17977688 0.14297253 0.024731021
-0.30908784 -0.38912478 0.4188806 0.026838955 -0.12555556 -0.14998345 -0.30027303 -0.018677952
-0.11857378 0.058262452 0.028925173 -0.37623304 -0.19248809 -0.131727 -0.19156459 -0.4226288
0.18819866 -0.11362224 0.17867742 0.2683334 -0.12526225 -0.17795335 -0.24185325 -0.4094705
-0.19785048 -0.3231041 0.06659607 -0.16605195 -0.056490332 0.115940236 -0.15690562 -0.38011295
0.3957686 0.4123289 0.28014344 -0.17481257 -0.45894873 0.13730559 0.101278186 -0.20396614
0.19339645 0.24742512 -0.30680004 0.021495216 -0.03625043 0.83919656 0.0041945237 0.21750952
0.40414065 0.2548271 -0.20370786 -0.29422325 0.10057156 0.018790789 0.12235268 0.16341045
-0.025103131 0.017442524 -0.20802839 -0.19978741 -0.0012728281 -0.47373578 0.21819785 0.9710812
-0.1848334 0.102001354 0.2971315 0.10638471 -0.03468557 0.15378633 0.23815699 -0.14095706
0.28118843 -0.043865547 0.15250355 -0.12991236 -0.18598284 -0.13128313 0.07975244 -0.09752705
-0.20422326 0.10156814 -0.63874966 -0.1281024 -0.020964501 -0.06413185 0.14461508 0.110119805
-0.07720647 -0.20190835 -0.27517357 -0.356796 -0.083642125 -0.09265037 0.29557788 0.14858487
-0.06588593 0.024374323 0.49886614 0.16141218 0.008295271 0.27934635 -0.17161894 -0.0846258
0.07858687 -0.23323652 -0.26979977 0.24490708 -0.14726774 -0.19139317 -0.3166319 0.11598233
-0.044355314 -0.17356208 0.10355565 -0.4827211 -0.07795227 -0.447091 -0.6883771 -0.9064882
0.12729514 0.22275867 -0.4052365 0.062398516 -0.07499607 -0.3822133 0.046550117 -0.20639107
-0.07783499 -0.22765382 0.7016555 -0.27173585 -0.02054922 -0.18894951 -0.58087873 0.010589111
0.44232553 0.029068876 -0.0054970914 0.9449796 -0.1691542 -0.21260527 -0.2215715 0.118542396
-0.20516196 0.066419385 0.3326228 0.06141747 0.6614754 0.2844749 -0.36230415 0.052614424
0.087177224 0.1392878 -0.23286325 0.59026545 -0.115761176 0.49577147 0.053164914 0.11366861
-0.29804677 -0.18929993 0.5418143 -0.12931862 0.18736725 0.2123962 -0.23759364 0.24043757
0.20608127 0.108907156 -0.20021313 -0.2554669 -0.36690837 0.011924243 -0.09261488 -0.15791845
0.11133756 -0.2197636 -0.29171857 -0.16846563 -0.6847796 0.15355632 0.004880419 0.27357394
0.15523766 0.06501734 0.036061272 0.20097114 -0.023864102 -0.2134866 0.073806986 -0.11119861
-0.13131239 0.32999814 0.27252203 -0.012655063 0.015597242 -0.03062303 -0.3243538 0.35806906
0.29686862 0.13996287 -0.20959464 -0.39469114 0.15339126 0.114042684 0.10685702 -0.20785779
-0.043718066 -0.1894131 0.031294327 0.012295012 0.18503979 0.28022984 -0.005794896 0.17821157
-0.18071929 -0.005822468 -0.19918466 0.082963854 0.080688395 -0.074031375 -0.13122816 -0.2675053
-0.23665395 -0.31399134 0.17620854 0.021854164 0.23474199 -0.038209237 0.14519803 0.28959063

bilstm.weight_ih_l0_reverse f4 [64, 32]
00000000: 0f7c 943d b6e5 50bd a16c 913d 211e 92bd
00000010: 618f c03d 21bf ae3e 86a2 503e aff5 583e
00000020: 5669 e63e c4b9 a9bd 9f9c 863e ad5d 74be
00000030: 1ba8 fd3e 1e8b f1be bbce 8a3e d276 8a3d
00000040: 5a98 4dbd 251f 653d abfe a9bc 60be 9abc
00000050: 6f97 193e 7a1a 263e 433d a83d a1f1 afbb
00000060: e0c1 4a3e f145 73bd baf6 a23f ce47 40be
00000070: 2019 463d 94eb 0bbe 8613 d4be 624d 1d3f
00000080: 3ef8 c4be 3c84 263e a471 36be 9890 173e
00000090: 3c4f 9fbe 0c32 1bbf 82db fa3d 16ea 81be
000000a0: e400 123d 5179 a1be 27f5 313e 5874 eebe
000000b0: 63d0 5bbe ee77 633e 2cb9 f2be caaa 283c
000000c0: d87b a3bd 347c 063e 7044 7b3d da03 983e
000000d0: 86d0 073e e871 74be 003c 2b3e f4ff 06bf
000000e0: d1f2 393c 9f53 1cbe da93 a5be f667 25bf
000000f0: 3b67 46be 2675 943b f5fc 2ebe 233d c6bc
00000100: 37ef 6a3e a872 073d ecf9 32bd 7326 8f3e
00000110: c883 ffbe 044c 5fbe a687 28bd 2bc0 a13c
00000120: 19ff fd3b 7cbf eabe 79de efbc b644 433d
00000130: efc3 a83e c646 e73e b466 053d 974e e23e
00000140: ed3c 0cbc 2bed 663e ceb9 833e 99ff 953e
00000150: 42de 663e 431a bc3e ab29 a4bd cb8d bebd
00000160: a19c b03e 7ab8 973e c3d0 193e bbdc f73d
00000170: 6a8d 6ebb bbf5 8cbd 1df2 14bf 48b6 1d3e
00000180: efe5 2bbd c966 a7bd ad74 92bd f19e 2bbe
00000190: 278c afbe c270 8ebc d09b a33d a053 cebe
000001a0: 0b5a 493e 7148 563e b15d 8bbd 97d7 a0be
000001b0: 4307 cc3d 8369 58be 6251 033e d42f ee3d
000001c0: b723 c83e 03cf ca3d 7cea adbc eaa3 963e
000001d0: 0b8a 3d3d 0d18 90be eaed ed3d 4787 823e
000001e0: c535 053e d356 ac3e 06ad 7ebf 98f5 cc3e
000001f0: 123e d8bd 17b2 8d3c 426c e0bd 5a63 91be
00000200: 981c 163e cc1c c13d c9b2 d6be a070 963d
00000210: 14f9 aebd cd8b 41bf d722 78be 6805 213c
00000220: 3643 cebe 3472 33be ae61 0cbd bb10 63bc
00000230: 9737 84be 6f19 ab3e d786 303f 64c6 e4be
00000240: a666 97be 6a00 e7be 2707 ebbe b153 d3be
00000250: f19f d53d ea1b 853d 03d2 d4be e98e 623e
00000260: 18af 113f f5c7 37be 7ab6 a93d d34d 1b3e
00000270: 6b13 22be 7898 3c3e d526 cbbd 008d 6cbf
00000280: 3035 90be 734a 0ebe 31f6 88bd 487b 5bbe
00000290: 6e6b 84bd c6d9 653e 702b 78be c0dc 1fbf
000002a0: 8766 f93e 4f27 73be 3295 7cbe 087a ba3d
000002b0: eb2c ccbe 5fd6 2abd 02be 973d e31b efbe
000002c0: a6ef 71bc 7b07 803d e824 a2bd 3cfe e73e
000002d0: aab4 0bbe a924 fbbb e354 803e 97e1 3dbe
000002e0: c024 4d3e fbf7 c8bd fc00 643d f9bf 383d
000002f0: 1df5 043e a5b2 50bd d819 16bd 870a c9be
00000300: c518 13be 7e20 c8bd 2bbe 1cbd 7aaa 75bb
00000310: 5e6c 853e 44b0 863d 5558 283e 3e30 c7be
00000320: fba6 f8bc eef2 1bbd bce1 f03f d3f0 243e
00000330: fe05 283e 47f4 18be e463 313f 8c2d 0d3f
00000340: c87e 573e afa0 7b3d c118 bbbc 9a83 563d
00000350: 9d8a 4d3d 13e7 0dbe 0d67 77be c5f8 203d
00000360: ed29 023e 4113 ba3e 826d b73f e5f0 253e
00000370: 1a73 84bd d991 593c ec4d e3bd c4c7 103e
00000380: 5b7e 01bf 8d5f ffbc cc88 103b e0fd f8bd
00000390: 0a20 153d 7775 ff3d 8a22 16be 489b 90be
000003a0: d20a 103e 60b2 f8bc 69ae e73e b1a4 b53c
000003b0: 9e7f 1d3e dc73 8fbd 4c1a 45be 70fb 083d
000003c0: fbc6 c6bd 9fd8 cebe 7ff2 5bbe faaa f33d
000003d0: 960a 8bbd 160b 48be 0294 32be 67b3 b9be
000003e0: 50bd 303e e515 303d 10c0 5b3e 8268 723e
000003f0: 8460 f4be dbf6 ecbe 473d bf3d df8f ba3e
0.07250225 -0.05100032 0.071007974 -0.07134653 0.09402347 0.34130195 0.20374498 0.21187471
0.4500224 -0.08287385 0.26291367 -0.2386386 0.49542317 -0.4717645 0.27110848 0.067609444
-0.050194122 0.055937905 -0.020751318 -0.018889606 0.14999174 0.16221038 0.0821481 -0.0053693806
0.1980052 -0.059392873 1.2731545 -0.18777391 0.048363805 -0.13664085 -0.41421145 0.614462
-0.38470644 0.16261381 -0.17816788 0.14801252 -0.3111514 -0.6062324 0.12248899 -0.25373906
0.03564538 -0.3153787 0.17378674 -0.46573138 -0.21466212 0.22213718 -0.474069 0.010294626
-0.07982606 0.13133317 0.061344564 0.29690439 0.13263139 -0.23871577 0.16722107 -0.52734303
0.011349396 -0.15266274 -0.32339364 -0.64611757 -0.19375317 0.0045305667 -0.17088683 -0.024199074
0.22942816 0.03306833 -0.043695375 0.27959022 -0.4990523 -0.21806341 -0.04114499 0.019744953
0.0077513573 -0.45849216 -0.029280888 0.04767295 0.32961985 0.45171183 0.03256865 0.44200584
-0.008559448 0.2255141 0.25727695 0.29296568 0.22545722 0.36738786 -0.0801576 -0.093043886
0.34494498 0.29632932 0.15021043 0.12102648 -0.0036400207 -0.06882807 -0.58181936 0.15401566
-0.04196733 -0.081739016 -0.071511604 -0.1675985 -0.34286615 -0.017387751 0.07988703 -0.40298176
0.19663255 0.20926072 -0.068049796 -0.31414482 0.099623226 -0.21134 0.12824014 0.11630216
0.39089748 0.099027656 -0.021229975 0.29421932 0.046274226 -0.2814335 0.11617644 0.25493833
0.13008793 0.33659992 -0.9948276 0.40031123 -0.10558714 0.017296834 -0.109581485 -0.28396112
0.14659345 0.09429321 -0.41933277 0.073457 -0.08543602 -0.75603944 -0.2423204 0.009827949
-0.40285653 -0.17524034 -0.034272842 -0.013858969 -0.25823662 0.33417842 0.6895575 -0.4468261
-0.29570502 -0.45117503 -0.45903894 -0.4127479 0.10430897 0.06499465 -0.41566476 0.22124828
0.56907797 -0.17947371 0.08286758 0.15166406 -0.1582772 0.18417537 -0.09919516 -0.9240265
-0.2816558 -0.13895588 -0.06687582 -0.21433747 -0.06465803 0.22446355 -0.2423532 -0.6244621
0.48711035 -0.23745464 -0.24666288 0.09105307 -0.3987802 -0.041708346 0.07409288 -0.46700963
-0.014766609 0.06251427 -0.079171956 0.45311153 -0.13643137 -0.0076642823 0.25064763 -0.18543087
0.2003355 -0.098129235 0.055665 0.045104954 0.12984128 -0.05095162 -0.03664574 -0.39265844
-0.14364918 -0.097718224 -0.038267296 -0.0037485645 0.2605924 0.06576589 0.16439946 -0.38903993
-0.03035306 -0.038073473 1.8818889 0.16107492 0.16408536 -0.14936934 0.69293046 0.55147624
0.21044457 0.061432537 -0.022838952 0.0523716 0.05018102 -0.13857679 -0.24160405 0.039299745
0.12711306 0.36342815 1.4330294 0.16205175 -0.064672664 0.013279402 -0.11098847 0.14138705
-0.5058343 -0.031173492 0.0022054194 -0.12157798 0.036407508 0.124735765 -0.14661613 -0.2824347
0.14066628 -0.030358493 0.45250252 0.022173258 0.15380713 -0.0700452 -0.19248313 0.033442914
-0.09705921 -0.40399644 -0.21479224 0.118978456 -0.067891285 -0.19535479 -0.17439273 -0.36269686
0.17259717 0.04298963 0.21459985 0.23672679 -0.47729886 -0.46282086 0.093378596 0.3643789

parallel_cnn_block.branches.0.0.weight f4 [1, 1, 2]
00000000: 7315 b93e 8645 423f
0.36149177 0.75887334

parallel_cnn_block.branches.0.2.bias f4 [16]
00000000: 5209 133d b58d 863e 472f 6b3f 185e 163f
00000010: 89f7 0bbf 5a35 bebc 90ec 4aba 55b4 b3be
00000020: 289f 7cbe 4df3 963e 95fa 033e ef07 bf3e
00000030: e523 33bc eafb ce3e 2160 583e 4453 c33e
0.03589756 0.2627999 0.91869015 0.58737326 -0.54674584 -0.0232188 -0.0007740939 -0.3509852
-0.24670088 0.294825 0.12888558 0.3731074 -0.010933851 0.4042657 0.2113042 0.38149464

parallel_cnn_block.branches.0.2.weight f4 [16, 1, 2]
00000000: 0d4b 0abf 5965 0c3f 7cc7 57be c0d8 8e3e
00000010: f492 c6bd fd78 69bf 4009 63bf b89d a7bf
00000020: ce73 c3bd 8ac6 53be 7fe1 0f3f 6284 403e
00000030: 59ab c4be ac51 cb3e f681 eebe db09 0abf
00000040: e456 9cbe 4685 c63e cdb9 8fbd 8857 cebc
00000050: f2a6 0abf cbd6 013f cd2d b6be 976b a43e
00000060: 811a d93e 92f9 da3e 3000 c63e 1f52 29be
00000070: aff0 f5be 72b9 cd3e d880 eabd 0874 713d
-0.5402077 0.54842144 -0.21072191 0.27899742 -0.09695998 -0.9120024 -0.8868599 -1.3095007
-0.09543572 -0.20681205 0.56203455 0.188005 -0.38411978 0.39710748 -0.46583527 -0.5392129
-0.30535042 0.38773555 -0.070178606 -0.025188223 -0.5416099 0.50718373 -0.35581818 0.32113335
0.42403033 0.42768532 0.38672018 -0.16535233 -0.4803519 0.40180546 -0.11450356 0.058948547

parallel_cnn_block.branches.1.0.weight f4 [1, 1, 4]
00000000: 3e94 cc3e b46a a2bc 39c8 24be 3708 a3bd
0.3995685 -0.01982627 -0.16092004 -0.07960551

parallel_cnn_block.branches.1.2.bias f4 [32]
00000000: 2a9a a9be 3e3f 233e cfa7 3a3d f9ec f23d
00000010: 0c87 f4be 7334 7fbe e945 c93e 2520 b13d
00000020: b0ef 793d b725 c23c 6ba3 293e 32ac ee3d
00000030: 6342 0a3e d7fd 57bf 8a1c 873e 3747 02bf
00000040: 5d98 06bf bfb9 4dbe 87a9 43be f6bf 9ebe
00000050: fbce 3ebf abe3 b13d e3cb a8be b8d6 663e
00000060: 43a8 abbe 6a7b a63e 7f9e d5be 1422 583e
00000070: 3d84 d8be fbf4 e5be 8512 e23d 1f9c 95be
-0.3312543 0.15942094 0.04557019 0.11861605 -0.47759283 -0.24922352 0.3931115 0.08648709
0.0610196 0.023699624 0.16566245 0.116539374 0.13501887 -0.84371704 0.2638896 -0.50889915
-0.5257624 -0.20090388 -0.19107638 -0.3100583 -0.7453458 0.08686002 -0.32968053 0.22542846
-0.3352681 0.32516032 -0.41722485 0.2110675 -0.4228839 -0.44913468 0.110386886 -0.29220673

parallel_cnn_block.branches.1.2.weight f4 [32, 1, 4]
00000000: 8774 cdbd c5db 2d3f e11d 0fbf d6a1 65bf
00000010: 9a53 abbf 989c 94bf 1737 633e b17f 483f
00000020: 6bc8 0bbd a991 623e 278f 5bbf f30e 1b3f
00000030: 5035 a4bf 6ce8 a6bf c615 b43e 55da 2e3f
00000040: 42a3 d73e 61ab 523d b5fd ad3e 4ae8 673f
00000050: 788b 103f 40f0 bebf fc51 123f dab7 99be
00000060: 79ae 8abf 92f8 27bd 677f b5be 7237 a93e
00000070: ec82 de3d 3d86 053f da3e c33d fd76 65bf
00000080: 9a6f 2cbf b4d0 133e ebe1 503f 4500 2fbf
00000090: cdcc 063f 74ff 583f c1f4 d73d d17c b93e
000000a0: ec04 1a3e 80cd 333e 9fe8 7bbf df76 853e
000000b0: 86f2 aabf bef6 5ebe b99f 093e 7803 293f
000000c0: e3cf 2c3e f9ca 363e c0d7 2ebf e6a8 76bf
000000d0: ff28 97bd 0172 c83b 2df5 323f 3957 413e
000000e0: 2d3d 30bf b47c 1fbf d200 023d 6703 ac3e
000000f0: d447 b03e e16c ccbe c439 debe ddcc e53e
00000100: 83c3 91bf 56a1 193f 930e 9ebc 0e7a 3ebe
00000110: 90e2 363c a4f1 e3bd ce97 94be d672 453f
00000120: f6da 84bd cf64 813f a2f7 533f cd60 fbbe
00000130: 4b85 203f 7344 07be 2ef2 053f 74d0 d13e
00000140: 43d0 22bd fc19 78bc 0b07 6f3f faa6 de3d
00000150: 713f cfbe 11dc 793e 8eeb e5be 4fe1 dd3e
00000160: 760b 1c3f dcf4 4f3f f14e 463f ccfd 3a3f
00000170: bf8e adbf e480 d4bd 21da 893e 076b 233e
00000180: e6d2 3a3e 8bf8 fa3e 54d8 c3be 188c 013f
00000190: 8e98 6bbf acb4 8dbc fc47 8cbe cc13 cb3e
000001a0: 47a8 363f a500 c83d cf82 d83e f325 d53e
000001b0: a8a8 26bf 9b76 8bbf a774 8a3e d102 113f
000001c0: bec8 ed3e 83e3 0fbc f878 483f eefa 243f
000001d0: d196 ed3d 33e5 5c3f 794e 883f 5c7e d8bd
000001e0: a186 68bd 00db 883e 3f4c 7dbf dd5a 21bf
000001f0: 2870 173f 3248 89bd 2a8a 2dbe 592b 233f
-0.100319915 0.67913467 -0.55904967 -0.8970007 -1.3384888 -1.1610289 0.22188984 0.7831984
-0.03412668 0.22125877 -0.8576531 0.60569686 -1.282877 -1.303968 0.35172862 0.683019
0.42116743 0.05143297 0.33982626 0.9058882 0.5646281 -1.4917068 0.5715635 -0.3002308
-1.0834495 -0.04100854 -0.35448763 0.33050114 0.10864815 0.52157956 0.09533472 -0.89634687
-0.6735779 0.14435083 0.81594723 -0.68359786 0.5265625 0.8476479 0.1054473 0.3622804
0.1504094 0.17558861 -0.98401827 0.26067254 -1.3355262 -0.21773812 0.13439836 0.6602092
0.16876177 0.17850865 -0.6829796 -0.9635147 -0.07380866 0.006117106 0.6990536 0.18880929
-0.68843347 -0.62299657 0.031739064 0.33596346 0.344298 -0.39926818 -0.43403447 0.4488286
-1.138779 0.60011804 -0.019294059 -0.18601248 0.011162415 -0.11130074 -0.29022068 0.7712835
-0.06487076 1.0108889 0.8279973 -0.4909729 0.6270339 -0.13209705 0.5232266 0.4097935
-0.039749395 -0.015142914 0.9337012 0.10871692 -0.4047809 0.24400355 -0.44906276 0.4333596
0.6095499 0.81233 0.77464205 0.73043513 -1.3559188 -0.103761464 0.26924232 0.15958796
0.18244514 0.49017748 -0.38250983 0.5060439 -0.92029655 -0.017298065 -0.2739867 0.3966354
0.7135052 0.09765748 0.422873 0.41630515 -0.651011 -1.089557 0.27042124 0.5664492
0.46442217 -0.00878227 0.78309584 0.6444539 0.116010316 0.8628723 1.0648948 -0.10570976
-0.056769017 0.26729584 -0.9894447 -0.6302927 0.5915551 -0.06703223 -0.16947237 0.6373802

parallel_cnn_block.branches.2.0.weight f4 [1, 1, 8]
00000000: 7e07 c63d 7ab3 923e 03fa 00be 663c e53e
00000010: 64d9 a2be bc56 01bf 15be 3abe 5745 a83e
0.09669398 0.28652555 -0.12595372 0.44772643 -0.3180648 -0.5052297 -0.18236573 0.32865402

parallel_cnn_block.branches.2.2.bias f4 [64]
00000000: 7e44 893d 58bd 60bf 3be0 0bbe a9b5 b1bd
00000010: ccd6 72bd 41f1 953e 0940 c5be a9d0 6bbf
00000020: 4797 4a3e ef82 ad3e 4e23 5f3e f83f 313e
00000030: 19fb 9bbf 780d cb3e 022a 1c3e c37f 9cbf
00000040: cc6a 333e 86db 03bd 592b 3fbc 1463 abbe
00000050: 11d6 8cbf d575 18be 2829 d6be 2b1c 3e3e
00000060: ab6e 3f3d 4932 5fbf 7f94 eabe 6392 833e
00000070: 521f 3b3e 3dcd 95bf b7b0 643c 3d67 4d3e
00000080: f5c9 8f3d 6046 d8be 3bb7 2abf 2ddb 02ba
00000090: ce8e 4d3e 6396 f3bd 4ca7 40be be21 9f3e
000000a0: 47f8 2cbc e361 eabe 6085 1d3e d9ab 883e
000000b0: a95c 893e ae0c 3e3e 978d d23e ccd4 dbbd
000000c0: 5beb 52bf 4c15 b1bd b01b 653d 49c3 00bd
000000d0: de6b ed3c 2633 ef3a 3c1c bcbb 76d3 59bf
000000e0: 1b3c b33c 8c20 a43b ab57 34bf f633 56bf
000000f0: e413 1d3b 5021 433d 0262 28bf 305c 34bd
0.06702517 -0.87788916 -0.13659756 -0.08677227 -0.059286878 0.29285625 -0.38525417 -0.92115265
0.1978427 0.33888957 0.21790811 0.17309558 -1.2186004 0.39658713 0.152504 -1.222649
0.17521209 -0.032191776 -0.01166805 -0.33474028 -1.1002828 -0.148887 -0.41828275 0.18565433
0.0467364 -0.87186104 -0.4581642 0.25697622 0.18273667 -1.1703259 0.013958148 0.20058914
0.07020942 -0.42241192 -0.6668584 -0.0004991766 0.20074007 -0.11893918 -0.18813819 0.3108043
-0.010557241 -0.45777807 0.1538291 0.2669361 0.26828507 0.18559524 0.4112365 -0.10733947
-0.82390374 -0.0864664 0.055934608 -0.03143624 0.0289821 0.0018249496 -0.0057406705 -0.8508829
0.021879246 0.0050087627 -0.7044627 -0.83673036 0.0023968155 0.04763919 -0.6577455 -0.04403323

parallel_cnn_block.branches.2.2.weight f4 [64, 1, 8]
00000000: c80b 4abe 2219 2fbe 12a3 923e 4091 203f
00000010: f0f2 03be da39 62be 53c8 ae3e 8b67 34bf
00000020: 7793 2d3e d629 3ebe 66e9 e63d 58d6 393e
00000030: ab9d 8a3c 2b8d bbbc e483 313d 0783 c63e
00000040: 7a9f 55be 74bd dc3e bf85 07bf 7958 85bd
00000050: b2fc 2d3f d270 533e 925d 3bbf 3ae7 7d3e
00000060: 62e9 263f 9ae2 22bc f407 9bbe 1ec9 a4bd
00000070: 0043 e63e 665f 9dbe a06a 6a3e 3b08 ccbb
00000080: b206 00be 9e11 793e 6fef 20bd 7a89 d03d
00000090: 6c2b 073f cd22 ba3e de86 023e d944 15be
000000a0: e46b 9e3e e193 bfbd 2b50 373d e35e 04bf
000000b0: 9f94 91bd c294 aabe c4b8 aabe ddae 953e
000000c0: 91aa 323f 16d7 fb3d d08b 8f3c 1ca9 853d
000000d0: ad26 293d 3593 79be 260e 953e ea6d e43a
000000e0: b214 17bf cb09 a9be c1db 673d 0a2d 83bb
000000f0: c59d 28bf 711d d33e 7636 863e 1f8a 0abb
00000100: 2fdd e6be 7428 973e 7fcb 973e 6c98 f33e
00000110: ba14 f4bd 675a 653e c7ae 5dbd 0e44 90be
00000120: afb9 0d3f a6b6 82be f8eb f4be 22c8 a4be
00000130: 2d5e eb3e ae12 bdbe 0ece ad3d 383f 33be
00000140: 1f3e 52be f3ea 95bd 238f 873e 8ef4 343f
00000150: 4962 05be ac77 02be 2352 8bbd 1849 dfbe
00000160: 5325 883b 2b1b 333d 04e5 d73e 4544 383e
00000170: dfc7 553d 88da bf3d 4abf c4be c77c 3cbf
00000180: 518d d83b bf56 b43e 52d2 5d3d 6126 55bd
00000190: 8f41 073c 1d95 d23d 23ed 45bd 0ede 933e
000001a0: cd41 20bf 0d13 a6bd 9d0e cebc 3b16 7ebd
000001b0: 7712 4dbe 0b85 0ebf de68 55bd c82e c23e
000001c0: bb83 6dbe 4859 1bbe d47f a1be b845 2fbf
000001d0: 10d7 dfbe 75b1 123f 8b35 f1bd cff9 973e
000001e0: f75d d1be 29eb 07be 12b6 56bb 16eb d7be
000001f0: e01c 90be 5359 ea3d a677 973d c65d 853e
00000200: 5a0f 7b3c 48e1 e4bd 0497 00be 7628 903e
00000210: 4638 053e a804 06be ba5d d53c 2a90 8a3e
00000220: 7efb 9a3e 57c1 81bd 0fcd b9be bcdb db3e
00000230: 465c ab3e 59dd e33e 6f55 e53e 34a3 62be
00000240: 9628 44be 7d32 c63e 6df6 adbe 7e6a 10bd
00000250: 997e 8c3e 21fc 023e fed8 993e 1b7e 21be
00000260: 3af3 6dbd 0ac0 b1bd 7c52 84be 08a0 b2be
00000270: c9da 86be 8d74 e63b bd46 58be 9ba4 b0bc
00000280: 5dd8 c1be a4c4 10bf 0cac 443e 1def 56be
00000290: dffa acbe 675e 723d 71c5 603e e92a 763e
000002a0: 23be 9e3e 7a22 0ebe 2275 5a3e 3866 1d3f
000002b0: 1991 d43e 549f aebe 1207 193e 2d78 af3e
000002c0: 17fa fb3e cb9c 28bf 8908 57be bf2b ee3d
000002d0: e022 cdbe 21c1 f6bc a9f0 f63e fb1f 51be
000002e0: 7dd7 393c f671 b73d adce 32be 0d87 323e
000002f0: 4904 463e 9a28 b9bd 74df 43be 5801 10bd
00000300: 69e9 873e e790 ad3e 0e29 33bf b3dd 10c0
00000310: 3555 c6bd 736a cb3e ee50 fb3e ae5e 8a3e
00000320: 6fb4 81bf 4b2b 12bd 3a8c 8fbe 11cd d33c
00000330: c757 ac3e 8ef4 2e3e f6af bc3e eed2 013f
00000340: cdb6 4c3d f98d e73d 5eed 62be e0ff 763e
00000350: a86c 24bf 704f a33c f28a c43e 0928 8f3e
00000360: 24fd 713e 81e0 3fbd 983b 9a3e cbda de3d
00000370: 40c5 66bd aee2 dabb 6458 a4be 184f eabe
00000380: 95c2 cbbe beff 88be ac22 cb3e 2e97 443e
00000390: e747 c5bd 985b a73e 7cb6 93bd 246c 80be
000003a0: 757a 92bd ffea c1be 324d 943e 67c4 a9be
000003b0: 94ee f0be 397c f73d f8a7 60bd fe2a 7e3e
000003c0: 9ff6 f4bf bcc6 943e f765 e83c b830 713f
000003d0: ad23 163d dc33 c23e 5a0c 50bf 6ec7 783e
000003e0: e9c1 0c3f da94 0abd 396f fd3d cfba a0be
000003f0: fa38 123e 204e 07bf ae84 9b3e dd60 20bf
-0.19731057 -0.17099431 0.28640038 0.62721634 -0.12885642 -0.22092381 0.3413721 -0.70470494
0.16950785 -0.18570647 0.11274986 0.18148172 0.016920885 -0.022894463 0.04333867 0.3877184
-0.20861617 0.4311329 -0.52938455 -0.065110154 0.6796371 0.20648506 -0.7318965 0.24795237
0.65199864 -0.009941721 -0.30279505 -0.080461726 0.44972992 -0.30736846 0.22892237 -0.006226567
-0.12502554 0.24323127 -0.03929084 0.101824716 0.5280063 0.36354676 0.1274676 -0.14577045
0.3094169 -0.093543775 0.04475419 -0.51707286 -0.07108425 -0.33316618 -0.3334409 0.29234973
0.69791514 0.12296884 0.017522722 0.06526396 0.04129665 -0.24372561 0.29112357 0.0017427776
-0.59015954 -0.33015284 0.056606058 -0.004003172 -0.6586574 0.412334 0.26213425 -0.0021139455
-0.45090625 0.2952305 0.29647443 0.47577226 -0.11918016 0.22397767 -0.05412176 -0.28176922
0.55361456 -0.25529975 -0.4783628 -0.3218394 0.45970288 -0.36928314 0.084865674 -0.17504585
-0.2053151 -0.07320204 0.26476392 0.7068566 -0.13025774 -0.12740964 -0.06802776 -0.43610454
0.00415484 0.04372708 0.42166913 0.17994793 0.052192565 0.093678534 -0.38427192 -0.73627895
0.006608643 0.35222432 0.054155655 -0.052038554 0.0082553765 0.10282347 -0.048321854 0.28880352
-0.62600404 -0.081091024 -0.025153453 -0.06203292 -0.20026575 -0.5567176 -0.052101962 0.37926316
-0.23194782 -0.15170777 -0.31542838 -0.6846576 -0.43718767 0.5730203 -0.11777791 0.29682776
-0.40892002 -0.132733 -0.003276233 -0.42171544 -0.2814703 0.114428185 0.07395868 0.26048106
0.015323484 -0.111757815 -0.12557608 0.2815587 0.13009748 -0.13087714 0.026045669 0.27063113
0.30269998 -0.06335705 -0.3628926 0.42941082 0.33468837 0.44504812 0.44791743 -0.2213257
-0.19156107 0.38710395 -0.3397707 -0.03525781 0.27440336 0.12791492 0.30048364 -0.15770762
-0.058093287 -0.08679207 -0.2584418 -0.3488772 -0.26338795 0.007032937 -0.21120735 -0.021562865
-0.37860385 -0.5655005 0.19206256 -0.20989652 -0.3378515 0.05917206 0.21950318 0.24039806
0.31004438 -0.1388034 0.21333745 0.614841 0.4151695 -0.34105933 0.14944103 0.34271374
0.4921424 -0.6586425 -0.2099935 0.11629438 -0.4006567 -0.030121388 0.48230484 -0.20422356
0.01134288 0.08957283 -0.17461653 0.1743433 0.19337572 -0.09040947 -0.1912821 -0.03515753
0.26545265 0.33899614 -0.6998452 -2.2635314 -0.09684221 0.39729652 0.49085182 0.2702536
-1.0133189 -0.03568582 -0.28036672 0.02585462 0.3366072 0.17085478 0.36852998 0.5071248
0.04997902 0.11306376 -0.22160861 0.24121046 -0.64228296 0.01993534 0.38387257 0.27960232
0.23631722 -0.046844963 0.3012359 0.10881575 -0.056340456 -0.0066798544 -0.32098687 -0.4576347
-0.39796892 -0.26757616 0.3967489 0.19198295 -0.09632855 0.32687068 -0.072125405 -0.25082505
-0.07152263 -0.378746 0.28965145 -0.33157656 -0.4705702 0.120842405 -0.054847687 0.24821088
-1.9137763 0.29057872 0.028368933 0.94214964 0.036655117 0.3793019 -0.81268847 0.24294826
0.54983383 -0.033833362 0.1237473 -0.31392524 0.14279547 -0.52853584 0.30374664 -0.626478

parallel_cnn_block.branches.3.0.weight f4 [1, 1, 32]
00000000: bf2d 123d d8b4 9cbd 7601 c1bc c0b0 4a3c
00000010: 2c3f 3cbc e026 80bc 535d 1c3c d5fe 72bd
00000020: 647c ca3d b02d fd3d 3e69 403e 0efe ce3d
00000030: 7604 0b3e 3007 9f3c 0b39 abbc b389 a23d
00000040: 470f a8bc 722b 7c3e 85e4 c43e 39b7 143e
00000050: ce54 a03e 8366 7f3d 9ef9 513d 33c5 d1bd
00000060: 68f0 313d 8653 bf3c ee64 bebd 0c66 da3c
00000070: ee2b dcbb 2035 82bc 33da 923c 1c5f e2bc
0.035688158 -0.07651681 -0.023560267 0.012371242 -0.011489671 -0.015643537 0.009543735 -0.059325058
0.09887007 0.1236223 0.18790147 0.10107051 0.1357592 0.019412607 -0.020901224 0.0793642
-0.020515097 0.24625948 0.38455597 0.14523019 0.313147 0.062353622 0.051263444 -0.10242691
0.04344216 0.023355257 -0.092965946 0.026659988 -0.006719104 -0.015894473 0.017926311 -0.027633242

parallel_cnn_block.branches.3.2.bias f4 [16]
00000000: 2ebf 343f 5437 173f fd40 adbc 4e60 523e
00000010: b96c 1b3f 4d03 023f 525b 543d 9a75 823e
00000020: 2b86 573e 93d5 b53d 99bf 173e 405d 903e
00000030: 7dc8 023f bfb6 863e 6a6a 00be 50b4 1c3e
0.7060422 0.590688 -0.021149153 0.2054455 0.6071277 0.50786287 0.051844902 0.25480348
0.21047275 0.08878627 0.14819182 0.28196144 0.5108717 0.263113 -0.12540594 0.15303159
