wide/modelpars_wide_i_22.safetensors (safetensors, 86584 bytes, 32 tensors)

bilstm.bias_hh_l0 f4 [64]
-0.10992534 0.25248897 0.17210385 0.12348974 -0.14483064 -0.025642779 0.0040198998 0.12523662
-0.17885819 -0.037826665 0.034296174 -0.017642675 -0.023360869 0.16715604 0.2045779 0.058978263
0.168186 -0.1394166 0.11725083 -0.062067248 -0.1238296 0.23354135 -0.039670907 0.047638044
0.27762988 0.25480705 0.19434053 0.22828032 -0.16446838 -0.08251698 -0.05645741 0.004351448
0.046893563 0.0734248 0.21902551 0.17362875 0.07141186 -0.06672942 0.26277608 0.05473279
-0.21388963 0.11234523 -0.075830504 0.047474608 -0.22182609 0.104586735 0.11326873 -0.17872815
-0.16195692 0.009591897 0.016493704 0.23192409 0.19062981 0.12955806 -0.13354962 0.009076935
-0.16319624 0.22232246 -0.043008246 -0.13250491 0.069815636 -0.17983393 -0.09564452 0.23210357
00000000: 8920 e1bd 3c46 813e fe3b 303e 30e8 fc3d
00000010: 7c4e 14be ce10 d2bc 5db9 833b 073e 003e
00000020: 9a26 37be 22f0 1abd 257a 0c3d 5f87 90bc
00000030: 4b5f bfbc f42a 2b3e de7c 513e 3193 713d
00000040: f338 2c3e 3ac3 0ebe 3421 f03d 3a3a 7ebd
00000050: 609a fdbd 7725 6f3e f67d 22bd 1c20 433d
00000060: 8125 8e3e 1276 823e 3401 473e 51c2 693e
00000070: 666a 28be aafe a8bd e33f 67bd 9796 8e3b
00000080: 7713 403d be5f 963d 3948 603e bccb 313e
00000090: 6240 923d 6fa9 88bd 968a 863e 7d2f 603d
000000a0: e205 5bbe 4215 e63d 064d 9bbd bc74 423d
000000b0: 6126 63be 9231 d63d 70f9 e73d 8304 37be
000000c0: 09d8 25be 5527 1d3c ce1d 873c 827d 6d3e
000000d0: 7634 433e deaa 043e 3bc1 08be 6db7 143c
000000e0: ea1c 27be 80a8 633e 6a29 30bd 5eaf 07be
000000f0: 80fb 8e3d 6326 38be 46e1 c3bd 8fac 6d3e

bilstm.bias_hh_l0_reverse f4 [64]
0.07348851 0.23917712 0.20753473 0.095699616 -0.018324504 0.1283467 -0.095802076 -0.06452121
-0.0853166 -0.053399093 -0.083392344 -0.034027893 0.100660995 0.11212473 0.14981946 0.15979075
-0.27696022 -0.11088148 -0.021339811 0.081597246 -0.159239 -0.12755582 0.27084136 0.1466613
0.17788276 0.08872057 0.09704516 0.054744102 0.21536209 -0.10788584 0.0021420487 -0.017740268
-0.16227698 0.024279157 0.22647262 -0.07884756 -0.08418675 0.1492312 -0.12010643 -0.17414394
0.25261196 0.15511851 -0.20209259 0.21277675 -0.01343746 -0.15592133 -0.17166288 0.0036187011
-0.05999988 -0.2836436 0.11867704 0.0154533805 0.15063785 -0.09660083 0.2754048 -0.15318517
-0.10603419 -0.16538823 0.19956848 0.12703574 0.16507277 0.2503202 -0.019164784 0.032409757
00000000: 2581 963d d9ea 743e fc83 543e 29fe c33d
00000010: 451d 96bc 516d 033e e133 c4bd b223 84bd
00000020: 78ba aebd 02b9 5abd 9bc9 aabd d560 0bbd
00000030: 5a27 ce3d a7a1 e53d 466a 193e 30a0 233e
00000040: bbcd 8dbe d415 e3bd d4d0 aebc 751c a73d
00000050: 8c0f 23be fe9d 02be b8ab 8a3e 612e 163e
00000060: e626 363e 21b3 b53d 9dbf c63d 5a3b 603d
00000070: e187 5c3e 40f3 dcbd 9d61 0c3b 0a54 91bc
00000080: f02b 26be 15e5 c63c 70e8 673e d47a a1bd
00000090: 1a6a acbd 10d0 183e 5cfa f5bd ca52 32be
000000a0: 5b56 813e 63d7 1e3e 5cf1 4ebe 26e2 593e
000000b0: cb28 5cbc d7a9 1fbe 65c8 2fbe bb27 6d3b
000000c0: 6fc2 75bd bc39 91be f30c f33d 2d30 7d3c
000000d0: cf40 1a3e a8d6 c5bd dc01 8d3e 93dc 1cbe
000000e0: 7428 d9bd 885b 29be ae5b 4c3e a815 023e
000000f0: d608 293e f829 803e 77ff 9cbc 18c0 043d

bilstm.bias_ih_l0 f4 [64]
-0.11271283 0.04065095 0.23540717 -0.0318097 0.118709445 -0.02132687 -0.18618944 0.03103908
0.26221755 -0.20746112 -0.13614184 0.037560243 0.102188654 0.07701175 -0.10813994 -1.1930359e-05
0.06979378 0.06037201 0.1660586 0.21500546 0.20086536 0.1528916 -0.17058529 0.19900721
-0.057896934 0.11926953 -0.16953692 0.20528866 0.1792332 -0.1485704 0.25587186 0.24921408
0.09963552 0.13749635 0.18761258 -0.22749263 0.13510421 0.0055127107 0.18286091 0.12536226
0.02791001 -0.20910655 -0.2225914 -0.13300686 0.19008364 -0.24765918 0.16464628 0.19751383
0.21781535 -0.14551793 -0.15186495 0.21957532 -0.1816344 0.16870698 -0.1623544 0.15752684
0.30047485 0.2875522 -0.16203184 0.07963112 0.13793041 -0.010083068 -0.15344943 0.16908413
00000000: fcd5 e6bd 9c81 263d 940e 713e e34a 02bd
00000010: f01d f33d b0b5 aebc 72a8 3ebe ab45 fe3c
00000020: 6141 863e b070 54be c468 0bbe c5d8 193d
00000030: 4948 d13d 56b8 9d3d 7978 ddbd 8028 48b7
00000040: 0bf0 8e3d a448 773d 440b 2a3e 642a 5c3e
00000050: a6af 4d3e 9e8f 1c3e e9ad 2ebe 8cc8 4b3e
00000060: 5625 6dbd 9543 f43d 169b 2dbe 3137 523e
00000070: e888 373e d722 18be a301 833e fa31 7f3e
00000080: b50d cc3d d8cb 0c3e 831d 403e d4f3 68be
00000090: c258 0a3e f8a3 b43b e43f 3b3e f75e 003e
000000a0: 89a3 e43c 0720 56be 00ef 63be f332 08be
000000b0: 49a5 423e 5e9a 7dbe 0999 283e 1141 4a3e
000000c0: fd0a 5f3e a702 15be 7c82 1bbe 5ad8 603e
000000d0: 5efe 39be 86c1 2c3e 3b40 26be b74e 213e
000000e0: d7d7 993e 0b3a 933e adeb 25be a415 a33d
000000f0: a13d 0d3e 7433 25bc d921 1dbe 6424 2d3e

bilstm.bias_ih_l0_reverse f4 [64]
-0.08676184 0.20137066 0.18670848 -0.1408539 -0.06230244 0.23747256 0.212647 0.058613695
-0.09641436 -0.1384368 -0.00016161744 -0.025836201 -0.010820783 0.26273617 0.20537975 -0.17878973
-0.0801447 -0.042565487 -0.20392904 -0.23885316 -0.09685602 0.14149196 -0.12151971 0.040330607
0.25719315 0.00074081717 -0.071245484 0.2552112 0.079293266 0.26005363 -0.09587046 -0.037327155
-0.16616291 0.19099692 0.22160214 -0.17338718 -0.065552056 -0.030129036 0.18950315 -0.13365455
-0.1492368 0.014768693 -0.263492 0.09195152 0.03970548 0.089759424 -0.036551204 0.04225529
0.17790557 -0.07065518 0.046057448 -0.09773961 0.25635123 0.1726899 0.14894837 0.23609029
0.23527199 0.24254471 -0.182255 -0.18192434 -0.097631425 0.08264693 -0.32775882 -0.033343498
00000000: 31b0 b1bd 1c34 4e3e 8230 3f3e 013c 10be
00000010: d830 7fbd 022c 733e 23c0 593e ea14 703d
00000020: e474 c5bd 60c2 0dbe da77 29b9 71a6 d3bc
00000030: a749 31bc 5b85 863e 124f 523e a814 37be
00000040: e822 a4bd 2659 2ebd c6d2 50be ec95 74be
00000050: 735c c6bd 45e3 103e 53df f8bd b531 253d
00000060: d2ae 833e 6633 423a 27e9 91bd 0bab 823e
00000070: 8264 a23d c025 853e bb57 c4bd 5ce4 18bd
00000080: 9c26 2abe b294 433e aceb 623e 698c 31be
00000090: 2840 86bd 2bd1 f6bc 1d0d 423e bddc 08be
000000a0: 88d1 18be 63f8 713c 6ce8 86be 1451 bc3d
000000b0: 37a2 223d cad3 b73d b7b6 15bd e213 2d3d
000000c0: e12c 363e aab3 90bd bca6 3c3d b42b c8bd
000000d0: 7840 833e 9fd5 303e ec85 183e a7c1 713e
000000e0: 24eb 703e a45d 783e 0ea1 3abe 604a 3abe
000000f0: fcf2 c7bd cb42 a93d 01d0 a7be 3193 08bd

bilstm.weight_hh_l0 f4 [64, 16]
-0.03417914 -0.020076597 0.00393507 -0.098060586 0.16564602 -0.17760865 0.0038166922 0.09022123
0.15578955 0.042930614 -0.28924876 0.17127556 0.16855067 -0.08955145 -0.1397514 -0.049325585
-0.22727153 -0.1008846 -0.11442499 -0.22292815 -0.25928405 0.013264249 -0.1255489 0.17980912
0.1904942 -0.18612437 0.18010281 -0.02763051 0.12421091 0.14541012 0.26508665 -0.119488515
0.23133998 -0.08977494 -0.15177937 0.07252824 0.21536532 0.101380035 0.20099613 0.16515598
-0.16943908 -0.08886909 0.08066827 -0.11213441 -0.026204823 -0.2529639 0.059953336 0.2684909
0.0032417125 -0.054518797 0.26403332 -0.052296378 -0.21338393 0.08415841 0.058308534 0.0038532466
-0.16203278 -0.17907766 0.19620962 -0.22663805 0.2587539 0.009762893 -0.073890224 -0.15772481
-0.15032858 -0.1692818 -0.040963683 0.09011927 -0.1488933 0.09663143 0.05494335 -0.18717764
-0.008441317 -0.18596129 -0.08458423 -0.027783623 -0.07631804 -0.27942652 -0.16481057 0.16161926
0.2403 0.0090232855 -0.13563015 0.12771925 0.15102808 0.057154153 -0.050048795 -0.22095755
-0.13740908 -0.05202972 -0.22590946 0.059606392 -0.10237622 -0.005573528 -0.0648455 0.25163117
0.17028224 0.1071047 -0.11673439 0.1394448 -0.12383481 0.24740745 -0.12419013 0.10595542
0.03929563 -0.18027322 -0.21568075 0.017109584 0.47982618 -0.027400497 0.08074783 -0.2182595
0.00351497 0.036525484 0.024890803 -0.17956872 -0.21284659 0.15420051 0.046941653 0.09412846
-3.7182723e-05 0.20244835 0.042884856 0.06073722 -0.033652987 0.1439773 -0.10140143 0.25476545
0.090579964 -0.081737556 -0.0046386137 -0.25922814 0.048745494 0.09194816 -0.1724239 0.006219327
-0.10663602 0.16702722 -0.25743127 0.20096883 0.06068391 -0.23769607 0.07543536 0.25279567
0.0406893 -0.14579168 -0.20492472 0.05898622 0.11307065 -0.26055956 0.03671838 0.11733575
-0.16258253 0.26356542 0.21468982 -0.2403313 -0.122868024 -0.07859169 0.18706936 -0.16773538
-0.1129018 0.17423622 0.13363427 0.23628347 -0.022180134 -0.1286322 0.21239893 0.07034196
-0.01344861 0.170979 -0.039533358 -0.25886297 0.32624787 0.037980665 -0.2101404 0.061269723
0.07516211 -0.07723901 0.26464942 -0.27249548 0.10117578 -0.155201 0.29031003 0.14881659
-0.15305912 0.16842374 0.15349418 0.026142556 0.13577011 -0.018773103 -0.07587112 -0.15472184
-0.17772007 -0.5758413 -0.07990176 -0.07907674 -0.32859874 -0.17760222 0.28815314 0.026827125
0.0066716676 0.27862355 -0.3902608 0.008023441 -0.89987403 -0.12678297 0.1827514 0.26793203
-0.11064972 -0.04066355 -0.11391923 -0.23753472 0.05672036 -0.09945263 -0.124805756 0.11655699
-0.07552539 0.09996979 0.034349985 0.08267513 -0.06673276 -0.11644243 -0.1045777 -0.062314115
-0.07737521 0.16533124 -0.15620983 0.15690584 -0.16341011 0.1296934 -0.17687252 -0.20831712
-0.09088663 -0.013655122 0.14118479 0.0049809436 -0.13621813 0.012091063 -0.064565465 0.23875405
0.18100649 0.32473585 0.124722764 -0.13662262 0.24176756 0.1467565 0.20712548 -0.19029075
0.21703842 -0.25105378 -0.065997355 0.2066298 0.2705422 0.25837976 -0.23750693 -0.18715627
00000000: 6dff 0bbd ad77 a4bc c2f1 803b fdd3 c8bd
00000010: 1c9f 293e 0bdf 35be 7821 7a3b e9c5 b83d
00000020: 4c87 1f3e 03d8 2f3d 6a18 94be dc62 2f3e
00000030: 8c98 2c3e c066 b7bd fe1a 0fbe a009 4abd
00000040: deb9 68be 969c cebd a657 eabd 4747 64be
00000050: e1c0 84be 4b52 593c e48f 00be e21f 383e
00000060: e910 433e 6397 3ebe df6c 383e 6159 e2bc
00000070: 4a62 fe3d 64e6 143e 70b9 873e 65b6 f4bd
00000080: 63e4 6c3e ecdb b7bd 0d6c 1bbe b089 943d
00000090: ba88 5c3e 56a0 cf3d eed1 4d3e a61e 293e
000000a0: 7081 2dbe ff00 b6bd 6835 a53d baa6 e5bd
000000b0: 7fab d6bc 7c84 81be a191 753d a477 893e
000000c0: e972 543b 1a4f 5fbd 602f 873e ba34 56bd
000000d0: 5181 5abe 3f5b ac3d eed4 6e3d c086 7c3b
000000e0: eceb 25be 2260 37be 2deb 483e ce13 68be
000000f0: 647b 843e 8bf4 1f3c c253 97bd 9d82 21be
00000100: bcef 19be 3558 2dbe 89c9 27bd 7490 b83d
00000110: 7c77 18be b3e6 c53d 470c 613d 7fab 3fbe
00000120: 734d 0abc a36c 3ebe 7f3a adbd 7b9a e3bc
00000130: a24c 9cbd fe10 8fbe 1ac4 28be 857f 253e
00000140: 3411 763e 67d6 133c a1e2 0abe d6c8 023e
00000150: 1ba7 1a3e 791a 6a3d f7ff 4cbd b242 62be
00000160: f7b4 0cbe 1e1d 55bd cf54 67be d525 743d
00000170: a0aa d1bd 24a2 b6bb b8cd 84bd cdd5 803e
00000180: 785e 2e3e b559 db3d 7112 efbd 9eca 0e3e
00000190: 1b9d fdbd 6158 7d3e 6557 febd 28ff d83d
000001a0: 74f4 203d 8b99 38be 6adb 5cbe 6629 8c3c
000001b0: c7ab f53e 0277 e0bc 1e5f a53d 6b7f 5fbe
000001c0: 695b 663b bf9b 153d cce7 cb3c dde0 37be
000001d0: 75f4 59be bde6 1d3e e445 403d 6cc6 c03d
000001e0: a5f4 1bb8 9f4e 4f3e 08a8 2f3d 97c7 783d
000001f0: b7d7 09bd c96e 133e 8eab cfbd 9e70 823e
00000200: fd81 b93d 0566 a7bd 83ff 97bb 8db9 84be
00000210: 5ba9 473d 514f bc3d e48f 30be 7fcb cb3b
00000220: fc63 dabd 2f09 2b3e 08ce 83be c6ca 4d3e
00000230: b18f 783d 9966 73be db7d 9a3d 6f6e 813e
00000240: d3a9 263d 6a4a 15be c9d7 51be 899b 713d
00000250: 9691 e73d 1068 85be 0366 163d ba4d f03d
00000260: 097c 26be 0cf2 863e a6d7 5b3e 6919 76be
00000270: 3ba2 fbbd aef4 a0bd 1c8f 3f3e d3c2 2bbe
00000280: 0f39 e7bd fb6a 323e 6cd7 083e 4bf4 713e
00000290: 1db3 b5bc 29b8 03be 1b7f 593e 720f 903d
000002a0: 8f57 5cbc 1e15 2f3e bbed 21bd b089 84be
000002b0: f609 a73e 9d91 1b3d 0c2f 57be f6f5 7a3d
000002c0: 98ee 993d 7c2f 9ebd 2180 873e 8784 8bbe
000002d0: 3f35 cf3d 03ed 1ebe 84a3 943e 6063 183e
000002e0: 88bb 1cbe 4677 2c3e 942d 1d3e ea28 d63c
000002f0: 5207 0b3e 0dca 99bc 5162 9bbd 676f 1ebe
00000300: 40fc 35be 566a 13bf 89a3 a3bd fcf2 a1bd
00000310: 183e a8be 5bdd 35be cf88 933e 8fc4 db3c
00000320: 019e da3b bfa7 8e3e 43d0 c7be c074 033c
00000330: 255e 66bf 65d3 01be 2f23 3b3e 632e 893e
00000340: 529c e2bd d38e 26bd 7c4e e9bd 4d3c 73be
00000350: 9c53 683d d2ad cbbd 299a ffbd 6eb5 ee3d
00000360: 0ead 9abd f6bc cc3d 92b2 0c3d 9451 a93d
00000370: 2fab 88bd 5e79 eebd d52c d6bd 163d 7fbd
00000380: e576 9ebd 984c 293e 78f5 1fbe edab 203e
00000390: fb54 27be 59ce 043e 121e 35be 1551 55be
000003a0: c522 babd bcb9 5fbc bf92 103e 2f37 a33b
000003b0: c47c 0bbe 9819 463c e63a 84bd f17b 743e
000003c0: c459 393e c743 a63e a66e ff3d cde6 0bbe
000003d0: ea91 773e 5647 163e b418 543e 94db 42be
000003e0: 523f 5e3e 1f8a 80be 9f29 87bd c396 533e
000003f0: 8284 8a3e 5a4a 843e 0435 73be e5a5 3fbe

bilstm.weight_hh_l0_reverse f4 [64, 16]
0.08699692 0.24491212 -0.17242081 0.30948275 -0.12282672 0.049990453 0.18283942 0.0011825518
-0.19581322 0.15858217 -0.22820252 -0.12629041 -0.07160834 -0.21013789 -0.22164033 0.023030622
-0.033092804 0.26423916 -0.24261053 0.006468031 0.050839376 -0.017701374 -0.12317792 -0.19920595
0.11201569 0.03154982 -0.08547604 -0.16014127 -0.06726748 -0.11171632 -0.103925735 -0.013968971
0.20491539 -0.09412862 0.17662054 -0.19673993 0.252284 0.17333685 -0.035829302 -0.036263946
0.26355326 -0.17448035 -0.15345432 -0.08858408 -0.13408808 -0.022362487 -0.12117372 -0.0491075
0.078435674 0.27165478 -0.1862594 0.35627964 -0.05658324 -0.309916 -0.17519227 0.26192704
0.0786461 0.104954295 0.14384866 -0.06822574 0.30626628 0.10427939 0.27984983 -0.031531487
-0.15515715 0.26665673 0.3176424 0.34137863 0.3360919 -0.26670524 0.1941016 -0.5682591
0.30581164 -0.08224478 -0.31245098 0.11246293 0.29906186 -0.3968109 0.4262574 -0.27254322
0.2208821 -0.0050245738 0.19298282 -0.19207431 -0.022998404 -0.21302049 0.018977245 -0.18035385
-0.20624377 -0.2525724 0.19395316 0.111270286 0.07919112 -0.24949105 -0.14781833 -0.1592813
0.1046977 0.21858916 -0.006531712 0.25284833 0.08340615 0.18823338 0.26932418 0.022010934
-0.17263843 0.05213702 -0.11909672 0.06376626 0.17913954 0.16545089 -0.20627747 -0.09281997
-0.32858863 -0.1372228 0.094102725 0.3524276 0.013460981 0.063964106 -0.16859703 -0.2701753
0.09065438 0.020407327 -0.287079 0.3332055 0.06587829 -0.37623188 0.7861945 0.013826305
0.05284874 0.24693748 -0.18453312 -0.13823403 -0.13526468 -0.1438079 0.21862152 0.010897246
-0.103215046 -0.024325144 0.11510985 -0.09219096 -0.0120096635 0.1396638 0.02845047 -0.030531077
0.17016983 -0.048545707 0.22112896 -0.14480188 -0.13154922 0.05852761 -0.20766836 -0.16671695
-0.008661598 -0.16793953 -0.19355385 0.10941582 0.08954797 -0.13383128 -0.118457325 -0.2514239
0.18116479 0.073900536 0.0014495302 -0.048763502 0.029686214 0.040458538 0.14698125 -0.179029
0.014931024 0.07253035 0.15265962 -0.16254924 0.095045455 0.04341991 -0.09813946 -0.06587008
0.059463862 0.27322546 -0.104261376 -0.029755464 0.074286595 0.1367843 0.27751625 -0.2518508
0.24066418 -0.26414692 -0.02109218 -0.18564801 0.14411844 -0.056913733 0.007859565 0.03362719
-0.15252702 0.2076453 -0.16699262 -0.16372626 -0.013151825 -0.22354439 0.2656887 -0.1164858
-0.04580446 0.07855062 0.032841597 -0.0023895921 0.05992403 -0.034323696 -0.061621405 0.043601986
0.20906603 -0.2268065 -0.121943936 0.29981893 -0.15168273 -0.14402309 -0.024243185 0.043060794
0.20829599 -0.07451007 -0.29207867 -0.022183029 -0.028659437 0.081610106 -0.02671318 0.24427067
-0.21408677 0.15545554 -0.21023558 -0.08921733 -0.044895362 -0.11431413 0.09779079 -0.09172598
-0.24749486 -0.21858609 0.20425753 0.070560664 0.23744485 0.014593597 0.25571552 -0.03647388
-0.08617752 -0.2101551 -0.01261384 -0.03604429 -0.014318427 -0.07261909 -0.14441393 -0.112786666
0.14872003 -0.19888309 -0.041103527 -0.12060163 0.024650652 -0.09811483 0.0816591 0.19270225
00000000: 712b b23d 3eca 7a3e 158f 30be 8674 9e3e
00000010: 938c fbbd cac2 4c3d 423a 3b3e dbff 9a3a
00000020: 4383 48be 5d63 223e ecad 69be 4652 01be
00000030: 65a7 92bd 632e 57be aff5 62be b7aa bc3c
00000040: 528c 07bd 5b4a 873e e56e 78be c7f1 d33b
00000050: f33c 503d 7902 91bc b544 fcbd a5fc 4bbe
00000060: 7b68 e53d 623a 013d 100e afbd 13fc 23be
00000070: 88c3 89bd 87cb e4bd 04d7 d4bd 1cde 64bc
00000080: 57d5 513e 82c6 c0bd 04dc 343e 3176 49be
00000090: 5e2b 813e 377f 313e bfc1 12bd 8189 14bd
000000a0: 74f0 863e faaa 32be 2123 1dbe 926b b5bd
000000b0: 634e 09be 8931 b7bc ed29 f8bd f224 49bd
000000c0: e2a2 a03d 5616 8b3e c9ba 3ebe 496a b63e
000000d0: d4c3 67bd 4fad 9ebe 9a65 33be 4d1b 863e
000000e0: 3511 a13d 47f2 d63d 104d 133e f0b9 8bbd
000000f0: efce 9c3e 6f90 d53d 7a48 8f3e 2927 01bd
00000100: 84e1 1ebe 3b87 883e 06a2 a23e 2ec9 ae3e
00000110: 3d14 ac3e 978d 88be 92c2 463e 6e79 11bf
00000120: 5893 9c3e f46f a8bd 93f9 9fbe f752 e63d
00000130: a31e 993e cc2a cbbe 693e da3e c98a 8bbe
00000140: eb2e 623e 2ea5 a4bb 4a9d 453e 21af 44be
00000150: 2667 bcbc 0b22 5abe 2b76 9b3c aeae 38be
00000160: 9131 53be 2b51 81be a89b 463e ade1 e33d
00000170: f42e a23d 957a 7fbe b05d 17be a31a 23be
00000180: bf6b d63d d6d5 5f3e f907 d6bb 5675 813e
00000190: d8d0 aa3d 40c0 403e dce4 893e 4650 b43c
000001a0: 21c8 30be a18d 553d fbe8 f3bd e397 823d
000001b0: 5b70 373e f56b 293e 673a 53be 6518 bebd
000001c0: c53c a8be 2284 0cbe eeb8 c03d 6471 b43e
000001d0: 728b 5c3c 9dff 823d b3a4 2cbe 6b54 8abe
000001e0: 01a9 b93d 442d a73c 05fc 92be e999 aa3e
000001f0: 32eb 863d 77a1 c0be 0b44 493f ba87 623c
00000200: ec77 583d 2edd 7c3e 40f6 3cbe 398d 0dbe
00000210: d382 0abe 6142 13be 52de 5f3e 5d8a 323c
00000220: 6962 d3bd 8645 c7bc b7be eb3d 9dce bcbd
00000230: 2ec4 44bc 0704 0f3e f610 e93c 4f1c fabc
00000240: 0041 2e3e ddd7 46bd a16f 623e f246 14be
00000250: d7b4 06be a6ba 6f3d 04a7 54be d9b7 2abe
00000260: 60e9 0dbc 57f8 2bbe fb32 46be 6715 e03d
00000270: ed64 b73d 110b 09be c199 f2bd a2ba 80be
00000280: 4383 393e 2a59 973d 2afe bd3a 3dbc 47bd
00000290: 8130 f33c dab7 253d 4182 163e 6153 37be
000002a0: 41a1 743c cb8a 943d ce52 1c3e 4f73 26be
000002b0: 31a7 c23d 13d9 313d 57fd c8bd e4e6 86bd
000002c0: 6190 733d 35e4 8b3e fd86 d5bd bbc1 f3bc
000002d0: 9223 983d 2f11 0c3e 9c16 8e3e 97f2 80be
000002e0: ac70 763e 443e 87be 82c9 acbc 831a 3ebe
000002f0: c993 133e 601e 69bd 68c5 003c aabc 093d
00000300: 0b30 1cbe f8a0 543e 1d00 2bbe dba7 27be
00000310: c17a 57bc d2e8 64be 5908 883e 1b90 eebd
00000320: 759d 3bbd 26df a03d e984 063d b49a 1cbb
00000330: e672 753d 0197 0cbd ba66 7cbd ff97 323d
00000340: 6815 563e f73f 68be bebd f9bd de81 993e
00000350: b852 1bbe ca7a 13be a599 c6bc 8460 303d
00000360: 8b4b 553e bc98 98bd 568b 95be 2fb9 b5bc
00000370: 32c7 eabc 3323 a73d 99d5 dabc 1722 7a3e
00000380: 9039 5bbe bd2f 1f3e ff47 57be 93b7 b6bd
00000390: 33e4 37bd 871d eabd 8a46 c83d d5da bbbd
000003a0: 4b6f 7dbe 08d5 5fbe e328 513e 1c82 903d
000003b0: be24 733e fb19 6f3c 25ed 823e a365 15bd
000003c0: d77d b0bd e632 57be 48aa 4ebc 2da3 13bd
000003d0: d697 6abc 51b9 94bd 3fe1 13be b2fc e6bd
000003e0: 104a 183e 02a8 4bbe 2c5c 28bd fdfd f6bd
000003f0: 2af0 c93c 6ef0 c8bd e33c a73d bd53 453e

bilstm.weight_ih_l0 f4 [64, 32]
0.023395773 0.19883335 0.15961573 -0.10727586 0.22175774 0.04777376 0.015520046 0.11488855
0.27848 -0.07206562 -0.17622805 0.08971181 -0.13121498 0.24744515 -0.055197205 0.1251559
0.0036645425 -0.12976222 -0.06258186 0.14720021 0.24519564 0.045766603 0.28930318 0.1673459
-0.071479164 0.08448012 0.23951271 0.17951289 -0.10214413 0.14841715 -0.10847132 -0.0633765
0.2147934 0.059615795 0.084626146 -0.17270426 0.06324163 0.12191942 -0.035592187 -0.13097864
0.2803238 -0.11368421 0.19443987 0.12607723 0.0008202181 -0.102505 -0.19997832 -0.17645986
-0.04985645 0.03027564 0.23429261 0.14300197 -0.058535054 0.17366362 0.030018443 -0.028907783
0.166529 0.26667312 0.1949212 -0.026421938 -0.19966827 0.21446289 0.27503607 -0.14155231
0.08886352 0.24742512 -0.17652905 -0.18056525 0.21739359 0.23394571 0.08477489 0.07035956
0.13473025 0.177852 0.14055121 -0.20257445 -0.2136612 0.076021686 0.0851741 0.13748764
-0.0034629945 0.20343313 -0.10632282 0.24397518 -0.0012728281 0.07839982 0.25441298 0.16682063
-0.17684843 0.1568626 -0.036870684 0.1353537 -0.053879265 -0.0676082 0.27701852 0.20777398
0.18984886 -0.043865524 0.19122149 -0.22201216 -0.036867723 0.0601052 0.20649926 0.006073776
-0.14056951 0.2577209 -0.2425133 0.090484194 0.11482083 -0.20117387 0.21845312 0.16279542
0.08188366 -0.14569214 -0.18849649 -0.0884495 -0.083644815 0.26479855 0.08618562 0.03870596
-0.14903948 0.20231278 0.26572597 -0.14790009 0.13051043 0.20535672 -0.010241447 0.07112591
-0.20093492 -0.23356466 -0.00034930563 0.17450263 0.19559436 -0.12129119 -0.05738428 0.025412418
0.089766875 0.22882506 -0.108594075 0.14778413 0.018747801 -0.060671505 -0.049248874 -0.14861146
0.18108866 0.2730896 -0.1507123 -0.022088183 -0.0752564 -0.1900323 -0.0015905167 -0.09183656
-0.025289552 0.18196543 0.64089733 -0.09798942 0.07268313 -0.19094785 0.12586078 -0.08104417
0.028127758 0.029059954 0.015323906 0.18511681 -0.18484722 -0.27075684 -0.2567635 -0.1348523
0.056312583 0.0051539447 0.021905357 0.10962882 -0.11137459 0.18095766 -0.11562615 0.2095999
0.16328011 -0.23056489 -0.2231814 0.20504239 -0.115761176 0.27378085 0.0903946 0.1465949
-0.016889788 0.09977161 0.26323152 -0.09582961 0.13507214 0.11852287 -0.13207488 -0.017336767
0.277655 0.10689874 -0.2932103 -0.13104771 -0.24648176 0.039225005 -0.06743737 -0.0580756
0.14773366 -0.19279824 -0.0062653422 0.02451051 -0.07125115 0.20820913 0.11100419 -0.2337979
0.17178412 0.021088082 0.04169351 0.21287012 -0.007848266 -0.28510052 0.11817712 -0.1591161
-0.20367189 0.117957644 0.7912355 -0.18302765 -0.03255674 -0.2053561 -0.14446369 0.405962
0.14757645 0.13996297 -0.028900746 -0.07451671 0.21818161 0.02372459 0.23899132 -0.014928121
0.03792102 0.14276828 -0.18693906 -0.1304791 0.19192421 0.22618838 0.13273627 0.04542124
-0.044382803 -0.008363216 -0.15486419 0.15895745 0.080688395 0.1358355 -0.02780055 -0.007188135
-0.15567002 -0.057687994 0.09304094 0.18674357 0.0304385 0.16236646 0.22389175 0.06768136
00000000: 7ea8 bf3c f89a 4b3e 4e72 233e 72b3 dbbd
00000010: 7614 633e 6bae 433d cb47 7e3c b04a eb3d
00000020: ee94 8e3e 2497 93bd 2075 34be d3ba b73d
00000030: 385d 06be 4362 7d3e 7716 62bd de28 003e
00000040: d228 703b 63e0 04be eb2a 80bd a7bb 163e
00000050: 9114 7b3e c375 3b3d 8c1f 943e b95c 2b3e
00000060: ab63 92bd ea03 ad3d d242 753e 3ad2 373e
00000070: f130 d1bd aafa 173e 3626 debd 8acb 81bd
00000080: cdf2 5b3e b12f 743d 7950 ad3d 63d9 30be
00000090: d484 813d e4b0 f93d 1dc9 11bd 441f 06be
000000a0: 9a86 8f3e 44d3 e8bd 3f1b 473e 641a 013e
000000b0: e803 573a 24ee d1bd 1ec7 4cbe e5b1 34be
000000c0: 4736 4cbd 9e04 f83c 67ea 6f3e 1c6f 123e
000000d0: 74c2 6fbd e0d4 313e 3de9 f53c 04d0 ecbc
000000e0: 9486 2a3e 6189 883e 6c99 473e d272 d8bc
000000f0: d775 4cbe 299c 5b3e 87d1 8c3e 17f3 10be
00000100: 14fe b53d 035d 7d3e 08c4 34be 19e6 38be
00000110: 6d9c 5e3e 778f 6f3e 759e ad3d ac18 903d
00000120: baf6 093e d61e 363e a8ec 0f3e ad6f 4fbe
00000130: 00ca 5abe 42b1 9b3d c26f ae3d 8fc9 0c3e
00000140: 68f3 62bb c650 503e c7bf d9bd a1d4 793e
00000150: 06d5 a6ba 1690 a03d 6b42 823e 07d3 2a3e
00000160: c117 35be 97a0 203e b705 17bd 299a 0a3e
00000170: 81b0 5cbd 2b76 8abd 5fd5 8d3e b4c2 543e
00000180: bd67 423e 56ac 33bd 91cf 433e 2857 63be
00000190: 9c02 17bd df30 763d 8b74 533e 8706 c73b
000001a0: 74f1 0fbe fef3 833e 6855 78be c74f b93d
000001b0: 2f27 eb3d 8600 4ebe 2db2 5f3e d8b3 263e
000001c0: 9fb2 a73d 5230 15be 3905 41be 0325 b5bd
000001d0: f94d abbd ad93 873e 1682 b03d 248a 1e3d
000001e0: ce9d 18be 152b 4f3e 3c0d 883e 1f73 17be
000001f0: 87a4 053e 0849 523e becb 27bc 76aa 913d
00000200: e2c1 4dbe 932b 6fbe 0223 b7b9 d1b0 323e
00000210: e349 483e 8467 f8bd c70b 6bbd b42d d03c
00000220: b2d7 b73d 1e51 6a3e 9266 debd b954 173e
00000230: fd94 993c af82 78bd 30b9 49bd 9a2d 18be
00000240: 4e6f 393e 66d2 8b3e 5354 1abe 47f2 b4bc
00000250: 0720 9abd d497 42be e278 d0ba ce14 bcbd
00000260: 092c cfbc 2555 3a3e d911 243f adae c8bd
00000270: e5da 943d d587 43be a6e1 003e 7cfa a5bd
00000280: 2f6c e63c 240f ee3c 1f11 7b3c 438f 3d3e
00000290: 9748 3dbe a4a0 8abe 8176 83be b916 0abe
000002a0: 06a8 663d 6ce2 a83b dd72 b33c 1385 e03d
000002b0: 5c18 e4bd f74c 393e 67cd ecbd 5ba1 563e
000002c0: e732 273e 3419 6cbe aa89 64be a2f6 513e
000002d0: 3214 edbd 012d 8c3e ce20 b93d f91c 163e
000002e0: 745c 8abc 0f55 cc3d 48c6 863e 5142 c4bd
000002f0: 5a50 0a3e 1ebc f23d a33e 07be d605 8ebc
00000300: cc28 8e3e baed da3d a91f 96be 5f31 06be
00000310: b765 7cbe 66aa 203d 9b1c 8abd aee0 6dbd
00000320: 7e47 173e e76c 45be 804d cdbb 44ca c83c
00000330: 1fec 91bd c634 553e 2a56 e33d b768 6fbe
00000340: 2de8 2f3e eac0 ac3c d0c6 2a3d a0fa 593e
00000350: 0396 00bc b2f8 91be d906 f23d 55ef 22be
00000360: 5d8f 50be c793 f13d 698e 4a3f 9a6b 3bbe
00000370: 375a 05bd df48 52be 4aee 13be 40da cf3e
00000380: 481e 173e 7452 0f3e 42c1 ecbc 389c 98bd
00000390: 006b 5f3e 125a c23c 24ba 743e 1495 74bc
000003a0: 1253 1b3d d931 123e f46c 3fbe 509c 05be
000003b0: c887 443e ed9d 673e 04ec 073e 9f0b 3a3d
000003c0: beca 35bd df05 09bc b894 1ebe bec5 223e
000003d0: f53f a53d 7618 0b3e fbbd e3bc 728a ebbb
000003e0: f667 1fbe 3f4a 6cbd 408c be3d b539 3f3e
000003f0: 295a f93c 6543 263e e143 653e 869c 8a3d

bilstm.weight_ih_l0_reverse f4 [64, 32]
0.0638363 -0.051043365 -0.027943054 0.026334291 0.18420698 0.26706684 0.16219243 0.18976341
0.2272143 -0.055113263 -0.17121616 -0.15843047 0.115463376 -0.1846897 0.20407353 0.08880188
-0.2130609 0.07792517 0.06963612 0.065384455 0.1500878 0.20455492 0.010299095 0.030055158
-0.12639336 -0.042222105 0.7529819 -0.23257047 0.19886033 -0.21135531 -0.28287137 0.064523
-0.30667987 0.16249628 -0.1415118 0.24605392 0.16183797 -0.25150767 0.17274417 -0.25919667
0.10201028 -0.17733747 -0.32807302 -0.20267406 0.019603401 0.07379497 -0.030006224 0.13534105
0.122397706 0.22721784 0.15977216 0.23113923 0.15868096 -0.18555893 0.11151745 0.021012502
-0.0545345 0.002185687 -0.7603786 -0.19366728 -0.14018676 0.17941818 -0.058570188 -0.10371932
0.16896099 0.03306833 0.2567861 -0.022153052 -0.10546567 -0.11314658 0.09270846 -0.029505214
-0.00089926785 -0.07365865 -0.26422998 -0.15165153 0.22803855 0.09233743 -0.21057214 0.20513532
0.012234099 0.18499409 0.21346743 0.23330355 0.22545117 0.24077882 0.15869452 0.10487918
0.04472148 0.22410195 0.13210396 0.15477942 -0.0495508 0.07743312 0.16102324 0.20012443
0.06730882 -0.07009637 -0.2519154 -0.0639057 -0.29922315 0.1037953 0.14134745 -0.14984469
0.044528086 0.065395154 -0.03462308 0.13003756 0.19997518 -0.211637 -0.17947768 0.09653145
0.22854993 0.15260163 -0.08050499 0.20360436 0.05854973 -0.28742278 0.2367362 0.31152716
-0.31021857 0.2223447 -0.32798213 0.08444331 -0.09466004 -0.053683523 0.019310532 -0.25661537
0.15483218 0.100099176 -0.24669439 0.111298576 0.073064014 -0.30520862 -0.014104361 0.030471178
-0.17429785 -0.07070395 -0.013729984 0.19817434 0.11067881 0.25797212 0.44993532 -0.06507629
-0.042180426 -0.25404528 -0.24081393 -0.22182333 0.10405323 0.21956089 -0.15910274 0.12899111
0.25188288 -0.23455973 0.21826266 0.19393149 -0.15081549 0.054594077 0.047540538 -0.095811844
-0.14239113 -0.14414452 0.056414835 -0.12946957 0.03844055 0.018020635 0.06144277 -0.1712345
0.30633932 -0.011731503 -0.3010606 0.119828686 0.045789264 0.20727782 -0.057327855 -0.021530062
-0.034609534 0.1573925 -0.016624786 0.27008173 -0.13628897 0.15735978 0.22510892 0.15481324
0.17451009 0.0030818002 0.17488497 -0.026428698 0.23777263 0.24841385 0.18283717 -0.110907614
-0.0437498 -0.097718224 -0.18277137 0.2610094 0.12985697 0.32373416 0.27025235 -0.059015147
0.08961457 -0.060313776 0.2317212 0.26213086 0.26351994 0.18447624 -0.10100747 -0.20333149
0.15655193 0.26145828 0.09296444 -0.0167098 0.050053842 -0.104868345 -0.11419366 0.28030393
-0.0525673 0.09896812 0.62772185 0.06280137 0.023172565 -0.085463494 0.11390186 -0.08194844
-0.36864328 0.048239995 0.020963283 -0.10851011 0.04777745 0.09880944 -0.061643295 -0.21756336
0.08205972 -0.050927285 0.37521815 0.15184893 0.2544957 -0.0071729594 0.0984699 -0.010106692
-0.012121853 -0.19208504 -0.15837717 0.14814225 -0.07672068 -0.030508576 -0.056933418 -0.35231477
-0.010361739 -0.14646354 0.24926135 -0.010638099 -0.27698225 -0.17776948 0.2456094 0.22004475
00000000: 9bbc 823d d912 51bd d5e8 e4bc 03bb d73c
00000010: c1a0 3c3e fcbc 883e c615 263e 5751 423e
00000020: deaa 683e 72be 61bd 4a53 2fbe 993b 22be
00000030: 1078 ec3d 4c1f 3dbe a7f8 503e c3dd b53d
00000040: a32c 5abe 3b97 9f3d 629d 8e3d 49e8 853d
00000050: 9eb0 193e d876 513e 89bd 283c 3c36 f63c
00000060: 436d 01be 16f1 2cbd 6cc3 403f f426 6ebe
00000070: 0ba2 4b3e 876d 58be 84d4 90be a224 843d
00000080: 2505 9dbe 6d65 263e 78e8 10be 8ff5 7b3e
00000090: dab8 253e 9dc5 80be d9e3 303e 6db5 84be
000000a0: c4ea d03d f497 35be 30f9 a7be ca89 4fbe
000000b0: 5097 a03c d121 973d 9dcf f5bc d896 0a3e
000000c0: a6ab fa3d cbab 683e 509b 233e c3af 6c3e
000000d0: 437d 223e 2903 3ebe 4363 e43d 6922 ac3c
000000e0: 915f 5fbd be3d 0f3b 2ca8 42bf b750 46be
000000f0: 1e8d 0fbe 66b9 373e 4be7 6fbd cb6a d4bd
00000100: 1c04 2d3e a872 073d 7879 833e 517a b5bc
00000110: 63fe d7bd 65b9 e7bd efdd bd3d ebb4 f1bc
00000120: d8bc 6bba 59da 96bd 2749 87be 8a4a 1bbe
00000130: f082 693e 681b bd3d 39a0 57be fe0e 523e
00000140: 8871 483c 176f 3d3e 3597 5a3e 20e7 6e3e
00000150: acdc 663e b98e 763e d180 223e e5ca d63d
00000160: df2d 373d fb7a 653e 4346 073e 7f7e 1e3e
00000170: c8f5 4abd 4195 9e3d 47e3 243e 6bed 4c3e
00000180: 35d9 893d b08e 8fbd 0efb 80be fee0 82bd
00000190: c733 99be a192 d43d 63bd 103e e370 19be
000001a0: 1563 363d e5ed 853d eed0 0dbd 9128 053e
000001b0: 4bc6 4c3e 5fb7 58be ffc8 37be 48b2 c53d
000001c0: fe08 6a3e 9a43 1c3e cddf a4bd a97d 503e
000001d0: d7d1 6f3d 1429 93be f96a 723e 7d80 9f3e
000001e0: f8d4 9ebe 54ae 633e 46ed a7be 9df0 ac3d
000001f0: 20dd c1bd 41e3 5bbd 1f31 9e3c 1763 83be
00000200: 548c 1e3e cc00 cd3d 749d 7cbe 82f0 e33d
00000210: 96a2 953d 4e44 9cbe fa15 67bc b19e f93c
00000220: 237b 32be 3ccd 90bd baf3 60bc 37ee 4a3e
00000230: 92ab e23d ec14 843e ec5d e63e b846 85bd
00000240: 62c5 2cbd 3912 82be ed97 76be a825 63be
00000250: dc19 d53d 92d4 603e d4eb 22be 3f16 043e
00000260: cbf6 803e 6d30 70be 3f80 5f3e fa95 463e
00000270: 606f 1abe 0a9e 5f3d deb9 423d 0039 c4bd
00000280: fbce 11be 9f9a 13be 3e13 673d ac93 04be
00000290: d773 1d3d 03a0 933c 6aab 7b3d 1958 2fbe
000002a0: 82d8 9c3e 7d35 40bc 9d24 9abe be68 f53d
000002b0: 868d 3b3d a340 543e 9dd0 6abd d05f b0bc
000002c0: bac2 0dbd 802b 213e b430 88bc 2748 8a3e
000002d0: 568f 0bbe ec22 213e f482 663e 5d87 1e3e
000002e0: c6b2 323e 07f8 493b 0c15 333e ff80 d8bc
000002f0: ab7a 733e 3360 7e3e ab39 3b3e 8823 e3bd
00000300: fe32 33bd 7e20 c8bd 6b28 3bbe 06a3 853e
00000310: 3af9 043e 7cc0 a53e 845e 8a3e deb9 71bd
00000320: d887 b73d 940b 77bd 5248 6d3e 0436 863e
00000330: 16ec 863e 57e7 3c3e 01dd cebd 2136 50be
00000340: 264f 203e dcdd 853e 2464 be3d fee2 88bc
00000350: 4205 4d3d 37c5 d6bd 5ede e9bd ff83 8f3e
00000360: cf50 57bd ccaf ca3d 61b2 203f 019e 803d
00000370: 64d4 bd3c 7c07 afbd 6145 e93d 95d4 a7bd
00000380: d0be bcbe 4d97 453d 31bb ab3c 8c3a debd
00000390: 4ab2 433d 9b5c ca3d ae7d 7cbd eec8 5ebe
000003a0: ed0e a83d 2199 50bd 981c c03e 497e 1b3e
000003b0: 434d 823e 250b ebbb 96aa c93d 8a96 25bc
000003c0: bd9a 46bc f1b1 44be a02d 22be 9ab2 173e
000003d0: bb1f 9dbd 1fed f9bc 0433 69bd 9a62 b4be
000003e0: 49c4 29bc 8afa 15be 5e3e 7f3e 6c4b 2ebc
000003f0: 9ed0 8dbe 3409 36be 0881 7b3e 6953 613e

parallel_cnn_block.branches.0.0.weight f4 [1, 1, 2]
0.34515384 0.6896768
00000000: 01b8 b03e a98e 303f

parallel_cnn_block.branches.0.2.bias f4 [16]
0.14270206 0.53080183 0.61219084 0.36771134 -0.54674584 0.057432935 0.082724534 -0.3509852
-0.06353965 0.46635088 0.21918316 0.5581987 0.045455422 0.5457539 0.32215995 0.5386428
00000000: 7d20 123e a1e2 073f 8ab8 1c3f a944 bc3e
00000010: 89f7 0bbf cc3e 6b3d 7b6b a93d 55b4 b3be
00000020: 1321 82bd 8bc5 ee3e 8d71 603e 1ce6 0e3f
00000030: 772f 3a3d 87b6 0b3f 26f2 a43e 7fe4 093f

parallel_cnn_block.branches.0.2.weight f4 [16, 1, 2]
-0.4936456 0.4367947 -0.07599107 0.38494614 -0.55574006 -1.2037627 -0.85337865 -1.1519836
-0.09543572 -0.20681205 0.5761478 0.21454789 -0.27123374 0.42267287 -0.46583527 -0.5392129
-0.29157376 0.33650222 -0.063640304 0.008579218 -0.44561166 0.47940454 -0.24864203 0.41596878
0.4703591 0.47849014 0.47942376 -0.07713078 -0.35996106 0.44151008 -0.12413804 0.06585655
00000000: 1ebf fcbe 8ea3 df3e 35a1 9bbd a917 c53e
00000010: fb44 0ebf e514 9abf 0677 5abf 3374 93bf
00000020: ce73 c3bd 8ac6 53be 6c7e 133f 71b2 5b3e
00000030: 26df 8abe 9468 d83e f681 eebe db09 0abf
00000040: 2849 95be 054a ac3e d955 82bd d98f 0c3c
00000050: 3627 e4be 8374 f53e 049c 7ebe dcf9 d43e
00000060: e8d2 f03e a9fc f43e 0877 f53e bef6 9dbd
00000070: d14c b8be 9c0d e23e 163c febd cddf 863d

parallel_cnn_block.branches.1.0.weight f4 [1, 1, 4]
0.32200783 -0.016031668 -0.12291946 -0.10331887
00000000: 36de a43e d854 83bc 33bd fbbd d898 d3bd

parallel_cnn_block.branches.1.2.bias f4 [32]
-0.3339224 0.12699227 0.048544157 0.14837989 -0.6378588 -0.2345897 0.4852086 0.09096859
0.046008945 0.14941011 0.25025484 0.21026503 0.19702476 -0.60992116 0.3409993 -0.41101375
-0.38810107 -0.25483268 -0.0292594 -0.18788418 -0.5858535 0.081889704 -0.15857124 0.33351642
-0.24647392 0.33959535 -0.22378638 0.35541832 -0.110053346 -0.33085126 0.050969593 -0.1442586
00000000: e0f7 aabe 430a 023e 3dd6 463d e6f0 173e
00000010: b74a 23bf 4838 70be 436d f83e bd4d ba3d
00000020: e073 3c3d f7fe 183e 6721 803e b74f 573e
00000030: dcc0 493e cb23 1cbf 7697 ae3e 6570 d2be
00000040: 2fb5 c6be 6e79 82be 69b1 efbc b664 40be
00000050: 7ffa 15bf cab5 a73d 8060 22be aac2 aa3e
00000060: a963 7cbe 71df ad3e 4228 65be 64f9 b53e
00000070: a663 e1bd 5665 a9be 7ec5 503d 87b8 13be

parallel_cnn_block.branches.1.2.weight f4 [32, 1, 4]
-0.20877966 0.3237405 -0.45223194 -0.5672813 -0.21882647 -0.53165495 -0.056858815 0.45748204
0.14710955 0.453614 -0.42205283 0.23655975 -0.21959813 -0.49815315 0.07743999 0.2831238
0.1164912 0.07968558 0.14711887 0.671733 0.41507518 -0.7563058 0.30128434 -0.3570016
-0.15383089 0.15709944 -0.2676296 0.09980718 0.056193095 0.29163817 0.111837186 -0.34654558
-0.51606095 0.1463218 0.58295685 -0.47604945 0.28555256 0.29357138 0.029751241 0.29706663
0.19773383 0.31815848 -0.48479646 -0.08008179 -0.22095448 0.08153513 0.079743944 0.44502446
0.25482738 0.3821849 -0.31650856 -0.43820846 0.038041033 0.13114893 0.3981845 0.25703955
0.03935963 -0.25830165 -0.028416263 0.108857416 -0.056602616 -0.39316994 -0.37713316 0.08806723
-0.6266157 0.30650845 -0.12979573 -0.15157928 0.035439745 -0.0149905775 -0.15582675 0.47426867
-0.10579262 0.44747934 0.39252788 -0.46771628 0.48959342 -0.3263461 0.10265891 0.20516689
0.02495863 -0.018058747 0.66641545 0.11188201 -0.15265469 0.19436687 -0.2481683 0.2014694
0.37018308 0.29112446 0.35825413 0.4494599 -0.20742208 0.11229413 0.3369779 0.3145054
0.07984264 0.33864447 -0.19810802 0.38830054 -0.20468764 -0.048756707 -0.3644636 0.16867423
0.35683683 0.17964676 0.041515548 0.33620855 0.1642572 -0.32067725 0.377609 0.38306516
0.30223817 0.06487974 0.45634526 0.63977957 -0.043254506 0.45983875 0.57717997 -0.12959836
0.1929822 0.27772078 -0.5002187 -0.4818527 0.37493852 -0.044236723 -0.14847943 0.4612318
00000000: 56ca 55be 51c1 a53e f28a e7be 5939 11bf
00000010: 0c14 60be 8a1a 08bf cae4 68bd 163b ea3e
00000020: e3a3 163e 1840 e83e 4f17 d8be b83c 723e
00000030: 55de 60be ee0d ffbe dc98 9e3d 9af5 903e
00000040: f092 ee3d 3232 a33d 54a6 163e b2f6 2b3f
00000050: bc84 d43e 429d 41bf f141 9a3e eac8 b6be
00000060: d885 1dbe adde 203e bf06 89be b567 cc3d
00000070: bb2a 663d 9951 953e e50a e53d 6c6e b1be
00000080: 921c 04bf 62d5 153e a93c 153f c1bc f3be
00000090: f233 923e fd4e 963e e0b8 f33c 1e19 983e
000000a0: bd7a 4a3e abe5 a23e 3e37 f8be ec01 a4bd
000000b0: e441 62be e4fb a63d cb50 a33d 3fda e33e
000000c0: bc78 823e bdad c33e 690d a2be dc5c e0be
000000d0: ead0 1b3d e84b 063e d7de cb3e b09a 833e
000000e0: 9037 213d 1d40 84be 39c9 e8bc a3f0 de3d
000000f0: 25d8 67bd 924d c9be 9917 c1be 985c b43d
00000100: e369 20bf adee 9c3e 2ce9 04be 9937 1bbe
00000110: 4429 113d 0a9b 75bc 0c91 1fbe 58d3 f23e
00000120: cda9 d8bd 031c e53e 6af9 c83e 8278 efbe
00000130: fdab fa3e d616 a7be d63e d23d 4517 523e
00000140: 0a76 cc3c f0ef 93bc 349a 2a3f 6522 e53d
00000150: 8351 1cbe 1c08 473e d51f 7ebe ff4d 4e3e
00000160: a388 bd3e 440e 953e 166d b73e 9c1f e63e
00000170: 7466 54be 77fa e53d 5e88 ac3e da06 a13e
00000180: 8a84 a33d cf62 ad3e d4dc 4abe 54cf c63e
00000190: a399 51be 1db5 47bd f99a babe f0b8 2c3e
000001a0: 51b3 b63e 52f5 373e 350c 2a3d 8723 ac3e
000001b0: 0a33 283e cf2f a4be f855 c13e 1e21 c43e
000001c0: f6be 9a3e abdf 843d 16a6 e93e 98c8 233f
000001d0: a32b 31bd fc6f eb3e 11c2 133f 6fb5 04be
000001e0: 209d 453e 6b31 8e3e 550e 00bf 66b5 f6be
000001f0: f1f7 bf3e 9131 35bd fe0a 18be 9326 ec3e

parallel_cnn_block.branches.2.0.weight f4 [1, 1, 8]
0.025518749 0.24739017 -0.07542326 0.36674023 -0.18829167 -0.4485176 -0.19770448 0.23541792
00000000: b20c d13c d953 7d3e 8377 9abd 60c5 bb3e
00000010: 88cf 40be 19a4 e5be 0b73 4abe 6511 713e

parallel_cnn_block.branches.2.2.bias f4 [64]
0.16004905 -0.7348124 -0.10251185 0.02976721 0.0434823 0.37066114 -0.4948946 -0.81373066
0.27095392 0.32452315 0.3512216 0.1447113 -0.88455653 0.2773176 0.19794883 -0.782264
0.2479525 -0.0048076035 0.103042506 -0.33474028 -0.88116574 -0.009960474 -0.26474538 0.24567941
1.6291015e-05 -0.6310998 -0.49216014 0.12836438 0.3052014 -0.9110173 0.042125355 0.12763081
0.0051236255 -0.31607735 -0.62813956 0.0043416447 0.28254452 -0.022792459 -0.18771292 0.3297616
0.15794313 -0.49322107 0.19213843 0.31730047 0.2948623 0.3036361 0.37833712 0.10453929
-0.5394559 -0.012525621 0.118805975 0.003946829 -0.00095573626 0.07379962 0.012479482 -0.84601283
0.24990575 0.12212203 -0.7657343 -0.43926424 0.061536994 0.015417234 -0.33852795 -0.001983198
00000000: e6e3 233e aa1c 3cbf bcf1 d1bd 5dda f33c
00000010: 7f1a 323d 4cc7 bd3e d362 fdbe a750 50bf
00000020: 79ba 8a3e e627 a63e 51d3 b33e 332f 143e
00000030: 4c72 62bf 93fc 8d3e 19b3 4a3e 7442 48bf
00000040: 43e7 7d3e 1a89 9dbb f307 d33d 1463 abbe
00000050: 1494 61bf 4231 23bc b58c 87be 6293 7b3e
00000060: b0a8 8837 c28f 21bf 6afc fbbe f471 033e
00000070: 5c43 9c3e 6e38 69bf a38b 2c3d a7b1 023e
00000080: 16e4 a73b e4d4 a1be c1cd 20bf 5b44 8e3b
00000090: ada9 903e 40b7 babc d137 40be 83d6 a83e
000000a0: d8bb 213e 7987 fcbe f0bf 443e 3575 a23e
000000b0: 31f8 963e 3176 9b3e 67b5 c13e b218 d63d
000000c0: c819 0abf 4338 4dbc 8c50 f33d 6754 813b
000000d0: 608a 7aba 4124 973d be76 4c3c 4c94 58bf
000000e0: 4be7 7f3e 1d1b fa3d 2a07 44bf 3ee7 e0be
000000f0: 370e 7c3d 9198 7c3c 8953 adbe 8bf8 01bb

parallel_cnn_block.branches.2.2.weight f4 [64, 1, 8]
0.023775509 -0.09155967 0.3099658 0.21825282 -0.049597558 -0.07420772 0.34527892 -0.22288321
0.0748143 -0.11857504 -0.1237751 0.13927889 0.015783334 0.015949467 -0.030229274 0.39779508
-0.19182576 0.4235897 -0.3655816 -0.12143076 0.42386124 0.063715845 -0.38290563 0.26767576
0.4491573 -0.002751358 0.10206221 0.12276525 0.11148077 -0.044242658 0.1824134 -0.18558024
0.020776208 0.24297196 -0.002258671 0.045817565 0.42999628 0.39522967 0.13545227 -0.2533127
0.22460558 -0.0024979708 0.21048257 -0.18101285 0.09928023 -0.32127905 -0.109230876 0.23669013
0.5096974 0.14693937 0.07798452 0.043743093 0.020437919 -0.20507334 0.22749601 0.23831658
-0.08207937 -0.16326754 0.13641867 0.16136996 -0.30685708 0.18605575 0.3425302 -0.026703568
-0.11920685 0.29710466 0.24096769 0.35946038 -0.16228731 0.2607163 -0.14242208 -0.12291043
0.34306195 -0.23830134 -0.010666694 -0.29087868 0.2401898 -0.061219305 0.0016456076 -0.3801466
0.08610162 0.09774462 0.36638078 0.37579507 -0.12154611 -0.12330199 -0.008931005 0.09346987
-0.009926741 0.04707971 0.30383465 0.09316499 -0.043002248 -0.050834894 -0.3546916 -0.12257119
-0.025553565 0.17961566 -0.13771167 -0.013499233 0.0911394 0.04975411 -0.014523082 0.35119653
-0.0059160287 -0.03410873 0.019362792 -0.1224841 -0.2674052 -0.12645184 -0.13141999 0.23288365
-0.14306839 0.106107906 -0.035514988 -0.10197382 -0.28051507 0.4177115 -0.033578135 0.12148572
0.053940713 -0.0605147 -0.13347054 -0.17042623 -0.05087437 0.046934746 0.07244683 0.28959236
0.22279666 -0.14541398 -0.09318303 0.2456339 0.11717852 -0.103812255 0.10351607 0.25749362
0.265323 -0.1862182 -0.14832453 0.31920406 0.4479747 0.45076314 0.36624095 -0.2725158
-0.023401039 0.37314674 -0.120415255 -0.11334149 0.18895675 0.20971076 0.07782241 -0.30256858
-0.058093287 -0.08679207 -0.2584418 -0.3488772 -0.26338795 0.007032937 -0.21120735 -0.021562865
0.15750131 -0.44402352 0.12937741 -0.10386208 0.080841206 0.038633842 0.10538172 0.19149214
0.3011628 0.11978689 0.28036633 0.45435345 0.14832406 -0.29961368 0.10752068 0.43077266
0.15284742 -0.24389325 -0.14372179 0.19346863 -0.18746142 -0.052554358 0.3536057 -0.1192002
0.2503108 0.22891179 -0.120881125 0.2592904 0.21803562 -0.06098656 -0.20784532 0.07737381
-0.05896362 0.37313846 -0.23514436 -0.79083157 -0.044855203 0.21873756 0.29488137 0.06671646
-0.28121698 0.0074951225 -0.07768449 0.1759835 0.24493635 0.18909745 0.19365183 0.16862261
-0.015966939 -0.047433365 -0.06824877 0.18756874 -0.3461536 0.0583212 0.2350217 0.16916674
0.075174995 -0.09771581 0.24516356 0.18185692 -0.24163027 -0.07389736 -0.33624423 -0.17745927
-0.22103755 0.10821691 0.35636795 0.051809546 -0.027139878 0.33718324 -0.17865722 -0.071638055
0.08583685 -0.16619773 -0.020240365 -0.28388804 -0.05319283 0.15835367 0.007739617 0.27423188
-0.37746873 0.096743576 0.24726947 0.38130593 -0.087471016 0.30607703 -0.3915996 0.32840556
0.16617368 -0.035040315 0.05809043 -0.1249869 -0.00053286983 -0.43905362 0.10646715 -0.38593724
00000000: dbc4 c23c a383 bbbd d6b3 9e3e ab7d 5f3e
00000010: cf26 4bbd 38fa 97bd 66c8 b03e 7f3b 64be
00000020: 3d38 993d 78d7 f2bd cd7d fdbd 209f 0e3e
00000030: 0d4c 813c 75a8 823c 62a3 f7bc ccab cb3e
00000040: f96d 44be c0e0 d83e 832d bbbe b1b0 f8bd
00000050: 5704 d93e 747d 823d 350c c4be cc0c 893e
00000060: f2f7 e53e 2150 34bb fe05 d13d 596c fb3d
00000070: 0850 e43d ca37 35bd 94ca 3a3e bf08 3ebe
00000080: de32 aa3c a4cd 783e 3606 14bb 33ab 3b3d
00000090: 7928 dc3e 8b5b ca3e 00b4 0a3e 34b2 81be
000000a0: 01ff 653e ffb4 23bb be88 573e 6f5b 39be
000000b0: 6f53 cb3d b07e a4be 70b4 dfbd e65e 723e
000000c0: 877b 023f 4677 163e 59b6 9f3d f52b 333d
000000d0: 6c6d a73c bffe 51be b7f4 683e 4309 743e
000000e0: 3b19 a8bd 9b2f 27be 56b1 0b3e 2b3e 253e
000000f0: 5f1c 9dbe 6685 3e3e 1e60 af3e 71c1 dabc
00000100: b922 f4bd 1a1e 983e 3cc0 763e 310b b83e
00000110: a52e 26be 9b7c 853e 18d7 11be 77b8 fbbd
00000120: d1a5 af3e 4405 74be 5bc3 2ebc 0dee 94be
00000130: 51f4 753e 18c1 7abd 6eb1 d73a 93a2 c2be
00000140: 0c56 b03d 552e c83d 4396 bb3e 3668 c03e
00000150: 2bed f8bd c185 fcbd 5a53 12bc 226d bf3d
00000160: c5a3 22bc a7d6 403d 3790 9b3e 49cd be3d
00000170: 2023 30bd 4038 50bd 239a b5be 9b06 fbbd
00000180: b655 d1bc 2bed 373e 4a04 0dbe e32b 5dbc
00000190: 4ba7 ba3d f7ca 4b3d 39f2 6dbc 08d0 b33e
000001a0: 3fdb c1bb 98b5 0bbd b89e 9e3c f2d8 fabd
000001b0: 56e9 88be 977c 01be f692 06be 0d79 6e3e
000001c0: 8580 12be 1a4f d93d 2a78 11bd a6d7 d0bd
000001d0: ac9f 8fbe 48de d53e 3a89 09bd 81cd f83d
000001e0: f0f0 5c3d 43de 77bd 80ac 08be 3784 2ebe
000001f0: a561 50bd a63e 403d 015f 943d 7345 943e
00000200: cf24 643e 67e7 14be bfd6 bebd 7487 7b3e
00000210: 4bfb ef3d 859b d4bd 3c00 d43d 34d6 833e
00000220: 6bd8 873e fcaf 3ebe 63e2 17be b76e a33e
00000230: f15c e53e 6dca e63e ef83 bb3e 3187 8bbe
00000240: 89b3 bfbc 170d bf3e 469c f6bd 951f e8bd
00000250: e17d 413e 6bbe 563e 5b61 9f3d 45ea 9abe
00000260: 3af3 6dbd 0ac0 b1bd 7c52 84be 08a0 b2be
00000270: c9da 86be 8d74 e63b bd46 58be 9ba4 b0bc
00000280: 0648 213e 0d57 e3be 837b 043e a4b5 d4bd
00000290: 1390 a53d 853e 1e3d 5fd2 d73d 8416 443e
000002a0: 0332 9a3e d452 f53d 2d8c 8f3e 04a1 e83e
000002b0: 43e2 173e f766 99be cd33 dc3d 3c8e dc3e
000002c0: 0984 1c3e 27bf 79be ce2b 13be a41c 463e
000002d0: e3f5 3fbe 3d43 57bd ce0b b53e 3c1f f4bd
000002e0: bd28 803e da67 6a3e 8690 f7bd b6c1 843e
000002f0: bb44 5f3e 0bcd 79bd 67d5 54be 2976 9e3d
00000300: d683 71bd 010c bf3e afc9 70be f073 4abf
00000310: 17ba 37bd bdfc 5f3e b1fa 963e a4a2 883d
00000320: acfb 8fbe a599 f53b 0c19 9fbd 0535 343e
00000330: 98d0 7a3e c3a2 413e aa4c 463e 68ab 2c3e
00000340: 19cd 82bc 7d49 42bd 03c6 8bbd 0512 403e
00000350: 0b3b b1be 36e2 6e3d 87a9 703e 0c3a 2d3e
00000360: 59f5 993d 3a1f c8bd 280c 7b3e b338 3a3e
00000370: ed6d 77be 8057 97bd 3428 acbe e2b7 35be
00000380: ab57 62be d4a0 dd3d dc75 b63e 3f36 543d
00000390: 7354 debc 48a3 ac3e ebf1 36be f9b6 92bd
000003a0: 3bcb af3d bd2f 2abe 1fcf a5bc c659 91be
000003b0: bae0 59bd 7727 223e 9d9c fd3b 1f68 8c3e
000003c0: 9543 c1be 7f21 c63d 3534 7d3e 883a c33e
000003d0: 0124 b3bd 21b6 9c3e be7f c8be c624 a83e
000003e0: 6f29 2a3e 6f86 0fbd 3bf0 6d3d 22f9 ffbd
000003f0: 4ab0 0bba a3cb e0be 730b da3d 9199 c5be

parallel_cnn_block.branches.3.0.weight f4 [1, 1, 32]
-0.008711868 -0.055931125 0.025647182 -0.022413954 0.0017354204 0.08376291 0.18633898 0.113502525
0.18440893 0.10732638 0.18857482 0.05404987 0.1724517 0.051857103 0.07572407 0.12402155
0.034566544 0.15368314 0.09915319 0.08909161 0.18742329 0.11981167 0.14146893 0.03477428
0.16729449 0.07331059 0.059623603 0.10606067 -0.04357787 -0.053683516 -0.012620795 -0.015692381
00000000: 39bc 0ebc 0918 65bd 0a1a d23c 789d b7bc
00000010: 0c77 e33a e38b ab3d a5cf 3e3e 0374 e83d
00000020: b2d5 3c3e efcd db3d c219 413e 6663 5d3d
00000030: 2e97 303e 1d68 543d 3915 9b3d 03ff fd3d
00000040: a695 0d3d 1d5f 1d3e d410 cb3d a975 b63d
00000050: e4eb 3f3e d25f f53d 3bdd 103e 7a6f 0e3d
00000060: 3f4f 2b3e dd23 963d e137 743d 5636 d93d
00000070: b57e 32bd 3fe3 5bbd 73c7 4ebc 4f8d 80bc

parallel_cnn_block.branches.3.2.bias f4 [16]
0.27738577 0.23618712 0.15936519 0.13088658 -0.1459514 0.079029694 -0.017425522 0.20783536
0.09005709 0.12147592 0.040327616 0.022497294 0.25032547 0.08582125 0.20097636 -0.15579686
00000000: 8205 8e3e 09db 713e a130 233e 2207 063e
00000010: 4974 15be 52da a13d f8bf 8ebc cbd2 543e
00000020: da6f b83d 5ec8 f83d 922e 253d 3f4c b83c
00000030: a92a 803e 0dc3 af3d bfcc 4d3e 3689 1fbe
