wide/modelpars_wide_i_62.safetensors (safetensors, 86584 bytes, 32 tensors)

bilstm.bias_hh_l0 f4 [64]
-0.27179363 0.14772654 0.14109015 0.15662418 -0.37456062 0.098223224 -0.20036717 0.13234615
-0.38561714 -0.065516315 0.023707304 -0.11973339 -0.11394046 0.02363362 0.14188872 0.008504525
0.13411921 -0.11619525 0.13544591 -0.026596218 -0.030488454 0.2894679 0.09403849 0.0773516
0.2698089 0.2566308 0.17526372 0.2712886 -0.15109141 -0.070408985 -0.06541242 0.018295541
0.09308293 -0.0347977 0.22262143 0.1632345 0.054946423 0.048525143 0.25325593 0.031407043
-0.20502213 0.10312067 -0.058002464 0.087246425 -0.1743668 0.12670282 0.025187762 -0.18717998
-0.1300817 -0.16306007 -0.018200874 0.17975058 0.15123366 0.22564171 -0.09967017 -0.061070904
-0.17259713 0.1677571 -0.008568864 -0.095274195 0.07173579 -0.16928123 -0.15392204 0.14084251
00000000: 8928 8bbe a045 173e f079 103e 1762 203e
00000010: 69c6 bfbe 4229 c93d 0d2d 4dbe c085 073e
00000020: 9c6f c5be 6b2d 86bd d235 c23c c836 f5bd
00000030: 9e59 e9bd 4b9b c13c 474b 113e 9056 0b3c
00000040: 8c56 093e c6f7 edbd 55b2 0a3e 50e0 d9bc
00000050: ecc2 f9bc 2335 943e 4097 c03d 846a 9e3d
00000060: 6424 8a3e 1d65 833e 5578 333e 57e6 8a3e
00000070: b5b7 1abe 9632 90bd f2f6 85bd 88e0 953c
00000080: 43a2 be3d 0888 0ebd dff6 633e f226 273e
00000090: 800f 613d 4dc2 463d c3aa 813e aca4 003d
000000a0: 52f1 51be ee30 d33d fe93 6dbd 41ae b23d
000000b0: 368d 32be 62be 013e 9156 ce3c 1cac 3fbe
000000c0: 2334 05be 38f9 26be 001a 95bc 8910 383e
000000d0: ffdc 1a3e 9f0e 673e e01f ccbd 7c25 7abd
000000e0: 4dbd 30be 84c8 2b3e 6c64 0cbc 1e1f c3bd
000000f0: 37ea 923d 0f58 2dbe bd9d 1dbe 0539 103e

bilstm.bias_hh_l0_reverse f4 [64]
0.049550455 0.18338148 0.17704873 -0.11534144 -0.21754749 0.11629138 -0.2106562 -0.21146874
-0.070474654 0.056026645 -0.1725374 -0.014784775 -0.090354815 0.046674706 0.17062159 -0.14686914
-0.23792371 -0.05793638 0.0091934595 0.07076219 -0.23445635 0.017297864 0.3046377 0.082672656
0.17799516 0.16372502 0.07536286 -0.04083346 0.32749328 0.011113742 -0.030662306 -0.028982915
-0.20302267 -0.00069573417 0.28321704 0.05902062 -0.037532542 0.1085363 -0.0851963 -0.14116558
0.2548852 0.12232089 -0.20613603 0.21661717 -0.013653969 -0.16098227 -0.15411416 -0.030980436
0.095434986 -0.14407155 0.02302513 -0.11343325 0.07079268 -0.21352917 0.11543034 -0.20310456
-0.13362129 -0.24083772 0.2090572 -0.14826849 0.11531732 0.2135747 0.04089119 -0.10629877
00000000: 6bf5 4a3d 5bc8 3b3e 434c 353e 2238 ecbd
00000010: c5c4 5ebe 2d2a ee3d 42b6 57be 438b 58be
00000020: 0455 90bd 327c 653d a5ad 30be d73b 72bc
00000030: f20b b9bd fa2d 3f3d 6db7 2e3e dd64 16be
00000040: 46a2 73be b34e 6dbd 2aa0 163c c4eb 903d
00000050: 5315 70be 40b4 8d3c 79f9 9b3e 4850 a93d
00000060: 5d44 363e 88a7 273e d857 9a3d fc40 27bd
00000070: 33ad a73e 6a16 363c 842f fbbc 946d edbc
00000080: 2de5 4fbe ee61 36ba d301 913e 9bbf 713d
00000090: b9bb 19bd 4848 de3d 667b aebd b68d 10be
000000a0: 5080 823e 6083 fa3d 5315 53be e4d0 5d3e
000000b0: e6b4 5fbc 89d8 24be 1ad0 1dbe afca fdbc
000000c0: 6b73 c33d 7e87 13be 339f bc3c b14f e8bd
000000d0: c1fb 903d 64a7 5abe be66 ec3d a4fa 4fbe
000000e0: 05d4 08be 2a9e 76be 1713 563e b2d3 17be
000000f0: 7d2b ec3d 53b3 5a3e 857d 273d 2bb3 d9bd

bilstm.bias_ih_l0 f4 [64]
-0.274581 -0.06411206 0.20439348 0.0013236854 -0.11101913 0.10253899 -0.39057657 0.038149808
0.055459213 -0.23515068 -0.14673106 -0.06453034 0.011608802 -0.06651094 -0.17082919 -0.05048583
0.035725784 0.08359386 0.18425353 0.25047606 0.29420647 0.20881797 -0.03687687 0.22871944
-0.06571719 0.12109476 -0.18861346 0.24829803 0.19261016 -0.13646266 0.24691781 0.2631583
0.14582583 0.0292738 0.1912085 -0.23788688 0.11863996 0.12076703 0.17333926 0.10203952
0.036776263 -0.21833119 -0.20476326 -0.09323401 0.23754293 -0.22554266 0.07656607 0.189062
0.24969034 -0.31817093 -0.18655999 0.1674018 -0.22103055 0.26479065 -0.12847516 0.08737882
0.2910746 0.23298651 -0.12759233 0.11686191 0.13985081 0.00046876114 -0.21172707 0.077823505
00000000: e195 8cbe 2f4d 83bd 864c 513e 837f ad3a
00000010: ff5d e3bd f6ff d13d a7f9 c7be f942 1c3d
00000020: 3329 633d 57cb 70be ab40 16be 7c28 84bd
00000030: d832 3e3c e336 88bd d9ed 2ebe 3bca 4ebd
00000040: 3355 123d 4233 ab3d f5ac 3c3e 663e 803e
00000050: 3ba2 963e 61d4 553e 330c 17bd 6e35 6a3e
00000060: bc96 86bd 8800 f83d e323 41be d741 7e3e
00000070: 993b 453e debc 0bbe 06d8 7c3e afbc 863e
00000080: 5e53 153e 9ccf ef3c 29cc 433e 9e98 73be
00000090: 82f9 f23d b454 f73d d97f 313e 19fa d03d
000000a0: b5a2 163d 3692 5fbe 76ad 51be 79f1 bebd
000000b0: 743e 733e a8f4 66be acce 9c3d 7899 413e
000000c0: d3ae 7f3e 4de7 a2be 9509 3fbe 616b 2b3e
000000d0: d555 62be a492 873e fe8e 03be abf3 b23d
000000e0: bb07 953e 0494 6e3e 90a7 02be 4c55 ef3d
000000f0: 0d35 0f3e 0ec4 f539 fbce 58be ee61 9f3d

bilstm.bias_ih_l0_reverse f4 [64]
-0.11069979 0.14557548 0.15622245 -0.35189623 -0.26152545 0.22541745 0.09779242 -0.08833352
-0.08157241 -0.0290109 -0.08930701 -0.006592936 -0.20183678 0.19728604 0.22618188 -0.48544914
-0.041107878 0.010379735 -0.17339544 -0.24968883 -0.1720735 0.28634498 -0.08772274 -0.0236589
0.2572961 0.07574526 -0.092927784 0.15963486 0.19142778 0.37905198 -0.12867492 -0.04856969
-0.2069086 0.16602238 0.27834672 -0.03551875 -0.018897446 -0.07082432 0.22440998 -0.10067609
-0.14696053 -0.01803389 -0.26753557 0.09579189 0.039489035 0.08469727 -0.01900164 0.007656156
0.33333966 0.06891665 -0.04959432 -0.22662728 0.17650518 0.055761337 -0.011025548 0.1861709
0.20768556 0.16709521 -0.17276628 -0.45722628 -0.14738703 0.045902696 -0.2677024 -0.1720524
00000000: 92b6 e2bd bd11 153e c7f8 1f3e be2b b4be
00000010: aae6 85be d5d3 663e 6447 c83d 34e8 b4bd
00000020: 700f a7bd 44a8 edbc 98e6 b6bd 8e09 d8bb
00000030: 4dae 4ebe 5a05 4a3e 399c 673e ca8c f8be
00000040: bc60 28bd c40f 2a3c 938e 31be 6eae 7fbe
00000050: 0934 30be cf9b 923e fba7 b3bd 4fd0 c1bc
00000060: 50bc 833e 5520 9b3d ec50 bebd 5277 233e
00000070: a505 443e 1a13 c23e 5cc3 03be 03f1 46bd
00000080: d9df 53be c501 2a3e 7683 8e3e 1c7c 11bd
00000090: d1ce 9abc 570c 91bd bbcb 653e 442f cebd
000000a0: d27c 16be cfbb 93bc 6cfa 88be 8a2e c43d
000000b0: 41bf 213d c375 ad3d 54a9 9bbc 7ee0 fa3b
000000c0: 7fab aa3e 2c24 8d3d 6a23 4bbd fb10 68be
000000d0: c6bd 343e 0066 643d 80a4 34bc 96a3 3e3e
000000e0: 86ab 543e 021b 2b3e a5e9 30be 9019 eabe
000000f0: a0ec 16be 7704 3c3d 4a10 89be 812e 30be

bilstm.weight_hh_l0 f4 [64, 16]
0.091997415 -0.11515877 -0.08533805 -0.051807303 0.10479805 -0.35056102 1.1282574 0.115278885
0.2769788 -0.089703426 -0.50727606 0.14018169 0.13466057 -0.21455508 -0.17668104 0.39045286
-0.19553964 0.042182762 -0.2055549 -0.10268415 -0.20367905 -0.0038875022 0.58340484 0.2602954
0.27008098 -0.21950173 0.32659653 0.00093746046 0.02242871 0.09765715 0.430224 0.41685
0.23042184 -0.09595593 -0.12992038 0.046955522 0.21048352 0.11680157 0.20127998 0.14916793
-0.1932506 -0.08701982 0.09412213 -0.12925097 -0.035980854 -0.26522556 0.06488768 0.26903778
-0.042707123 -0.048170578 0.3150417 -0.07374191 -0.21574146 0.114745356 0.079061136 -0.028773606
-0.21952073 -0.15291181 0.18083419 -0.27813178 0.14712831 -0.0029747235 -0.06886813 -0.15078294
0.005865183 0.2546047 -0.23520258 0.28783005 -0.13888724 -0.1248863 0.41338375 -0.11617223
0.20430513 -0.3162186 -0.16579415 0.27055958 0.3073285 0.14230177 -0.70103145 0.42509252
0.28759745 0.21850944 -0.097809054 0.108199276 0.16451485 -0.0042344383 0.21621555 -0.25800958
-0.17089468 -0.13316455 -0.2977118 0.057649978 0.12328859 0.23485331 -0.45233896 0.369448
0.32718354 0.49832693 -0.33095926 0.32845005 0.13477771 0.46768293 -0.1961467 0.32018763
0.28876197 -0.29368332 -0.17326045 0.34812996 1.349408 0.47265947 -0.37839755 -0.4446458
0.0024121332 0.0357594 0.02135088 -0.17697752 -0.21326722 0.15136203 0.047133483 0.09763198
0.0034421196 0.20304868 0.039965764 0.06229003 -0.033874653 0.1463698 -0.101951115 0.25504947
0.092552155 0.52275795 -0.21336956 -0.048848227 0.28070945 -0.027588714 -0.1813916 0.2446019
0.010117214 0.04927286 0.059233263 0.42640847 0.08528933 0.024449162 0.16722569 -0.04822629
-0.013134356 -0.19639312 -0.24569881 0.10784973 0.06810554 -0.28943205 0.2653889 0.13081719
-0.15072176 0.30116633 0.31696558 -0.33322543 -0.38824198 -0.30250698 0.3885855 0.11315271
-0.09976542 0.19117947 0.13586244 0.22188084 -0.017440414 -0.17454068 0.3134709 -0.04562979
-0.00088966254 0.042398673 -0.344363 -0.2515392 0.38024172 0.078879274 -0.32841054 0.26854834
0.18549907 0.008194482 0.1565492 -0.1661703 0.20461656 -0.22815922 0.5287296 0.2703346
-0.068960816 -0.16863073 0.420046 -0.03553633 -0.48535547 -0.22993712 0.26158762 -0.1435697
-0.23917738 -0.49914092 -0.1605366 0.019343134 -0.24824367 -0.09890751 0.7929128 0.13225363
0.042421974 0.1972183 -0.12309021 0.0023873383 -0.9701117 -0.059025947 0.56871915 0.69777143
-0.00615085 0.23172641 -0.23990072 -0.11024683 0.23731776 -0.13839117 0.56838584 0.24945499
0.015814144 -0.23583983 0.18209566 0.13855748 -0.3700799 -0.22427697 0.3207289 0.7686438
-0.07096008 0.38347197 -0.21876574 0.2399758 -0.1096247 0.03435265 0.51105875 -0.18809274
-0.023690848 -0.3231179 0.19734114 0.03649445 -0.56490076 -0.021981822 0.07274111 0.40152243
0.27513373 0.52513605 0.059568815 -0.09167563 0.3737931 0.35113177 0.17133617 -0.13890111
0.33390352 -0.32671604 -0.050101176 0.6483875 0.7547781 0.9876064 -0.10255616 0.18895085
00000000: 2469 bc3d 5cd8 ebbd b7c5 aebd e533 54bd
00000010: 5ca0 d63d bc7c b3be bd6a 903f 5617 ec3d
00000020: 2ad0 8d3e 6eb6 b7bd d8dc 01bf ca8b 0f3e
00000030: 76e4 093e 54b4 5bbe e0eb 34be 70e9 c73e
00000040: 8b3b 48be d5c7 2c3d fc7c 52be 114c d2bd
00000050: 3e91 50be 77c5 7ebb 055a 153f 7045 853e
00000060: 0e48 8a3e 10c5 60be a937 a73e e8bf 753a
00000070: 6abc b73c 7900 c83d 5246 dc3e 5d6d d53e
00000080: b4f3 6b3e 8b84 c4bd d909 05be 6f54 403d
00000090: fe88 573e a935 ef3d 571c 4e3e 7abf 183e
000000a0: 7ce3 45be 7337 b2bd 1ac3 c03d 5e5a 04be
000000b0: a960 13bd a5cb 87be d5e3 843d 52bf 893e
000000c0: aaed 2ebd 834e 45bd 254d a13e 0006 97bd
000000d0: 54eb 5cbe 9dff ea3d ceea a13d a0b6 ebbc
000000e0: 0bca 60be ea94 1cbe 992c 393e 4a67 8ebe
000000f0: cea8 163e 94f3 42bb bc0a 8dbd d866 1abe
00000100: b930 c03b 8c5b 823e f2d8 70be 765e 933e
00000110: 7538 0ebe 63c4 ffbd 09a7 d33e b5eb edbd
00000120: 5d35 513e 68e7 a1be f1c5 29be c986 8a3e
00000130: 295a 9d3e 8eb7 113e cc76 33bf baa5 d93e
00000140: f93f 933e f0c0 5f3e 1d50 c8bd 9597 dd3d
00000150: 9576 283e 0bc1 8abb 9c67 5d3e d519 84be
00000160: 04ff 2ebe 4a5c 08be ae6d 98be 6222 6c3d
00000170: ba7e fc3d 637d 703e f998 e7be 4a28 bd3e
00000180: 9a84 a73e b524 ff3e 7e73 a9be 9b2a a83e
00000190: 2b03 0a3e 2374 ef3e aeda 48be a2ef a33e
000001a0: 9cd8 933e a95d 96be 306b 31be 173e b23e
000001b0: 67b9 ac3f 6c00 f23e 53bd c1be 9da8 e3be
000001c0: e114 1e3b 7378 123d 0ae8 ae3c 9839 35be
000001d0: b962 5abe a6fe 1a3e 0a0f 413d 47f3 c73d
000001e0: 2f95 613b feeb 4f3e 24b3 233d d523 7f3d
000001f0: 26c0 0abd f7e1 153e bfcb d0bd d895 823e
00000200: fc8b bd3d 77d3 053f 8d7d 5abe 1415 48bd
00000210: 26b9 8f3e ba01 e2bc b8be 39be ec78 7a3e
00000220: acc2 253c 57d2 493d 949e 723d 3652 da3e
00000230: 2cac ae3d 9c49 c83c 363d 2b3e ee88 45bd
00000240: 7b31 57bc 471b 49be 7898 7bbe 52e0 dc3d
00000250: eb7a 8b3d 7030 94be 0ee1 873e f1f4 053e
00000260: ce56 1abe 7932 9a3e 5049 a23e 869c aabe
00000270: a7c7 c6be 32e2 9abe aef4 c63e 9cbc e73d
00000280: d051 ccbd 8dc4 433e 861f 0b3e bb34 633e
00000290: 33df 8ebc cbba 32be 427f a03e 4de6 3abd
000002a0: 3e38 69ba 3baa 2d3d 5950 b0be bfc9 80be
000002b0: 0baf c23e 758b a13d 6d25 a8be 2b7f 893e
000002c0: 78f3 3d3e 2642 063c 6f4e 203e 8c28 2abe
000002d0: 0187 513e 92a2 69be d35a 073f 4c69 8a3e
000002e0: 543b 8dbd 89ad 2cbe 4510 d73e 8b8e 11bd
000002f0: 8380 f8be a374 6bbe d0ee 853e ef03 13be
00000300: eaea 74be 668f ffbe b563 24be 7e75 9e3c
00000310: 9733 7ebe 0590 cabd 55fc 4a3f 7f6d 073e
00000320: aac2 2d3d 98f3 493e b816 fcbd e474 1c3b
00000330: 3e59 78bf 31c5 71bd 9497 113f 26a1 323f
00000340: 128d c9bb b049 6d3e 89a8 75be 17c9 e1bd
00000350: 6d03 733e 6ab6 0dbe bc81 113f 2171 7f3e
00000360: aa8c 813c ff7f 71be 4977 3a3e 03e2 0d3e
00000370: 1d7b bdbe dda8 65be 9436 a43e d7c5 443f
00000380: 8553 91bd 7056 c43e 2004 60be 37bc 753e
00000390: ea82 e0bd 5db5 0c3d bfd4 023f 629b 40be
000003a0: 4f13 c2bc b66f a5be cc13 4a3e 347b 153d
000003b0: 569d 10bf 3913 b4bc 4bf9 943d 5994 cd3e
000003c0: 54de 8c3e 516f 063f 6efe 733d 6fc0 bbbd
000003d0: cf61 bf3e 8bc7 b33e c072 2f3e 183c 0ebe
000003e0: 67f5 aa3e 5347 a7be e436 4dbd b9fc 253f
000003f0: 2339 413f c6d3 7c3f f708 d2bd 557c 413e

bilstm.weight_hh_l0_reverse f4 [64, 16]
0.21849644 0.4943482 0.10185682 0.50371444 0.42654902 0.026846837 0.20823996 0.5926898
-0.21669321 0.34359592 -0.20561574 0.05257884 -0.5374413 -0.10165056 -0.30048543 -0.095964536
-0.25174722 0.07087955 -0.43205053 -0.052424893 -0.7139361 0.025787447 -0.21705961 -0.84767205
0.039847065 0.015897894 -0.07600029 -0.27631748 0.1690303 -0.054769814 -0.1708103 -0.011767372
0.12556358 -0.10671379 0.14231426 -0.23136288 0.16297004 0.15838163 -0.063168585 -0.0870355
0.23668118 -0.18032344 -0.13369876 -0.09656324 -0.01817497 0.01262996 -0.10642637 -0.032253996
0.3760191 0.5487526 -0.21917647 0.44244897 -0.014958526 -0.15303344 -0.38164812 0.45611328
-0.12225725 0.41609254 0.44589096 -0.2784198 -0.11616386 0.39045486 0.036969412 0.16508162
-0.3779516 -0.014834282 0.009385898 0.13479564 0.26127028 -0.10303097 0.0034088888 -0.60933053
0.10852589 -0.05140522 -0.1214064 -0.15446192 0.2929062 -0.21643613 0.23020424 -0.0154694095
0.18427174 -0.0872471 -0.20897 -0.20123072 -0.25166282 -0.7391498 -0.10710669 -1.106685
-0.24494901 -0.16078897 0.3042644 -0.09997555 -0.11925293 -0.19276842 -0.29151058 -0.10052087
-0.022248024 0.047502354 -0.093015306 0.10356577 0.20076016 0.37761456 0.25789803 0.13010584
-0.24656089 0.0005155114 -0.039514083 0.09271016 0.034692507 0.25632834 -0.35489085 -0.015410595
-0.24555634 -0.41137385 0.66548604 0.5186752 0.22907725 0.040985875 -0.34935024 -0.039270382
-0.058713928 0.34590024 -0.098608755 0.31302592 0.13240099 -0.19970629 0.61571294 -0.04258328
0.04990747 0.24674657 -0.1844045 -0.13747871 -0.13595264 -0.14233524 0.2176802 0.010719269
-0.109859936 -0.022382006 0.113869786 -0.096339785 -0.011074299 0.13992499 0.019814558 -0.030374363
0.23518234 0.10269851 0.27163583 -0.10089338 -0.34237355 -0.010250918 -0.00245395 -0.3366433
0.15714398 -0.12731902 -0.41203517 0.15716338 0.22614291 -0.3476921 0.016892917 -0.387375
0.13792722 0.011597825 0.3858054 0.10409726 0.38152766 -0.059438802 0.25027817 -0.16443889
0.16235383 -0.059048187 0.012548349 -0.005166086 0.15284652 -0.11198864 0.017277107 -0.26411396
0.05231211 0.32721555 -0.10212847 -0.0058120526 0.07213325 0.13340093 0.32342383 -0.23557432
0.2762047 -0.29312623 -0.054777443 -0.15862134 0.18386683 -0.10349213 0.053439867 -0.00024689685
-0.07840511 0.16469838 -0.3633134 -0.20999545 0.20667489 -0.14366399 0.013186686 0.12473915
-0.22770052 0.16351189 0.2720701 -0.13437758 -0.27294147 0.14346795 -0.25112423 -0.018253243
0.04302109 -0.5854172 0.44701365 0.033987723 0.088056505 -0.0012921869 -0.08629183 0.07400456
0.12437616 0.10478871 -0.2508048 -0.05096303 -0.11417181 0.047327094 -0.18274385 0.4440493
-0.21444443 0.15544476 -0.21017939 -0.08883046 -0.045036357 -0.11435844 0.10006089 -0.09173709
-0.2460059 -0.22016068 0.20118766 0.07027933 0.23865275 0.01100837 0.2568723 -0.036677532
0.13880505 0.29656076 -0.27383226 0.14289284 0.124631755 0.13651682 -0.4915544 0.15746191
-0.24608554 0.3076465 0.5003889 -0.47414422 -0.5124043 0.40584606 -0.40028924 0.44753835
00000000: 88bd 5f3e 351b fd3e 4f9a d03d 6ef3 003f
00000010: a264 da3e e6ed db3c db3c 553e 85ba 173f
00000020: d3e4 5dbe ceeb af3e ef8c 52be e95c 573d
00000030: c195 09bf 2b2e d0bd 3ad9 99be 0e89 c4bd
00000040: 03e5 80be 4c29 913d ba35 ddbe 7cbb 56bd
00000050: 84c4 36bf 3240 d33c e044 5ebe 0901 59bf
00000060: ad36 233d 4d3c 823c 0aa6 9bbd 7c79 8dbe
00000070: 4716 2d3e 5056 60bd e5e8 2ebe efcb 40bc
00000080: bd93 003e c28c dabd d4ba 113e 64ea 6cbe
00000090: 9ee1 263e cb2e 223e 885e 81bd ab3f b2bd
000000a0: 8d5c 723e b5a6 38be 54e8 08be f3c2 c5bd
000000b0: ade3 94bc e4ed 4e3c 12f6 d9bd c41c 04bd
000000c0: 9385 c03e 0d7b 0c3f cc6f 60be ac88 e23e
000000d0: 9b14 75bc ccb4 1cbe 6267 c3be ae87 e93e
000000e0: 0262 fabd 150a d53e d24b e43e 0a8d 8ebe
000000f0: 51e7 edbd b3e9 c73e 3d6d 173d 280b 293e
00000100: df82 c1be 7d0b 73bc 4fc7 193c de07 0a3e
00000110: 38c5 853e e701 d3bd aa67 5f3b 16fd 1bbf
00000120: d242 de3d 488e 52bd eba3 f8bd 442b 1ebe
00000130: cdf7 953e 6fa1 5dbe a9ba 6b3e 6873 7dbc
00000140: bbb1 3c3e 9cae b2bd 3bfc 55be 6d0f 4ebe
00000150: f3d9 80be ec38 3dbf c15a dbbd dba7 8dbf
00000160: ead3 7abe dda5 24be 8bc8 9b3e fbbf ccbd
00000170: e13a f4bd 1665 45be e040 95be e3dd cdbd
00000180: 7d41 b6bc d491 423d cf7e bebd 4a1a d43d
00000190: 1294 4d3e b256 c13e 360b 843e 773a 053e
000001a0: 757a 7cbe 6223 073a 85d9 21bd d3de bd3d
000001b0: bb19 0e3d 783d 833e 41b4 b5be b87c 7cbc
000001c0: 1f73 7bbe 989f d2be 4b5d 2a3f e6c7 043f
000001d0: 3a93 6a3e cee0 273d 09de b2be fbd9 20bd
000001e0: 047e 70bd d619 b13e 63f3 c9bd ef44 a03e
000001f0: 2094 073e ce7f 4cbe 5d9f 1d3f ce6b 2ebd
00000200: c66b 4c3d 22ab 7c3e 89d4 3cbe 38c7 0cbe
00000210: 2b37 0bbe 54c0 11be 8fe7 5e3e df9f 2f3c
00000220: 3ffe e0bd 785a b7bc 9034 e93d cb4d c5bd
00000230: fa70 35bc 7f48 0f3e 2452 a23c a8d3 f8bc
00000240: a4d3 703e 9953 d23d da13 8b3e 30a1 cebd
00000250: 964b afbe 77f3 27bc 73d2 20bb 835c acbe
00000260: 5aea 203e eb5f 02be 46f6 d2be 70ef 203e
00000270: 0292 673e b304 b2be 0463 8a3c 0456 c6be
00000280: cb3c 0d3e ce04 3e3c 4988 c53e f230 d53d
00000290: 9857 c33e 1a76 73bd 7624 803e ab62 28be
000002a0: 1540 263e 83dc 71bd 9797 4d3c 4548 a9bb
000002b0: cc83 1c3e 4d5a e5bd b888 8d3c f239 87be
000002c0: 3945 563d cc88 a73e bb28 d1bd 0873 bebb
000002d0: 99ba 933d 419a 083e cf97 a53e 653a 71be
000002e0: b46a 8d3e a414 96be 505e 60bd a26d 22be
000002f0: 9647 3c3e aff3 d3bd c3e3 5a3d ef71 81b9
00000300: dc92 a0bd b1a6 283e 3704 babe 0c09 57be
00000310: 95a2 533e a71c 13be f80c 583c 3d77 ff3d
00000320: 532a 69be a96f 273e c64c 8b3e 479a 09be
00000330: fcbe 8bbe 43e9 123e 5b93 80be d387 95bc
00000340: e236 303d e7dd 15bf f9de e43e b636 0b3d
00000350: f856 b43d 995e a9ba c5b9 b0bd b48f 973d
00000360: eeb8 fe3d 779b d63d 7d69 80be 9cbe 50bd
00000370: e9d2 e9bd 0eda 413d 3421 3bbe 6e5a e33e
00000380: 5297 5bbe e92c 1f3e 4439 57be bfec b5bd
00000390: 0b78 38bd c234 eabd b9ec cc3d a8e0 bbbd
000003a0: f8e8 7bbe cd71 61be 2304 4e3e 9cee 8f3d
000003b0: 6361 743e 735c 343c c484 833e 2e3b 16bd
000003c0: e922 0e3e d0d6 973e be33 8cbe 8052 123e
000003d0: ef3e ff3d 11cb 0b3e 05ad fbbe b23d 213e
000003e0: d9fd 7bbe d883 9d3e 7d19 003f 08c3 f2be
000003f0: ee2c 03bf 0ecb cf3e b6f2 ccbe bf23 e53e

bilstm.weight_ih_l0 f4 [64, 32]
0.012149385 0.19882606 0.060992718 0.16492522 0.012230631 0.060501125 -0.012033468 0.15879874
0.1424731 -0.008252354 0.114773594 0.0040537985 -0.113066055 0.29236344 -0.34847116 -0.12390925
0.056517765 0.13459352 -0.12516735 0.57971424 0.24519564 0.17039521 0.17374597 -0.12892932
-0.10136695 -0.23836342 0.19307451 -0.011602073 0.10682976 -0.14186929 -0.38864177 -0.10812687
0.017877303 0.058259346 0.024543453 -0.43657145 -0.16478924 -0.07282636 -0.1470208 -0.29276577
0.2585941 -0.20711896 0.26105812 0.29627842 -0.03593117 -0.0700327 -0.17583926 -0.4206848
-0.1348622 -0.17215784 0.12296534 -0.08588449 -0.058537178 0.084745556 -0.089737244 -0.28121033
0.29620868 0.38648492 0.2947822 -0.17499189 -0.3288422 0.1672464 0.15146926 -0.123679295
0.22371073 0.24742512 -0.25411618 -0.04297119 0.15433636 0.63283074 0.06991804 0.23317294
0.14667289 0.08688378 0.20479098 -0.22538565 0.020901266 0.075753696 0.08561553 0.13883212
-0.000993891 0.35815114 -0.116795 0.24191016 -0.0012728281 0.019213228 0.2856178 0.37808865
-0.17700037 0.16216476 0.10726956 0.12000756 0.09623714 0.025801163 0.29199436 0.212755
0.17016716 -0.043865524 0.15670072 -0.28555483 -0.13287525 0.029337015 0.14069219 -0.0493521
-0.19435588 0.20994829 -0.23610452 0.02669399 0.08373718 -0.19621556 0.22121193 0.1365375
0.023852445 -0.20707898 -0.2428502 -0.17110375 -0.083644815 0.20221579 0.04532892 0.004333329
-0.14356627 0.28716987 0.43421975 -0.13270546 0.06985146 0.22422647 -0.062316433 0.027273001
0.19355781 -0.23323686 -0.17661892 0.42086557 -0.09417316 -0.21230444 -0.22083446 0.24214666
0.09996361 0.10073546 0.043386657 -0.4590006 0.13493547 -0.17604622 -0.07082877 -0.75269437
0.26473406 0.46246794 -0.25906894 0.26722068 -0.0752564 -0.29639247 -0.008240752 -0.2767481
-0.05464813 -0.14054835 0.46007425 -0.20640557 0.22343014 -0.27353558 -0.50829315 -0.21535549
0.2791501 0.029068876 0.15742093 0.8570144 -0.09522218 -0.13892931 -0.087685086 0.1789826
0.003757602 0.14377886 0.27982104 0.011001417 0.48258236 0.2123682 -0.009275634 0.38067746
0.070382096 -0.06357298 -0.12711634 0.4613989 -0.115761176 0.516165 0.073554784 0.18708359
0.015230438 0.036913294 0.51578695 -0.12134696 0.3114911 0.32643646 -0.19576965 0.25746647
0.26634485 0.10890763 -0.29234546 -0.25502062 -0.4135101 0.04051503 -0.09643837 -0.096402794
0.15974809 -0.22148475 -0.1953718 -0.19537294 -0.59128624 0.19295904 0.10859913 0.21660185
0.16591498 0.07385318 0.049567595 0.17247093 0.0032152035 -0.35601407 0.10207591 0.024092248
-0.25828665 0.4392778 0.47653234 -0.1303644 0.0060466216 -0.0608349 -0.18939103 0.3973501
0.28908932 0.13996297 -0.02506064 -0.018868916 0.20806384 0.109726205 0.27672333 0.059614293
0.04040361 0.1403422 -0.009835131 -0.07850259 0.31337637 0.22243519 0.13221191 0.045890648
-0.03815063 0.13010934 -0.09620468 0.16594397 0.080688395 0.16069455 -0.008245319 0.05070709
-0.1558742 -0.04480517 0.1562941 0.18805027 0.1830477 0.20653954 0.22971012 0.0789494
00000000: 370e 473c 0f99 4b3e 80d3 793d 28e2 283e
00000010: fc62 483c 07d0 773d 0628 45bc 239c 223e
00000020: 78e4 113e e234 07bc 6b0e eb3d bad5 843b
00000030: 2d8f e7bd a9b0 953e d06a b2be 22c4 fdbd
00000040: 2c7f 673d e2d2 093e df2b 00be 2768 143f
00000050: 9114 7b3e 157c 2e3e 77ea 313e 0c06 04be
00000060: 7a99 cfbd 8a15 74be 53b5 453e 9f16 3ebc
00000070: 90c9 da3d 2f46 11be 0efc c6be 9f71 ddbd
00000080: 6c73 923c 5aa1 6e3d 5a0f c93c 4b86 dfbe
00000090: 83be 28be fd25 95bd 9f8c 16be 65e5 95be
000000a0: 7266 843e fe16 54be 69a9 853e ceb1 973e
000000b0: 902c 13bd 4e6d 8fbd 350f 34be 0064 d7be
000000c0: 5119 0abe 254a 30be 41d5 fb3d 35e4 afbd
000000d0: aec4 6fbd 148f ad3d 29c8 b7bd cdfa 8fbe
000000e0: aaa8 973e 5ae1 c53e b1ed 963e 1331 33be
000000f0: 015e a8be a442 2b3e c21a 1b3e 924b fdbd
00000100: 6d14 653e 035d 7d3e 841b 82be 8f02 30bd
00000110: 5a0a 1e3e 3201 223f 3031 8f3d e3c4 6e3e
00000120: 6b31 163e 20f0 b13d bab4 513e 7fcb 66be
00000130: 2239 ab3c c124 9b3d 3257 af3d 022a 0e3e
00000140: 7345 82ba 965f b73e 3832 efbd 4cb7 773e
00000150: 06d5 a6ba 0f65 9d3c 7f3c 923e d694 c13e
00000160: 963f 35be 850e 263e 25b0 db3d 86c6 f53d
00000170: fa17 c53d f65c d33c 4980 953e 72dc 593e
00000180: 4d40 2e3e 56ac 33bd 2776 203e 3e34 92be
00000190: 7310 08be 2e54 f03c 9d11 103e 6d25 4abd
000001a0: 3a05 47be affc 563e 62c5 71be 5bad da3c
000001b0: 667e ab3d bbec 48be 6185 623e 7dd0 0b3e
000001c0: 3466 c33c 830c 54be b9ad 78be d235 2fbe
000001d0: f94d abbd a811 4f3e d1aa 393d 99fe 8d3b
000001e0: 0903 13be ee07 933e 0d52 de3e f1e3 07be
000001f0: 480e 8f3d a09b 653e 843f 7fbd a16b df3c
00000200: 0534 463e a5d5 6ebe 97db 34be b17b d73e
00000210: dcdd c0bd 5666 59be 6e22 62be 4bf5 773e
00000220: b9b9 cc3d 654e ce3d 35b6 313d 2002 ebbe
00000230: 862c 0a3e 7645 34be ad0e 91bd 94b0 40bf
00000240: 398b 873e 99c8 ec3e afa4 84be 26d1 883e
00000250: 0720 9abd c1c0 97be 3804 07bc edb1 8dbe
00000260: b8d6 5fbd e8eb 0fbe da8e eb3e fb5b 53be
00000270: dfca 643e db0c 8cbe 801f 02bf 2686 5cbe
00000280: c3ec 8e3e da21 ee3c f432 213e 4c65 5b3f
00000290: d903 c3bd 7c43 0ebe 3d94 b3bd 3747 373e
000002a0: 1a42 763b c43a 133e b444 8f3e 4a3f 343c
000002b0: 0915 f73e 0d77 593e d4f8 17bc 28e8 c23e
000002c0: 7d24 903d 8d32 82bd c92a 02be 7a3c ec3e
000002d0: 3214 edbd 6423 043f e4a3 963d d792 3f3e
000002e0: 1689 793c 6532 173d 9d0a 043f c184 f8bd
000002f0: c37b 9f3e ae22 a73e d777 48be a5d2 833e
00000300: 5a5e 883e f70a df3d 4eae 95be 1092 82be
00000310: 99b7 d3be 17f3 253d 7b81 c5bd d46e c5bd
00000320: 0195 233e e6cc 62be 8c0f 48be d80f 48be
00000330: 895e 17bf 0e97 453e 3869 de3d e0cc 5d3e
00000340: 9ee5 293e 5640 973d 6407 4b3d 389c 303e
00000350: 2ab6 523b 7a47 b6be 2d0d d13d 1b5d c53c
00000360: 263e 84be 05e9 e03e 0cfc f33e 3f7e 05be
00000370: bd22 c63b 042e 79bd b9ef 41be 7971 cb3e
00000380: 8403 943e 7452 0f3e f94b cdbc fc92 9abc
00000390: b00e 553e 22b8 e03d aeae 8d3e 1e2e 743d
000003a0: 417e 253d deb5 0f3e 8723 21bc f7c5 a0bd
000003b0: de72 a03e 0dc6 633e 8f62 073e d5f7 3b3d
000003c0: d643 1cbd 623b 053e f606 c5bd 37ed 293e
000003d0: f53f a53d 1d8d 243e 6017 07bc 3db2 4f3d
000003e0: 7c9d 1fbe a085 37bd 900b 203e 4090 403e
000003f0: db70 3b3e 1a7f 533e 2139 6b3e 39b0 a13d

bilstm.weight_ih_l0_reverse f4 [64, 32]
0.08815247 -0.051000264 0.012032159 -0.056747362 0.0456364 0.4046979 0.22791253 0.13955337
0.46163732 -0.089174785 -0.08137839 -0.23236336 0.5450687 -0.22574921 0.23581271 0.26914403
-0.051192377 0.11608514 0.10174036 -0.014963481 0.1500878 0.1458352 0.13244414 -0.092275426
-0.029530518 0.11410057 1.2769488 -0.08837494 0.07280314 -0.18252106 -0.5033186 0.38013914
-0.4281231 0.16261381 -0.26264384 0.21821165 -0.15895297 -0.5118564 0.061377272 -0.33792686
-0.0024225577 -0.2746369 -0.054951232 -0.3133215 -0.31288698 0.19613501 -0.03093507 0.3821456
-0.070930734 0.20258196 0.051591065 0.20755474 0.15869096 -0.24045192 0.003083416 -0.29639295
0.02105497 -0.43147233 -0.43328688 -0.4695732 -0.15314677 0.021719843 -0.14147735 -0.11645137
0.17603505 0.03306833 0.23961334 0.08343044 -0.16591257 -0.13091147 0.05074463 -0.078067735
-0.05305559 -0.19282228 -0.37419978 -0.10689437 0.15964893 0.11293042 -0.14652012 0.29186043
0.037046064 0.23502576 0.18652837 0.22597043 0.22545117 0.25823718 0.094268896 0.023694063
0.06885048 0.19559832 0.09116763 0.08371248 -0.08924275 0.0012840967 0.13103597 0.16292149
-0.058703545 -0.08173992 -0.19570115 -0.15341541 -0.4118152 0.08416931 0.052875426 -0.30520913
0.14930405 0.16560635 -0.0798978 -0.3355375 0.11464435 -0.11557513 -0.078393266 0.076309286
0.33560517 0.05305673 -0.06566154 0.3167979 0.058525514 -0.29956272 0.19694996 0.30230555
0.12246781 0.3559979 -0.80970603 0.37068316 -0.12326081 0.0588045 -0.108086124 -0.14737633
0.15325479 0.09429874 -0.3472086 0.07264895 -0.011752229 -0.5851472 -0.18079236 0.034629155
-0.2945419 -0.051760614 0.023432799 -0.027217044 -0.23363876 0.27552047 0.6384823 -0.4542665
-0.13977946 -0.42970186 -0.42746323 -0.30693707 0.10405323 0.121472985 -0.28615043 0.21879144
0.5815649 0.029239751 -0.012414989 0.17693807 -0.16358505 0.17447284 -0.111481614 -0.65290034
-0.24995719 -0.13895221 -0.012144999 -0.30112776 -0.09578453 0.028180195 -0.1286277 -0.4548987
0.4296441 -0.16074657 -0.32157943 0.0126756 -0.27042028 0.022112409 -0.17572974 -0.31975964
-0.03512279 0.0702313 -0.11217076 0.36534867 -0.13638046 0.025765069 0.17332898 -0.16630377
0.11899302 -0.1790925 0.23141758 0.013227742 0.14311792 -0.006423969 0.060271658 -0.46015784
-0.16713832 -0.097718224 -0.13970573 0.10040402 0.18803783 0.2566059 0.18956268 -0.20782425
0.012375302 0.028382285 0.9668143 0.14231023 0.19581482 0.0076477462 0.057475977 0.080436215
0.19652413 0.080222584 -0.0043064468 -0.040836953 0.050053842 -0.12964225 -0.2629494 0.09042541
-0.047013164 0.19977428 1.0833404 0.0757106 -0.10251953 -0.10314951 0.04506141 -0.086296566
-0.49412206 -0.031186147 -0.059341628 -0.15411694 -0.022787612 0.12577271 -0.17053011 -0.29944372
0.11773987 -0.07910734 0.40619525 0.0007469449 0.21639211 -0.09646015 -0.018419528 -0.14926748
-0.098143525 -0.20674959 -0.23012194 0.15788679 -0.07653134 -0.15644814 -0.07385417 -0.36136368
-0.014784515 0.013396406 0.18142901 0.13625625 -0.40255865 -0.2808541 0.10809228 0.31202626
00000000: 4889 b43d a7e5 50bd 8822 453c ec6f 68bd
00000010: 3ced 3a3d 9034 cf3e e761 693e 14e7 0e3e
00000020: ba5b ec3e 45a1 b6bd b7a9 a6bd a9f0 6dbe
00000030: 9f89 0b3f cd2a 67be e378 713e 3fcd 893e
00000040: 19af 51bd 0cbe ed3d 405d d03d 6329 75bc
00000050: 9eb0 193e d355 153e 709f 073e e6fa bcbd
00000060: fce9 f1bc 8fad e93d 0f73 a33f ecfd b4bd
00000070: d019 953d cde6 3abe 7dd9 00bf 99a1 c23e
00000080: f332 dbbe 3c84 263e 4179 86be e072 5f3e
00000090: 91c4 22be 0509 03bf bc66 7b3d c004 adbe
000000a0: c6c3 1ebb 359d 8cbe 8b14 61bd ad6b a0be
000000b0: b932 a0be 9ed7 483e 8b6b fdbc 97a8 c33e
000000c0: 2244 91bd a571 4f3e 2751 533d 3b89 543e
000000d0: e27f 223e 0739 76be 2313 4a3b d1c0 97be
000000e0: 797b ac3c f1e9 dcbe c7d7 ddbe e66b f0be
000000f0: 82d2 1cbe d0ed b13c 70df 10be 0e7e eebd
00000100: 8842 343e a872 073d 335d 753e 94dd aa3d
00000110: fce4 29be a80d 06be 9ad9 4f3d fae1 9fbd
00000120: d150 59bd 3473 45be 1d97 bfbe 6feb dabd
00000130: 027b 233e 1048 e73d 5f09 16be bb6e 953e
00000140: 9dbd 173d 98aa 703e 4b01 3f3e cb64 673e
00000150: acdc 663e aa37 843e 0d10 c13d 0d1a c23c
00000160: 7b01 8d3d ed4a 483e 18b6 ba3d 7371 ab3d
00000170: e7c4 b6bd 234f a83a 4b2e 063e e4d4 263e
00000180: 2173 70bd 4267 a7bd e265 48be ee18 1dbe
00000190: 71d9 d2be f660 ac3d e793 583d 5f44 9cbe
000001a0: 29e3 183e b694 293e 75a1 a3bd 92cb abbe
000001b0: a8ca ea3d a7b2 ecbd a68c a0bd 0b48 9c3d
000001c0: 71d4 ab3e 0452 593d 8f79 86bd 5633 a23e
000001d0: 73b8 6f3d 4960 99be 40ad 493e cbc7 9a3e
000001e0: 67d0 fa3d 5b45 b63e e548 4fbf 2fca bd3e
000001f0: 2a70 fcbd fddc 703d 425c ddbd d2e9 16be
00000200: d3ee 1c3e b31f c13d 53c5 b1be f9c8 943d
00000210: 6c8c 40bc 35cc 15bf a221 39be 4dd7 0d3d
00000220: 32ce 96be f002 54bd 24f6 bf3c 47f6 debc
00000230: 003f 6fbe 0511 8d3e 9373 233f 9e95 e8be
00000240: 5922 0fbe e201 dcbe 76dc dabe db26 9dbe
00000250: dc19 d53d d4c6 f83d 4f82 92be dd0a 603e
00000260: 70e1 143f 3488 ef3c 3d68 4bbc 412f 353e
00000270: d782 27be 02a9 323e 7950 e4bd 7a24 27bf
00000280: c7f4 7fbe 7d49 0ebe d1fb 46bc 6b2d 9abe
00000290: ae2a c4bd 27da e63c fbb6 03be 7be8 e8be
000002a0: 50fa db3e c09a 24be 0fa6 a4be 52ad 4f3c
000002b0: 8774 8abe 1525 b53c 7ff2 33be 89b7 a3be
000002c0: eadc 0fbd 6ed5 8f3d c9b9 e5bd fb0e bb3e
000002d0: 52a7 0bbe 4411 d33c 277d 313e 894b 2abe
000002e0: 9db2 f33d 0664 37be bbf8 6c3e 2cb9 583c
000002f0: 818d 123e 2880 d2bb 6adf 763d cf99 ebbe
00000300: 4f26 2bbe 7e20 c8bd 050f 0fbe 9fa0 cd3d
00000310: fd8c 403e d961 833e b81c 423e e1cf 54be
00000320: c7c1 4a3c f781 e83c 2481 773f c6b9 113e
00000330: ae83 483e f299 fa3b ee6b 6b3d bebb a43d
00000340: 9f3d 493e bd4b a43d 181d 8dbb a644 27bd
00000350: 4205 4d3d f0c0 04be 4ea1 86be f530 b93d
00000360: e090 40bd a191 4c3e e6aa 8a3f 290e 9b3d
00000370: c2f5 d1bd 0d40 d3bd 5092 383d 41bc b0bd
00000380: 91fd fcbe 177a ffbc 3510 73bd d5d0 1dbe
00000390: 16ad babc 90ca 003e 729f 2ebe b050 99be
000003a0: 9a21 f13d 0703 a2bd d3f8 cf3e a0ce 433a
000003b0: e595 5d3e e68c c5bd 8de4 96bc 93d9 18be
000003c0: 79ff c8bd 2ab6 53be 16a5 6bbe 13ad 213e
000003d0: 77bc 9cbd f133 20be db40 97bd a904 b9be
000003e0: c03a 72bc 997c 5b3c 87c8 393e c286 0b3e
000003f0: 2b1c cebe 1ccc 8fbe 7c5f dd3d e8c1 9f3e

parallel_cnn_block.branches.0.0.weight f4 [1, 1, 2]
0.35751757 0.7612217
00000000: 8b0c b73e 6ddf 423f

parallel_cnn_block.branches.0.2.bias f4 [16]
0.042053223 0.36378703 0.8429211 0.53346145 -0.54674584 0.008700648 -0.0067078513 -0.3509852
-0.13945481 0.39634934 0.16380495 0.46754766 0.009600783 0.4602279 0.20317917 0.47430548
00000000: 0040 2c3d 4b42 ba3e adc9 573f ee90 083f
00000010: 89f7 0bbf 2a8d 0e3c 89cd dbbb 55b4 b3be
00000020: 3ecd 0ebe 4dee ca3e 7cbc 273e 6862 ef3e
00000030: 9a4c 1d3c fea2 eb3e 330e 503e 2bd8 f23e

parallel_cnn_block.branches.0.2.weight f4 [16, 1, 2]
-0.51889855 0.524659 -0.16444331 0.33097973 -0.22098413 -0.98307914 -0.9259545 -1.291511
-0.09543572 -0.20681205 0.5534414 0.2037373 -0.36156684 0.38737497 -0.46583527 -0.5392129
-0.30230182 0.37357327 -0.046612 0.0017891458 -0.50993544 0.49366787 -0.33940178 0.32644412
0.4395188 0.46268967 0.44146445 -0.107092395 -0.43521416 0.4032619 -0.11259826 0.058945283
00000000: 89d6 04bf 0d50 063f d463 28be 2d76 a93e
00000010: aa49 62be 13ab 7bbf 5b0b 6dbf 3c50 a5bf
00000020: ce73 c3bd 8ac6 53be 56ae 0d3f 83a0 503e
00000030: 4a1f b9be 0356 c63e f681 eebe db09 0abf
00000040: 4ec7 9abe ff44 bf3e 39ec 3ebd c581 ea3a
00000050: 218b 02bf 09c2 fc3e 12c6 adbe af23 a73e
00000060: 9c08 e13e a9e5 ec3e a107 e23e 4253 dbbd
00000070: 64d4 debe 5878 ce3e eb99 e6bd 9c70 713d

parallel_cnn_block.branches.1.0.weight f4 [1, 1, 4]
0.36617592 -0.012590294 -0.15937865 -0.07015182
00000000: 697b bb3e 8547 4ebc 2834 23be c2ab 8fbd

parallel_cnn_block.branches.1.2.bias f4 [32]
-0.3008605 0.14762248 0.051182587 0.09154702 -0.43469235 -0.23943971 0.4380868 0.06835367
0.063686915 0.05964326 0.18684533 0.145673 0.13075827 -0.7350733 0.31150597 -0.29730654
-0.38249445 -0.2509342 -0.05391371 -0.1938942 -0.6339727 0.09686677 -0.23606752 0.26115447
-0.25050405 0.34352183 -0.27221966 0.23622103 -0.32597348 -0.31814674 0.071920805 -0.22087379
00000000: 630a 9abe 592a 173e d5a4 513d 017d bb3d
00000010: ff8f debe af2f 75be ea4c e03e 02fd 8b3d
00000020: 496e 823d 7e4c 743d 6254 3f3e 4e2b 153e
00000030: 7fe5 053e c42d 3cbf b67d 9f3e 9038 98be
00000040: 50d6 c3be 737a 80be 9fd4 5cbd 338c 46be
00000050: 094c 22bf 1662 c63d afbb 71be 0ab6 853e
00000060: 1142 80be 18e2 af3e 6060 8bbe ede3 713e
00000070: ffe5 a6be 21e4 a2be 374b 933d bd2c 62be

parallel_cnn_block.branches.1.2.weight f4 [32, 1, 4]
-0.117134236 0.50445473 -0.42060384 -0.67287743 -0.7308392 -0.79991144 0.09471962 0.7622935
0.026367454 0.24453664 -0.79743725 0.44534603 -0.6681645 -0.8504353 0.20303641 0.62297
0.35135433 0.16886298 0.25151357 0.8508045 0.51649094 -1.2872941 0.48794284 -0.3146336
-0.8857956 -0.08685034 -0.4892484 0.23414741 -0.04448341 0.2925766 -0.008291481 -0.68175364
-0.41202164 0.050345127 0.73194367 -0.56901145 0.4325458 0.60273606 0.14026064 0.3997291
0.012822819 0.1354288 -0.9240711 0.21431918 -0.90934294 -0.15985714 -0.044046234 0.5876292
0.08751949 0.21703061 -0.5724511 -0.7192545 0.030223692 0.052113954 0.59108126 0.23371103
-0.40973184 -0.5671374 -0.16080017 0.26626468 0.33747795 -0.3552814 -0.29627845 0.33230716
-0.9486346 0.4617157 -0.0013345918 -0.19066249 0.096815474 0.045761228 -0.18917806 0.62776536
-0.0682409 0.7586388 0.7479885 -0.38388088 0.59503406 -0.15130545 0.4161819 0.4543638
0.06364751 -0.03235513 0.88529104 0.13177231 -0.42063835 0.18305136 -0.54401904 0.3391909
0.62635964 0.67781335 0.8045611 0.75535524 -0.8835127 -0.06968217 0.116605595 0.24591942
0.15497138 0.4712117 -0.42917114 0.46888572 -0.83201534 -0.04659117 -0.40052634 0.32631162
0.6239332 0.085098855 0.252415 0.48688936 -0.46722344 -0.91373533 0.093054645 0.4472111
0.47534966 0.031106401 0.6543767 0.6889816 0.12384165 0.7406072 0.90226096 -0.064476795
0.0131422635 0.21369267 -0.80474335 -0.5887427 0.5338505 0.018624594 -0.13715741 0.6163619
00000000: 13e4 efbd f223 013f 6359 d7be b241 2cbf
00000010: 4718 3bbf ffc6 4cbf 5cfc c13d ab25 433f
00000020: 8f00 d83c d067 7a3e d924 4cbf 6504 e43e
00000030: d40c 2bbf 21b6 59bf c7e8 4f3e f67a 1f3f
00000040: b7e4 b33e 6bea 2c3e 63c6 803e 53ce 593f
00000050: c038 043f 0ec6 a4bf a5d3 f93e a817 a1be
00000060: 80c3 62bf 97de b1bd c47e fabe 57c4 6f3e
00000070: 3c34 36bd 9acc 953e fed8 07bc 6887 2ebf
00000080: 80f4 d2be b136 4e3d a960 3b3f bcaa 11bf
00000090: a576 dd3e e94c 1a3f 7ca0 0f3e 4ba9 cc3e
000000a0: cd16 523c d9ad 0a3e ec8f 6cbf 7d76 5b3e
000000b0: b3ca 68bf 97b1 23be d369 34bd de6e 163f
000000c0: 6b3d b33d 463d 5e3e 288c 12bf 1021 38bf
000000d0: ad97 f73c 7175 553d 1a51 173f f251 6f3e
000000e0: 5fc8 d1be eb2f 11bf cda8 24be d853 883e
000000f0: e9c9 ac3e 72e7 b5be cfb1 97be 2a24 aa3e
00000100: b8d9 72bf 0066 ec3e 78ed aeba 073d 43be
00000110: 3147 c63d 2070 3b3d e5b7 41be 3bb5 203f
00000120: e3c1 8bbd 2736 423f 2d7c 3f3f 098c c4be
00000130: 2754 183f d1ef 1abe cb15 d53e 5fa2 e83e
00000140: a059 823d d086 04bd 6fa2 623f 52ef 063e
00000150: e95d d7be d171 3b3e d544 0bbf 6eaa ad3e
00000160: 1b59 203f 2d85 2d3f b7f7 4d3f f65e 413f
00000170: e32d 62bf 87b5 8ebd eace ee3d 4dd2 7b3e
00000180: d1b0 1e3e a942 f13e 52bc dbbe ca11 f03e
00000190: f5fe 54bf 62d6 3ebd ca11 cdbe 5112 a73e
000001a0: 16ba 1f3f 4f48 ae3d 8a3c 813e 9049 f93e
000001b0: e937 efbe 8fea 69bf 6f93 be3d daf8 e43e
000001c0: 0861 f33e dad2 fe3c 3b85 273f 1961 303f
000001d0: b1a0 fd3d 6f98 3d3f 93fa 663f 690c 84bd
000001e0: a652 573c 40d2 5a3e a903 4ebf d7b7 16bf
000001f0: 6daa 083f 9b92 983c fe72 0cbe e5c9 1d3f

parallel_cnn_block.branches.2.0.weight f4 [1, 1, 8]
0.057266567 0.25049382 -0.10951079 0.4226727 -0.27017587 -0.4720913 -0.17920868 0.30236495
00000000: 5990 6a3d ba40 803e 3147 e0bd 8e68 d83e
00000010: 7e54 8abe f3b5 f1be 7b82 37be 94cf 9a3e

parallel_cnn_block.branches.2.2.bias f4 [64]
0.06948373 -0.80611277 -0.2071581 -0.01809688 -0.008442537 0.32641497 -0.4141322 -0.8120288
0.24701597 0.32679626 0.26662046 0.16122152 -1.0669204 0.31881005 0.17236033 -1.0831616
0.21139684 -0.00066773954 -0.0068974495 -0.33474028 -1.0652128 -0.064608574 -0.31879193 0.20991445
0.024861375 -0.8296535 -0.4986438 0.19146995 0.23702158 -1.1266942 -0.002748451 0.16013594
0.03293851 -0.26449168 -0.6394574 0.006781606 0.24304654 -0.07048057 -0.18775177 0.27114907
0.0905438 -0.62604636 0.19448543 0.28664818 0.24704824 0.2586267 0.36125436 -0.040339906
-0.6050273 -0.06353768 0.016548436 -0.028411472 0.0072280806 -0.00037457666 -0.0033386673 -0.80704087
0.16005276 0.009966395 -0.7233543 -0.54443324 0.0013641968 0.017916404 -0.45976654 -0.010994999
00000000: 7c4d 8e3d 685d 4ebf 4121 54be e83f 94bc
00000010: 9152 0abc dd1f a73e 2309 d4be 1fe1 4fbf
00000020: c1f1 7c3e d751 a73e 7a82 883e 4117 253e
00000030: d990 88bf 123b a33e 3a7f 303e 0aa5 8abf
00000040: 6a78 583e 3e0b 2fba 0004 e2bb 1463 abbe
00000050: e558 88bf 8051 84bd b238 a3be d0f3 563e
00000060: 15aa cb3c 2c64 54bf 3d4e ffbe b310 443e
00000070: c9b5 723e 8437 90bf 5b1f 34bb adfa 233e
00000080: 88ea 063d 746b 87be 7bb3 23bf 3c38 de3b
00000090: 31e1 783e 1e58 90bd 0042 40be 0dd4 8a3e
000000a0: 076f b93d 9344 20bf 3027 473e 8dc3 923e
000000b0: 37fa 7c3e b86a 843e 55f6 b83e 753b 25bd
000000c0: 12e3 1abf 0b20 82bd 9690 873c 2dbf e8bc
000000d0: 89d9 ec3b d462 c4b9 8bcd 5abb 3b9a 4ebf
000000e0: dfe4 233e 174a 233c bf2d 39bf fa5f 0bbf
000000f0: d9ce b23a 6cc5 923c 8566 ebbe 5e24 34bc

parallel_cnn_block.branches.2.2.weight f4 [64, 1, 8]
-0.13870683 -0.15718827 0.33935863 0.33015317 -0.025269406 -0.13568476 0.3127591 -0.47129458
0.10093787 -0.14106657 0.09974568 0.1750308 -0.047328144 0.06365479 -0.04761122 0.4636371
-0.1858688 0.35102338 -0.5462966 -0.088080004 0.6146328 0.14058924 -0.61043614 0.26567835
0.63307196 -0.047516994 -0.15888111 0.10285113 0.3380627 -0.26641393 0.20397995 -0.06650398
-0.061833333 0.2424591 -0.018411577 0.13859873 0.5094105 0.34728482 0.120473295 -0.19661325
0.19880512 -0.17025839 0.09884567 -0.23305593 0.07078527 -0.2706555 -0.21591525 0.22201943
0.6417897 0.07856653 0.012654286 0.10649884 0.03141895 -0.20860375 0.28179294 0.09554962
-0.25624108 -0.31259236 0.03583607 0.0077128937 -0.54643834 0.30919945 0.262901 0.034667626
-0.34297827 0.40489784 0.34234983 0.48940784 -0.17463875 0.19044413 -0.1064677 -0.22105937
0.48728386 -0.2698247 -0.3232337 -0.35832173 0.4198461 -0.23960963 0.052302334 -0.33539018
-0.21366473 -0.01993585 0.2685235 0.5459594 -0.12660386 -0.08474527 -0.17546423 -0.15639643
-0.014601764 0.020264467 0.3491408 0.11580599 0.010628052 0.03031995 -0.32240534 -0.393095
0.02981512 0.23441188 0.0598231 -0.034387782 -0.01718119 0.039039537 -0.06640029 0.31958455
-0.3896774 -0.22435823 -0.047700815 -0.13648792 -0.20928279 -0.3599685 -0.10800466 0.35092932
-0.33277398 -0.036195498 -0.13902238 -0.26419997 -0.35671747 0.43730518 -0.08312813 0.23258328
-0.20667638 -0.2545993 0.061778452 -0.19211914 -0.15772377 0.0810543 0.044548724 0.16960548
0.052241802 -0.14951566 -0.18488368 0.2152144 0.11216194 -0.11707034 0.07245955 0.21810713
0.31497103 -0.1496671 -0.32960743 0.38929954 0.42334434 0.4123753 0.38427272 -0.24440397
-0.06564846 0.2165471 -0.28736424 -0.022089677 0.28374285 0.18667923 0.20825483 -0.17758626
-0.058093287 -0.08679207 -0.2584418 -0.3488772 -0.26338795 0.007032937 -0.21120735 -0.021562865
-0.17734493 -0.5103539 0.05267013 -0.12370079 -0.17057143 0.06762033 0.16500367 0.20228131
0.27305442 -0.027014105 0.24289446 0.5824797 0.32917103 -0.31483918 0.14581974 0.36329353
0.36002088 -0.6271571 -0.20727934 0.023672797 -0.34093937 -0.009866139 0.3784055 -0.15704632
0.10729327 0.14911094 -0.17161624 0.24490027 0.26170075 -0.1217814 -0.12684223 -0.055496372
0.116878316 0.36731958 -0.5326359 -1.7406418 -0.059435878 0.3386317 0.3492662 0.30050355
-0.79671997 -0.055402834 -0.20085 0.12367168 0.36071444 0.18063201 0.34563887 0.34848782
0.0049934257 0.09710509 -0.20632055 0.22607505 -0.6756322 0.10026734 0.3356045 0.25115657
0.16874395 -0.07289109 0.25983852 0.14263384 -0.06820492 -0.04070342 -0.27322167 -0.34808525
-0.424025 -0.036168084 0.3573807 0.102160655 -0.119031735 0.30039814 -0.0882102 -0.09850215
-0.07279098 -0.24510184 0.29922518 -0.30762658 -0.28478914 0.15172178 -0.06612521 0.20084074
-1.1779355 0.23572464 0.109356195 0.76122695 -0.050100353 0.3394035 -0.70913035 0.3641681
0.5454184 -0.05344875 0.0073804487 -0.32816365 0.14423168 -0.34817782 0.23035575 -0.56943816
00000000: 2a09 0ebe f6f5 20be 6ac0 ad3e d609 a93e
00000010: c901 cfbc f2f0 0abe f621 a03e 864d f1be
00000020: 84b8 ce3d c173 10be 7747 cc3d 463b 333e
00000030: 28db 41bd 715d 823d fc03 43bd d861 ed3e
00000040: 6454 3ebe 56b9 b33e 18da 0bbf 4a63 b4bd
00000050: 9358 1d3f a0f6 0f3e 8b45 1cbf fe06 883e
00000060: 0111 223f 2ea1 42bd bbb1 22be 9da3 d23d
00000070: 8e16 ad3e 6867 88be 1fe0 503e 3d33 88bd
00000080: f344 7dbd 3347 783e e0d3 96bc d3ec 0d3e
00000090: ba68 023f 51cf b13e b4ba f63d fc54 49be
000000a0: 9293 4b3e 3758 2ebe 996f ca3d 37a6 6ebe
000000b0: def7 903d 5c93 8abe e318 5dbe 1059 633e
000000c0: 544c 243f 7de7 a03d ec53 4f3c 101c da3d
000000d0: 28b1 003d 399c 55be 2a47 903e 85af c33d
000000e0: 0832 83be 1b0c a0be d8c8 123d 71bc fc3b
000000f0: 62e3 0bbf 644f 9e3e f69a 863e a4ff 0d3d
00000100: d99a afbe c54e cf3e 7a48 af3e aa93 fa3e
00000110: 80d4 32be c903 433e bd0b dabd 635d 62be
00000120: 457d f93e 7726 8abe e37e a5be f275 b7be
00000130: 11f6 d63e 3a5c 75be f93a 563d 43b8 abbe
00000140: edca 5abe 8250 a3bc ea7b 893e ffc3 0b3f
00000150: 71a4 01be ee8e adbd e5ac 33be 6326 20be
00000160: 3d3c 6fbc ab01 a63c 95c2 b23e b12b ed3d
00000170: 4821 2e3c 8b61 f83c 5012 a5be bf43 c9be
00000180: d73e f43c ab09 703e 1109 753d 34da 0cbd
00000190: 91bf 8cbc ece7 1f3d e0fc 87bd 96a0 a33e
000001a0: cc83 c7be 2abe 65be ee61 43bd 7dc3 0bbe
000001b0: 3a4e 56be cb4d b8be 8c31 ddbd 02ad b33e
000001c0: 5a61 aabe bb41 14bd e25b 0ebe 3845 87be
000001d0: aca3 b6be 77e6 df3e 153f aabd 502a 6e3e
000001e0: f9a2 53be d75a 82be 670b 7d3d e1ba 44be
000001f0: 5782 21be ccff a53d b978 363d 0fad 2d3e
00000200: 80fb 553d a21a 19be 2652 3dbe 2a61 5c3e
00000210: 29b5 e53d 93c2 efbd ac65 943d 7a57 5f3e
00000220: e243 a13e 5542 19be 4ec2 a8be 4552 c73e
00000230: 97c0 d83e db22 d33e 65bf c43e 0945 7abe
00000240: b372 86bd 86be 5d3e 6821 93be 69f5 b4bc
00000250: be46 913e d728 3f3e c140 553e 2cd9 35be
00000260: 3af3 6dbd 0ac0 b1bd 7c52 84be 08a0 b2be
00000270: c9da 86be 8d74 e63b bd46 58be 9ba4 b0bc
00000280: e999 35be 8ea6 02bf a2bc 573d d756 fdbd
00000290: 47aa 2ebe 877c 8a3d b9f6 283e d522 4f3e
000002a0: cacd 8b3e af4c ddbc 53b9 783e 641d 153f
000002b0: 1b89 a83e 9a32 a1be c551 153e 9c01 ba3e
000002c0: a854 b83e 5e8d 20bf 0941 54be 74ed c13c
000002d0: 9b8f aebe 96a5 21bc 5ebe c13e c0d0 20be
000002e0: 93bc db3d 8ab0 183e 2bbc 2fbe 23c7 7a3e
000002f0: a4fd 853e 8768 f9bd eee2 01be 2a50 63bd
00000300: e65d ef3d 5011 bc3e d45a 08bf 5acd debf
00000310: 0973 73bd 2261 ad3e 05d3 b23e 9adb 993e
00000320: d7f5 4bbf 15ee 62bd 9fab 4dbe 9447 fd3d
00000330: 90af b83e 99f7 383e 94f7 b03e ff6c b23e
00000340: e49f a33b 09df c63d b245 53be 3880 673e
00000350: 3bf6 2cbf f758 cd3d 5ad4 ab3e 9897 803e
00000360: 37cb 2c3e ec47 95bd 8e09 853e 9b0e 123e
00000370: 05af 8bbd a1b8 26bd b6e3 8bbe 3b38 b2be
00000380: ce19 d9be fc24 14bd 9afa b63e 9b39 d13d
00000390: e9c6 f3bd c9cd 993e 8da7 b4bd 7fbb c9bd
000003a0: 7013 95bd fafb 7abe 0b34 993e 3b81 9dbe
000003b0: e2cf 91be f45c 1b3e a76c 87bd 32a9 4d3e
000003c0: 97c6 96bf cd61 713e 24f6 df3d c5df 423f
000003d0: 0736 4dbd 4cc6 ad3e 9189 35bf 3e74 ba3e
000003e0: 8aa0 0b3f 14ed 5abd b1d7 f13b 1105 a8be
000003f0: 78b1 133e 5d44 b2be 61e2 6b3e b3c6 11bf

parallel_cnn_block.branches.3.0.weight f4 [1, 1, 32]
0.02498825 -0.061981615 -0.023927217 -0.0028456617 -0.032211985 -0.028008988 0.041347023 -0.029731316
0.12495704 0.12448259 0.19116439 0.12245539 0.15347837 0.06112757 0.0070946766 0.13053243
0.04242989 0.25342155 0.32960448 0.15691045 0.3099618 0.07428046 0.06210239 -0.06008874
0.07560511 0.014757921 -0.06943707 0.05247084 -0.017058438 -0.06620502 0.006819279 -0.0070763733
00000000: 29b4 cc3c 6fe0 7dbd 0303 c4bc 487e 3abb
00000010: b7f0 03bd 1b73 e5bc 7f5b 293d 178f f3bc
00000020: 7ae9 ff3d baf0 fe3d 99c0 433e e4c9 fa3d
00000030: 6f29 1d3e e760 7a3d 767a e83b 4baa 053e
00000040: f7ca 2d3d 78c0 813e ebc1 a83e 22ad 203e
00000050: 50b3 9e3e 5b20 983d 135f 7e3d 9c1f 76bd
00000060: dad6 9a3d 35cb 713c 0635 8ebd aaeb 563d
00000070: 23be 8bbc 7f96 87bd 4274 df3b ece0 e7bb

parallel_cnn_block.branches.3.2.bias f4 [16]
0.57041824 0.3746926 0.080864824 0.15247345 0.5346302 0.3204476 0.015279795 0.24039644
0.16151546 0.044696722 0.013536719 0.0588061 0.41002247 0.2700519 0.037063632 -0.023333242
00000000: ee06 123f b5d7 bf3e 759c a53d 0022 1c3e
00000010: 86dd 083f b511 a43e 1b58 7a3c 7c2a 763e
00000020: 4f64 253e e913 373d 1dc9 5d3c aade 703d
00000030: 77ee d13e 3e44 8a3e 09d0 173d 5b25 bfbc
