wide/modelpars_wide_i_1.safetensors (safetensors, 86584 bytes, 32 tensors)

bilstm.bias_hh_l0 f4 [64]
-0.10975491 0.25026786 0.17192215 0.12345504 -0.14480436 -0.018443385 0.07470818 0.12502284
-0.17966543 -0.037685137 0.039841745 -0.017695928 -0.10708064 0.17031735 0.22135098 0.0929158
0.16823582 -0.15221873 0.11729085 -0.06379506 -0.123798944 0.2335429 -0.04729345 0.047638126
0.27437606 0.24421261 0.18641856 0.22833946 -0.25275695 -0.07556967 -0.053172387 0.027315056
0.0468983 0.07343803 0.21902551 0.17362875 0.07141107 -0.066719905 0.26277393 0.05473279
-0.21388963 0.11234785 -0.07278363 0.047470093 -0.21767044 0.10458824 0.11326219 -0.1787271
-0.16186465 0.004736505 0.016305845 0.231498 0.18934083 0.12984769 -0.13469566 0.0077134687
-0.16355672 0.22037286 -0.041719776 -0.13242306 0.039039172 -0.17996857 -0.09686714 0.23138577
00000000: 2fc7 e0bd 1c23 803e 5c0c 303e ffd5 fc3d
00000010: 9847 14be 9516 97bc 9a00 993d fd05 003e
00000020: 37fa 37be bb5b 1abd 1931 233d 0df7 90bc
00000030: 184d dbbd ac67 2e3e d5a9 623e a44a be3d
00000040: 0346 2c3e 3adf 1bbe 2f36 f03d fca6 82bd
00000050: 4d8a fdbd df25 6f3e c7b6 41bd 3220 433d
00000060: 057b 8c3e df12 7a3e 82e4 3e3e d2d1 693e
00000070: 5c69 81be 45c4 9abd 4acb 59bd d3c3 df3c
00000080: 6f18 403d ae66 963d 3948 603e bccb 313e
00000090: f83f 923d 72a4 88bd 4e8a 863e 7d2f 603d
000000a0: e205 5bbe a116 e63d 950f 95bd 0070 423d
000000b0: 00e5 5ebe 5c32 d63d 02f6 e73d 3d04 37be
000000c0: d9bf 25be af34 9b3b d693 853c d00d 6d3e
000000d0: 90e2 413e cbf6 043e a9ed 09be 44c1 fc3b
000000e0: 6a7b 27be 6ca9 613e 5be2 2abd e999 07be
000000f0: 8ae7 1f3d ae49 38be 4762 c6bd 64f0 6c3e

bilstm.bias_hh_l0_reverse f4 [64]
0.06744455 0.25148788 0.20679636 0.08039166 -0.22159629 0.12748949 -0.09683676 -0.07576749
-0.0855212 -0.053901773 -0.08946808 -0.033952683 0.0993112 0.11540702 0.14779077 0.16571301
-0.27847955 -0.123601824 -0.051581375 0.110695004 -0.0895441 -0.14584094 0.26937518 0.11718878
0.17480958 0.08746216 0.097025506 0.055182934 0.2153611 -0.108140245 -0.0022711523 -0.01723275
-0.16327849 0.022500772 0.2303495 -0.078808315 -0.09565468 0.14767644 -0.12010649 -0.17414016
0.25254348 0.15511851 -0.20022441 0.21277675 -0.013498553 -0.15585843 -0.18141064 0.0035270257
-0.09155233 -0.1446737 0.14646192 0.014745717 0.08416491 -0.09725033 0.27513674 -0.16475104
-0.10686733 -0.16561818 0.19851404 0.13304031 0.16462973 0.25017715 0.11439515 0.033117983
00000000: 5e20 8a3d 05c3 803e 6dc2 533e 62a4 a43d
00000010: 23ea 62be 9b8c 023e 5a52 c6bd fc2b 9bbd
00000020: bd25 afbd 1bc8 5cbd 0a3b b7bd f811 0bbd
00000030: ac63 cb3d 845a ec3d 7756 173e acb0 293e
00000040: df94 8ebe f422 fdbd fe46 53bd 10b4 e23d
00000050: e662 b7bd 5457 15be 8beb 893e ac00 f03d
00000060: 4801 333e 5c1f b33d 4fb5 c63d 8007 623d
00000070: 9f87 5c3e a278 ddbd 9dd7 14bb b22b 8dbc
00000080: 7a32 27be 8a53 b83c bde0 6b3e 4166 a1bd
00000090: 9ae6 c3bd 7e38 173e 64fa f5bd cc51 32be
000000a0: 614d 813e 63d7 1e3e a107 4dbe 26e2 593e
000000b0: 0929 5dbc 5a99 1fbe b6c3 39be ac25 673b
000000c0: ca7f bbbd 5825 14be 1dfa 153e 0598 713c
000000d0: a75e ac3d 2e2b c7bd b9de 8c3e 7fb4 28be
000000e0: 42dd dabd d097 29be 4447 4b3e b83b 083e
000000f0: b294 283e 3817 803e 0148 ea3d b9a6 073d

bilstm.bias_ih_l0 f4 [64]
-0.112542406 0.038429655 0.23522547 -0.03183901 0.11873677 -0.0141274715 -0.115501255 0.03083121
0.26140872 -0.20732044 -0.1305899 0.037507374 0.018468779 0.08017097 -0.09136739 0.033925284
0.06984255 0.04756114 0.16609816 0.21327765 0.20089677 0.15289316 -0.17820533 0.19900721
-0.06115945 0.10867531 -0.17745888 0.2053478 0.09094403 -0.14162211 0.25916243 0.27217507
0.099636756 0.1375067 0.18761258 -0.22749263 0.1351039 0.005523433 0.18285891 0.12536226
0.02791001 -0.20910455 -0.21954438 -0.13301179 0.19423929 -0.24765801 0.16464022 0.19751488
0.21790762 -0.15037347 -0.15205255 0.21914923 -0.18292338 0.16899662 -0.16350044 0.15616293
0.30011266 0.2856001 -0.16074315 0.07971281 0.107154004 -0.010216067 -0.15467188 0.16836633
00000000: a27c e6bd 6a68 1d3d f2de 703e 9f69 02bd
00000010: 432c f33d e976 67bc ec8b ecbd bc91 fc3c
00000020: 5dd7 853e cf4b 54be 5cb9 05be 55a1 193d
00000030: d64b 973c ad30 a43d d31e bbbd 3df5 0a3d
00000040: 9c09 8f3d 78cf 423d a315 2a3e 7565 5a3e
00000050: e2b7 4d3e 0690 1c3e 757b 36be 8cc8 4b3e
00000060: 5582 7abd 2991 de3d c8b7 35be b246 523e
00000070: dd40 ba3d 6305 11be f0b0 843e 885a 8b3e
00000080: 5b0e cc3d 8ece 0c3e 831d 403e d4f3 68be
00000090: ad58 0a3e eafd b43b 5e3f 3b3e f75e 003e
000000a0: 89a3 e43c 811f 56be 3ed0 60be 3e34 08be
000000b0: aae6 463e 109a 7dbe 7297 283e 5741 4a3e
000000c0: 2d23 5f3e 81fb 19be aab3 1bbe a868 603e
000000d0: 4450 3bbe 730d 2d3e a96c 27be 2de9 1f3e
000000e0: 5ea8 993e 2d3a 923e da99 24be 7840 a33d
000000f0: 8f73 db3d 4a61 27bc 4e62 1ebe 3968 2c3e

bilstm.bias_ih_l0_reverse f4 [64]
-0.0928058 0.21368119 0.18597011 -0.15616186 -0.265574 0.23661536 0.21160923 0.047367394
-0.09661896 -0.13893674 -0.006237363 -0.025761792 -0.0121705895 0.2660182 0.20335107 -0.17286748
-0.08166634 -0.055285513 -0.23416883 -0.20975703 -0.027160946 0.12320985 -0.122988366 0.010858132
0.25412363 -0.0005225124 -0.07126514 0.25564837 0.07928842 0.2597995 -0.10028266 -0.036819484
-0.16716442 0.18921903 0.22547902 -0.17334887 -0.077020004 -0.03168317 0.18950315 -0.13365076
-0.14929932 0.014771274 -0.26162383 0.09195152 0.039644856 0.08982318 -0.04629722 0.042164057
0.1463562 0.06831469 0.073841706 -0.09844732 0.18987826 0.17204058 0.1486758 0.22452442
0.23443995 0.24231476 -0.18330944 -0.17591977 -0.098074116 0.082503654 -0.19419825 -0.03263527
00000000: f810 bebd 3ecf 5a3e f36e 3e3e e5e8 1fbe
00000010: 51f9 87be 4c4b 723e 17b0 583e 5004 423d
00000020: 29e0 c5bd 6f45 0ebe cb62 ccbb 650a d3bc
00000030: 2767 47bc 8a33 883e 433b 503e 2c04 31be
00000040: af40 a7bd 1073 62bd f4c9 6fbe 8cca 56be
00000050: a280 debc 7255 fc3d 53e1 fbbd 4ee6 313c
00000060: 7e1c 823e 37f9 08ba 75f3 91bd 58e4 823e
00000070: f861 a23d 7104 853e ff60 cdbd 07d0 16bd
00000080: 262d 2bbe a2c2 413e f9e3 663e 5e82 31be
00000090: aabc 9dbd 36c6 01bd 1d0d 423e bfdb 08be
000000a0: ece1 18be 3703 723c 8ff3 85be 1451 bc3d
000000b0: a562 223d 37f5 b73d 27a2 3dbd 38b4 2c3d
000000c0: 66de 153e 92e8 8b3d 523a 973d c09e c9bd
000000d0: 726f 423e 682b 303e 783e 183e bbe9 653e
000000e0: 0711 703e 5c21 783e 78b5 3bbe 5024 34be
000000f0: 15db c8bd adf7 a83d e8db 46be 90ac 05bd

bilstm.weight_hh_l0 f4 [64, 16]
-0.03433843 -0.021257393 0.0040224595 -0.09818104 0.16550323 -0.17770435 0.0038399473 0.09013537
0.15566371 0.04330826 -0.28922194 0.17110361 0.16808872 -0.08969447 -0.1396356 -0.049330834
-0.22322135 -0.0946757 -0.11770456 -0.21949495 -0.2559892 0.017723594 -0.13123459 0.18309432
0.19474989 -0.19005789 0.18409048 -0.022646038 0.17866573 0.14948988 0.26077285 -0.12443403
0.23152122 -0.08964146 -0.15180378 0.072579555 0.21546967 0.10139964 0.20098354 0.16519602
-0.16940579 -0.08894442 0.080661654 -0.11208487 -0.026148455 -0.2529305 0.059916735 0.2684819
0.0032511258 -0.054457236 0.26403078 -0.052293606 -0.21338145 0.084160365 0.05828916 0.0038578936
-0.16203095 -0.17909025 0.19622573 -0.2266354 0.25888193 0.009769003 -0.07389211 -0.15773548
-0.15072355 -0.17143814 -0.040748864 0.08983772 -0.14923078 0.09636918 0.055010967 -0.18737842
-0.008742142 -0.18490154 -0.08468815 -0.028238008 -0.07708483 -0.27982584 -0.16453181 0.16152644
0.19627713 -0.020288872 -0.12138293 0.09995274 0.10521601 0.053004347 -0.053799562 -0.24534564
-0.15431702 -0.029910147 -0.21720769 0.03792173 -0.10112218 -0.025216512 -0.063061945 0.24980788
0.04375393 -0.11249839 -0.023173407 0.03202602 -0.2350178 0.13468431 -0.09006765 0.013840311
-0.08089676 -0.020894997 -0.24817266 -0.117907934 0.15372412 -0.14192142 0.22211249 -0.18163835
0.0034846186 0.03648164 0.024896106 -0.17958784 -0.21289307 0.15418543 0.046929095 0.09411792
-4.520929e-05 0.20248227 0.04287703 0.060726374 -0.033645812 0.14395443 -0.101387724 0.25476122
0.09478071 -0.07621162 -0.0068132924 -0.25654787 0.052162353 0.09543346 -0.17621687 0.008824783
-0.10391131 0.16050132 -0.25923407 0.2054256 0.068805814 -0.2341907 0.07192567 0.249857
0.040734008 -0.14571051 -0.20494564 0.059014335 0.11310731 -0.26051703 0.036513045 0.117363766
-0.16254747 0.2635336 0.21484114 -0.24029551 -0.12137226 -0.078559905 0.1870591 -0.16787045
-0.17484447 0.12154583 0.14975767 0.2073073 -0.07263589 -0.14766341 0.24299212 0.046907913
-0.03508743 0.20912589 -0.040676713 -0.28839952 0.12826602 0.008618577 -0.17940487 0.08022191
0.075146474 -0.07726834 0.26466003 -0.27250808 0.101162925 -0.15521257 0.2903105 0.1488078
-0.15307236 0.16845152 0.15348977 0.02612871 0.13578174 -0.018783933 -0.07586219 -0.15472586
0.089196496 -0.118744306 -0.22269379 0.10322041 -0.11113617 0.00039805987 0.034253743 0.18707854
0.20180695 -0.098913655 -0.15725574 0.24826264 -0.048030477 0.077686 -0.007559432 0.04631133
-0.11919619 -0.05864464 -0.10888746 -0.24375369 0.04967775 -0.10635446 -0.12077942 0.11102824
-0.08422351 0.115046084 0.0148966415 0.07271872 -0.10325537 -0.123421624 -0.09899066 -0.057582546
-0.10785657 0.116561025 -0.13450338 0.13184762 -0.18971634 0.10495266 -0.18212096 -0.2317664
-0.12294081 0.026910556 0.024410866 -0.029886575 0.052706867 -0.013755511 -0.06642326 0.24299483
0.04610987 0.13877249 0.18171866 -0.21566181 0.13290776 0.088278234 0.23610792 -0.25430483
0.14492851 -0.119097926 -0.17553185 0.115770355 0.06477698 0.18349424 -0.15410785 -0.15742888
00000000: 74a6 0cbd fc23 aebc d6ce 833b 2413 c9bd
00000010: ae79 293e 21f8 35be a0a7 7b3b e598 b83d
00000020: 4f66 1f3e 0164 313d e614 94be c935 2f3e
00000030: 731f 2c3e bcb1 b7bd a2fc 0ebe 210f 4abd
00000040: 2394 64be 55e5 c1bd 170f f1bd 49c3 60be
00000050: 0411 83be 1231 913c 5c62 06be 147d 3b3e
00000060: 846c 473e 899e 42be 3782 3c3e 2f84 b9bc
00000070: 26f4 363e e013 193e 0584 853e 45d7 febd
00000080: e613 6d3e f195 b7bd 7372 1bbe 97a4 943d
00000090: 15a4 5c3e 9daa cf3d a1ce 4d3e 2529 293e
000000a0: b678 2dbe 7e28 b6bd f031 a53d c18c e5bd
000000b0: 4935 d6bc 1b80 81be 406b 753d 7676 893e
000000c0: d710 553b 8d0e 5fbd 0b2f 873e d231 56bd
000000d0: ab80 5abe 455c ac3d 9dc0 6e3d b7d4 7c3b
000000e0: 71eb 25be 6f63 37be 66ef 483e 1c13 68be
000000f0: 2c8c 843e 2b0e 203c bf54 97bd 6985 21be
00000100: 4657 1abe 7b8d 2fbe 48e8 26bd d7fc b73d
00000110: f4cf 18be 345d c53d 2e53 613d 21e0 3fbe
00000120: 333b 0fbc d456 3dbe fb70 adbd 6553 e7bc
00000130: a7de 9dbd 5545 8fbe 077b 28be 3067 253e
00000140: dffc 483e d934 a6bc 9d97 f8bd 06b4 cc3d
00000150: 7e7b d73d 161b 593d ee5c 5cbd e33b 7bbe
00000160: 4805 1ebe 2006 f5bc b16b 5ebe d153 1b3d
00000170: 2519 cfbd dc92 cebc 9f26 81bd a3cd 7f3e
00000180: 5237 333d 8e65 e6bd 28d6 bdbc b72d 033d
00000190: 82a8 70be afea 093e 6375 b8bd 79c2 623c
000001a0: 33ad a5bd fc2b abbc f920 7ebe b779 f1bd
000001b0: db69 1d3e d953 11be 7571 633e 67ff 39be
000001c0: 335e 643b c66d 153d ebf2 cb3c e0e5 37be
000001d0: a400 5abe c9e2 1d3e b938 403d e5c0 c03d
000001e0: 1b9f 3db8 8357 4f3e d39f 2f3d 38bc 783d
000001f0: 31d0 09bd ca68 133e 5ea4 cfbd 1070 823e
00000200: 641c c23d d614 9cbd 0a42 dfbb 3e5a 83be
00000210: 31a8 553d 9e72 c33d 3272 34be d395 103c
00000220: 74cf d4bd 755a 243e 54ba 84be 175b 523e
00000230: 10ea 8c3d b0cf 6fbe c44d 933d 83da 7f3e
00000240: b4d8 263d 2335 15be 45dd 51be 04b9 713d
00000250: cea4 e73d 7d62 85be b48e 153d 6a5c f03d
00000260: d872 26be e0ed 863e 51ff 5b3e 0710 76be
00000270: 0592 f8bd 04e4 a0bd 6c8c 3f3e 3be6 2bbe
00000280: 6e0a 33be 05ed f83d 135a 193e 5d48 543e
00000290: 20c2 94bd 1435 17be edd2 783e 8322 403d
000002a0: d6b7 0fbd 1925 563e a09c 26bd 1aa9 93be
000002b0: 2b58 033e ef34 0d3c e9b5 37be 624b a43d
000002c0: 65e6 993d dd3e 9ebd 8581 873e 2e86 8bbe
000002d0: 822e cf3d 0bf0 1ebe 94a3 943e 1261 183e
000002e0: 00bf 1cbe 8e7e 2c3e 6c2c 1d3e e00b d63c
000002f0: 5e0a 0b3e c3e0 99bc a35d 9bbd 7570 1ebe
00000300: a7ac b63d 3730 f3bd d709 64be 3965 d33d
00000310: 5c9b e3bd b1b2 d039 a74d 0c3d 8491 3f3e
00000320: 7ba6 4e3e 3e93 cabd a607 21be 9038 7e3e
00000330: 9bbb 44bd d619 9f3d 1db5 f7bb f3b0 3d3d
00000340: 221d f4bd 5d35 70bd 6300 dfbd 919a 79be
00000350: e57a 4b3d 5ed0 d9bd 335b f7bd c662 e33d
00000360: 607d acbd 489d eb3d 0b11 743c 8ded 943d
00000370: 8d77 d3bd 7ac4 fcbd 9dbb cabd addb 6bbd
00000380: e8e3 dcbd 8cb7 ee3d 41bb 09be 1003 073e
00000390: 0045 42be 6cf1 d63d eb7d 3abe 2c54 6dbe
000003a0: 64c8 fbbd 8773 dc3c 4cf9 c73c b1d4 f4bc
000003b0: 28e3 573d cb5e 61bc eb08 88bd a3d3 783e
000003c0: b4dd 3c3d 601a 0e3e 7514 3a3e 73d6 5cbe
000003d0: f918 083e 38cb b43d 46c6 713e 3e34 82be
000003e0: 2468 143e 9de9 f3bd 9fbe 33be 0219 ed3d
000003f0: cba9 843d eae5 3b3e 73ce 1dbe 0935 21be

bilstm.weight_hh_l0_reverse f4 [64, 16]
0.08238442 0.19359519 -0.21477461 0.24499685 -0.16019028 0.08829719 0.16877413 -0.0054914793
-0.21455266 0.17548755 -0.20620166 -0.14403206 -0.091855966 -0.18709543 -0.18525271 0.07838409
-0.03257471 0.2583816 -0.23596673 0.012993895 0.009134342 0.0036272677 -0.13817133 -0.19392224
0.09515738 0.047501307 -0.086698346 -0.17589687 -0.08372517 -0.1206641 -0.108992316 0.00864881
0.20325623 -0.09694195 0.17427552 -0.2035462 0.2520961 0.17852214 -0.039462958 -0.033940718
0.25904888 -0.17031245 -0.14896671 -0.09239589 -0.13831343 -0.018134085 -0.12700653 -0.04305728
-0.21388684 0.020568492 -0.19098829 0.30002862 -0.17954491 -0.22338177 -0.21235746 0.16127947
0.033453148 0.14490165 0.11023427 -0.1085481 0.2661747 0.06125955 0.255999 0.019147433
-0.17436364 -0.026582098 -0.014197713 0.080631435 0.19530141 -0.009739863 0.03549519 -0.15567388
0.09419165 0.087355 -0.1041572 -0.112273544 0.1148367 -0.18262096 -0.055587906 -0.009518036
0.21858735 -0.006058089 0.17789544 -0.20101206 0.0077229375 -0.21207747 0.016381815 -0.17471457
-0.20950787 -0.24959108 0.19787817 0.10818896 0.07597524 -0.24637355 -0.20941819 -0.15299976
0.10469148 0.21773578 -0.009534113 0.25228542 0.08554337 0.1901647 0.26887602 0.02216331
-0.17326793 0.052865587 -0.11813831 0.06306046 0.17825104 0.16625236 -0.21464573 -0.09086197
-0.23432767 -0.123562165 0.039343867 0.23463248 0.10805599 0.12795724 -0.21618728 -0.024952944
-0.01694503 0.073232345 -0.21344621 0.2766852 0.013716236 -0.28678125 0.14203887 0.13274363
0.052857425 0.24690747 -0.18454027 -0.13827838 -0.13537644 -0.1437623 0.2186114 0.010899735
-0.10323494 -0.02430391 0.11512544 -0.092207395 -0.012034036 0.13967276 0.028188743 -0.03048685
0.1701898 -0.048585713 0.2210961 -0.14498535 -0.13144426 0.058677327 -0.2077203 -0.16668613
-0.008729428 -0.16787587 -0.19348909 0.10936235 0.089469366 -0.13377833 -0.119190544 -0.25127783
0.19056667 0.12660514 -0.04722168 -0.06205712 0.031652354 0.031436242 0.15174353 -0.17148824
0.021173121 0.06716821 0.17606275 -0.15737815 0.10093163 0.060625654 -0.0045653963 -0.07814428
0.059459858 0.27322307 -0.104264885 -0.029785136 0.07429267 0.13681288 0.27750427 -0.25183588
0.24065158 -0.26413128 -0.021077463 -0.18565713 0.14409952 -0.05689784 0.007814802 0.033672974
-0.15251008 0.2075346 -0.16720071 -0.1640355 -0.01304392 -0.22333178 0.2656219 -0.11645928
-0.0459059 0.07864927 0.032940567 -0.0024782962 0.05980848 -0.03424038 -0.062739775 0.043808173
0.2175456 -0.19037123 -0.13281192 0.27399758 -0.1522483 -0.18759151 -0.009346544 0.041831236
0.22682141 -0.092208415 -0.2792009 -0.0042737527 -0.007342426 0.0789246 0.17650037 0.20311779
-0.21407843 0.15536377 -0.21034048 -0.08944384 -0.04473881 -0.11389108 0.09747345 -0.09161221
-0.24805988 -0.21792041 0.20455526 0.070282646 0.23680727 0.0152086755 0.25541303 -0.035829112
-0.09020794 -0.21185422 -0.012396525 -0.03495747 -0.019320454 -0.075024486 -0.14283717 -0.11527376
0.15065768 -0.20068127 -0.044417962 -0.11894693 0.026582211 -0.10104302 0.113806196 0.18995345
00000000: 2ab9 a83d d13d 463e e0ed 5bbe 74e0 7a3e
00000010: ec08 24be 28d5 b43d 20d3 2c3e def1 b3bb
00000020: b1b3 5bbe 02b3 333e 8726 53be 247d 13be
00000030: fb1e bcbd f295 3fbe e3b2 3dbe d687 a03d
00000040: 0f6d 05bd 984a 843e 43a1 71be 59e4 543c
00000050: 35a8 153c 74b7 6d3b c97c 0dbe 8d93 46be
00000060: dfe1 c23d bb90 423d e78e b1bd 4f1e 34be
00000070: 1a78 abbd bd1e f7bd 5d37 dfbd bdb3 0d3c
00000080: 6722 503e 8089 c6bd 4875 323e 6a6e 50be
00000090: bd12 813e 82ce 363e e9a3 21bd 6c05 0bbd
000000a0: 0ea2 843e 6366 2ebe bb8a 18be 0e3a bdbd
000000b0: 09a2 0dbe ef8d 94bc 000e 02be d55c 30bd
000000c0: 2705 5bbe 417f a83c 6f92 43be 5a9d 993e
000000d0: 9fda 37be 31be 64be 3c74 59be 7226 253e
000000e0: 2b06 093d 1961 143e 81c2 e13d 774e debd
000000f0: 0d48 883e 4beb 7a3d 4d12 833e 14db 9c3c
00000100: 628c 32be b3c2 d9bc 869d 68bc 1822 a53d
00000110: 18fd 473e f293 1fbc 6863 113d f968 1fbe
00000120: 8de7 c03d 2ee7 b23d 5f50 d5bd acef e5bd
00000130: 812f eb3d fd00 3bbe 25b0 63bd 89f1 1bbc
00000140: 5dd5 5f3e ef82 c6bb 392a 363e 1bd6 4dbe
00000150: b210 fd3b d62a 59be 2833 863c 60e8 32be
00000160: 3b89 56be ce94 7fbe 93a0 4a3e 2c92 dd3d
00000170: e898 9b3d 5949 7cbe b971 56be f8ab 1cbe
00000180: 7d68 d63d 21f6 5e3e f834 1cbc 8e2b 813e
00000190: 5d31 af3d 89ba 423e 1eaa 893e d48f b53c
000001a0: 266d 31be 9689 583d 80f2 f1bd d825 813d
000001b0: 7187 363e 0f3e 2a3e 17cc 5bbe d715 babd
000001c0: 98f3 6fbe 290e fdbd 0927 213d 7f43 703e
000001d0: 754c dd3d 3907 033e 3360 5dbe 1e6a ccbc
000001e0: 4ed0 8abc d7fa 953d a591 5abe afa9 8d3e
000001f0: 10ba 603c fed4 92be a372 113e f2ed 073e
00000200: 0781 583d 50d5 7c3e 20f8 3cbe d998 0dbe
00000210: 1fa0 0abe 6d36 13be abdb 5f3e cd94 323c
00000220: d76c d3bd fe18 c7bc e3c6 eb3d 3bd7 bcbd
00000230: 682a 45bc 6006 0f3e 14ec e63c 8fbf f9bc
00000240: 3c46 2e3e d001 47bd 0467 623e 0a77 14be
00000250: 5399 06be a357 703d a1b4 54be c5af 2abe
00000260: e005 0fbc a7e7 2bbe 0122 46be 5ef9 df3d
00000270: b73b b73d 30fd 08be 2c1a f4bd 7da7 80be
00000280: e923 433e c7a4 013e 856b 41bd 9b2f 7ebd
00000290: e6a5 013d 4ac3 003d a862 1b3e 9d9a 2fbe
000002a0: 4173 ad3c 7d8f 893d cb49 343e bd27 21be
000002b0: 3eb5 ce3d 9b52 783d 5299 95bb 1c0a a0bd
000002c0: 2e8c 733d e5e3 8b3e d488 d5bd f5ff f3bc
000002d0: c126 983d ad18 0c3e 0a15 8e3e a2f0 80be
000002e0: 5e6d 763e 373c 87be a5aa acbc e71c 3ebe
000002f0: d38e 133e b60d 69bd a809 003c acec 093d
00000300: 9a2b 1cbe f383 543e aa36 2bbe ecf8 27be
00000310: 2ab6 55bc 16b1 64be 98ff 873e 3482 eebd
00000320: d307 3cbd de12 a13d b0ec 063d e96a 22bb
00000330: bdf9 743d a43f 0cbd b67d 80bd 3370 333d
00000340: 46c4 5e3e adf0 42be d9ff 07be 6949 8c3e
00000350: fae6 1bbe fd17 40be 3f22 19bc 3b57 2b3d
00000360: df43 683e c4d7 bcbd 6cf3 8ebe d60a 8cbb
00000370: bc98 f0bb 38a3 a13d 83bc 343e 1cfe 4f3e
00000380: 6037 5bbe ae17 1f3e 7f63 57be 552e b7bd
00000390: 0b40 37bd ba3f e9bd 29a0 c73d 2f9f bbbd
000003a0: 6903 7ebe 8726 5fbe ef76 513e 59f0 8f3d
000003b0: 9b7d 723e cf2d 793c 7fc5 823e 8cc1 12bd
000003c0: f1be b8bd 50f0 58be cb1a 4bbc 902f 0fbd
000003d0: ee45 9ebc 70a6 99bd e843 12be a614 ecbd
000003e0: 0246 1a3e 647f 4dbe 9cef 35bd 739a f3bd
000003f0: f0c2 d93c a5ef cebd 3913 e93d 2883 423e

bilstm.weight_ih_l0 f4 [64, 32]
0.022213021 0.19883335 0.16258332 -0.106984116 0.22496693 0.056959014 0.020195052 0.11482782
0.27871966 -0.07009176 -0.2348861 0.0894944 -0.13149711 0.24743603 -0.05548914 0.12505274
0.0043430584 -0.12388789 -0.060841527 0.1481056 0.24519564 0.04798683 0.29064596 0.16658291
-0.07145851 0.08445641 0.072743185 0.1792584 -0.09758527 0.14752981 -0.10677933 -0.07596891
0.20820759 0.059615795 0.06851599 -0.18434414 0.044384237 0.103923984 -0.05372177 -0.13475955
0.27838248 -0.12821174 0.16751945 0.124733634 0.0007519788 -0.10239874 -0.2000282 -0.17645106
-0.060213782 0.014133347 0.22686484 0.13467051 -0.058535054 0.15487623 0.022725308 -0.030639827
0.1659579 0.26661086 0.022754805 -0.028752694 -0.23264639 0.20914531 0.27485454 -0.14209107
0.08472709 0.24742512 -0.17818817 -0.18189882 0.21478902 0.20988342 0.08125161 0.069149666
0.13436888 0.17686693 0.11399755 -0.20363982 -0.21371582 0.07601937 0.08517038 0.13748449
-0.004166169 0.19087723 -0.10761067 0.24308147 -0.0012728281 0.07707504 0.25357288 0.16601983
-0.1768614 0.15684998 -0.23863216 0.13458844 -0.061972495 -0.068376936 0.27507365 0.20769438
0.18950345 -0.043865524 0.19105455 -0.22225146 -0.03721338 0.059455846 0.20620517 0.0058989916
-0.14066999 0.2576693 -0.24258478 0.09032266 0.11481366 -0.20117429 0.21845011 0.1627952
0.08179817 -0.14624548 -0.18863605 -0.08856524 -0.083644815 0.2646332 0.08608823 0.038584013
-0.14903934 0.20230997 0.14140256 -0.14804105 0.13008934 0.20525299 -0.010502886 0.071135625
-0.20468336 -0.23356466 0.005057336 0.1752568 0.20306796 -0.106534705 -0.048775177 0.023847628
0.090306796 0.23318802 -0.116091505 0.14687665 0.018420309 -0.06068065 -0.04991473 -0.14869721
0.18231222 0.28406802 -0.14828652 -0.020037618 -0.0752564 -0.18480936 0.00048833224 -0.09470312
-0.025236607 0.1818504 0.14788109 -0.09983852 0.08054196 -0.19314007 0.12859653 -0.08014818
-0.050560534 0.029059954 0.06200928 0.13419391 -0.09550492 -0.1414809 -0.19032319 -0.0834512
0.100429066 0.036778755 -0.12638676 0.093869545 -0.115025885 0.1809544 -0.12215667 0.20852672
0.18695411 -0.09461453 -0.17077108 0.19630995 -0.115761176 0.28787073 0.15493123 0.16362317
-0.016862025 0.09596578 -0.21629325 -0.0358862 0.26103485 0.11803394 -0.09040663 -0.02094419
0.18989442 0.10689874 -0.19576435 -0.1133232 -0.0396019 0.17457804 0.061003357 -0.029792694
0.05948679 -0.12397619 -0.1694457 0.033211786 -0.09271856 0.20795682 0.13322888 -0.22800782
0.18890813 0.09097305 0.102185614 0.21793838 -0.007849253 -0.147853 0.12439889 -0.06545277
-0.20182326 0.04492105 0.069164954 -0.107408434 0.10712723 -0.17656486 0.0060191336 0.24006452
0.14287594 0.13996297 -0.030315245 -0.075752094 0.21644092 0.0046487465 0.23640609 -0.01634806
0.037558984 0.14202401 -0.21661565 -0.13159166 0.1917814 0.22617036 0.13262175 0.045406494
-0.04506871 -0.019342564 -0.15612376 0.15818371 0.080688395 0.13472539 -0.028567782 -0.008318354
-0.15567714 -0.057731103 -0.20835108 0.18586701 0.02504733 0.16126975 0.22230521 0.067403145
00000000: 15f8 b53c f89a 4b3e 3e7c 263e 7d1a dbbd
00000010: bb5d 663e db4d 693d 1870 a53c d92a eb3d
00000020: 58b4 8e3e 458c 8fbd fb85 70be d748 b73d
00000030: 2ea7 06be df5f 7d3e 9548 63bd d30d 003e
00000040: 3750 8e3b efb8 fdbd f734 79bd ffa8 173e
00000050: 9114 7b3e d78d 443d 8ccf 943e b694 2a3e
00000060: d758 92bd 7bf7 ac3d 61fa 943d 848f 373e
00000070: c9da c7bd 0e12 173e 1faf dabd 9695 9bbd
00000080: 5f34 553e b12f 743d 1d52 8c3d b6c4 3cbe
00000090: 3fcc 353d 19d6 d43d 5c0b 5cbd 68fe 09be
000000a0: 2688 8e3e f049 03be 388a 2b3e 5974 ff3d
000000b0: 7120 453a 6eb6 d1bd 31d4 4cbe 96af 34be
000000c0: baa2 76bd 8e8f 673c 424f 683e 11e7 093e
000000d0: 74c2 6fbd e097 1e3e 6d2a ba3c 6000 fbbc
000000e0: def0 293e 3881 883e 4968 ba3c c58a ebbc
000000f0: db3a 6ebe 302a 563e bcb9 8c3e 5280 11be
00000100: 6685 ad3d 035d 7d3e f676 36be af43 3abe
00000110: a7f1 5b3e aeeb 563e 3e67 a63d 579e 8d3d
00000120: ff97 093e 9b1c 353e 8c77 e93d f586 50be
00000130: 52d8 5abe 0bb0 9b3d cf6d ae3d bcc8 0c3e
00000140: 5c84 88bb 5275 433e fc62 dcbd 59ea 783e
00000150: 06d5 a6ba 85d9 9d3d 4ed4 813e 1a01 2a3e
00000160: 281b 35be 489d 203e fd5b 74be 8dd1 093e
00000170: dfd6 7dbd 3509 8cbd 74d6 8c3e d6ad 543e
00000180: 310d 423e 56ac 33bd cea3 433e e395 63be
00000190: 0f6d 18bd f987 733d 7327 533e 544c c13b
000001a0: cb0b 10be 3bed 833e 2568 78be 16fb b83d
000001b0: 6d23 eb3d a200 4ebe 63b1 5f3e c9b3 263e
000001c0: cd85 a73d 60c1 15be cf29 41be b161 b5bd
000001d0: f94d abbd 017e 873e 074f b03d 450a 1e3d
000001e0: c59d 18be 582a 4f3e d5cb 103e 1398 17be
000001f0: 2436 053e d72d 523e 4c14 2cbc 8eaf 913d
00000200: 8498 51be 932b 6fbe 02b8 a53b 8576 333e
00000210: 0cf1 4f3e de2e dabd 7bc8 47bd 1a5c c33c
00000220: c5f2 b83d d7c8 6e3e 62c1 edbd d566 163e
00000230: 30e6 963c 468c 78bd 6373 4cbd 1544 18be
00000240: 0eb0 3a3e 5d71 913e 6cd8 17be ee25 a4bc
00000250: 0720 9abd aa3e 3dbe 6c03 003a b6f3 c1bd
00000260: 00bd cebc fe36 3a3e 246e 173e 2378 ccbd
00000270: 2ff3 a43d 83c6 45be cfae 033e bb24 a4bd
00000280: 9018 4fbd 240f ee3c 71fd 7d3d 216a 093e
00000290: 1598 c3bd 5ee0 10be 15e4 42be 76e8 aabd
000002a0: c1ad cd3d 52a5 163d 886b 01be ad3e c03d
000002b0: b192 ebbd 1c4c 393e 472d fabd 0788 553e
000002c0: e670 3f3e 43c5 c1bd 9dde 2ebe 7a05 493e
000002d0: 3214 edbd cb63 933e 4ba6 1e3e d58c 273e
000002e0: 3b22 8abc b589 c43d fa7b 5dbe 68fd 12bd
000002f0: 5ca6 853e c7bb f13d 1c27 b9bd 2693 abbc
00000300: af73 423e baed da3d 7376 48be fe15 e8bd
00000310: 9a35 22bd 96c4 323e a8de 793d cf0f f4bc
00000320: 6ca8 733d 3be7 fdbd 2c83 2dbe 1509 083d
00000330: 3ae3 bdbd a2f2 543e 276d 083e e27a 69be
00000340: 2271 413e 1450 ba3d b146 d13d 3d2b 5f3e
00000350: 279a 00bc c766 17be d8c4 fe3d 1a0c 86bd
00000360: c2aa 4ebe 23ff 373d 5ba6 8d3d f4f8 dbbd
00000370: 8565 db3d 6bcd 34be 273c c53b 79d3 753e
00000380: 124e 123e 7452 0f3e ad57 f8bc ea23 9bbd
00000390: b0a2 5d3e 8354 983b 7014 723e 5eec 85bc
000003a0: 73d7 193d be6e 113e 7ed0 5dbe f7bf 06be
000003b0: 5862 443e 3499 673e ffcd 073e 29fc 393d
000003c0: f899 38bd 4c74 9ebc e8de 1fbe e9fa 213e
000003d0: f53f a53d 74f5 093e fb06 eabc b549 08bc
000003e0: d469 1fbe 7377 6cbd fc59 55be ec53 3e3e
000003f0: 0f30 cd3c e623 253e faa3 633e a90a 8a3d

bilstm.weight_ih_l0_reverse f4 [64, 32]
0.012830459 -0.051043365 -0.07048083 -0.008874664 0.103350215 0.1687688 0.11397102 0.15757313
0.20323937 -0.093856424 -0.08975976 -0.16752432 0.11475475 -0.18466787 0.20435643 0.08904141
-0.24758242 -0.008616986 0.026483819 0.045601286 0.1500878 0.17862277 -0.02552982 0.0061209626
-0.12678276 -0.05768063 -0.23670743 -0.2820512 0.028181976 -0.2395555 -0.2869192 0.073499754
-0.21965757 0.16249628 -0.11618611 0.25816235 0.24415223 -0.19950408 0.23067228 -0.19912425
0.08408308 -0.17005475 -0.06643656 -0.0941532 0.04561329 0.07419115 -0.031496514 0.13534968
0.12860657 0.22263561 0.18526515 0.21158223 0.15868096 -0.16458514 0.12258289 0.0534511
-0.051761966 0.025251145 -0.14355211 -0.14079955 -0.13502339 0.17693195 -0.06963496 -0.093875565
0.15688567 0.03306833 0.25064662 -0.024619158 -0.1098019 -0.1277655 0.087685004 -0.03737007
-0.008298925 -0.07881662 -0.25796103 -0.15020801 0.22791956 0.09235103 -0.21049951 0.20513844
0.004833353 0.17456298 0.20431764 0.22998904 0.22545117 0.2395383 0.15053265 0.09740953
0.044759654 0.22018567 0.23178087 0.14744173 -0.07261024 0.06951633 0.16358821 0.20025721
0.12427895 -0.07009637 -0.21714573 -0.015497198 -0.21215233 0.09667067 0.24105647 -0.09178185
-0.12426827 0.086673334 0.021581525 0.26460347 0.19974557 -0.20565307 -0.03666731 0.089650564
0.17806005 0.11910164 -0.09732316 0.17140086 0.059846293 -0.20941463 0.16807142 0.2581721
-0.24806128 0.20432942 -0.14049555 -0.101941526 -0.113096535 -0.13163848 0.10687614 -0.089702025
0.17874609 0.100099176 -0.23281907 0.12274526 0.07615995 -0.2522684 -0.0006747819 0.050176196
-0.15408537 -0.06841148 0.11057234 0.21310543 0.06764842 0.14482194 0.1794635 -0.09118864
0.0074646357 -0.20448771 -0.18545507 -0.20004427 0.10405323 0.21568036 -0.08349325 0.11003488
0.23000789 -0.27112323 -0.17406207 0.1820697 -0.06727168 0.118350476 0.045783408 -0.084930204
-0.14916489 -0.14414452 0.023216132 -0.13676074 0.005000674 -0.024277672 0.023695406 -0.1982228
0.2860934 -0.03888873 -0.13561347 0.10461504 0.04646762 0.20402086 -0.055539574 -0.021418313
-0.06119016 0.11921851 -0.047061924 0.26606727 -0.13628897 0.13210632 0.19616134 0.14484762
0.17253402 -0.011766552 -0.08299143 -0.040274736 0.20051265 0.2450184 0.16555862 -0.14432919
-0.05136147 -0.097718224 -0.19852321 0.2504733 0.10520866 0.27869853 0.24491875 -0.0627825
0.0880675 -0.07445573 -0.017489702 0.26027223 0.2624321 0.18408808 -0.10101702 -0.20333149
0.14855376 0.21816155 0.08689294 -0.024417644 0.050053842 -0.12269565 -0.12036887 0.277493
-0.052579638 0.0987553 0.23041141 0.05899972 -0.037254028 -0.09141801 0.10828393 -0.08473748
-0.19765584 0.048239995 0.043998122 -0.01956946 0.11022614 0.1315631 -0.011845523 -0.12088186
0.06267356 -0.043890085 0.051611878 0.13369933 0.18571945 -0.027812272 -0.073198974 -0.013550956
-0.011598281 -0.14179978 -0.13305755 0.17680675 -0.076724276 0.00063649204 -0.04919138 -0.12922615
0.016820358 -0.17524943 0.060792964 0.0871142 -0.18299486 -0.09620351 0.23920596 0.12354925
00000000: d836 523c d912 51bd 4158 90bd 0a67 11bc
00000010: 47a9 d33d bad1 2c3e a369 e93d da5a 213e
00000020: fb1d 503e cc37 c0bd f7d3 b7bd 7f8b 2bbe
00000030: 8a04 eb3d 9319 3dbe d042 513e 585b b63d
00000040: 3f86 7dbe 422e 0dbc 98f4 d83c 6ac8 3a3d
00000050: 9eb0 193e e3e8 363e ea23 d1bc 5b92 c83b
00000060: 57d3 01be 8642 6cbd 6f63 72be 0469 90be
00000070: e3dd e63c 094e 75be 13e7 92be 0a87 963d
00000080: eaed 60be 6d65 263e fcf2 edbd db2d 843e
00000090: 0b03 7a3e cc4a 4cbe 5b35 6c3e 3ae7 4bbe
000000a0: c033 ac3d d522 2ebe e40f 88bd 65d3 c0bd
000000b0: 00d5 3a3d 88f1 973d 7d02 01bd 1b99 0a3e
000000c0: 71b1 033e 97fa 633e 26b6 3d3e 03a9 583e
000000d0: 437d 223e 0289 28be bd0c fb3d 8aef 5a3d
000000e0: 5b04 54bd 7ddb ce3c 53ff 12be c22d 10be
000000f0: 9243 0abe a62d 353e c69c 8ebd d541 c0bd
00000100: a3a6 203e a872 073d c154 803e 1eae c9bc
00000110: d2df e0bd f6d4 02be 3294 b33d 5c11 19bd
00000120: 37f8 07bc 9c6a a1bd 7813 84be 21d0 19be
00000130: bf63 693e 8922 bd3d 2f8d 57be d00f 523e
00000140: 1b61 9e3b a3c0 323e a538 513e 3f82 6b3e
00000150: acdc 663e 8749 753e 3b25 1a3e a67e c73d
00000160: e655 373d 5a78 613e f757 6d3e f7fa 163e
00000170: adb4 94bd 945e 8e3d ab83 273e 3a10 4d3e
00000180: f685 fe3d b08e 8fbd 735b 5ebe f6e7 7dbc
00000190: 763e 59be 46fb c53d 82d7 763e 1ff8 bbbd
000001a0: 5d80 febd ca81 b13d bdcb b03c 1b7a 873e
000001b0: 1a8a 4c3e b896 52be 7630 16bd b79a b73d
000001c0: 6055 363e 90eb f33d 5d51 c7bd b583 2f3e
000001d0: 6321 753d ca70 56be ea1a 2c3e 222f 843e
000001e0: c703 7ebe bb3b 513e 11de 0fbe b8c6 d0bd
000001f0: 289f e7bd 3dcc 06be e1e1 da3d b2b5 b7bd
00000200: 3709 373e cc00 cd3d 1f68 6ebe de61 fb3d
00000210: bff9 9b3d 5329 81be d9e3 30ba 8e85 4d3d
00000220: 8ec8 1dbe 511b 8cbd c073 e23d 4f38 5a3e
00000230: 418b 8a3d 344c 143e 48c5 373e 1cc1 babd
00000240: e799 f43b 3a65 51be efe7 3dbe 68d8 4cbe
00000250: dc19 d53d 50db 5c3e 82fe aabd f859 e13d
00000260: 3087 6b3e aad0 8abe 543d 32be 7b70 3a3e
00000270: bcc5 89bd bc61 f23d 6287 3b3d e3ef adbd
00000280: aebe 18be 9f9a 13be c22f be3c 020b 0cbe
00000290: b2dc a33b f8e1 c6bc de1c c23c ebfa 4abe
000002a0: d67a 923e ca49 1fbd 42de 0abe 6940 d63d
000002b0: d554 3e3d d8ea 503e 777d 63bd 7575 afbc
000002c0: 89a2 7abd d628 f43d 01c4 40bd f839 883e
000002d0: 568f 0bbe e146 073e 85de 483e ef52 143e
000002e0: c2ac 303e 7fc8 40bc 69f7 a9bd 1ff7 24bd
000002f0: 3053 4d3e 1ae6 7a3e 3388 293e 08cb 13be
00000300: 6860 52bd 7e20 c8bd ab49 4bbe 093e 803e
00000310: a377 d73d 93b1 8e3e fbcb 7a3e 1d94 80bd
00000320: bc5c b43d 3f7c 98bd 9046 8fbc 6742 853e
00000330: 805d 863e 9681 3c3e 03e2 cebd 2136 50be
00000340: 7a1e 183e be65 5f3e edf4 b13d 8307 c8bc
00000350: 4205 4d3d db47 fbbd f483 f6bd 9013 8e3e
00000360: bf5d 57bd 3840 ca3d f8f0 6b3e b1a9 713d
00000370: ae97 18bd 5e39 bbbd f7c3 dd3d d88a adbd
00000380: 4b66 4abe 4d97 453d 6037 343d 2250 a0bc
00000390: 3ebe e13d 7ab8 063e b913 42bc e990 f7bd
000003a0: ff5a 803d 17c6 33bd fa66 533d 7ae8 083e
000003b0: 3d2d 3e3e 90d6 e3bc 58e9 95bd d404 5ebc
000003c0: b706 3ebc f633 11be 3d40 08be d40c 353e
000003d0: 9e21 9dbd 42da 263a e77c 49bd dc53 04be
000003e0: d9ca 893c 9674 33be 0b02 793d ee68 b23d
000003f0: 0163 3bbe 5906 c5bd 68f2 743e 6407 fd3d

parallel_cnn_block.branches.0.0.weight f4 [1, 1, 2]
0.18442196 0.67077285
00000000: 1cd9 3c3e c5b7 2b3f

parallel_cnn_block.branches.0.2.bias f4 [16]
-0.090332165 0.5749448 0.6004734 0.45931974 -0.54674584 -0.1204401 0.081680305 -0.3509852
0.041998032 0.47255325 0.2305875 0.57884943 0.06205981 0.5649896 0.33542612 0.52418345
00000000: 1200 b9bd 952f 133f a0b8 193f f52b eb3e
00000010: 89f7 0bbf 4da9 f6bd 0148 a73d 55b4 b3be
00000020: 2106 2c3d 80f2 f13e 211f 6c3e 7a2f 143f
00000030: 6d32 7e3d 29a3 103f f9bc ab3e e330 063f

parallel_cnn_block.branches.0.2.weight f4 [16, 1, 2]
-0.5211582 0.059463818 -0.036051106 0.4613797 -0.24295762 -0.51369107 -0.35387146 -0.32969084
-0.09543572 -0.20681205 0.41258946 0.123176776 -0.3120688 0.4625828 -0.46583527 -0.5392129
-0.32484442 0.15432692 0.032608498 0.0940681 -0.34784424 0.51168585 -0.1494945 0.52116334
0.47081265 0.5101141 0.55722266 0.011015988 -0.28626242 0.54143906 -0.042158738 0.10263681
00000000: a06a 05bf 5590 733d 53aa 13bd f639 ec3e
00000010: e2c9 78be 4281 03bf a42e b5be 3dcd a8be
00000020: ce73 c3bd 8ac6 53be ed3e d33e 1b44 fc3d
00000030: 7bc7 9fbe a7d7 ec3e f681 eebe db09 0abf
00000040: 0252 a6be e007 1e3e 7d90 053d c7a6 c03d
00000050: a418 b2be d8fd 023f 1615 19be f66a 053f
00000060: 5b0e f13e d696 023f 25a6 0e3f 677c 343c
00000070: fd90 92be c09b 0a3f a4ae 2cbd 3f33 d23d

parallel_cnn_block.branches.1.0.weight f4 [1, 1, 4]
0.124779865 -0.1940181 -0.11926436 -0.4002949
00000000: 968c ff3d aeac 46be df40 f4bd 74f3 ccbe

parallel_cnn_block.branches.1.2.bias f4 [32]
-0.21165381 0.1431356 0.036294173 0.18108068 -0.42031658 -0.1831045 0.51516277 0.10794492
-0.16767706 0.20008545 0.26863053 0.23788556 0.25296015 -0.16361552 0.39047116 -0.38256985
-0.3442734 -0.2510189 -0.09559687 -0.011498424 -0.2864178 0.11369079 -0.040283494 0.3537059
-0.12233603 0.3973956 -0.012734366 0.39300793 -0.28675228 -0.2639137 -0.11864762 -0.038427766
00000000: c7bb 58be 2492 123e 33a9 143d 376d 393e
00000010: bc33 d7be bf7f 3bbe b5e1 033f 3a12 dd3d
00000020: 89b3 2bbe 33e3 4c3e f189 893e 4698 733e
00000030: fe83 813e d48a 27be d6eb c73e 32e0 c3be
00000040: 9a44 b0be 8d85 80be 4bc8 c3bd e363 3cbc
00000050: 5ba5 92be b8d6 e83d 4e00 25bd f118 b53e
00000060: 508b fabd 7077 cb3e cda3 50bc 5638 c93e
00000070: 32d1 92be b21f 87be 86fd f2bd 6f66 1dbd

parallel_cnn_block.branches.1.2.weight f4 [32, 1, 4]
-0.10040095 0.18142109 -0.2607871 -0.47895348 -0.19868052 -0.3303912 -0.19132894 0.48120657
0.14150928 0.44831988 -0.23145567 0.22999495 -0.18046613 -0.32222208 -0.08654787 0.2612171
-0.4562707 -0.21264452 -0.2015093 0.46386495 0.54089195 -0.45443618 0.08366144 -0.34248278
-0.03842103 0.22521299 -0.3011996 0.16387585 0.12654676 0.32041 0.17224959 -0.32999977
-0.47593418 -0.116983585 0.24837315 -0.3966759 0.40876707 0.444443 0.14460576 0.34533027
0.3983416 0.50181717 -0.34907204 -0.09928429 -0.32453582 0.16641355 0.0933946 0.49661693
0.3726102 0.49227318 -0.2783084 -0.4321022 -0.11270873 0.09771507 0.4008183 0.224098
0.23935531 0.06488084 0.05241907 0.10649854 -0.14062512 -0.39806712 -0.41093838 0.008684038
-0.36077142 0.09005399 -0.14045352 -0.18748273 -0.3187216 -0.18603854 -0.36686423 0.14170544
-0.19049951 0.3626789 0.23374154 -0.29170972 0.44034317 -0.39238232 0.2560919 0.2267492
-0.08524173 -0.3109045 0.44654968 0.018768502 -0.10282884 0.32988152 -0.21482402 0.20776078
0.32250047 0.25003406 0.38643476 0.38498273 -0.1593144 0.22308823 0.32355574 0.32723895
-0.28326616 0.26907855 -0.1714389 0.12709756 -0.20102559 0.2044774 -0.40981287 0.21891971
0.3315711 0.18563735 0.0876279 0.29675308 0.30148935 -0.064379446 0.4886413 0.44025686
-0.13999902 -0.40838122 -0.0030555443 0.37766087 -0.20188618 0.43249896 0.40342218 -0.097350106
0.0018348326 0.009540935 -0.42589858 -0.2958918 0.34966928 -0.09932618 0.013842428 0.3966987
00000000: 039f cdbd 73c6 393e e385 85be 6439 f5be
00000010: e872 4bbe 0929 a9be bceb 43be b560 f63e
00000020: cfe7 103e 2f8a e53e b702 6dbe cc83 6b3e
00000030: 1dcc 38be 4bfa a4be 0240 b1bd 3fbe 853e
00000040: 509c e9be 7cbf 59be 7458 4ebe b57f ed3e
00000050: e577 0a3f dcab e8be b056 ab3d e759 afbe
00000060: 5f5f 1dbd 3c9e 663e d536 9abe 12cf 273e
00000070: 7995 013e c80c a43e 3262 303e bbf5 a8be
00000080: a5ad f3be 1795 efbd 8855 7e3e 1b19 cbbe
00000090: eb49 d13e 088e e33e 8813 143e 21cf b03e
000000a0: 6ef3 cb3e 1777 003f 92b9 b2be 9055 cbbd
000000b0: 8f29 a6be 5068 2a3e ab45 bf3d 9344 fe3e
000000c0: c4c6 be3e 3b0b fc3e 707e 8ebe 803c ddbe
000000d0: d6d3 e6bd d71e c83d 0e38 cd3e f279 653e
000000e0: 8f19 753e 3fe0 843d 61b5 563d e81b da3d
000000f0: 0800 10be 74cf cbbe 8466 d2be 7f47 0e3c
00000100: 08b7 b8be 3a6e b83d 0cd3 0fbe 79fb 3fbe
00000110: 7a2f a3be e380 3ebe a1d5 bbbe 3b1b 113e
00000120: 4e12 43be 0cb1 b93e f159 6f3e fa5a 95be
00000130: a974 e13e 56e6 c8be 7a1e 833e f130 683e
00000140: 3793 aebd e02e 9fbe 29a2 e43e 67c0 993c
00000150: ed97 d2bd 3be6 a83e d4fa 5bbe 3ebf 543e
00000160: c81e a53e 7704 803e c7da c53e 751c c53e
00000170: 5023 23be 3e71 643e 19a9 a53e dd8b a73e
00000180: 4308 91be aac4 893e ae8d 2fbe dd25 023e
00000190: a7d9 4dbe 8662 513e fed2 d1be 7d2c 603e
000001a0: b0c3 a93e b817 3e3e 4276 b33d 05f0 973e
000001b0: d05c 9a3e 5fd9 83bd 312f fa3e 5969 e13e
000001c0: e75b 0fbe 5817 d1be 873f 48bb c45c c13e
000001d0: 40bb 4ebe 8170 dd3e 5a8d ce3e 7e5f c7bd
000001e0: c47e f03a 9551 1c3c 610f dabe 217f 97be
000001f0: da07 b33e 866b cbbd 5acb 623c 181c cb3e

parallel_cnn_block.branches.2.0.weight f4 [1, 1, 8]
-0.009554111 0.36857653 -0.038366824 0.28060958 -0.17539361 -0.34413758 -0.25123346 0.01774459
00000000: d988 1cbc 10b6 bc3e 8826 1dbd 0fac 8f3e
00000010: 629a 33be cd32 b0be aca1 80be 1a5d 913c

parallel_cnn_block.branches.2.2.bias f4 [64]
0.17710152 -0.21559346 -0.16419142 0.0783189 0.09423771 0.39062518 -0.22739808 -0.3080677
0.2945088 0.35184404 0.36817124 0.1269015 -0.2813283 0.26779023 0.23615605 -0.21418087
0.2416799 0.034523178 0.15426722 -0.31662157 -0.29817748 -0.13648984 -0.034114733 0.24712788
0.074172355 -0.29327023 -0.1657669 0.042286698 0.33162904 -0.2537887 0.10344479 0.15201917
-0.04304093 -0.03021417 -0.27372783 0.051074293 0.30302498 -0.102220416 -0.18750197 0.36651316
0.1828998 -0.14709069 0.19743259 0.31083673 0.33635628 0.32404593 0.3964881 0.1429725
-0.28254512 -0.098713115 0.11795559 0.039379574 0.041503496 0.091098204 0.07480884 -0.30829182
0.29552072 0.1292019 -0.3087402 -0.06222064 0.09640069 -0.14419772 -0.13810244 0.017560204
00000000: 1a5a 353e 88c4 5cbe cc21 28be a965 a03d
00000010: b3ff c03d 0600 c83e 0bdb 68be 0dbb 9dbe
00000020: dcc9 963e e724 b43e f180 bc3e 78f2 013e
00000030: 430a 90be cd1b 893e e4d2 713e 3b52 5bbe
00000040: f07a 773e 2d68 0d3d 3af8 1d3e 391c a2be
00000050: b8aa 98be fec3 0bbe e4bb 0bbd 170f 7d3e
00000060: ade7 973d 8427 96be ccbe 29be d134 2d3d
00000070: 48cb a93e 98f0 81be ddda d33d eaaa 1b3e
00000080: b04b 30bd b583 f7bc 0e26 8cbe 4733 513d
00000090: 1726 9b3e f058 d1bd 8400 40be 9da7 bb3e
000000a0: 164a 3b3e f19e 16be c52b 4a3e fe25 9f3e
000000b0: e436 ac3e 59e9 a53e 7d00 cb3e 6267 123e
000000c0: c1a9 90be 1a2a cabd b392 f13d 7a4c 213d
000000d0: 92ff 293d b291 ba3d 6135 993d 6dd8 9dbe
000000e0: 7e4e 973e 814d 043e 3213 9ebe 12db 7ebd
000000f0: ba6d c53d 91a8 13be ba6a 0dbe 6bda 8f3c

parallel_cnn_block.branches.2.2.weight f4 [64, 1, 8]
0.007573891 -0.19351283 0.28206873 0.2658527 -0.084162824 0.03904529 0.3658145 -0.28843603
-0.36188632 0.04484707 -0.102316126 0.270521 0.16016048 0.14777339 -0.13159493 0.29000506
-0.26565146 0.3552559 -0.3210561 -0.148601 0.25949398 0.11766225 -0.18779589 0.20850998
0.31303698 -0.12280975 0.2242028 0.019515451 0.028928148 -0.052188415 0.09624455 -0.18948874
-0.06292677 0.14471842 0.025108114 0.09426916 0.34960067 0.30111027 0.15291815 -0.21863735
0.26973262 0.05763006 0.27066824 -0.028067375 0.20521954 -0.22028647 -0.04525462 0.23171027
0.29604793 -0.011451 0.017537288 -0.1793631 0.116702124 -0.11439279 0.31766942 0.32782656
-0.14268008 -0.08168246 0.10029838 0.28429168 -0.13179077 0.3412504 0.18221447 -0.17921618
-0.06381625 0.25091946 0.24633327 0.37165672 -0.19163509 0.28074494 -0.106655225 -0.17719601
0.3478321 -0.22591859 0.17056312 -0.23466542 0.18410695 0.046422012 0.14260928 -0.23226264
0.095556185 0.0030778174 0.35710666 0.32280755 -0.160159 -0.10301008 -0.0048365644 0.06179062
-0.18365766 0.031555068 0.2623454 0.20672436 0.0042116786 0.04877363 -0.2212097 0.10242114
-0.108948156 0.20678656 -0.20182502 0.052568585 0.26488447 0.23682328 0.008348208 0.33244824
-0.23606747 -0.11906015 -0.15055898 -0.017025756 -0.30038345 0.020775815 -0.15177646 0.20989762
-0.1592151 0.064733446 -0.16268381 0.0035870462 -0.20831208 0.3962905 0.053254202 0.08828482
0.1627091 0.056594055 -0.020546718 -0.117509685 0.12679388 0.23930195 0.15159768 0.28485578
0.21945126 -0.14543444 -0.034516312 0.27934772 0.09853891 -0.051355466 0.1045845 0.20130284
0.26410422 -0.26956698 0.04942413 0.22780193 0.31741804 0.34508985 0.3269257 -0.2623005
-0.10004475 0.38279867 -0.23937057 -0.07503052 0.0038111296 0.10693963 0.09407533 -0.26744616
-0.04833265 -0.07657095 -0.2578083 -0.34844235 -0.26059684 0.045442276 -0.2108913 -0.020065686
0.32739243 -0.36309057 0.28660583 -0.119172476 0.3207739 0.19166821 0.20409048 0.07308195
0.16535683 -0.040652603 0.27735975 0.33958405 0.20191488 -0.051575236 0.1906952 0.37658048
-0.17170662 -0.23345354 -0.16697517 0.11595144 -0.053573105 0.016135277 0.26104233 -0.08799581
0.20122752 0.18482079 -0.10552796 0.22446588 0.09348668 -0.09534241 -0.2957818 0.03907035
-0.19195533 0.3237227 -0.28544074 -0.27895713 -0.12490561 0.0597343 0.21532793 -0.2690078
-0.12765943 0.101609446 0.07010293 0.29997143 0.38153258 0.3387109 0.2483249 0.1207834
-0.13908486 0.04989528 -0.08791527 0.20228937 -0.113220796 0.23413546 0.33209664 0.21069941
-0.13353783 0.010812248 0.21603529 0.3765966 -0.25627413 0.094311476 -0.24511601 -0.06743755
-0.22285008 0.14443488 0.34217083 0.14700647 0.040782575 0.35968918 -0.10541114 -0.13325438
-0.0115970485 -0.28636107 -0.28671604 -0.25993305 0.01839845 0.3891714 -0.08690809 0.13881537
-0.22728074 -0.088094585 0.26776272 0.33347446 -0.009339475 0.3612985 -0.23701635 0.25761592
0.03315493 0.0646215 0.18576814 0.0007156874 -0.011051025 -0.29017973 0.30530673 -0.2535184
00000000: 672e f83b 3a28 46be 506b 903e d81d 883e
00000010: 8f5d acbd f4ed 1f3d 0a4c bb3e e3ad 93be
00000020: 2a49 b9be 90b1 373d 1e8b d1bd ba81 8a3e
00000030: 1c01 243e e851 173e d2c0 06be 8b7b 943e
00000040: 7803 88be 1ae4 b53e 7761 a4be dc2a 18be
00000050: 65dc 843e e8f8 f03d 914d 40be a483 553e
00000060: 6246 a03e ae83 fbbd 6b95 653e dede 9f3c
00000070: b9fa ec3c 85c3 55bd dd1b c53d 5609 42be
00000080: c0df 80bd 1131 143e 88af cd3c 3010 c13d
00000090: dcfe b23e 202b 9a3e 9396 1c3e 78e2 5fbe
000000a0: 651a 8a3e 7f0d 6c3d 0795 8a3e 8ded e5bc
000000b0: 1225 523e c792 61be e95c 39bd 7545 6d3e
000000c0: 9893 973e fa9c 3bbc 5caa 8f3c f6aa 37be
000000d0: 8601 ef3d c446 eabd 91a5 a23e e2d8 a73e
000000e0: ba1a 12be 2249 a7bd 3d69 cd3d ae8e 913e
000000f0: 29f4 06be 5fb8 ae3e 6e96 3a3e 7284 37be
00000100: 18b2 82bd 8478 803e ca3e 7c3e ca49 be3e
00000110: fd3b 44be cdbd 8f3e 0e6e dabd df72 35be
00000120: 0d17 b23e 3457 67be 19a8 2e3e 224c 70be
00000130: 8886 3c3e 0225 3e3d 2b08 123e 42d6 6dbe
00000140: f6b2 c33d 35b5 493b afd6 b63e 0847 a53e
00000150: b900 24be f3f6 d2bd 0b7c 9ebb 2918 7d3d
00000160: c110 3cbe e33f 013d 2352 863e 8daf 533e
00000170: 1f02 8a3b dcc6 473d cc84 62be 2dc2 d13d
00000180: 3620 dfbd dbbf 533e 38ab 4ebe 2852 573d
00000190: f09e 873e cd81 723e ecc6 083c a836 aa3e
000001a0: acbb 71be cfd5 f3bd 222c 1abe 9979 8bbc
000001b0: dccb 99be 0b32 aa3c 4a6b 1bbe 67ef 563e
000001c0: 4809 23be f892 843d 9696 26be a614 6b3b
000001d0: c34f 55be 97e6 ca3e 1421 5a3d acce b43d
000001e0: 379d 263e 2bcf 673d 9751 a8bc eba8 f0bd
000001f0: 41d6 013e 920b 753e 6c3c 1b3e 9ed8 913e
00000200: d5b7 603e c4ec 14be fa60 0dbd aa06 8f3e
00000210: c5ce c93d 1c5a 52bd 6630 d63d 5522 4e3e
00000220: ab38 873e af04 8abe f570 4a3d e944 693e
00000230: 9e84 a23e 9eaf b03e ce62 a73e 404c 86be
00000240: 43e4 ccbd 30fe c33e 8f1d 75be 9aa9 99bd
00000250: 25c4 793b 2a03 db3d 91aa c03d b4ee 88be
00000260: 75f8 45bd 3bd1 9cbd 73ff 83be 0967 b2be
00000270: f36c 85be ae21 3a3d e4f3 57be cb60 a4bc
00000280: fb9f a73e 02e7 b9be 00be 923e b310 f4bd
00000290: 7a3c a43e ac44 443e 18fd 503e fdab 953d
000002a0: 4d53 293e 5883 26bd 1902 8e3e f6dd ad3e
000002b0: c6c2 4e3e 8e40 53bd 9a45 433e 28cf c03e
000002c0: dcd3 2fbe 720e 6fbe 8afb 2abe f377 ed3d
000002d0: 796f 5bbd 212e 843c 57a7 853e 2637 b4bd
000002e0: 960e 4e3e a941 3d3e 0b1f d8bd 62da 653e
000002f0: f275 bf3d e242 c3bd b670 97be 3b08 203d
00000300: f08f 44be fbbe a53e 4a25 92be 78d3 8ebe
00000310: 83ce ffbd f4ab 743d ed7e 5c3e 64bb 89be
00000320: 27b9 02be 9d18 d03d 2092 8f3d db95 993e
00000330: 3d58 c33e 846b ad3e e248 7e3e 4a5d f73d
00000340: 436c 0ebe fe5e 4c3d ec0c b4bd f224 4f3e
00000350: 4ee0 e7bd 35c1 6f3e 9208 aa3e 96c1 573e
00000360: 24be 08be db25 313c 5b38 5d3e 45d1 c03e
00000370: 5d36 83be 6026 c13d b1ff 7abe b31c 8abd
00000380: d032 64be bde6 133e 0431 af3e dd88 163e
00000390: a10b 273d 2e29 b83e cce1 d7bd d673 08be
000003a0: 8c01 3ebc eb9d 92be 72cc 92be f215 85be
000003b0: 59b8 963c 7941 c73e defc b1bd 9e25 0e3e
000003c0: 48bc 68be ef6a b4bd 3218 893e 2abd aa3e
000003d0: 9904 19bc 1efc b83e 6ab4 72be 3ce6 833e
000003e0: 77cd 073d 4758 843d 013a 3e3e f89c 3b3a
000003f0: 5c0f 35bc 7092 94be 2a51 9c3e 2acd 81be

parallel_cnn_block.branches.3.0.weight f4 [1, 1, 32]
0.11012542 0.051711112 0.1233547 -0.020276276 0.00807851 0.13530841 0.11570102 0.03277969
0.16846855 0.03916695 0.1465628 0.030036746 0.19042058 -0.009705308 0.09242047 0.13895318
-0.058824245 0.16889781 -0.0013677909 0.13273582 0.1076408 0.1759905 0.1572693 -0.104877
0.034143496 -0.024393786 0.08143288 0.14467703 0.00614499 0.0445928 0.17727244 0.12217307
00000000: 7089 e13d 08cf 533d 64a1 fc3d 6f1a a6bc
00000010: ba5b 043c 4a8e 0a3e a8f4 ec3d ff43 063d
00000020: 0583 2c3e 866d 203d 8f14 163e 9f0f f63c
00000030: 9dfd 423e 0303 1fbc f246 bd3d be49 0e3e
00000040: b1f1 70bd 8cf3 2c3e 7247 b3ba e6eb 073e
00000050: c872 dc3d db36 343e 340b 213e c1c9 d6bd
00000060: 0dda 0b3d 7ad5 c7bc 48c6 a63d 3726 143e
00000070: ea5b c93b f1a6 363d e886 353e e035 fa3d

parallel_cnn_block.branches.3.2.bias f4 [16]
0.066926554 0.20542145 0.17806992 0.03750968 -0.14834629 0.04819313 -0.1402888 0.1509063
0.10109414 0.15313715 -0.008531634 -0.026612822 0.19290923 0.119986236 0.22637053 -0.13020103
00000000: ca10 893d 005a 523e f657 363e c0a3 193d
00000010: 17e8 17be 2966 453d dea7 0fbe 2e87 1a3e
00000020: 720a cf3d fccf 1c3e 44c8 0bbc 2203 dabc
00000030: ff89 453e 58bb f53d adcd 673e 6b53 05be
