wide/modelpars_wide_i_89.safetensors (safetensors, 86584 bytes, 32 tensors)

bilstm.bias_hh_l0 f4 [64]
000000 54 63 75 be 7b 6a f2 3d 17 bd 75 3d ff f8 88 3e
       -0.23963672 0.11836716 0.059994783 0.2675247
000010 ce 7f c4 be 6d 3a 04 bd 77 05 29 be 62 ff 1e be
       -0.38378757 -0.03228228 -0.16505991 -0.15527108
000020 9a fc e9 be f8 c0 13 be f2 6b 00 3c fd df 39 be
       -0.45700532 -0.1442908 0.007838236 -0.18151851
000030 2e 08 35 be 06 2a 4c bd 53 9c 8e 3d 51 40 de 3c
       -0.17678902 -0.049844764 0.0696341 0.027130278
000040 f4 c3 f3 3d ae 15 f1 bd af 56 13 3e 77 12 2b 3d
       0.119026095 -0.11771713 0.14388536 0.041765656
000050 f0 c4 a5 3d 8d 4a ad 3e 6a 15 4a 3e 8d cb f5 3d
       0.080942035 0.3384594 0.19734731 0.12001715
000060 da 1f 95 3e 93 03 66 3e 3e 96 30 3e 58 db 98 3e
       0.29125863 0.22462301 0.17244813 0.29854846
000070 da 93 0f be be dd 87 bd 71 3e 8d bd 0d 98 90 3d
       -0.14021245 -0.06634091 -0.068966754 0.070602514
000080 c2 d4 e4 3d 16 ad 4b bd d8 d3 6b 3e 35 3a e1 3d
       0.11173393 -0.049725614 0.2303003 0.1099743
000090 3f 15 8a 3d 0f 05 1b bc 25 bb 78 3e cb 97 53 bc
       0.067423336 -0.009461655 0.2429014 -0.012914608
0000a0 e1 91 4f be d5 38 ae 3d 40 58 dc bd e3 2b 2f 3e
       -0.20270492 0.085069336 -0.1075902 0.17106585
0000b0 ad 2e 35 be b2 7c 76 3e 87 c7 be bc 40 c3 28 be
       -0.17693587 0.24071005 -0.023288501 -0.16480732
0000c0 d5 ab 3b be 36 e1 9f bd 69 b0 9c bc b3 e3 0c 3e
       -0.18327267 -0.078066275 -0.019127088 0.13758735
0000d0 76 34 95 bd dc 2a 62 3e 74 d7 85 be 14 db 18 bd
       -0.07285397 0.22086662 -0.2614094 -0.037318304
0000e0 f3 ad 57 be 63 9d e8 3d b0 2c bd 3d 2d 3d 4a be
       -0.2106245 0.11358144 0.09237039 -0.19749899
0000f0 60 6e fc 3b 41 a0 8a be 79 b8 83 be 71 38 03 3e
       0.0077035874 -0.2707539 -0.2572668 0.128145

bilstm.bias_hh_l0_reverse f4 [64]
000000 1c f5 d0 3d 1c e5 4c 3e b7 13 c2 3d 8a 25 2c be
       0.10203001 0.20009273 0.094764166 -0.16811195
000010 1d 7c 86 be b5 40 d9 3d f7 ad b0 be 86 39 c1 be
       -0.26266566 0.10608045 -0.34507725 -0.377392
000020 8c 58 5b bd 08 c5 58 be f9 07 9f be ed 2b 39 be
       -0.05355124 -0.21168911 -0.3106077 -0.18083163
000030 ca f3 13 be 65 50 48 3d 1c 36 6a 3e 55 13 41 be
       -0.14448467 0.048904795 0.22872204 -0.18855031
000040 39 02 3f be a2 c2 8a bc db bd a2 3d 60 32 b7 3d
       -0.18653192 -0.016938511 0.07946368 0.08945155
000050 f7 e1 76 be 81 ed 58 3d 4c af a2 3e 4e e5 e3 3d
       -0.24109636 0.052960876 0.31774366 0.11127721
000060 c9 b3 21 3e ca 8a 97 3e 87 1d 18 3e 92 d1 b0 bc
       0.15791239 0.29598075 0.14855014 -0.021584306
000070 66 d2 aa 3e 91 96 14 3d b3 42 e0 bd 6e 98 25 3c
       0.33363646 0.036276404 -0.10950222 0.010107143
000080 34 3a 75 be a4 bf 3b bd c2 44 b6 3e 03 d4 3f 3d
       -0.23947984 -0.04583706 0.35599333 0.04683305
000090 7d ac dd bc 37 6a 49 3e b3 6b 25 3d 89 dd ee bd
       -0.027059788 0.19669424 0.040385913 -0.11663348
0000a0 86 50 8b 3e d6 83 02 3e 2e 08 f5 bd b1 a2 a0 3d
       0.27209872 0.12745604 -0.11964451 0.07843531
0000b0 3f 78 7c bc 93 64 37 be d5 53 fb bd a3 c9 e4 3d
       -0.015409528 -0.1790946 -0.12271849 0.11171272
0000c0 4e b4 01 3e e8 94 51 bd 51 56 4b 3d ee c1 16 be
       0.12666437 -0.0511674 0.049642865 -0.14722416
0000d0 70 07 b3 3d 49 d1 78 be 12 3b 6b 3e b9 cc 7a be
       0.08741653 -0.24298586 0.22971752 -0.24492158
0000e0 6b db 80 be 1e 4c 85 be af e8 0f 3e a2 c4 12 be
       -0.25167403 -0.26034635 0.14053605 -0.14332822
0000f0 4d f8 d1 3d 58 32 69 3e 89 b9 30 3d 11 b5 92 bd
       0.10252438 0.22773111 0.04314569 -0.07163442

bilstm.bias_ih_l0 f4 [64]
000000 fc 3d 78 be ed 6d bf bd cd 83 fc 3d 1a d6 e5 3d
       -0.24242395 -0.093471386 0.123298265 0.11222477
000010 d3 43 f6 bd 3d 1a e5 bc c7 e5 b5 be 3e 74 7f be
       -0.12024655 -0.027966613 -0.3552687 -0.24946687
000020 88 7c 82 bc c0 ba a0 be cf 80 26 be f7 58 01 be
       -0.015928522 -0.3139248 -0.16260074 -0.12631594
000030 a2 e0 51 bd 77 59 0f be ea ea 78 be b0 7f 02 bd
       -0.051239617 -0.13998972 -0.24308363 -0.031860054
000040 9b 05 a9 3c 5a 15 a8 3d 4f 51 45 3e e8 3e a3 3e
       0.020632556 0.082071975 0.19269298 0.3188393
000050 ac af cf 3e 8b ff 83 3e 91 0d 88 3d 00 f3 8a 3e
       0.40563715 0.257809 0.066432126 0.2713852
000060 f6 50 35 bd 26 73 b6 3d fc 05 44 be f2 15 8d 3e
       -0.044266663 0.089086816 -0.19142908 0.27555805
000070 74 5f 50 3e 77 92 07 be 67 34 79 3e 96 84 a1 3e
       0.20348912 -0.13239466 0.24336396 0.31546468
000080 6d 6c 28 3e 31 0c 6b 3c 22 a9 4b 3e 40 11 95 be
       0.16447611 0.014346168 0.19888738 -0.29114723
000090 8e 43 06 3e f1 92 80 3d 4b e5 26 3e 7c 69 6c 3d
       0.13111708 0.06278027 0.16298406 0.057717785
0000a0 48 20 20 3d 38 0e 72 be 33 3a 82 be bb 40 1a bc
       0.039093286 -0.23638237 -0.25435027 -0.009414847
0000b0 15 9d 70 3e a1 6c e4 bd 83 1c e6 3c 54 82 58 3e
       0.23497422 -0.11153532 0.028089767 0.21143466
0000c0 2d 37 49 3e ed c5 6e be 63 fc 3f be 8e 3e 00 3e
       0.19649954 -0.2331769 -0.18748622 0.12523863
0000d0 9b e6 e3 be a4 20 85 3e 01 97 94 be b1 98 e3 3d
       -0.44511876 0.26001465 -0.29021457 0.11113108
0000e0 42 8f 81 3e 35 1a 37 3e 3d 58 da bc bc d1 6f 3c
       0.2530461 0.17881091 -0.026653403 0.014637407
0000f0 87 46 9b 3d 50 da ce bd f4 50 a1 be 15 61 85 3d
       0.075818114 -0.101002336 -0.31507075 0.065126576

bilstm.bias_ih_l0_reverse f4 [64]
000000 25 78 6e bd 7e 2e 26 3e d1 6c 97 3d 88 30 cf be
       -0.058220048 0.16228673 0.07393802 -0.40466714
000010 7f 00 9d be 0b 5f 5c 3e f1 08 16 bd 0f 2e 82 be
       -0.3066444 0.21520631 -0.03662962 -0.25425765
000020 c2 66 84 bd 81 ec 97 be 58 d5 68 be 80 c8 30 be
       -0.06464912 -0.29672626 -0.22737634 -0.17263985
000030 0d 0e 83 be df 4d 4c 3e 4c 8d 91 3e dd f1 06 bf
       -0.25596657 0.1995158 0.28428113 -0.52712804
000040 4d 7c 28 3c 7c 71 52 3d 5f 33 d3 bd 49 8b 6c be
       0.010283542 0.05137776 -0.10312533 -0.23100008
000050 ad 00 37 be 45 de a4 3e d9 d0 98 bd 0e 0e a2 3b
       -0.17871352 0.32200828 -0.074617095 0.004945523
000060 2d e8 72 3e 59 fe 54 3e fb b6 a1 bc 7f 2d 37 3e
       0.2372138 0.20800151 -0.019740572 0.17888449
000070 1b 50 4a 3e 55 f5 ce 3e d4 7e 54 be 2a 51 1b bc
       0.1975712 0.40421548 -0.20751506 -0.0094798
000080 e0 34 79 be b1 90 f7 3d 66 c6 b3 3e c7 67 43 bd
       -0.24336576 0.120881446 0.35112303 -0.04770639
000090 7a 07 0a bc 25 fe 8d 3c 45 32 b3 3e ad f1 9b bd
       -0.008424634 0.0173331 0.3499929 -0.07614455
0000a0 80 dc 04 be 50 52 53 bc 99 63 39 be 93 a0 2d bd
       -0.12974739 -0.012898043 -0.181044 -0.042389464
0000b0 6e 8e 1a 3d ad 5d 88 3d 60 0f 4b 3c 3a f5 19 3e
       0.037733488 0.06658492 0.012393802 0.15034953
0000c0 d3 a8 ba 3e 65 b4 25 3e 32 39 bc bc 70 55 85 be
       0.36456928 0.16182096 -0.022976492 -0.26041746
0000d0 a8 c3 45 3e fb 7b d7 3c 9d 7a d3 3d 71 d1 13 3e
       0.19312918 0.026304236 0.10326121 0.14435364
0000e0 77 91 b7 3d 8e 20 17 3e 02 14 77 be fa 91 e7 be
       0.08963292 0.14758512 -0.24128726 -0.4522856
0000f0 3f 06 24 be 3f 00 76 3d ac e8 87 be 81 af 0c be
       -0.16018008 0.06005883 -0.26544702 -0.13738824

bilstm.weight_hh_l0 f4 [64, 16]
000000 da 5c 32 3e 9a 88 ab 3b 9b 68 e0 bd 1d 0e 85 bd
       0.17418233 0.00523479 -0.10957452 -0.064968325
000010 aa 71 24 3b bd ee 8b be ed ae a3 3f 45 e0 13 3e
       0.0025092163 -0.2733058 1.2787758 0.14441021
000020 a6 c7 88 3e b5 58 26 be 8b d6 02 bf be 0b 12 3e
       0.2671482 -0.16244777 -0.51108617 0.14262292
000030 a4 45 24 3e 4a b4 82 be 58 87 28 be 79 58 d3 3e
       0.16042191 -0.25528175 -0.1645788 0.41278437
000040 71 9c 80 be f5 83 3b bd a5 cf 59 be 73 e4 21 be
       -0.25119355 -0.04578014 -0.21270616 -0.15809803
000050 75 a4 f6 bd 89 88 e6 3c 1e 39 ff 3e 0f f0 9f 3e
       -0.120430864 0.028141277 0.49848264 0.31237838
000060 7e 9f 91 3e 78 d3 87 be 93 8a 04 3f 98 b1 5d bc
       0.28441995 -0.26528525 0.5177395 -0.013531111
000070 68 36 16 be 24 d6 ea 3c 10 01 ef 3e 7d d0 a9 3e
       -0.14669192 0.028666563 0.46680498 0.33166876
000080 c2 af 97 3e db d3 e0 bc 1d 37 a4 3d 6c c5 d7 bd
       0.2962628 -0.02744477 0.080183245 -0.10535702
000090 2d 76 52 3e 6d 7d 21 3d d6 df 95 3e ed bd 6f 3d
       0.20552893 0.039426256 0.29272336 0.058530737
0000a0 cc 27 87 be ba de b9 bd 08 d4 aa 3d e4 cb fd bd
       -0.2639755 -0.09075685 0.08341223 -0.12392405
0000b0 52 2a cf 3d 36 5c 68 be 5b d6 1f 3d 38 3c a1 3e
       0.10115494 -0.22691426 0.039022785 0.31491256
0000c0 22 1b 5f 3e 33 52 2b be 13 79 e1 3e 18 ea dd bd
       0.21787694 -0.16730575 0.44037685 -0.108356655
0000d0 54 df be be 8f cb c7 3d d5 24 65 3d aa 45 a5 bd
       -0.3727976 0.097556226 0.05594333 -0.08069928
0000e0 ee 24 8f be f2 3d af bd f8 82 f5 bd 07 44 a6 be
       -0.27957863 -0.08556737 -0.11987871 -0.32473776
0000f0 11 88 86 3d 74 72 f9 bd 62 8c f7 bd fb 9f 1f be
       0.06568921 -0.12180033 -0.12087323 -0.15588371
000100 67 3e 84 bd 42 ee 96 3e 29 80 5f be 1b f2 8f 3e
       -0.06457215 0.2947865 -0.21826233 0.281144
000110 16 d0 c1 bd 55 ae 88 bd c5 be cd 3e 8f ab 23 be
       -0.09463517 -0.06673876 0.40184608 -0.15983413
000120 08 d9 11 3e 98 98 bf be 09 79 10 be 95 40 b5 3e
       0.14242947 -0.37421107 -0.14108671 0.35400835
000130 02 c3 b1 3e 29 8a 2e 3e 87 01 1a bf ef 5a 17 3f
       0.34719092 0.17044891 -0.6015858 0.5912313
000140 32 5f c9 3e ea a4 ac 3e 45 5f 8c be 6d 2b 8f 3e
       0.3933044 0.3371957 -0.27416435 0.2796282
000150 84 ab 1b 3e a7 b6 4f bd 38 86 8e 3e b7 09 07 be
       0.15202147 -0.0507113 0.27836776 -0.131873
000160 f0 21 00 bd dc 68 16 be f8 2d 69 be 83 f0 0c 3e
       -0.031282365 -0.14688438 -0.22771442 0.13763623
000170 29 e0 91 3e 88 26 59 3e f8 54 14 bf 71 e6 ef 3e
       0.28491333 0.21206105 -0.5794215 0.468555
000180 f8 7b c8 3e 29 36 0b 3f f6 8e a4 be bf 3e 75 3e
       0.3915708 0.54379517 -0.3214032 0.23949717
000190 39 38 e0 3d e3 20 cd 3e dd b0 83 be b5 d4 8b 3e
       0.109482236 0.40064153 -0.25720873 0.2731072
0001a0 f0 f8 b6 3e 71 42 43 bd 85 f6 28 be 34 a7 34 3e
       0.357368 -0.047670785 -0.1650029 0.17641908
0001b0 1f 31 b6 3f 12 29 f0 3e 66 09 03 bf 63 4f 66 bf
       1.423374 0.46906334 -0.51186216 -0.89964885
0001c0 da f8 c8 3d 38 05 89 3e a2 b5 b9 bd 4e c9 4f bd
       0.0981309 0.26761794 -0.09067847 -0.05072909
0001d0 96 ea 18 be e4 b5 4c 3e fa 2d 48 bd 45 d2 3e 3e
       -0.14933237 0.19991261 -0.04887197 0.18634899
0001e0 39 7d 0c 3e db 36 00 3e 01 1e ce 3c 14 e0 06 b9
       0.13719644 0.12520926 0.025160791 -0.00012862711
0001f0 ce fd cf bd 8b 8f ed 3d 9d 87 30 be 87 ac 3b 3e
       -0.10155831 0.11599644 -0.17239232 0.18327533
000200 77 a2 7c 3b 9e 25 25 3f 14 25 a6 be 38 ed 59 bd
       0.0038548985 0.64510524 -0.32450163 -0.053204745
000210 ad 8e 4d 3e b0 bf 9a 3b 06 8c 4f bd ef f1 ac 3e
       0.20073958 0.004722558 -0.050670646 0.3377833
000220 16 13 03 be 92 b8 b4 3e 24 d6 1e 3e f1 30 2a 3f
       -0.1280025 0.35297066 0.15511376 0.6648093
000230 ec b2 dd 3e cc f3 2a 3e 09 36 51 3c f9 5f b3 be
       0.4330057 0.16694564 0.012769231 -0.3503416
000240 90 70 fc bb 2c 56 c6 bc f5 05 ac be 4b e7 0b 3e
       -0.007703848 -0.024211012 -0.33598295 0.1366245
000250 ec ee 62 3d c6 2d 7f be ec 70 38 3e e3 f6 13 3e
       0.055403635 -0.24919805 0.18011826 0.14449649
000260 b6 b1 15 bd dd 72 58 3e 3a 28 9b 3e 51 86 8f be
       -0.03654643 0.21137567 0.30304128 -0.28032163
000270 cc fe af be 42 b9 7a be 59 79 98 3e fc 1c e7 bc
       -0.34374082 -0.24484733 0.2978008 -0.028212063
000280 0e c4 46 bd ab ff 2e 3e 2e 6e 11 3e 21 36 8e 3b
       -0.048526816 0.17089717 0.14202186 0.0043399488
000290 92 a5 0b 3e 6c b4 c3 bd d1 f6 13 3f 9d a2 ae 3d
       0.13637379 -0.09555897 0.57798487 0.0852711
0002a0 f0 02 0d 3c 86 c9 f1 bc e0 2e ee be 8d d3 c8 bd
       0.008606657 -0.02951504 -0.46520138 -0.09805975
0002b0 51 15 e7 3e 51 f3 a8 3d f7 04 0c bf a2 8c 13 3f
       0.4513345 0.08249534 -0.54695076 0.57636464
0002c0 7e 8c 3e 3e 04 10 9f 3d 6f 89 b4 3d 17 6b 04 be
       0.18608281 0.077667266 0.08815276 -0.12931477
0002d0 63 30 b7 3e b8 ce 4c be 07 67 f2 3e f2 84 b5 3e
       0.35779104 -0.20000732 0.4734423 0.35452992
0002e0 ff e1 29 3c 76 0e be be c6 c4 0c 3f e3 62 3d bd
       0.010368823 -0.37120408 0.5498775 -0.046236884
0002f0 5b 08 03 bf 71 11 86 be 94 63 be 3e ab e8 b6 bd
       -0.51184624 -0.26185182 0.37185347 -0.08931097
000300 c5 9e 8f be 34 af f3 be cb ad 84 be 53 b2 0a 3e
       -0.2805082 -0.47594607 -0.25913844 0.13544588
000310 34 51 88 be 4c 08 c8 bd f6 b0 81 3f fc 30 02 3e
       -0.26624453 -0.097672075 1.0132129 0.12713999
000320 32 94 4c 3d c3 54 51 3e d3 24 02 be 35 0f 87 3d
       0.049946018 0.2044249 -0.1270936 0.065946974
000330 65 06 72 bf 5e fb 34 3c 9e e3 2e 3f f3 54 8b 3f
       -0.9454101 0.011046259 0.68316066 1.08853
000340 9f d3 2f 3c ca 6e b3 3e 82 8c 97 be 5c a7 7b bd
       0.010731607 0.35045463 -0.29599386 -0.061438903
000350 f1 48 ed 3e 39 2c be bd 87 0c 22 3f 00 b2 bd 3e
       0.46344712 -0.092857786 0.63300365 0.37049866
000360 5f 9b aa 3c 65 0e e2 be 3c df b3 3e 14 14 07 3e
       0.02082604 -0.44151607 0.35131252 0.13191253
000370 1c e3 d9 be 0b 4c 6c be 23 83 c3 3e c2 bf 7d 3f
       -0.42556083 -0.23075883 0.38185987 0.99120724
000380 5d c6 70 bd 9f c7 13 3f 90 5c a5 be c1 67 b7 3e
       -0.058782924 0.5772647 -0.32297182 0.35821345
000390 ce 53 81 bd 61 5e 2f 3d 71 6d 3f 3f ad 39 51 be
       -0.063148126 0.042814616 0.7477637 -0.20432158
0003a0 2b 97 0c 3d 37 cc 02 bf eb 46 4a 3e 07 d6 77 3d
       0.034323853 -0.5109286 0.19753616 0.060506847
0003b0 67 3b 10 bf 9d 50 8f bd 77 bd f3 3d 4f e8 dc 3e
       -0.5634064 -0.06997798 0.11901372 0.43145987
0003c0 fa f9 e5 3e 45 22 0d 3f 12 41 a2 3d 49 50 23 be
       0.4491728 0.55130416 0.079225674 -0.15948595
0003d0 2d 5d ef 3e 51 54 a1 3e 8e 30 a7 3d 5b ba 2f be
       0.46750775 0.3150964 0.08163558 -0.17160933
0003e0 fa 78 c3 3e 8b 9e cc be 3a 2e e2 bd 52 62 4f 3f
       0.38178235 -0.3996471 -0.11043973 0.810094
0003f0 6f 33 87 3f e3 cb 84 3f c3 e4 ec bd 81 b3 09 3e
       1.0562571 1.0374721 -0.1156707 0.13447382

bilstm.weight_hh_l0_reverse f4 [64, 16]
000000 ba 6d 90 3e 3c 1b 17 3f 47 22 90 3e f9 28 05 3f
       0.28208715 0.5902593 0.28151152 0.52015644
000010 cf b5 fa 3e ed b5 53 bc 5b 2f 6d 3e c5 a2 51 3f
       0.48966834 -0.012921792 0.23162596 0.8188899
000020 5a 32 2f be 45 03 ca 3e 5d 10 76 be 0e 89 74 3e
       -0.17109051 0.3945562 -0.2402968 0.23880407
000030 43 07 62 bf ac 7a 05 be 89 66 82 be f7 04 f3 bd
       -0.8829233 -0.13035077 -0.25468853 -0.11866181
000040 11 b7 82 be 8e 77 75 3c 3a de 89 be 39 08 06 be
       -0.25530294 0.014982117 -0.26927358 -0.13089074
000050 7c 1d fd be e8 e6 56 bc 30 b8 47 be f0 24 67 bf
       -0.49436557 -0.013116576 -0.19503856 -0.9029074
000060 4a d7 2e 3d aa 89 9e bd 1d a2 0b be 41 c8 b2 bd
       0.042685784 -0.07741101 -0.1363606 -0.08729602
000070 4d 52 84 3e 66 19 c5 bc 0d 80 2c be e6 48 11 be
       0.2584404 -0.024059962 -0.16845722 -0.14187965
000080 d2 9d 2f be cb f2 41 be ab f3 1e 3e b3 0d 11 bf
       -0.17150047 -0.18940274 0.1552264 -0.5666153
000090 fb 6a 99 3d 0d 3a a2 3e 39 0d b6 bd b4 4b b2 bd
       0.07491108 0.31684914 -0.08889241 -0.087058455
0000a0 96 89 2a 3e 9b e5 00 bf a6 de 7b bd c8 7f 29 be
       0.16654047 -0.5035035 -0.06149163 -0.16552651
0000b0 96 7d ab 3d c9 0d 88 3d 90 e0 69 be bb 71 46 3e
       0.08373563 0.06643254 -0.2283957 0.19379322
0000c0 39 c9 c4 3e 7e 58 55 3f 51 45 5a be 9c fe f4 3e
       0.3843477 0.83338153 -0.21315505 0.47850502
0000d0 4f 8c a7 bd 99 d6 56 be 53 ec ed be af 65 1a 3f
       -0.081810586 -0.209803 -0.46469364 0.60311407
0000e0 8a 25 39 be a4 6a 0a 3f ec b7 08 3f a9 e4 de be
       -0.18080726 0.5406897 0.5340564 -0.4353383
0000f0 f0 e3 09 bf da 02 f0 3e a9 83 07 bc 69 f0 97 3e
       -0.5386343 0.46877176 -0.008271136 0.29675606
000100 e7 75 d7 be 9e 21 40 3d ea 94 cf bd da 85 d1 3d
       -0.4208214 0.04690706 -0.10135825 0.10230608
000110 cd d6 a0 3e 51 8f 71 bd 3f ed da 3d c7 a4 12 bf
       0.3141388 -0.058974568 0.10689782 -0.5728268
000120 77 cb 88 3d 26 7d 80 bd b4 5f f6 bd 4a 4a 86 be
       0.06679433 -0.0627387 -0.12029973 -0.26228553
000130 4c 5a df 3e 33 d5 3b be ca 5f 42 3e e6 2b e8 3d
       0.4362358 -0.18343048 0.18981853 0.11336498
000140 d3 8d 87 bc e5 12 14 be 52 19 2c bf f5 00 85 be
       -0.01654712 -0.14460333 -0.67226136 -0.25977293
000150 90 18 0f be aa 3d 65 bf fa e7 16 be 3a 7f a0 bf
       -0.13974214 -0.89547217 -0.1473693 -1.2538826
000160 48 5c 83 be 0c a8 72 be e7 2d ae 3e 46 a5 bb be
       -0.25656343 -0.23696917 0.34019396 -0.3664953
000170 29 57 60 be e2 b3 4f be ed ef 8c be a2 55 05 be
       -0.21908249 -0.20283464 -0.275268 -0.13020948
000180 77 7c eb be 6b 7a ee be 5c c2 0f bf 21 c8 e5 be
       -0.45993397 -0.46577772 -0.56155944 -0.4487925
000190 79 64 96 3e 69 08 23 3f d3 9b 84 3e de a3 a5 be
       0.2937353 0.6368471 0.25900134 -0.32351583
0001a0 13 65 b1 be 39 8a 58 be e6 1e b2 3d aa 07 21 3d
       -0.34647426 -0.21146478 0.086973 0.03931395
0001b0 af 20 0b 3e 3b f8 a4 3e 7d 8e fd be c2 9d c5 3e
       0.13586687 0.32220635 -0.49522772 0.38596922
0001c0 0f bc 91 be bf b8 3f bf 8e 8f d0 3e 07 cf 35 3f
       -0.2846379 -0.74891275 0.40734524 0.71019024
0001d0 22 8a 4a 3e 8e 89 81 3d 9a 67 1e bf 6e 28 c8 3d
       0.19779256 0.063250646 -0.61876833 0.09773336
0001e0 e0 9b 65 be 76 df 12 3f 60 b7 98 3d 16 4c cc 3e
       -0.22422743 0.57372224 0.07456851 0.399018
0001f0 a9 8a aa 3e 29 90 fa bc 51 9c eb 3e 87 63 33 be
       0.33308914 -0.030586319 0.46017697 -0.17518435
000200 d9 ad 48 3d 08 3d 7e 3e d9 bc 3c be 8b 62 0b be
       0.04899392 0.24827969 -0.18431415 -0.1361181
000210 06 17 0b be 17 77 13 be 8a 8d 55 3e f1 62 0d 3c
       -0.13583001 -0.14400898 0.20854774 0.0086295465
000220 aa d1 12 be a3 2b 5b bc 10 b6 e2 3d 45 3c e3 bd
       -0.14337793 -0.013377103 0.11069882 -0.1109548
000230 8a 5e e8 bb fd eb 15 3e 12 38 88 bc 71 81 07 bd
       -0.007091348 0.14640804 -0.016628299 -0.03308243
000240 a2 c4 97 be d7 13 89 3d 06 03 38 bc b7 1e dc be
       -0.29642206 0.06693237 -0.01123119 -0.42992184
000250 6a b7 25 bf 86 6d f6 3e 69 f7 33 be e8 05 1a bf
       -0.6473299 0.48130435 -0.17574848 -0.6016526
000260 d2 18 43 bd ec aa 17 be c6 85 78 be 20 d3 b2 3d
       -0.047631092 -0.14811295 -0.2426978 0.08731675
000270 f5 33 97 3e 5f ab 98 bd 15 4a 0d be 19 16 6b be
       0.29531828 -0.074545614 -0.13797791 -0.22957648
000280 4f 55 19 3e 1d 9f 6a 3e 83 0b 2b 3f dd 00 bd 3e
       0.14973949 0.2291226 0.6681444 0.3691472
000290 4d a2 42 3f 5b 2c 68 3d 97 f3 d9 3c 02 92 6a 3f
       0.760289 0.056682926 0.02660541 0.9162904
0002a0 99 7a e2 3b c4 35 5c 3e 91 85 5d 3d 1c 1d e0 3d
       0.0069115874 0.21504885 0.054082457 0.10943052
0002b0 ce ad f7 be 80 43 02 3e 2e ff 0f be 0b c8 ef be
       -0.4837479 0.12721062 -0.14062187 -0.46832308
0002c0 df 11 d0 3d 69 92 56 3c 80 34 04 3e eb 94 cf bc
       0.10159659 0.01309643 0.12910652 -0.025339564
0002d0 30 b6 0c 3e 27 bd b7 3e 15 e7 58 3e 25 f5 65 be
       0.13741374 0.358865 0.21181901 -0.22456796
0002e0 d0 c2 64 3e 13 fc ab be 9d cc 33 bc 9b c0 c8 be
       0.2233994 -0.33590755 -0.010974077 -0.39209446
0002f0 38 ae 5f 3e ae c2 d5 bd 49 a4 06 3d 8b 28 75 3d
       0.21843803 -0.10437523 0.03287152 0.059853118
000300 ae 8c 5e be 43 4f 06 3d 14 8a be be 33 e3 c6 bc
       -0.21733353 0.032790434 -0.3721472 -0.024278259
000310 24 f4 9d 3e 73 54 cf bd a1 33 e5 bd 7b 36 9c 3d
       0.30850327 -0.10123529 -0.11191488 0.07627579
000320 68 71 95 be 62 ec 47 3e 59 bb af 3e 24 0a 2d be
       -0.29188085 0.19523767 0.34322622 -0.168984
000330 fc c8 d7 be ec 5d 5a 3e 50 6a 8b be cf 0d d4 bd
       -0.42145526 0.21324891 -0.27229548 -0.10354196
000340 be b1 1f 3e 17 ba e5 be 06 88 05 3f d1 fe 12 be
       0.15595147 -0.44868538 0.5216068 -0.14355017
000350 3b 49 52 3e 9a 95 7b 3d f5 69 19 be ef 05 fe bd
       0.20535748 0.061421968 -0.14981826 -0.124034755
000360 98 02 16 3e 48 79 1c 3e 3f 34 85 be f0 f6 71 bd
       0.14649427 0.1528064 -0.26016423 -0.05907339
000370 3e f2 e0 3d d6 03 36 bd 31 b0 12 be e4 b5 c2 3e
       0.10983704 -0.044437252 -0.14325024 0.38029397
000380 3a 37 58 be 94 d2 21 3e 60 4e 55 be b4 1d ac bd
       -0.21114817 0.15802985 -0.20830679 -0.08404103
000390 37 81 36 bd 48 d5 fa bd 89 30 fd 3d 91 f2 bd bd
       -0.044556823 -0.122477114 0.12362773 -0.092747815
0003a0 28 d9 5c be 84 04 6a be c8 29 41 3e 04 99 98 3d
       -0.21567214 -0.22853285 0.18863595 0.074510604
0003b0 90 a3 73 3e 31 1c 77 bc b7 e3 8f 3e 47 77 1f bd
       0.23792863 -0.015082405 0.2810342 -0.03893211
0003c0 40 86 0f 3d dc b4 95 3e f7 3f 87 be 80 ab 9a 3e
       0.03504014 0.29239547 -0.2641599 0.3020897
0003d0 a4 80 a2 bd d1 f6 32 3e 03 58 15 bf 76 d5 32 3e
       -0.079346925 0.17476965 -0.5833742 0.17464241
0003e0 8f 4b 94 be 32 47 df 3e 8e f0 0f 3f 70 a0 c9 be
       -0.28963897 0.43609005 0.5622643 -0.39380217
0003f0 c6 26 32 bf 32 e9 eb 3e 34 c9 cf be c4 cd 9b 3e
       -0.69590414 0.4607635 -0.40583193 0.30430424

bilstm.weight_ih_l0 f4 [64, 32]
000000 67 1a a7 bd 0f 99 4b 3e 9b 17 85 3d ff a9 83 3e
       -0.08159333 0.19882606 0.06498643 0.25715634
000010 79 7e 03 bc 53 bf 28 3e d1 55 b4 39 4e c0 6c 3e
       -0.008025759 0.16479234 0.00034396214 0.23120233
000020 cf 32 4d bc a3 12 35 bd 09 86 05 3e c8 b4 2f 3e
       -0.012524321 -0.044207226 0.13039412 0.17158806
000030 65 e1 db bc 98 43 94 3e 7c cc 6c bf 17 1d 15 bf
       -0.026840875 0.2895782 -0.9249952 -0.5824751
000040 90 69 7e bd 11 1c 80 bc 26 f3 1b be 4c 27 d9 3e
       -0.06211239 -0.015638383 -0.15229473 0.42412794
000050 a6 13 7b 3e ca aa 43 3e 29 07 f6 3d 0e 66 1c bd
       0.24519214 0.1910812 0.120130844 -0.038183264
000060 b4 37 96 be 18 e1 c9 be 4f 01 cb 3e c5 cd b5 3c
       -0.29339373 -0.39429545 0.39649436 0.022192845
000070 f5 76 69 bd c3 5b 0c be 93 05 ac be ac 81 c1 bc
       -0.056998212 -0.1370688 -0.33598003 -0.023621403
000080 48 b1 b2 bd 9c a4 6e 3d 12 38 5a 3c 29 c3 cc be
       -0.0872522 0.058262452 0.013319032 -0.39992645
000090 7a b0 53 be 30 f2 e2 bd fa 6a 54 be a3 7d cb be
       -0.20672789 -0.1108135 -0.20743933 -0.3974429
0000a0 00 b7 41 3e 8c d2 00 be c7 91 21 3e 94 74 6b 3e
       0.18917465 -0.12580317 0.15778266 0.2299369
0000b0 aa 63 11 be 5b cc 3c be b1 06 88 be 1f 89 d2 be
       -0.14198175 -0.1843733 -0.26567605 -0.4112024
0000c0 3c 9e 2e be 21 f7 9f be 93 46 65 3d aa eb 1e be
       -0.17052549 -0.31243232 0.055975508 -0.15519586
0000d0 2d 61 67 bd ed 7d a5 3d 72 f2 01 be 20 23 be be
       -0.05648916 0.08080659 -0.12690142 -0.37136173
0000e0 d1 cf c1 3e 64 db ce 3e 86 4a 86 3e f6 6e 24 be
       0.37853864 0.40401757 0.26228732 -0.16057953
0000f0 ac 49 eb be 2f 91 0c 3e 67 6a 97 3d e1 6e 5e be
       -0.45954645 0.13727258 0.073933415 -0.21721984
000100 bd 1a 67 3e 03 5d 7d 3e d8 11 a0 be 99 ef 4a 3d
       0.22568794 0.24742512 -0.31263614 0.049544904
000110 6b 95 f8 bc 80 92 50 3f d1 22 b6 ba b1 9a 8e 3e
       -0.030344686 0.8147354 -0.0013895874 0.27852395
000120 10 bf b1 3e b3 1b 66 3e 8a d2 5d be ab 0a b1 be
       0.34716082 0.22471504 -0.21662346 -0.34578452
000130 6d 68 b5 3d 58 5f a1 3d 52 f5 dc 3d 01 45 66 3e
       0.08857808 0.078795135 0.10788979 0.2248726
000140 e8 f3 c8 bc bd c6 68 3d d2 6d 5e be ef fc 25 be
       -0.024530366 0.056830157 -0.2172158 -0.16209768
000150 06 d5 a6 ba 66 e8 c2 be c4 17 75 3e 59 96 6f 3f
       -0.0012728281 -0.3806793 0.23934847 0.9358879
000160 05 6d 4a be fb e0 1e 3e cf d7 79 3e 23 c9 f3 3d
       -0.1976815 0.1551551 0.2439873 0.11903598
000170 ef d4 d5 bc 8c 31 31 3e cd 45 63 3e 21 f5 c0 bd
       -0.026102511 0.17304057 0.22194596 -0.09421755
000180 8e eb 85 3e 5c ac 33 bd 46 bf 42 3e f9 0b 45 be
       0.26156276 -0.043865547 0.19018278 -0.19242848
000190 70 5a 42 be 7f b4 25 be a0 89 b3 3d 60 0a 06 be
       -0.18979812 -0.16182135 0.08766484 -0.13089895
0001a0 c8 02 7e be 53 96 9c 3d ac 29 1a bf 62 3b 0c be
       -0.24805748 0.076458596 -0.60219836 -0.13694528
0001b0 e5 83 01 bd 88 73 a3 bd 53 6f 20 3e 65 1b 5d 3d
       -0.031619925 -0.0798102 0.15667467 0.053981204
0001c0 7c 16 38 bd 4f 79 5c be 88 c4 89 be 3e 5e a4 be
       -0.044943318 -0.2153065 -0.26907754 -0.3210315
0001d0 30 4c ab bd a1 da 27 bd 87 17 5a 3e ac f7 d5 3d
       -0.08364141 -0.040979985 0.21298037 0.1044763
0001e0 7f fd 41 bd b9 c4 98 3d d9 95 f3 3e eb 42 ce 3d
       -0.047360893 0.07459397 0.47575262 0.10071357
0001f0 27 b3 d5 bc 28 a9 98 3e b6 9c 2d be ea 9f 94 bd
       -0.026086403 0.29816556 -0.16954312 -0.07257064
000200 b8 f2 af 3d 8e d5 6e be 83 c2 85 be b3 97 86 3e
       0.08591217 -0.23323652 -0.26124963 0.26287612
000210 3f a7 1b be eb 37 57 be ea c9 a4 be 89 93 ea 3d
       -0.15200518 -0.21017425 -0.32185298 0.11453921
000220 e7 79 f5 bc 74 83 0c be 54 b0 a7 3d ec 88 f8 be
       -0.029965354 -0.1372202 0.08187929 -0.48541963
000230 65 be 83 bd 67 74 cc be f8 62 21 bf af 3c 65 bf
       -0.06432799 -0.39932558 -0.6304164 -0.8954572
000240 ed ff 03 3e 59 8f 7f 3e e3 be cd be 46 91 9f 3d
       0.12890597 0.24957027 -0.40184698 0.077913806
000250 76 97 99 bd 0a 51 c6 be 44 74 fe 3c ad a0 5b be
       -0.07499592 -0.38733703 0.0310613 -0.21448012
000260 fd 2f fd bd 0b 9d 83 be 38 cc 2e 3f 95 a1 88 be
       -0.12362669 -0.25705752 0.68280363 -0.26685777
000270 a2 08 00 3c 8b ae 4f be 79 24 17 bf ff 8c 05 bd
       0.007814558 -0.20281427 -0.5904003 -0.032605167
000280 dd d3 bc 3e da 21 ee 3c 48 cb ce 3c ae ad 63 3f
       0.3688039 0.029068876 0.025243416 0.8893689
000290 96 f3 26 be 34 5e 63 be 8b 14 49 be 56 f1 15 3e
       -0.16303858 -0.22203904 -0.19636743 0.14642844
0002a0 f8 7c 37 be 87 eb be 3d f3 48 a8 3e 6e 61 d4 3b
       -0.17918766 0.09322267 0.32868156 0.006481341
0002b0 bc df 29 3f 84 b9 82 3e 39 bf a9 be 99 6a c8 3d
       0.66357017 0.25532162 -0.33153704 0.09785957
0002c0 4b fa cb 3d 99 40 94 3d 9a 06 6b be 60 de 0c 3f
       0.09959849 0.072388835 -0.22951737 0.5502682
0002d0 32 14 ed bd e4 cc 03 3f 9d 07 90 3c 2e 69 65 3d
       -0.115761176 0.51484513 0.017581755 0.05600851
0002e0 44 54 7f be bb 8e 44 be 14 e9 f5 3e fb af 0c be
       -0.24934489 -0.19195072 0.48029387 -0.13739006
0002f0 e6 25 62 3e 35 54 76 3e 3b 48 9d be da 8c 69 3e
       0.2208477 0.2405556 -0.3071917 0.22807637
000300 22 d0 64 3e b7 0a df 3d 8f e5 5e be 3c 96 86 be
       0.22345021 0.108907156 -0.21767257 -0.26286495
000310 42 21 cb be e6 a8 4a 3c 32 36 9c bd 8d d7 25 be
       -0.3967381 0.01236937 -0.076275244 -0.16195507
000320 a4 cb e7 3d a8 41 45 be 84 7a a0 be 03 5a 35 be
       0.11318138 -0.19263327 -0.31343472 -0.17710118
000330 5f 75 32 bf bf aa 1f 3e ed 57 2b 3d ca 78 87 3e
       -0.69710344 0.15592478 0.0418319 0.26459342
000340 61 26 1a 3e eb 35 84 3d e1 e1 d6 3c e2 bb 44 3e
       0.15053703 0.064555965 0.026230754 0.19212297
000350 2f 7e c3 bc d2 de 74 be fc 96 a7 3d 9f e1 a2 bd
       -0.02386388 -0.23913124 0.08183095 -0.0795319
000360 1d e9 7c bc 48 04 ba 3e e7 c3 87 3e 09 b8 e5 bc
       -0.015436438 0.3633139 0.2651665 -0.028041856
000370 b4 29 b2 ba 75 dd c4 bc f7 d4 a1 be 64 07 c6 3e
       -0.0013592751 -0.02403138 -0.31607792 0.38677514
000380 91 ea a6 3e 6d 52 0f 3e 66 7c 40 be 02 30 b9 be
       0.32600835 0.13996287 -0.18797454 -0.3616944
000390 6d 76 f1 3d 56 33 95 3d 97 de f9 3d 7f 03 5b be
       0.11790166 0.07285182 0.12200659 -0.21388052
0003a0 18 a4 f4 b9 e5 ed 22 be 2c a4 28 bc a9 f1 9c bd
       -0.00046661566 -0.15911062 -0.010293048 -0.076632805
0003b0 12 24 56 3e 66 f2 9b 3e 40 81 5a 3d 9b 20 70 3e
       0.20912197 0.30458373 0.05334592 0.23449938
0003c0 ce 0d 0c be 42 b8 c6 3c 1e e3 43 be 28 cb e0 3d
       -0.13677141 0.024257783 -0.19129607 0.10976249
0003d0 f5 3f a5 3d 5f 95 97 bd a7 2f 14 be bf db 75 be
       0.080688395 -0.07401537 -0.14471303 -0.24009608
0003e0 00 16 54 be bc be 92 be 61 01 58 3e 36 0d b1 3d
       -0.20711517 -0.28661144 0.21094276 0.08645098
0003f0 ef d5 93 3e cb cd d7 3c 74 5d 96 3d 87 3f 94 3e
       0.28874156 0.026343247 0.073420435 0.28954718

bilstm.weight_ih_l0_reverse f4 [64, 32]
000000 7d 97 90 3d b6 e5 50 bd b5 54 37 3d c9 8e a7 bd
       0.07060144 -0.05100032 0.044758517 -0.08181531
000010 dc 74 b6 3d 08 f9 b3 3e 26 5c 55 3e f6 d9 3b 3e
       0.08909008 0.35150933 0.20835933 0.18344864
000020 5e 73 eb 3e a7 04 a3 bd 34 3e 3a 3e 2d 87 56 be
       0.45986456 -0.07959872 0.18187791 -0.20950003
000030 3b 30 01 3f 80 35 ce be 4c a9 8f 3e f1 32 9a 3d
       0.5046422 -0.40275192 0.2805885 0.075292476
000040 db f2 52 bd e2 54 92 3d 46 eb ca 3c 09 31 0d bd
       -0.051501136 0.07145096 0.02477039 -0.03447059
000050 6f 97 19 3e 85 46 23 3e 69 96 ac 3d 34 6e 2d bd
       0.14999174 0.1594487 0.08427126 -0.042341426
000060 12 20 10 3e fd 31 20 bc a7 ac a6 3f 8f b7 22 be
       0.14074734 -0.009777543 1.3021439 -0.15890335
000070 fd 43 63 3d 49 f0 24 be 3d cc da be 87 a5 1f 3f
       0.05548476 -0.16107287 -0.42733946 0.6236195
000080 d6 ac c4 be 3c 84 26 3e 6a 8c 41 be 8e e1 27 3e
       -0.38413113 0.16261381 -0.1890122 0.16394636
000090 00 99 8c be 09 53 1b bf 8b 97 db 3d 9d db 87 be
       -0.2746048 -0.60673577 0.10722264 -0.2653474
0000a0 32 69 b2 3c 54 d4 ab be dd 2b 07 3e c2 b8 e3 be
       0.021778677 -0.3356043 0.13200326 -0.44476897
0000b0 34 cb 6e be d4 72 4a 3e d8 ee f3 be b5 75 bf bb
       -0.23319703 0.19770366 -0.4764316 -0.005842889
0000c0 0f 05 44 bd cb 5c 15 3e 2b 11 74 3d 08 2f 8a 3e
       -0.047856387 0.14586179 0.059586685 0.26989007
0000d0 86 d0 07 3e cd c1 6a be c2 ce 0a 3e 62 56 fd be
       0.13263139 -0.22925492 0.13555434 -0.49479967
0000e0 38 27 34 bd d0 f1 71 be 9a 79 a1 be 76 a4 19 bf
       -0.043982714 -0.236274 -0.31538087 -0.6001657
0000f0 fc 17 41 be 2b 24 9a 3b 48 b4 2c be 91 e9 91 bd
       -0.18856806 0.0047040186 -0.16865647 -0.071246274
000100 47 4b 46 3e a8 72 07 3d 5c 0e a5 3b e5 13 83 3e
       0.19364654 0.03306833 0.005037112 0.25601116
000110 8d 4a e4 be 05 bb 5f be 5a 48 32 bd 04 c2 a7 bc
       -0.44588128 -0.21848686 -0.04352603 -0.020478256
000120 b5 c7 b0 bc 7a 7e fe be 1d c7 45 bd f7 55 b2 3c
       -0.021579603 -0.4970587 -0.048285592 0.021769507
000130 d1 f4 9a 3e ec 2d a0 3e da 15 15 3d 6a b8 de 3e
       0.30264905 0.31285036 0.036397792 0.43500072
000140 61 b2 f2 bc 55 0b 3d 3e a1 65 74 3e 35 6d 98 3e
       -0.029626073 0.18461354 0.23866893 0.29770818
000150 42 de 66 3e 3a 77 b7 3e 0e 0e ca bd f7 be ab bd
       0.22545722 0.3583315 -0.09865962 -0.08386033
000160 b8 25 86 3e c2 c0 8e 3e 73 7a 09 3e 18 7c cb 3d
       0.26200652 0.27881438 0.13425617 0.099357784
000170 ce 81 40 bd 51 a9 93 bd e0 ef e3 be c6 1e 24 3e
       -0.04699879 -0.07210029 -0.44518948 0.16027364
000180 84 a7 43 bd c9 66 a7 bd 19 5c b4 bd 6a b3 1d be
       -0.047767177 -0.081739016 -0.08806629 -0.15400472
000190 db 29 b6 be 0f 33 ab bc 21 c9 a2 3d 68 17 c1 be
       -0.35578808 -0.02089837 0.079485185 -0.3771317
0001a0 68 d7 3d 3e 2e 79 4a 3e 84 6a a2 bd d3 d8 b2 be
       0.18539202 0.19772789 -0.079304725 -0.3493105
0001b0 32 d7 e0 3d dc d5 50 be 30 64 d5 3d d7 7c fc 3d
       0.10978545 -0.20394081 0.104195 0.12328499
0001c0 9a 16 c4 3e fe 04 d1 3d 57 77 d3 bc 3b 71 8e 3e
       0.38298494 0.1020603 -0.025813742 0.27820763
0001d0 0b 8a 3d 3d 55 85 8e be 1a 67 dc 3d 44 de 88 3e
       0.046274226 -0.278361 0.107618526 0.26732075
0001e0 15 4e 1f 3e 3c 6b 84 3e 60 50 66 bf 2e c0 c4 3e
       0.1555713 0.25863063 -0.8996639 0.3842787
0001f0 c3 35 ce bd 4b 9c 4e 3c be 35 fe bd a4 07 a2 be
       -0.10068848 0.012610505 -0.12412594 -0.31646454
000200 1c 9b 13 3e cc 1c c1 3d e1 63 c7 be 60 80 a7 3d
       0.14414638 0.09429321 -0.3894339 0.081787825
000210 35 4a 90 bd 5e 55 3a bf 3d ee 6d be c3 5d 63 3c
       -0.07045404 -0.7278651 -0.23235412 0.013877335
000220 e8 f7 c6 be f8 a1 31 be f9 50 b9 bb 98 ab f4 bc
       -0.38861012 -0.17346942 -0.0056554046 -0.029866979
000230 26 84 6a be 6f 5c a4 3e d8 bf 36 3f 33 9b e2 be
       -0.22901973 0.3210177 0.7138648 -0.44259033
000240 12 34 81 be 5f da e4 be 36 21 eb be d3 bd ca be
       -0.2523504 -0.44697854 -0.45923775 -0.3959795
000250 f1 9f d5 3d 63 f8 ac 3d 13 13 c9 be 4d a4 50 3e
       0.10430897 0.084458135 -0.39272365 0.20375176
000260 17 ff 19 3f be 19 17 be ee e2 b7 3d a5 12 13 3e
       0.6015486 -0.14755914 0.0897883 0.14362581
000270 91 86 2c be fe 2c 37 3e 38 02 d2 bd 23 ca 59 bf
       -0.16848208 0.17888257 -0.102543294 -0.8507406
000280 92 fd 8b be 73 4a 0e be 94 f4 3a bd a0 b9 59 be
       -0.27341896 -0.13895588 -0.045643404 -0.21262217
000290 4b 5e 9b bd ec 6d 47 3e 0f 05 54 be 85 03 1b bf
       -0.07586344 0.19475526 -0.20705055 -0.60552245
0002a0 b1 9f f3 3e af f7 62 be 84 40 8e be 02 d5 af 3d
       0.47582772 -0.22164796 -0.27783597 0.0858555
0002b0 02 ba b5 be ec 14 27 bd ea e4 dc bc 56 5b e6 be
       -0.35493475 -0.040791437 -0.026964623 -0.4499156
0002c0 11 71 dd bc 94 62 c5 3d b5 97 aa bd 17 11 dd 3e
       -0.027031453 0.09637943 -0.08329717 0.431771
0002d0 aa b4 0b be 55 e4 bc ba 66 c4 8b 3e 6a 31 38 be
       -0.13643137 -0.001441131 0.27298278 -0.179876
0002e0 83 02 5f 3e 81 51 ec bd 17 e3 f5 3d bd dc ff 3c
       0.21778302 -0.11538983 0.120062046 0.031233186
0002f0 61 bb 16 3e 31 5e 57 bd e2 b3 fb 3b 47 ed c6 be
       0.14719917 -0.052580062 0.007681356 -0.38852903
000300 30 2f 26 be 7e 20 c8 bd 36 d7 64 bd 14 01 33 3d
       -0.16228938 -0.097718224 -0.055869304 0.0437022
000310 b2 64 80 3e 18 cd 90 3d af dd 35 3e f9 38 bd be
       0.25076824 0.070703685 0.17760347 -0.3695753
000320 45 d8 2e bd 80 59 05 bd 2a 49 e5 3f 23 65 38 3e
       -0.04268672 -0.032556057 1.7912953 0.1800733
000330 66 ad 2a 3e f6 30 42 bd 2e a7 12 3f 01 3e 0c 3f
       0.16667709 -0.047409974 0.57286346 0.5478211
000340 43 e9 4c 3e 85 a0 b3 3d 6d e7 a1 bc b8 1f 90 3b
       0.20010857 0.08770851 -0.019763673 0.0043983124
000350 9d 8a 4d 3d c5 7d fb bd 48 6f 7e be ca 61 05 3d
       0.05018102 -0.12279848 -0.24847138 0.032563962
000360 b4 2a da 3d 7b ad 94 3e d7 d1 af 3f 9c 40 00 3e
       0.10652676 0.29038605 1.3735913 0.12524647
000370 bf 81 58 bd 41 d1 cc bc 51 f3 d1 bd 3d a1 a2 bc
       -0.05285811 -0.025002124 -0.10251487 -0.019852275
000380 a9 2a 05 bf 8d 5f ff bc 3c 60 eb 3b 3e f7 f0 bd
       -0.5201822 -0.031173492 0.007183103 -0.11765908
000390 5e 17 2c 3d d6 5f f7 3d 2c 31 0d be 4e e9 97 be
       0.042014472 0.12078826 -0.13788289 -0.29670185
0003a0 fb e7 06 3e 26 f3 90 bc 9c 4e e9 3e de fb 0c 3d
       0.13174431 -0.017694067 0.45567787 0.034419887
0003b0 ba 51 2c 3e 47 a2 77 bd 6e 02 2a be 06 c1 06 bc
       0.16828051 -0.060457494 -0.1660249 -0.008224731
0003c0 6a fc 8a bd 59 4e c6 be 2b a4 5c be 64 b8 15 3e
       -0.067864254 -0.3873165 -0.21547 0.1462112
0003d0 96 0a 8b bd bf 70 40 be 0d 6b 26 be 37 61 b4 be
       -0.067891285 -0.18793009 -0.16251774 -0.3523042
0003e0 9f d2 17 3e 34 74 05 bc d9 c7 67 3e 67 6e 60 3e
       0.1482644 -0.008145381 0.2263483 0.21917115
0003f0 fd b2 ec be a4 af ce be 88 5c de 3d 0f 40 c1 3e
       -0.46230307 -0.40368378 0.10857493 0.37744185

parallel_cnn_block.branches.0.0.weight f4 [1, 1, 2]
000000 c2 75 bb 3e 01 ac 3f 3f
       0.3661328 0.7487183

parallel_cnn_block.branches.0.2.bias f4 [16]
000000 57 4c b6 3c ab 12 90 3e 96 2b 6a 3f f7 30 14 3f
       0.022253199 0.28139243 0.91472757 0.57887214
000010 89 f7 0b bf 36 e7 0e bc 7e b4 e4 bb 55 b4 b3 be
       -0.54674584 -0.008722117 -0.006979524 -0.3509852
000020 3d 35 6f be 05 85 a0 3e fb a7 14 3e 6a 72 cc 3e
       -0.23360153 0.31351486 0.14517204 0.3993104
000030 97 97 a5 bb 9d 50 d5 3e 10 b9 54 3e 81 11 cf 3e
       -0.0050534713 0.41663066 0.2077372 0.40443042

parallel_cnn_block.branches.0.2.weight f4 [16, 1, 2]
000000 1f 5f 0a bf 62 6b 0a 3f a3 30 56 be 02 75 8e 3e
       -0.54051393 0.54070103 -0.20916991 0.27823645
000010 b9 d0 cd bd 2c db 65 bf 1f cd 68 bf ec 87 a7 bf
       -0.10049576 -0.89787555 -0.9093799 -1.3088355
000020 ce 73 c3 bd 8a c6 53 be 36 63 10 3f 0e 77 42 3e
       -0.09543572 -0.20681205 0.56401384 0.18990728
000030 d2 cc c6 be 1b 3f c5 3e f6 81 ee be db 09 0a bf
       -0.3882814 0.38524708 -0.46583527 -0.5392129
000040 93 54 9f be d6 4a c2 3e fb dd 79 bd 3c da 88 bc
       -0.31119213 0.3794772 -0.061002713 -0.016705625
000050 98 8b 06 bf 8c 97 03 3f f5 80 b6 be ad c0 9f 3e
       -0.52556753 0.5140312 -0.3564526 0.31201687
000060 72 31 da 3e 2d e5 db 3e 3c be cc 3e 4f 61 19 be
       0.4261585 0.42948285 0.39988887 -0.14978527
000070 5c 30 f1 be b3 0c cc 3e 0d 38 eb bd d8 62 6c 3d
       -0.47107208 0.3985344 -0.114853 0.057711452

parallel_cnn_block.branches.1.0.weight f4 [1, 1, 4]
000000 4e d9 c8 3e f2 47 a2 bc bb 4d 27 be 58 be 9d bd
       0.3922829 -0.019809697 -0.16338246 -0.07702321

parallel_cnn_block.branches.1.2.bias f4 [32]
000000 7c e9 9d be ed 84 1b 3e 63 6a 07 3d b9 8b cf 3d
       -0.30842197 0.15187426 0.033060443 0.10134072
000010 6d f0 f3 be 77 65 92 be d4 4c ce 3e d8 91 95 3d
       -0.47644368 -0.28593037 0.4029299 0.07303208
000020 f3 97 86 3d 99 89 e5 3c 44 8d 2f 3e 8e 26 e6 3d
       0.06571951 0.028019713 0.17143732 0.112378225
000030 d0 35 0a 3e dd c7 4e bf 14 4f 89 3e 8b cf f7 be
       0.1349709 -0.8077372 0.26818144 -0.4840053
000040 35 2f 03 bf 49 77 43 be ba 63 23 be ca 68 96 be
       -0.5124391 -0.19088472 -0.15956011 -0.29376823
000050 a4 f4 39 bf 87 03 a4 3d 50 ee a0 be d5 d2 66 3e
       -0.72638917 0.08008485 -0.31431818 0.22541364
000060 de 61 a2 be 4c 94 a7 3e 0d a5 be be da 6d 53 3e
       -0.31715292 0.3273033 -0.372353 0.20647374
000070 7f 77 d0 be 5a f0 d3 be 26 19 d0 3d 40 14 8b be
       -0.40716168 -0.4139431 0.10161047 -0.27163887

parallel_cnn_block.branches.1.2.weight f4 [32, 1, 4]
000000 ce c1 ae bd 0e 4f 2a 3f 60 ac 0f bf 15 3b 62 bf
       -0.08533059 0.6652688 -0.561224 -0.883714
000010 19 e3 a1 bf 6f 3a 95 bf ff 5d 56 3e 4a 29 4d 3f
       -1.264743 -1.1658458 0.20934294 0.8014113
000020 13 41 11 bd 6e be 74 3e b3 5e 5e bf fa 2a 11 3f
       -0.03546245 0.23900768 -0.8686325 0.567062
000030 68 29 9e bf 73 12 a6 bf 46 64 af 3e 4f b1 33 3f
       -1.2356386 -1.297438 0.3425619 0.70192426
000040 c8 70 d3 3e 44 61 4f 3d 2c bd a9 3e 9a 64 64 3f
       0.41296983 0.05062987 0.3315214 0.89216006
000050 a5 0e 0c 3f 24 7e ba bf 2c e2 11 3f d5 19 84 be
       0.54709846 -1.4569745 0.56985736 -0.25800958
000060 86 ec 85 bf 07 a4 31 bd 10 e1 cb be a3 55 8a 3e
       -1.0462806 -0.04336932 -0.39820147 0.2701846
000070 04 5e 03 3e 2c a4 03 3f 40 5d 90 3d 1c 36 5c bf
       0.12828833 0.5142238 0.07049036 -0.86020064
000080 13 e7 11 bf 99 b5 25 3e 93 61 57 3f 8b 10 23 bf
       -0.56993216 0.16182555 0.8413326 -0.6369712
000090 0a c1 08 3f 6a 22 50 3f c7 aa bb 3d ee d4 ac 3e
       0.53419554 0.8130251 0.091634326 0.33756202
0000a0 d2 b7 f4 3d c6 e0 4b 3e 7c c5 78 bf ad c5 64 3e
       0.119491234 0.19909963 -0.9717634 0.22341032
0000b0 32 60 a6 bf 62 08 8e be aa df b2 3d e7 c6 27 3f
       -1.2998106 -0.2774077 0.08734067 0.65537876
0000c0 39 f1 2c 3e 78 8d 4a 3e 1d 1f 29 bf 27 f9 6a bf
       0.16888894 0.19780529 -0.660631 -0.91786426
0000d0 98 17 a0 bd 4c 1f a3 3c 99 2c 33 3f 18 d6 35 3e
       -0.07817 0.019912384 0.69989926 0.17757452
0000e0 95 a9 1d bf b2 f3 26 bf 02 f3 00 bc db a1 9c 3e
       -0.61586887 -0.652156 -0.007870438 0.30592236
0000f0 30 82 9f 3e 39 ed d4 be 77 96 b3 be e0 9d f0 3e
       0.31154013 -0.41587237 -0.35075733 0.4699545
000100 0a 30 8f bf 92 53 11 3f 6f a1 af bc 5a 75 e8 bd
       -1.1186535 0.56768143 -0.021439282 -0.11350508
000110 ea 47 91 3c db 96 c6 bd 1e 38 8d be c1 ef 3e 3f
       0.017734487 -0.09696742 -0.27581877 0.74584585
000120 5b be 89 bd 05 0f 77 3f 5d f9 53 3f fc 61 e6 be
       -0.067257605 0.96507293 0.82802373 -0.4499663
000130 5a f8 2b 3f 5e df 0b be cc c5 ff 3e ec 37 cc 3e
       0.6717583 -0.13659427 0.49955595 0.39886415
000140 b8 93 35 bd 52 7a cc bc c7 2f 6d 3f 05 8d 94 3d
       -0.04433033 -0.02496067 0.9265103 0.0725346
000150 31 df d3 be 07 55 71 3e ab b4 f4 be 6a 8c cf 3e
       -0.4138122 0.23567592 -0.4779409 0.40536815
000160 8a ea 29 3f 3a 0b 47 3f 20 04 45 3f 20 44 3f 3f
       0.66373503 0.77751505 0.7695942 0.74713326
000170 a6 4f a6 bf 2b 57 c9 bd 04 92 4b 3e fc 85 02 3e
       -1.2993057 -0.09831079 0.1987992 0.12746423
000180 19 fa 46 3e 2f 30 00 3f 04 dd ca be a3 34 fb 3e
       0.19431342 0.5007352 -0.39621747 0.49063596
000190 f8 7b 68 bf e0 8b bf bc 99 45 a6 be ca 85 ad 3e
       -0.9081416 -0.023382127 -0.32474974 0.33891135
0001a0 3b 80 42 3f 71 d7 cd 3d 87 f2 cf 3e ee 3e df 3e
       0.75976914 0.10050858 0.4061472 0.436027
0001b0 23 54 2c bf 65 e3 8f bf 98 df 7e 3e c5 d1 0e 3f
       -0.6731588 -1.124127 0.24889982 0.5578883
0001c0 94 44 ff 3e c6 07 08 bb a3 40 3e 3f 43 c0 20 3f
       0.49857008 -0.0020756586 0.7431738 0.6279337
0001d0 73 99 fa 3d ad 36 5b 3f d3 5f 84 3f 5b 16 d7 bd
       0.12236299 0.85630304 1.0341743 -0.10502311
0001e0 2e d9 16 bd 3b 69 83 3e 80 56 79 bf a4 da 2b bf
       -0.036828212 0.25666222 -0.97397614 -0.67130494
0001f0 79 4d 20 3f f5 75 3f bd 3b 94 46 be 31 dc 1f 3f
       0.62618214 -0.046743352 -0.19392483 0.6244536

parallel_cnn_block.branches.2.0.weight f4 [1, 1, 8]
000000 ac 46 be 3d 5d 53 8f 3e 85 e7 f7 bd f7 06 e1 3e
       0.09290823 0.2799329 -0.12104706 0.43950626
000010 45 7c a0 be 26 d8 ff be 03 19 3a be df 5c a6 3e
       -0.3134481 -0.49969596 -0.18173604 0.3249273

parallel_cnn_block.branches.2.2.bias f4 [64]
000000 e8 a0 54 3d 27 0e 5d bf da c6 3a be 1c 0f 7a bd
       0.051911265 -0.8634972 -0.18239918 -0.061049566
000010 ba 22 51 bd a5 1f 93 3e 4e 22 c8 be fe 69 60 bf
       -0.05105851 0.2873508 -0.39088672 -0.8766173
000020 25 09 4b 3e a9 6a a8 3e 86 0b 61 3e d4 57 2c 3e
       0.19827707 0.32893875 0.21977052 0.16830379
000030 94 36 97 bf 05 c0 c1 3e 59 b8 09 3e 61 58 96 bf
       -1.1813531 0.37841812 0.1344923 -1.1745721
000040 62 4a 34 3e 82 73 99 bc fc ef 50 bc 14 63 ab be
       0.176065 -0.018731836 -0.012752529 -0.33474028
000050 e7 74 8c bf 16 9c e7 bd ac 8a cc be 3c 55 3a 3e
       -1.0973176 -0.11309068 -0.39949548 0.18196577
000060 0d b2 fa 3c 25 21 5d bf 2b 01 e2 be 81 f1 7e 3e
       0.03060248 -0.863787 -0.44141516 0.24896814
000070 87 05 3e 3e f2 ff 90 bf 70 b9 cf 3b bd dd 43 3e
       0.18556796 -1.1328108 0.0063392445 0.19127555
000080 01 24 34 3d 35 13 d8 be a1 ad 22 bf 06 5e 96 3b
       0.04397965 -0.42202154 -0.63546187 0.004588845
000090 69 21 52 3e 3f 88 c0 bd 4c a7 40 be c6 b9 90 3e
       0.20520557 -0.09400987 -0.18813819 0.28266734
0000a0 d1 d8 25 3c 87 c3 f0 be 93 8a 1b 3e c6 e7 87 3e
       0.010122494 -0.47024176 0.1518958 0.26544017
0000b0 ce b4 84 3e cf 3d 3d 3e ba 78 cd 3e 38 74 c2 bd
       0.25919193 0.1848061 0.4013117 -0.09494823
0000c0 cd b3 4e bf 2f 51 ab bd 16 e3 50 3d 95 6f 0b bd
       -0.80743104 -0.08365094 0.050997816 -0.03404196
0000d0 15 66 7f 3c 02 92 6e 3a b1 51 4f bc 00 5f 58 bf
       0.015588303 0.00091007364 -0.012653754 -0.8451996
0000e0 b2 20 3a 3d c8 11 1c bb 4d 44 3a bf 60 eb 42 bf
       0.045441337 -0.002381431 -0.7276047 -0.76140404
0000f0 35 6c a8 3a ec af 01 3d 5a 27 1b bf 0c a5 06 bd
       0.0012849631 0.031661913 -0.6060692 -0.032872245

parallel_cnn_block.branches.2.2.weight f4 [64, 1, 8]
000000 83 66 61 be 37 e1 2d be b3 a1 98 3e 3b d9 17 3f
       -0.22011761 -0.16980444 0.29810867 0.5931584
000010 96 08 e2 bd f2 aa 09 be 91 90 c4 3e 30 24 26 bf
       -0.11036794 -0.13444117 0.38391545 -0.6489897
000020 5b 58 25 3e d0 7e 3a be e8 b5 fa 3d a3 79 36 3e
       0.16146986 -0.18212438 0.12241727 0.17819838
000030 cf 78 d8 3c 11 57 bc 3c bb 04 42 3d b3 04 cf 3e
       0.026424794 0.022990735 0.047367793 0.40433273
000040 fd 9f 3e be db 78 d6 3e 9d 70 07 bf 5c d4 8a bd
       -0.18615718 0.4188908 -0.5290621 -0.067787856
000050 08 91 2a 3f 70 34 41 3e f8 f9 3a bf 7b b4 91 3e
       0.6662755 0.1886766 -0.7303767 0.28458008
000060 76 b0 1e 3f 86 41 f2 bc 74 c1 99 be b5 7c 46 bd
       0.6198801 -0.02957226 -0.30030406 -0.048458774
000070 78 0f e6 3e 09 39 9c be 30 f3 6b 3e 7a e6 1f bc
       0.44933677 -0.30512264 0.23041987 -0.00975954
000080 ec 68 f9 bd ee bb 66 3e 54 3a 08 bd 5c 2c c7 3d
       -0.121782154 0.22532627 -0.03325875 0.09725258
000090 b2 91 08 3f c8 76 b8 3e 23 59 05 3e e2 fa 1d be
       0.53347313 0.36028123 0.13022284 -0.15427735
0000a0 28 dc 8f 3e 32 17 df bd 9a bb 0c 3d a9 c0 fc be
       0.28097653 -0.10893096 0.0343586 -0.49365738
0000b0 ea d0 e7 bc fb 06 a4 be b4 e3 ae be 6a 8a 96 3e
       -0.02829786 -0.32036576 -0.341581 0.29402477
0000c0 c0 3b 2e 3f 93 73 e4 3d 70 17 c6 3c 75 91 92 3d
       0.6805992 0.111548565 0.024181098 0.0715665
0000d0 60 9c 3d 3c b5 b6 7e be 4e c6 99 3e 72 86 16 3d
       0.011572927 -0.24874385 0.30034107 0.03674931
0000e0 96 27 01 bf 2c 77 a2 be c3 16 66 3d c3 58 ea 3b
       -0.5045103 -0.31731546 0.05617405 0.0071516945
0000f0 2a fe 33 bf e3 b0 be 3e c5 27 79 3e 14 bb 1b bc
       -0.703097 0.3724433 0.24331577 -0.009505052
000100 a1 4a e3 be 22 18 9a 3e a6 0b 92 3e 60 94 f4 3e
       -0.44392875 0.30096537 0.28524512 0.4776945
000110 ee 20 e4 bd 0e 64 6c 3e 90 6d 62 bd a6 eb 86 be
       -0.11139093 0.23085043 -0.05528027 -0.2635166
000120 72 f7 0a 3f 16 4e 87 be 1b 42 e9 be 5f 21 a8 be
       0.5428382 -0.26426762 -0.45558247 -0.3283796
000130 73 f2 ff 3e 3c 40 b6 be df 75 59 3d 1d 73 48 be
       0.49989662 -0.35595882 0.053090926 -0.19575162
000140 36 e4 79 be bd 80 bd bd 5d 06 7d 3e 25 da 29 3f
       -0.24403462 -0.092530705 0.24709459 0.6634849
000150 63 0f d6 bd 7c c7 b1 bd 88 5c cb bd 78 9a c4 be
       -0.104521535 -0.08680627 -0.09929758 -0.383991
000160 c5 45 8e bc ea 1c d9 3c 51 13 cd 3e eb 53 48 3e
       -0.017367253 0.026503045 0.400538 0.19563262
000170 b5 82 4d 3d 01 46 dd 3d b6 e3 bc be a3 d9 27 bf
       0.05017348 0.10804368 -0.3689248 -0.6556646
000180 61 76 da 3c 05 ec ae 3e 39 68 4d 3d 0c e5 2f bd
       0.026667776 0.34164444 0.050148223 -0.042943045
000190 e0 07 c8 bb c3 f1 dc 3d 2c 17 88 bd 5d 04 9d 3e
       -0.0061044544 0.107883 -0.06645045 0.3066739
0001a0 94 df 15 bf 87 bb e7 bd 1f ae 96 bd 06 81 b0 bd
       -0.5854428 -0.11315065 -0.0735743 -0.08618359
0001b0 40 52 4c be 39 94 03 bf 32 04 90 bd 0a 8c b5 3e
       -0.19953251 -0.51398045 -0.0703205 0.35458404
0001c0 7e 66 80 be 78 ca 41 be 81 6f 97 be 1b 9a 1c bf
       -0.25078195 -0.18924892 -0.29577258 -0.61172646
0001d0 2a 03 d6 be 6a f1 0c 3f df d3 ec bd e7 f0 8c 3e
       -0.4179929 0.5505587 -0.11563849 0.27527544
0001e0 49 78 cd be 57 79 10 be fa dd 58 3d 63 a6 c7 be
       -0.40130833 -0.14108787 0.05294607 -0.3899413
0001f0 ae ed 98 be 77 23 95 3d 28 80 80 3d 47 d1 6e 3e
       -0.29868835 0.07282155 0.06274444 0.2332202
000200 ff ea 03 3d df 4e fc bd fa f0 e8 bd ce d5 81 3e
       0.03220653 -0.12319731 -0.11374088 0.25358433
000210 61 76 10 3e cb fd e1 bd 33 51 fb 3c f1 e7 83 3e
       0.14107658 -0.11034735 0.030678367 0.25762895
000220 cd 13 93 3e 56 fa d1 bd 23 35 bd be 80 4d db 3e
       0.28726044 -0.10252826 -0.36954603 0.42832565
000230 c4 09 ae 3e 92 ae e0 3e 66 bb e3 3e f9 13 5e be
       0.33991826 0.43883187 0.4447891 -0.21687306
000240 02 d6 28 be d8 74 b7 3e 42 f7 9f be 45 70 66 bd
       -0.16487888 0.35831332 -0.3124333 -0.056259412
000250 be 44 89 3e ac c0 1a 3e 78 d3 93 3e 0c 6b 30 be
       0.2681026 0.15112561 0.28872275 -0.17228335
000260 3a f3 6d bd 0a c0 b1 bd 7c 52 84 be 08 a0 b2 be
       -0.058093287 -0.08679207 -0.2584418 -0.3488772
000270 c9 da 86 be 8d 74 e6 3b bd 46 58 be 9b a4 b0 bc
       -0.26338795 0.007032937 -0.21120735 -0.021562865
000280 ef 1f 96 be 52 be 07 bf 74 be 28 3e 4f dd 24 be
       -0.29321238 -0.5302478 0.16478902 -0.16100048
000290 bd ab ad be 40 b9 0c 3d 97 67 5e 3e bf 74 7e 3e
       -0.33920088 0.034356356 0.21719204 0.24849223
0002a0 8b 94 90 3e 4e 7b 0f be a4 4d 5f 3e 27 0e 1a 3f
       0.2823833 -0.14011881 0.21806961 0.60177845
0002b0 cb 45 d0 3e 71 f0 9f be ef 8a 1d 3e de fc b4 3e
       0.40678248 -0.3123813 0.1538503 0.35349172
0002c0 90 42 e7 3e 17 ce 28 bf 30 49 26 be 96 04 81 3d
       0.4516797 -0.6593947 -0.16238856 0.06299703
0002d0 28 14 e5 be 14 f2 c1 bc 1e 28 eb 3e db 32 51 be
       -0.4474194 -0.023675002 0.45929044 -0.20429556
0002e0 41 d3 ad 3c d5 81 e8 3d e8 cc 32 be 9c 62 1a 3e
       0.021218898 0.113528885 -0.17460978 0.15076679
0002f0 38 c5 55 3e c8 88 c8 bd cd e1 5f be 19 57 21 bd
       0.20876014 -0.09791714 -0.2186348 -0.039389703
000300 f5 3e 68 3e 5e e5 ba 3e 21 14 29 bf e0 e2 08 c0
       0.22680266 0.36503118 -0.6604634 -2.1388474
000310 a6 8d 97 bd 75 f6 bf 3e 15 97 ed 3e f3 f6 90 3e
       -0.07400064 0.3749272 0.4640433 0.28313407
000320 8d d0 7b bf 8c 95 d7 bc a1 93 8a be 8d 61 83 3d
       -0.983651 -0.026316427 -0.27065757 0.06415091
000330 29 33 af 3e 90 5f 2a 3e 9e e4 b8 3e c4 16 f4 3e
       0.3421872 0.16638017 0.3611192 0.4767362
000340 90 d3 a1 3c 4d 21 ef 3d 49 d7 46 be c9 2b 6d 3e
       0.019754201 0.116762735 -0.19418062 0.23161234
000350 94 42 23 bf 3b b7 6f 3d f0 06 c3 3e 72 52 9a 3e
       -0.63773465 0.05852435 0.3809123 0.30141026
000360 77 bf 5d 3e 29 81 24 bd eb 61 96 3e 05 0e e5 3d
       0.2165507 -0.04016224 0.2937158 0.11184315
000370 6a a4 2c bd 98 ec 6f 3b 08 39 9a be 9d 67 da be
       -0.042148985 0.0036609527 -0.30121636 -0.42657176
000380 a2 b6 c7 be d6 93 81 be 63 34 c3 3e 52 73 5d 3e
       -0.39006525 -0.25308102 0.38125905 0.21626022
000390 3b 23 b9 bd 6a 3f 9d 3e d6 f4 9d bd 7c 49 47 be
       -0.09039923 0.30712444 -0.077127144 -0.19461626
0003a0 46 e6 5d bd 25 af bf be 2e 2e a6 3e 9e 2e ca be
       -0.054174684 -0.37438312 0.32457107 -0.3948869
0003b0 fc ed d4 be 64 7c 00 3e 37 bb 9a bc 4b 55 71 3e
       -0.41587818 0.12547451 -0.0188881 0.23567693
0003c0 e2 b4 ec bf 98 5f 9c 3e 64 15 82 3d 07 47 6e 3f
       -1.8492701 0.30541682 0.06351736 0.9307713
0003d0 c3 0f a8 3c df c1 b5 3e b8 0d 53 bf c8 fa 75 3e
       0.020515328 0.35499474 -0.8244281 0.24021447
0003e0 2b 7a 0b 3f a7 3e e7 bc 77 e0 da 3d f4 85 96 be
       0.5448329 -0.028228117 0.106873445 -0.29399073
0003f0 1f 1c 21 3e 82 ff 03 bf 52 3b 96 3e 28 fb 14 bf
       0.15733384 -0.5156175 0.29342133 -0.58195734
