wide/modelpars_wide_i_69.safetensors (safetensors, 86584 bytes, 32 tensors)

bilstm.bias_hh_l0 f4 [64]
00000000: 6c2e 89be 674e 173e f7e1 b23d 9d42 3a3e
00000010: ab36 bdbe 2ab1 2d3d 180d 35be 89d2 833d
00000020: 806b d2be 8b75 b0bd b38e 2f3d 42ae 19be
00000030: 3789 00be 446f d13b 9ce3 e63d e2e1 673c
00000040: c87d f73d 1e54 cabd 34ef 143e e378 f1bb
00000050: 61ab 03bc 7a05 6d3e a976 033e 41fc b03d
00000060: 1130 8f3e caf2 793e cd05 253e 80b8 893e
00000070: dfcc 20be e573 97bd 7466 81bd 4f04 0b3d
00000080: a714 ee3d 2b17 33bd 7aee 673e 3332 373e
00000090: 0a7e 703d de56 1ebd 0d25 803e 42f3 f13c
000000a0: 0515 3abe b0dd d43d 601f a1bd 78d4 df3d
000000b0: 8373 27be bef3 3a3e ece3 113c f6da 2fbe
000000c0: 75be 21be 8c34 fabd a392 5ebd 4d4a 273e
000000d0: ad90 cb3d e0eb 713e ddec 3bbe 720a 0dbd
000000e0: 2774 39be 57c7 173e f7b0 043d 5c06 28be
000000f0: a442 533d f8ce 7fbe c343 58be 665f 103e
-0.2679323 0.14776002 0.087345056 0.18189473 -0.3695577 0.042405285 -0.17680776 0.06436641
-0.4109764 -0.086161695 0.042860698 -0.1500788 -0.12552343 0.0063914377 0.11273882 0.014152976
0.12084538 -0.09879325 0.14544374 -0.007369147 -0.008036465 0.2314662 0.12838234 0.086418636
0.2796636 0.24409023 0.16115494 0.26898575 -0.15703152 -0.07395152 -0.063183695 0.033939656
0.11625033 -0.043723267 0.22649565 0.17890243 0.05871395 -0.03865706 0.25028268 0.02953494
-0.18172081 0.10393846 -0.078673124 0.10929197 -0.16352658 0.18257043 0.0089044385 -0.1717337
-0.1579531 -0.12217054 -0.054339062 0.16336937 0.09939704 0.23625135 -0.18352075 -0.03443379
-0.18110715 0.14822136 0.03239533 -0.16408676 0.051577225 -0.24981296 -0.21119599 0.14098892

bilstm.bias_hh_l0_reverse f4 [64]
00000000: 06f0 7a3d e0ad 483e c437 403e c392 0ebe
00000010: da8f 71be 327d f63d 8642 9abe 05b1 79be
00000020: 9421 7cbd 839e bb3c 0e94 6cbe d98b 21bd
00000030: 53d1 ddbd 6152 ac3c a3cf 3c3e 4f1c 1cbe
00000040: 5954 72be 4e85 5fbd e0ed eb3c 4933 7d3d
00000050: 8119 6fbe 55b7 093d f94f 963e 4aa0 aa3d
00000060: 64bd 343e 9de0 203e 511f 933d e338 08bd
00000070: 5aab 9c3e 8cfb 323d d387 8ebd 92d8 1fbd
00000080: 6022 65be b975 69bc 7d00 963e 5d63 613d
00000090: feb5 1ebd f5d8 093e 311b 5dbd b814 16be
000000a0: ca4b 843e 4751 1a3e cef4 42be f40c 653e
000000b0: d3e5 6ebc 8b9b 28be f42d 15be 6bad fcbc
000000c0: 79a1 c53d 6a3c f5bd 101b ed3c acc4 f8bd
000000d0: 39f4 aa3d 7b5d 55be c0fc 033e 18dd 50be
000000e0: 563e 51be ba80 8abe 97d0 443e 19ed 25be
000000f0: d568 073e 2d75 5a3e 5a15 2d3d 6654 c5bd
0.06126406 0.19597578 0.18771273 -0.13923173 -0.23590031 0.12035598 -0.30128878 -0.24383934
-0.06155546 0.022902733 -0.23103353 -0.03944001 -0.10830941 0.021035375 0.18438582 -0.15245174
-0.23664989 -0.05457049 0.028799951 0.061816487 -0.23349573 0.033622105 0.2935789 0.08331354
0.17650372 0.15710683 0.071837075 -0.033257376 0.3059948 0.043696925 -0.069595 -0.039024897
-0.22376394 -0.014249259 0.29297248 0.0550264 -0.03874778 0.13461669 -0.05398101 -0.14656341
0.25839072 0.15070067 -0.19038698 0.22368222 -0.014581162 -0.16465585 -0.14568311 -0.03084441
0.09649939 -0.11974414 0.028943568 -0.12146887 0.08347363 -0.20836441 0.12889385 -0.2039684
-0.20433936 -0.27051336 0.19220196 -0.16203727 0.13223584 0.21333762 0.04225669 -0.09635238

bilstm.bias_ih_l0 f4 [64]
00000000: c29b 8abe 693b 83bd 8b43 1a3e 8ddc d93c
00000010: 1c1f d9bd 8e5e 3f3d 7ce9 bbbe a85d f4bc
00000020: 2d95 f63c a8f7 82be c1a3 02be 6b4e c2bd
00000030: 0030 d937 c686 abbd 45c7 4cbe 63a7 37bd
00000040: 8ded b73c ead6 ce3d d4e9 463e 8416 8a3e
00000050: 1621 a23e b86f 1a3e 0e01 26bb 477e 733e
00000060: afcf 64bd 9f51 de3d 6b96 4fbe 23e6 7b3e
00000070: 6f26 3f3e 8e5d 0fbe 5d20 7f3e 35bf 8e3e
00000080: 850c 2d3e acb1 a63c c4c3 473e 518d 63be
00000090: beb0 fa3d 6390 093d 4a74 2e3e 8224 cd3d
000000a0: c113 763d e3bb 5ebe 31d8 66be 42cb 91bd
000000b0: 3258 7e3e 4cbf 2dbe fcea 763d 9e6a 513e
000000c0: 8d24 633e d7f7 8dbe 010b 64be 25a5 1a3e
000000d0: 3ab5 8bbe 3701 8d3e ef6b 59be 2281 e93d
000000e0: 39ac 903e d792 5a3e 336a b1bd c3cf 443d
000000f0: 2321 f53d b8f7 a3bd 74ba 89be e6ae 9f3d
-0.2707196 -0.06407816 0.15064828 0.026594425 -0.10601637 0.046721034 -0.36701572 -0.029829815
0.03010043 -0.25579572 -0.1275778 -0.09487613 2.5890768e-05 -0.08375315 -0.1999789 -0.044837367
0.02245214 0.10099585 0.19425136 0.26970303 0.31665868 0.1508168 -0.0025330218 0.2377864
-0.055862125 0.10855412 -0.20272224 0.24599509 0.18667005 -0.14000532 0.2491469 0.27880254
0.16899307 0.020348392 0.19508272 -0.22221877 0.12240742 0.033584964 0.17036548 0.10016729
0.060077433 -0.2175136 -0.22543408 -0.071188465 0.24838331 -0.16967505 0.060282692 0.20450827
0.22181912 -0.2772815 -0.22269823 0.1510206 -0.27286702 0.2753999 -0.2123258 0.11401583
0.28256395 0.21345077 -0.08662834 0.0480497 0.11969211 -0.08006233 -0.26900065 0.07797031

bilstm.bias_ih_l0_reverse f4 [64]
00000000: 33b9 cabd 42f7 213e 48e4 2a3e 2b67 c0be
00000010: 2e4c 8fbe 48fd 6a3e 029d ea3b 9833 f7bd
00000020: 40cb 94bd 1481 7ebd ac59 17be 32fc ffbc
00000030: e610 61be 23c4 2f3e 6fb4 753e 6b68 fbbe
00000040: cf28 23bd 2335 613c d47a 1dbe ca6b 84be
00000050: 3738 2fbe 79f7 9a3e dd4d cabd 6a90 bcbc
00000060: e3f8 823e a092 8d3d 6e89 c5bd 6839 2b3e
00000070: 0e02 2e3e dfc1 d23e 3aa1 2bbe e912 70bd
00000080: 0c1d 69be d020 1c3e 2082 933e 74d8 21bd
00000090: 28c3 a4bc 7945 37bd 4de1 823e 9e3d d9bd
000000a0: b3e5 12be e781 293c 24ea 80be c9a6 d23d
000000b0: 0cf3 1d3d bdef a53d 8430 2dbc 1756 ff3b
000000c0: 0737 ab3e bef6 be3d 69e5 32bd 5a4b 70be
000000d0: 1dba 413e bb8d 793d bec7 1f3b 22c1 3d3e
000000e0: 3641 0c3e 9eb7 0c3e 252c 42be 2e26 f1be
000000f0: 9799 05be 380c 3b3d 475d 88be 1cff 25be
-0.09898605 0.15816978 0.16688645 -0.3757871 -0.27987808 0.22948182 0.00715983 -0.120703876
-0.07265329 -0.062134817 -0.14780301 -0.031248186 -0.21979102 0.17164664 0.23994611 -0.49103102
-0.03983384 0.013745579 -0.15378886 -0.25863487 -0.17111288 0.30266932 -0.098781325 -0.02301808
0.2558051 0.06912732 -0.09645353 0.16721117 0.16992971 0.41163537 -0.16760722 -0.058611784
-0.22764987 0.15246892 0.28810215 -0.039513066 -0.020112589 -0.04474399 0.25562516 -0.10607456
-0.14345436 0.010345913 -0.25178635 0.10285718 0.038561866 0.08102367 -0.010570649 0.007792245
0.3344042 0.09324406 -0.043675814 -0.23466244 0.18918653 0.06092618 0.002438053 0.18530706
0.13696751 0.1374192 -0.18962152 -0.4709944 -0.13046871 0.04566595 -0.26633665 -0.16210598

bilstm.weight_hh_l0 f4 [64, 16]
00000000: 3139 fd3d 99e5 a4bd 40bc c1bd f817 64bd
00000010: 9c02 9f3d e796 a4be 00b8 9f3f 8197 d13d
00000020: df4c 933e 3a9a 07be d25d fbbe 4714 123e
00000030: 595c 333e e7f8 6dbe f2bf 38be 6e7f f73e
00000040: 593d 5dbe 7884 8a3c 73ea 4fbe 31d1 f5bd
00000050: e43b 31be 64c0 443c 0df7 093f dd7f 883e
00000060: ca40 883e 1009 7dbe 4e59 b63e ab1e 7abc
00000070: 00c1 bbbc 5d4a a03d 6655 e03e c478 cf3e
00000080: 9415 6d3e 85e3 c9bd b442 f0bd d34c 023d
00000090: 3789 573e d149 043e 0063 4e3e 8fd1 053e
000000a0: dee9 57be 41e8 b0bd f968 b83d 14df 12be
000000b0: c525 23bd 4ac4 8cbe c750 8d3d cf0c 8a3e
000000c0: d8f5 533d 8f21 58bd 55fa af3e 3ab2 b9bd
000000d0: 3c6d b1be a651 cd3d 02af 283e 5516 74bd
000000e0: f17e 75be 587e 1ebe fc6f 8b3c a3dc 8bbe
000000f0: 1075 043e e050 66bc f7c4 8cbd ecf4 d5bd
00000100: 1dbd bebc 5c80 863e 8ca7 69be 0eeb 893e
00000110: 647d 55be 968b 9abd 6136 f53e 1630 01be
00000120: 671b 3e3e 57de 83be c7ba 49be 382c 903e
00000130: 14d3 a83e dd76 1a3e 668f 3bbf cc6c e73e
00000140: aeb0 b23e 5333 863e 1d1f 2abe 0895 333e
00000150: 400b 553e 29ad 9dbc 3537 303e 79b0 49be
00000160: eb27 cabd ad5e 4dbe dda8 63be 2924 f43d
00000170: ec61 413e 88ed 983e 3615 fcbe 6df8 9c3e
00000180: 9c1d a43e 8fac 083f 9029 a2be bd12 9a3e
00000190: e92e 043e daa4 d53e 664a 65be 9538 953e
000001a0: 856f 913e a8fc 4dbe 7561 4cbe 5ae6 9f3e
000001b0: 3f24 af3f b646 e63e c91a cbbe 9b9f 16bf
000001c0: 2e64 93bc 27ab 123d fd25 fb3b 9e61 39be
000001d0: 8876 59be ec77 323e dcd1 0a3d 2ce2 f73d
000001e0: 7566 753c fdb9 5e3e b69f 483d d5fb 733d
000001f0: 858d 46bd d427 0a3e 2c47 c3bd 3e73 7b3e
00000200: d6ba 823d 7a7b 183f 1e6f 79be 0bfc 13bd
00000210: c94e 983e cfa6 40bd 197a 1abe 7867 8c3e
00000220: 4535 58bd fedb 413e d6b9 9d3d 471c 023f
00000230: aa56 463e 748d 8f3d 67af 023e 9e58 23be
00000240: 467d c1bc 7782 1dbe 7691 8bbe 37fc fa3d
00000250: 1f06 753d 407d 94be 994a 843e bdd4 0c3e
00000260: faa0 e3bd 787d 893e 3e3b a63e 7fcf b5be
00000270: ccdd c0be 5f53 9ebe 58c3 c23e 4e2e 8b3d
00000280: 5ef6 ddbd 27a5 243e 0b4b 213e fb01 3d3e
00000290: 51d6 c1bc 2fad 1dbe 96d9 b33e ab67 3dbd
000002a0: c646 cbbc dbb9 573d e421 babe bc2a 62be
000002b0: 8af4 c03e 1bbd 7d3d 1c38 b2be 9118 ac3e
000002c0: 9174 4e3e 1c79 b23d 1009 093e 3ef8 16be
000002d0: 2edb 803e f7d3 6abe 25fa 083f 2de0 9b3e
000002e0: a431 30bd c315 80be d86a ed3e 737f 0fbd
000002f0: ac8d fdbe b6ec 79be 7611 a23e c75c ffbd
00000300: ed5e 85be 2adc febe a345 38be ef89 2c3d
00000310: 863e 84be 0ca6 cdbd 1f59 5b3f e5c1 043e
00000320: f740 fc3c e98e 513e f8fe 11be 00bf 56bc
00000330: ff24 73bf 0cb9 72bd db5e 163f a9e8 483f
00000340: 0186 e2bb b2db 8c3e 6131 7dbe 1ddb d0bd
00000350: 9629 9d3e 8679 08be bba7 183f 6580 8f3e
00000360: f5bb 153c 006b a0be 5f92 5d3e 7233 043e
00000370: 2ada ccbe e559 76be a336 c13e 6f4d 573f
00000380: 37bb 8abd 75c2 dc3e 668c 81be 1d9d 8d3e
00000390: d87d bbbd 2ff7 353c b0fe 183f 6f97 3cbe
000003a0: acf5 edb9 a180 b6be c0e9 533e 3a0d 5c3d
000003b0: 0b36 12bf feb4 d1bc 4ebe 7a3d fdfd c53e
000003c0: b43e 9d3e c9e0 0a3f 4dea 7d3d c04a eebd
000003d0: 93a7 ce3e 0837 a33e 21f3 0a3e 62b1 13be
000003e0: 5f51 ae3e cbb4 abbe 1374 64bd 9ec6 353f
000003f0: 21c6 4f3f 7cec 7d3f 2a02 76bd 19dc 323e
0.12364424 -0.08051605 -0.09459734 -0.05568692 0.077641696 -0.3214638 1.2478027 0.10233975
0.28769585 -0.13242427 -0.49095017 0.14265548 0.17515697 -0.2323948 -0.18041971 0.4833941
-0.21605434 0.01690887 -0.20304279 -0.12002791 -0.17308003 0.01200876 0.53892595 0.26660052
0.2661193 -0.24710488 0.3561501 -0.015266101 -0.022919178 0.07826684 0.43815154 0.40521824
0.23152763 -0.09857849 -0.117314726 0.031811547 0.21048437 0.12918784 0.20154953 0.13068222
-0.21085307 -0.08638049 0.09004397 -0.1434291 -0.03983094 -0.27493507 0.06900173 0.26962897
0.051748127 -0.05276638 0.34370676 -0.09067197 -0.34653652 0.10025339 0.1647301 -0.05959161
-0.23974206 -0.15477884 0.017021172 -0.2731677 0.12935281 -0.014057368 -0.068735056 -0.10447106
-0.023283536 0.26269805 -0.2281782 0.26937145 -0.20848614 -0.07546155 0.4789305 -0.12616
0.1856514 -0.2575557 -0.19700156 0.28158736 0.3297354 0.15084405 -0.73265684 0.45200193
0.3490042 0.26211032 -0.16613431 0.1753732 0.20805073 -0.019247608 0.1720856 -0.19696225
-0.09870895 -0.20055647 -0.22232385 0.119209595 0.1888501 0.29868722 -0.49234933 0.30658284
0.3205384 0.53388304 -0.31672335 0.3009242 0.1290852 0.41727334 -0.22391662 0.2914473
0.28405395 -0.20115912 -0.19959052 0.31230432 1.3682936 0.44975823 -0.39668873 -0.5883729
-0.017992105 0.035807755 0.0076644407 -0.18103644 -0.21236622 0.17428559 0.033891544 0.12103686
0.014978041 0.21750636 0.048980437 0.059566338 -0.048474807 0.13491756 -0.09535059 0.2455568
0.063832924 0.5956341 -0.24358794 -0.03612904 0.29747608 -0.04703408 -0.15085639 0.2742269
-0.052785177 0.18931577 0.07701461 0.508244 0.19368997 0.07009402 0.12762223 -0.15951774
-0.023619305 -0.153818 -0.27259415 0.122551374 0.05982029 -0.29001808 0.25838163 0.13753028
-0.11114688 0.26853538 0.32467073 -0.3550987 -0.37669218 -0.30922982 0.3803966 0.06795941
-0.108380064 0.16078626 0.15751283 0.18457787 -0.023661764 -0.15398096 0.35126942 -0.046241444
-0.02481402 0.05266748 -0.36353981 -0.22086614 0.37686568 0.061947923 -0.34808433 0.33612493
0.20161654 0.08714506 0.13382363 -0.14743134 0.2516722 -0.2293242 0.5350669 0.3044447
-0.04301609 -0.25016603 0.46370578 -0.035033654 -0.4952215 -0.24406704 0.31653947 -0.12468868
-0.26048985 -0.49777347 -0.17995314 0.04212373 -0.25828952 -0.100414366 0.85682863 0.1296459
0.030792696 0.20464672 -0.14257419 -0.013107061 -0.94978327 -0.059258506 0.5873849 0.7848001
-0.006912947 0.27511364 -0.24725868 -0.101980425 0.3069579 -0.13327608 0.59630936 0.28027645
0.009139051 -0.31331635 0.21637867 0.1291025 -0.40010196 -0.2405773 0.37736997 0.8410253
-0.0677399 0.4311711 -0.25302428 0.2765893 -0.09154862 0.011106296 0.5976362 -0.18417142
-0.00045387202 -0.3564501 0.20694637 0.05372355 -0.57113713 -0.025599 0.061216645 0.3867034
0.307119 0.54249245 0.061991025 -0.11635351 0.40362224 0.31877923 0.13569309 -0.14423135
0.34046456 -0.33536372 -0.05577476 0.7100619 0.81161696 0.9918897 -0.060060658 0.17466773

bilstm.weight_hh_l0_reverse f4 [64, 16]
00000000: 7edf 7d3e 0b69 033f 4794 263e 93ef 023f
00000010: cc19 f13e c818 963c 0d07 5e3e 14cd 2b3f
00000020: 7169 54be fd75 b63e 447d 5bbe f3e5 d43d
00000030: 5974 24bf fcc5 d6bd c458 96be 03f3 ddbd
00000040: bcb2 89be 65ba 983d 5334 cebe 04a6 85bd
00000050: d2c1 34bf c51c 203c 2094 5abe ab40 75bf
00000060: 1110 483d 1ec8 4bbc 5442 b3bd 4545 83be
00000070: c7a8 853e ac12 6cbd 5ea3 21be 56a7 82bd
00000080: 6433 b73d 7f60 a8bd de83 063e 64e6 76be
00000090: 7a53 183e 8e67 053e 081e 50bd f0e9 f6bd
000000a0: 668b 7d3e a7c0 5bbe 62ac 14be f7b2 c9bd
000000b0: ac86 7c3d 663c c8b9 054d a7bd fa4f 38bd
000000c0: f8ef b23e 359a 1b3f 4191 5dbe 4b8f df3e
000000d0: 6c3d 3ebd 9c96 0abe a0eb cdbe 4015 003f
000000e0: e6ab 15be 78d8 e63e 5c7a f33e 67d6 8cbe
000000f0: 171c 91be 2605 d73e cf6c 663c 4bab 733e
00000100: f26d cfbe 8dde 4abc 86df 8ebd 09ac e63d
00000110: 97c3 853e 2796 b0bd dc49 793c c4b2 1abf
00000120: 3779 b93d c5cb 3fbd 74a0 d6bd b900 54be
00000130: dde4 a83e ba9f 50be 05ab 5a3e fdf9 ca3c
00000140: 555a a63d 36e4 bcbd f745 a4be facc 66be
00000150: 5af9 82be 9fe2 4cbf 21d8 e8bd b05f 97bf
00000160: f995 77be 9c01 3abe 0582 9e3e 6d33 22be
00000170: 0664 65be 528b 4abe a155 91be 021b efbd
00000180: 1a64 73be d83c 38be c253 a8be 537c 22be
00000190: e844 9f3e 16a0 093f d348 4d3e 82cb 003c
000001a0: 37e2 a5be 3cbb 81bd 28bf 2e3d 3831 c03d
000001b0: 4617 cc3c 9ee7 a23e 160d e3be 98a2 443e
000001c0: 51b3 83be c61e fbbe 0e67 2b3f 49d7 143f
000001d0: 2554 5f3e 4a57 453d 3ada cebe 75a9 643b
000001e0: 442f bcbd bcbd d03e fe95 85bd aa69 b33e
000001f0: afd8 4d3e 83e4 2bbe 0216 163f 4de3 9bbd
00000200: 6757 473d fda9 7c3e 88c9 3cbe f66c 0cbe
00000210: 6f27 0bbe 35c6 10be d2f5 5b3e 6fb4 2b3c
00000220: 7922 f3bd c56d 95bc 9d2d e93d 8d00 d0bd
00000230: f4f1 32bc 1120 103e 5eb8 153c 7552 fbbc
00000240: 6a42 223e 685b 393d c40c 813e 2325 2bbe
00000250: 4f11 b4be d6a2 953d 70eb 8dbd c2de b8be
00000260: d0f4 ee3d b839 a6bd a514 c4be 4e72 023e
00000270: 7e55 673e 83f3 a3be c90d a2bc 639c bfbe
00000280: 8003 a83d 1d5b 163e eed5 de3e b8cd 343e
00000290: da10 023f 66d9 b0bd 2e23 1c3e 2370 b93d
000002a0: bbd2 d93d 24a1 083d f523 cd3d 5749 823c
000002b0: a01c ca3d 9e72 be3c 246e 2abd e8f1 8dbe
000002c0: a2e4 eb3d 32c7 943e cd67 c8bd b10d 8d3c
000002d0: 7786 973d b2e2 193e b8e1 943e f740 65be
000002e0: fceb 873e baef 88be c4b0 42bd 957f 6ebe
000002f0: fd12 3b3e 4ae6 c3bd e956 503d 0bd7 9abc
00000300: 0cb4 06be 9e17 013e f51b bebe 9525 44be
00000310: 7337 4a3e c647 f1bd 5069 8dbc 3111 f03d
00000320: f607 7cbe 4d3b 253e 41f5 933e 9776 21be
00000330: 05a5 bfbe 4f99 273e dc97 86be 0a3b e8bc
00000340: 294b a03d 4f66 0ebf 8f7d fb3e 57f0 123c
00000350: 20d6 f93d 628d 29bb 278e 07be b243 783a
00000360: 02fd e33d 366c 193e 3ec6 77be dbf1 2dbd
00000370: c998 46bc 77d7 033d 5bb6 4cbe 5fac bf3e
00000380: 5c44 5bbe 5695 1f3e dfea 56be 0b0b b4bd
00000390: af0a 38bd 6a00 ecbd 82da d13d 0816 bcbd
000003a0: 478a 79be c024 62be 0671 4b3e e400 903d
000003b0: 456c 743e 4cfa 013c 195b 843e 8a19 18bd
000003c0: 711f 113e d1cc a43e 028c c0be 2920 413e
000003d0: 387d 853d 400c 113e f50d 05bf b135 ef3d
000003e0: 52f4 81be 30d8 ab3e 1fab 023f bdbc f5be
000003f0: e1b3 08bf a633 d23e 1802 cdbe 918c de3e
0.24792287 0.5133216 0.16267501 0.5114681 0.47089994 0.018322363 0.21682377 0.671098
-0.20743348 0.35636893 -0.21434504 0.10395422 -0.6424003 -0.10486981 -0.29364598 -0.108373664
-0.26894176 0.07457427 -0.40274295 -0.065258056 -0.70608246 0.009772484 -0.21345568 -0.958018
0.048843447 -0.012437848 -0.087528855 -0.25638786 0.2610533 -0.057634994 -0.15784976 -0.06379573
0.08945349 -0.0822153 0.13136241 -0.24111325 0.14875594 0.13027784 -0.05080989 -0.12056339
0.24760208 -0.2146021 -0.14518884 -0.09848588 0.06165187 -0.00038191973 -0.08168987 -0.044998147
0.34948707 0.60782176 -0.21637441 0.4366401 -0.046445295 -0.13534015 -0.4021883 0.50032425
-0.14616355 0.45087028 0.4755429 -0.27507326 -0.28341743 0.41996115 0.014064028 0.23795812
-0.4051357 -0.012382162 -0.069762275 0.11263282 0.26125786 -0.08622389 0.015215363 -0.60429025
0.09056323 -0.04682519 -0.10479823 -0.207034 0.3298711 -0.20373431 0.21354301 0.024777407
0.08122698 -0.09223215 -0.3208463 -0.2253913 -0.25580865 -0.80033296 -0.11369348 -1.1826077
-0.24178304 -0.18164676 0.30958572 -0.1583993 -0.22401437 -0.19779709 -0.28385642 -0.11675073
-0.23768654 -0.1799196 -0.32876402 -0.15867738 0.3110726 0.53759897 0.20047311 0.00786102
-0.3239915 -0.0633454 0.04266277 0.09384388 0.024913441 0.31817335 -0.4434592 0.1920265
-0.25722745 -0.49046916 0.66954124 0.58141 0.21809442 0.04817895 -0.4040087 0.0034891043
-0.09188703 0.40769756 -0.06522749 0.35041553 0.2010219 -0.16786389 0.5862733 -0.076117136
0.048667338 0.2467422 -0.18436253 -0.1371344 -0.13589261 -0.1413811 0.21480492 0.01048003
-0.118718095 -0.018240819 0.11385653 -0.10156355 -0.010921944 0.14074732 0.009138195 -0.030678967
0.15845647 0.045253187 0.25205052 -0.16713385 -0.35169455 0.07306449 -0.06929672 -0.3610745
0.11667788 -0.08116478 -0.38297 0.12738916 0.22591206 -0.32021722 -0.019781964 -0.37424
0.082037926 0.14683194 0.4352259 0.176566 0.50806963 -0.086352155 0.15247795 0.090545915
0.10635897 0.0333568 0.10016624 0.015904112 0.09868741 0.023248013 -0.041608945 -0.27723622
0.115182176 0.29058224 -0.097854234 0.017218443 0.07398694 0.15027884 0.2907846 -0.22388063
0.2654723 -0.26745397 -0.047531858 -0.23290856 0.18268962 -0.095654085 0.050864134 -0.018901369
-0.1315462 0.12606665 -0.37130705 -0.19154961 0.19747715 -0.11781268 -0.017262131 0.11722029
-0.24612412 0.16135903 0.2889805 -0.15767895 -0.37430587 0.16367076 -0.26287735 -0.028348465
0.07826836 -0.5562486 0.4911923 0.008968434 0.12199044 -0.0025871624 -0.1323782 0.00094705366
0.11132242 0.14982685 -0.24196717 -0.04246698 -0.012121388 0.032187905 -0.19991438 0.37436196
-0.21412796 0.15584311 -0.20988034 -0.08791169 -0.044932064 -0.115235165 0.10246755 -0.091838896
-0.24369155 -0.22084332 0.19867334 0.0703142 0.23869427 0.007933211 0.25850752 -0.03713373
0.1417215 0.32187513 -0.37606817 0.18859924 0.06518024 0.14164829 -0.5197442 0.11680163
-0.25381714 0.33563375 0.5104236 -0.47995558 -0.53399473 0.4105503 -0.4004066 0.4346662

bilstm.weight_ih_l0 f4 [64, 32]
00000000: 6167 04bc 0f99 4b3e 49b0 fd3c decf 543e
00000010: 0eb1 80bc 97b2 823d d74b f1bc 00f2 1b3e
00000020: 06fa c13d 5a2a a2bb 8ce7 0e3e d7cd 753d
00000030: 5aa5 23be 13bd 9a3e 6155 21bf ade0 84be
00000040: 9b77 283d 7fb8 183e faa8 16be 628a 123f
00000050: a613 7b3e 4275 503e f7c9 123e c1cd 00be
00000060: a882 19be 6968 9cbe 422b 873e eb05 62bc
00000070: dead a73d e627 31be da27 d5be 2898 cabd
00000080: 65ef c1bc 5aa1 6e3d be52 e7bb 0aeb dfbe
00000090: 6c22 55be e776 99bd f7f4 38be 455f a0be
000000a0: 5672 663e 0137 3bbe 0998 563e 278e 813e
000000b0: faa2 87bd c2fc 9bbd 1cb1 4ebe 33b7 f7be
000000c0: 10bd 1cbe 8443 6ebe 1cd1 9e3d aaf7 c5bd
000000d0: cdca 64bd 58bf 793d 4acd eabd 682c 98be
000000e0: 715d c63e 8d6a cf3e a111 9d3e 93d9 2fbe
000000f0: 079c bfbe 0bda 363e 9f75 073e 45e8 08be
00000100: 2b16 963e 035d 7d3e 3faf 8ebe 0d22 a83c
00000110: 44d3 c23d 92e0 373f 76ab 523d a5c1 883e
00000120: fdcc 203e 3269 603d b79f 3d3e 14fd 7bbe
00000130: 0321 c13d 776c 9a3d ab91 b73d dbf4 153e
00000140: cc32 173d bb27 c13e 5a44 15be c1a9 673e
00000150: 06d5 a6ba 8e2b 7b3c 25d2 953e 3075 083f
00000160: 9a54 33be 9732 2b3e 4d0a 0d3e fdb3 b83d
00000170: c666 8d3d 0ef1 f33d 9892 893e 0631 4a3e
00000180: a376 373e 56ac 33bd f2f3 133e e457 92be
00000190: 5fac 58be 66fe e5bc 9b9c 973d d998 d3bd
000001a0: fad7 02be 565c 043e 83d3 abbe 5f7f d2bd
000001b0: f0ba bfbc d0a7 17be 8571 4c3e 3b22 413d
000001c0: f051 a53c 1ca3 62be 47d4 82be c08e 7cbe
000001d0: 304c abbd 95ea 8d3d a6a6 f13d 4c3c 503d
000001e0: fe1e 27be d177 a23e 9de6 c93e 450d e2bc
000001f0: 2b6c 0a3d 9323 9f3e 1474 16be b0fa bdbc
00000200: 19da 033e a5d5 6ebe 0f8f 71be bb8e b33e
00000210: 155f 0fbe bc49 51be 24a7 98be 951a f33d
00000220: 2f69 8f3d 6968 433d 11a0 28bd 031f 08bf
00000230: c23f 15bb 7ab3 87be 32a1 a2be 2f33 69bf
00000240: 3c29 683e 0ac0 c43e 8dbe a9be e972 363e
00000250: 1320 9abd 8b2f c8be 13d1 f83c d92e 80be
00000260: a212 48be c9d3 71be 229e f43e b868 3fbe
00000270: f4e7 da3d 977b 84be 90f2 0ebf 2d4c 56be
00000280: e2ce 6e3e da21 ee3c 0384 f83d 4b27 4e3f
00000290: f8d0 02be 2301 3abe 02a0 02be ec11 0a3e
000002a0: 1b72 c8bc 8811 f43d e46c 893e 2b78 88bc
000002b0: 65fd ec3e 255e 543e 37cf 52bd addb 9f3e
000002c0: 3748 7a3d c898 ecbd f8ee 35be 0fd3 f83e
000002d0: 3214 edbd 951d fa3e 3670 1c3d d863 1d3e
000002e0: ea00 32bc c36c d23b 27da 023f 6c01 17be
000002f0: f4fb 8b3e 4ba8 a63e a518 73be 4d0f 7f3e
00000300: 4602 843e f70a df3d 5cd1 7ebe 4bf0 8abe
00000310: dc41 c1be badb 563d 3eaa 9ebd 3af3 f7bd
00000320: 9681 1a3e 5f74 5fbe 795b 58be 4125 6bbe
00000330: 96ea 24bf bce3 373e 6479 933d a548 7e3e
00000340: f399 313e 8b50 9c3d 6d50 603d f789 333e
00000350: 57cf bcbc 8021 a9be 1aaf d13d a4e6 0b3d
00000360: 4958 22be d4af d43e 5eab d83e dee7 afbd
00000370: 5d9d 12bb 267f 43bd 13f5 64be f263 e73e
00000380: 0b9a 9c3e 7452 0f3e a9eb bcbd adf1 cdbc
00000390: c769 123e 9d92 6d3d 0145 3a3e 65a6 f9bc
000003a0: 5fc9 443d c0fe f53d a054 1dbc 26ad 8fbd
000003b0: 2ddf 793e f545 623e 9468 e43d a0be 0d3e
000003c0: abbd 3ebd cd6b f33d 0223 36be 94ff 2b3e
000003d0: f53f a53d 0601 023e 144a 0cbd 8691 9b3a
000003e0: d2ca 2fbe 5fcc 89bd f271 143e b6b2 363e
000003f0: 5726 593e 660c 5d3e b644 433e 8674 a83d
-0.008081288 0.19882606 0.030967848 0.2078242 -0.015709426 0.063817196 -0.029455109 0.15229034
0.09471516 -0.0049488964 0.13955516 0.060010757 -0.15981045 0.30222377 -0.630209 -0.25952664
0.04112969 0.1491413 -0.14712897 0.57242405 0.24519214 0.2035723 0.14334856 -0.12578489
-0.14991248 -0.3054841 0.2640019 -0.013795356 0.081874594 -0.17300376 -0.41631967 -0.09892303
-0.023673723 0.058259346 -0.007059424 -0.43734008 -0.20813912 -0.07493382 -0.18062197 -0.31322685
0.22504553 -0.18282701 0.20956434 0.25303766 -0.06622882 -0.07616569 -0.2018475 -0.48381957
-0.15306497 -0.23267943 0.07754728 -0.09666379 -0.05585747 0.060973495 -0.11464937 -0.2972138
0.38743165 0.4051098 0.30677512 -0.17172842 -0.37423727 0.17856614 0.13228463 -0.13369854
0.29313788 0.24742512 -0.27868077 0.02052405 0.09512952 0.7182704 0.05143305 0.2671024
0.15703197 0.054787822 0.18517958 -0.2460826 0.094301246 0.07540219 0.08963331 0.14644186
0.036913678 0.37725624 -0.14576855 0.2262335 -0.0012728281 0.015330208 0.2926189 0.53303814
-0.17512742 0.16718517 0.1377346 0.09018705 0.06904368 0.11911212 0.26869655 0.19745263
0.1791635 -0.043865524 0.14448527 -0.2858268 -0.21159504 -0.028075408 0.07402917 -0.10331888
-0.12777701 0.12925848 -0.33559808 -0.102782 -0.023404568 -0.14810109 0.1996518 0.047151785
0.020180672 -0.22132534 -0.2555258 -0.2466383 -0.08364141 0.069295086 0.11799364 0.050838754
-0.16320416 0.31732038 0.39433756 -0.027594218 0.033794563 0.31081828 -0.14692718 -0.023190826
0.12876166 -0.23323686 -0.23589729 0.35069832 -0.14001115 -0.20438284 -0.29815018 0.118703045
0.07002484 0.047706995 -0.041168276 -0.5317232 -0.0022773598 -0.26504117 -0.31763607 -0.91093725
0.2267198 0.38427764 -0.3315319 0.17817272 -0.07525649 -0.39098772 0.030373132 -0.25035742
-0.19538358 -0.23615946 0.47776896 -0.18692291 0.10688773 -0.25875542 -0.5583887 -0.20927496
0.23321107 0.029068876 0.12134554 0.80528706 -0.12775028 -0.18164496 -0.1275635 0.13483399
-0.024468472 0.11917406 0.2684089 -0.016658863 0.46287075 0.20739038 -0.051467147 0.31222287
0.061104026 -0.11552578 -0.1776694 0.48598525 -0.115761176 0.48850694 0.03819295 0.15370119
-0.010864476 0.006421657 0.51114124 -0.14746636 0.27340662 0.32550272 -0.2373987 0.2490818
0.25782984 0.10890763 -0.24884552 -0.27136454 -0.3774556 0.05245564 -0.07747315 -0.12106939
0.15088496 -0.21821736 -0.21128644 -0.2296343 -0.6442045 0.17957968 0.07200888 0.24832399
0.17343883 0.0763255 0.0547642 0.17533098 -0.023048086 -0.3303337 0.10238476 0.034155503
-0.1585399 0.41540396 0.42318243 -0.08589147 -0.0022371628 -0.04772868 -0.22359113 0.4519344
0.30586275 0.13996297 -0.09224636 -0.025139654 0.14298163 0.05800115 0.18190385 -0.03047485
0.048043605 0.1201148 -0.009602696 -0.07015447 0.24401541 0.22096999 0.11152759 0.13842249
-0.0465676 0.11885796 -0.17786792 0.16796714 0.080688395 0.12695703 -0.034250334 0.0011868931
-0.17167214 -0.06728434 0.14496592 0.1784161 0.21206032 0.21586761 0.1906918 0.0822535

bilstm.weight_ih_l0_reverse f4 [64, 32]
00000000: 4ecd a13d a7e5 50bd d624 0cba b8a5 8fbd
00000010: b8d6 123d ccc0 c93e 68d4 5f3e c5f4 0a3e
00000020: e202 f03e e547 99bd fdff a73c ac65 6ebe
00000030: 4745 033f 429e c2be 3cb6 8b3e 2748 753e
00000040: 2d88 bbbc d9cc db3d 585d be3d 57c7 27bd
00000050: f1ac 193e 0c78 113e 8742 013e cc58 cabd
00000060: f1af 7c3d 91d8 d23d 2611 b13f ee95 c0bd
00000070: b3fb 9b3d b03d 26be 155f 02bf c210 0a3f
00000080: 131a cebe 3c84 263e 229a 84be b949 5c3e
00000090: 8489 20be 4a61 0fbf 3f46 873d 98c4 9cbe
000000a0: 3967 6ebb 7de3 9ebe aab6 8abc 449d a8be
000000b0: 0dad 90be 8b9b 473e d8a2 c4bc dad9 1e3e
000000c0: fdd3 86bd bc89 463e 0143 5d3d b1b0 513e
000000d0: 27fb 073e 896c 6abe d798 8b3c c276 aabe
000000e0: 295e 953d 8617 d3be c568 c9be 9b3f f9be
000000f0: 315e 21be c6bc a73b 6a7c 1bbe f02a c4bd
00000100: 7100 353e a872 073d d430 803e ebad 023e
00000110: 3d69 42be e3a6 a7bd b3c9 ab3d 03f3 85bd
00000120: 1d17 f2bc 11d9 73be 9290 a5be b3f6 7dbd
00000130: 6354 4e3e 4847 f63d d93a 89bd 20fd 9d3e
00000140: dbf3 2d3d 9ed9 833e c155 5a3e d75e 443e
00000150: a3dc 663e 80cf 8d3e a823 ac3d 7ee5 ca3c
00000160: 1157 dc3d ebd8 533e 4d62 f23d 82f2 b63d
00000170: 2034 9fbd 269d 893b 095e 8a3d 4046 253e
00000180: 273c ccbc 1665 a7bd 3877 29be 63c3 06be
00000190: 2974 d1be 7bf4 883d 1543 863d 2cce a3be
000001a0: c262 323e 05db 353e ed0c fabc 0b5c a4be
000001b0: 93cb 0d3e bf94 d9bd 9dd8 29bd df4e a53d
000001c0: 2c88 c13e c546 bc3d cb01 03bd 52fc bd3e
000001d0: b2bb 3d3d 53bf 82be 77e0 2c3e 42ca 853e
000001e0: 39a4 f33d 98fc a53e fba7 58bf 1c58 c03e
000001f0: 7ffa a0bd ac41 2e3d 2185 cabd cf6c 2fbe
00000200: a1cc 143e b71f c13d 9f3f b7be 155a a13d
00000210: c7fd 97bc 9e70 21bf ab0d 4abe 6a78 d83c
00000220: e1ba a5be 1a38 b4bd b901 ac3c 7f3d 51bd
00000230: ee50 85be c7e0 b43e 0527 2a3f e2d2 f0be
00000240: efad 39be 0c83 e0be 86ba e3be 9e00 a8be
00000250: a81e d53d 4987 d03d e38e 9cbe 121c 5b3e
00000260: 0ad1 233f 29fc 62bd dd83 c13c aee2 1f3e
00000270: a5e4 31be b5ac 273e bb5a d0bd aa0a 2cbf
00000280: 355f 78be 7d49 0ebe 0169 ce3a 99bf 9bbe
00000290: f49b e8bd c35d a13d 601f 1abe 8e73 f9be
000002a0: ac6b ea3e 55af 2dbe e610 96be 27cc 5d3c
000002b0: 1dd0 8fbe f628 7abc 9717 7cbe 9c04 e4be
000002c0: 4521 4abd de9d 8f3d c2be c6bd 8016 b23e
000002d0: d4b4 0bbe 53e6 9e3c 80a7 5d3e 7080 52be
000002e0: c85a c33d 3797 1bbe f39a 8f3e 0490 d13c
000002f0: 4520 123e f21f 15bd 3a53 b43d bc27 d5be
00000300: 478c 4bbe 7e20 c8bd e3fc f8bd 66f6 e23d
00000310: 20db 233e 6494 383e 96e6 3c3e 1f5d 95be
00000320: b389 d53c 3efe 03b9 fc2d a43f 1fd3 1e3e
00000330: c6ec 633e 791e 963c 93a2 513e 8961 4a3e
00000340: f71a 1e3e 3eea e43d ef09 30bc 1b8a 33bd
00000350: dc08 4d3d 9ffa 23be 0b8c 88be 3851 4f3b
00000360: 8fc7 22bd 3bc2 163e 5cea a13f 1db0 7d3d
00000370: f55b 5dbd 978a 15be a88a ad3c 5e23 9fbd
00000380: 22ef 02bf 6463 ffbc 144e 19bd 0404 1cbe
00000390: b423 b83b f1c5 fa3d cedc 1ebe 1b29 9dbe
000003a0: 6e5f e33d 124f 79bd ee5d da3e 2293 cf3c
000003b0: b4f9 593e 58f2 8abd bcad a2bd acf4 51bd
000003c0: 94af 8ebd 0580 6bbe e02e 6abe 3c19 3c3e
000003d0: 5b46 8bbd ff21 27be 2cf7 ccbd 9c35 b3be
000003e0: 299f ad3d 24bd afbc bee2 493e ff52 223e
000003f0: e16f d2be 401b 94be dd9d cb3d 9082 b53e
0.07900487 -0.051000264 -0.0005346065 -0.0701403 0.035849303 0.39404905 0.2185837 0.13569935
0.468772 -0.07484416 0.020507807 -0.23280972 0.51277584 -0.38011366 0.2728747 0.23953305
-0.022892082 0.10732431 0.09295148 -0.04096159 0.15007378 0.1420595 0.12623034 -0.09880218
0.06169123 0.10295213 1.3833358 -0.09403597 0.07616367 -0.1623447 -0.50926334 0.5393182
-0.40254268 0.16261381 -0.25898844 0.21512498 -0.15677458 -0.56007826 0.06605195 -0.3061874
-0.0036377443 -0.31032935 -0.016932804 -0.32932484 -0.28257027 0.19492929 -0.024003431 0.15512791
-0.06583402 0.19388479 0.054018978 0.20477559 0.13279401 -0.22892965 0.017040653 -0.3329373
0.0729335 -0.41228884 -0.39337745 -0.4868134 -0.15758587 0.005118939 -0.15184179 -0.09578502
0.1767595 0.03306833 0.25037253 0.12761657 -0.18985458 -0.08186128 0.083880804 -0.065404914
-0.029552037 -0.23813273 -0.3233686 -0.06200285 0.20149378 0.120253146 -0.067006774 0.30857182
0.042468887 0.25751966 0.21321775 0.19176804 0.22545104 0.27697372 0.084052384 0.024767634
0.10758794 0.20688216 0.11835156 0.089329734 -0.07773614 0.0041996418 0.06756217 0.1614008
-0.024931027 -0.081735775 -0.16549385 -0.13160472 -0.40908936 0.06687256 0.06555764 -0.31993234
0.17420486 0.1775933 -0.030523742 -0.32101473 0.13847189 -0.10624074 -0.041466344 0.08071684
0.37799203 0.09193186 -0.03198413 0.37106568 0.04632158 -0.25536594 0.16882502 0.26130873
0.11896557 0.32419276 -0.8463132 0.37567222 -0.07860278 0.0425431 -0.098886736 -0.17131351
0.14531185 0.09429877 -0.35790727 0.0787851 -0.018553628 -0.63062465 -0.19731776 0.026424605
-0.3236914 -0.08799763 0.020996915 -0.051084038 -0.26038307 0.35327742 0.6646579 -0.4703589
-0.18132757 -0.4384998 -0.44478244 -0.3281297 0.10406238 0.101820536 -0.30577764 0.21397427
0.63990843 -0.05541626 0.023622448 0.15613815 -0.17372377 0.16374476 -0.101735555 -0.6720377
-0.24255069 -0.13895221 0.0015747846 -0.30419615 -0.11357871 0.07879212 -0.15051031 -0.48720974
0.45785272 -0.16961415 -0.29309767 0.013537443 -0.28088465 -0.015268555 -0.24618374 -0.44534767
-0.049348135 0.07012533 -0.09704353 0.3478279 -0.13643199 0.019396937 0.21645927 -0.20556808
0.095387995 -0.15194403 0.28047904 0.025581367 0.14270122 -0.03640742 0.08804937 -0.41631877
-0.1987773 -0.097718224 -0.12157609 0.11082153 0.16001558 0.18025357 0.18447337 -0.29172608
0.026066637 -0.00012587846 1.2826533 0.15510224 0.2225829 0.018325077 0.20472173 0.19763769
0.15439974 0.11177491 -0.010744556 -0.04383288 0.050057277 -0.16013573 -0.26669344 0.0031634104
-0.039741095 0.1472253 1.2649646 0.061935533 -0.054042775 -0.14603649 0.02118428 -0.07770418
-0.5114614 -0.031175323 -0.037427977 -0.15235907 0.0056194905 0.122447856 -0.15513918 -0.30695423
0.11102186 -0.060866423 0.42649788 0.025338713 0.2128666 -0.06784505 -0.079432935 -0.051258728
-0.069670826 -0.22998054 -0.22869444 0.18369001 -0.068005286 -0.16321562 -0.10008082 -0.35001838
0.08477623 -0.021452494 0.19715402 0.15851973 -0.41100982 -0.2892704 0.099422194 0.35451174

parallel_cnn_block.branches.0.0.weight f4 [1, 1, 2]
00000000: 213f b43e 6180 423f
0.35204414 0.7597714

parallel_cnn_block.branches.0.2.bias f4 [16]
00000000: 8ed0 c23c 678f ac3e 5aca 5d3f 6175 0b3f
00000010: 89f7 0bbf 4602 0cbb 63d3 18bc 55b4 b3be
00000020: 12d7 19be 9c2f c43e 1d61 273e 70f7 e63e
00000030: 4b40 a1bb eaf0 e23e 2bb2 523e 110d ec3e
0.023781087 0.33703157 0.8663689 0.5447598 -0.54674584 -0.002136366 -0.009327742 -0.3509852
-0.15023449 0.38317573 0.1634564 0.45110655 -0.0049209944 0.44324428 0.20575778 0.4610372

parallel_cnn_block.branches.0.2.weight f4 [16, 1, 2]
00000000: 1b7e 06bf 06b5 073f 749b 32be 13ff a23e
00000010: 8cfe 35be b4bc 72bf 6f34 71bf b2fb a5bf
00000020: ce73 c3bd 8ac6 53be 6636 0d3f ab03 4b3e
00000030: 5315 bebe e4e7 c43e f681 eebe db09 0abf
00000040: 9da8 9bbe 1c77 c13e 9536 3cbd a0a9 5cbb
00000050: 38ca 02bf fd66 003f ca82 b3be 7e89 9e3e
00000060: 329c db3e 4dd6 e63e 9b60 dc3e ca7f f8bd
00000070: 32f3 e5be 4003 c93e b807 ecbd 8932 593d
-0.5253617 0.53010595 -0.17442113 0.3183523 -0.17772883 -0.9481919 -0.9422063 -1.2967436
-0.09543572 -0.20681205 0.5516113 0.19825618 -0.37125644 0.38458169 -0.46583527 -0.5392129
-0.3040208 0.37786186 -0.04595049 -0.003367044 -0.5108981 0.5015715 -0.35060722 0.30964273
0.42892605 0.45085374 0.43042454 -0.12133749 -0.44912106 0.39260292 -0.1152491 0.05302671

parallel_cnn_block.branches.1.0.weight f4 [1, 1, 4]
00000000: 3579 be3e 76cb 85bc 85db 26be 1281 94bd
0.3720185 -0.01633237 -0.16294678 -0.07251181

parallel_cnn_block.branches.1.2.bias f4 [32]
00000000: 4377 85be b843 153e 2c67 3e3d e0e8 ba3d
00000010: 848d e3be e0b5 77be e284 dd3e ab70 953d
00000020: 9257 6e3d b18c 3a3d c261 363e f3b8 113e
00000030: 1379 013e bcca 3ebf 0e7f 9a3e 6e4c c4be
00000040: a9b1 e8be 0b40 69be 96f7 ccbd 2985 5cbe
00000050: f4a8 2ebf 40cb ba3d ccbf 82be b1fe 813e
00000060: ffa7 85be 0376 af3e 7c16 99be e76f 653e
00000070: 10c1 b1be 3daa b3be 253a 963d 7e23 61be
-0.26067552 0.14576614 0.04648511 0.09126449 -0.44443905 -0.24190474 0.43265444 0.0729688
0.058188982 0.04554433 0.17810729 0.14230709 0.12643842 -0.745281 0.3017506 -0.3833956
-0.45448044 -0.22778337 -0.10008161 -0.21535172 -0.6822655 0.09120798 -0.25536954 0.25389627
-0.26104733 0.34269723 -0.29899967 0.22405969 -0.34717607 -0.3509082 0.07335309 -0.21986195

parallel_cnn_block.branches.1.2.weight f4 [32, 1, 4]
00000000: fec0 16be 40e2 063f 8f99 f9be fb61 45bf
00000010: 06ab 5abf a6bd 66bf 7a62 253e 1608 533f
00000020: 67b9 9e3c 397e 833e d68f 4dbf 403c fe3e
00000030: 742d 3fbf 417f 74bf cff9 863e 70e1 2e3f
00000040: c61b c43e 2467 0b3e 5889 8d3e b351 5d3f
00000050: 37da 033f 5260 acbf 560e fc3e 46f5 96be
00000060: 9d3b 79bf d491 59bd dc40 e0be 38b2 923e
00000070: d942 1b3c 1d8d b73e 61c3 e5bb a360 41bf
00000080: 7a45 e3be 035c 303d d679 3f3f e164 1cbf
00000090: b9c1 e93e e9e7 2a3f b873 173e 123e cc3e
000000a0: 8cb1 163d 134f 1b3e 9ee8 7fbf 9338 683e
000000b0: 34cc 79bf c681 58be d489 803c 52bf 273f
000000c0: 7f06 da3d dad9 743e 082a 1cbf cf68 47bf
000000d0: e5aa 5ebc c0f0 cc3c 68fa 233f aad9 673e
000000e0: 36da e5be 2fd8 14bf 3a9f 9cbd 3565 b53e
000000f0: 2c0c a43e d880 e2be 9f44 a3be d612 b43e
00000100: 7728 81bf e5ed 003f df55 e6bb 1b20 15be
00000110: 64bb ae3d f468 473b a5be 55be 86b0 293f
00000120: 180d 49bd 618b 523f 8397 463f 04ba cabe
00000130: de15 203f b43c d6bd c56c ea3e 0195 ea3e
00000140: fdde c83c 87d9 4fbd c6d7 643f a5a8 d23d
00000150: f1f7 dcbe 1f07 843e c908 05bf ba7b c03e
00000160: 95fb 243f 9175 3a3f 7cef 523f 5400 443f
00000170: 3a95 7abf feaa 89bd 78b3 233e c418 813e
00000180: bf51 353e 3728 ee3e 1d1c dfbe 2e45 f93e
00000190: 4eaa 5fbf b524 21bd dd1c bebe ca55 c23e
000001a0: 1806 2b3f e4a8 e13d 8f63 9a3e 510d f43e
000001b0: 5291 12bf 219c 78bf a8ab 363e 8b93 043f
000001c0: 35e9 f63e 3288 343d 8c75 2e3f 9004 2d3f
000001d0: d85b fa3d 7acf 4a3f 3ee9 713f 3157 b5bd
000001e0: 122f 4ebc 48b3 4c3e 211e 5bbf ac34 28bf
000001f0: d325 0e3f ffa7 703c 8378 1ebe 3263 1f3f
-0.14722058 0.5268898 -0.48749968 -0.7710263 -0.8541721 -0.9013313 0.16150847 0.82434213
0.019375516 0.25682238 -0.802976 0.49655342 -0.7467873 -0.95506674 0.26362464 0.6831274
0.3830244 0.13613564 0.27643847 0.8645279 0.51504844 -1.3466895 0.49229687 -0.29484004
-0.9735659 -0.05311759 -0.43799484 0.28651595 0.009476387 0.35849848 -0.0070118164 -0.7553808
-0.44388944 0.0430565 0.7479528 -0.6109143 0.4565561 0.66760117 0.14790237 0.39891106
0.036790416 0.15166883 -0.9996432 0.22677831 -0.97577214 -0.21143255 0.015690722 0.65526307
0.1064577 0.23911229 -0.61001635 -0.778943 -0.013590549 0.025017142 0.64053965 0.22641626
-0.44893044 -0.5814237 -0.076475576 0.35428777 0.32040536 -0.44238925 -0.3188829 0.3517062
-1.0090474 0.50363 -0.0070292796 -0.14563029 0.08531836 0.0030427547 -0.20873506 0.6628498
-0.049084753 0.82243925 0.7757494 -0.39595044 0.62533367 -0.10460797 0.4578611 0.45816806
0.024520392 -0.05074456 0.89391744 0.10286073 -0.43157914 0.25786683 -0.5196653 0.37594396
0.64446384 0.7283564 0.82396674 0.76563 -0.9788395 -0.06722067 0.1598643 0.25214207
0.17706965 0.46515056 -0.43576136 0.48685592 -0.8736924 -0.039341647 -0.37131396 0.37956077
0.66806173 0.110185415 0.30154082 0.4766641 -0.5725299 -0.97113234 0.17838919 0.5178763
0.48224798 0.0440752 0.6814811 0.67585087 0.12224549 0.79222834 0.94496524 -0.08854521
-0.012584465 0.19990265 -0.8559285 -0.6570537 0.55526465 0.014688491 -0.15475659 0.62260735

parallel_cnn_block.branches.2.0.weight f4 [1, 1, 8]
00000000: 9277 843d 297b 843e 8177 e5bd dcdf d83e
00000010: 64ca 92be 2e45 f5be 2310 39be 9ceb 9f3e
0.06468119 0.25875214 -0.11204434 0.4235829 -0.28670037 -0.47904342 -0.18072562 0.31234443

parallel_cnn_block.branches.2.2.bias f4 [64]
00000000: 10d1 8c3d d4cb 4fbf bf62 56be f0fd dbbc
00000010: ae15 09bc ee8c a13e 1d6e d5be 7bed 52bf
00000020: b780 753e 10c2 a93e a861 853e 2cc4 2d3e
00000030: 83f7 89bf 1f04 ae3e 343b 253e 5c98 90bf
00000040: e8de 4e3e 570a 053a 03bd 22bc 1463 abbe
00000050: 975e 8dbf bef4 8abd 8b3d a7be b3ae 563e
00000060: c5d0 cb3c e7ef 56bf 3c6f febe f12e 533e
00000070: a5b8 673e 8bdc 91bf 680a 383b e7f8 2b3e
00000080: 3ca8 cb3c 6066 97be cfaf 16bf 2b21 8b3c
00000090: 6d4c 6d3e 6d9d 62bd 4ca7 40be 1008 8b3e
000000a0: 2fba 9a3d de68 16bf 09d2 373e e02b 8e3e
000000b0: 00fa 7f3e 439c 7d3e bb11 be3e f7b7 43bd
000000c0: bfb5 29bf 71c8 6bbd 8f8b cb3c 2c15 e0bc
000000d0: 8167 e6bb 0885 ab3b 4646 2bbc 13ed 48bf
000000e0: a648 113e 48ff 0cba 08dc 3cbf a3f3 0fbf
000000f0: 0051 38b6 ba4d 653c bdec f5be b3b8 27bc
0.06875813 -0.8117039 -0.20936106 -0.026854485 -0.008366985 0.31552833 -0.41685572 -0.82393616
0.23974882 0.3315587 0.26051068 0.16969365 -1.077866 0.3398752 0.16135865 -1.1296496
0.2020222 0.0005075088 -0.009932759 -0.33474028 -1.1044492 -0.06784962 -0.3266414 0.2096508
0.024879823 -0.8395981 -0.4969424 0.20623375 0.2262903 -1.1395429 0.0028082374 0.16794167
0.024860494 -0.29570293 -0.5886201 0.01698359 0.23173685 -0.055325914 -0.18813819 0.2715459
0.07555043 -0.58753765 0.17951216 0.2776785 0.24997711 0.2476664 0.37122902 -0.047782864
-0.6629295 -0.057564203 0.02484682 -0.027353846 -0.0070313816 0.0052343644 -0.010453766 -0.78486747
0.1418787 -0.0005378616 -0.7377324 -0.56231135 -2.7465285e-06 0.013995582 -0.4803218 -0.010236907

parallel_cnn_block.branches.2.2.weight f4 [64, 1, 8]
00000000: c69b 59be 53a0 25be 2e92 ac3e fe29 d53e
00000010: 8d52 a0bd d57f edbd f417 973e e834 16bf
00000020: 1998 bf3d 19b7 edbd a36e 023e 0c3b 353e
00000030: 561e 773c f678 b03d 1d67 8abb 5adc f03e
00000040: 4748 37be c1aa c13e 47d4 09bf 6966 c5bd
00000050: b0e8 223f 2608 333e 409e 2bbf 8feb 803e
00000060: 4655 223f 5f3b 00bd ceec 30be 3f8b b13d
00000070: 312b c93e 8fc0 90be 652d 603e 5048 17bd
00000080: db7c c2bd 665d 613e 0e8c 5abc 4ba2 133e
00000090: 5ede 093f 720f b03e 146a 163e dd47 3dbe
000000a0: a632 3d3e b27f 3bbe 0ed7 a83d 10b3 a3be
000000b0: e18f 233d faba 80be 2eed 78be 915f 813e
000000c0: 522b 243f 68ff b83d 5412 1339 f48a af3d
000000d0: 1a61 79bc dbda 4dbe b22e 983e a882 8c3d
000000e0: 5560 a3be c30b b2be 49b5 443d 0092 9d3c
000000f0: e9dd 11bf f389 ad3e edaf 853e 8b13 363d
00000100: d819 bdbe 7507 be3e 552c a93e 8f9e fc3e
00000110: 08a6 15be ee4d 363e 61e3 f4bd 961a 87be
00000120: c40e fd3e 2ca8 96be a7c4 b1be 1dbf b6be
00000130: 2210 da3e dea5 89be a638 153d 8baf abbe
00000140: 4ddb 61be 3e66 41bd 9b06 923e a193 133f
00000150: 5721 0bbe 7f25 a7bd c05c 1bbe 4945 47be
00000160: 5be2 09bd 3001 6a3c cfa2 b93e c09e 243e
00000170: 217d 0a3d 7837 a13c e4c3 adbe ae82 e4be
00000180: f9c2 9d3c daab 953e e5f8 793d 253e 41bd
00000190: 49f7 c3bc aa0d a13d d9e2 9abd db23 913e
000001a0: 2f08 dabe 2252 3abe a513 6fbd c4da 03be
000001b0: 0734 48be 2736 cbbe 7f0f e9bd 69b6 b13e
000001c0: b307 8fbe 1b67 76bd 621d 84be a6e1 a9be
000001d0: 8378 cbbe 62a8 e13e 2a4d cbbd e23d 643e
000001e0: 87d7 9cbe 093b 76be 7d4b f13c d453 5fbe
000001f0: fa66 3abe fbfa 673d 5dfe 793d 03b8 333e
00000200: a8b3 703d 9ac4 1bbe 28ae 22be 5428 583e
00000210: 647c b83d 2a79 eebd 6908 883d d5c7 553e
00000220: d366 953e fb9c 1dbe 7c68 b3be e6d3 cf3e
00000230: 5442 c83e abe5 d13e b07f d43e 2dad 75be
00000240: 18b1 8fbd d6b1 813e c371 9bbe a24d c2bc
00000250: a785 953e cde6 373e 0a46 773e 2856 25be
00000260: 3af3 6dbd 0ac0 b1bd 7c52 84be 08a0 b2be
00000270: c9da 86be 8d74 e63b bd46 58be 9ba4 b0bc
00000280: 4e82 73be 8b3b 09bf c078 ac3d 4570 ebbd
00000290: 4df6 3ebe 0df2 513d f888 373e 5202 563e
000002a0: 8a44 8c3e e02b 44bd d110 853e fbe6 1f3f
000002b0: d62f b83e b1e7 a3be a82e 313e d6ae ca3e
000002c0: 1daf c73e d98b 28bf 3d2a 16be 7a24 1b3d
000002d0: 5ecd bdbe 6681 afbb ad79 cd3e 8a6c 1fbe
000002e0: 6158 b83d 9ed2 273e 94c4 18be 91e6 623e
000002f0: 9615 813e 10fa b9bd 78cd ffbd 6e96 97bd
00000300: 55a0 0f3e 7f48 b93e 40a7 18bf 9027 ebbf
00000310: 4c5f 62bd 855f b23e d777 c23e e9b5 923e
00000320: e5e0 58bf 5b4d e9bc 4361 4abe 3822 0a3e
00000330: c5d7 bb3e b988 2d3e 4af7 b43e 04bd ca3e
00000340: 2e5a fa3b 0674 163e 4458 34be daf2 543e
00000350: ec7f 2ebf fa89 fc3d da8a af3e 5073 823e
00000360: b4ab 583e 4ac0 2bbd 8955 8d3e 2c05 283e
00000370: c5c8 f2bc c0db 01bd 4147 9cbe 6df6 b8be
00000380: 49c8 e1be fa75 ecbd 1228 c43e c3e4 143e
00000390: f28c fcbd 650d 863e 65eb bcbd 9889 0fbe
000003a0: ffe0 b1bd 174e a5be 0440 993e 541d b3be
000003b0: a46f a0be 4c0f e73d 176f 24bd 89b2 403e
000003c0: cdd5 aebf b671 833e 4286 5c3d 8f73 523f
000003d0: 04da 1fbd aa0c 9c3e 32f1 49bf 85a0 9e3e
000003e0: 13e1 0a3f 951a 5cbd 0640 e63c 141d afbe
000003f0: 83d9 1f3e 382c c3be d99c 7b3e 9c70 15bf
-0.21250829 -0.1617444 0.33705276 0.416336 -0.07828245 -0.11596648 0.29510462 -0.5867448
0.09355182 -0.11607189 0.12737517 0.17698306 0.015082916 0.086168215 -0.004223718 0.47043115
-0.17898665 0.37825587 -0.53839535 -0.09638674 0.636363 0.17483577 -0.67038345 0.25179717
0.63411367 -0.03130662 -0.17277834 0.08669137 0.39290765 -0.2827191 0.21892317 -0.036934197
-0.094964705 0.22008285 -0.013339056 0.14417379 0.5385493 0.34386784 0.14688903 -0.18484445
0.18476352 -0.1831043 0.082441434 -0.3197255 0.039932135 -0.25142652 -0.24309227 0.25268224
0.641286 0.0903309 0.0001402584 0.08571425 -0.015220905 -0.20103018 0.29723126 0.06860858
-0.31909433 -0.34774598 0.04802445 0.019234657 -0.56979233 0.3389431 0.26110783 0.04445223
-0.3693378 0.37115064 0.33041635 0.4933972 -0.14614117 0.17803165 -0.119574316 -0.2638747
0.49425328 -0.2942518 -0.34720346 -0.35692683 0.42590433 -0.2688436 0.036430977 -0.33532366
-0.22056313 -0.047216646 0.28520665 0.5764714 -0.13586937 -0.08161449 -0.151721 -0.19460024
-0.033663135 0.01428251 0.36257026 0.16076183 0.03381074 0.01967977 -0.33938515 -0.4463095
0.01925801 0.29232675 0.06102838 -0.047178406 -0.023921626 0.07863934 -0.07562799 0.28347668
-0.4258437 -0.18195394 -0.058368344 -0.12876421 -0.19551097 -0.39689752 -0.11379909 0.3470948
-0.27935562 -0.060156923 -0.25803667 -0.3317997 -0.3974038 0.44073778 -0.09926827 0.22289231
-0.30633184 -0.24045958 0.02945494 -0.21809322 -0.18203345 0.056635838 0.061033595 0.17550664
0.058765084 -0.15211716 -0.15886748 0.21109134 0.09008101 -0.11644204 0.06642229 0.20877011
0.2918001 -0.15391915 -0.35040653 0.40591353 0.39113104 0.40995535 0.41503668 -0.23991843
-0.070162 0.2533099 -0.3036023 -0.023718659 0.2920353 0.17959137 0.24147812 -0.16146147
-0.058093287 -0.08679207 -0.2584418 -0.3488772 -0.26338795 0.007032937 -0.21120735 -0.021562865
-0.23780176 -0.5360648 0.08421469 -0.11496023 -0.18648644 0.05125623 0.17923343 0.20899323
0.2739604 -0.047893405 0.25989392 0.62461823 0.35973996 -0.32012704 0.17302954 0.39586514
0.39000788 -0.6583839 -0.1466455 0.037876584 -0.37070745 -0.0053560017 0.40131894 -0.15568748
0.09001232 0.16388938 -0.14918739 0.22158267 0.2521178 -0.09080899 -0.12490362 -0.07401739
0.14026006 0.36188123 -0.59630203 -1.8371449 -0.055266663 0.348385 0.37982056 0.2865441
-0.8471816 -0.028479269 -0.19763665 0.13489616 0.36688057 0.16946687 0.35344917 0.39597332
0.007640145 0.14692697 -0.17611796 0.20795766 -0.68163943 0.123310044 0.34285623 0.254786
0.2115925 -0.041931428 0.2760432 0.16408223 -0.02963675 -0.03170371 -0.30523112 -0.36125508
-0.44098118 -0.1154594 0.3831182 0.1454039 -0.12331571 0.26182094 -0.092245854 -0.14017332
-0.08685493 -0.3228614 0.29931653 -0.34983313 -0.31335175 0.112822145 -0.040145006 0.18818106
-1.3658997 0.25672692 0.053838976 0.8220758 -0.039026275 0.30478412 -0.7888366 0.30981842
0.54249686 -0.053736288 0.0281067 -0.34201872 0.15610318 -0.38119674 0.24571551 -0.58374953

parallel_cnn_block.branches.3.0.weight f4 [1, 1, 32]
00000000: 00fc 163d a380 80bd e4b7 f8bc 9ac5 d9bb
00000010: 26fd f9bc 15ac bfbc dc3d 083d 1280 2dbd
00000020: 5f25 fe3d 5a0e 053e 9fff 4d3e 08d4 f93d
00000030: 8370 173e 112e 813d 72c2 383b 5aa3 d23d
00000040: b0f4 003b 2914 803e 6940 ae3e 96ea 133e
00000050: 3073 a03e ea42 933d e95a 803d 5c36 9abd
00000060: 9b1d 873d 97cc db3c dbca 8ebd 81e6 2e3d
00000070: da5d 82bc 5b5c 61bd d5b5 353c 28e3 53bc
0.03686142 -0.062745355 -0.030361123 -0.0066458704 -0.030516218 -0.023397485 0.03326212 -0.042358465
0.12409472 0.12993756 0.20117043 0.12198645 0.14789014 0.063076146 0.002819207 0.10285063
0.0019677095 0.2501538 0.34033516 0.14444956 0.3133788 0.07190497 0.0626734 -0.075298995
0.06597444 0.026830954 -0.06972285 0.042700294 -0.015913893 -0.055019718 0.011090715 -0.012932576

parallel_cnn_block.branches.3.2.bias f4 [16]
00000000: 3c37 1b3f 7e0b f53e 7f03 6a3d 65e5 2a3e
00000010: cd53 0d3f 673d c63e 669d b53c 9782 7b3e
00000020: 57be 423e 1823 583d 6677 b43c d896 d63d
00000030: a894 dd3e 59d2 8a3e 900e db3a d747 8cbb
0.60631156 0.4786033 0.05713224 0.1668907 0.55205995 0.3871872 0.02216978 0.24561535
0.19017921 0.052767843 0.02202959 0.1047799 0.43277478 0.27113608 0.0016712714 -0.004281025
