wide/modelpars_wide_i_38.safetensors (safetensors, 86584 bytes, 32 tensors)

bilstm.bias_hh_l0 f4 [64]
00000000: 99a4 03be f81b 4f3e ab7d 313e 4c63 fe3d
00000010: 9e60 48be 016a 8bbd 1446 93bd e4bb 013e
00000020: 54be 43be 5fcc 95bd 7a36 233d 1ee8 95bd
00000030: e63a 91bd d17c cc3d 5f4f 633e 718e 073d
00000040: 235b 183e 653f 08be c045 f13d cbdb 85bd
00000050: d692 f3bd 6533 6f3e e8c6 00bd db11 433d
00000060: 3a6e 893e 2599 a73e 060b 853e 9e18 863e
00000070: dd43 11be 1473 68bd 6cb8 2ebd c34e 6dbd
00000080: 1235 413d 949a 033d 6e4b 603e 6f7d 303e
00000090: 4f8b 923d 4039 90bd 83c2 7c3e 6923 603d
000000a0: b106 5bbe 3cd0 d93d f553 c0bd 61eb 423d
000000b0: c727 69be 8e52 d73d dcd2 e63d 64d1 35be
000000c0: 7793 36be 210f 0bbc f94b 683c 4801 743e
000000d0: 7bf2 4f3e 1859 0b3e 52bc dabd 7fd4 7e3c
000000e0: 0a31 30be 49f1 813e ca45 9dbd bc08 f3bd
000000f0: ff64 df3d 3912 2abe de17 babd 7830 7d3e
-0.12855758 0.20225513 0.17333095 0.12421283 -0.19568107 -0.06807328 -0.07191101 0.12669331
-0.19115573 -0.07314371 0.039846875 -0.073196635 -0.07091312 0.09984744 0.22198246 0.033094827
0.14878516 -0.13305433 0.11780882 -0.06536063 -0.11893241 0.23359449 -0.03143969 0.04762445
0.2684191 0.32734028 0.25984973 0.26190656 -0.14186044 -0.056750372 -0.042656347 -0.05793644
0.047169752 0.03212984 0.21903774 0.17235349 0.07155477 -0.070421696 0.24683575 0.05472127
-0.21389271 0.10635421 -0.093910135 0.047587756 -0.2276908 0.10513793 0.11270687 -0.17755657
-0.17829691 -0.008487494 0.01417827 0.23828614 0.20307343 0.13608205 -0.106804505 0.015553593
-0.17206207 0.25379398 -0.07679327 -0.118669 0.10907935 -0.16608514 -0.090865836 0.2472552

bilstm.bias_hh_l0_reverse f4 [64]
00000000: 21d9 bb3d 86aa 323e 7928 573e 4daf a5bd
00000010: 976c d9bd c788 a53d fc54 c3bd 5c0b 09be
00000020: b53b abbd 6a91 55bd afcd 39be 3317 02bd
00000030: ebc0 d13d 4fe3 c13d 118d 1b3e 5fb2 57bd
00000040: 253f 74be 03eb 73bd 2ebb 693c deb5 a83d
00000050: 79ab 5abe 8ef3 15bd 700c 8a3e afa2 0a3e
00000060: bc38 363e cc3d b83d 8bac c73d b8b9 ad3d
00000070: 6a91 5c3e feab c1bd e71e af3b c70f cc3c
00000080: 278b 53be 3b57 e43c 49fe 6d3e e400 9cbd
00000090: 4d89 8ebd 075e 173e 6ff3 f5bd ff50 39be
000000a0: 4767 813e 6bd7 1e3e e9f2 4fbe 9d13 5a3e
000000b0: 4e72 4ebc 1ddf 1fbe 92fb 2ebe 8f30 6e3b
000000c0: e02a ec3c 0ca1 77be 1a8d 813d 8f24 3bbc
000000d0: 3a3c 043e 4d17 38be 4c13 813e 4ebc 2dbe
000000e0: 6432 fabd 9877 53be f9f4 313e e27d 903c
000000f0: a6c8 193e 2ec3 753e 44e2 18bb 0a13 d73c
0.091722734 0.17447862 0.21011533 -0.080900766 -0.10616415 0.08082729 -0.09537694 -0.1338324
-0.083609976 -0.05214063 -0.18144868 -0.031760406 0.10241874 0.09467184 0.15190531 -0.052660342
-0.23852213 -0.059550297 0.0142658185 0.082378134 -0.21354474 -0.036609225 0.26962614 0.13538621
0.1779508 0.08996162 0.09749707 0.08482689 0.21539846 -0.09456633 0.00534426 0.024909867
-0.20658551 0.027873626 0.23241533 -0.076173574 -0.06959782 0.14781962 -0.12009322 -0.18097304
0.25274107 0.15511863 -0.20307507 0.21296544 -0.012600495 -0.15612455 -0.17088154 0.003634486
0.028829038 -0.24182528 0.06325741 -0.0114222905 0.129136 -0.17977639 0.25210035 -0.16966364
-0.122166425 -0.2065109 0.17378606 0.01763815 0.15017948 0.24000236 -0.0023328224 0.026254196

bilstm.bias_ih_l0 f4 [64]
00000000: 537f 06be 3d01 1dbc 4150 723e 0faa febc
00000010: b2f9 8a3d 4493 82bd aa34 86be 0e1b 053d
00000020: 32eb 7f3e cc9a 78be c0b9 05be 7167 93bc
00000030: 45ca 5f3d 6ff8 1e3c 92d3 b9bd ab22 d4bc
00000040: 5268 4e3d 2bac 883d 989d 2a3e 02cb 583e
00000050: 75b3 523e 8c9d 1c3e 3440 26be 94c4 4b3e
00000060: d26f 89bd 1f68 443e 6e0c d5bd 1ea6 743e
00000070: 71af 4e3e 8880 fbbd 9712 8a3e ae69 3f3e
00000080: bc9e cc3d 4805 c53d b820 403e 2142 6abe
00000090: 8f7e 0a3e 1a9e ee3a edec 2a3e bd5c 003e
000000a0: 429b e43c 8c42 5cbe 7972 76be 0315 08be
000000b0: e3a3 3c3e d009 7dbe bd05 283e 3074 4b3e
000000c0: 8f4f 4e3e 0786 27be 7ce1 1dbe 205c 673e
000000d0: 5940 2dbe c26f 333e 3bdd 0abe 89f0 273e
000000e0: e24d 953e 1e57 a33e 2d84 48be b96b bf3d
000000f0: 5872 353e 2338 703b 203d 18be 4da8 3c3e
-0.13134508 -0.009582815 0.23663427 -0.03108695 0.06785907 -0.06375745 -0.26212054 0.032496504
0.24992064 -0.242778 -0.13059139 -0.01799366 0.05463626 0.009702786 -0.09073557 -0.025895437
0.050392456 0.066734634 0.1666168 0.21171191 0.2057627 0.15294474 -0.16235429 0.19899207
-0.06710781 0.19180344 -0.104027614 0.23891494 0.20184113 -0.12280375 0.26967308 0.18692657
0.09991214 0.09620148 0.18762481 -0.22876789 0.13524841 0.0018205077 0.16691943 0.12535377
0.027906064 -0.2150976 -0.24067105 -0.13289265 0.18421893 -0.24710774 0.16408439 0.19868541
0.20147537 -0.16359721 -0.15418047 0.22593737 -0.16919078 0.17523101 -0.13560955 0.1640035
0.29160982 0.31902403 -0.19581671 0.09346718 0.177194 0.0036654554 -0.14867067 0.18423577

bilstm.bias_ih_l0_reverse f4 [64]
00000000: 3558 8cbd e8f3 0b3e ffd4 413e 6f89 a2be
00000010: e3be 19be 2483 423e 7c2f 5a3e a144 2fbc
00000020: 21f6 c1bd 7478 0cbe 9626 c9bd 1613 c1bc
00000030: e77c 14bc 8c2b 7b3e dd71 543e bc50 c8be
00000040: e5d3 2abd f59d 0f3c 035d 2cbe 30c9 73be
00000050: 2fca 1abe 5204 6e3e 255c fbbd 4804 ee3c
00000060: 8ab6 833e fae4 013b 39fc 90bd fd11 923e
00000070: 2479 a23d 7bf7 8b3e d3c8 bdbd c56c ae3b
00000080: d385 57be fb42 473e 8f01 693e 6ccf 2ebe
00000090: 51be 50bd c830 01bd cd0f 423e f3da 0fbe
000000a0: a0ae 18be dde5 713c 4069 87be 14b4 bc3d
000000b0: e90f 263d 0a69 b73d a782 12bd 7f24 2d3d
000000c0: 6f91 883e f93b ecbc 8363 19bc 8d36 ffbd
000000d0: 427c 703e 3d53 b73d dba8 003e ece1 603e
000000e0: 5266 603e 9441 4e3e c307 55be 3c28 95be
000000f0: 6473 e6bd cd21 943d ec31 9fbe d9c9 21bd
-0.06852762 0.13667262 0.18928908 -0.3174548 -0.15014224 0.18995339 0.21307176 -0.010697515
-0.094707735 -0.13717824 -0.09821813 -0.023568671 -0.009062982 0.2452833 0.2074656 -0.39124095
-0.041705985 0.008765687 -0.16832356 -0.23807216 -0.1511619 0.23243836 -0.122734345 0.029054776
0.25725204 0.0019820319 -0.07079358 0.2852935 0.07933262 0.2733725 -0.0926682 0.005323025
-0.21047144 0.19459145 0.22754501 -0.17071313 -0.05096275 -0.031540662 0.1895134 -0.14048366
-0.14910364 0.014764276 -0.26447487 0.09214035 0.040542517 0.089555815 -0.03576913 0.042271134
0.26673457 -0.028837191 -0.009362104 -0.124615766 0.234849 0.08951423 0.12564413 0.21961182
0.21914032 0.20142204 -0.20803742 -0.2913226 -0.11252478 0.072330095 -0.31092775 -0.039499138

bilstm.weight_hh_l0 f4 [64, 16]
00000000: 686e 2fbd 5e14 36bd bf41 313c 1507 dabd
00000010: c3ae 1a3e 2f10 4bbe 1ed5 e63c 3d69 a73d
00000020: e154 193e 841e 873d 3016 9dbe 3671 1e3e
00000030: 8d4e e23d 8cb1 d4bd 401c 10be 27d2 44bd
00000040: 8f9d 38be ca91 ccbc c1a3 23be a54a 36be
00000050: 4b79 6ebe b3c0 3c3b e4a6 423e 5e65 643e
00000060: 55d9 623e 9bf8 2dbe 575f 6d3e 3fa0 bc3b
00000070: 1a5e 953d 9678 d83d 7d62 d83e 961e 2e3e
00000080: 0001 6a3e 771a babd 5ccf 1abe db5c 923d
00000090: 36e4 5a3e 58f9 ce3d 91d4 4d3e 4640 283e
000000a0: b44b 2ebe 4a1d b5bd 141e a43d c6b7 e7bd
000000b0: 17a3 d9bc e9e3 81be e199 763d 737b 893e
000000c0: eb39 003b 8082 f3bc 6e06 883e 7b15 43bd
000000d0: 0d43 5dbe d90c a83d c465 7e3d a02e 073b
000000e0: 377b 27be fe4d 3abe 289c 443e d676 6bbe
000000f0: 966c 803e 99fc 233c ded3 97bd 631d 21be
00000100: 8ece afbd 2eb4 88bd f09e bfbd 717d 183e
00000110: 7a58 05be 38c8 393d bde0 8e3d 8bfc 1ebe
00000120: 3c21 563d 8c7f 5cbe 1ba7 15bd 3d93 343d
00000130: 76c9 91bd 42d7 26be 058f 59be 1fda 253e
00000140: 79bc a13e 7331 c93d 6501 47be d9e3 4c3e
00000150: 9a1c 673e dd31 7abd b3bb 8e3d 18c1 31be
00000160: cf59 a5bd b620 f6bd 7916 65be e857 063e
00000170: 409c 24bc c42b 273e ce33 8cbe 9cec 913e
00000180: cd8b 823e 7860 4d3e dee0 49be 3d45 633e
00000190: 7db4 1cbd 434e ed3e a75c 41bc d3f5 3a3e
000001a0: 7307 013e 2e87 86be 43b8 86be 3607 043e
000001b0: 4489 8b3f ed72 963e 0b79 94be 9b18 4e3d
000001c0: 65fa 373b b9a3 133d 4375 cd3c 6330 38be
000001d0: 0963 5abe f1af 1d3e 2b4e 403d 8952 c03d
000001e0: 1f69 96b9 2c92 4f3e b19c 2d3d 277b 773d
000001f0: 1271 09bd 8258 133e 66a2 cfbd 4572 823e
00000200: 6dce da3d da6f 8abd 3b49 aebc b25c 76be
00000210: a80f 843d 75b5 803d 2e9f 1bbe 6a8d c73c
00000220: 049c b8bd ee1d 243e 12a3 6bbe 19dc 463e
00000230: bb93 cebd a085 80be f669 a73d f3c8 843e
00000240: e9cc a83d 5046 d1bd bc2d 7bbe 0bc2 ca3d
00000250: 3264 153e c4ef 83be 5517 e63d 2323 233e
00000260: 561d 09be 3f55 943e 6421 963e 727f 42be
00000270: 8fb7 5fbe 9522 ccbd 5d82 a33e 0462 05be
00000280: 1a55 19be 8a8f 173e b265 183e 5d12 593e
00000290: 1dc7 59bd d9d5 12be 39bc 5e3e 94c2 513d
000002a0: 80b3 02bd d111 3d3e 7303 1abd f3fa 90be
000002b0: 6561 903e 9bf9 933c 4dec 42be 9585 863d
000002c0: b521 1c3e ddbf ea3c c142 4d3e 7b93 4fbe
000002d0: 70d6 293e 1c8c 80be fa09 e13e 5bcd 5b3e
000002e0: 081e b0bd ff42 5d3d 6c28 8b3e f57e 513d
000002f0: dfb6 75be 0042 05be ff8a c1bd a7f4 41be
00000300: d567 05be 87f9 05bf b54a 03be 337d 01bd
00000310: bbf0 8fbe 5ba0 09be 536e 0b3f ce00 a23d
00000320: 4c43 543d 3e00 7a3e f0fc 91be 24cf 743d
00000330: 7cb3 62bf da39 b5bd d03c 913e 03b7 cf3e
00000340: 54b8 47bd 019d 303d 977d 33be 1bec 32be
00000350: 7ffa db3d 8a1f 30be e6d7 5c3e 1dcc 353e
00000360: db7e 60bc a248 0e3d 1f58 b13d 2c87 043e
00000370: ad7d c9be ab27 69be 1cdf 513d 992a 483e
00000380: 600b b7bd e96e 2d3e a8db 10be 1017 153e
00000390: b3d8 37be a6f4 c33d 559e 893e d218 65be
000003a0: e2a0 c4bd e602 cbbd c2f2 193e f46a 24bb
000003b0: 68bc ccbe 1f7c 19bd 867b 053d db77 043f
000003c0: 156f 5f3e 8a10 b63e 852e ba3d 8d98 cdbd
000003d0: 965a 8f3e a0b7 bf3e 9392 a13e 3d22 25be
000003e0: 1276 8e3e cc3e a4be c885 f5bc db68 933e
000003f0: 85bf f33e 55c7 343f 2727 49be ffbc 6e3e
-0.0428299 -0.044453017 0.010818898 -0.10645882 0.15105729 -0.19830392 0.028177794 0.081743695
0.14973785 0.06597617 -0.3068099 0.15472874 0.110501386 -0.10385427 -0.14073277 -0.04805198
-0.18028854 -0.024971861 -0.15980436 -0.17801912 -0.23288457 0.002880138 0.19008976 0.22304294
0.22153218 -0.16989367 0.231809 0.0057564075 0.07293339 0.10569875 0.4226264 0.17003855
0.22851944 -0.09087079 -0.15118164 0.07146617 0.21376118 0.10106152 0.20100619 0.16430768
-0.17021066 -0.08843477 0.080135494 -0.11314349 -0.026567025 -0.25369194 0.060205344 0.26851997
0.0019565772 -0.029725313 0.26567405 -0.047627907 -0.21607609 0.082055755 0.06210877 0.0020627156
-0.16355596 -0.18193814 0.19200194 -0.22994551 0.25082844 0.010008954 -0.07413457 -0.15733866
-0.08584319 -0.066749915 -0.09356487 0.14891602 -0.13022032 0.04535696 0.06976459 -0.15526025
0.05227779 -0.2153303 -0.036536317 0.04408573 -0.07118504 -0.16293052 -0.21245964 0.16196488
0.31589106 0.09823885 -0.19434126 0.20008792 0.22569504 -0.06108271 0.069693945 -0.17358816
-0.0807377 -0.12017958 -0.22371854 0.13119471 -0.0100470185 0.16325289 -0.27383274 0.2850083
0.25497285 0.20056331 -0.19714686 0.22194381 -0.038258065 0.4634877 -0.011801875 0.18257837
0.12600498 -0.2627501 -0.26312456 0.12893376 1.0901265 0.29384556 -0.28998598 0.050316434
0.002807283 0.03604481 0.025080329 -0.17987208 -0.21326841 0.15399148 0.046949547 0.09390742
-0.0002868855 0.20270604 0.04238576 0.06042018 -0.033555098 0.14389232 -0.10138397 0.25477806
0.10683904 -0.06759615 -0.021275153 -0.24058798 0.06448299 0.0628461 -0.15197441 0.024359424
-0.090141326 0.16027042 -0.23011425 0.19419898 -0.10086771 -0.25101948 0.08174507 0.25934562
0.082422085 -0.10218489 -0.24529165 0.09900292 0.14589003 -0.25768864 0.11234919 0.15931372
-0.13390097 0.28971288 0.2932235 -0.18993929 -0.21847366 -0.099675335 0.31935397 -0.13025671
-0.1497387 0.1480085 0.14882544 0.21198411 -0.053168405 -0.14339389 0.21751489 0.051210955
-0.031909466 0.18463828 -0.037600946 -0.2831646 0.28199306 0.018063357 -0.19035454 0.065684475
0.15247233 0.02865594 0.20044996 -0.20271103 0.16585708 -0.25106895 0.43952924 0.21465056
-0.08599478 0.05401897 0.27179277 0.051146466 -0.23995541 -0.13013458 -0.094503395 -0.18940984
-0.1302789 -0.52333874 -0.12821467 -0.03161354 -0.2811335 -0.13440077 0.54465216 0.0791031
0.05182199 0.24414155 -0.28513288 0.059767857 -0.8855512 -0.08848925 0.2836671 0.40569314
-0.048759773 0.04311848 -0.17528377 -0.1747288 0.10741138 -0.17199531 0.21566734 0.17753644
-0.01370212 0.034737237 0.08659386 0.12942189 -0.39353696 -0.22769038 0.051238164 0.195475
-0.089377165 0.1693684 -0.14146292 0.14559579 -0.17953758 0.09568147 0.2687861 -0.2237275
-0.096009985 -0.09912662 0.15034011 -0.0025088163 -0.39987493 -0.037471887 0.032588504 0.51745385
0.21819718 0.35559493 0.09090904 -0.100388624 0.279988 0.37444782 0.3155714 -0.16126342
0.27824455 -0.3207916 -0.029971018 0.28790936 0.47607055 0.70616657 -0.19643842 0.23314284

bilstm.weight_hh_l0_reverse f4 [64, 16]
00000000: e672 e63d 2a94 943e 344b 1cbe 1585 ce3e
00000010: 46a6 43bd f694 32bb ec91 593e 4397 8b3c
00000020: d551 25be 0d92 043e ee40 87be 90f0 cabd
00000030: 73b3 16bd 91c1 73be f501 23be 0bcb d7bc
00000040: 7a85 bbbd b6b4 d43c f188 b8be 1d33 8fbd
00000050: 9657 b7be cda8 bb3c 0121 35be 27d8 e1be
00000060: dfec 503d 1272 483d 1a59 bdbd 5428 7dbe
00000070: ba33 f7bd c7d0 13be f977 1abe 2e78 643d
00000080: 50fe 513e 927f bebd d9ed 333e 7bbd 41be
00000090: b73a 803e 3cbb 2d3e 60a4 e0bc 6e16 36bd
000000a0: 0611 8b3e 8900 3dbe e94e 27be 72a7 aabd
000000b0: 7209 ffbd 1858 03bd ce5e d0bd dc1c 5abd
000000c0: 58db b83e 2536 b53e d2eb bdbd 5fd2 af3e
000000d0: 9a8d 59bd d316 3ebe 8e38 b9be ed3d f53e
000000e0: 7aa5 98bd f38d a03e 70cc c23e 6c06 70be
000000f0: ddc0 f13d 6e29 a93e 69fc aa3d 8281 4c3d
00000100: 98f3 adbe 7da7 bf3d 6e98 a03e c5d8 4e3e
00000110: c363 b13e b3b4 12be 9fdd c33d 18fb 21bf
00000120: 6c79 633e 4d94 09bd 4593 68be 6220 8d3c
00000130: cebb 4c3e 2c97 9abe 1011 aa3e 2864 0dbe
00000140: 3a61 dc3e de5c ac3d af20 9a3e 93fb d0bc
00000150: 74e0 853d 0f44 aebe 6929 ecbc d9ff e2be
00000160: 5b07 76be 5a48 30be d23f 8b3e 4658 9d3d
00000170: f9f6 d03c 59d2 37be b311 a4be 8897 68be
00000180: 4b75 d63d 769e 5f3e 6b45 d5bb d044 813e
00000190: d799 ac3d 6867 413e 05c7 893e 516a b73c
000001a0: 7911 31be f743 563d 5f58 f3bd b636 823d
000001b0: e113 373e fdaa 293e 571e 56be 26c4 bcbd
000001c0: 7418 69be 0b2e 04be 0007 513e 0e24 bc3e
000001d0: a423 aa3d d259 b73d 075b 79be 71b1 2fbe
000001e0: 59ab c43c 66d2 003e 0e2b 48be 65cb 8e3e
000001f0: a214 3bbc a0db 93be 7092 313f 2f66 183d
00000200: a9ac 563d c5e0 7c3e 14ed 3cbe 6034 0dbe
00000210: fae8 0abe 9bc2 13be 9744 603e fb30 323c
00000220: 1d8b d2bd b103 cbbc 197f ea3d 60f9 bbbd
00000230: 7ce0 3bbc 3384 0e3e 968c 0d3d 0bc3 fabc
00000240: ce1f 2e3e 55ed 46bd f374 623e b038 14be
00000250: 16f6 06be 7f12 6f3d 869d 54be 60ca 2abe
00000260: 84c3 0dbc b203 2cbe 8a5f 46be c515 e03d
00000270: 657e b73d d925 09be f05f f1bd 709d 80be
00000280: edd6 d63d a80a f8bd 1345 363e 0d79 7dbd
00000290: 69a4 ed3d fd2b 5f3d e8ff 183e 1887 3cbe
000002a0: 68c1 743c 77ae 973d 5561 0c3c 4073 2fbe
000002b0: ac75 ca3d ef50 d9bd b1fa e2bd ae74 5abd
000002c0: 8a2c 8d3d 7db2 913e 171c d5bd 68f3 3a3b
000002d0: 82bf 8c3d ee56 e73d 6ed2 923e 3b83 84be
000002e0: 1f69 803e 3f28 89be 5331 f5bc 0377 37be
000002f0: 4cd1 223e f38b 89bd bdf9 153d 4ce4 21ba
00000300: 9a61 1cbe eba1 543e c2ed 2abe b93c 27be
00000310: a75e 59bc eb5c 65be 7520 883e 2f94 eebd
00000320: afcf 3abd 3a6e a03d 9537 053d 322f 0fbb
00000330: 5e7c 763d 4676 0dbd a0fd 71bd 155f 323d
00000340: b0a1 1d3d d1a2 cbbe 751e aabc a273 f33d
00000350: db88 0ebe 4e76 e5bc ff64 cdbd 9c02 123d
00000360: 5a23 ea3d d7e6 963c 7723 9ebe 9dcd c2bd
00000370: bc14 ecbd a9a8 643d 6a40 35be 5e3c d33e
00000380: 6f4e 5bbe 2730 1f3e ad47 57be 7469 b6bd
00000390: 2e07 38bd a8c1 eabd 1631 c93d 0bdc bbbd
000003a0: 8bd2 7cbe 8198 60be c3ad 503e 9c3e 913d
000003b0: c2e6 733e 2494 633c 8037 833e 5106 16bd
000003c0: 1846 473e d235 ef3c d0f3 b43d a15d c33c
000003d0: da02 c73d 6f3d 8d3d 06b0 cebe f950 e53d
000003e0: d35b bfbd d549 a53d 06a1 a63e 4590 b3be
000003f0: e438 79be b35c 783e 3992 82be 9c1b 903e
0.11252384 0.2901929 -0.15263063 0.4033591 -0.047765993 -0.0027249432 0.21247071 0.0170399
-0.16144498 0.12946339 -0.26416725 -0.09909165 -0.03679223 -0.23804308 -0.15918715 -0.026341936
-0.09156318 0.025965076 -0.36041978 -0.06992171 -0.3580901 0.022907639 -0.17688371 -0.44110224
0.051007148 0.04893691 -0.092455104 -0.24722415 -0.12070413 -0.14435111 -0.15084828 0.055778675
0.20507169 -0.09301676 0.175712 -0.18919937 0.25044796 0.16965955 -0.02742213 -0.044454984
0.27161425 -0.18457235 -0.16338696 -0.08332719 -0.124529734 -0.032066435 -0.101743326 -0.05325018
0.36104846 0.35392871 -0.09273495 0.34340188 -0.053113557 -0.18563394 -0.3617596 0.47898808
-0.07453437 0.313583 0.38046598 -0.2343995 0.11804364 0.3303942 0.08348925 0.049928196
-0.3397491 0.09358118 0.31366295 0.20199879 0.34646425 -0.14326744 0.09563755 -0.63273764
0.22214288 -0.033588696 -0.22712429 0.017227355 0.19993517 -0.3019346 0.33216143 -0.13807738
0.43042928 0.084161505 0.3010306 -0.025510585 0.06536952 -0.340363 -0.02882834 -0.4433582
-0.24026243 -0.172151 0.2719713 0.076828524 0.02550839 -0.17951335 -0.32044753 -0.22714055
0.104715906 0.21837792 -0.0065085194 0.25247812 0.0842778 0.18887103 0.26909652 0.022389563
-0.17291822 0.05231091 -0.1188209 0.063580915 0.17878677 0.16569133 -0.20910011 -0.092171
-0.22763234 -0.12908189 0.20412827 0.36746258 0.08307579 0.08952679 -0.2435113 -0.17157532
0.024007486 0.1258026 -0.19547674 0.27889553 -0.011418493 -0.28878498 0.6936407 0.037206825
0.052410755 0.24695118 -0.18449813 -0.1378951 -0.13565436 -0.14429705 0.21901165 0.010875936
-0.1028044 -0.024782034 0.11450023 -0.09178424 -0.011467095 0.13917617 0.0345579 -0.030610582
0.1700432 -0.04856618 0.22114925 -0.1447475 -0.13179812 0.05836725 -0.20763215 -0.16678762
-0.008652572 -0.16798285 -0.19372383 0.10941652 0.08959655 -0.13393344 -0.11785877 -0.25120115
0.104902126 -0.121114075 0.17799787 -0.06188302 0.116036244 0.05448531 0.1494137 -0.18410909
0.01493869 0.074063234 0.008568128 -0.17133808 0.098857254 -0.1061114 -0.11082972 -0.05333393
0.06893261 0.28456488 -0.10405748 0.002852643 0.06872465 0.112958774 0.2867617 -0.2588137
0.250802 -0.26788518 -0.029930746 -0.17916493 0.15900153 -0.06716146 0.036615122 -0.00061756815
-0.15271607 0.20764892 -0.1669226 -0.16331758 -0.013267196 -0.22398727 0.26587263 -0.116493575
-0.04560822 0.07833524 0.03252371 -0.00218482 0.0601772 -0.034536622 -0.059079766 0.04354771
0.038484275 -0.39772657 -0.020766476 0.118872896 -0.13919394 -0.028010514 -0.10029029 0.03564702
0.11432524 0.01842062 -0.30886433 -0.09511874 -0.11527392 0.05582491 -0.17700353 0.41256994
-0.21416639 0.15545712 -0.21023436 -0.08906832 -0.044928722 -0.11462718 0.098238155 -0.09172829
-0.24689691 -0.21933176 0.20378785 0.0709202 0.23818496 0.0138903 0.2562828 -0.036627118
0.19460332 0.029200468 0.08835566 0.023848357 0.09717341 0.06896483 -0.4036867 0.11197085
-0.09343686 0.08070723 0.32544726 -0.35071006 -0.24338108 0.24254112 -0.25502184 0.28146064

bilstm.weight_ih_l0 f4 [64, 32]
00000000: 8503 6f3d 0f99 4b3e 45be 033e 98de 22bd
00000010: 1daa 013e 7609 203d a7e9 9fbc 741a 113e
00000020: fd45 9e3e 56af b1bd d607 2cbd 338f 7b3d
00000030: 7407 dabd 240e 823e b868 62bd c64d 013e
00000040: 5407 3a3d 7308 c2bd 1a88 93bd d3cd 443e
00000050: 9114 7b3e 9789 b53c bba2 943e 5709 e53d
00000060: b663 92bd 1f85 bb3d 7d51 853e 20dd 303e
00000070: e48e 7bbd 1671 0a3e 8454 64be 3d5e a53d
00000080: 220a 863d 40a0 6e3d 229e 4abb a55f 8bbe
00000090: 29dc 66bd aa7a 6fbd 63ce 08be 5a17 42be
000000a0: 3235 503e e28d 6abe 77fc c03d e632 823e
000000b0: 986f f3bd 4121 efbd bafa eebd c8ac 34be
000000c0: 8d79 0dbe 3652 0ebe 9c82 ff3d ce6d aabd
000000d0: 74c2 6fbd 38cc cd3d 9d9b 9cbd 7176 06be
000000e0: 95a9 163e 2fac a43e c38c 2d3e 98d9 4ebe
000000f0: 3e2e bfbe 39bd bb3d 7ec9 853e f3b2 f1bd
00000100: 7b63 da3d 035d 7d3e c14c 2bbe ff9d 30be
00000110: 140c 733e c9f1 a53e 17e4 e13d 674c a93d
00000120: 5f4d 0a3e 310f 3b3e ba19 573e 3ac6 44be
00000130: ed0c 12be 9cb1 9b3d db76 ae3d 89cd 0c3e
00000140: 6bd6 12bb c455 8c3e d42e c6bd 1ce1 7a3e
00000150: 06d5 a6ba 4afb af3d d02c 853e a191 333e
00000160: c117 35be 1aa9 213e 62a8 373d e9d5 0a3e
00000170: bccc fbbb a228 81bd 5ed6 953e fbef 583e
00000180: 46a5 283e 56ac 33bd 6422 223e dcb8 80be
00000190: e074 8ebd c008 123d 9222 2b3e e915 1d3c
000001a0: 5361 2ebe a7f2 673e f359 72be adcd b83d
000001b0: c5cf ac3d dbfc 4dbe 8eb3 5f3e aeb4 263e
000001c0: bf83 623d 8982 39be 42db 62be 181b f2bd
000001d0: f94d abbd 884a 713e 8c6d 5d3d 4302 183d
000001e0: ce9d 18be 7a12 513e ff4b 8a3e 162b 2dbe
000001f0: e3e6 d53d 7605 523e c45a 2ebd 9c24 213d
00000200: 5e59 86bc a5d5 6ebe b24c 55bd 95a2 bb3e
00000210: b235 963d 2d87 65be 749e e3bd f236 263e
00000220: 9f71 c53d 8825 423e d2c9 c73d 4011 1a3e
00000230: 26e6 3a3e 167d 75bd 3327 ccbc 871d 16be
00000240: 8deb 5a3e 6e48 a83e 7e83 3abe 490a ff3d
00000250: 0720 9abd d69d 36be adfa 82bd 573a 29be
00000260: 092c cfbc 7ad8 ef3d 119b 593f e406 35be
00000270: 87f2 463e f57b 1bbe ddf0 7bbd f112 ab3d
00000280: 50a4 a33e da21 ee3c 6fe6 933c 4def 2d3f
00000290: d433 81be a3ee 80be e40a 77be af68 273c
000002a0: e5d5 6f3d 03ed c93c 6ab9 9a3e b1bf 983d
000002b0: 6412 603e f570 373e c371 c5bc afba 503e
000002c0: baf4 073e 75ba e0bd 345e 60be f4c3 d63e
000002d0: 3214 edbd 7616 ae3e 4be8 8e3d 0711 763c
000002e0: 4f5c 8abc 6c7a 643d 487d 083f 5552 47be
000002f0: a1f6 903e 2835 7d3e da03 a3be bf41 fb3d
00000300: 9e6e 963e f70a df3d 4f56 9bbe 8e89 4bbe
00000310: d55c 8bbe 6ced 203d 2e3c d6bd fe0e c2bc
00000320: 5e29 243e 01c6 44be fbd6 a7be 2ba8 19be
00000330: aa13 cabe 027d 363e 5640 df3d b65b 87be
00000340: ed46 2c3e 487e 3a3d b373 3a3d 3a89 603e
00000350: 655f 553b d69f abbe a2cf e93d 4a46 11bc
00000360: bdab 50be efc3 b83e ee0b 103f 20cf 3fbe
00000370: 7642 1b3d 8534 c3bd 025c 2bbe cff5 b93e
00000380: c1d1 333e 7452 0f3e 2514 9abc 5a99 87bd
00000390: 1263 6c3e ffb0 bf3d 9441 853e 44db 84ba
000003a0: d2f6 1d3d b238 183e 7679 b7bd 21dd f9bd
000003b0: 64e1 873e b5c9 673e 83f6 073e 024e 3a3d
000003c0: 93a0 2bbd 646a 883d 7d49 12be 5bed 243e
000003d0: f53f a53d 3695 123e 3ad7 a1bc caa9 643b
000003e0: f667 1fbe 21e8 5fbd 3d72 103e 63c5 413e
000003f0: 898b 9e3d df05 2e3e aa7b 6d3e f0b2 a33d
0.058352966 0.19882606 0.12865551 -0.039763063 0.1266255 0.039071523 -0.019520594 0.14170247
0.30912772 -0.08676021 -0.04199966 0.061415862 -0.10645953 0.25401413 -0.05527565 0.12627324
0.045417145 -0.09474268 -0.07203694 0.1921914 0.24519564 0.022160335 0.29030403 0.11183422
-0.071479246 0.0915625 0.26038733 0.17271852 -0.061415568 0.13519701 -0.22297865 0.08074615
0.065449014 0.058258295 -0.0030917008 -0.27221408 -0.056362305 -0.05846659 -0.1335998 -0.1895422
0.20332792 -0.22905686 0.09423154 0.25429457 -0.11886519 -0.116762646 -0.11668916 -0.17644036
-0.13815899 -0.13898548 0.12476084 -0.08321725 -0.058535054 0.10048717 -0.076468684 -0.1313112
0.14713128 0.32162616 0.16948228 -0.20200193 -0.37339967 0.09166951 0.2613029 -0.1180171
0.10663506 0.24742512 -0.16728498 -0.1724777 0.23735076 0.3241103 0.11029833 0.08266526
0.13506077 0.18267514 0.21005908 -0.19216242 -0.14262743 0.07602236 0.08518764 0.1375028
-0.0022405635 0.27409184 -0.096769005 0.24499935 -0.0012728281 0.085928515 0.26010752 0.17536022
-0.17684843 0.15787163 0.044838317 0.13558163 -0.0076843183 -0.06306578 0.29265112 0.21185295
0.16469297 -0.043865524 0.15833431 -0.25141037 -0.06955886 0.035652876 0.16712406 0.009587743
-0.17029314 0.22651158 -0.23667125 0.090236045 0.084380664 -0.20115988 0.21845838 0.16279861
0.055301424 -0.18116201 -0.22153953 -0.11821574 -0.083644815 0.23563588 0.05405955 0.037111532
-0.14903948 0.20417204 0.27011105 -0.16910967 0.10444429 0.20509896 -0.04256703 0.039341554
-0.016400035 -0.23323686 -0.052075095 0.36647478 0.0733446 -0.22414847 -0.11114207 0.16231897
0.09640812 0.1895963 0.09755291 0.15045643 0.18251857 -0.059933744 -0.024921035 -0.14659701
0.21378918 0.3286776 -0.18214223 0.124531336 -0.0752564 -0.17833647 -0.06395469 -0.16526161
-0.025289552 0.117112115 0.8500224 -0.1767841 0.19428454 -0.15184005 -0.061509002 0.08353222
0.31961298 0.029068876 0.018054215 0.6794327 -0.25234854 -0.25182065 -0.24125248 0.01021783
0.058553595 0.024649149 0.30219585 0.07458437 0.21882015 0.17914183 -0.024102097 0.20383714
0.1327695 -0.10973064 -0.21910936 0.41946375 -0.115761176 0.3400151 0.069779 0.015018708
-0.01688972 0.055780813 0.53316164 -0.19465001 0.28313163 0.24727309 -0.31838876 0.122683994
0.2938127 0.10890763 -0.30339286 -0.19876692 -0.27219263 0.039288923 -0.10460697 -0.02368879
0.16031405 -0.19216157 -0.32781205 -0.15005557 -0.39468127 0.17821124 0.10900943 -0.26437157
0.16823931 0.045530587 0.045520496 0.21927348 0.003255808 -0.33520383 0.11416556 -0.008866856
-0.20378013 0.36086985 0.56268203 -0.18731356 0.03790518 -0.09531502 -0.16734317 0.3632035
0.17560484 0.13996297 -0.018808434 -0.06621046 0.23084667 0.09359931 0.26026595 -0.0010136147
0.038565464 0.14865378 -0.08958714 -0.1220038 0.26539147 0.22635539 0.1327763 0.04548455
-0.041901182 0.066609174 -0.14285846 0.16106169 0.080688395 0.14314732 -0.019755948 0.0034891241
-0.15567002 -0.054664735 0.14106078 0.18922953 0.07741458 0.16994427 0.23191705 0.07993114

bilstm.weight_ih_l0_reverse f4 [64, 32]
00000000: 7730 123e a7e5 50bd 7b74 973c 86c2 793d
00000010: c025 833e 9f3e a93e 6e3c 6b3e e03d 833e
00000020: df06 903e f8a4 f1bc cf8c 3cbe 4ebb 0abe
00000030: 6550 623e b441 3dbe 2296 5c3e bfd8 b53d
00000040: 7eab 30be d636 c33d 0945 f13d b20f 7e3d
00000050: 9eb0 193e 844c 783e a7ce 573d f332 963d
00000060: 436d 01be da41 e13c 16b2 663f 4ab1 39be
00000070: 5132 463e 522c 37be e9a2 80be f2bf 8b3d
00000080: aef5 efbe 2e84 263e 5337 33be 8775 873e
00000090: 98f0 643d 293a 85be 7016 2f3e 16a8 adbe
000000a0: 7585 7b3d feff 55be fbc8 48be 946f 7fbe
000000b0: c419 bebe 5f67 9e3d c0f2 efbc 05ec 113e
000000c0: 25ec 193d 84b4 793e 80a2 fd3d 5a55 5c3e
000000d0: 437d 223e 61dd 34be cce2 813d bbd7 6abe
000000e0: e6da 5fbd d553 a4be 7dd0 22bf 8984 e5be
000000f0: b8ba 24be dfba 9ebd 1f21 3ebd 635d afbd
00000100: 4743 413e a872 073d a815 8b3e 53c5 64bc
00000110: 3a79 d0bd c6ac d9bd 1116 db3d 0fe8 2dbc
00000120: 0f17 993a 665b 7cbd 8c11 62be 99cc 18be
00000130: 4136 743e 621b bd3d 8072 57be 050b 523e
00000140: 6206 a63c 8e1c 563e 95b2 703e 93b4 773e
00000150: acdc 663e 05dc 7f3e 9a21 2e3e 4057 fc3d
00000160: df2d 373d 61b2 6e3e 4d11 da3d 93f8 2d3e
00000170: c56d 843b 817c c13d 0742 253e 01ab 4e3e
00000180: 0867 28bc 299e a7bd 7df8 85be b369 01be
00000190: 7028 c7be 5bd7 583d 5dee 8b3d 8602 88be
000001a0: 2f71 c33d a9aa c03d 1d94 b7bd 2f3a 17be
000001b0: c7c8 923d 9ae9 36be efdb 11be 9f3c e83d
000001c0: d9de 963e 6063 c53d a9c0 c1bd 6113 753e
000001d0: 78d3 6f3d d116 a5be 3558 613e d61c c73e
000001e0: c7cd 9ebe 6224 973e cb7f 16bf 0a9c 9d3e
000001f0: 44a2 dcbd 1b83 df3c 7dce 20be 13ee 90be
00000200: 0869 263e 981f c13d 0bf4 93be 75e4 c83d
00000210: d2c2 e13c a78b f9be 39a6 8ebd 33c0 7a3d
00000220: 29f6 7cbe 8b2f bdbd 48c5 003c ceb4 113e
00000230: cf2a bf3d 1abf 773e 5834 033f a35e 28bc
00000240: 52b0 b1bd 2362 96be d332 adbe 96f1 7bbe
00000250: dc19 d53d 79fb 4d3e 9e38 65be d07a 533e
00000260: 03fa 803e 2cde be3d 79b4 e03d 94f5 3b3e
00000270: 77a8 e6bd 655b 033e 1948 6dbd e838 a8be
00000280: e325 6abe 6949 0ebe 516a dabc 144a 84be
00000290: b30f 14bd 692f 1dbd 1d99 77bd ade6 acbe
000002a0: 6d47 d23e 5afe d3bd f10a abbe b170 dbbc
000002b0: 497b a7be cb83 723e 3750 73bd aca7 c2bc
000002c0: ff5f 71bd 7003 303d 429d f7bd 12d9 8a3e
000002d0: 568f 0bbe c280 733c adce 283e bb16 38bd
000002e0: 7b09 393e 723c 34be a67b 453e 209a aebd
000002f0: 9d09 b43d 7579 883d 09fd ec3d 34d9 9dbe
00000300: 79ad 29bd 7e20 c8bd dcb3 38be 3acf 853e
00000310: 0819 093e d63d ae3e 789c 8c3e d46c 65bd
00000320: 0819 b73d 0ba4 6fbd 9d3a dc3e 7d36 873e
00000330: a65e af3e 5fe7 3c3e fddc cebd 2136 50be
00000340: 5347 213e 6bc5 873e 9c9d c23d 538a 87bc
00000350: 4205 4d3d cd01 d3bd 3a6c e7bd b97b 903e
00000360: cf50 57bd 21fc cb3d ead0 303f 6b9b 823d
00000370: 8670 0b3d b600 abbd 30b7 ec3d 659a a6bd
00000380: 6aae ccbe 1676 ffbc 4de9 3dbc e771 0abe
00000390: 0ee8 26bd c435 d73d a62c dfbd e0ab 88be
000003a0: ade0 c43d 0268 89bd 360b ec3e e27d 983d
000003b0: 240d 8e3e cdc1 bebc 9e3c d63d e4e0 a3bb
000003c0: f588 f7bc b6de 56be 8553 36be dabf 073e
000003d0: 171a 9dbd 35d4 b4bd 3282 77bd eadf c2be
000003e0: a945 71bd 63db 033e fd86 913e df57 cb3d
000003f0: c2f1 a5be d095 26be 489f 313e 5527 983e
0.142763 -0.051000264 0.01848816 0.060976528 0.25614738 0.3305559 0.22972271 0.25633144
0.28130242 -0.029497609 -0.18413089 -0.13548014 0.2210098 -0.18482095 0.21541646 0.08879232
-0.17252919 0.095319435 0.117807455 0.062026687 0.1500878 0.24247938 0.052687313 0.073339365
-0.12639336 0.02749722 0.9011549 -0.18134037 0.19355132 -0.17888 -0.2512429 0.0682372
-0.46867126 0.1626136 -0.17501573 0.26456854 0.05589351 -0.26020935 0.17098403 -0.33917302
0.06140657 -0.20898435 -0.19607918 -0.24944907 -0.37129033 0.0773456 -0.029290557 0.1425019
0.03757872 0.24385267 0.1238451 0.21516934 0.15868096 -0.17662574 0.06342086 -0.22933857
-0.054652117 -0.3209521 -0.6359938 -0.4482768 -0.16086853 -0.077504866 -0.046418305 -0.08562734
0.1887332 0.03306833 0.2716496 -0.013963061 -0.10179372 -0.10628657 0.10697568 -0.010614409
0.0011679846 -0.0616106 -0.22077006 -0.14921798 0.23848821 0.092337385 -0.21039772 0.20512016
0.020266715 0.2090933 0.23505624 0.24189977 0.22545117 0.24986275 0.17005005 0.12321329
0.04472148 0.23310234 0.10647831 0.16989355 0.004041406 0.09447575 0.16138469 0.2018242
-0.010278471 -0.081844635 -0.26166144 -0.12637977 -0.3889804 0.052939754 0.068325736 -0.26564425
0.095430724 0.09407551 -0.08963797 -0.14768289 0.071672015 -0.1786255 -0.14244054 0.113396876
0.29466894 0.09638095 -0.09460575 0.23933174 0.05855128 -0.3224397 0.22006305 0.38889188
-0.3101637 0.29519945 -0.58788747 0.3078311 -0.10773137 0.027284196 -0.15703769 -0.28306636
0.16251004 0.09429854 -0.28897128 0.098092 0.027558718 -0.4873936 -0.06965298 0.06121845
-0.24703278 -0.09237584 0.0078595355 0.14229128 0.09334337 0.24193993 0.51251745 -0.010276469
-0.086762086 -0.29371747 -0.33827838 -0.24603876 0.10405323 0.2011546 -0.22384879 0.20652318
0.25190744 0.0931972 0.109719224 0.183554 -0.11262601 0.12827833 -0.057930086 -0.32855916
-0.22866015 -0.13895191 -0.026662024 -0.25837767 -0.036147784 -0.038375292 -0.060448755 -0.33769742
0.4107012 -0.10351248 -0.33406785 -0.026787134 -0.32711247 0.23683088 -0.05940267 -0.023761593
-0.05892944 0.04297203 -0.120905414 0.27118737 -0.13628897 0.014862241 0.1648509 -0.044943552
0.18070023 -0.17601183 0.1928545 -0.08525491 0.08790896 0.06663791 0.115717 -0.30829775
-0.041425202 -0.097718224 -0.18037361 0.26134664 0.13388455 0.34031552 0.27463126 -0.05601199
0.08940321 -0.058506053 0.43013468 0.2640876 0.342519 0.18447636 -0.10100744 -0.20333149
0.15749864 0.26517805 0.09502718 -0.01654545 0.050053842 -0.10303078 -0.112999395 0.28219393
-0.0525673 0.09960199 0.6906878 0.063773 0.034042858 -0.08349745 0.11558378 -0.08134917
-0.39976817 -0.031184237 -0.011591268 -0.13520013 -0.04074865 0.10508302 -0.10897188 -0.2669363
0.09613166 -0.06709291 0.46102303 0.07445885 0.277444 -0.02328577 0.104607806 -0.0050011743
-0.030216673 -0.20983395 -0.17805298 0.1325678 -0.07670992 -0.08829538 -0.0604269 -0.38061458
-0.058904324 0.12876658 0.284233 0.099288695 -0.3241101 -0.16268086 0.17345917 0.29717508

parallel_cnn_block.branches.0.0.weight f4 [1, 1, 2]
00000000: b6f0 c03e 50e3 3a3f
0.37683648 0.730031

parallel_cnn_block.branches.0.2.bias f4 [16]
00000000: f4e1 e13d 140d ea3e c87d 393f e0a3 d23e
00000010: 89f7 0bbf 3b66 523b 4e69 2d3d 55b4 b3be
00000020: 8e72 c3bd e9e1 f63e 9b42 823e 95ec 053f
00000030: 4ab7 3ebb 84b2 fe3e 70b1 9e3e 033e 0e3f
0.11029425 0.45713103 0.7245755 0.41140652 -0.54674584 0.003210439 0.042336755 -0.3509852
-0.09543334 0.4821923 0.2544144 0.5231412 -0.0029100948 0.49745572 0.3099475 0.5556337

parallel_cnn_block.branches.0.2.weight f4 [16, 1, 2]
00000000: 8ccd 03bf 9449 f23e 580a dfbd 9492 bf3e
00000010: 37e3 c0be d85d 8fbf f544 67bf db2d aabf
00000020: ce73 c3bd 8ac6 53be 34c0 143f a2ed 693e
00000030: 75f8 97be ce9f d23e f681 eebe db09 0abf
00000040: d47c 96be f29f b53e 6628 58bd 70ce 6c3c
00000050: e8f4 f2be c602 f53e 96ce 9cbe 2735 ba3e
00000060: d59c f33e 7b5d fb3e c6b0 f03e fb9f 96bd
00000070: c887 ccbe 7c66 d13e 29ec e8bd 643e 883d
-0.51485515 0.4732176 -0.10890645 0.37416518 -0.3767335 -1.1200514 -0.90339595 -1.3295244
-0.09543572 -0.20681205 0.5810578 0.22844556 -0.29681745 0.41137546 -0.46583527 -0.5392129
-0.2939211 0.3547359 -0.052772902 0.014453515 -0.47452474 0.47853678 -0.30626363 0.36368677
0.4758059 0.49094757 0.47009867 -0.073547326 -0.39947343 0.40898502 -0.11373169 0.06652525

parallel_cnn_block.branches.1.0.weight f4 [1, 1, 4]
00000000: 1889 ad3e a7b7 a5bb dc8a 1abe bf2e 97bd
0.33893657 -0.0050572935 -0.15092033 -0.07381963

parallel_cnn_block.branches.1.2.bias f4 [32]
00000000: 4176 9abe acfd 213e 1cbe 683d 6372 103e
00000010: 1589 13bf 0336 3fbe 37a2 ed3e 0ec4 c93d
00000020: e050 613d 0a38 f83d 1af4 613e 55c6 493e
00000030: d0fc 443e 2e24 32bf b16e b03e b6fd ecbe
00000040: 6e7d 9bbe 9a86 64be 2aa4 dc3b 7aef cdbd
00000050: 9670 1bbf 08a5 d73d bb53 bdbd a2b5 a33e
00000060: 8063 66be 503a b23e a9e9 33be 704c a63e
00000070: b90f 2dbe 1ca8 93be c10c 513d 65f4 fcbd
-0.30168346 0.15819424 0.056821927 0.14106135 -0.57631046 -0.18672948 0.46412823 0.098518476
0.05500877 0.121200636 0.22065774 0.19704564 0.19237065 -0.69586456 0.3445945 -0.46287316
-0.30369133 -0.22316971 0.006733437 -0.10055442 -0.6071867 0.10529524 -0.09244486 0.31974512
-0.22498894 0.34810114 -0.17569603 0.32480192 -0.16900529 -0.28839195 0.051037554 -0.12351302

parallel_cnn_block.branches.1.2.weight f4 [32, 1, 4]
00000000: 050c d6bd a79a cd3e 8c48 cebe dc65 01bf
00000010: 08ea b7be 68d4 10bf 6b3e 833a 2fb8 0a3f
00000020: 1972 033e acc5 c33e bff7 16bf 3a85 b23e
00000030: cbff 9dbe b750 1dbf b824 0e3e 9140 e13e
00000040: 6a13 3c3e ae4c bf3d ac84 063e f387 323f
00000050: bad6 c33e 9790 70bf e684 a33e f9ed d0be
00000060: 0161 0bbf a9a3 6abc 3ea5 f8be 3d6d a33d
00000070: e50c 2abd 6c3a 963e 8e78 e93c c85d 05bf
00000080: 86e1 b4be d320 173e 1dfe 1e3f 5b28 fdbe
00000090: 3fc4 c03e 2397 da3e e42c ad3d b38f ba3e
000000a0: ef38 2c3d d3be 1d3e 32f7 36bf 0748 c43d
000000b0: 8369 f4be 97d4 adbc 7e01 9c3c 60b0 d43e
000000c0: 7556 233e 6bda 9d3e 6a1f d6be 2d2a 09bf
000000d0: d06a 613d 56bf 983d e4fc dd3e 48f1 553e
000000e0: 8aa2 0cbe 7b3d fabe aaf8 76be def1 793d
000000f0: b102 743d 5a79 b8be a284 f2be d9bd f43c
00000100: 3caf 29bf 1fa6 c83e 54b8 a6bc 186f 15be
00000110: a8e0 ca3d a6a5 a93d f93c 2cbe 5a0a 033f
00000120: c5a4 cfbd 1dd5 0f3f 54b0 073f 72d6 bebe
00000130: 82b2 0a3f 65ac 8ebe e242 1d3e 6e40 ad3e
00000140: 961a 313d 2cc3 e3bc f9a6 3c3f b5a1 eb3d
00000150: f271 95be be70 193e 8d4c c7be 1436 783e
00000160: 33fe fd3e e217 b53e b843 f73e 0939 1b3f
00000170: 3b47 ddbe 2323 2c3d 3726 803e 05ce 703e
00000180: 2edf 143e c437 d63e 9817 babe 8614 d23e
00000190: 9ad1 02bf c592 02be d22a dcbe 9241 233e
000001a0: f334 da3e 7aa8 a53d 2510 153d 34af c93e
000001b0: 7427 b6bd 9c82 17bf 05f0 ad3d a4a6 aa3e
000001c0: e823 c03e e5c7 3e3d 18e4 f33e 894d 2a3f
000001d0: 0838 913d 107e 0f3f 3e4f 263f db0c d8bd
000001e0: ac8c 133e 601c 4e3e e9db 17bf 8ed3 07bf
000001f0: fb80 e43e e29c f9bb cb82 14be f0d3 053f
-0.10451511 0.40157053 -0.40289724 -0.5054605 -0.3592074 -0.56574106 0.0010013109 0.5418729
0.12836494 0.3823675 -0.5897178 0.3486727 -0.30859217 -0.61451286 0.13881195 0.43994573
0.18366781 0.09340797 0.13136548 0.6973869 0.3824976 -0.93970627 0.3193733 -0.4080656
-0.5444489 -0.014321246 -0.4856357 0.0797982 -0.041516203 0.29341447 0.028499868 -0.52096224
-0.3532831 0.14758615 0.62106496 -0.4944485 0.37649724 0.42693433 0.08455828 0.3643776
0.042046484 0.15404825 -0.7147094 0.095840506 -0.4773675 -0.021219535 0.01904368 0.41540813
0.1595095 0.30830702 -0.41820842 -0.5357998 0.055033505 0.074583694 0.43357003 0.20892823
-0.13733879 -0.4887503 -0.24118295 0.06102168 0.05957288 -0.36030084 -0.47366816 0.029875683
-0.6628301 0.3918924 -0.020351566 -0.1459316 0.09906131 0.08283548 -0.16820134 0.5118767
-0.10138849 0.5618456 0.5300343 -0.37272984 0.5417863 -0.27865902 0.15357545 0.33838218
0.043238245 -0.027803026 0.7369228 0.115054525 -0.29188496 0.14984414 -0.3892559 0.24239379
0.49608 0.35369784 0.48293853 0.60633904 -0.43218407 0.042025696 0.25029156 0.2351609
0.14538261 0.4183942 -0.36346126 0.41031283 -0.51101077 -0.127513 -0.4300142 0.15942982
0.42618522 0.08088775 0.03639235 0.39391482 -0.08894244 -0.5918367 0.08493046 0.33330262
0.37527394 0.046577353 0.4763496 0.6652456 0.07090765 0.5605173 0.64964664 -0.10549327
0.14409131 0.20128012 -0.5931993 -0.5305718 0.44629654 -0.007617579 -0.14503019 0.52276516

parallel_cnn_block.branches.2.0.weight f4 [1, 1, 8]
00000000: d14c f63c 4ce7 713e f24d babd 5cc7 cc3e
00000010: 840b 64be 9c9d eabe 2844 3abe c722 883e
0.030065926 0.23623389 -0.09096898 0.3999585 -0.22270018 -0.4582337 -0.18190062 0.26589033

parallel_cnn_block.branches.2.2.bias f4 [64]
00000000: 69d6 0b3e bcf8 3abf 01ea 4bbe 4980 973b
00000010: 4eb0 0f3b 083a bc3e 8534 eebe 5294 49bf
00000020: 7cfd 773e f2ea a63e efc0 a73e 909b 213e
00000030: 368a 81bf bd01 9a3e c4a5 3e3e 5f6d 68bf
00000040: 7cf2 713e 2652 543b 6d19 b03d 1463 abbe
00000050: f21b 81bf ac38 49bd 7d91 8abe aaec 6b3e
00000060: f55e 063c 45ab 2ebf d136 e4be 6a75 263e
00000070: 1ff6 8f3e 6e28 7ebf 6334 0a3b 3b4e 2a3e
00000080: 8410 543c 9337 8bbe 53e6 1fbf 9af4 483b
00000090: 115b 853e 034a 24bd 6d47 40be e286 9a3e
000000a0: caa2 123e 048e 1ebf 454b 563e 0828 ac3e
000000b0: 0179 883e 2565 a03e af68 c43e 20be e13c
000000c0: 0fab 0bbf c744 5fbd 0699 fa3d d2b6 83bc
000000d0: 4051 313a 2c59 843c 0e5b 6d3b ebd6 5bbf
000000e0: bb11 5f3e c63b b83d db8c 3abf 1e36 eebe
000000f0: 6307 ba3c 6794 d4bb 98a5 cabe 409f 8f3b
0.1365601 -0.7303579 -0.19913484 0.004623447 0.0021925154 0.36763024 -0.46524444 -0.78741944
0.2421779 0.32601124 0.32764384 0.15781999 -1.0120304 0.3007945 0.18617922 -0.9079189
0.23627657 0.0032397597 0.085985996 -0.33474028 -1.0086653 -0.049126312 -0.27064124 0.23039499
0.00820135 -0.68230087 -0.44573072 0.16255727 0.28117463 -0.9928044 0.0021088354 0.16631405
0.012943391 -0.27190837 -0.6246082 0.0030663372 0.2604604 -0.040109646 -0.18777247 0.30181032
0.14319912 -0.6193545 0.2092715 0.3362429 0.2665482 0.31327167 0.38361117 0.027556479
-0.5455789 -0.05450895 0.12236218 -0.016078386 0.00067641214 0.016155802 0.0036217603 -0.85874814
0.21784107 0.08995776 -0.7287118 -0.46525663 0.0227086 -0.0064874175 -0.39579463 0.0043829978

parallel_cnn_block.branches.2.2.weight f4 [64, 1, 8]
00000000: 2613 8c3c 16fa 383c cf61 a63e 3900 583e
00000010: 0584 a23c 1637 1bbe ba46 b23e 8702 86be
00000020: b286 e63d 298c 02be 5067 b63c 7b5f 8c3d
00000030: e688 21bd 5a69 d63c 3880 253a ee67 e63e
00000040: 892e 3abe 3cec ba3e 54c3 f4be e37c 28bd
00000050: dd4a 0f3f 0ae0 e03d a788 d8be dd78 533e
00000060: 88fd 073f b222 2b3d 0892 4a3d 6a77 263e
00000070: fb06 833e d0c7 91bd bd0c 873e 73b7 f3bd
00000080: a664 ecbc 4f2e 843e a44a 12bc f3cb f03d
00000090: 2835 073f 6916 db3e 48bf 083e 5da5 92be
000000a0: 6912 1b3e bfa7 b8bd c114 423e 8201 1dbe
000000b0: 8e40 f63d 8002 a4be 715e 1dbe 07b4 773e
000000c0: d488 063f da8c 443d 6dea ec3c d0c3 803d
000000d0: 7b3f cd3d 82f3 45be 3439 793e 537a 193e
000000e0: 59c9 d7bd 1cfb a1be f9c8 ce3d c390 c23b
000000f0: 187f d0be fded 5e3e eddb 9a3e 6815 253d
00000100: 9a0e 80be 4085 d53e 4237 9b3e 8117 e43e
00000110: af5d 24be c30d 493e c928 21be a7ae 2dbe
00000120: 2783 983e 6f43 a6be 6da9 75be f209 c8be
00000130: 627d b53e e3bf 37be d24e 823d e046 ddbe
00000140: d3f5 9bbc a1df 203e 1026 a43e f893 df3e
00000150: bfaf b7bd e268 26be 1534 363b e8dd 8c3c
00000160: 1700 093d 5c9f f43d 6dda bb3e f9b6 0a3e
00000170: d392 25bd 93db 7cbb 1de5 9cbe 8b89 6abe
00000180: fee4 593c e566 303e 334e dfbc 78c3 cbbd
00000190: 3135 5a3d 1244 ad3c 26ed 85bd 0f76 9c3e
000001a0: 098d 48be 4759 49be c8ca 483c da6b 2ebe
000001b0: 066d 88be b297 62be 46f7 00be 9a44 9d3e
000001c0: aea9 85be b82d 903c 1987 afbc eb42 27be
000001d0: 593e 9abe 8ef5 c93e 8968 9bbd e238 2b3e
000001e0: bb5b 96bc 4d9a ecbd 380d 8e3b a478 89be
000001f0: 311b 03be e803 1f3d a604 31bb 7747 4c3e
00000200: 6cda b93d f8fb 2dbe 70fb 44be 269c 6a3e
00000210: 6aa2 0e3e d020 f1bd cc8b 803d 88ca 8b3e
00000220: f740 7e3e c323 43be dfff 6cbe 22ff ac3e
00000230: 5309 f83e db65 ee3e 790b ae3e c008 93be
00000240: 3580 85bd 2005 8f3e 5944 45be 94b7 1abd
00000250: b95b 803e 7b1a 553e 3920 063e 050d aabe
00000260: 3af3 6dbd 0ac0 b1bd 7c52 84be 08a0 b2be
00000270: c9da 86be 8d74 e63b bd46 58be 9ba4 b0bc
00000280: 3745 cf3d f10b adbe 8179 e63d d5b1 0ebe
00000290: 5449 f83b 37df cb3c f294 113d 299e 413e
000002a0: 6c78 8d3e b377 343e 7047 923e d34b fd3e
000002b0: f61b 7e3e 0182 a1be da28 153e 3628 cf3e
000002c0: 2a87 793e ebe3 cfbe d41e 35be aa27 e73d
000002d0: dce4 7abe 154b 73bd 2e9a b63e 927e 11be
000002e0: 8caf 2f3e 3382 663e d2d2 53be b200 8e3e
000002f0: 0840 8e3e 8a36 03be d27b 31be ff1a 0f3c
00000300: d030 8fbd 9df6 ac3e 0245 8dbe 0dc0 a4bf
00000310: 05fc 98bd a3d7 853e 0609 be3e c85c 803e
00000320: d159 f0be aac4 853b d698 02be cc3e fb3d
00000330: 8cd4 b83e 5797 613e 4ead 7e3e 8517 733e
00000340: 79c7 2e3d e069 5cbd a36d d6bd e5e8 a33d
00000350: 7570 edbe fd33 df3d 2ab5 5e3e f565 673e
00000360: 19a8 053e 03d1 5dbc 1ab5 963e da71 3e3e
00000370: 4e6a 27be 5c5f a8bd 4c35 97be e52f 66be
00000380: e547 94be 51fb 9f3d 4753 be3e 9ad6 c13d
00000390: a5ab 24bd cf63 a93e d7b5 18be ba18 cfbd
000003a0: c78d d93b 3e95 7dbe bddc 573e 311f babe
000003b0: 1f79 2dbe 127a ff3d d5df 8cbd 4d7b 643e
000003c0: 54ad 1dbf d182 213e 3fb5 2a3e cd97 f13e
000003d0: 4f0d b1bd 2032 a93e 4459 18bf 2298 ba3e
000003e0: b54e b73e 0941 24bc 156c 0bbc 7e82 5abe
000003f0: 575c 033e 4d01 b3be aed3 113e b8f2 0abf
0.017098974 0.011290094 0.32496497 0.21093835 0.019838342 -0.15157732 0.34819585 -0.26173803
0.1125616 -0.1274878 0.02226606 0.06854149 -0.039437197 0.026173282 0.00063133566 0.45001167
-0.18181814 0.36508358 -0.47805274 -0.041134726 0.5597361 0.10980232 -0.42291757 0.20651574
0.53121233 0.041781135 0.049455673 0.1625649 0.25591263 -0.07118189 0.26376906 -0.119002245
-0.028856587 0.2581658 -0.0089289285 0.1175765 0.52815485 0.42790535 0.13354218 -0.28641787
0.15143742 -0.0901637 0.1895323 -0.15332606 0.120240316 -0.32033157 -0.15368058 0.24189769
0.52552533 0.04798589 0.028920377 0.06287348 0.100218736 -0.19331172 0.24338228 0.14988069
-0.10536451 -0.31636894 0.10096926 0.005937667 -0.40721965 0.21770473 0.30245915 0.040303618
-0.2501114 0.41703224 0.30315596 0.44549182 -0.16051362 0.19634156 -0.15738215 -0.16961156
0.2978756 -0.32473323 -0.23990412 -0.39070088 0.35447222 -0.17944293 0.0636269 -0.43218136
-0.019038117 0.15710308 0.3206029 0.4366758 -0.08969068 -0.16250947 0.002780204 0.017195657
0.03344735 0.11944458 0.36690083 0.13546361 -0.040423226 -0.0038583025 -0.3064355 -0.22904031
0.013299225 0.17226751 -0.027258968 -0.09949392 0.053273384 0.021150623 -0.06539373 0.30558822
-0.1958505 -0.19662963 0.012255378 -0.1703333 -0.26645678 -0.2212818 -0.12594327 0.307164
-0.26106018 0.017599925 -0.021426724 -0.16334121 -0.30125692 0.39445156 -0.07588298 0.16720918
-0.018354287 -0.11552868 0.004335072 -0.26849854 -0.12803341 0.038822085 -0.0027010827 0.19949137
0.09074864 -0.1699065 -0.19236541 0.22911128 0.13929144 -0.117738366 0.06276664 0.27302957
0.2482947 -0.19056611 -0.23144482 0.337884 0.48444614 0.46562085 0.33993128 -0.28717613
-0.06518594 0.27933598 -0.19264354 -0.03777273 0.2506998 0.20810883 0.1309823 -0.33213058
-0.058093287 -0.08679207 -0.2584418 -0.3488772 -0.26338795 0.007032937 -0.21120735 -0.021562865
0.101206236 -0.33798173 0.11253644 -0.13935025 0.007577101 0.02488671 0.035542436 0.1890799
0.27630937 0.17623787 0.28570127 0.49471912 0.24815354 -0.31544498 0.14566365 0.40460366
0.24367967 -0.40603575 -0.17687541 0.11286862 -0.24501365 -0.059397776 0.35664505 -0.14208439
0.1715681 0.22510605 -0.2068589 0.27734905 0.27783227 -0.12813774 -0.1733239 0.008734464
-0.06991732 0.337819 -0.2759171 -1.2871109 -0.07469944 0.2614108 0.3711626 0.25070786
-0.46943524 0.004082282 -0.12753615 0.12267837 0.3609966 0.22030388 0.24870798 0.2373944
0.0426707 -0.053811908 -0.1047013 0.080034055 -0.4637486 0.10898588 0.21748796 0.22597487
0.13052405 -0.013538602 0.29435045 0.18598118 -0.16349146 -0.08221313 -0.2953285 -0.22479208
-0.289611 0.07811607 0.3717291 0.0946476 -0.040202755 0.3308396 -0.14913116 -0.10112138
0.0066392156 -0.24763963 0.21080299 -0.36351922 -0.16940735 0.12474455 -0.0687863 0.2231266
-0.615926 0.15772559 0.16670702 0.47186127 -0.086451165 0.33046055 -0.5951121 0.36444193
0.35802236 -0.010025271 -0.0085096555 -0.21338841 0.12828194 -0.3496193 0.14240906 -0.5427661

parallel_cnn_block.branches.3.0.weight f4 [1, 1, 32]
00000000: af22 2bba 2c6b 3bbd 53fb 66bc 513d cabc
00000010: 380f ebbc a96e 8d3c 41aa 0b3e 914f 8d3d
00000020: 4992 093e 0030 c53d 242b 433e 8b52 b93d
00000030: b811 343e fe4f cb3d 502c b03d d671 103e
00000040: 9f5f 9a3d a894 4c3e 8360 5e3e dfc3 073e
00000050: b9d6 813e ff6a f13d d959 023e 9aa6 3b3d
00000060: 657a 003e cb40 b53b 6e9b 73bd ccd3 353d
00000070: 8d32 bfbc 39ef 5fbd 4e97 0dbc 3844 48bc
-0.00065283006 -0.045756504 -0.014098006 -0.024687441 -0.02869378 0.017264681 0.13639165 0.06899942
0.1343471 0.09628296 0.19059426 0.09048947 0.17584884 0.09927367 0.08602202 0.14105925
0.075377695 0.19978583 0.21716504 0.13258313 0.25359133 0.11787986 0.12729587 0.04581318
0.1254669 0.0055314056 -0.0594744 0.04439144 -0.023339534 -0.0546715 -0.008642031 -0.012223296

parallel_cnn_block.branches.3.2.bias f4 [16]
00000000: 4824 bd3e 1f30 4a3e 4305 133e 043c 173e
00000010: 659f 9a3e a6d1 b53d 072a 59bc 2922 623e
00000020: aaf3 a33d 9151 bd3d da74 b2bd caa2 12bc
00000030: c05d 8a3e 0f18 3b3e fb0e 2b3e 5207 7bbe
0.36941743 0.19744919 0.14357476 0.14768988 0.30199733 0.08877878 -0.013254649 0.22083344
0.080054596 0.09244073 -0.08713694 -0.008949945 0.2702465 0.18270896 0.16704933 -0.24514511
